pths/old/classifier_model_4.pth (torch, 61882 bytes, 20 tensors)

conv1.weight f4 [32, 1, 3]
00000000: 40be 47bd 6fdf 88be 7640 d43e c73c 03bf
00000010: b01c 293d c0c7 383d 2249 04bf 00fa ae3d
00000020: c4b8 3d3e 5cfb 923e 2e6d 9d3e f0a1 473e
00000030: bea3 893e 00f9 20bc 862b c7be 5866 9bbd
00000040: 50ee 47bd d939 90be 74c2 fa3e 2a25 a23e
00000050: 349e 0f3f 6896 f03e 0caf cabd 763b 80be
00000060: 3442 0f3e a035 8a3c 126e 29be a4f2 f0be
00000070: 065b 05bf 08a1 5b3e 4e56 f0be 202c 0e3f
00000080: 0006 2abb f8e6 183e 5ca8 ff3e 94ea 103e
00000090: 24db 823e 2876 2c3e 6cfc b93e 0408 273e
000000a0: 00a6 d2bc a2e0 e3be 5598 0fbf 242c 12bf
000000b0: 9edc 0b3f 40f4 563e 00a7 3fbc 7e54 01bf
000000c0: dc5f 14be c0fb fd3c 10ae a4be b54f 9dbe
000000d0: 5060 393d 0844 70be 2197 f9be 0931 91be
000000e0: 9445 b13e e203 03bf 1417 6a3e 6a27 9d3e
000000f0: e0b7 533e b94b a5be c86d d43e b283 813e
00000100: 4aa3 ad3e d244 8e3e a039 1f3d df28 eabe
00000110: 780e 593e 2860 d9bd 78d6 823d 481b b33e
00000120: 42b8 0bbf 369e 11bf 009a 903a c0af 5dbc
00000130: 46d1 893e 004f 893c 7c51 e5bd c08b 0abc
00000140: f8df c93e 2ac1 f6be 18bc 373e b060 b0be
00000150: 3a67 a93e 0097 c73b 1bc7 08bf 4c83 673e
00000160: bfa1 94be a0a4 f83c e0fa 8abc 44f8 103e
00000170: b845 e53e 9a50 b03e 5ac0 0f3f c8e7 6fbe
-0.04876542 -0.26732966 0.4145543 -0.51264614 0.041287124 0.04511237 -0.5167409 0.085437775
0.18527514 0.28707397 0.3074736 0.19495368 0.26882738 -0.009824991 -0.38900393 -0.0758788
-0.048811257 -0.28169134 0.4897648 0.3166898 0.56100774 0.4698975 -0.09896669 -0.25045365
0.13990098 0.016871274 -0.16545895 -0.4706012 -0.52092016 0.21448147 -0.46940845 0.5553608
-0.0025943518 0.14931858 0.49933136 0.14151984 0.25557816 0.16841948 0.36325395 0.16311651
-0.02571392 -0.4450732 -0.56091815 -0.57098603 0.5463351 0.20991611 -0.011697531 -0.5051955
-0.14489692 0.031003833 -0.3216405 -0.30724874 0.045257866 -0.23463452 -0.48748115 -0.28357723
0.34623396 -0.511778 0.22860366 0.30694133 0.20675611 -0.32284334 0.41490006 0.25295788
0.33913642 0.2778688 0.038873315 -0.45734307 0.21196926 -0.106140435 0.06388563 0.3498175
-0.5457803 -0.56882036 0.0011032224 -0.013530672 0.26917475 0.016761303 -0.111971825 -0.008456171
0.39428687 -0.48194247 0.17942846 -0.34448767 0.33086568 0.0060909986 -0.5342881 0.2260868
-0.29029652 0.030351937 -0.01696533 0.14157206 0.44779754 0.34436494 0.5615288 -0.23428261

conv1.bias f4 [32]
00000000: c661 33be d092 2fbd 1803 413e 102b 2abe
00000010: 943f e03e a823 ff3e c414 e83e 2279 913e
00000020: 0037 3a3b 0807 083f 6eee 04be 58f6 913e
00000030: 94df c6be 2899 613e 7d0e 01bf 4c37 65be
00000040: 38fd 9ebe dcb1 1cbe f05a 9ebe f09b 10bd
00000050: 7c91 ab3e e41a d73e 6092 0c3f 4835 f0bd
00000060: 04ea f3bd e04c fcbc 5453 5b3e a01b 8bbc
00000070: e20c 4ebe ccd3 203e 0ee6 adbe 0249 8f3e
-0.17517766 -0.04286462 0.18848836 -0.1661799 0.43798506 0.4983189 0.45328343 0.2841273
0.002841413 0.5313573 -0.12981579 0.28508258 -0.38842452 0.2203108 -0.5041273 -0.22384375
-0.31052566 -0.15302223 -0.30928755 -0.035304964 0.33509433 0.42012703 0.5491085 -0.117289126
-0.11909869 -0.030798376 0.21418506 -0.016980946 -0.20122102 0.15705794 -0.3396458 0.27985388

bn1.weight f4 [32]
00000000: 0000 803f 0000 803f 0000 803f 0000 803f
00000010: 0000 803f 0000 803f 0000 803f 0000 803f
00000020: 0000 803f 0000 803f 0000 803f 0000 803f
00000030: 0000 803f 0000 803f 0000 803f 0000 803f
00000040: 0000 803f 0000 803f 0000 803f 0000 803f
00000050: 0000 803f 0000 803f 0000 803f 0000 803f
00000060: 0000 803f 0000 803f 0000 803f 0000 803f
00000070: 0000 803f 0000 803f 0000 803f 0000 803f
1.0 1.0 1.0 1.0 1.0 1.0 1.0 1.0
1.0 1.0 1.0 1.0 1.0 1.0 1.0 1.0
1.0 1.0 1.0 1.0 1.0 1.0 1.0 1.0
1.0 1.0 1.0 1.0 1.0 1.0 1.0 1.0

bn1.bias f4 [32]
00000000: 0000 0000 0000 0000 0000 0000 0000 0000
00000010: 0000 0000 0000 0000 0000 0000 0000 0000
00000020: 0000 0000 0000 0000 0000 0000 0000 0000
00000030: 0000 0000 0000 0000 0000 0000 0000 0000
00000040: 0000 0000 0000 0000 0000 0000 0000 0000
00000050: 0000 0000 0000 0000 0000 0000 0000 0000
00000060: 0000 0000 0000 0000 0000 0000 0000 0000
00000070: 0000 0000 0000 0000 0000 0000 0000 0000
0.0 0.0 0.0 0.0 0.0 0.0 0.0 0.0
0.0 0.0 0.0 0.0 0.0 0.0 0.0 0.0
0.0 0.0 0.0 0.0 0.0 0.0 0.0 0.0
0.0 0.0 0.0 0.0 0.0 0.0 0.0 0.0

bn1.running_mean f4 [32]
00000000: e31a 1cbe baa8 11be f965 093e d72b eb3c
00000010: 9c21 ce3e 56d2 cb3e 4604 4a3f e291 9d3e
00000020: 742c 4cba 1406 ae3e db09 cbbd 4b75 f73e
00000030: 5b91 47be 8664 113e 7ac4 25bf a5d6 9abe
00000040: 3242 d5be d859 8bbe 3e97 d2be c32e b1bc
00000050: 57e2 ce3e 2bb7 223f 51c4 fc3e 9c15 21bd
00000060: dc74 c9be fa23 203d 7a07 913e b959 2ebe
00000070: 3cfb 81be 8019 133e 1727 49be 6adb e43e
-0.15244631 -0.1422452 0.13417806 0.028707428 0.40260017 0.3980891 0.7891277 0.30775362
-0.00077886065 0.33989012 -0.09913989 0.48331675 -0.19489042 0.14198503 -0.64752924 -0.30241886
-0.41652066 -0.27216983 -0.41131014 -0.021628743 0.4040706 0.6356074 0.49368528 -0.03932725
-0.3934697 0.03909681 0.28326017 -0.17026414 -0.2538699 0.14365196 -0.19643818 0.4469865

bn1.running_var f4 [32]
00000000: c8e0 193c 7641 e83b a160 033c 8225 693b
00000010: d305 bf3b 8472 193b 84d9 5d3c f6f5 f43b
00000020: 7b80 a23a f249 543c d84b 9a3c e458 bc3b
00000030: b294 a03b 6969 c73b c14c da3c 98a0 053c
00000040: 597e 893b 15e7 a23b ab7e 363c bc65 2e3c
00000050: e3be 603c e2de 893b 75f5 213c 4b97 653b
00000060: 6b1c 463c 0c6e 073b a8c3 9d3b 4ca4 663c
00000070: 315b 2c3c 8107 a63b 0d6a aa3b 714b 583c
0.009391971 0.0070878817 0.008018644 0.0035575335 0.0058295517 0.0023414204 0.013540629 0.00747561
0.0012397909 0.012957083 0.018834993 0.0057479013 0.0049005384 0.006085564 0.026647927 0.008155964
0.00419597 0.004971395 0.011138598 0.010644373 0.013717386 0.004207478 0.009885182 0.0035032805
0.012091736 0.0020664958 0.004814584 0.014077257 0.010519789 0.0050668125 0.0052006305 0.01320158

conv2.weight f4 [64, 32, 3]
00000000: 70f7 db3c f01d 853d 14f0 83bd 6052 84bd
00000010: 047c c8bd 9c0b ac3d f0eb 8bbd 9c14 113d
00000020: a6e4 b63d 80ae 9f3d ba03 883d e05e 3d3b
00000030: 7192 88bd bbc2 c6bd 23fa 61bd 0000 b43b
00000040: 848b 303d f31b 8cbd 4287 8fbd 4e8c 963d
00000050: e0f1 d63b 311b 62bd 7af3 be3d b465 9a3c
00000060: 86bb 45bd 6048 a13b 8e23 c7bd c1bb 5cbd
00000070: fece b23d b0c8 083d f218 83bd 4457 033d
00000080: 7522 25bd f427 95bd 9852 b4bd 922a 9d3d
00000090: a4dd 5a3d 9a94 93bd 2359 b0bd b876 ad3c
000000a0: 3a4e 95bd 3043 2a3d 6338 aabd e82b c73c
000000b0: c0c1 173d 6c82 9fbc e898 943c d139 72bd
000000c0: d37c b1bd 245c 143d 68c4 94bc b87b 933c
000000d0: 60a8 c1bb 8dc0 aebd 1091 babb acce 6f3d
000000e0: 809e bfbb f319 36bd 48ea 85bd 9a0e 933d
000000f0: d4eb bfbd 7052 cebb ca7c 70bd 288f d13c
00000100: 6004 263c e8c1 3e3c 8b18 6ebd 7ecb 18bd
00000110: 24bd afbd 5cff ac3d 00f8 193d 708e 22bc
00000120: 346e 8f3c abea 23bd 02a9 8f3d fc87 f3bc
00000130: 884d da3c ac9a 88bd 9891 ae3d e02c c33b
00000140: f484 a7bc 88e3 09bd d8cf 33bc 5835 3ebc
00000150: fbd7 3ebd 183d 2a3d d419 c53d 50bb 013c
00000160: 1cbc ab3c a062 f23c 21a7 cdbd 3860 c43d
00000170: 58ee f53c e4b6 6e3d 643f 17bd 5853 b7bd
00000180: 9622 69bd 2849 1c3d 5fce 76bd 64e3 8abc
00000190: 7058 d2bb 5ca7 0dbd 28f4 a3bd 72cc 823d
000001a0: e8da 033d 94a8 cd3d b236 a53d 10cf 943b
000001b0: d627 85bd 60e8 b53c b05a d6bb 8e58 ccbd
000001c0: d001 ff3c 2025 d0bd e21c cf3d d85f 4bbc
000001d0: b025 71bc 7822 373d c4ee 173d ac47 a2bc
000001e0: fd28 4ebd c6a9 803d fccc 19bd 3014 a0bb
000001f0: 7003 233c a183 abbd cd60 c2bd 1ccb bdbd
00000200: 5fef acbd 688b a5bd a607 b33d 58dc 383d
00000210: 1deb c8bd d283 80bd a8a8 dd3c 88d5 5a3c
00000220: b867 b43d 78ef 753d 525a 19bd 2699 15bd
00000230: 8646 81bd ef08 9ebd b830 703d e4d7 2cbd
00000240: 8060 9bbc 102d a83d 6c1d f3bc 3308 a8bd
00000250: a89c 43bc e71a 4fbd 1ce5 5f3d 2821 743c
00000260: 5d54 2abd 5c3f b73c 8448 fdbc e0dc 203b
00000270: daaa b83d 9492 a0bc 42dc a9bd bc82 afbc
00000280: 707e 563d cec6 803d 64ca a9bd 84ac 2a3d
00000290: 3b70 92bd 1a4f a53d 56c0 bbbd 94fe 263d
000002a0: 9027 cf3d 38e7 8abd 8c36 10bd 009a 2a3c
000002b0: 549e 263d 4835 e73c d886 e83c a83c 4bbd
000002c0: c650 9b3d dc96 b33d 084c a93d a8e5 943d
000002d0: 60d9 fd3b 28b7 c9bd c4aa 70bd 44aa 943c
000002e0: 5022 813b bddb 37bd 40af aebd 38f4 a9bc
000002f0: 024f 4ebd 7858 b33d 10be 603d 388a 54bc
00000300: 687a 023c 18ce 9b3c b85f 4abd bbe3 95bd
00000310: e84b 05bc 80ad 9e3d 03be 6abd 58aa 6b3d
00000320: 9f00 26bd a407 a83d 8abe 81bd 5c72 8f3d
00000330: e287 01bd b8c5 65bd 00b0 c53c f892 273d
00000340: 2cfc aabc 3298 a03d 5fa5 ccbd 324c b23d
00000350: cd45 bcbd a04e 0f3d 3c66 013d 9881 8b3c
00000360: f2e6 9bbd 7c63 9b3d fde6 6abd 1ead aabd
00000370: d03c 3e3c c48f ba3d 80b5 513d 5035 673d
00000380: d5a8 34bd ee9a 893d 20f0 a5bd 0876 c0bc
00000390: 94ca bebc 103d 5a3d 80c8 673c a78b 8bbd
000003a0: c453 0c3d 3e89 a53d 7a62 20bd 7263 b03d
000003b0: c456 0a3d eadf a8bd 2640 bd3d 4894 053d
000003c0: 86d4 abbd d2cb 56bd 5c35 87bd aa9c a83d
000003d0: e0d6 4c3c 0163 b1bd 10ae 92bb 4f2e 9cbd
000003e0: 8413 143d 844f 893d 805b 61bc 4eb3 96bd
000003f0: f01b a83d 4f0b 34bd 80a4 7b3c 5b7c 46bd
0.026851386 0.06499851 -0.06442276 -0.06461024 -0.09789279 0.08400652 -0.06832111 0.035420045
0.0893033 0.07796955 0.06641336 0.0028895661 -0.066685565 -0.09705111 -0.05517019 0.005493164
0.043101802 -0.068412684 -0.0700822 0.0735098 0.0065595955 -0.055201713 0.09323783 0.018847324
-0.04827454 0.004921958 -0.097235784 -0.053889994 0.08730887 0.033394516 -0.06401242 0.032065645
-0.040316064 -0.07283011 -0.08804816 0.07674135 0.05343403 -0.07206078 -0.086107515 0.021174774
-0.07290311 0.04156798 -0.08311536 0.024312928 0.03705001 -0.01947137 0.018139318 -0.05913717
-0.086663865 0.036220685 -0.01816006 0.01800333 -0.0059099644 -0.0853282 -0.0056935623 0.058546707
-0.005847752 -0.04445834 -0.06538826 0.071805194 -0.093711525 -0.0062964484 -0.058712758 0.025580958
0.010132879 0.011642911 -0.058128875 -0.03730344 -0.085809976 0.084471434 0.037590027 -0.009921655
0.017508604 -0.04001872 0.070146576 -0.029727928 0.026648298 -0.06670126 0.085238636 0.0059562773
-0.02044914 -0.033664256 -0.010974847 -0.011609398 -0.046592694 0.04156217 0.09624067 0.007918194
0.020963721 0.029588044 -0.10041643 0.09588665 0.030020878 0.058279887 -0.03692569 -0.089514434
-0.05691775 0.038155705 -0.060255405 -0.016954131 -0.006419234 -0.034583434 -0.080055535 0.06386651
0.032191187 0.10041919 0.08067073 0.0045412853 -0.06501739 0.022205532 -0.0065415725 -0.09977828
0.031128794 -0.10163331 0.10112931 -0.012412988 -0.014718458 0.044710606 0.03709294 -0.019809566
-0.05033206 0.06282382 -0.037549004 -0.004885219 0.00994955 -0.083747156 -0.094911195 -0.09267256
-0.08444094 -0.0808323 0.08741693 0.04513201 -0.09810469 -0.06275143 0.02705796 0.013356574
0.08808845 0.06004283 -0.03743965 -0.036523007 -0.063122794 -0.07716548 0.05864021 -0.042198077
-0.018966913 0.0821172 -0.029677115 -0.08204689 -0.011939205 -0.050562765 0.054661855 0.014900483
-0.04158436 0.02236908 -0.030918367 0.0024545714 0.09016962 -0.019601144 -0.08293964 -0.021424644
0.052366674 0.06287919 -0.08290556 0.04166843 -0.071503125 0.08071728 -0.091675445 0.04077013
0.10114968 -0.06782383 -0.03520827 0.010412693 0.040678337 0.028223649 0.028384611 -0.049618393
0.07583766 0.087690085 0.08266455 0.07270366 0.0077468604 -0.098493874 -0.058756605 0.018147595
0.003940858 -0.044887293 -0.0852952 -0.020746335 -0.050368316 0.087571084 0.054868758 -0.012972407
0.007963754 0.019019172 -0.04940769 -0.07318827 -0.008135773 0.07747936 -0.057310116 0.0575355
-0.040527936 0.08204582 -0.063351706 0.07004234 -0.03162373 -0.056096762 0.024131775 0.040911645
-0.020872198 0.07841529 -0.099924795 0.08705939 -0.09193001 0.034987092 0.03159164 0.017029569
-0.07612409 0.075873345 -0.057349194 -0.08333801 0.0116111785 0.09109452 0.051198483 0.056447327
-0.044106323 0.067190036 -0.08102441 -0.023493782 -0.023289956 0.05328089 0.014146924 -0.06813746
0.034259573 0.080828175 -0.039156415 0.08612718 0.033774152 -0.08245833 0.09240751 0.032612115
-0.08390145 -0.052440472 -0.06601974 0.08233006 0.012502402 -0.086614616 -0.0044763163 -0.0762602
0.036151424 0.067046195 -0.013754725 -0.073584184 0.08208454 -0.043956097 0.015359044 -0.04845844

conv2.bias f4 [64]
00000000: d350 51bd ae5c 893d 57db 6fbd d84e 743d
00000010: 9fe6 c7bd f051 82bd f096 823c 72b8 81bd
00000020: 33cd a1bd e0c0 57bc 0c07 ae3d b0e8 7a3d
00000030: 80fb 73ba 3f6e 70bd e728 49bd a41e bebd
00000040: 19b6 c9bd d0fe b4bc b018 a9bd 10fc 173c
00000050: 0891 32bd d270 a13d 7033 413d 6499 f1bc
00000060: 3c05 ce3d 60aa 2b3d a8d7 24bd b871 d83c
00000070: c437 c2bd 1000 ef3b d1d5 cfbd dad3 a7bd
00000080: 9431 8e3d 2069 733b 50ca 653d 7418 25bd
00000090: 52f5 cbbd 4aa7 96bd c0d3 253d 80b8 cf3d
000000a0: 5041 9f3b f4f2 683d 80a5 4bbd 06a3 be3d
000000b0: c07c b6ba 9cf2 9bbd d455 493d 5463 adbc
000000c0: b824 1f3c 2072 8abd 2019 f13b e0f1 003b
000000d0: 00b8 39bb 0090 633b 12e1 5cbd 80c0 a23c
000000e0: a8d9 e03c 163c b13d a856 073d df31 64bd
000000f0: a887 3f3c d433 f5bc a8c4 373c 655f cebd
-0.05110247 0.0670713 -0.05855879 0.059645504 -0.09760784 -0.063632846 0.015941113 -0.06334008
-0.07900467 -0.013168544 0.08497438 0.061257064 -0.0009307191 -0.05869889 -0.049111273 -0.09283188
-0.098491855 -0.02209416 -0.08256662 0.009276405 -0.043595344 0.07882847 0.047168195 -0.029492088
0.10059592 0.04191053 -0.04024473 0.026421413 -0.09483293 0.0072937086 -0.10148204 -0.08194704
0.0694305 0.0037141517 0.056101143 -0.040306523 -0.099589005 -0.073561266 0.040485144 0.101426125
0.004860081 0.056872323 -0.04971838 0.09308438 -0.0013922676 -0.076146334 0.049154118 -0.021165527
0.009713344 -0.06760049 0.0073577315 0.0019675419 -0.0028338432 0.0034723282 -0.05392558 0.019867182
0.027447537 0.086540386 0.033041626 -0.055711623 0.011690058 -0.02993194 0.01121632 -0.10076789

bn2.weight f4 [64]
00000000: 0000 803f 0000 803f 0000 803f 0000 803f
00000010: 0000 803f 0000 803f 0000 803f 0000 803f
00000020: 0000 803f 0000 803f 0000 803f 0000 803f
00000030: 0000 803f 0000 803f 0000 803f 0000 803f
00000040: 0000 803f 0000 803f 0000 803f 0000 803f
00000050: 0000 803f 0000 803f 0000 803f 0000 803f
00000060: 0000 803f 0000 803f 0000 803f 0000 803f
00000070: 0000 803f 0000 803f 0000 803f 0000 803f
00000080: 0000 803f 0000 803f 0000 803f 0000 803f
00000090: 0000 803f 0000 803f 0000 803f 0000 803f
000000a0: 0000 803f 0000 803f 0000 803f 0000 803f
000000b0: 0000 803f 0000 803f 0000 803f 0000 803f
000000c0: 0000 803f 0000 803f 0000 803f 0000 803f
000000d0: 0000 803f 0000 803f 0000 803f 0000 803f
000000e0: 0000 803f 0000 803f 0000 803f 0000 803f
000000f0: 0000 803f 0000 803f 0000 803f 0000 803f
1.0 1.0 1.0 1.0 1.0 1.0 1.0 1.0
1.0 1.0 1.0 1.0 1.0 1.0 1.0 1.0
1.0 1.0 1.0 1.0 1.0 1.0 1.0 1.0
1.0 1.0 1.0 1.0 1.0 1.0 1.0 1.0
1.0 1.0 1.0 1.0 1.0 1.0 1.0 1.0
1.0 1.0 1.0 1.0 1.0 1.0 1.0 1.0
1.0 1.0 1.0 1.0 1.0 1.0 1.0 1.0
1.0 1.0 1.0 1.0 1.0 1.0 1.0 1.0

bn2.bias f4 [64]
00000000: 0000 0000 0000 0000 0000 0000 0000 0000
00000010: 0000 0000 0000 0000 0000 0000 0000 0000
00000020: 0000 0000 0000 0000 0000 0000 0000 0000
00000030: 0000 0000 0000 0000 0000 0000 0000 0000
00000040: 0000 0000 0000 0000 0000 0000 0000 0000
00000050: 0000 0000 0000 0000 0000 0000 0000 0000
00000060: 0000 0000 0000 0000 0000 0000 0000 0000
00000070: 0000 0000 0000 0000 0000 0000 0000 0000
00000080: 0000 0000 0000 0000 0000 0000 0000 0000
00000090: 0000 0000 0000 0000 0000 0000 0000 0000
000000a0: 0000 0000 0000 0000 0000 0000 0000 0000
000000b0: 0000 0000 0000 0000 0000 0000 0000 0000
000000c0: 0000 0000 0000 0000 0000 0000 0000 0000
000000d0: 0000 0000 0000 0000 0000 0000 0000 0000
000000e0: 0000 0000 0000 0000 0000 0000 0000 0000
000000f0: 0000 0000 0000 0000 0000 0000 0000 0000
0.0 0.0 0.0 0.0 0.0 0.0 0.0 0.0
0.0 0.0 0.0 0.0 0.0 0.0 0.0 0.0
0.0 0.0 0.0 0.0 0.0 0.0 0.0 0.0
0.0 0.0 0.0 0.0 0.0 0.0 0.0 0.0
0.0 0.0 0.0 0.0 0.0 0.0 0.0 0.0
0.0 0.0 0.0 0.0 0.0 0.0 0.0 0.0
0.0 0.0 0.0 0.0 0.0 0.0 0.0 0.0
0.0 0.0 0.0 0.0 0.0 0.0 0.0 0.0

bn2.running_mean f4 [64]
00000000: 69a6 0bbf 1b44 81be 8987 b33e e593 3c3f
00000010: c461 923e 7a34 2f3e 2df3 5bbc 9ddb a23c
00000020: 6347 a8be 0c6a 473f 4b3d b43e bea4 b73d
00000030: 7ddf 083f c430 89bf 992c d2bb dcf4 883e
00000040: bcb0 0c3f 2405 123f b0ed 173f e79a 1a3d
00000050: cc15 42be cc55 a23e ff37 66be dc80 fabe
00000060: 76b5 01bf 9c4f 183f 1023 773e e0d3 11bf
00000070: 42f5 40bf ed3e 52bc 1a4f 0fbc 8b54 883f
00000080: c34f 2cbf db62 ba3d 0a6d b73e 0fd3 423e
00000090: 7013 74bc 81fb cd3d 9008 6abd cc16 3dbe
000000a0: 6e56 153d 7945 00bf 4bfd 94be 8730 d7be
000000b0: 7541 65be 25d5 10be 02e0 e63e 0592 f23e
000000c0: e41f 113e f09e 7cbe 0b07 ae3e a600 02be
000000d0: 1755 9a3e db79 6abd 2923 7cbd 1054 c73e
000000e0: 7d7e 5d3f 474f b83e 13e6 0ebf d04c 0d3f
000000f0: 1b4e 9e3c 7fc2 f0bd d219 0dbe bd0f e3be
-0.54550797 -0.25247273 0.35064343 0.7366317 0.28590214 0.17109862 -0.013424677 0.01988011
-0.32866964 0.7789619 0.35203013 0.08966969 0.53466016 -1.0718007 -0.006414008 0.26749313
0.54957175 0.57039094 0.5934706 0.037745383 -0.18953627 0.31706083 -0.22482298 -0.48926437
-0.5066751 0.59496474 0.24134469 -0.5696392 -0.75374234 -0.0128323855 -0.008746887 1.06508
-0.67309207 0.091008864 0.35825378 0.19025825 -0.014897212 0.10057736 -0.057137072 -0.18465728
0.03645938 -0.50106007 -0.29099497 -0.4202921 -0.22388251 -0.14143808 0.4509278 0.4737703
0.14172322 -0.24670005 0.33989748 -0.1269556 0.30143043 -0.057245117 -0.06155697 0.38931322
0.8652113 0.35997984 -0.55819815 0.5519533 0.019324353 -0.11755847 -0.13779381 -0.44347945

bn2.running_var f4 [64]
00000000: 9079 cf3d 50b0 883d ea8a b73d 9695 0c3e
00000010: f4fc cd3d 8d65 983d 064c 193d 4545 4f3e
00000020: 0bd5 0d3e a86d 303e dbe7 5c3e dd04 823d
00000030: 95b3 cd3d 5086 263e 0099 853d 72f1 0e3e
00000040: 856d 883d d453 6e3d b233 be3d 5c20 293d
00000050: 1c20 043e 7866 c73c c1fe d93d 7493 5f3d
00000060: 1100 f13d 2769 3f3e b762 943d faad 003e
00000070: bbe3 d93d a44b 6c3d 5051 bd3d b256 1a3e
00000080: 9331 773e 4b59 c43d 92d6 d13d 0744 883d
00000090: 7877 883d 0779 843d af7b b83d ec75 953d
000000a0: 860e ad3d fcaa d73d e78c 4c3d 780f 383e
000000b0: 6893 283e 5c39 833e 68c1 cb3d 5bf7 7f3e
000000c0: 72f4 ba3d 761b ac3d b762 fd3d 9323 943e
000000d0: 3569 ad3d 2abd 673d 25c7 743d 4211 c43d
000000e0: 140a ee3d 3c81 b83e 57e5 e43d 69dd 883d
000000f0: 14fd 2a3d 8db2 c13d d816 c93d 4cb5 853d
0.10130608 0.06674254 0.08962043 0.13728938 0.100580126 0.07441244 0.037426017 0.20241268
0.138508 0.1722933 0.21572821 0.06348584 0.10044018 0.16262174 0.06523323 0.13959292
0.06661514 0.058185413 0.09287204 0.041290626 0.12902874 0.024340853 0.106442936 0.05458398
0.11767591 0.18692456 0.07245391 0.12566367 0.10639139 0.057689324 0.09244025 0.15072134
0.24140005 0.09587344 0.10246004 0.066536 0.06663412 0.06468397 0.09007966 0.072978824
0.08450036 0.105306596 0.049939062 0.17974651 0.16462481 0.256297 0.09948999 0.24996702
0.091286555 0.08403675 0.12372344 0.2893339 0.08467332 0.056576885 0.05976023 0.09573604
0.11623016 0.36036098 0.111765556 0.06682856 0.04174526 0.09457884 0.0981881 0.0652872

conv3.weight f4 [32, 64, 3]
00000000: d0de 273c 5101 8abd f835 42bd 6e10 11bd
00000010: cfbf 5bbd 4b83 23bd 3ee0 113d 60ca 1b3d
00000020: 70d1 633d 8679 7cbd ca1d 4fbd 40d5 a8ba
00000030: d010 cb3b e210 1cbd 1cb7 223d 4c13 bbbc
00000040: f470 673d b2c2 63bd a492 2fbc 1047 08bc
00000050: 8a16 10bd fe70 c6bc 00a7 063c d68f 8d3d
00000060: 0d6c 12bd b19f 26bd 0c97 853d e2e8 c6bc
00000070: 8087 773a 0051 8bbd e223 113d e63b 273d
00000080: 5011 633d 5cba cebc 8ae6 c9bc 30b8 06bc
00000090: 1edc 2abd d11f 91bd 1404 92bd e92b 12bd
000000a0: 0b7c 4fbd cc6e 68bc b96e 87bd c7a4 3abd
000000b0: feaa a3bc 28ec a03c aad6 7bbd 1493 b13c
000000c0: 60af e43b 87bd 50bd b478 c43c 008f 9239
000000d0: a6cf 0c3d 008d e9bb 2687 033d e807 6b3d
000000e0: 68dc 59bd 4c49 733d f48b 8fbd 469f 38bd
000000f0: 3cbd 8d3d 8691 4dbd b8e9 033d bfae 84bd
00000100: 5cdb 903d 1cc6 a2bc 482d 6b3d 3075 05bd
00000110: a824 b03c f6ce 62bd 50c0 87bd 2547 85bd
00000120: 2887 cb3c aefd 813d a802 25bc 1cb7 813d
00000130: 77ff 6cbd 4e50 46bd 5c9f b63c ec41 5bbd
00000140: c09a b6bc 9b31 88bd d401 a33c 48c2 0ebd
00000150: fcd6 993c ac66 c33c 6cc4 023d 38fc 90bd
00000160: 8003 9abc 9e7a 183d 746c 863d b4ce 673d
00000170: 3c3b 913c 4e0d 3b3d d71a 90bd 0356 6cbd
00000180: 00aa 323b 820b 20bd d039 1abc e21a 8b3d
00000190: 78eb 7abd 784e 253c 30f3 4d3d 50d7 893c
000001a0: c07e 81bc daf8 05bd 988a 8c3d 8003 4b3b
000001b0: 5e20 e7bc 5028 983c 608a 73bb 2066 673d
000001c0: 9276 b0bc 18e7 963c b835 8d3d ec93 6c3d
000001d0: 988b 60bc b631 893d 8675 463d 1051 a3bb
000001e0: 48f0 733d da3f 1a3d d2e7 8ebd 98b7 103c
000001f0: b66a 3fbd dacf bcbc 708f 93bd a43c 9d3c
00000200: 202c 29bd 5843 fd3c 215f 32bd 040d b43c
00000210: 74e3 89bd 9884 6ebc 6a4d 42bd 3aa0 383d
00000220: d1a4 88bd 340e 873d d89e 683d 5699 abbc
00000230: 130d 8ebd 4984 32bd 2e12 7ebd 06eb 3c3d
00000240: a886 b6bc 20b6 5f3d 50b7 13bc a0df 7d3c
00000250: d088 123c 72d7 8f3d f8be 693d b4d4 fd3c
00000260: 3e2a 6cbd 74ad 653d 6832 e3bc 78f5 6abc
00000270: 684d 2a3d 6e4d 913d 10a1 4a3d 18a7 7b3d
00000280: 60c5 ffbb 7bbf 70bd 446b 7fbc d4d1 3b3d
00000290: b8c4 7c3d 3c51 67bc c002 8a3d b063 f03b
000002a0: 50d2 34bd a026 30bd 08ac 473c e0c2 2ebc
000002b0: 5f46 8cbd b863 7bbd aee1 d1bc 3064 853d
000002c0: 1405 80bd a795 4dbd 62d8 98bc 02a6 91bd
000002d0: 1706 7fbd 120c 6ebd 1855 603c b6eb 46bd
000002e0: 60d8 3d3c 11ba 1ebd bc01 f93c fe4e 863d
000002f0: 378a 4ebd 6974 28bd ba09 58bd d436 523d
00000300: e0d2 5d3c 169c b0bc 3704 41bd 8a7f 303d
00000310: e8ad 933c 8817 403d 42ec 5dbd a274 0d3d
00000320: e467 d13c b093 10bc 4535 89bd aea2 273d
00000330: 54ca 503d a0f8 623b 144d 363d a8c7 7d3d
00000340: 1c67 e63c 71da 8fbd 48ab 53bd 489d 5d3c
00000350: 9a0f 5fbd 1885 de3c 290e 1fbd c0d3 4d3c
00000360: f3b3 5ebd 3169 8ebd e873 623d e496 703d
00000370: 38a2 483d f4a2 ad3c c0c6 ba3a 0f11 18bd
00000380: 4af6 4dbd f868 09bc e27a 8fbc 7072 f73c
00000390: 186a 09bd 50f4 7a3c f6f6 cabc 0000 813c
000003a0: 102b d43b 1c9e 83bc 80a0 cc3a 268b 46bd
000003b0: d867 a2bc 4cb6 8e3c b034 cb3b 000c 0cbb
000003c0: 9ae4 38bd 0dbf 87bd d84d 893d dd07 16bd
000003d0: c870 19bc 431f 92bd 7061 773d f012 b93c
000003e0: e0d7 893b 782c 90bd a446 52bd ce4a 893d
000003f0: 806b 25ba 0a99 553d 58db 85bc e0b8 2fbd
0.010245994 -0.06738532 -0.04741475 -0.03541606 -0.05364972 -0.039920133 0.035614245 0.038034797
0.055619657 -0.06163933 -0.05056552 -0.0012880936 0.0061970726 -0.03810204 0.039725408 -0.02283635
0.056504205 -0.055605598 -0.010716114 -0.008317724 -0.035177745 -0.0242238 0.008218527 0.069122
-0.035747577 -0.040679637 0.065229505 -0.024280969 0.00094424933 -0.06802559 0.03543461 0.040828608
0.055436432 -0.025235347 -0.024646062 -0.008222625 -0.041713826 -0.070861466 -0.07129684 -0.035686407
-0.050655406 -0.014186572 -0.066129155 -0.0455673 -0.019978996 0.019643858 -0.061484016 0.021676578
0.006978914 -0.050961997 0.023983337 0.00027953833 0.034377716 -0.007127404 0.03211131 0.057380587
-0.05318871 0.059396073 -0.07009116 -0.04507377 0.06920859 -0.05018761 0.032205313 -0.06478643
0.070730895 -0.019869857 0.05741623 -0.03258246 0.021501854 -0.055373155 -0.066284776 -0.0650771
0.024844721 0.06347214 -0.010071434 0.063337535 -0.057860818 -0.04841643 0.022292785 -0.053529665
-0.022290587 -0.066500865 0.019898333 -0.03485325 0.01877927 0.023852669 0.031925604 -0.07079357
-0.018800497 0.03722631 0.065636545 0.05659361 0.01772844 0.045666985 -0.07036369 -0.057699215
0.0027261972 -0.039073475 -0.009413198 0.06792237 -0.061259717 0.010089509 0.05028075 0.016826302
-0.01580751 -0.032708026 0.06862372 0.0030977428 -0.028213676 0.01857391 -0.0037161335 0.05649388
-0.021540914 0.018420741 0.06895012 0.057758257 -0.013705157 0.06698935 0.048451923 -0.0049840286
0.059555322 0.03765855 -0.0697781 0.008832835 -0.046732627 -0.02304833 -0.07205093 0.019193955
-0.041301847 0.030915901 -0.043547753 0.021978863 -0.06732836 -0.01455798 -0.04743711 0.04507468
-0.06672061 0.06594506 0.05679211 -0.02094714 -0.069360875 -0.04358319 -0.062029056 0.046122573
-0.022281006 0.054617047 -0.009015873 0.015495211 0.008943751 0.07023515 0.057066888 0.030985214
-0.057657473 0.05607362 -0.027733997 -0.014340751 0.041577727 0.07094847 0.049470007 0.06143865
-0.0078055114 -0.05877636 -0.015589539 0.045854405 0.061711043 -0.014118489 0.06738806 0.0073361024
-0.044145882 -0.043005586 0.012187012 -0.010666579 -0.0684936 -0.061374396 -0.025620308 0.0651325
-0.062509686 -0.050191548 -0.018657867 -0.071117416 -0.062261667 -0.05811698 0.013692163 -0.048564635
0.011587232 -0.038751666 0.030396335 0.06558035 -0.05042478 -0.041126642 -0.05274365 0.05132182
0.013539046 -0.021558803 -0.04712316 0.04309038 0.01802726 0.04689744 -0.05418039 0.034535058
0.025562234 -0.008824274 -0.066996135 0.040926628 0.050974205 0.0034633055 0.0445071 0.061957985
0.028125338 -0.07024086 -0.05167702 0.013526268 -0.05445824 0.027163073 -0.038831864 0.012562692
-0.05437083 -0.069536574 0.055286318 0.05873765 0.04898283 0.021195866 0.0014249906 -0.037125643
-0.050283708 -0.008386843 -0.01751465 0.030205935 -0.033548445 0.015317038 -0.024775963 0.01574707
0.00647486 -0.016066603 0.0015611798 -0.048472546 -0.019824907 0.01742091 0.006201349 -0.0021369457
-0.045139886 -0.06628237 0.06704301 -0.036628593 -0.009365268 -0.07134869 0.060395658 0.022592038
0.0042066425 -0.07039732 -0.0513369 0.06703721 -0.0006310269 0.052147903 -0.016339943 -0.04290092

conv3.bias f4 [32]
00000000: 0080 ec36 4a31 14bd 8ac9 7cbd 9661 493d
00000010: 7e46 3b3d ee3c 1d3d 0688 b4bc 92cf 75bd
00000020: 1edf bbbc a577 89bd 0c67 85bc 80bf 853d
00000030: 00cb 133c f8fc 923d 46c5 81bc d83d 1fbd
00000040: 28a7 69bd c4be 8f3d 8dcb 89bd 7eb0 34bd
00000050: ca6c f1bc c0fa c53c 96e1 453d b202 013d
00000060: 60e5 913b 6c3c 883d 1cc9 353d da45 0bbd
00000070: c020 f9ba e81b 793d 466d 2fbd 00c4 603a
7.0482492e-06 -0.03617982 -0.06171564 0.04916533 0.045721523 0.038388185 -0.022037517 -0.060012408
-0.022933539 -0.067122735 -0.016284488 0.06530666 0.009020567 0.07177156 -0.015841138 -0.03887734
-0.05704418 0.070188075 -0.06728277 -0.04411363 -0.02947082 0.024167418 0.04831084 0.03149671
0.0044523925 0.066521496 0.044381246 -0.034002163 -0.0019006953 0.06081763 -0.04282882 0.0008574128

bn3.weight f4 [32]
00000000: 0000 803f 0000 803f 0000 803f 0000 803f
00000010: 0000 803f 0000 803f 0000 803f 0000 803f
00000020: 0000 803f 0000 803f 0000 803f 0000 803f
00000030: 0000 803f 0000 803f 0000 803f 0000 803f
00000040: 0000 803f 0000 803f 0000 803f 0000 803f
00000050: 0000 803f 0000 803f 0000 803f 0000 803f
00000060: 0000 803f 0000 803f 0000 803f 0000 803f
00000070: 0000 803f 0000 803f 0000 803f 0000 803f
1.0 1.0 1.0 1.0 1.0 1.0 1.0 1.0
1.0 1.0 1.0 1.0 1.0 1.0 1.0 1.0
1.0 1.0 1.0 1.0 1.0 1.0 1.0 1.0
1.0 1.0 1.0 1.0 1.0 1.0 1.0 1.0

bn3.bias f4 [32]
00000000: 0000 0000 0000 0000 0000 0000 0000 0000
00000010: 0000 0000 0000 0000 0000 0000 0000 0000
00000020: 0000 0000 0000 0000 0000 0000 0000 0000
00000030: 0000 0000 0000 0000 0000 0000 0000 0000
00000040: 0000 0000 0000 0000 0000 0000 0000 0000
00000050: 0000 0000 0000 0000 0000 0000 0000 0000
00000060: 0000 0000 0000 0000 0000 0000 0000 0000
00000070: 0000 0000 0000 0000 0000 0000 0000 0000
0.0 0.0 0.0 0.0 0.0 0.0 0.0 0.0
0.0 0.0 0.0 0.0 0.0 0.0 0.0 0.0
0.0 0.0 0.0 0.0 0.0 0.0 0.0 0.0
0.0 0.0 0.0 0.0 0.0 0.0 0.0 0.0

bn3.running_mean f4 [32]
00000000: 030c 0abf 063d 06bd 2e79 813e dd63 afbd
00000010: 3e0e 893e c5b7 ec3e 45ae cbbc 2ca4 6dbf
00000020: 1471 a7be 6b70 0cbf d166 acbd e2f5 31be
00000030: 2092 e93c f313 d03e 6f93 083f f9f3 43be
00000040: 9270 83be b57d db3b 5bb6 ca3e c42a d13d
00000050: 2821 a73e 4e17 d4bd d834 3e3c d4ab c43e
00000060: 022e 28be 8a5b fbbd 065e 5f3e 5b0a 3ebf
00000070: e87b cd3d 9e49 a13e e744 413f 0a84 993e
-0.5392458 -0.03277304 0.25287765 -0.08563969 0.26768678 0.46233955 -0.024863372 -0.9282863
-0.3270346 -0.54859036 -0.08418048 -0.17378953 0.02851206 0.4064022 0.53349966 -0.19136037
-0.25671822 0.006698335 0.3959225 0.10213235 0.32642484 -0.103560075 0.011609279 0.38412344
-0.164238 -0.12273319 0.21813211 -0.7423455 0.10033399 0.31501478 0.7549576 0.2998355

bn3.running_var f4 [32]
00000000: 15d6 193e b240 9f3d 9de4 183e 4e28 483e
00000010: 6e14 2f3e 923f fb3d 418b 013e 3f08 fc3d
00000020: 3c8c 843e c339 163e 30f2 073e 1489 bd3d
00000030: 1a4f f63d 53ee 653e 9646 df3d 750f 953d
00000040: 5658 e03d 26a1 9e3d 2f40 083e 1b29 943d
00000050: 514f 313e db1c 5d3e bf96 e13d 2d3c d23d
00000060: a5b7 2b3e eafb d63d 9aa5 1c3e 7ba0 003e
00000070: 3c92 af3d 91dc d23d 7397 da3d 4875 1e3e
0.15023072 0.077760115 0.14930959 0.19546625 0.17097637 0.122679844 0.12650777 0.1230626
0.2588824 0.14670472 0.13275981 0.09254661 0.12026806 0.22454195 0.10902135 0.07278339
0.10954349 0.077455804 0.13305734 0.07234403 0.17315413 0.21593039 0.11015081 0.10265384
0.16769274 0.104972675 0.15297547 0.12561218 0.08572814 0.10295976 0.10673418 0.15474427

fc1.weight f4 [4, 128]
00000000: 207b 2abc 485d adbd ee40 673d bab7 3e3d
00000010: 16df 3d3d 4a95 37bd cbfa aa3d 17e5 5dbd
00000020: 256d 3cbd e0b9 a2bd e368 9e3d 42ba 3a3d
00000030: 009d bcbc 9ae8 95bd 789b 563c 6fcd aabd
00000040: 5b1e 863d 0e41 81bd 2876 f83c e023 763b
00000050: a939 933d 3441 1dbd a846 0fbc a1f7 89bd
00000060: cfcd 2bbd dfe4 ae3d eb20 a33d 3ee3 0e3d
00000070: 095e 95bd 5290 3c3d 0a2a b2bd 31b0 78bd
00000080: 6766 9abd 9024 02bd a3ca 03bd dec5 85bd
00000090: 833e 63bd 0922 23bd 63fc 21bd 5aa1 1f3d
000000a0: 2164 873d 4484 953c 085e 593c 7ff7 903d
000000b0: 6026 39bc 08e5 5ebd e422 94bd c4c5 83bd
000000c0: cceb b53c 6532 8d3d 983c 28bc b053 5ebc
000000d0: 7fee 993d b152 34bd 6743 8d3d 1ba4 76bd
000000e0: c1e9 9b3d 77b6 b2bd bebd 7dbd 6cd2 103d
000000f0: fef7 533d 9bea 15bd bdcb 17bd 03ce 983d
00000100: 86d6 643d f68a b2bd bfe8 8e3d 081d 933c
00000110: d983 90bd d8d1 2cbc 6024 35bb d2fb 093d
00000120: 0eff 8ebd dcfb d7bc 3ccb c0bc 5e85 eebc
00000130: d4d4 c03c 008a 273c aedd 003d 6cf8 8dbc
00000140: 00a7 8cb9 a027 b03c da9a 2f3d ce5b 4ebd
00000150: e0f7 0dbd d4ec ed3c 6fe0 4bbd ce8e 573d
00000160: f0f5 713c 83a3 9c3d d912 973d f953 15bd
00000170: 8aa4 483d b0b1 263c de1d 0a3d c45b ba3c
00000180: 48e4 453c 00f7 2d3b f0de 443c db72 a6bd
00000190: 7ed6 53bd 00ec 983b 09b5 0cbd 706c 843c
000001a0: 34c3 d7bc 589b 833c 4e8d 7c3d e897 013d
000001b0: ba66 583d 3644 59bd f045 903b 2e45 9ebd
000001c0: 0c8f 113d 4762 a2bd a238 413d 90e0 a63c
000001d0: 60a5 473b 143c 873c 7ce0 da3c 8fdd 8f3d
000001e0: 6c78 58bd 2538 60bd 5a73 ebbc 686f afbd
000001f0: 40d7 86bc 72b0 6cbd 405b 3f3b b0f6 d23b
00000200: e531 8e3d b205 34bd 304b abbd 94cf a83c
00000210: bc02 9d3c cd86 99bd 00e0 853c 3baa a83d
00000220: 5f6c 97bd 4bb7 88bd 806b cc3a aa48 4a3d
00000230: 9f66 983d 2100 4bbd 3e59 aebd d0c9 093d
00000240: f0e5 e4bc b0d7 b5bb 0ba7 a0bd 0eac 55bd
00000250: 5c79 f8bc 4b5e 6fbd a008 6a3b 185a fbbc
00000260: 2e30 583d 9604 4d3d 44fd 093d a3f5 883d
00000270: 0061 9abd 918f 2abd b8a2 a4bc f92c ab3d
00000280: 0738 973d 50d4 08bc 4885 10bc 688e 80bd
00000290: 1fff 9b3d 18b0 cdbc 9c1f 9dbc e507 a83d
000002a0: 0051 98ba 1755 08bd b885 07bc 0d02 ac3d
000002b0: 9584 963d fa3d a8bd 060f 3b3d c668 febc
000002c0: ee32 2a3d 6703 803d a951 8b3d a406 61bd
000002d0: e17d 45bd 922a 073d fd9a ad3d 0064 7e3a
000002e0: 9c20 bebc b5a5 8b3d a8d8 08bd c2f3 7bbd
000002f0: f4ab 153d 38ec 0fbd 55e1 8d3d 807c 523a
00000300: 38c6 3cbd bc05 92bc 2eb2 513d 4a7b a0bd
00000310: b076 bcbb 8e6b 6d3d c255 6f3d f844 ab3c
00000320: bcd5 a6bc 2f3f 09bd 829c 723d 709d a0bb
00000330: d00a a63c ec8d 083d d44d 8e3c 485e f5bc
00000340: 4069 cf3b 1d5a 8ebd 31ae 883d 3064 b9bc
00000350: ba6c 433d 9ab6 6e3d a61e 483d e51a 8a3d
00000360: 4500 933d 9143 60bd 370a 90bd 4cc8 a23c
00000370: 6153 ab3d 967d 46bd 3f39 a43d 00ea 0c39
00000380: 835a 9c3d 0868 513c ffd7 913d b2ec 8abd
00000390: 26d4 483d 9edb 243d e58f 89bd fb4b a23d
000003a0: 00a6 34ba 1e9e 713d f8da 3cbc 9224 95bd
000003b0: c232 703d e0bf 08bc 3e79 3ebd 6d5d 813d
000003c0: 66c3 0e3d e2f4 4b3d 72c8 523d 4a7d 073d
000003d0: 9109 a53d 8845 5a3c c8e2 11bc fb94 30bd
000003e0: b1a2 8f3d 0399 a23d e640 5dbd 504b 8fbb
000003f0: 5541 86bd d274 443d 70dd 5ebc d4fd c3bc
-0.010405332 -0.084650576 0.056458406 0.046561934 0.04635533 -0.044820108 0.08348616 -0.054173555
-0.046002526 -0.07945609 0.07734849 0.045587786 -0.023024082 -0.07319756 0.01309859 -0.083399646
0.065487586 -0.06311236 0.030329779 0.0037558004 0.07188732 -0.03839226 -0.008744873 -0.067366846
-0.04194432 0.085397474 0.07965263 0.034884684 -0.072933264 0.046036072 -0.086994246 -0.060714904
-0.07539063 -0.03177315 -0.03217567 -0.06531881 -0.055479538 -0.03982738 -0.039547335 0.038972236
0.06610895 0.018251546 0.013267048 0.07078456 -0.011300653 -0.05441764 -0.07233217 -0.06434205
0.022207163 0.068943776 -0.010268353 -0.013569757 0.07516193 -0.044024173 0.068976216 -0.060215097
0.076129444 -0.08726209 -0.06194853 0.035356924 0.051750176 -0.03660069 -0.037059534 0.074611686
0.055868648 -0.08717911 0.069779865 0.01795818 -0.07056398 -0.0105480775 -0.002764009 0.03368742
-0.069822416 -0.026365213 -0.02353441 -0.029116329 0.023538984 0.010225773 0.03146141 -0.01733037
-0.00026827306 0.02150327 0.042872287 -0.05038052 -0.03466022 0.029043593 -0.049774583 0.052626424
0.014768109 0.07648375 0.07376642 -0.036457036 0.04898504 0.0101742 0.03371989 0.022748835
0.012078352 0.0026544929 0.012016043 -0.08127376 -0.051718228 0.0046668053 -0.034352336 0.016164988
-0.026338197 0.016065285 0.061658196 0.03163901 0.052832343 -0.053043567 0.0044028684 -0.07728039
0.03553681 -0.07928901 0.04717315 0.020370752 0.0030463561 0.01650814 0.02671837 0.07024681
-0.05284922 -0.054741044 -0.028741527 -0.08566171 -0.016460061 -0.05778546 0.0029198676 0.006438099
0.069431104 -0.043950744 -0.0836395 0.020606793 0.019166343 -0.07496414 0.016342163 0.08235594
-0.07393717 -0.06675585 0.0015596002 0.049385704 0.074414484 -0.04956067 -0.08513115 0.03363973
-0.027941674 -0.0055493936 -0.07844361 -0.052166037 -0.030331306 -0.058439534 0.0035710707 -0.030682608
0.052780323 0.0500532 0.0336888 0.066874765 -0.075380325 -0.04164082 -0.020097122 0.08358187
0.07383733 -0.0083514005 -0.008820839 -0.06277162 0.0761702 -0.025108382 -0.019180112 0.08204631
-0.001162082 -0.033284273 -0.008271627 0.08398829 0.07349507 -0.08214946 0.045668624 -0.03105582
0.041552477 0.06250649 0.06802685 -0.054937974 -0.04821575 0.032999583 0.08476827 0.0009704232
-0.023208909 0.068187155 -0.033409745 -0.061511762 0.03654094 -0.035137385 0.06927744 0.0008029416
-0.046087474 -0.017825 0.051195316 -0.078360155 -0.0057514533 0.0579639 0.058431394 0.02090691
-0.020365588 -0.033507522 0.05923129 -0.0049015805 0.020268828 0.033338472 0.017371096 -0.029952183
0.0063296854 -0.069507815 0.066738494 -0.022630781 0.04771111 0.05827961 0.048857354 0.06743411
0.07177786 -0.054751936 -0.07033198 0.0198709 0.08365513 -0.04845961 0.08018731 0.00013438612
0.07634451 0.012781151 0.07121276 -0.06783427 0.049030446 0.040248506 -0.06716899 0.079246484
-0.0006891191 0.058988683 -0.011526816 -0.07282366 0.058642156 -0.008346528 -0.046502344 0.06316648
0.034854315 0.049794085 0.05146069 0.03307847 0.08058465 0.013322242 -0.0089041665 -0.04311083
0.07013453 0.07939341 -0.05401697 -0.0043729916 -0.0655543 0.04796297 -0.0136025995 -0.023924746

fc1.bias f4 [4]
00000000: 88f7 a3bc 1c7b cebc 46c9 7cbd 3e10 363d
-0.020015493 -0.025205187 -0.061715387 0.044449084
