old/pths/denoiser_model_3.pth (torch, 166322 bytes, 17 tensors)

conv1.weight f4 [32, 1, 3]
000000 03 85 e9 3e 79 df fb 3e cb 70 24 bd d2 bf 14 3f
       0.45609292 0.49193934 -0.04014663 0.58105195
000010 b5 c5 ce bd ed 88 be 3d 7c 38 a0 be 77 c5 97 3e
       -0.100963034 0.0930346 -0.31293094 0.2964284
000020 d4 ff 05 3f f1 b3 d5 be 30 9a 00 3f cc bb 02 3e
       0.5234349 -0.41738847 0.5023527 0.12766951
000030 82 ef ee 3e 75 9b 92 3d b1 c2 74 3e cc 8a e9 bd
       0.46667105 0.07158557 0.23902394 -0.114034265
000040 09 b6 dc 3e 9f d2 8a 3d a9 10 72 be c1 53 0c 3e
       0.43107632 0.06778454 -0.23639168 0.13703825
000050 2b db 9e be 0e 16 a6 bd 60 25 71 be 0c ea c0 3e
       -0.31026587 -0.08109675 -0.23549414 0.37678564
000060 2b 05 da be a0 e5 8f be d6 90 41 be f5 05 98 be
       -0.42582068 -0.28104877 -0.18902907 -0.29692045
000070 f9 51 11 3c c1 0e 20 bf c5 a2 04 3f 7e a7 00 bf
       0.008869641 -0.6252251 0.51810867 -0.5025557
000080 d3 35 e4 3e 95 73 08 3e 67 49 30 be 9f bb b1 3e
       0.44572315 0.13325341 -0.17215501 0.34713456
000090 38 79 11 3e 7a 7c da 3e c2 9b 26 3d 17 cf 5d be
       0.14206398 0.42673093 0.040675886 -0.2166103
0000a0 aa 21 cf 3d 21 b1 29 be 5e 8b 63 3e a1 01 f9 3e
       0.10113843 -0.16571476 0.22221133 0.48634055
0000b0 95 a1 b8 3e 8d 5f 91 be 59 77 90 3e ca 89 0a 3e
       0.36060777 -0.28393212 0.28216055 0.13529125
0000c0 bc 46 9a 3e a5 aa a4 be 6c db 17 bf 1c 73 9d be
       0.3013209 -0.3216144 -0.59319186 -0.30751884
0000d0 da 4b c6 be 24 a5 ea 3e 95 7d 4f 3e 23 f0 4f 3e
       -0.38729745 0.45829117 0.2026275 0.20306449
0000e0 f7 b3 3d 3e 51 4d 94 bb f2 3b e2 3e fe 0e d8 be
       0.18525682 -0.0045258184 0.4418636 -0.42198938
0000f0 3c ae a3 3c d2 86 f0 be cd 59 cd 3d c3 27 82 be
       0.019980542 -0.4697786 0.10026894 -0.2542096
000100 76 f8 19 3e ff 64 a4 bd 1f 78 eb 3e 3a a5 95 be
       0.15036187 -0.08027076 0.45990083 -0.2922762
000110 80 cf cd be 0a c2 a3 be 65 fe 00 3f a7 6e 78 3e
       -0.40197372 -0.31983978 0.50388175 0.2426096
000120 29 85 13 3f ce b3 06 bf 5e cb 01 bf f2 f9 f3 be
       0.5762506 -0.5261811 -0.5070094 -0.4765163
000130 6f 37 ca be 5e 84 52 3e be b0 7c 3e e8 67 d7 3e
       -0.39495417 0.20558307 0.24676797 0.42071462
000140 1d 8b a2 be 77 33 c1 be e1 8f a3 3e 2d 37 79 be
       -0.3174676 -0.37734577 0.31945708 -0.24337454
000150 7a b1 bd 3e 53 c5 51 be b8 cd 8d 3e 5d f9 fb be
       0.37049466 -0.2048543 0.27696013 -0.49213687
000160 d1 14 76 be 41 15 3f 3e ec 79 ed 3d 9c 40 f3 bd
       -0.24031378 0.18660451 0.115955204 -0.11877558
000170 9d f6 bc 3e a1 28 bc 3e 96 19 e7 be ff 49 99 be
       0.369069 0.36749747 -0.45136708 -0.29939267

conv1.bias f4 [32]
000000 de 6f 07 3f f5 4c 46 be 49 4c 52 be a0 27 0f bf
       0.5290507 -0.19365294 -0.20536913 -0.5591984
000010 9f f9 a8 be 74 96 12 3e 82 11 a0 bd 81 09 d8 be
       -0.33002946 0.14315206 -0.07815839 -0.4219475
000020 8b 2c 57 3c 5f a3 ca be 0a 2f fd be 5a 12 a3 be
       0.013133178 -0.39577767 -0.4944995 -0.3184994
000030 00 d0 01 bf c0 c5 b9 be a0 4c 14 3f 9a 2d db 3d
       -0.5070801 -0.36283684 0.5792942 0.10702057
000040 5d 79 37 3e 5d b6 08 bf 5f 37 c1 be 80 a9 43 be
       0.1791739 -0.53403264 -0.37737557 -0.19107628
000050 ca 4a b2 3d 94 e6 00 bf a4 36 7c be ac 83 b2 be
       0.08705671 -0.50351834 -0.24630219 -0.34866083
000060 da 44 9a 3b 04 8c 5a be 8e c8 22 bd 93 0d c7 be
       0.004707915 -0.21342474 -0.039742045 -0.38877544
000070 3b 58 cb be 05 a9 ac be df 1c 4e be 8c 86 e9 be
       -0.39715752 -0.33722702 -0.20128201 -0.45610464

bn1.weight f4 [32]
000000 d6 de 84 3f 94 fb 81 3f b7 81 7d 3f 01 a1 7b 3f
       1.0380504 1.01549 0.99026054 0.9829255
000010 44 a3 7f 3f 19 cf 77 3f 35 16 7e 3f d9 1c 7c 3f
       0.998585 0.9680038 0.99252635 0.9848152
000020 10 34 80 3f 39 86 7b 3f 3b 31 80 3f ed 7a 7b 3f
       1.0015888 0.9825168 1.0015024 0.98234445
000030 4c e0 80 3f 13 29 7b 3f 2f 7c 80 3f 54 9c 81 3f
       1.006845 0.9810955 1.0037898 1.0125833
000040 82 d0 7c 3f 87 d6 7f 3f 5a bd 81 3f c3 75 81 3f
       0.9875566 0.9993672 1.013591 1.0114063
000050 b1 52 84 3f 95 de 7b 3f d1 6a 80 3f 31 28 82 3f
       1.0337735 0.9838651 1.0032598 1.0168515
000060 e3 a3 7f 3f e9 4e 81 3f 2d ae 85 3f 39 31 7c 3f
       0.99859446 1.0102206 1.0443779 0.9851261
000070 ec d3 78 3f 4d b2 83 3f d3 a9 83 3f 9a 17 7a 3f
       0.9719837 1.0288788 1.0286201 0.97692263

bn1.bias f4 [32]
000000 80 eb 8e ba 96 9a 6e 3d 66 78 ae 3d 7d cc 7f 3d
       -0.0010903925 0.058252893 0.08519058 0.062450875
000010 80 4c 16 bc 0e 68 1f 3d a1 3b 88 bd 29 51 5b 3d
       -0.009173512 0.038917594 -0.06651998 0.053544197
000020 81 8b c2 3c 19 29 75 bd 37 b7 d3 3b 21 45 bf 3d
       0.023748161 -0.059853647 0.00646105 0.09339357
000030 57 e4 88 bc ee 73 5e bc 8a dd 3c 3c 8f 5f 4b 3d
       -0.016710443 -0.0135774445 0.011527428 0.04965168
000040 8e 57 94 3d 1c 2e 16 bd 18 37 1f 3d 51 da 2f bc
       0.07243262 -0.036665067 0.0388709 -0.010733203
000050 c4 65 dd 3c c7 ec 20 3d 18 6a 54 3d e8 bb 1d 3d
       0.027026065 0.03928831 0.05185899 0.03850928
000060 9b 93 ee 3c 32 9c 78 3a ee 8c bc 3c ed b8 ef 3d
       0.029123118 0.0009483724 0.02301642 0.11705194
000070 eb 8e a8 ba f6 6a d2 3d 4d 2f 0a bd 7a 70 46 3d
       -0.0012859976 0.102743074 -0.033736516 0.04844711

bn1.running_mean f4 [32]
000000 82 86 cc bd b8 ce 14 bf c5 05 14 bf 1c 8b 39 bf
       -0.09986593 -0.5812793 -0.57821304 -0.7247789
000010 f1 fc 5d bf d0 67 09 be ed fd 52 3e ef 35 f0 be
       -0.8671408 -0.13418508 0.20604677 -0.46916148
000020 42 b8 22 3f 05 42 7b 3e e1 74 4e bf 56 cc 08 bf
       0.63562405 0.24536903 -0.80647093 -0.5343679
000030 fb 64 6f bf 78 e1 2d be d6 07 32 be 1c e3 03 3b
       -0.9351346 -0.16980541 -0.17385802 0.0020124381
000040 af ad 20 3f b1 c6 c1 be dd 78 4a bf e3 1f 4d be
       0.6276502 -0.37846902 -0.7909067 -0.20031695
000050 dc ac ab 3e d9 24 c3 be 4a 16 80 bd 68 d7 29 bf
       0.3353032 -0.3811405 -0.06254251 -0.6634431
000060 ff b2 b3 3e b6 06 78 3e e5 92 8e be 70 12 3f be
       0.350975 0.2422131 -0.27846447 -0.18659377
000070 9d 39 33 bf 65 57 06 3d 38 0e eb be 0b 43 2e be
       -0.70009786 0.03279819 -0.45909286 -0.17017762

bn1.running_var f4 [32]
000000 4d 72 9c 3f 36 69 35 3f 24 da 4d 3f 6c 3a 1f 3f
       1.2222382 0.70863664 0.8041098 0.6219852
000010 99 63 4f 3f 50 e8 c3 3e d1 26 b1 3e a5 d6 8e 3e
       0.8101135 0.38263178 0.34599927 0.27898136
000020 94 f1 7b 3f c0 84 9e 3f bc bf 8c 3f 26 06 95 3e
       0.98415494 1.2384262 1.0996013 0.29106253
000030 7c 16 0d 3f de 0e 2c 3e 10 be b2 3f 78 50 80 3e
       0.55112433 0.16802546 1.3964252 0.25061393
000040 98 e7 80 3f ff 04 2a 3f af b7 d2 3e 3b 35 01 3f
       1.0070677 0.66413873 0.41155764 0.5047185
000050 f2 b3 ce 3e 80 d4 16 3e 46 55 27 3f 8b 29 30 3f
       0.40371662 0.147295 0.6536449 0.6881339
000060 1b ac a7 3f 6c 92 68 3f ac 31 0e 3f 03 99 ed 3e
       1.3099397 0.9084842 0.55544543 0.464058
000070 06 2e f4 3e 54 b3 2c 3f 1f e4 a0 3e 25 06 2e 3f
       0.47691363 0.67461133 0.31424043 0.67978126

conv2.weight f4 [64, 32, 3]
000000 f3 20 02 3e 5e a0 e6 3c b5 ed ad 3d 05 0a 6c 3c
       0.12707882 0.02815264 0.08492605 0.014406686
000010 a8 08 ce bd 52 26 e9 3d a8 0c a2 3b 26 a3 6d bc
       -0.10060245 0.11384262 0.0049453564 -0.01450423
000020 0a a3 71 bd c9 df a0 bd 17 90 52 3c 34 36 05 3c
       -0.058993377 -0.07855184 0.0128517365 0.008130599
000030 6d 13 27 3d 87 00 aa bd 30 db a1 3d 0d 66 33 bd
       0.04079001 -0.08300882 0.07903135 -0.043798495
000040 4a 40 32 bd e8 e6 2c 3c 16 2f 12 3d 06 d4 74 3d
       -0.043518342 0.010553099 0.035689436 0.059772514
000050 09 22 c1 3d 72 bd c2 bd 2c 20 40 3d 70 a4 30 bd
       0.0943032 -0.0950879 0.04690568 -0.04312557
000060 c4 7d 25 3c 07 0b a2 bd 87 f4 c0 3d 63 e3 8d bd
       0.010100786 -0.079122595 0.0942164 -0.06928136
000070 cb a2 8b 3d 9c 79 e1 3b ca 97 f1 bc 97 b9 50 bd
       0.0681816 0.006880952 -0.029491324 -0.050958242
000080 26 99 dc 3d d7 a0 c4 bc 1f 65 93 3c e4 00 f4 bd
       0.10771398 -0.024002476 0.017992554 -0.119142324
000090 47 b1 9f 3d 89 08 d0 ba e4 94 98 bd 94 e5 93 3d
       0.07797485 -0.0015871684 -0.07450274 0.07221523
0000a0 83 09 34 bc 14 99 4b bd f2 7c 7e 3a 72 48 2c 3c
       -0.010988596 -0.049706534 0.00097079494 0.010515319
0000b0 44 aa 82 3d 7a 17 f1 ba 5e f4 8a bd 0f a5 0b bb
       0.06380132 -0.0018393837 -0.067848906 -0.00213081
0000c0 5a 4d 9d bd 27 08 99 3d 50 73 7d 3d 71 4e ce bd
       -0.07680769 0.07472258 0.06187755 -0.10073555
0000d0 19 d1 54 3d 04 83 7a 3d 80 b8 92 3d 7a e6 c8 bc
       0.051957224 0.061160102 0.07164097 -0.024523962
0000e0 fb f9 75 3d b6 48 42 3d 61 25 bf 3d 2f fb 5f bd
       0.060052853 0.047432624 0.09333301 -0.054682907
0000f0 6e 0c 4d bd 61 c9 29 3d 41 3f 20 bd 62 22 0a bd
       -0.050060682 0.041451816 -0.039122824 -0.033724196
000100 d3 7d c4 3c e0 d8 d5 3d c3 44 1a bd 76 5c 5c bc
       0.023985779 0.10441756 -0.037663233 -0.013449779
000110 99 0b e8 3c 09 47 05 3d 46 b7 11 3c 3e 02 37 3d
       0.028325843 0.032538448 0.008893793 0.044679873
000120 3e d3 eb bd 50 d6 d6 bc a8 ac cf 3d c6 b5 79 3d
       -0.115149006 -0.026225239 0.101403534 0.06096437
000130 2c a9 b9 3c 76 8c 3d bd dd a1 64 bd dc a1 8a bc
       0.022663675 -0.046276532 -0.055818427 -0.016922884
000140 9a c0 4e bd 39 d6 fa 3c 47 6b c4 3c 8c 4b 82 3d
       -0.050476648 0.030619727 0.023976935 0.06362066
000150 e4 3f 18 be 89 f0 8a bd ed 1c f5 3b d9 32 0d 3e
       -0.14868122 -0.0678416 0.007480255 0.13788928
000160 75 e0 04 3d a6 8f c5 3b 3e 2a 3b bc 2b c3 f7 bc
       0.03244062 0.006029087 -0.011423646 -0.03024443
000170 db fd b4 bd f7 7d 2c 3d 25 7f 19 bd 2c df a5 bb
       -0.088374816 0.042112317 -0.03747477 -0.0050620046
000180 e2 43 fc bd 85 95 b1 3d ee 39 e2 3d ce ff cb 3c
       -0.12317635 0.08671097 0.110462055 0.02490225
000190 a9 ba 45 bd 3d dd cd bd 50 6b 08 be b6 61 e3 3d
       -0.048273716 -0.100519635 -0.13322186 0.11102621
0001a0 47 67 43 3d cd c7 b7 3d 43 7f c6 3d eb 29 2d 3d
       0.047705915 0.08973656 0.09692242 0.042276304
0001b0 d2 39 fc bc 5e f3 81 bd 70 37 b8 bd 02 a5 c1 bd
       -0.03078929 -0.06345247 -0.08994949 -0.09455301
0001c0 6a ef 89 3d a3 90 9b bc 50 85 e7 bc 52 7b 90 bd
       0.06735118 -0.018989867 -0.02826181 -0.070547715
0001d0 01 66 44 bd 1a 8b 10 bd 3f c8 84 bd 19 04 44 3d
       -0.04794884 -0.035288908 -0.064835064 0.04785547
0001e0 51 17 ae bd 7e 0f 2f 3d 0b 1f 1d bd 26 e3 b3 bd
       -0.08500541 0.042739384 -0.038359683 -0.087835595
0001f0 e8 e2 93 bc 85 d6 af bd a1 52 1a bc 5e b3 b7 bd
       -0.018052533 -0.08585838 -0.009419114 -0.089697585
000200 29 18 2e 3d 44 00 16 bd 45 4e 1d 3d 01 de 45 3d
       0.04250351 -0.036621347 0.03840472 0.048307423
000210 8e d8 0d 3d 4b 15 97 bd 17 c0 e2 3d 71 05 5e bd
       0.03463035 -0.07377108 0.110717945 -0.054204408
000220 c5 25 f4 3c 6a 3a 9e 3d e0 18 af bd 8a 54 dd 3b
       0.029803166 0.07725985 -0.085496664 0.0067544626
000230 eb fe a4 ba 23 0d be bd 45 1c c3 3d 29 83 b2 bd
       -0.0012588179 -0.092798494 0.09526876 -0.08716423
000240 55 f1 d9 3c 24 0d b2 3d 04 cb b0 3d fc 00 88 bc
       0.026604334 0.086939126 0.08632472 -0.016602032
000250 bb 99 bd bd 84 50 f2 3c 33 c7 87 bc ba ec d0 bd
       -0.092578374 0.029579408 -0.016574478 -0.10201402
000260 f1 e8 38 bc 85 63 04 bd 70 b0 22 3c f7 06 57 bc
       -0.011286006 -0.03232147 0.009929761 -0.013124219
000270 33 d1 0d bd 10 23 0d bc 39 fb e9 bd 50 ba b2 3d
       -0.034623336 -0.008614317 -0.1142487 0.087269425
000280 86 c6 be 3d 48 55 9a bc 83 fd b2 bc d2 2f ab bc
       0.09315209 -0.018839493 -0.0218494 -0.020896826
000290 a1 47 cf bd f8 21 f8 bd 63 eb 9f 3d f7 7f 2a bd
       -0.10121084 -0.12115854 0.07808568 -0.041625943
0002a0 90 39 af bd 2e 9a 4e 3c 41 f0 47 bd e0 53 94 bd
       -0.08555901 0.0126100015 -0.04881311 -0.072425604
0002b0 05 92 ad bb 8d 4e 4f bc ae 99 dc bc c5 bb dd bc
       -0.005296948 -0.012653005 -0.026928749 -0.027067075
0002c0 ca ba 37 bd 97 96 bd 3d c8 6f 1a bd bd eb b6 3c
       -0.04485587 0.09257238 -0.03770426 0.022329206
0002d0 5e c1 e5 bc 7d 90 c6 3b 65 e5 b3 3d 88 c6 a7 3b
       -0.028046306 0.006059705 0.08783988 0.0051201023
0002e0 c4 aa b0 bd d6 39 59 3d 42 0d f2 3d 02 c4 5c 3c
       -0.08626321 0.053033672 0.11818935 0.013474466
0002f0 dc 0c 99 3d 3c 64 a8 3d a4 20 0e 3c 31 4c 3e 3b
       0.07473156 0.08222243 0.008674774 0.0029037113
000300 42 ab dc bd a1 96 68 bc 0e 11 90 3d a8 69 67 3d
       -0.10774852 -0.014196069 0.07034503 0.056497246
000310 fd 6d 85 bd 7f d0 00 be 60 5b 81 bd 2d eb 08 be
       -0.06515119 -0.12579535 -0.063162565 -0.13370962
000320 82 86 70 bc 2c e3 b4 3c ac cb 68 3d 74 b2 7c 3d
       -0.014680507 0.02208098 0.05683486 0.061693624
000330 4f e5 88 bd 9f 1b 0c be 98 0a ae 3c 11 78 8a bd
       -0.06684362 -0.13682412 0.021245286 -0.06761182
000340 02 2a 62 bd a8 58 79 3d 53 41 ca bc e0 28 bc 3b
       -0.055215843 0.060875565 -0.024689352 0.0057421774
000350 46 26 09 bd cf bb 54 bc 0a 86 3a bd 66 76 89 bd
       -0.033483766 -0.01298423 -0.045537986 -0.06712036
000360 7d bf 1d bd dd 12 7c bd 82 12 cd 3d 49 00 21 bd
       -0.038512696 -0.061541427 0.10013296 -0.039306913
000370 2f fe 4a bd a2 58 c9 bc aa bb 39 3d 57 03 eb 3d
       -0.049558815 -0.024578396 0.045344986 0.114752464
000380 b1 49 80 3d 89 2b 89 3d 2c 7d e9 bd 49 5b 4e 3c
       0.062640555 0.06697757 -0.11400828 0.012595006
000390 25 f0 15 3d d3 45 22 bd 69 8b 4e bd 62 00 f4 3d
       0.036605973 -0.03961737 -0.05042592 0.119141355
0003a0 a4 2a b3 bc 5a 9c 90 bd 4e b6 bc bd d6 ab 33 bd
       -0.021870919 -0.07061072 -0.09214459 -0.043865047
0003b0 21 4a 21 3d 31 72 8c 3d 84 69 95 3b b8 b8 dd bc
       0.039377335 0.06857718 0.0045596976 -0.02706562
0003c0 36 b1 ce bd 0d 90 35 3c 4f 92 87 3c 35 61 8d 3d
       -0.10092394 0.011081708 0.016549258 0.069033064
0003d0 20 23 26 bd a6 36 a4 bb 6c 86 b3 bd b6 34 d5 bd
       -0.04056084 -0.0050113974 -0.08765873 -0.104104444
0003e0 21 e2 d2 3b 02 42 cb 3c 78 d7 e3 3d ec 3f c1 bd
       0.006435648 0.024811748 0.11125082 -0.0943602
0003f0 c4 c7 b7 3d 5d df 52 bb 99 73 b1 3b f9 9a f8 3d
       0.08973649 -0.0032176592 0.0054153916 0.12138934

conv2.bias f4 [64]
000000 5b 37 87 bd 68 62 8f 3d cf 5c a7 3d b3 0f 91 3d
       -0.06602355 0.070011914 0.08171999 0.070830725
000010 ca 65 e4 ba 55 48 bb 3c 82 93 af 3b 13 50 16 bd
       -0.0017425355 0.022861639 0.0053581605 -0.03669746
000020 16 d8 ca bd 13 2a 2e bc eb 3e 3f 3d 4e fe 7f 3d
       -0.09904496 -0.010630148 0.046690863 0.062498383
000030 0b 79 ce 3c eb cc 39 3d 4d 2f 88 3d 50 d7 82 bc
       0.025204202 0.04536144 0.06649647 -0.01597181
000040 20 d0 89 3d a0 a3 34 bb 31 6b 17 bd 6f 36 16 bd
       0.0672915 -0.0027563348 -0.03696746 -0.036673006
000050 bc 27 61 bd 90 05 a2 bd b3 1a c1 3c db c0 c3 3d
       -0.054969534 -0.07911217 0.023572301 0.09558269
000060 11 7d 7d 3c 53 d9 5a 3c 1a b4 1a bd 6b c7 1d bd
       0.015471713 0.013357478 -0.037769414 -0.038520258
000070 e9 0b 00 bd 04 81 11 3d b3 15 9e 3c b4 df 1d bd
       -0.03126136 0.03552343 0.019297456 -0.038543418
000080 c0 c6 81 3c f9 a7 a8 bc fe 4c c2 bb 98 a4 92 3d
       0.015841842 -0.020587908 -0.0059295883 0.071603
000090 a3 cf 27 bd a1 88 bf 3d 63 c3 69 bd 8e 47 c0 3d
       -0.040969502 0.09352232 -0.0570711 0.09388648
0000a0 ed c3 12 3d 98 ed 1d 3d e5 77 cc bc 82 a0 e0 bc
       0.03583138 0.038556665 -0.024959514 -0.027420286
0000b0 34 f9 97 bd 08 45 c6 bd 62 0a 90 3d 63 ff ca 3d
       -0.074205786 -0.096811354 0.0703323 0.099119924
0000c0 0c b7 f4 3c 5c 22 2a bd 85 ea b9 3c 17 9b f6 ba
       0.02987244 -0.041536674 0.022694835 -0.0018814531
0000d0 af 4a ae bd 1f 8b a6 bd 8c e6 0f 3d e9 be f2 bc
       -0.085103385 -0.08132004 0.035131976 -0.029632049
0000e0 12 6a ce bc d7 28 6f bd 54 a2 3a 3d bf 2c 53 bd
       -0.025197063 -0.058388557 0.045564964 -0.051556345
0000f0 ea 54 04 bd 12 29 68 3d 6f bf cd 3d c1 05 bb 3d
       -0.032307543 0.056679793 0.10046279 0.09131957

bn2.weight f4 [64]
000000 02 e7 81 3f c6 a3 83 3f f6 f5 83 3f 40 86 86 3f
       1.0148623 1.0284355 1.0309436 1.050972
000010 50 e4 83 3f d4 e8 85 3f b6 92 8a 3f 11 1e 81 3f
       1.030405 1.0461679 1.0826023 1.00873
000020 4e 5e 85 3f 06 48 80 3f 9a 96 83 3f 47 26 85 3f
       1.0419405 1.002198 1.0280335 1.0402306
000030 81 b8 85 3f 17 51 80 3f f5 b1 83 3f 68 78 84 3f
       1.0446931 1.0024747 1.0288683 1.0349245
000040 4e fe 80 3f e4 4a 84 3f 5e b5 81 3f 61 c1 87 3f
       1.0077608 1.0335355 1.0133474 1.060589
000050 5c 28 85 3f 64 57 88 3f 3d c1 84 3f 04 df 83 3f
       1.0402942 1.065167 1.0371472 1.0302434
000060 2f 1c 87 3f a3 71 86 3f 84 3e 85 3f 54 a7 87 3f
       1.0555476 1.0503429 1.0409703 1.059794
000070 45 6f 82 3f 05 cf 86 3f 58 9e 82 3f a9 97 87 3f
       1.0190207 1.0531927 1.0204573 1.0593158
000080 30 30 84 3f 53 3b 87 3f 87 16 81 3f a9 68 85 3f
       1.0327206 1.0564979 1.0085 1.0422565
000090 ff 94 82 3f 9b 80 83 3f 2b 2c 83 3f 5b f5 82 3f
       1.020172 1.0273622 1.0247854 1.0231127
0000a0 53 32 81 3f 75 f2 81 3f a2 2d 87 3f 5a bd 87 3f
       1.0093483 1.0152117 1.0560801 1.060466
0000b0 81 64 80 3f f7 5e 88 3f 22 e4 82 3f ea fa 81 3f
       1.0030671 1.0653981 1.0225871 1.0154698
0000c0 77 b0 80 3f 81 b6 82 3f a2 7f 81 3f 4a 90 81 3f
       1.0053853 1.0211946 1.0117075 1.0122159
0000d0 be ac 7b 3f 9a 48 84 3f 0b a5 88 3f 6e 42 82 3f
       0.9831046 1.0334656 1.0675367 1.0176523
0000e0 dd 68 85 3f 04 c0 81 3f 5e 53 82 3f 34 df 7d 3f
       1.0422627 1.0136724 1.0181692 0.99168706
0000f0 5c 97 80 3f 28 7f 86 3f 81 38 84 3f 73 18 84 3f
       1.0046191 1.0507555 1.0329744 1.0319961

bn2.bias f4 [64]
000000 f6 b9 36 3d 32 73 aa 3c 8f 6b b4 3c 96 a4 05 bc
       0.04461094 0.020806883 0.022023944 -0.008156916
000010 5b 11 2f bc 69 fb 8e 3c 24 6c fd bc d0 5c 28 3c
       -0.01068529 0.017453866 -0.030935355 0.0102760345
000020 c9 36 83 bb 5d c6 bb bc b7 2e ca 3b 30 82 44 bc
       -0.0040043336 -0.022921735 0.0061701196 -0.01199393
000030 26 7a 69 3b 60 be 8c bc 0f 8e 82 3b 60 67 24 bd
       0.0035625785 -0.017180622 0.00398422 -0.04013765
000040 ee bd 58 bd 7d 45 6b 3c 64 2a 6d bb 08 f4 c5 3c
       -0.052915506 0.014359829 -0.0036188597 0.024164215
000050 aa d1 f5 3b 6e 42 a3 bc 65 b1 51 bc 9b 4f 95 3c
       0.0075018005 -0.019929137 -0.012798642 0.018226435
000060 96 42 c3 3c 14 a6 a4 bc fc 35 11 3b c8 d5 81 3c
       0.023835462 -0.020098723 0.0022157421 0.01584901
000070 e6 96 9b bc cf 53 4a 3c bb 9b eb 3c 2d 0c 89 3c
       -0.018992852 0.012349083 0.028760782 0.016729439
000080 39 58 de bc 62 50 9b bb e1 78 06 bd dd e3 db bc
       -0.027141677 -0.004739807 -0.032830123 -0.026842052
000090 d3 b3 94 bc 38 7e 85 3a a4 18 fa bc b1 a6 5e bc
       -0.018152153 0.0010184711 -0.030529328 -0.013589547
0000a0 a9 38 d9 bc 61 24 00 bd b1 6c 9d 3c cf ca 0b 3d
       -0.026516275 -0.031284694 0.019216867 0.03412896
0000b0 b0 23 8a 3b 74 6e 7e 3c a0 38 68 bc 6c 3e 83 bd
       0.00421568 0.015529264 -0.014173657 -0.064083904
0000c0 fc 95 9d 3b 2e 8b b0 3b 0b ab bd bc bf e5 8c 3b
       0.0048091393 0.0053876853 -0.023152849 0.004299849
0000d0 57 83 59 bc ce e2 ac bc 37 5e 1a bd 5d 6c 2c 3c
       -0.013275943 -0.021104243 -0.037687507 0.010523883
0000e0 20 01 e7 3c d8 19 d5 bc 9a 53 e0 bc 99 dc 45 bd
       0.028198779 -0.0260133 -0.027383614 -0.04830608
0000f0 24 a2 9a bc 13 36 f4 3c 09 0d 87 3c f5 60 1e 3c
       -0.018876143 0.02981094 0.016485708 0.009666671

bn2.running_mean f4 [64]
000000 4d 97 11 3e b3 9b a6 be 3c 28 af be bd 06 93 bd
       0.14217873 -0.32540664 -0.34210384 -0.071790196
000010 23 7d 8e be 38 09 f7 3d 00 d0 6e be 7a 92 37 3e
       -0.27829847 0.12062305 -0.23321533 0.1792697
000020 b9 d9 1d be 15 ce b8 be 37 02 a4 3e fc 91 82 3c
       -0.15415086 -0.36094728 0.3203294 0.015938751
000030 e0 e9 c1 3d c8 77 5e be 36 c9 70 3e 1c ba d7 be
       0.09468436 -0.2172538 0.23514256 -0.42134178
000040 4d 2a 39 3f aa 58 18 bf eb ef cb bd af 4a 21 bf
       0.7233017 -0.5951029 -0.0995787 -0.63004583
000050 de 05 1b 3e 3c 4d 74 3f 75 ba 33 bf eb 73 51 be
       0.15138957 0.9543035 -0.70206386 -0.20454375
000060 fc 52 d6 bd aa 1b d7 3e 61 e4 0d 3e 6f f2 cf ba
       -0.10465047 0.42013294 0.13856651 -0.0015865098
000070 ee fd 0a 3f 50 33 6e 3e de 75 e6 bd 24 72 28 be
       0.54293716 0.23261762 -0.1125295 -0.16449791
000080 24 2c 83 3e 09 a2 3e be dc 0f 13 be db 2b b1 be
       0.25619614 -0.18616499 -0.14361519 -0.34603772
000090 1d bb 21 3f 42 38 55 be 03 c6 2e be 1f fd ed bd
       0.6317614 -0.20822242 -0.17067723 -0.11620545
0000a0 57 e7 29 3f 08 db 01 bf c4 8e 14 bc 1a 31 ac 3c
       0.6636862 -0.5072484 -0.009067241 0.021019507
0000b0 e7 1d 94 bf 2a c2 f1 be 45 ef 6c 3e 8f 6f 48 3f
       -1.1571625 -0.47218448 0.23138149 0.78295225
0000c0 56 ff c7 be ff b2 17 bf de e3 ce 3e ad fa ef 3d
       -0.39061993 -0.592575 0.40408224 0.117177345
0000d0 1a 11 22 3d 76 83 a6 3e 5e bd 09 be 5b a8 7e bf
       0.03956709 0.32522172 -0.13451144 -0.9947564
0000e0 a9 5c 0f 3e d1 8d 31 3f e6 83 21 be a5 52 62 3e
       0.14000191 0.6935702 -0.15772972 0.22101839
0000f0 05 06 32 3f dc 80 fe be 3b e6 0c bf b6 03 0b bf
       0.69540435 -0.49707687 -0.55038804 -0.5430254

bn2.running_var f4 [64]
000000 bb 8c 47 3e 77 c9 ff 3d 74 75 ce 3e 95 7f 95 3e
       0.19487278 0.12489598 0.40323985 0.291989
000010 3b ec b6 3d 30 0f 76 3e 1f 0d 23 3e 9d e9 96 3e
       0.08931776 0.24029231 0.15922974 0.29475108
000020 8d fe 3c 3e c9 94 32 3e fd 62 62 3e 12 b2 6a 3e
       0.18456478 0.1743957 0.22108074 0.22919491
000030 70 3e 07 3e 40 16 c1 3e 93 72 73 3d 8a a6 a7 3e
       0.13207412 0.37712288 0.05943544 0.32744247
000040 51 2b 27 3e 89 05 2b 3e c6 42 19 3e 75 45 2a 3e
       0.16325118 0.1670133 0.14966878 0.16628058
000050 0f aa 50 3e b0 31 8d 3e 27 5b 24 3e 76 b6 40 3e
       0.20377372 0.2757697 0.16050397 0.18819603
000060 28 b4 33 3e 35 92 71 3e 7f a6 db 3d 74 55 16 3e
       0.17549193 0.2359093 0.10725116 0.14681035
000070 5b ff b3 3d b9 b5 99 3e 5f 8d 80 3e 61 dc d7 3d
       0.087889396 0.30021456 0.25107858 0.10540081
000080 9d 91 3d 3e 94 6b ce 3d 22 74 55 3e 9a 05 8c 3e
       0.18512578 0.10079113 0.20845082 0.27348024
000090 25 db 6e 3e d3 1a df 3e 82 c7 69 3e bb 77 32 3e
       0.23325785 0.43575153 0.22830012 0.17428486
0000a0 ae e1 d1 3d cc ae ef 3d b1 a1 02 3e 98 dc 31 3e
       0.10248123 0.11703262 0.12756993 0.17369306
0000b0 bf c1 10 3f dd 3d 54 3e e5 0e cf 3d b7 ef ea 3d
       0.56545633 0.20726724 0.10110263 0.11471503
0000c0 78 f4 96 3e 65 34 3a 3e 4a 4c 5f 3f 90 40 2f 3e
       0.2948339 0.1818405 0.8722578 0.17114472
0000d0 12 37 23 3e b9 2a b7 3d 19 33 86 3e b2 10 82 3e
       0.15938976 0.089436956 0.2621086 0.25403363
0000e0 fb 9b 45 3e bd 48 82 3e 58 31 3a 3e e1 59 cc 3d
       0.19297783 0.2544612 0.18182886 0.099780805
0000f0 be ad 50 3e 49 0c 48 3e 97 b7 04 3e 61 e2 2b 3e
       0.20378777 0.19535936 0.12960659 0.16785575

t_conv1.weight f4 [64, 128, 2]
000000 27 b5 8d 3c b0 ff 2d bb 76 79 ac bb 4a 0e 38 3d
       0.017298294 -0.0026550107 -0.0052635027 0.044935502
000010 fa ef 05 3d ca 4c 0c 3c f5 7d c6 3b e1 dc 16 bd
       0.032699563 0.00856323 0.0060574957 -0.03683174
000020 5e 9a 66 3d d4 c4 26 bc 3c bd 11 3b 9c 15 5a bd
       0.05629956 -0.010178763 0.0022238037 -0.053243265
000030 be b4 2f bd 38 a2 f4 bb 96 7a 87 bd 13 4e 11 bd
       -0.04289698 -0.007465627 -0.06615178 -0.035474848
000040 23 48 b9 bc 37 16 59 bd 3f 6a 99 bc 33 80 b2 39
       -0.022617405 -0.0529997 -0.01872742 0.00034046322
000050 7a 28 0e b9 3a b6 16 bd 31 be 54 bd 0a 3a 67 bd
       -0.00013557254 -0.03679488 -0.051939193 -0.056451835
000060 03 28 99 bd 35 08 ac bc 14 fd 85 bd 03 df 0f bd
       -0.07478335 -0.021000007 -0.065424114 -0.03512479
000070 d7 5a 15 bd 8a de cb 3c f6 dd e4 3d e3 20 18 bd
       -0.036463585 0.024886388 0.11175148 -0.03714074
000080 69 6d 05 3c 7a 99 62 3b 80 1e 10 bd 3a bb 17 bd
       0.008143761 0.0034576342 -0.035185337 -0.037043788
000090 07 0d 7e bd da 21 c3 bd c2 92 49 3d ef 89 aa bc
       -0.062024143 -0.09527941 0.049212225 -0.020817725
0000a0 66 4a e3 bc 11 fe 83 bc b8 52 a0 bd 88 7d d4 3d
       -0.027745437 -0.01611236 -0.07828277 0.10375506
0000b0 e3 5f 14 3d 81 fe 5e bc 64 b7 cf 3c 52 66 5b bd
       0.036224257 -0.013610483 0.025356002 -0.053564377
0000c0 ad a7 4c 3d 26 35 dd bc 47 15 ac 3c 8d 51 ab 3c
       0.049964596 -0.027002882 0.02100624 0.02091291
0000d0 e8 49 25 3c 79 87 a0 38 76 73 bb bc 67 c8 aa 3c
       0.010088421 7.654628e-05 -0.022882205 0.020847512
0000e0 7e 0b b9 3d df 0f 61 bd f5 68 7b bc 38 e2 8f bc
       0.09035395 -0.054946776 -0.015344848 -0.017563924
0000f0 1e a8 a8 bd 75 ae 56 bc f9 b0 af bc 5d 01 5f 3d
       -0.08235191 -0.013103117 -0.021446692 0.05444466
000100 5b 63 37 bc 04 2c 6c bd cb a7 99 3d ed 53 60 bb
       -0.011193122 -0.057659164 0.07502707 -0.003422971
000110 b0 73 a0 3c 22 71 90 3a 69 36 f2 3c f4 6c 25 bc
       0.019586414 0.0011020044 0.02956696 -0.010096777
000120 4b 20 c9 3c d4 f4 9a bc 77 fb 9d bb d6 ab b0 bb
       0.024551531 -0.018915571 -0.0048212367 -0.005391578
000130 b9 a1 49 3d 6e fa 1e bd 9f 24 0f 3d f0 82 24 bd
       0.049226496 -0.038813047 0.034947034 -0.040163934
000140 95 36 c0 3c 19 af cb 3a 08 f9 69 bd 9e d5 12 3d
       0.023463527 0.0015539854 -0.05712226 0.035848252
000150 88 ab 42 bd 22 8c 55 3d 5f bb 01 bd e2 11 55 bd
       -0.047526866 0.052135594 -0.03167283 -0.052019008
000160 ab bc 9d 3d a9 f4 03 bb b2 ce ea 3b 62 6d 72 bc
       0.07702001 -0.0020134842 0.0071657533 -0.014796587
000170 3a a7 0d 3d 12 fb 11 bd c8 2f ac bd f2 8a 13 3d
       0.034583308 -0.03563983 -0.08407551 0.03602118
000180 85 ea 08 bd 36 de 10 3d c0 99 a3 3a 02 05 54 3d
       -0.03342678 0.035368167 0.0012481734 0.05176259
000190 7d ee 6c 3d bf 85 8c bd d7 93 87 bd d6 c4 88 bd
       0.057844628 -0.068614475 -0.06619995 -0.066781685
0001a0 58 92 9b 3d 39 71 86 3d fa 19 2b bd a0 3d 09 bc
       0.07596272 0.06564564 -0.04177282 -0.008376509
0001b0 57 f9 08 bd 8f c0 01 bc b2 7c 83 3d ba 07 e6 bb
       -0.033440914 -0.007919445 0.06420268 -0.007019964
0001c0 ac 5d d2 bc fe fd 8f bc c6 4b 44 bd e8 d1 1c 3d
       -0.025679432 -0.017577168 -0.047923826 0.03828612
0001d0 eb 5b 3d 3d 7d 64 db bd 03 b4 fa 3c 3c dc 99 bc
       0.046230238 -0.10712526 0.030603414 -0.018781774
0001e0 ae 75 5a 3d 51 f5 57 bd 80 37 62 3d f1 16 16 3c
       0.053334884 -0.052724186 0.05522871 0.009160743
0001f0 89 f9 b2 3d d9 ed 57 bd bd 65 1c 3d dd eb 0c 3c
       0.08739001 -0.052717064 0.038182963 0.008601156
000200 3f 05 ad 3d e2 4c 70 3d e2 77 e7 3c 77 cf ba bc
       0.08448266 0.05866707 0.028255407 -0.022804005
000210 e7 e8 40 bd f5 6e ef bb 26 48 b5 3d 0f 5b 38 3d
       -0.047097113 -0.0073069283 0.08851652 0.045008715
000220 fd 8b 74 bd 62 41 8a 3d df e5 84 3c 1f f0 9e bc
       -0.059703816 0.06750752 0.016222892 -0.019401608
000230 1a 2a 26 3d 39 55 c3 bb 13 d7 13 3b fa b0 7d bd
       0.040567495 -0.005961087 0.0022558614 -0.061936356
000240 37 45 9f bd 34 3f cc 3d 1a ca 74 3d 49 61 7f bd
       -0.077768736 0.099729925 0.05976305 -0.062348638
000250 c6 16 ed bb 2c 7e 6c 3d bf 94 aa bc 76 f1 91 3c
       -0.007235381 0.057737514 -0.02082288 0.017815333
000260 74 be 89 3d ae 74 51 3d 05 bc 8d 3d 41 44 6d bd
       0.06725779 0.051136665 0.069206275 -0.05792642
000270 21 42 59 bd b1 87 1d 3c 3c bd 8d 3c 24 ae 6e 3c
       -0.05304158 0.009614871 0.017302148 0.014567886
000280 9d 69 99 3c 47 63 3a bd 1e df 0d 3d d0 44 3e 3d
       0.018727118 -0.045504835 0.03463661 0.046452343
000290 91 e7 f0 bc f3 0d f0 3c ec 5f 2a 3d d9 7f 11 3c
       -0.029407294 0.029303527 0.041595384 0.008880579
0002a0 6b 8a 0d 3d 8e 0d 75 3d 73 d4 2b bd d7 f5 2b 3d
       0.034555834 0.05982738 -0.041950654 0.041982498
0002b0 bd 88 ac bc f5 67 2e bb f3 6d 93 bd 63 59 a3 3d
       -0.021061296 -0.0026612256 -0.071987055 0.079760335
0002c0 67 2d 24 bd ca 82 64 bd 84 40 f5 3c 02 c2 14 3a
       -0.04008236 -0.055788793 0.02993799 0.00056746614
0002d0 aa 2b 8f bc ce 7e c5 bc 54 38 c7 bc d8 90 95 3d
       -0.017476875 -0.024108317 -0.024318852 0.073030174
0002e0 a6 ec df bc 56 9c 9c 3d 14 b1 97 3d b8 f5 03 3d
       -0.027334522 0.07647006 0.07406822 0.032216758
0002f0 63 18 a4 bd 4a af 55 3d 47 33 83 3d be 6b e5 38
       -0.08012464 0.05216912 0.06406265 0.000109396395
000300 61 b4 94 3d 70 c1 0a bb 46 63 43 bc 69 13 0b bd
       0.07260967 -0.0021172427 -0.011925524 -0.033954058
000310 e5 97 09 bd ed b5 33 3c c6 ef 16 3d 0c 3c bd 3c
       -0.033592124 0.010968667 0.03684976 0.023099922
000320 e6 54 3c 3d 21 37 e2 3d d9 31 37 bd 23 2e cf bc
       0.045979403 0.11045671 -0.044725273 -0.025290554
000330 2a 77 74 3c a1 2b 3f 3d e1 1a 73 3c 67 5b 30 bd
       0.014920989 0.046672467 0.014837951 -0.043055918
000340 4f cb 40 bd 21 e9 c0 bc f0 9f 3d bc b4 b1 15 3c
       -0.04706889 -0.023548665 -0.011573777 0.009136606
000350 d3 f1 4a bd 94 5a 8e bc e0 04 34 bb 3e db a0 3d
       -0.049547028 -0.017377175 -0.0027468726 0.07854317
000360 c5 eb d6 3c 52 9f 85 bd e0 29 c3 bd b6 4d 62 3d
       0.02623547 -0.065245286 -0.095294714 0.055249892
000370 12 d8 41 bc da 9d a0 bd 40 0c 2f 3d 71 cf cc bd
       -0.0118313 -0.07842608 0.042736292 -0.10000504
000380 c8 bf 51 3d 36 e8 bd bc 32 87 8b 3d f1 41 49 bd
       0.051208287 -0.023182016 0.06812896 -0.049135152
000390 65 40 1a 3d a1 ed 8d 3c 5d 56 ac 3c 58 ac 79 3d
       0.037659068 0.017325224 0.021037275 0.060955375
0003a0 ff f1 9a 3c 6f cf a9 3c 81 17 97 ba 72 a8 8c 3d
       0.01891422 0.020728795 -0.001152739 0.06868066
0003b0 52 32 7a bd ff 31 28 3d 34 bb 06 3c 11 b2 8d 3d
       -0.061083145 0.041063305 0.008223344 0.06918729
0003c0 28 8e a8 3d 07 26 31 3d 23 2e fa bc a0 ed 5f bd
       0.08230239 0.043249156 -0.030539578 -0.054669976
0003d0 03 16 9c bc cd 3f 4d 3d e0 b4 2c bc 08 4e f5 3c
       -0.019053465 0.050109673 -0.010541171 0.029944435
0003e0 37 19 13 3d 5c a0 58 3c 96 c9 ce bc 24 d1 39 bd
       0.03591272 0.013221826 -0.025242608 -0.045365468
0003f0 d2 61 2a 3d 18 31 a1 bd 7e 5f 96 bd 20 83 28 3d
       0.041597195 -0.07870692 -0.073424324 0.041140676

t_conv1.bias f4 [128]
000000 ab 3f a5 3c b4 1b 7d 3c 61 5a 62 3c 21 b3 71 bc
       0.02017196 0.0154484995 0.013815493 -0.01475218
000010 43 59 37 bd fa a5 27 bd ef 14 40 bc 07 95 e1 3c
       -0.04476286 -0.040929772 -0.011723741 0.027536882
000020 49 ff c4 3c f0 a5 9d 3d 81 b5 e0 3c 4f 44 3d bd
       0.02404751 0.07697666 0.027430298 -0.046207722
000030 c7 31 08 3c 61 da a0 3c 0c c9 dc bb bf a6 82 3d
       0.008312649 0.019635381 -0.006737834 0.063794605
000040 b0 26 00 3d ca b2 13 3d e6 6e a9 3d 07 3c d3 bc
       0.031286895 0.03605918 0.08273105 -0.02578546
000050 f9 db 22 3d fd 1b 79 3d 42 6d 24 3d 23 d1 0b 3d
       0.039760564 0.060817707 0.04014326 0.034134995
000060 ca ac c2 bc 88 1b 1f bd 07 fb 20 3d f6 74 32 3b
       -0.023764033 -0.038844615 0.0393019 0.0027230359
000070 03 d9 8c 3d 03 c8 15 3d d9 9b c3 bd 61 b7 0d 3d
       0.06877329 0.0365677 -0.0955121 0.034598712
000080 9b 59 9c 3a 69 4e 8f bd 1d 1a 13 bc 0a 8e 8b bc
       0.001192856 -0.069973774 -0.008978394 -0.017035503
000090 29 45 0f ba 0b d6 c8 bc 9e 16 0f bd b5 28 1b bb
       -0.0005465323 -0.024516126 -0.03493368 -0.0023675386
0000a0 63 09 99 3d 43 2e 4c bd 6a f0 2b bd 5c 1c 80 bc
       0.074724935 -0.049848806 -0.041977324 -0.015638523
0000b0 22 d6 71 3d 32 5a 30 3d a5 27 29 3b d1 91 30 3c
       0.059042104 0.043054767 0.0025810983 0.010776953
0000c0 de 9b 23 bd 0e a4 f3 bb 28 10 c2 bc 45 96 c2 bc
       -0.03994357 -0.0074353283 -0.023689345 -0.023753295
0000d0 0a 14 06 bd e2 7b 89 bd 72 54 ae bc c2 87 cb 3c
       -0.032733954 -0.06713082 -0.021280501 0.024845008
0000e0 8f 55 b0 bb 67 64 81 bb 9b cd 31 bd 9a c3 64 3c
       -0.005381293 -0.0039487365 -0.04340897 0.013962651
0000f0 be 7a f0 3c ba 83 fc bb 84 c4 b3 bb a4 f7 2d 3d
       0.029355403 -0.0077061327 -0.005486073 0.042472497
000100 3f 5e 4c bd 87 fa 44 3d ad d3 a3 3c db 6b 62 3d
       -0.049894568 0.048090484 0.019998396 0.05527864
000110 bf ce 11 3d 39 f4 10 bc 94 73 0b 3e 25 db 74 bb
       0.03559756 -0.00884729 0.13618308 -0.0037362066
000120 32 2b a0 bb 7a 65 f4 3c 01 04 32 bd 75 f9 27 3d
       -0.004887962 0.029833544 -0.04346085 0.041009385
000130 be f4 e9 3c 99 75 02 3d 4b 23 31 3d 45 98 03 bd
       0.028559085 0.03185043 0.04324655 -0.032127637
000140 8a 66 88 3c 6c 27 40 3c d2 83 7c 3d 58 13 23 3d
       0.016650457 0.011728149 0.06164915 0.03981337
000150 7a 3f da 3c e4 d1 0b 3d 56 69 b1 3d e2 4e 48 3d
       0.026641596 0.034135714 0.08662669 0.048903354
000160 50 34 b2 3d 8f ea 57 3d b3 c2 95 bc e6 36 17 bd
       0.08701384 0.052713927 -0.018281316 -0.03691759
000170 30 80 98 bd af 6f 8e bd 7f 65 1c 3d 8d a8 7a 3d
       -0.07446325 -0.06954896 0.03818273 0.0611959
000180 93 a7 bd 3c 81 93 60 3c c9 c9 f1 bc ff 51 2a bd
       0.023151195 0.013707043 -0.029515164 -0.041582104
000190 59 c2 55 3c 89 4b d5 3c 3b 00 db 3c 48 8b 1f bc
       0.013046824 0.026036995 0.026733508 -0.009737797
0001a0 9e be 72 3b b4 c0 24 3d e1 00 03 bd b1 9c 46 3d
       0.0037039886 0.04022284 -0.03198326 0.048489276
0001b0 ee 5d b9 3b cf f2 9b bc 87 c3 7f bd a5 dd a3 3d
       0.0056569492 -0.019036679 -0.06244233 0.0800126
0001c0 06 23 cf 3d 0a 3a ba 3c 97 f9 32 bd ac e9 db bc
       0.10114102 0.022732753 -0.04369506 -0.026844822
0001d0 f3 08 82 bd 36 d2 00 bc ab 90 46 3d 67 13 60 bd
       -0.06349363 -0.007862618 0.04847781 -0.054706004
0001e0 a4 c3 fe bc 80 23 32 bc d5 15 7f 3c 9d ec 81 3c
       -0.031099148 -0.010872722 0.01556917 0.015859896
0001f0 c2 c9 51 bd aa 34 e1 bc c9 1a bb 3c ef 1e 90 3d
       -0.051217802 -0.027490932 0.02283992 0.0703715

t_conv2.weight f4 [128, 64, 2]
000000 b1 aa 9e 3d f7 ed 95 3b b5 9d 9e 3c 34 f5 90 bd
       0.077474006 0.0045754868 0.01936231 -0.07078019
000010 d5 89 9b bc 47 57 85 3d eb 6d df bc 7e fc 23 bd
       -0.018986622 0.065107875 -0.027274093 -0.040035717
000020 d6 5c ba 3d c8 e4 87 3d 10 02 85 3d 46 08 82 3d
       0.09099738 0.066354334 0.06494534 0.06349234
000030 7a 11 13 bd ee 89 c5 3c 53 c1 a6 3d c6 fd 97 3d
       -0.03590534 0.024113622 0.081423424 0.0742145
000040 b4 73 be 3d bc cf 0a bb 4d e2 66 3d 06 90 70 3c
       0.09299412 -0.0021180948 0.05636816 0.014682775
000050 44 d5 77 bd 1c a5 10 3d 86 8c 0a 3e e4 03 51 bd
       -0.06050612 0.03531371 0.13530168 -0.0510291
000060 01 06 90 3d 52 a0 44 bd 10 03 97 bd 17 ab 75 bd
       0.07032395 -0.048004456 -0.07373631 -0.059977617
000070 34 85 99 3d 74 99 de 3c 30 da 36 bd 8c 20 8f bd
       0.074961096 0.027172782 -0.044641674 -0.0698863
000080 ab 36 72 3d eb 18 8a 3d b4 e3 98 3b 9a 8f d5 3c
       0.059134167 0.06743034 0.004665816 0.026069451
000090 eb da d0 bc aa 31 48 3d 1e e3 63 3d 9f f5 7f bd
       -0.025495013 0.04887549 0.055636518 -0.062490102
0000a0 f9 ce 9d 3d 89 3f a8 3d 80 12 75 3d 75 db 4a 3d
       0.077054925 0.08215243 0.059832096 0.049525697
0000b0 30 a1 28 bd fa 3f 3f 3d 27 20 a4 bd 84 fa 2d bd
       -0.041169345 0.046691872 -0.08013945 -0.04247524
0000c0 28 c1 7e bb 5a 14 d6 3c 26 4b dd bc d7 06 27 bb
       -0.0038872454 0.026132751 -0.027013373 -0.0025486255
0000d0 25 81 bc 3c cc db 20 bd 42 57 af bc 8c e1 48 bd
       0.0230108 -0.039272115 -0.021403912 -0.049043223
0000e0 46 d8 10 bd b2 f0 30 3d 7e cf 62 bd d3 8c 2e bd
       -0.035362504 0.043198295 -0.05537366 -0.04261477
0000f0 86 dc 9b 3b 15 bd 72 3d 63 68 60 3d 6c 3e 9f bc
       0.004756513 0.059262354 0.05478705 -0.019438945
000100 c5 ed 05 bd c4 7d 8e bd 36 24 98 3d 7c 90 15 bd
       -0.032697458 -0.06957582 0.07428782 -0.036514744
000110 53 53 b1 3d 5a c4 4a 3d e2 28 dd 3c 79 0a e5 3b
       0.08658471 0.04950366 0.026997034 0.006989774
000120 ad c9 d1 3d 1c 6d c9 bb ce 95 26 3d 9b ab 36 3d
       0.10243545 -0.00614704 0.04067021 0.04459725
000130 25 37 2b 3d 51 9c 0f bc 39 6e 87 bd 24 66 cd bb
       0.041800637 -0.008765296 -0.0661282 -0.0062682796
000140 e1 4d c9 bd 73 56 49 3b b3 31 c0 3a 81 b4 84 3d
       -0.09829307 0.0030721694 0.0014663249 0.06479741
000150 ac 79 ba bc 82 01 64 bd 00 2f 9e 3d fa 15 c0 bd
       -0.022763096 -0.0556655 0.07723808 -0.09379192
000160 ca 3f 86 bc 9c 65 e2 bc 81 57 8d 3d 0e 00 a5 3d
       -0.016387839 -0.027636342 0.06901456 0.08056651
000170 48 db 09 3e 53 5d 2a bd ee 5b 03 bd fb 35 68 3d
       0.13462555 -0.041592907 -0.032070093 0.056692105
000180 92 b2 a1 3d 4d 06 9a 3c 4e 4b 01 3e 29 f6 00 bd
       0.07895388 0.018801833 0.12626383 -0.031484757
000190 f1 ef 34 3d 5e 85 7f bd 6a 52 13 3d 65 1e 43 bd
       0.04417414 -0.06238305 0.035967268 -0.04763641
0001a0 d4 d9 41 bd 82 d5 a9 3d fe 39 9c 3d 9e 8a 1d 3d
       -0.047326878 0.082926765 0.07628249 0.038462274
0001b0 90 44 91 bc e7 88 7b bd f1 cb 86 bd 65 b9 09 bb
       -0.017732888 -0.061409857 -0.065818675 -0.0021015045
0001c0 37 92 16 bd 67 47 be 3d 03 85 26 3d 69 d4 84 bd
       -0.036760535 0.09290963 0.040654194 -0.064858265
0001d0 4d 09 39 3d 14 8d 8c bc b5 59 8a 3d 37 ef b5 3d
       0.045174886 -0.017157115 0.067553915 0.08883517
0001e0 8a ac 09 bc 66 e3 64 bc ae 31 08 bd d4 b0 bb 3d
       -0.008402953 -0.013970232 -0.033250503 0.09164587
0001f0 f6 fa aa 3d 46 ed a4 3d c3 b0 f0 3b 97 fc 83 3d
       0.08348648 0.08053069 0.0073452904 0.06444662
000200 fe fe 86 3d 62 82 09 bc ba c3 28 3c 56 4a ec bd
       0.06591605 -0.008392902 0.010300571 -0.11537616
000210 86 85 c6 39 bb 31 83 3c 80 1c 94 bd 15 3b 25 3d
       0.00037864986 0.016014924 -0.072319984 0.04033955
000220 e6 2a 99 bc 17 35 59 3d f1 71 87 bd 80 b7 f1 3d
       -0.018697213 0.053029146 -0.066135295 0.11802578
000230 f7 40 af 3d 74 16 bb 3d 68 cf b5 bd 0d f0 53 bd
       0.08557313 0.09135142 -0.0887745 -0.051742602
000240 98 9c 33 3c 39 2c dc bc bd 62 ba bd b2 8a 0b 3d
       0.010962628 -0.026876556 -0.09100864 0.034067817
000250 d0 71 23 bd e1 ff fd bb 1e 54 bd 3d 6a 45 d9 bc
       -0.039903462 -0.0077514504 0.0924456 -0.026522357
000260 8b c7 c1 3d d3 ea 3c bd 52 f0 b1 bc fb 7c d9 3d
       0.09461888 -0.046122383 -0.021721039 0.10619541
000270 24 8f a5 bd 34 52 1a 3d 27 d6 06 be a8 7f f0 ba
       -0.080839425 0.03767605 -0.1316763 -0.0018348591
000280 6d 62 8a bc c5 5f 01 3e 21 3c 3f bd 29 4e 03 3e
       -0.016892636 0.1263419 -0.046688203 0.12822784
000290 09 e8 98 bd be 22 a1 3d 8d 46 36 bd 45 17 0e be
       -0.07466132 0.07867955 -0.044500876 -0.13876064
0002a0 a9 a5 8d 3d c2 5d 70 3d 0e ad aa 3d e4 97 de bc
       0.06916363 0.058683164 0.08333789 -0.027172036
0002b0 fd f0 86 3d 77 e4 c2 3d 9b 25 42 bd fb d9 0a bd
       0.065889336 0.095162325 -0.047399145 -0.03389929
0002c0 6a 41 8c 3d e8 20 7b 3c 30 1c a6 3c ae 02 50 3d
       0.06848414 0.01532767 0.020277113 0.050783806
0002d0 0b f1 87 3b 5b 54 96 3d 30 f1 8b 3d 18 40 3d 3d
       0.0041486076 0.07340308 0.06833112 0.046203703
0002e0 fc bd 88 bd fa 08 c3 3d ce 43 97 bd d7 f2 b8 3d
       -0.06676862 0.095231965 -0.073859796 0.09030693
0002f0 f4 89 6b 3d 9c 12 aa bc d7 51 91 3d 6d d0 e1 bd
       0.05750461 -0.020760827 0.07095688 -0.11026082
000300 2a 9c 60 ba ee ca 47 bc ad 2c 91 bc 33 6a 9b 3d
       -0.0008568192 -0.012194378 -0.017721498 0.07588615
000310 e8 ea 02 bb 5e bf b9 bc 38 9a a5 3d c0 06 77 bd
       -0.001997644 -0.022674259 0.080860555 -0.06030917
000320 79 b4 a3 bd c7 45 86 bd 37 ee e1 3c 44 18 59 bd
       -0.07993407 -0.06556278 0.02757941 -0.053001657
000330 c1 c9 68 bd 58 f9 35 3d 88 7b 07 3d d1 92 06 3d
       -0.056833033 0.044427246 0.033076793 0.03285486
000340 8e 03 50 bd 99 59 cc 3d b8 d1 de 3c 22 4a 87 bd
       -0.05078464 0.09978027 0.027199611 -0.066059366
000350 ad 47 8b 3c bf 18 0d 3b 90 78 dc 3c f7 ac f8 3c
       0.017001951 0.0021529642 0.026912957 0.030355914
000360 d9 81 90 3d f2 4f 1d 3d 2e 5b 3e bd d4 7b 8e 3c
       0.070560165 0.03840632 -0.046473674 0.01739303
000370 6e 39 b8 3c e2 5a 07 bd 8a 6c a8 3d 94 44 c1 bc
       0.022488322 -0.033045657 0.08223827 -0.02359227
000380 f6 4d f2 bd ae b9 f8 bc 4c 5e 9a 3c ad d3 b9 3d
       -0.11831276 -0.030361976 0.018843792 0.09073577
000390 60 26 c9 bd 67 82 f3 bc f1 13 8c bc 1b 33 af 3d
       -0.098217726 -0.029725267 -0.017099353 0.085546695
0003a0 7d 31 82 bd a9 66 8a 3a d5 13 95 bd 5e fb 2d bd
       -0.063570954 0.001055916 -0.07279173 -0.04247605
0003b0 17 84 9c bd c0 38 cf 3c 96 3d 76 bd 4f 1e a3 bc
       -0.07642382 0.025295615 -0.060117327 -0.019911913
0003c0 aa 3c 76 bd 44 14 02 bd 46 28 f9 bc 2c 8f e7 3d
       -0.060116448 -0.031757608 -0.030414712 0.11306605
0003d0 25 47 cf bc a7 d0 14 be 60 d1 e1 3d b2 cb a2 bd
       -0.025302479 -0.1453272 0.11026263 -0.07949008
0003e0 a6 7a ee bd d6 5d e7 bb 56 7c 52 bd 7f 7b c1 3d
       -0.11644487 -0.0070607467 -0.051388107 0.09447383
0003f0 b7 6e 62 bc e3 02 6d bc cc 61 3a 3b 68 ea 39 bd
       -0.013820342 -0.01446602 0.002843964 -0.045389563

t_conv2.bias f4 [64]
000000 bb d1 45 bd 04 db 8d bd 6e 8a 2c 3d b2 2e 11 bc
       -0.048295718 -0.069265395 0.042124204 -0.008861231
000010 56 cd ae bd 52 a6 85 bc 3d 9e 23 bd 56 a6 16 3e
       -0.085352585 -0.01631466 -0.03994583 0.1471189
000020 a7 47 09 3e 6c 7b e0 3d 8c 90 be 3b b1 78 2f 3e
       0.1340624 0.10961041 0.005815571 0.17135884
000030 4e c8 0d 3d df a7 38 3d 37 ae dd bc 6a 0a 84 bc
       0.034614854 0.04508197 -0.027060611 -0.016118247
000040 8b 76 52 3d e3 b5 49 bc 9d 39 9f bd 42 ac 9e bc
       0.051382583 -0.012311432 -0.07774661 -0.019369248
000050 89 ce ad bd db e9 85 bd dd 6a 4f bc dd 58 8b 3d
       -0.08486659 -0.06538745 -0.012659756 0.06804059
000060 38 1e b9 bb d3 e7 4b 3d cd aa a2 bd e3 3a ab 3d
       -0.0056493543 0.04978163 -0.07942734 0.08360841
000070 98 99 f2 bc fa 8f d3 3c aa 85 47 3d 78 06 d6 3c
       -0.029614255 0.02582549 0.048711456 0.026126131
000080 d8 30 e3 bc e7 a9 1d 3e e8 31 38 3e d3 d6 89 3d
       -0.027733251 0.15396844 0.17987788 0.067304276
000090 ad 7f 95 bd 53 9a 94 bd a1 27 56 3e 66 a4 d2 3c
       -0.07299743 -0.072559975 0.20913555 0.025713157
0000a0 7e f6 b8 bc 4e 10 fc 3d a2 25 69 3e bc af 9b bd
       -0.022578474 0.12307797 0.22768262 -0.07601878
0000b0 e4 8b a7 3d 7d cb 6b 3e 12 09 68 bd da 81 39 bd
       0.08180979 0.23026843 -0.056649275 -0.04528985
0000c0 d0 bb 8b 3d b3 ea 89 3d b6 28 8e 3b 1b 78 5b 3d
       0.06822932 0.067342184 0.004338349 0.05358134
0000d0 9e b1 f4 3d 0f fd cb 37 53 7a ab 3d c7 98 aa bd
       0.1194794 2.4317325e-05 0.08372941 -0.08329921
0000e0 92 81 1d bd 14 61 6c 3d a7 97 27 3d 2d 90 78 3d
       -0.038453646 0.05770977 0.04091611 0.06068437
0000f0 4d c6 af 3d 64 43 89 3c 62 c0 b9 bc e7 d3 a2 bb
       0.08582745 0.016755767 -0.022674743 -0.0049691084

conv_out.weight f4 [1, 64, 3]
000000 37 96 b1 3c 3d 92 d9 bd ae dc 7e bc f1 71 9c 3c
       0.021678073 -0.10623596 -0.015555544 0.0190973
000010 d3 8e ef bd af dc 70 bd 76 3f d6 3c c5 88 da 3b
       -0.116971634 -0.05880421 0.026153307 0.006669136
000020 f8 2f c5 3d bc 35 90 3c 77 6b e8 bd 11 d5 7f 3d
       0.0962829 0.017603748 -0.11348622 0.062459055
000030 88 68 e2 3d 73 c9 06 be ba 88 36 bd 98 32 ef bd
       0.11055094 -0.13162784 -0.044563986 -0.11679572
000040 ac f0 e3 3d db 33 b7 bd 64 17 cc 3d 61 dc c3 3d
       0.11129889 -0.089454375 0.09965399 0.09563518
000050 c2 ab 95 3c 78 e0 b1 bd 43 aa a6 bc b3 ac f5 bd
       0.018270377 -0.08685392 -0.020344859 -0.119958304
000060 ef 64 d2 bd 39 62 b0 bd a3 29 6c bd a7 46 10 3c
       -0.10273158 -0.086124845 -0.057656895 0.008805907
000070 04 ae 29 3d 48 5d 91 bd bd a5 48 3d 0c 3b 8c bc
       0.04142572 -0.0709787 0.048986185 -0.017118
000080 0e af 0b 3e ae a7 cf 3c ff 34 b0 bd 36 aa 25 be
       0.13640997 0.02534851 -0.08603858 -0.16178212
000090 d5 55 f0 3d 6d 7b bc 3c f7 32 89 3d d3 d4 87 bc
       0.11735121 0.023008073 0.06699174 -0.016580975
0000a0 05 81 b3 3d 66 3f 00 be a5 f6 a2 bd 2c 95 09 3e
       0.08764843 -0.12524185 -0.079572 0.13435811
0000b0 72 e5 f2 bd 5f 02 bd bd dc 3c 24 bd 50 81 a2 3c
       -0.118601695 -0.09228968 -0.040097103 0.019837052
0000c0 87 f3 e7 bd 9c 07 a5 3d 49 f7 0d be 6e 94 c7 bd
       -0.11325746 0.08058092 -0.13863863 -0.097451076
0000d0 4f 01 f6 3d 53 5a a5 3d 0f fe 11 bc 50 61 d0 3d
       0.12011968 0.080738686 -0.00891067 0.10174811
0000e0 58 f9 9f bd 6e c4 03 3e dd 9e 04 bd 2c 87 9e bb
       -0.078112304 0.128679 -0.032378066 -0.004837891
0000f0 4e 63 d0 3d d1 f2 01 3e 48 cc ea bd dc f5 0b 3e
       0.10175191 0.12690283 -0.11464745 0.13668007
000100 e7 d4 ad bd 31 ad 53 3c 97 cc 8b 3d 15 d4 d5 3d
       -0.084878735 0.01291971 0.06826132 0.10440842
000110 fe d9 7e 3d 6e 2f 84 3d ae 0c b5 bd bc 5f a8 3d
       0.062219612 0.06454359 -0.08840309 0.08221385
000120 e8 a4 76 3d 69 32 33 3d 65 96 89 3d 59 eb 31 bd
       0.06021586 0.043749247 0.067181386 -0.043437336
000130 06 28 cf 3d 09 89 58 bd 47 ba 0e be ea b3 85 3d
       0.10115056 -0.052865062 -0.13938247 0.065284565
000140 98 2e a8 3d e2 ee ad 3d 33 a9 d6 bc 2a 6c d7 bd
       0.08212012 0.08492829 -0.026203727 -0.105186775
000150 9a f3 c2 bd 54 22 d6 3d fd 00 04 3e cd 01 ce bc
       -0.095191196 0.10455766 0.12891002 -0.025147343
000160 03 1c bb 3d 98 a7 64 3d 64 a5 6b 3d ac e2 e1 bd
       0.09136202 0.055823892 0.057530776 -0.11029562
000170 9d 2d 9d 3d 14 ec 4b 3d 4b db 01 be 32 2e e9 b9
       0.07674716 0.04978569 -0.1268131 -0.0004447564
000180 ec 1d a2 bc 0a c0 f1 bd a7 5b d5 3d 83 c2 ca bd
       -0.019789658 -0.11804207 0.10417872 -0.099003814
000190 7b 9c 59 bd 6d bb aa bd e2 bc da 3c 0f dd 1c be
       -0.053127747 -0.0833653 0.026701394 -0.15318702
0001a0 15 02 b7 bd b5 7a eb 3d c2 37 0d bd cd 86 f9 bc
       -0.08935944 0.11498014 -0.034477003 -0.030459786
0001b0 04 53 a9 bd 2b be 4c 3d dd 0f 35 3d 45 43 1b bd
       -0.08267787 0.049986046 0.04420458 -0.03790595
0001c0 ef 05 53 bc 00 bc a1 3d a6 61 d3 bd de 80 0d bd
       -0.012879833 0.07897186 -0.10321359 -0.034546725
0001d0 d8 fb 9e bd 17 ba da 3d 08 a4 bd 3d 12 54 9b bd
       -0.07762879 0.10680025 0.09259802 -0.075843945
0001e0 30 ac 95 bd 95 3f 41 3d f2 6d 80 3d 9e 54 bd bd
       -0.07308233 0.047179777 0.062709704 -0.09244655
0001f0 5c 4a 01 be 77 0d aa bd e1 ea 1e be 73 92 c9 bc
       -0.12626022 -0.083033495 -0.15519287 -0.024605965
000200 07 c1 af bd b6 ee 42 be d4 cc e2 3d 06 a1 a0 bd
       -0.08581739 -0.19036373 0.11074224 -0.07843213
000210 ba 44 9f 3d 0b e3 b0 3d 0c 0f 0c be 9f 99 a1 bd
       0.077767804 0.08637055 -0.13677615 -0.07890629
000220 1f c6 d0 bd 89 9b 05 be ad dd ab bd f7 ab 06 3e
       -0.101940386 -0.13047613 -0.08391891 0.13151537
000230 d2 47 26 bd 5d a1 b8 3d 12 1c ab bd c9 ed 88 bc
       -0.040595837 0.090151526 -0.08354963 -0.016714947
000240 2c 63 ed bd ca 68 c4 3c 16 75 b1 bd 4e 5b a8 bd
       -0.11591181 0.023975749 -0.086649105 -0.0822054
000250 2e 41 9c bd e4 6a be bd 59 f9 b1 3d e4 80 b3 bd
       -0.076296195 -0.092977315 0.086901374 -0.08764818
000260 0d 95 8c 3d 10 72 11 be 42 15 ca bc 20 4a a8 3d
       0.06864367 -0.14203668 -0.02466834 0.08217263
000270 22 98 56 bd 30 ea 23 be 86 7d e5 3a 5b 55 da 3d
       -0.05239118 -0.16007304 0.0017508722 0.106608115
000280 7b b4 23 3c 1a 2a a0 3c a7 ca 1f bd 2d 05 fa bd
       0.00999176 0.019551326 -0.039011624 -0.122080185
000290 a2 5f 36 3d f1 54 38 bc 5b 0c 82 3d 71 3a 99 3d
       0.044524796 -0.01125072 0.06350013 0.0748185
0002a0 f4 9c 0d bd 37 77 db 3c 89 87 f9 3d 03 5c ed bd
       -0.03457351 0.026790245 0.121840544 -0.115898155
0002b0 3e 3f 04 3d c9 87 07 bb 61 03 99 3d 71 01 0b be
       0.032286875 -0.00206803 0.074713476 -0.13574769
0002c0 0b 59 97 bd 18 97 00 3d 59 cd 24 be a2 7e 02 be
       -0.073900305 0.031394094 -0.16093959 -0.12743619
0002d0 c2 34 2d be eb 01 2e bd d3 af b4 3c 74 3b 07 3d
       -0.16914657 -0.042482298 0.022056496 0.033015683
0002e0 9f 57 a1 3d 25 18 f9 bd de 0d 69 3d 20 55 19 3e
       0.078780405 -0.12162808 0.05689799 0.14973879
0002f0 6d 71 cd 3c 32 02 bb 3d d1 e2 17 be 00 43 89 3d
       0.0250785 0.09131278 -0.14832617 0.06702232
