old/pths/denoiser_model_1.pth (torch, 166322 bytes, 17 tensors)

conv1.weight f4 [32, 1, 3]
0	0x3edaa20b	0.42701754
1	0x3f00d692	0.5032741
2	0xbdc5bdaa	-0.09655316
3	0x3f0e3343	0.5554697
4	0xbdc9ce30	-0.0985378
5	0x3decdb1e	0.11565231
6	0xbe9ea901	-0.30988315
7	0x3ea6d98a	0.32587844
8	0x3f00471d	0.5010851
9	0xbed8f0d1	-0.42371228
10	0x3f01150b	0.50422734
11	0x3dc67c52	0.09691681
12	0x3ee0ac64	0.43881524
13	0x3d889f4e	0.0667101
14	0x3e8b8937	0.27253124
15	0xbdca6ea2	-0.09884383
16	0x3ee6cada	0.45076638
17	0x3d7b434f	0.061343487
18	0xbe886a28	-0.2664349
19	0x3e0be5a3	0.13661818
20	0xbe8e7d93	-0.2783018
21	0xbdb1ad52	-0.08675636
22	0xbe7ae159	-0.24500026
23	0x3eba2df7	0.36363193
24	0xbecae334	-0.39626467
25	0xbe9e3bc5	-0.30904976
26	0xbe4a281f	-0.19741867
27	0xbe967ed8	-0.2939365
28	0x3d0a4bfc	0.03376387
29	0xbf203a8b	-0.6258933
30	0x3f00d080	0.50318146
31	0xbf02486f	-0.50891775
32	0x3ee2eb15	0.44319978
33	0x3e00c529	0.1257521
34	0xbe422d89	-0.18962683
35	0x3eab51fa	0.3346098
36	0x3df90073	0.12158289
37	0x3ee757ec	0.45184267
38	0x3cde7f00	0.027160168
39	0xbe3ae3e7	-0.18251
40	0x3df3762f	0.11887776
41	0xbe3e4061	-0.18579246
42	0x3e690225	0.22754724
43	0x3f01d869	0.5072084
44	0x3eb1cbbc	0.3472575
45	0xbe951634	-0.29118502
46	0x3e95d0ba	0.29260808
47	0x3dd2dcd1	0.10296024
48	0x3e908634	0.2822739
49	0xbeb0bbc0	-0.34518242
50	0xbf16b4ad	-0.5886944
51	0xbe869df3	-0.2629238
52	0xbee5d64d	-0.4489006
53	0x3ee18982	0.44050223
54	0x3e3f3a04	0.18674475
55	0x3e5e5803	0.21713261
56	0x3e40113e	0.18756577
57	0xbc140cf6	-0.009036293
58	0x3eedf39c	0.46474922
59	0xbecbd787	-0.39812872
60	0xba8c098a	-0.0010683995
61	0xbee67013	-0.4500738
62	0x3df885f4	0.121349245
63	0xbe520f6c	-0.20513695
64	0x3e34387f	0.17599677
65	0xbde9e42e	-0.11420475
66	0x3ef44812	0.47711235
67	0xbe979262	-0.2960387
68	0xbec500bf	-0.38477132
69	0xbea28f99	-0.3175018
70	0x3f026185	0.50930053
71	0x3e777d49	0.24168886
72	0x3f0ef7f9	0.55847126
73	0xbf00bfe1	-0.50292784
74	0xbf0b8667	-0.54501957
75	0xbee7f311	-0.45302632
76	0xbecffec9	-0.40624073
77	0x3e4e1466	0.20124969
78	0x3e8ab86a	0.27093822
79	0x3ede4950	0.43415308
80	0xbe9489f3	-0.29011497
81	0xbec40086	-0.3828165
82	0x3e9fa99d	0.31184092
83	0xbe78ded3	-0.2430375
84	0x3ebf52f7	0.37367985
85	0xbe3fa898	-0.18716657
86	0x3e92436f	0.28567073
87	0xbef32e47	-0.47496244
88	0xbe874971	-0.2642322
89	0x3e322c60	0.1739974
90	0x3e050558	0.1299032
91	0xbde0f044	-0.10983327
92	0x3ebacb33	0.36483154
93	0x3eba5a1a	0.36396867
94	0xbedf6147	-0.43628904
95	0xbea4b95e	-0.32172674

conv1.bias f4 [32]
0	0x3f076c04	0.52899194
1	0xbe45d297	-0.19318615
2	0xbe51e0ba	-0.20495883
3	0xbf0e965d	-0.55698186
4	0xbeaa8a23	-0.33308515
5	0x3e13120f	0.14362358
6	0xbd9e3272	-0.077244654
7	0xbed5fb4f	-0.41793296
8	0x3c47c46a	0.012192825
9	0xbeca5bf7	-0.3952329
10	0xbefc47c3	-0.492735
11	0xbea3fe01	-0.32029727
12	0xbf019e07	-0.50631756
13	0xbebbce5c	-0.36680877
14	0x3f141916	0.5785078
15	0x3ddf043b	0.10889479
16	0x3e36433a	0.17799082
17	0xbf09a29e	-0.5376376
18	0xbec1e44c	-0.3786949
19	0xbe43dbb7	-0.19126783
20	0x3db35ea0	0.08758283
21	0xbf019729	-0.5062128
22	0xbe7df389	-0.24799933
23	0xbeb1fe70	-0.34764433
24	0x3b1dd6dd	0.0024084367
25	0xbe5bc8c5	-0.21463306
26	0xbd241bce	-0.04006558
27	0xbec83b33	-0.39107665
28	0xbecb542f	-0.39712664
29	0xbeacecc9	-0.33774403
30	0xbe4cebbb	-0.20011799
31	0xbee92cd4	-0.45542014

bn1.weight f4 [32]
0	0x3f82f352	1.0230505
1	0x3f814de0	1.010189
2	0x3f78a1ee	0.97122085
3	0x3f7dfe5d	0.9921625
4	0x3f803639	1.0016547
5	0x3f78e004	0.9721682
6	0x3f7f2b85	0.9967578
7	0x3f7984a2	0.97468007
8	0x3f82d7b5	1.0222079
9	0x3f7e5e43	0.9936258
10	0x3f807f1d	1.0038792
11	0x3f804d44	1.002358
12	0x3f7fa1ae	0.9985608
13	0x3f7dc70f	0.99131864
14	0x3f7fe93d	0.9996527
15	0x3f814354	1.0098672
16	0x3f810779	1.0080405
17	0x3f803e67	1.0019044
18	0x3f80adbe	1.0053022
19	0x3f7ebaf8	0.9950404
20	0x3f84b72d	1.0368401
21	0x3f7a7cfb	0.97846955
22	0x3f81328f	1.0093554
23	0x3f7fc45e	0.9990901
24	0x3f804128	1.0019884
25	0x3f819b72	1.0125563
26	0x3f80e5a7	1.0070084
27	0x3f804243	1.0020221
28	0x3f752d8f	0.9577264
29	0x3f820783	1.0158542
30	0x3f811189	1.0083476
31	0x3f7f4568	0.9971528

bn1.bias f4 [32]
0	0x3c412a52	0.011789875
1	0x3d1e0679	0.03858039
2	0x3cb4d46b	0.022073945
3	0x3d152e6f	0.036421236
4	0x3cd0b74a	0.025478024
5	0x3c998578	0.0187404
6	0xbd55ddbe	-0.052213423
7	0xbc8c39c1	-0.017117383
8	0xba66de7c	-0.00088069565
9	0xbd327d6a	-0.043576635
10	0x3c8ca601	0.017169
11	0x3d2f87de	0.042854182
12	0x3cc05a38	0.02348052
13	0xbc95c259	-0.018281149
14	0xbc517024	-0.012783084
15	0x3d479c09	0.04873279
16	0x3d890e52	0.066921845
17	0xbd12a0dc	-0.03579794
18	0x3d4fbbf7	0.050716367
19	0x3cf2e8df	0.029652057
20	0x3c0f7099	0.008754873
21	0x3d17222a	0.036897816
22	0x3d54e8d6	0.051979862
23	0x3cb96da2	0.022635285
24	0x3d09b252	0.033617325
25	0xbbd36288	-0.006450955
26	0xbae00698	-0.0017091809
27	0x3da3c8ec	0.07997307
28	0xbd34ba65	-0.044123072
29	0x3d984230	0.07434499
30	0xbcbe6811	-0.023242982
31	0x3d8816f7	0.06645005

bn1.running_mean f4 [32]
0	0x3f67308f	0.9030847
1	0x3d6e1da9	0.058133755
2	0x3d050267	0.032472994
3	0xbef097fd	-0.46990958
4	0x3c4fd44c	0.012684893
5	0x3eaa8bfc	0.33309925
6	0xbe8389f8	-0.256912
7	0xbecf2a9c	-0.40462196
8	0xbec888f6	-0.39166993
9	0xbf4a283f	-0.7896766
10	0xbe9c2307	-0.30495474
11	0xbe4e4465	-0.20143278
12	0xbe703e30	-0.23461223
13	0xbef3dcaa	-0.4762929
14	0x3f886da1	1.0658456
15	0x3e247e9f	0.16063927
16	0xbdf41d9d	-0.11919711
17	0xbf28fe5f	-0.6601314
18	0xbde829bf	-0.113360874
19	0xbe25e437	-0.16200338
20	0xbd821fb6	-0.06353705
21	0xbf113d98	-0.5673461
22	0xbeb12b51	-0.3460336
23	0xbe1620d9	-0.14660968
24	0xbe675161	-0.22589637
25	0xbf024ccd	-0.5089844
26	0x3e168eed	0.1470296
27	0xbf06b5e7	-0.5262131
28	0xbe422d0d	-0.18962498
29	0xbf16dcfe	-0.5893096
30	0xbceffe92	-0.029296193
31	0xbf238221	-0.63870436

bn1.running_var f4 [32]
0	0x3f03dc8b	0.51508397
1	0x3ec90e25	0.39268604
2	0x3f09e421	0.5386372
3	0x3f0b77ea	0.5447985
4	0x3e9c0351	0.3047128
5	0x3e84f8d0	0.2597108
6	0x3e4af29e	0.19819114
7	0x3e7af0df	0.24505948
8	0x3ea3bac5	0.3197843
9	0x3f0cbb08	0.5497289
10	0x3f5e4906	0.86830175
11	0x3e4af216	0.19818911
12	0x3e8251c8	0.2545302
13	0x3dc93c1d	0.09825919
14	0x3ef1b44a	0.47207862
15	0x3e634e68	0.22197878
16	0x3f2483b3	0.6426346
17	0x3f11499e	0.56752956
18	0x3e024e23	0.1272512
19	0x3eeceb52	0.46273285
20	0x3e874832	0.26422268
21	0x3dd85874	0.10563746
22	0x3f100b60	0.56267357
23	0x3f015a55	0.5052846
24	0x3f851865	1.039807
25	0x3ef7ca2c	0.48396432
26	0x3ed5f432	0.4178787
27	0x3ebd8407	0.3701479
28	0x3e9c899c	0.30573738
29	0x3ec4970a	0.38396484
30	0x3e4485a2	0.19191602
31	0x3f03a915	0.51429874

conv2.weight f4 [64, 32, 3]
0	0x3db813a7	0.089881234
1	0x3b842e0c	0.0040338095
2	0x3dac8479	0.08423705
3	0x3c41b1e7	0.0118222
4	0xbdd3c558	-0.10340375
5	0x3de4cfd7	0.11172455
6	0x3b15c18d	0.002285096
7	0xbc124a3f	-0.008928834
8	0xbdae9042	-0.08523609
9	0xbda00a03	-0.078144096
10	0x3d0e5028	0.03474441
11	0xbc95dc98	-0.018293664
12	0x3c8b5e2f	0.017012684
13	0xbdaaa7fd	-0.083328225
14	0x3dd2274e	0.10261403
15	0xbd7dac1d	-0.06193172
16	0xbc8d74dd	-0.017267639
17	0x3b5c2b5d	0.0033595182
18	0x3d76f632	0.060293384
19	0x3d94891b	0.07252713
20	0x3db7b739	0.08970494
21	0xbda39eb0	-0.079892516
22	0x3d457b43	0.048213255
23	0xbd58b783	-0.052909385
24	0x3ca5d94f	0.020245222
25	0xbd9dcad9	-0.07704706
26	0x3dcf48c3	0.101213
27	0xbd7d8d11	-0.06190211
28	0x3d7b7ac7	0.061396386
29	0x3c7b48a7	0.015337146
30	0x3c6e3e22	0.014541181
31	0xbd43af1f	-0.04777443
32	0x3dddea69	0.10835726
33	0xbb0df18f	-0.0021658873
34	0x3cdf9d31	0.027296634
35	0xbdcff55a	-0.10154219
36	0x3d27a029	0.040924225
37	0xbc09b6bc	-0.008405384
38	0xbd8002a5	-0.062505044
39	0x3dc0681c	0.09394857
40	0x3c4baad8	0.012430869
41	0xbd7617fd	-0.06008147
42	0xbd498fe8	-0.049209505
43	0x3ba15d8f	0.004924483
44	0x3d636240	0.05551362
45	0xbb586d8f	-0.0033024286
46	0xbd534200	-0.051576614
47	0xbce8e690	-0.028430253
48	0xbd8ee86e	-0.06977926
49	0x3d7ee33d	0.06222843
50	0x3d9cb6d4	0.07652059
51	0xbdb7750d	-0.089578725
52	0x3d4bc48c	0.04974799
53	0x3d48e5c9	0.049047265
54	0x3c957d61	0.018248262
55	0xbcfca19c	-0.03083878
56	0x3d88363f	0.066509716
57	0x3d614099	0.054993246
58	0x3da7c205	0.08191303
59	0xbd40e824	-0.047096387
60	0xbd09d57f	-0.03365087
61	0x3d477204	0.04869272
62	0xbd1d1e5f	-0.038359042
63	0xbcaf58a1	-0.021404566
64	0x3d80e7e7	0.06294232
65	0x3da89546	0.08231597
66	0xbc9665a8	-0.01835902
67	0xbca4f2da	-0.020135332
68	0x3cae1a73	0.021252846
69	0x3ca63607	0.020289434
70	0x3ce65346	0.02811588
71	0x3cca4e6f	0.024695603
72	0xbdc782dd	-0.09741757
73	0xbd0ba7e3	-0.034095656
74	0x3dc32e7a	0.09530349
75	0x3d6ee398	0.05832252
76	0x3c8d2df9	0.017233836
77	0xbd1bb824	-0.038017407
78	0xbd8e9779	-0.06962485
79	0xbd1b81fc	-0.03796576
80	0xbd586f9b	-0.05284081
81	0x3d441507	0.047871616
82	0x3d7699c8	0.06020525
83	0x3d3c7ad1	0.046015564
84	0xbdfaecc5	-0.122521915
85	0xbd893069	-0.06698687
86	0x3c53f766	0.012937402
87	0x3e096f74	0.13421422
88	0x3cc05517	0.023478074
89	0x3c32e3de	0.010918586
90	0x3be50199	0.006988716
91	0xbccf7780	-0.025325537
92	0xbd9cc65f	-0.07655024
93	0x3d783b32	0.060603328
94	0xbd3ba52b	-0.045811813
95	0xbc7fa353	-0.015602904
96	0xbdcf3873	-0.10118189
97	0x3d8d6d5e	0.06905626
98	0x3dc4ad5d	0.09603379
99	0x3d0a7721	0.033805016
100	0xbd9f347e	-0.07773684
101	0xbdc09792	-0.0940391
102	0xbe0dc834	-0.13845903
103	0x3dc3826a	0.09546359
104	0x3d7a23d2	0.061069317
105	0x3dba9120	0.09109712
106	0x3da617a6	0.08109979
107	0x3d078273	0.03308339
108	0xbc304424	-0.0107584335
109	0xbda417db	-0.080123626
110	0xbdc4588c	-0.095872015
111	0xbdb489e8	-0.08815366
112	0x3d6dd39e	0.058063142
113	0xbd1def64	-0.03855838
114	0xbc91292d	-0.01771983
115	0xbd51d70e	-0.051230483
116	0xbcf91747	-0.030406607
117	0xbd99a030	-0.075012565
118	0xbd59b534	-0.053151324
119	0x3d0c1939	0.03420374
120	0xbd5bba4d	-0.053644467
121	0x3d81accf	0.06331789
122	0xbd17b517	-0.037037935
123	0xbd9927c4	-0.07478288
124	0xbb3d4250	-0.0028878637
125	0xbd9cedb0	-0.07662523
126	0xbcbbda8c	-0.02293136
127	0xbda139c9	-0.0787235
128	0x3d773b5a	0.060359336
129	0xbd8d063f	-0.06885957
130	0x3d6c3f80	0.057677746
131	0x3d409681	0.04701853
132	0x3d86a932	0.0657524
133	0xbd924762	-0.071425214
134	0x3db960bb	0.09051653
135	0xbd31bfeb	-0.043395918
136	0x3d47e605	0.048803348
137	0x3dc0228b	0.093815885
138	0xbd2e9adb	-0.04262815
139	0xb8b87654	-8.795844e-05
140	0xbc4c5a46	-0.012472695
141	0xbdb2ccd1	-0.08730472
142	0x3d9d7ce5	0.07689837
143	0xbdb94c16	-0.09047715
144	0x3d416923	0.047219407
145	0x3d9a28e6	0.07527332
146	0x3db736c9	0.08945996
147	0xbd02ef39	-0.03196642
148	0xbd9080fb	-0.07055851
149	0x3c8a0690	0.016848832
150	0x3ced8924	0.028996058
151	0xbdecee78	-0.11568922
152	0xbcb9e99b	-0.0226944
153	0xbd29184a	-0.04128293
154	0x3c63e986	0.013910657
155	0xbcf0d62c	-0.029399
156	0xbd0a912d	-0.033829857
157	0xbb881cf8	-0.004153844
158	0xbde0f183	-0.10983565
159	0x3dc4f176	0.096163675
160	0x3dd2f505	0.1030064
161	0xbc576bdd	-0.013148275
162	0xbc648164	-0.013946865
163	0xbd315b6e	-0.043300085
164	0xbdb6ff16	-0.089353725
165	0xbded7a08	-0.11595541
166	0x3d817c0e	0.0632249
167	0xbd38cb4d	-0.045115758
168	0xbd8ee69c	-0.06977579
169	0xbbe8c444	-0.007103475
170	0xbd1ce821	-0.038307313
171	0xbd837421	-0.06418634
172	0x3cadf152	0.021233235
173	0xbcd8946a	-0.026437957
174	0xbcc1f438	-0.023676023
175	0xbd0c3297	-0.034227934
176	0xbd78a528	-0.06070438
177	0x3dcadd1c	0.099054545
178	0xbcc26c5f	-0.023733316
179	0x3cf224ab	0.0295585
180	0xbd0b3036	-0.033981524
181	0x3c092232	0.008369969
182	0x3dd9edcc	0.10641059
183	0x3c5cdade	0.013479916
184	0xbd8d4ad9	-0.06899042
185	0x3d3144f9	0.043278668
186	0x3dc2e083	0.095154785
187	0x3d0213ca	0.031757154
188	0x3d8c5160	0.068514585
189	0x3dcc91be	0.099887356
190	0xbc234a3b	-0.009966428
191	0x3c6bfffa	0.014404291
192	0xbdd4d217	-0.10391634
193	0xbd125021	-0.035720948
194	0x3dcb1da2	0.099177614
195	0x3d86cc41	0.06581927
196	0xbd87de10	-0.06634152
197	0xbdc95d20	-0.09832215
198	0xbd9af2fe	-0.07565878
199	0xbdbd51ac	-0.09244093
200	0xbcd1bb5f	-0.02560204
201	0xbb6d0055	-0.0036163528
202	0x3d89617f	0.06708049
203	0x3ca31f7e	0.019912478
204	0xbd86c109	-0.06579787
205	0xbddb5d61	-0.1071117
206	0x3d365c76	0.04452177
207	0xbd8c149f	-0.06839871
208	0xbd02be9c	-0.03192006
209	0x3d5b375a	0.053519584
210	0xbd182555	-0.037144978
211	0xbc799524	-0.015233312
212	0xbd25c598	-0.040471643
213	0xbc99f027	-0.018791271
214	0xbd663861	-0.05620611
215	0xbdaf3ee9	-0.08556921
216	0xbd7e79af	-0.062127765
217	0xbd703203	-0.058641445
218	0x3deb22ad	0.11481223
219	0xbd427e35	-0.04748364
220	0xbd91d6be	-0.07121037
221	0xbc00c28c	-0.007858884
222	0x3d320e0d	0.04347043
223	0x3dc13844	0.0943456
224	0x3d5950b0	0.053055465
225	0x3d83209c	0.06402704
226	0xbdca1f85	-0.09869293
227	0x3b6b7261	0.003592633
228	0x3d25046a	0.040287413
229	0xbd3c97fd	-0.046043385
230	0xbd00ae20	-0.03141606
231	0x3dd79efd	0.105283715
232	0xbd273f5f	-0.04083192
233	0xbdb3320f	-0.08749782
234	0xbdd4c164	-0.10388449
235	0xbcd2eb71	-0.025747033
236	0x3d93ff6f	0.072264545
237	0x3d28976a	0.041160025
238	0x3c9eb9f9	0.019375788
239	0xbd830558	-0.063975036
240	0xbdad9602	-0.08475877
241	0x3be6e7d5	0.0070466795
242	0x3d90963f	0.07059907
243	0x3d8298ba	0.063767865
244	0xbd85ed8a	-0.065394476
245	0xbc8e557d	-0.017374748
246	0xbdb367f9	-0.087600656
247	0xbdb8bfa8	-0.090209305
248	0x3d326a5b	0.04355846
249	0x3d0a7160	0.03379953
250	0x3da68db6	0.08132498
251	0xbddceb70	-0.10787094
252	0x3d969cba	0.07354112
253	0xbcbef625	-0.02331073
254	0x3c10af46	0.008830851
255	0x3dcdd1e3	0.10049798

conv2.bias f4 [64]
0	0xbd872304	-0.065984756
1	0x3d97bcbc	0.07409045
2	0x3da8e1e7	0.082462125
3	0x3d90501d	0.070465304
4	0xbb083000	-0.0020780563
5	0x3ccd6f7f	0.02507758
6	0x3b9fc7b9	0.0048761037
7	0xbd1e46bd	-0.03864168
8	0xbdcc7740	-0.09983683
9	0xbc424f86	-0.01185978
10	0x3d38bafe	0.045100205
11	0x3d75565b	0.059896808
12	0x3cd157fc	0.02555465
13	0x3d3cc79d	0.046088804
14	0x3d8c22d1	0.06842578
15	0xbc9a21ac	-0.018814884
16	0x3d87b3ff	0.066261284
17	0xbafbd768	-0.0019213976
18	0xbd14188b	-0.03615622
19	0xbd1a53d2	-0.037677594
20	0xbd6c6e79	-0.057722542
21	0xbda23507	-0.079202704
22	0x3cc49a17	0.023999257
23	0x3dc3ed2b	0.095667206
24	0x3c83bd67	0.016081525
25	0x3c618eb0	0.0137669295
26	0xbd2018df	-0.03908622
27	0xbd28d14b	-0.041215222
28	0xbd05bcda	-0.032650806
29	0x3d139079	0.03602645
30	0x3c8bf07c	0.017082445
31	0xbd170295	-0.036867697
32	0x3c91a24b	0.017777583
33	0xbc99eea6	-0.018790554
34	0xbbeeaf00	-0.007284045
35	0x3d932294	0.0718433
36	0xbd2b253d	-0.04178356
37	0x3dc1f905	0.09471325
38	0xbd677f20	-0.05651772
39	0x3dc0ba55	0.0941054
40	0x3d1a9105	0.037735958
41	0x3d2ad799	0.041709516
42	0xbcc276a7	-0.023738218
43	0xbce1e685	-0.02757574
44	0xbd97be5f	-0.07409357
45	0xbdc97c72	-0.09838189
46	0x3d91946b	0.071083866
47	0x3dc90a56	0.098164245
48	0x3cefded7	0.029281063
49	0xbd23ee17	-0.040021982
50	0x3cb48c65	0.022039602
51	0xbac5a3de	-0.0015078743
52	0xbdb47034	-0.088104635
53	0xbda9ba4a	-0.08287485
54	0x3d0e4b71	0.034739915
55	0xbcf8a8f3	-0.030353999
56	0xbcc21a3b	-0.023694148
57	0xbd79cece	-0.06098824
58	0x3d391ce2	0.04519356
59	0xbd53f9ac	-0.051751778
60	0xbd0610ae	-0.03273075
61	0x3d6654e3	0.056233298
62	0x3dc8e0d4	0.098085076
63	0x3dba83ca	0.09107168

bn2.weight f4 [64]
0	0x3f80019b	1.000049
1	0x3f7e1607	0.9925236
2	0x3f84b536	1.0367801
3	0x3f84d29c	1.0376773
4	0x3f827f43	1.0195087
5	0x3f852dd9	1.0404617
6	0x3f85da21	1.0457193
7	0x3f817c2c	1.0116019
8	0x3f81a1f2	1.0127547
9	0x3f7e79dd	0.994047
10	0x3f8184fa	1.0118706
11	0x3f849337	1.0357426
12	0x3f835898	1.0261412
13	0x3f806bc6	1.003289
14	0x3f82f44b	1.0230802
15	0x3f837a71	1.0271741
16	0x3f8026b7	1.0011815
17	0x3f828408	1.0196543
18	0x3f7e7d29	0.9940973
19	0x3f82f762	1.0231745
20	0x3f834283	1.0254673
21	0x3f88a17b	1.067428
22	0x3f81cf74	1.0141435
23	0x3f83ce06	1.0297248
24	0x3f84d9ba	1.0378945
25	0x3f854b9d	1.04137
26	0x3f84a37d	1.0362393
27	0x3f84f671	1.0387708
28	0x3f8425ad	1.0323998
29	0x3f83bf2d	1.0292717
30	0x3f832659	1.0246078
31	0x3f850f30	1.039526
32	0x3f832ab6	1.0247409
33	0x3f8553c2	1.0416186
34	0x3f80f770	1.0075512
35	0x3f846f63	1.0346493
36	0x3f8333d4	1.0250192
37	0x3f82c8d9	1.0217544
38	0x3f83ebd4	1.0306344
39	0x3f82ce21	1.0219156
40	0x3f811198	1.0083494
41	0x3f838b90	1.0276966
42	0x3f8413b2	1.031851
43	0x3f816620	1.0109291
44	0x3f801432	1.0006163
45	0x3f82742d	1.0191704
46	0x3f82f510	1.0231037
47	0x3f822c8e	1.0169847
48	0x3f809eb8	1.0048437
49	0x3f830329	1.0235339
50	0x3f825d4e	1.0184724
51	0x3f819eeb	1.0126623
52	0x3f7e9c95	0.99457675
53	0x3f8366fe	1.0265806
54	0x3f874451	1.0567724
55	0x3f816d70	1.0111523
56	0x3f8411f1	1.0317975
57	0x3f835fd5	1.0263621
58	0x3f809120	1.0044289
59	0x3f7f0fb0	0.9963331
60	0x3f81c2a1	1.0137521
61	0x3f843d20	1.0331154
62	0x3f834dc5	1.0258108
63	0x3f82457c	1.0177455

bn2.bias f4 [64]
0	0x3c877430	0.016534895
1	0x3c60cb8a	0.0137204025
2	0x3d0c17ae	0.03420227
3	0x3be39b1c	0.0069459807
4	0xbc82d141	-0.01596892
5	0x3c03b139	0.008037859
6	0xbd2c6d8d	-0.042096663
7	0x3b66e373	0.0035230785
8	0x3b5a4312	0.0033304137
9	0xbccdda96	-0.025128644
10	0x3cad553e	0.02115881
11	0xbc12e752	-0.008966284
12	0xba8f8005	-0.0010948187
13	0x3b9a910b	0.0047169975
14	0xbbb02382	-0.0053753266
15	0xbc57fb9c	-0.013182547
16	0xbd354fc9	-0.044265542
17	0x3c16d285	0.009205465
18	0xbbe738a7	-0.007056314
19	0x3c65c445	0.014023845
20	0xba8b982e	-0.0010650211
21	0xbbfdb87d	-0.00774294
22	0xbbfd5cee	-0.0077320253
23	0x3c3c1659	0.0114799375
24	0x3d085053	0.03327973
25	0xbc46cc98	-0.01213374
26	0x3c89117f	0.016731976
27	0x3c660d8d	0.014041317
28	0x3c772d7d	0.015086529
29	0x3c6676ba	0.014066393
30	0x3c874d73	0.016516423
31	0xb9f38486	-0.0004644731
32	0xbcc5946c	-0.024118625
33	0x3cb1d55a	0.02170818
34	0xbc7aeffc	-0.015316006
35	0xbc3dbd47	-0.011580772
36	0xbacb2b2d	-0.0015500538
37	0x3b98a3cf	0.0046581994
38	0xbc808cb5	-0.015692094
39	0xbb64492f	-0.003483366
40	0xbca7ed41	-0.020498874
41	0xbcdcc2a1	-0.026948275
42	0x3bd362db	0.0064509935
43	0xbc3221a5	-0.010872279
44	0xbb391780	-0.0028242767
45	0xbb505d80	-0.0031794012
46	0xb94a53eb	-0.00019295483
47	0xbcbdd6bb	-0.02317368
48	0x3c295981	0.010336281
49	0x3c242201	0.010017873
50	0xbacf940a	-0.0015836966
51	0x3b751ddb	0.0037401828
52	0x3b3adc7c	0.0028512767
53	0xbbfcd2f6	-0.007715578
54	0xb8571a04	-5.1284223e-05
55	0x3a46cd1c	0.0007583664
56	0x3cd53311	0.026025327
57	0x3b1a7cb1	0.0023572857
58	0xbc9abd20	-0.01888901
59	0x3b063625	0.002047905
60	0x3ba0481c	0.0048914086
61	0x3cc8b8d5	0.024502197
62	0x3cb3f581	0.021967651
63	0xbc38ca35	-0.011278679

bn2.running_mean f4 [64]
0	0x3e4b1460	0.19831991
1	0xbe57413a	-0.21020976
2	0xbedf4d7a	-0.43613797
3	0xbd0a9203	-0.033830654
4	0xbe07b453	-0.13252382
5	0xbec28fe4	-0.38000405
6	0xbc511ca7	-0.012763179
7	0xbc91744b	-0.017755648
8	0xbea6d005	-0.3258058
9	0xbe81e47c	-0.25369632
10	0x3d9e8fef	0.07742297
11	0x3e0a363f	0.13497256
12	0xbd961907	-0.07328992
13	0xbed638da	-0.4184025
14	0x3e24c8d0	0.16092229
15	0xbdcb1bdc	-0.09917423
16	0x3f30cd25	0.69063026
17	0xbeb92730	-0.3616271
18	0xbed19ec0	-0.4094143
19	0xbf21ab90	-0.6315241
20	0x3e8adce2	0.27121645
21	0xbcff1756	-0.031139057
22	0xbf10a136	-0.5649599
23	0xbd8bd264	-0.06827238
24	0x3e0e80c0	0.13916302
25	0x3e050797	0.12991177
26	0xbe44dbd8	-0.19224489
27	0x3cf58977	0.029972775
28	0xbd94da5c	-0.07268211
29	0x3ddd1650	0.107952714
30	0xbd6c86d4	-0.05774577
31	0x3c8cb668	0.017176822
32	0x3ec86b38	0.391443
33	0xbeb7f433	-0.35928497
34	0xbe3251aa	-0.17413965
35	0xbeb8902e	-0.360475
36	0xbd423b9e	-0.047420137
37	0xbd85fe1e	-0.0654261
38	0x3c739387	0.014866716
39	0x3c99de93	0.01878289
40	0x3f40facf	0.75382704
41	0xbdd4924d	-0.10379467
42	0xbe156fdc	-0.14593452
43	0x3d138b32	0.03602142
44	0xbf50a0ce	-0.8149537
45	0xbebbf58f	-0.36710784
46	0x3dd16e1e	0.10226081
47	0x3f4e3d53	0.80562323
48	0xbe9cacc8	-0.30600572
49	0xbdd0b0f5	-0.10190002
50	0x3f0c49b0	0.5479994
51	0x3e551f5c	0.20812744
52	0xbc19a384	-0.009377364
53	0xbe4a44de	-0.19752833
54	0x3c72504a	0.01478965
55	0xbeff14b5	-0.49820486
56	0x3df44872	0.1192788
57	0xbddd8b02	-0.10817529
58	0xbec200e0	-0.37891293
59	0x3d03a76b	0.032142084
60	0x3b964f31	0.004587077
61	0xbe8ea4a3	-0.27859983
62	0xbec6fb4b	-0.38863596
63	0xbefe3311	-0.49648336

bn2.running_var f4 [64]
0	0x3e6dc29b	0.23218767
1	0x3e426d3b	0.1898698
2	0x3e8e35ed	0.27775517
3	0x3e0b7c8b	0.13621728
4	0x3e22e740	0.15908527
5	0x3e93353e	0.28751558
6	0x3e1d997b	0.1539058
7	0x3e4a22be	0.19739816
8	0x3e2d9c56	0.16954169
9	0x3e1af6e1	0.1513324
10	0x3deaeee2	0.114713445
11	0x3e6a9c26	0.22911128
12	0x3e317859	0.17331065
13	0x3eae185b	0.34002957
14	0x3d4d4bfb	0.05012129
15	0x3e0e3a86	0.13889512
16	0x3e94a202	0.29029852
17	0x3e50a576	0.20375618
18	0x3e36d82a	0.17855898
19	0x3e7cef5f	0.24700688
20	0x3e73d685	0.23812301
21	0x3e1f8f6e	0.15582058
22	0x3eaa14a6	0.33218879
23	0x3df08a17	0.117450885
24	0x3e01bb65	0.12669142
25	0x3ea38aed	0.3194193
26	0x3de0a624	0.10969189
27	0x3de6d56f	0.11271178
28	0x3dae646b	0.08515247
29	0x3dfcbef9	0.12341113
30	0x3ec2620e	0.37965435
31	0x3e30c7e5	0.17263754
32	0x3e8115ba	0.2521189
33	0x3dfdc540	0.12391138
34	0x3e837a78	0.25679374
35	0x3eb2ac4a	0.3489707
36	0x3e245f79	0.16052045
37	0x3e90bde7	0.28269884
38	0x3e73dc7d	0.23814578
39	0x3de4c274	0.111699015
40	0x3e86a640	0.26298714
41	0x3de40932	0.11134566
42	0x3e143e55	0.14476903
43	0x3e2d09b1	0.16898228
44	0x3f0dcb7f	0.55388635
45	0x3e2118d8	0.15732133
46	0x3df106cf	0.11768877
47	0x3eabb05d	0.33532992
48	0x3e948a1e	0.29011625
49	0x3e3673a9	0.17817558
50	0x3f029d59	0.51021343
51	0x3dda1fbc	0.10650584
52	0x3e16834e	0.14698526
53	0x3e4a9051	0.19781615
54	0x3e4e664a	0.20156208
55	0x3ebafe3f	0.365221
56	0x3e4a6e17	0.19768558
57	0x3e40e226	0.18836269
58	0x3e8b6eac	0.27232873
59	0x3de53eff	0.11193656
60	0x3e256412	0.16151455
61	0x3e6d85a3	0.2319551
62	0x3e2c0e51	0.16802336
63	0x3e7739cc	0.24143142

t_conv1.weight f4 [64, 128, 2]
0	0x3cfa0057	0.03051774
1	0x3a6bcb4f	0.0008994834
2	0x3cb0cc5c	0.021581821
3	0x3d5785bd	0.052617777
4	0x3cd4b1d7	0.025963707
5	0x3c11b206	0.008892542
6	0x3bd6f37a	0.0065597864
7	0xb98ab1c7	-0.00026453866
8	0x3d55dda5	0.05221333
9	0x3c75a9f4	0.014994133
10	0xbc41fbcb	-0.011839817
11	0xbd3345e0	-0.04376781
12	0xbd1da687	-0.03848889
13	0xbaa833fb	-0.0012832874
14	0xbc7edaef	-0.0155551275
15	0xbcb301bf	-0.021851419
16	0xbd090237	-0.033449378
17	0xbd494c72	-0.04914517
18	0x3bdac5ac	0.0066763964
19	0x3c9546e5	0.018222282
20	0xba3176b9	-0.0006769705
21	0xba4a6045	-0.0007720034
22	0xbcbf1c59	-0.023328947
23	0xbd50f3eb	-0.05101387
24	0xbd5ee339	-0.054415915
25	0xbcc020f9	-0.023453223
26	0xbd3835bb	-0.044973116
27	0xbd95a902	-0.07307626
28	0xbd155ad7	-0.036463585
29	0x3d01d86b	0.031700533
30	0x3db7485a	0.08949347
31	0xbccda06f	-0.025100915
32	0x3cb30946	0.021855008
33	0x3ce9f32c	0.028558336
34	0xbd350695	-0.04419573
35	0xbd17bb3a	-0.037043788
36	0xbd0a70e5	-0.03379907
37	0xbd95e2d6	-0.07318656
38	0x3d3ea513	0.046544146
39	0x3bed9b4b	0.0072511784
40	0xbd228741	-0.03967977
41	0x3b7a0560	0.0038150176
42	0xbd80bd36	-0.06286089
43	0x3dcf483a	0.10121198
44	0x3cc12156	0.023575466
45	0xbce93077	-0.028465493
46	0x3d3965e3	0.045263182
47	0xbd49f9fe	-0.049310677
48	0x3d42119a	0.047380067
49	0xbb9c4190	-0.004768558
50	0x3cc630a9	0.024193125
51	0x3c4a09c2	0.012331428
52	0x3bf635d2	0.00751374
53	0x3bda5759	0.0066632447
54	0xbc547c25	-0.0129690515
55	0x39de004d	0.00042343364
56	0x3d868927	0.065691285
57	0xbd4c1e11	-0.04983336
58	0xbcd3c61d	-0.025851304
59	0xbc72aa4e	-0.014811112
60	0xbd66ad94	-0.05631788
61	0x3af66570	0.0018798541
62	0xbc701c4f	-0.014655187
63	0x3d3b359e	0.04570543
64	0x3c12a23b	0.008949812
65	0xbd23fbf8	-0.040035218
66	0x3d51f308	0.051257163
67	0xbcb5bcae	-0.022184696
68	0x3c997e6b	0.018737039
69	0x3cc0fa67	0.023556901
70	0x3d25c9af	0.040475544
71	0xbc634997	-0.013872526
72	0x3aef94fc	0.0018278654
73	0xbc9af4d4	-0.018915571
74	0x3be0b46c	0.0068574455
75	0xbc99a909	-0.01875736
76	0x3d505b45	0.05086829
77	0xbd1efa6e	-0.038813047
78	0x3cf3b24f	0.02974811
79	0xbd530d87	-0.051526573
80	0x3cb389c8	0.021916285
81	0xbc275e3c	-0.010215338
82	0xbd1ec84b	-0.038765233
83	0x3cff9529	0.031199055
84	0xbd7f89d9	-0.06238732
85	0x3d15560f	0.036459025
86	0xbc685ffb	-0.01418304
87	0xbd36b705	-0.044608135
88	0x3d4d6e07	0.05015376
89	0x3b259339	0.0025264753
90	0x3c8d4111	0.01724294
91	0xbb01bf68	-0.0019797925
92	0x3cf2d116	0.029640716
93	0xbd11fb12	-0.03563983
94	0xbd86b11b	-0.06576749
95	0x3d7f5d48	0.06234482
96	0xbcd35bbc	-0.025800578
97	0x3cda5dbf	0.02665603
98	0x3aa399c0	0.0012481734
99	0x3d36487d	0.044502724
100	0x3d6fd9ac	0.058557197
101	0xbd6a5e68	-0.05721894
102	0xbcbad45a	-0.022806335
103	0xbd4da100	-0.05020237
104	0x3d948179	0.072512574
105	0x3d7fedd1	0.06248266
106	0xbd161ad3	-0.036646675
107	0x3ac474e5	0.001498845
108	0xbcdbf62b	-0.02685078
109	0xbcae94e3	-0.02131123
110	0x3d575ebb	0.052580576
111	0xbcf6d47d	-0.03013062
112	0xbd07ec82	-0.033184536
113	0xbc456148	-0.012047119
114	0xbd1d4f92	-0.038405962
115	0x3c2c0137	0.0104983365
116	0x3d598a38	0.05311033
117	0xbda44052	-0.080200806
118	0x3d16d9bc	0.03682874
119	0xbcd0975e	-0.025462802
120	0x3d34bf44	0.044127718
121	0xbd74f4b9	-0.0598037
122	0x3d738aae	0.059458427
123	0xbc32a718	-0.010904096
124	0x3d834bf9	0.06410975
125	0xbd394183	-0.045228492
126	0x3cd16796	0.025562089
127	0x3cf9fa1c	0.03051477
128	0x3d6778cd	0.05651169
129	0x3d2ce367	0.042209055
130	0x3ccf2279	0.025284993
131	0xbb3c57df	-0.0028738899
132	0xbd414d29	-0.047192726
133	0xbbef6ef5	-0.0073069283
134	0x3d99155a	0.074747756
135	0x3d385b0f	0.045008715
136	0xbd5f6167	-0.05453625
137	0x3d9c6bd2	0.076377526
138	0x3ca8bee2	0.020598833
139	0x3c3f79d8	0.011686765
140	0x3d2d73d2	0.042346783
141	0xbc3b3a36	-0.011427453
142	0x3b0cc442	0.0021479283
143	0xbd6c12b6	-0.05763503
144	0xbd8711c1	-0.06595183
145	0x3dda378e	0.106551275
146	0x3d63af87	0.055587318
147	0xbd3bd224	-0.045854703
148	0xbb94d97b	-0.0045425273
149	0x3d2dcc56	0.042431198
150	0xbc85885c	-0.016300373
151	0x3c48474a	0.012224028
152	0x3d64857d	0.055791367
153	0x3d170179	0.03686664
154	0x3d8660c6	0.06561427
155	0xbd60a9e0	-0.054849505
156	0xbd7244a9	-0.05914751
157	0x3d07673b	0.033057433
158	0x3ccd428d	0.025056148
159	0x3c814374	0.015779234
160	0x3ce82faf	0.02834305
161	0xbc3edcf1	-0.011649356
162	0x3c9210d7	0.017830295
163	0x3d05ff5f	0.032714244
164	0xbd2c1e53	-0.042021107
165	0x3ceb0664	0.02868957
166	0x3cea6380	0.028611898
167	0xbc1c7d63	-0.009551379
168	0x3b0a1112	0.0021067304
169	0x3d3c12bd	0.045916308
170	0xbd7f6ee9	-0.06236163
171	0x3d69c6e1	0.05707443
172	0xbcb85557	-0.02250163
173	0x3c971070	0.018440455
174	0xbc3986c3	-0.011323634
175	0x3dbefcbd	0.0932555
176	0xbcc758c9	-0.024334328
177	0xbd2b8db1	-0.041883174
178	0x3d04401f	0.032287713
179	0x3c04a9ff	0.008097171
180	0xbc49d67f	-0.012319206
181	0xbc020903	-0.007936719
182	0xbd07614a	-0.033051766
183	0x3d9cb993	0.07652583
184	0xbb9e1205	-0.0048239254
185	0x3d61702a	0.05503861
186	0x3d45bf33	0.048278045
187	0x3d073a9f	0.03301489
188	0xbd4293b7	-0.047504153
189	0x3d4bd81f	0.049766656
190	0x3d0dcf9e	0.034621827
191	0xbd0706d6	-0.032965504
192	0x3d7a80cd	0.06115799
193	0xbc5fb4c5	-0.013653939
194	0xbc079437	-0.008275083
195	0xbc9d99b3	-0.019238329
196	0xbbc891fa	-0.0061209174
197	0xbcf4b3ba	-0.029870857
198	0x3ccca5f9	0.024981486
199	0x3cc59cbe	0.024122592
200	0x3d5bc7e9	0.053657446
201	0x3da10885	0.07862953
202	0xbd500fae	-0.050796203
203	0x3c3b1f0f	0.011420979
204	0x3cc46c66	0.02397747
205	0x3d1ce4ba	0.03830407
206	0x3c0a4a0a	0.008440504
207	0xbce69224	-0.028145857
208	0xbd55fa25	-0.05224051
209	0x3bd3c977	0.0064632255
210	0xbcc41f4e	-0.023940708
211	0x3c54c0ba	0.012985403
212	0xbd1f7eab	-0.03893916
213	0xbcbfd2c0	-0.023415923
214	0xbc69ac0e	-0.014262212
215	0x3d87b449	0.066261835
216	0x3d1c51d5	0.03816398
217	0xbd409227	-0.04701438
218	0xbd8966f5	-0.067090906
219	0x3cc75d07	0.024336351
220	0xbc2ca86e	-0.010538204
221	0xbd3a317f	-0.04545736
222	0x3d1a64d2	0.037693806
223	0xbddce79d	-0.10786364
224	0x3d0ff57c	0.03514622
225	0xbc1b7b9b	-0.009489919
226	0x3d45c1b8	0.048280448
227	0xbd9bc385	-0.07605652
228	0x3d27c04b	0.04095487
229	0x3c613e85	0.013747816
230	0x3cff3077	0.03115104
231	0x3d5053fe	0.05086135
232	0x3c29812d	0.010345739
233	0x3c888594	0.016665258
234	0xbc2728f3	-0.010202634
235	0x3d56930e	0.052386336
236	0xbd1856b4	-0.03719206
237	0x3d6f936f	0.058490213
238	0x3c4cbf8d	0.012496841
239	0x3d90f230	0.070774436
240	0x3d5d0d72	0.0539679
241	0x3d691213	0.056902003
242	0xbd476262	-0.04867781
243	0xbd30b535	-0.043141562
244	0xbcaf488e	-0.021396901
245	0x3d2a1795	0.041526396
246	0xbba474ce	-0.005018807
247	0x3d0340c8	0.032044202
248	0x3cf1b96e	0.029507365
249	0x3c21ad8b	0.009868036
250	0x3c112a65	0.008860205
251	0xbd215ea3	-0.039396893
252	0x3d1a587b	0.037682038
253	0xbd8c9ca8	-0.06865817
254	0xbd965f7e	-0.073424324
255	0x3d345f0b	0.044035953

t_conv1.bias f4 [128]
0	0x3d6cd0f0	0.057816446
1	0xbc258895	-0.0101033645
2	0x3cb391cc	0.021920107
3	0xbb253766	-0.0025210022
4	0xbd240826	-0.040046833
5	0xbce8703f	-0.028373836
6	0xbcf80005	-0.030273447
7	0x3caf8ea2	0.021430317
8	0x3cdd657e	0.027025934
9	0x3da8a3db	0.08234378
10	0x3ca88521	0.020571293
11	0xbca0147e	-0.019541021
12	0x3b0de738	0.002165271
13	0x3d1673f0	0.03673166
14	0xbcf6c3d0	-0.030122668
15	0x3d941506	0.072305724
16	0x3c84b2ab	0.016198477
17	0x3cf15881	0.029461147
18	0x3d903026	0.070404336
19	0xbd24e6bb	-0.040259104
20	0x3d377245	0.04478671
21	0x3d495422	0.0491525
22	0x3d323126	0.043503903
23	0x3d020995	0.03174742
24	0xbca2757e	-0.019831415
25	0xbce2a0fa	-0.02766465
26	0x3d24a436	0.040195666
27	0xbb6150a0	-0.0034380332
28	0x3d7cba5f	0.061701175
29	0x3d0fa991	0.03507382
30	0xbd2f69f8	-0.04282567
31	0x3cfa7018	0.030571029
32	0x3caaf76d	0.020869935
33	0xbd5cfb6e	-0.05395072
34	0x3ac7400e	0.0015201585
35	0xbcc9048d	-0.024538303
36	0xbc54a6b8	-0.012979202
37	0xbcd5a238	-0.026078328
38	0xbd09da0d	-0.033655215
39	0xbc7c2fd0	-0.015392259
40	0x3d85b8a4	0.06529358
41	0xbd1aed0c	-0.03782372
42	0xbc8b7906	-0.017025482
43	0xbc7af07c	-0.015316125
44	0x3d499c3f	0.049221274
45	0x3ce99b58	0.028516456
46	0xbc3c6611	-0.011498944
47	0x3bbffdf3	0.0058591305
48	0xbd09f2ba	-0.033678748
49	0xba9a2bb0	-0.0011762287
50	0xbcb5a3aa	-0.022172768
51	0xbd104212	-0.03521926
52	0xbcdf2128	-0.02723749
53	0xbd5ba574	-0.053624585
54	0xbc89718b	-0.016777774
55	0x3cd867bd	0.026416654
56	0xbaed7add	-0.0018118281
57	0xbc870074	-0.016479708
58	0xbd186ddc	-0.037214145
59	0xbc366456	-0.01113232
60	0x3ce17799	0.027522849
61	0xbccd8890	-0.025089532
62	0xbba335da	-0.004980785
63	0x3cd9f9d1	0.02660838
64	0xbd32235a	-0.043490745
65	0x3cc613c1	0.024179341
66	0x3c969750	0.018382698
67	0x3d832670	0.06403816
68	0x3d6b74f5	0.057484586
69	0xbb64beb3	-0.0034903705
70	0x3df2adab	0.11849531
71	0xbabe24fc	-0.0014506872
72	0x3b73c32d	0.0037195191
73	0x3cf3966f	0.029734818
74	0xbd4e9cf5	-0.050442655
75	0x3d3b2acd	0.045695115
76	0x3c592d3c	0.013255414
77	0x3d305d35	0.04305764
78	0x3d106867	0.035255816
79	0xbcf7d269	-0.030251699
80	0x3c9a9a18	0.018872306
81	0x3c3299f2	0.010900961
82	0x3d4c5cd4	0.049893215
83	0x3d08b52f	0.033375915
84	0x3c6d4435	0.014481594
85	0x3ce36057	0.0277559
86	0x3d96139b	0.07327958
87	0x3d3df846	0.04637935
88	0x3da85af1	0.08220471
89	0x3d973b44	0.07384351
90	0xbce9ba7a	-0.028531302
91	0xbd0791f6	-0.033098184
92	0xbd5baab4	-0.053629592
93	0xbd2170c9	-0.0394142
94	0x3cc0b427	0.023523403
95	0x3d450142	0.048096903
96	0x3b83839d	0.0040134923
97	0xba9739a6	-0.0011537566
98	0xbd09024d	-0.03344946
99	0xbd3fa9d2	-0.046792813
100	0x3c3d00cd	0.011535835
101	0x3c14da8f	0.009085312
102	0x3ccf74aa	0.025324184
103	0x3b2194c9	0.0024655333
104	0x3cacb55c	0.021082573
105	0x3d115c2d	0.035488296
106	0xbcade6db	-0.021228245
107	0x3d7b9cb9	0.06142876
108	0x3badbc26	0.00530197
109	0xbc97fe0d	-0.018553758
110	0xbd5a4d66	-0.05329647
111	0x3da8fbdb	0.082511626
112	0x3d97ee91	0.0741855
113	0x3cb7cbb0	0.022435993
114	0xbcfbcbbb	-0.030736795
115	0xbd15b8d7	-0.03655323
116	0xbd3bcc5b	-0.045849185
117	0xbc45377f	-0.012037157
118	0x3d153756	0.036429726
119	0xbd29473c	-0.0413277
120	0xbcc54d1f	-0.024084626
121	0xbca33a6c	-0.019925319
122	0x3ccccdb8	0.025000438
123	0x3cc4d196	0.02402572
124	0xbd160e50	-0.036634743
125	0xbd1a6628	-0.03769508
126	0x3cb0836f	0.021547047
127	0x3d791aef	0.0608167

t_conv2.weight f4 [128, 64, 2]
0	0x3d66c0ad	0.056336094
1	0xbb1891d8	-0.002328029
2	0xbc82a9c5	-0.015950093
3	0xbd661ff9	-0.056182835
4	0xbc535bf1	-0.0129003385
5	0x3d86be46	0.065792605
6	0xbc6a46a5	-0.0142990695
7	0xbd34f19e	-0.044175737
8	0x3d920aaa	0.0713094
9	0x3d100219	0.03515825
10	0x3d5eee50	0.05442649
11	0x3d94860e	0.072521314
12	0xbd01d369	-0.031695757
13	0xb8ba8e52	-8.8956804e-05
14	0x3d818a49	0.06325204
15	0x3d91eeed	0.071256496
16	0x3d8fd2e4	0.07022646
17	0x3b4d89f7	0.003136275
18	0x3db56f4e	0.0885912
19	0x3a50a524	0.0007959178
20	0xbd54655b	-0.051854473
21	0x3c13ecb5	0.009028603
22	0x3dea285f	0.114334814
23	0xbd84726f	-0.06467139
24	0x3d859342	0.06522228
25	0xbd8bf33c	-0.06833503
26	0xbd5341a4	-0.05157627
27	0xbd95fdbc	-0.073237866
28	0x3dab68a0	0.08369565
29	0x3d21e626	0.039526127
30	0xbd6681db	-0.056276184
31	0xbd23e82b	-0.040016335
32	0x3d9e2e0c	0.077236265
33	0x3dabd0c8	0.08389431
34	0x3c160d85	0.009158497
35	0x3cedd570	0.029032439
36	0xbcb550de	-0.022133287
37	0x3cfe09f7	0.031010611
38	0x3d4ab1c7	0.049485948
39	0xbd61456e	-0.054997854
40	0x3dc6f4e3	0.09714677
41	0x3d58f5a5	0.05296864
42	0x3d40055f	0.046880122
43	0x3d32ed48	0.04368332
44	0xbd0b38fe	-0.0339899
45	0x3d35004f	0.044189747
46	0xbda801fe	-0.08203505
47	0xbd8349f9	-0.064105935
48	0x398c3949	0.00026745562
49	0x3c27b0f1	0.010235057
50	0x3be5af62	0.0070094327
51	0x3c142775	0.00904261
52	0x3cbb9afd	0.022901053
53	0xbc884c59	-0.016637968
54	0xbd140392	-0.036136217
55	0xbda81c32	-0.08208503
56	0xbcc7b9c4	-0.024380572
57	0x3d5c19a6	0.053735398
58	0xbd68518b	-0.05671839
59	0xbd235407	-0.039875057
60	0xbc471ef6	-0.012153378
61	0x3d857151	0.06515754
62	0x3d4c9a73	0.04995198
63	0xbc80c45b	-0.01571863
64	0xbcba4f03	-0.022742754
65	0xbd89551e	-0.06705688
66	0x3d533c6a	0.051571287
67	0xbd0b5c74	-0.034023717
68	0x3d691931	0.05690879
69	0x3d0aa845	0.03385188
70	0x3c635e82	0.013877513
71	0x3b74168d	0.0037244887
72	0x3d973919	0.073839374
73	0xbbc96d1c	-0.00614704
74	0x3d2695ce	0.04067021
75	0x3ceaf8f0	0.028683156
76	0x3d04c2be	0.032412283
77	0xbbc32079	-0.005954799
78	0xbdaf6021	-0.08563257
79	0xbb27d0cc	-0.002560663
80	0xbdad5cf3	-0.08464994
81	0x3c0e7ee5	0.008697246
82	0xbc932126	-0.017960142
83	0x3d86f037	0.06588786
84	0xbd16e61b	-0.03684054
85	0xbd50f660	-0.05101621
86	0x3d663bcd	0.056209374
87	0xbd9aeece	-0.0756508
88	0xbbba8641	-0.005692274
89	0xbd5cb8e2	-0.053887255
90	0x3d3c1bda	0.045925
91	0x3da0cee1	0.07851959
92	0x3dcf4214	0.10120025
93	0xbd0f945c	-0.035053596
94	0xbd61334c	-0.05498056
95	0x3d51ea87	0.051249053
96	0x3d6d0d10	0.057873785
97	0x3cb42011	0.021987947
98	0x3dd57bb1	0.10423983
99	0xbd0fe8e0	-0.035134196
100	0x3d88775b	0.0666339
101	0xbd8b0fe8	-0.06790143
102	0x3d6f1e2d	0.058378387
103	0xbd083a51	-0.03325874
104	0xbd8ca82a	-0.06868012
105	0x3da5d185	0.08096603
106	0x3d942956	0.07234447
107	0x3cb46bf5	0.022024134
108	0xbc453764	-0.012037132
109	0xbd11c68c	-0.03558974
110	0xbd6ecfaf	-0.05830353
111	0xbc07dd3f	-0.008292495
112	0xbcb2f405	-0.021844873
113	0x3da45387	0.08023744
114	0x3ccd3791	0.02505091
115	0xbd17b523	-0.03703798
116	0x3d0766ff	0.03305721
117	0xbd0a821f	-0.0338155
118	0x3d034682	0.032049663
119	0x3d9bca72	0.07606973
120	0xbc9c7c04	-0.019102104
121	0x3bf9e49e	0.0076261302
122	0xbd1836d2	-0.037161656
123	0x3d8da055	0.069153465
124	0x3dad42fd	0.084600426
125	0x3d92d1b1	0.07168902
126	0x3c651aea	0.013983468
127	0x3d9157ce	0.070968255
128	0x3d92ec69	0.07173998
129	0xbc316c08	-0.010828979
130	0x3ac1c7d0	0.001478428
131	0xbdd758be	-0.10514973
132	0x3c922fba	0.017845023
133	0x3ba50c91	0.0050368984
134	0xbd7f6297	-0.062349882
135	0x3d61fa77	0.055170503
136	0xbcc999a4	-0.024609394
137	0x3c0d9866	0.008642292
138	0xbd3b735f	-0.045764323
139	0x3ddbd82b	0.1073459
140	0x3d936c19	0.07198352
141	0x3dc1224f	0.09430372
142	0xbd9b5bbd	-0.07585857
143	0xbd57924d	-0.052629758
144	0x3c6ff22f	0.014645143
145	0xbcec8d18	-0.028875872
146	0xbd9ba07c	-0.07598969
147	0x3cebdf78	0.028793082
148	0xbc5f4e2f	-0.01362948
149	0xbc93fd08	-0.01806499
150	0x3d954451	0.07288421
151	0xbcdbea76	-0.026845198
152	0x3db7a162	0.08966328
153	0xbc9d43b7	-0.019197328
154	0xbbf4a728	-0.0074662156
155	0x3dc988c9	0.09840543
156	0xbd8d62dd	-0.06903622
157	0x3cc569ef	0.024098365
158	0xbd86e563	-0.06586721
159	0xbd2bf6c5	-0.041983385
160	0xbcdca10c	-0.026932262
161	0x3dc8c7c8	0.0980373
162	0xbd65163f	-0.05592942
163	0x3de06972	0.10957612
164	0xbd851599	-0.0649826
165	0x3db468c5	0.08809046
166	0xbd3686ac	-0.044562027
167	0xbdb8cb47	-0.09023147
168	0x3d83026a	0.06396945
169	0x3d5b1a99	0.053492162
170	0x3da47d1f	0.080316775
171	0xbd9497c5	-0.0725551
172	0x3d4eef79	0.050521348
173	0x3dbc4149	0.0919214
174	0xbd468c24	-0.048473492
175	0xbcae3084	-0.021263368
176	0x3d6e9232	0.05824489
177	0xbade9848	-0.0016982639
178	0x3cb98de1	0.022650661
179	0x3d35af4c	0.04435663
180	0xbc815624	-0.015788145
181	0x3d3e040a	0.04639057
182	0x3d6b3e04	0.05743219
183	0x3d525b6a	0.05135671
184	0xbd830882	-0.06398107
185	0x3db7880b	0.08961495
186	0xbd91b978	-0.071154535
187	0x3d9fe2bc	0.07806918
188	0x3d2e5e75	0.04257055
189	0xbc5bff5d	-0.013427583
190	0x3d704352	0.05865795
191	0xbd9741d8	-0.073856056
192	0x3c2470f4	0.010036696
193	0xbc361fe1	-0.011115999
194	0xbc09a371	-0.008400784
195	0x3d9467bf	0.072463505
196	0xbbc7b4a8	-0.006094534
197	0x3c8fe3c8	0.01756467
198	0x3d92dc33	0.07170906
199	0xbc842c9f	-0.016134558
200	0xbdc99ee5	-0.0984476
201	0xbd8645c7	-0.06556278
202	0x3ce1ee37	0.02757941
203	0xbd949a15	-0.07255951
204	0xbd44d623	-0.04805578
205	0x3d147c6b	0.036251467
206	0x3cdc33ab	0.026880106
207	0x3d1e58a1	0.03865874
208	0xbd4626dd	-0.048376907
209	0x3d95bdc4	0.073115855
210	0x3c6ada12	0.014334219
211	0xbd8de65a	-0.06928702
212	0x3c93af11	0.018027814
213	0xbc2a9409	-0.010411271
214	0xbbed348e	-0.007238931
215	0x3d075499	0.033039663
216	0x3d8007b5	0.0625147
217	0x3c488a1b	0.012239958
218	0xbd32fe99	-0.043699834
219	0x3cd990d3	0.026558315
220	0x3c87d539	0.016581165
221	0xbac263e4	-0.0014830795
222	0x3dbcf4a5	0.0922635
223	0xbcc9c399	-0.024629401
224	0xbdc23e07	-0.09484487
225	0xbd220a87	-0.03956082
226	0x3c963e96	0.01834039
227	0x3dbb8528	0.09156257
228	0xbd916513	-0.070993565
229	0xbc39a3cc	-0.011330556
230	0xbc9f74aa	-0.01946481
231	0x3d8a2671	0.06745613
232	0xbd89e21a	-0.067325786
233	0x3c9b7570	0.018976897
234	0xbd72d78b	-0.05928759
235	0xbd61a529	-0.05508915
236	0xbd3aa5fa	-0.045568444
237	0x3ceb5c9d	0.028730685
238	0xbd671079	-0.056412194
239	0xbd194d3e	-0.03742718
240	0xbd36b118	-0.044602484
241	0xbd49fa11	-0.049310748
242	0xbc292eae	-0.010326071
243	0x3dc1513a	0.09439321
244	0xbc6c38d8	-0.0144178495
245	0xbdba7285	-0.09103874
246	0x3dd0102f	0.10159337
247	0xbda1c1cf	-0.07898294
248	0xbd5551f8	-0.052080125
249	0x3b7a5d33	0.0038202524
250	0xbd701e62	-0.058622725
251	0x3dc33a06	0.095325515
252	0xbd266476	-0.04062315
253	0xbcd9e3ed	-0.026597941
254	0x3a073bb2	0.00051587366
255	0xbc8d6258	-0.017258808

t_conv2.bias f4 [64]
0	0xbd391588	-0.04518655
1	0xbd618676	-0.055059873
2	0x3d5b228d	0.053499747
3	0xbc8f7c00	-0.017515182
4	0xbdc034c6	-0.09385066
5	0xbd20cdc6	-0.03925874
6	0xbd0debe6	-0.0346488
7	0x3de38cb8	0.11110824
8	0x3dab538e	0.08365546
9	0x3de69693	0.112591885
10	0xbb4faadd	-0.0031687536
11	0x3e122121	0.1427045
12	0x3d0eb827	0.03484359
13	0x3ca00744	0.019534715
14	0xbce4f5d2	-0.027949248
15	0xbd220273	-0.039553117
16	0x3d3e8b1d	0.046519388
17	0xbbf6a2f8	-0.0075267516
18	0xbd817519	-0.06321163
19	0xbc9871df	-0.018608985
20	0xbd9f7a86	-0.07787041
21	0xbd8c917b	-0.06863686
22	0x3ab98b2e	0.0014155859
23	0x3d9f6338	0.07782596
24	0x3af7eab1	0.0018914548
25	0x3d32d68d	0.043661643
26	0xbd882a26	-0.06648664
27	0x3d7ffaa5	0.062494893
28	0xbcc85801	-0.024456026
29	0x3d4edc2b	0.050502937
30	0x3d0f86ec	0.03504078
31	0x3c7e8608	0.015534885
32	0xbc454dba	-0.012042457
33	0x3dd44d1e	0.103662714
34	0x3e1d566d	0.15365
35	0x3d71e003	0.059051525
36	0xbd7c5c50	-0.061611474
37	0xbd878539	-0.06617207
38	0x3e20410b	0.15649812
39	0x3c0b3dae	0.008498592
40	0xbc917976	-0.017758112
41	0x3da60c9d	0.081078745
42	0x3e3096f3	0.17245083
43	0xbd91528d	-0.070958234
44	0x3d8cb6e8	0.06870824
45	0x3e4a0bab	0.19731013
46	0xbd677e7a	-0.0565171
47	0xbd689edb	-0.05679212
48	0x3d52b9ae	0.05144661
49	0x3c1ebb7e	0.009688256
50	0x3beeaea7	0.007284004
51	0x3d11cc9e	0.03559553
52	0x3dbe484a	0.09291132
53	0xbb1a6d12	-0.0023563546
54	0x3d877d1e	0.06615661
55	0xbd81f111	-0.06344808
56	0xbb7ff92e	-0.0039058435
57	0x3ccbe049	0.024887221
58	0x3cf24ee0	0.029578626
59	0x3d014bc8	0.03156641
60	0x3d300248	0.042970926
61	0x3cc57e8a	0.02410819
62	0xbcc71b58	-0.02430503
63	0xbaad93b8	-0.0013242876

conv_out.weight f4 [1, 64, 3]
0	0x3c77fecd	0.015136433
1	0xbdad4b55	-0.08461634
2	0x38f4516e	0.00011649994
3	0x3b5bcd9b	0.0033539298
4	0xbda3a80b	-0.07991036
5	0xbd3cbfa6	-0.046081208
6	0x3c075a7f	0.008261322
7	0xbb5abfba	-0.0033378438
8	0x3dc22341	0.094793804
9	0x3c83285c	0.016010456
10	0xbd9f1343	-0.07767346
11	0x3d73a2a7	0.05948129
12	0x3d6daeca	0.05802802
13	0xbdb25258	-0.08707112
14	0xbca81203	-0.020516401
15	0xbdb8d94d	-0.09025822
16	0x3db72001	0.08941651
17	0xbd9b7b5e	-0.0759189
18	0x3db1fd20	0.08690858
19	0x3da1406f	0.07873618
20	0x3c317770	0.010831699
21	0xbd839232	-0.06424369
22	0xbc86b16e	-0.016442027
23	0xbdd1e433	-0.10248604
24	0xbdb27f4e	-0.08715688
25	0xbd9dfb1d	-0.07713912
26	0xbd4c33b9	-0.049854014
27	0xbb61289b	-0.0034356478
28	0x3d4a31cf	0.049363907
29	0xbd7c27fa	-0.061561562
30	0x3c545667	0.012960053
31	0xbc71b1f3	-0.014751899
32	0x3dde43ce	0.108527765
33	0x3caf605e	0.021408256
34	0xbd8f34de	-0.069925055
35	0xbe01b074	-0.12664968
36	0x3da0f9d6	0.078601524
37	0x3c7c4c35	0.015399029
38	0x3dae1c8a	0.08501537
39	0xbbea3f83	-0.0071486845
40	0x3d5cb922	0.053887494
41	0xbdd49d38	-0.103815496
42	0xbd9db282	-0.07700063
43	0x3de18d65	0.11013297
44	0xbde8d9ca	-0.11369665
45	0xbd751277	-0.059832063
46	0xbd1b8b8b	-0.037974875
47	0xbb998603	-0.004685165
48	0xbda11eff	-0.0786724
49	0x3d58ed3e	0.052960627
50	0xbddd1d04	-0.1079655
51	0xbd88490d	-0.06654558
52	0x3dd22d6f	0.10262572
53	0x3d93eac6	0.07222514
54	0xbb8a8bb2	-0.0042280788
55	0x3d92715e	0.07150529
56	0xbd864fb0	-0.06558168
57	0x3e0139cd	0.12619705
58	0xbcc938e8	-0.024563268
59	0x3b812d81	0.003942192
60	0x3dbbb366	0.09165077
61	0x3dde27e7	0.108474545
62	0xbdbd1c47	-0.09233909
63	0x3de068e1	0.10957504
64	0xbd6e1837	-0.05812856
65	0x3b2e18a3	0.0026564978
66	0x3d6afa90	0.05736786
67	0x3dc8bf48	0.09802109
68	0x3d563c46	0.052303575
69	0x3d5f9eae	0.054594688
70	0xbd898dbd	-0.067164876
71	0x3db70da9	0.08938152
72	0x3d3725e9	0.04471389
73	0x3d07b09a	0.033127405
74	0x3d65e53f	0.05612683
75	0xbc3eaa17	-0.011637232
76	0x3d844371	0.06458176
77	0xbd21012a	-0.03930775
78	0xbde6fe86	-0.11279015
79	0x3d5bc06f	0.053650316
80	0x3d936ae6	0.07198124
81	0x3d9466fd	0.07246206
82	0xbc33e3c6	-0.010979598
83	0xbda43c6c	-0.08019337
84	0xbd57c077	-0.052673783
85	0x3dbb9102	0.091585174
86	0x3dd5b928	0.104357064
87	0xbc83dfe7	-0.016097976
88	0x3d8c3e00	0.06847763
89	0x3d492148	0.049104005
90	0x3d001ff7	0.031280484
91	0xbdc485cf	-0.095958345
92	0x3dae17fa	0.08500667
93	0x3d1478d2	0.036248036
94	0xbdb9adc3	-0.090663455
95	0x3cb88727	0.022525383
96	0xbc2b806e	-0.010467632
97	0xbdc208bf	-0.094743244
98	0x3d91a82c	0.07112154
99	0xbd941f05	-0.07232479
100	0xbd3dbe29	-0.04632393
101	0xbd905467	-0.070473485
102	0x3cfd95ad	0.03095516
103	0xbdd607da	-0.10450716
104	0xbd9d6f35	-0.07687227
105	0x3da0439a	0.07825394
106	0xbca2b6e0	-0.019862592
107	0xbc312d5e	-0.010814039
108	0xbd87a0a4	-0.06622437
109	0x3d2dfd01	0.04247761
110	0x3c4780b9	0.012176686
111	0xbcc095e8	-0.02350898
112	0xbd023e28	-0.031797558
113	0x3ac484fb	0.0014993245
114	0xbd9ef7ea	-0.077621296
115	0xbcc48c17	-0.023992581
116	0xbd84ceb6	-0.064847395
117	0x3dccd4a2	0.10001494
118	0x3dc549f5	0.09633247
119	0xbd7286f1	-0.05921072
120	0xbd1ee57f	-0.038793083
121	0x3d18a6fb	0.03726862
122	0x3d4e8abe	0.050425284
123	0xbd9b2d95	-0.075770535
124	0xbdd21d45	-0.10259489
125	0xbdad3004	-0.08456424
126	0xbdcfdd27	-0.10149603
127	0xbc6ff576	-0.014645925
128	0xbd918dfd	-0.0710716
129	0xbdfd5348	-0.123694
130	0x3d8d0823	0.068863176
131	0xbd87331f	-0.066015474
132	0x3d605130	0.054764926
133	0x3db886df	0.090100996
134	0xbdcb16dd	-0.0991647
135	0xbd9b6837	-0.07588237
136	0xbdaa3160	-0.08310199
137	0xbde4135b	-0.11136504
138	0xbd986d2a	-0.074426964
139	0x3dd7f8f4	0.10545531
140	0xbbb04666	-0.005379486
141	0x3d802ef2	0.06258954
142	0xbda4e228	-0.080509484
143	0xbcf4b0a6	-0.029869389
144	0xbdc4aeae	-0.0960363
145	0x3a9bee8d	0.0011896655
146	0xbdaa077f	-0.08302211
147	0xbd568ace	-0.05237847
148	0xbd81cede	-0.06338285
149	0xbdaec6ac	-0.085339874
150	0x3d81801b	0.06323262
151	0xbd7db0ac	-0.061936066
152	0x3d91d8b7	0.07121413
153	0xbde8c03b	-0.1136479
154	0xbcd4c357	-0.025972052
155	0x3d982cbe	0.07430409
156	0xbd09ae8e	-0.033613734
157	0xbded2a90	-0.11580384
158	0xba1aee45	-0.0005910139
159	0x3dab613f	0.083681576
160	0x3c9c5729	0.01908453
161	0x3cf7c84d	0.030246878
162	0xbd148b87	-0.036265876
163	0xbdb95f77	-0.090514116
164	0x3d20190b	0.039086383
165	0xbc866821	-0.016407074
166	0x3d41d57a	0.047322728
167	0x3d576a9c	0.052591905
168	0xbcb8161e	-0.022471484
169	0x3ccdf079	0.02513908
170	0x3df6c339	0.120489545
171	0xbd83c1c9	-0.06433446
172	0x3ca72dd7	0.0204076
173	0xbb48c098	-0.0030632373
174	0x3d609801	0.054832462
175	0xbde945f6	-0.11390297
176	0xbd8d998b	-0.069140516
177	0x3cbc68aa	0.022999126
178	0xbdd8e92f	-0.10591351
179	0xbdc56619	-0.09638614
180	0xbdd7391c	-0.105089396
181	0xbd2873f9	-0.041126225
182	0x3c838344	0.016053803
183	0x3cff4448	0.031160489
184	0x3d9d409e	0.076783404
185	0xbdda536a	-0.10660441
186	0x3d3f9fa8	0.04678312
187	0x3e05e92e	0.13077232
188	0xbb7e349d	-0.0038788684
189	0x3d9d5f8a	0.07684238
190	0xbdeaa61d	-0.11457465
191	0x3d79f383	0.061023246
