pths/autoencoder_train.pth (torch, 96577 bytes, 32 tensors)

linear1.weight f4 [32, 33]
000000 11 cc af 3e e9 bd 40 3e be 80 b7 bd af 7a 87 3d
       0.34335378 0.18822445 -0.089601025 0.06615197
000010 72 37 01 be eb 5c 03 3d 36 dc 11 3e 20 49 76 3e
       -0.12618807 0.032071035 0.1424416 0.24051332
000020 da a6 1f 3c 33 8e 67 be f1 22 4c 3e 99 c3 f8 3d
       0.00974437 -0.22612838 0.19935204 0.12146682
000030 fc 7a fb 3d 4a 5e 22 bc 9c 54 ba 3d ba ec 1f bb
       0.12279317 -0.009910176 0.09098169 -0.0024402575
000040 9c 6f 1d bd 9c 6a b3 3c d7 c8 de 3d ae 0e b7 bd
       -0.038436517 0.021901421 0.10878151 -0.08938347
000050 4e c0 f4 bd 3c f9 9d 3b 7a 92 43 bd be 58 01 bc
       -0.11950742 0.004820971 -0.047747113 -0.007894693
000060 c5 ab 60 3d 2a 67 ae 3d 63 6b c5 bc 7b 44 44 bd
       0.054851312 0.08515771 -0.024099058 -0.04791687
000070 88 10 dc bc 92 c6 a0 bd 40 2d 17 3d a8 a5 cd bb
       -0.026863351 -0.07850374 0.03690839 -0.0062758513
000080 0d 0f 00 3e 9e 39 2f bd ff fd 9f 3e 72 d4 6f 3d
       0.12505741 -0.042779557 0.3124847 0.058552213
000090 59 9e 21 3e ba 22 4e 3d ec 05 39 bd 91 d4 03 be
       0.15783061 0.050326087 -0.045171663 -0.12874056
0000a0 4c 65 19 3b fa 4c 4b bd 84 5d 73 3d 6d 60 04 3d
       0.0023406325 -0.049633957 0.059415355 0.03231852
0000b0 42 f9 6d 3d b4 e5 a5 bd a0 90 38 3c ed 28 54 bd
       0.05809904 -0.08100453 0.01126495 -0.051796842
0000c0 1f 96 86 3d 6d f3 97 bd b4 d9 70 bd 28 86 ec 3c
       0.06571602 -0.07419477 -0.058801368 0.028872564
0000d0 64 03 4e 3c 86 91 1d 3d 4a 33 67 bd 92 06 a0 3c
       0.012574051 0.03846886 -0.056445397 0.019534383
0000e0 fd 13 b2 bc 9f 02 3b 3c bf 83 17 3d 8d 39 f9 bc
       -0.021738047 0.011414199 0.036990877 -0.03042295
0000f0 6e a9 87 3c 08 f6 14 bd 79 af a7 bc 77 cf 9d 3d
       0.016560283 -0.036367446 -0.020469414 0.077055864
000100 8c b0 19 3d 67 df 23 bf ba d6 ef 3e 69 46 8d bd
       0.037521884 -0.6401276 0.4684351 -0.06898195
000110 a9 5a c9 bd 59 b2 08 be 6b f4 0a 3e 0c f0 93 3d
       -0.09831745 -0.13349284 0.135698 0.0722352
000120 88 1f 48 3c 6b 85 28 39 14 a2 3d be c0 e9 11 bd
       0.012214549 0.0001607143 -0.18518859 -0.035623312
000130 42 d0 0c bd 46 21 81 3d 18 a6 c2 3c 30 93 2a 3e
       -0.034378298 0.063051745 0.02376084 0.1665771
000140 96 c4 06 3d ea 19 f9 3d 45 c9 2d bd cb 1e e5 bd
       0.032902323 0.12163146 -0.042428274 -0.11187514
000150 d5 b2 0e 3e 53 d5 c4 3b 6f 1c 39 3e b8 fb 12 be
       0.13935407 0.0060068755 0.18077253 -0.14353836
000160 a1 a4 b2 3c 28 66 c6 bd 8e a1 1a 3d 4a f1 7b 3d
       0.021807017 -0.096874535 0.037751727 0.061509408
000170 9b f0 e6 bd 25 17 20 3e 61 52 2b be 61 54 59 be
       -0.112763606 0.15633829 -0.16730644 -0.21223594
000180 28 e8 90 3c 4c d1 10 3c 62 ba f4 3d bd 83 da be
       0.017688826 0.008838963 0.11949612 -0.42678633
000190 0d 9c 25 be ac d4 d2 3d f6 b2 8a 3d 6c cf 84 bd
       -0.1617281 0.1029447 0.06772415 -0.06484875
0001a0 d7 8f d3 bd 43 77 1c 3e 06 7a 55 bc 43 37 2c be
       -0.1033017 0.1527987 -0.013029581 -0.16817956
0001b0 c8 a4 26 be 9d 8d 7f 3c b5 38 13 3e ce a6 ba bd
       -0.16273797 0.015597728 0.14377101 -0.09113847
0001c0 9d b5 07 3e bb 73 00 be 3b 76 7d bd e9 ff 90 3d
       0.13252874 -0.12544148 -0.06188033 0.07080061
0001d0 08 71 57 3d ef fc 8c bd 47 ab 24 3d 94 5d 66 3c
       0.05259803 -0.06884181 0.040202405 0.014060397
0001e0 8b 67 9b bd ec 02 9b bb 23 4c b5 bd 28 ba 0f be
       -0.07588109 -0.004730573 -0.088524126 -0.14035857
0001f0 46 cc 88 be 56 9b 4f bd 37 20 8a bd 16 d3 34 bd
       -0.26718348 -0.05068525 -0.06744426 -0.04414662
000200 78 73 d8 3d 43 ab a6 3c 1b 73 12 3e a9 b7 7d 3e
       0.10568899 0.020345336 0.14301722 0.24777092
000210 8c 96 04 be 8c 2e c3 3c a8 77 02 be a5 82 1f be
       -0.12948054 0.023825906 -0.12740958 -0.1557718
000220 3d 04 81 bd 4a 22 41 be fb c3 69 be b3 13 14 3d
       -0.062996365 -0.18860736 -0.22828667 0.0361516
000230 48 d4 c0 3d 8f 9b 28 be 61 14 43 3e 3c 35 fa bc
       0.094154894 -0.16465591 0.19050743 -0.030542962
000240 b3 51 bc 3d 60 2a 81 3d 4c c3 7f 3d 38 c6 21 3e
       0.091952704 0.063069105 0.06244211 0.1579827
000250 76 be 46 3e 1e 65 17 ba cd bb df 3c 22 ff 83 be
       0.19408593 -0.00057752605 0.02731123 -0.25780588
000260 d2 e6 b9 bd cb c8 e9 3d 63 5d 19 3d 26 a9 c5 ba
       -0.090772286 0.11415251 0.037442576 -0.0015080317
000270 de f6 25 3d 3a e9 a2 bd 01 65 06 bd 1d d5 d1 bd
       0.040518634 -0.07954641 -0.03281117 -0.10245726
000280 49 f8 ba 3d 26 db 74 bd 81 d2 04 bd 13 ea 99 bd
       0.09129388 -0.05977931 -0.032427315 -0.07515349
000290 3a 1f a7 3e 99 d6 51 bd 40 0e dd 3d e0 3f 6b 3e
       0.3264101 -0.051230047 0.107937336 0.22973585
0002a0 e1 55 85 3d 2b fd 60 be b3 07 e3 bd b9 6f 0c bc
       0.06510521 -0.21971576 -0.11085453 -0.008571559
0002b0 16 08 44 3d 98 10 f1 3d 1e 7c 15 be 8b 55 b6 bd
       0.047859274 0.11770743 -0.14598128 -0.08903035
0002c0 3c 18 98 bd 98 87 6c bd 80 a7 4c 3d 54 6a d9 bd
       -0.07426497 -0.0577465 0.049964428 -0.106159836
0002d0 2b 86 b9 bc 2d 28 05 3e 2e 7a cd 3c f0 47 00 be
       -0.022646984 0.13003607 0.025082674 -0.12527442
0002e0 87 69 08 bc 9e 4d 89 bc 52 93 db bb d9 f7 a9 bc
       -0.008325941 -0.016760644 -0.0067009116 -0.020748066
0002f0 81 89 e1 3b e5 ac 15 3e 37 b5 5a 3c d6 52 2d 3c
       0.006882847 0.14616735 0.013348869 0.010578832
000300 81 c6 0c 3e 5b 18 d1 3d de 78 ac 3d 2b 6b 5b 3e
       0.13747598 0.102097236 0.08421491 0.214276
000310 f8 87 61 3c 29 e1 f6 3d 3e 41 ee 3d e2 43 a2 3c
       0.013765328 0.12054665 0.11633538 0.01980776
000320 ff e4 27 bc 15 db 62 3d 48 02 59 3e 95 f4 6d 3e
       -0.010247468 0.055384714 0.21192276 0.23237832
000330 b4 aa 68 3e 8f 99 0a 3b b4 b6 b8 bd ed 29 a7 3d
       0.22721368 0.0021148657 -0.09019223 0.081622936
000340 7b 33 4e bd 85 45 ff 3d dd 96 29 bd 95 01 10 3d
       -0.050342064 0.12464432 -0.04140364 0.03515776
000350 11 6a a4 bb a3 10 82 be 40 95 01 bc ee c0 f9 3d
       -0.005017527 -0.25403318 -0.007909119 0.121950015
000360 57 ee 90 bd 0b 37 03 bd f0 51 1a 3e 82 b7 3f be
       -0.0707671 -0.032034915 0.15070319 -0.18722346
000370 28 3f 0e be 68 27 68 3e 88 11 9e bd 6b e0 65 3d
       -0.1389128 0.22671282 -0.077181876 0.056122225
000380 46 bb 4d be e6 ea 8c 3b 5d 99 e5 3c f7 69 f9 3d
       -0.2009097 0.004300463 0.02802723 0.12178414
000390 b4 1d 02 bd 0f 8c f1 bd 15 94 d2 bd be 7f 8e 3e
       -0.03176661 -0.11794292 -0.10282151 0.27831835
0003a0 91 3f 2f 3e b6 15 47 3d 87 5c 36 3e 60 5f b5 3d
       0.17114092 0.04860469 0.17808734 0.08856082
0003b0 ab f1 91 bc 8b 88 9a be eb df 44 3d 62 e5 07 3d
       -0.017815432 -0.301823 0.048065107 0.03317774
0003c0 86 75 53 bd 0c 80 94 bd c8 7a 03 be 85 3c a1 bd
       -0.05162575 -0.072509855 -0.12839806 -0.07872871
0003d0 a2 20 2e bd 9c 38 cf 3d 9d 4a f3 3b 74 d7 65 3e
       -0.04251159 0.10118219 0.007424666 0.2244547
0003e0 fb 91 e6 bc 6b ed f7 3d 5a 0a 44 be ae 9d c8 bd
       -0.02814578 0.12105831 -0.19144574 -0.097957
0003f0 d6 c1 ab bb 51 1f d7 bd 76 09 90 bd 27 5d 15 bd
       -0.005241613 -0.1050402 -0.070330545 -0.03646579

linear1.bias f4 [32]
000000 13 e0 d1 bc 9e 80 7d bd 94 cf 1b bd 8e f2 0e be
       -0.025619542 -0.061890237 -0.03803976 -0.13959715
000010 2f 6e 17 be 31 f5 fc 3d 62 5c 1f 3e e2 73 31 3e
       -0.14788125 0.12351454 0.15562585 0.17329362
000020 d2 e7 fe bd 1e 8e 94 3d 94 d0 d9 bd 73 57 c5 3d
       -0.1244656 0.07253669 -0.10635486 0.0963582
000030 4c dc 09 3e 6b f4 fc 3d 8c 7b 01 3e c4 fa df 3d
       0.13462943 0.123513065 0.12644786 0.109365016
000040 2e ac d9 3b 57 b9 ac 3d 18 32 92 bd 1e 1c a5 3d
       0.00664284 0.08433788 -0.07138461 0.080620036
000050 f5 2a 71 bd 8c 94 44 3a 6b 07 19 be b1 cb 2d bd
       -0.058878858 0.0007498942 -0.14944236 -0.042430583
000060 ac 42 a5 bd 03 99 66 bd 20 92 07 be 33 09 11 be
       -0.08069357 -0.056298267 -0.13239336 -0.14163665
000070 36 a3 cf 3c c3 5c e6 3d 0c bc 1b 3e 34 56 d0 3d
       0.02534638 0.11248162 0.15208453 0.10172692

bn1.weight f4 [32]
000000 3f 44 60 3f 36 eb 56 3f 0e 99 81 3f 2f 44 61 3f
       0.87604135 0.83952653 1.0124834 0.87994665
000010 74 3a 4c 3f 7b 4c 6c 3f b0 3f 58 3f 5e 6e 6a 3f
       0.7977669 0.923042 0.8447218 0.91574657
000020 1b 82 84 3f 55 44 7d 3f b5 09 66 3f 8e a1 7c 3f
       1.0352205 0.9893239 0.8985856 0.9868401
000030 f8 6d 65 3f d9 9d 6e 3f 06 20 6e 3f d8 48 46 3f
       0.89620924 0.93209606 0.93017614 0.774549
000040 8d ac 6c 3f fe 49 58 3f 4d bd 6c 3f 3f 9d 64 3f
       0.9245079 0.84487903 0.9247635 0.8930244
000050 18 56 67 3f 52 7c 7b 3f 73 4a 5a 3f 38 49 6a 3f
       0.90365744 0.9823657 0.8526985 0.9151797
000060 52 28 5c 3f 79 4e 67 3f d2 58 79 3f 3b 1a 72 3f
       0.85999024 0.90354115 0.97401154 0.94571275
000070 a3 20 5b 3f d3 b0 4a 3f be 6e 6e 3f d0 e5 6d 3f
       0.85596675 0.7917606 0.9313773 0.9292879

bn1.bias f4 [32]
000000 c2 57 8b be 97 d6 d9 be 00 5b bf be 7f 28 94 be
       -0.2721539 -0.42546532 -0.37374115 -0.28937146
000010 a7 24 61 be 10 9c 8b be ba 96 8a be 14 b5 6e be
       -0.21986638 -0.27267504 -0.2706812 -0.23311263
000020 b8 e6 8c be 02 2c be be 67 f5 91 be 9d d9 b2 be
       -0.27519774 -0.3714295 -0.2850754 -0.3493165
000030 9a 41 c0 be 3c cf b3 be 6a ec 1f be 48 f9 31 be
       -0.3755005 -0.35119045 -0.15617529 -0.1738025
000040 1a 51 93 be 86 bb 8c be bc c7 aa bd e6 c9 e6 bd
       -0.28772813 -0.2748682 -0.083388776 -0.11268978
000050 5b 8c 1e 3d e6 ef 80 be 67 0b 2b 3c 06 ae 8f be
       0.038708072 -0.25183028 0.01043973 -0.28062457
000060 95 c4 69 be ce d3 6b be e4 2e 99 be fd 43 64 be
       -0.22828896 -0.23030016 -0.29918587 -0.2229156
000070 ca d5 9b be dc 44 4c be 3b ca 9a be 9f 1e d9 be
       -0.30436546 -0.19948143 -0.30232415 -0.42406175

bn1.running_mean f4 [32]
000000 c5 00 81 3e 85 9c 54 bf 8f 0c 97 3e 78 71 74 be
       0.251959 -0.8305133 0.2950177 -0.2387141
000010 20 cd 2b 3e d5 4a 91 3e 69 ca 72 3e dd 2b d1 3e
       0.16777468 0.28377405 0.23710026 0.40853778
000020 6f b7 6f bd 30 56 54 be fa c7 12 bf 11 15 5f bd
       -0.058524545 -0.20736003 -0.5733639 -0.05446345
000030 76 74 55 3d c4 1a 00 3e 83 e4 9b bc e8 4a 82 3e
       0.05211302 0.1251021 -0.019029861 0.25447774
000040 15 b0 65 3f 27 49 39 bf f3 72 e2 be 72 04 8c 3e
       0.89721805 -0.72377247 -0.44228324 0.27347142
000050 4b d8 61 3e 7f dc 3e 3f 2d 7c 3b be 45 82 cc be
       0.22055165 0.745552 -0.18309088 -0.39943138
000060 c3 f3 b0 3e b0 41 02 be 03 26 87 3e 92 f1 3d 3f
       0.34560975 -0.1272037 0.26396188 0.7419673
000070 27 0a 4a bf f5 e0 b0 be 51 0d 3b be f2 d8 1e 3e
       -0.7892174 -0.3454663 -0.18266799 0.15512446

bn1.running_var f4 [32]
000000 ce 8a 16 3f 7e ee 1e 3f 58 56 e5 3e e3 cf d5 3e
       0.5880555 0.6208266 0.44792438 0.41760167
000010 d7 1b 02 3f 50 72 c9 3e eb af ce 3e 24 66 c3 3e
       0.5082373 0.39345026 0.4036859 0.38163865
000020 dd 55 96 3f 99 dc 30 3f 40 42 0b 3f 33 15 0d 3f
       1.1744953 0.69086605 0.54397964 0.5511047
000030 08 87 ee 3e 5a 88 af 3f 39 4f 40 3f f8 cb 05 3f
       0.46587396 1.3713486 0.75120884 0.52264357
000040 89 58 ec 3e 90 6c 23 3f d2 7f 21 3f cb fd 1f 3f
       0.46161297 0.6383753 0.63085663 0.6249663
000050 cb 53 38 3f bc d3 f3 3e 83 28 18 3f 39 ec 0a 3f
       0.7200286 0.47622478 0.59436816 0.542667
000060 c2 4f 0d 3f 05 32 6b 3f 9e 6f d4 3e 16 ea 13 3f
       0.55199826 0.918732 0.41491407 0.5777906
000070 f3 af 21 3f e9 f6 14 3f 4e 76 fa 3e 0e f9 0a 3f
       0.631591 0.58189255 0.48918384 0.5428628

linear2.weight f4 [64, 32]
000000 d1 58 56 be 29 f9 43 be a1 8e a3 bc 0b 74 05 3e
       -0.20932318 -0.19138016 -0.019965472 0.13032548
000010 19 14 29 3c 37 28 a9 3d 25 f8 a7 3d fc 41 99 3c
       0.010319733 0.082596235 0.08201627 0.018708222
000020 12 47 58 be 5f 33 ab 39 c9 c0 91 3c 6c 43 ae 3d
       -0.21120861 0.00032653936 0.017792122 0.085089535
000030 dc 24 d8 bc 5e db 33 3e 2d 71 c2 be e6 0a 17 3d
       -0.026384763 0.1756415 -0.3797697 0.036875628
000040 32 09 24 bd bb ec 74 3d d7 17 28 bd 22 53 12 3c
       -0.04004783 0.059796076 -0.04103836 0.008930953
000050 ac a6 8b 3c 42 47 6a 3d 90 5f 44 bc d3 f5 90 bd
       0.017047249 0.057196863 -0.0119856745 -0.07078137
000060 df 8e b2 bd 54 82 62 3d 29 13 a4 bd 71 ca 21 3e
       -0.08718657 0.05530007 -0.08011467 0.15799882
000070 84 c4 25 be 56 a8 2c 3e 7e 3b 06 3e 3e 5d 90 be
       -0.16188246 0.1686109 0.13108632 -0.28196138
000080 fe 6f 18 be 88 eb ec bc c3 bf 8c 3d a6 04 af bd
       -0.14886472 -0.028920904 0.06872513 -0.085458085
000090 72 4c 4b bd f2 fb 1e be 80 c3 a1 bc 7b 6c 3a 3e
       -0.04963345 -0.15525797 -0.019746542 0.18205445
0000a0 d5 9b c2 3d 99 b9 91 3d 9f cb 89 be c2 d5 5d 3e
       0.09502379 0.07115478 -0.26913163 0.21663573
0000b0 51 3c 42 bd 4e 4d 61 be e7 6e b6 3d 9a 3e 00 3d
       -0.047420803 -0.22002146 0.08907872 0.0313097
0000c0 60 c4 4e 3d bf 0e 5d 3e a4 ab 91 be b4 29 6f bd
       0.050480247 0.21587656 -0.28451264 -0.05838938
0000d0 70 a5 64 be f5 a1 c0 3c a8 3e 41 bc 6d 77 42 be
       -0.22328734 0.023514727 -0.011794724 -0.1899087
0000e0 88 be 40 3d 88 ea 96 be cc 08 2d 3d e7 7d c5 bd
       0.047056705 -0.29475808 0.042244717 -0.096431546
0000f0 1d ce 5f 3c f7 61 62 3d d3 69 61 be 2e 0d dd 3c
       0.013659981 0.055269208 -0.22013025 0.026983824
000100 8a ff df 3d 7b a9 f1 3d 5c 36 7b 3c fe 53 ff 3c
       0.10937412 0.11799904 0.0153327845 0.03116798
000110 63 64 5d 3d 3d 5c 96 3e b7 64 e4 bd 22 16 7f 3e
       0.054050814 0.29367247 -0.11152022 0.24910787
000120 56 fb 85 bd 39 da 2b 3c c1 1c 1b 3e e7 1f c6 3d
       -0.06542079 0.01048904 0.15147687 0.09674054
000130 fc ed 58 be 3a 9f 1d 3d f1 02 f9 bd 32 41 d3 bd
       -0.21184534 0.03848193 -0.12158764 -0.103151694
000140 94 0e 2f be 0f 2a ba 3d 73 b5 73 3d 13 b5 54 be
       -0.17095405 0.09090053 0.059499215 -0.207722
000150 4c 1c 4b 3c 3a 08 2b be d0 82 07 3e 63 f6 46 3d
       0.012396883 -0.16702357 0.13233495 0.048574816
000160 f7 76 e9 3d c5 d2 95 bc e1 87 30 3d 32 62 b7 3d
       0.11399644 -0.01828898 0.043098334 0.08954276
000170 1b fd 88 bd b8 28 85 bd 76 1a 4d bd 57 e3 6e bd
       -0.06688901 -0.06501907 -0.050074063 -0.058322277
000180 20 34 c8 3d c2 89 06 be 03 e2 13 3e c3 b4 e4 bd
       0.09775567 -0.13138488 0.14441685 -0.1116729
000190 b4 d9 89 bd bc 22 df bc 0f 4c d5 bd 0f 7b 48 3e
       -0.06730977 -0.027238242 -0.10414898 0.19578193
0001a0 01 7c 9a 3e 38 63 e6 bd 21 f4 5d be be 58 d9 bd
       0.30172732 -0.11249393 -0.21675159 -0.10612629
0001b0 87 64 a0 bd 58 c5 9b bd 91 22 25 bd d1 ec 91 bc
       -0.07831674 -0.07606 -0.04031617 -0.017813118
0001c0 83 68 dc bd 37 c2 04 bc 0b a6 d8 bc 8d f3 4e 3e
       -0.107621215 -0.008102945 -0.026446363 0.20210095
0001d0 c3 92 75 be 69 6e 56 3c b8 28 44 3d 76 c7 17 3d
       -0.23981766 0.013087847 0.047890395 0.037055455
0001e0 6b 6c 39 3d 55 67 f6 3d 58 9b 7e 3e 5b 11 72 bd
       0.04526941 0.12031428 0.24863946 -0.059098583
0001f0 97 35 80 3d 79 3f 28 3d 18 af 2a be c1 d5 93 bb
       0.062602215 0.041076157 -0.16668355 -0.0045115654
000200 2e 70 b4 3d f7 f8 72 bd 7c d1 7f bd c5 ad 9d be
       0.08810459 -0.059319463 -0.06245564 -0.30796638
000210 90 69 c8 bd 90 1b 1f bd f1 41 99 bd f1 2a 92 be
       -0.097857594 -0.038844645 -0.074832805 -0.28548387
000220 bf 72 c5 3d d4 c0 b3 bd 0f dc d1 3d f4 9b 01 3e
       0.09641027 -0.087770134 0.10247051 0.12657148
000230 bf 75 15 3d 16 bb 20 be 81 fb 2a 3d 98 59 0e 3e
       0.036489245 -0.15696368 0.04174376 0.13901365
000240 c7 fa a2 3d fe 6f ae bc 1d a8 ce 3d de 3b da bc
       0.07957988 -0.021293636 0.10090659 -0.026639875
000250 2b b9 6f bd 36 3a 12 3d a0 00 94 3d 78 b5 cd 3d
       -0.0585262 0.035700046 0.07226682 0.10044378
000260 4e 31 e1 bd f5 c4 af 3d e6 7d 06 be b0 9b 1f bd
       -0.10995732 0.085824884 -0.13133964 -0.038966835
000270 e9 76 1a 3e 79 d3 ea bd 3c 70 81 be 91 47 1b bd
       0.15084423 -0.114661165 -0.2528094 -0.037910048
000280 3d 04 83 be 7c 5b d5 3d d7 fd 87 bc cd f4 64 bc
       -0.2558917 0.1041784 -0.016600532 -0.013974381
000290 92 96 61 bd ea 94 2c bb 85 a8 08 3c ee 21 45 3e
       -0.055075236 -0.0026333877 0.008340959 0.19251224
0002a0 1e 0b ec bd 96 81 78 3d 2e 26 03 3e ff b9 02 be
       -0.11525558 0.060670458 0.12807533 -0.12766264
0002b0 dd 27 84 3d 80 3a 09 3e 76 f6 b9 bd 67 28 82 bc
       0.06452916 0.13401222 -0.09080212 -0.015888406
0002c0 79 8c 15 3e a9 b3 0d 3e 5a 2a 93 bc 6a a5 eb 3d
       0.14604367 0.13838066 -0.01796453 0.115061596
0002d0 5c 50 d7 3c a9 58 a1 bd c7 f5 00 bd 54 df 9b 3d
       0.026283436 -0.07878239 -0.03148439 0.07610956
0002e0 6d b9 81 be f4 30 7c bd 75 f2 f8 be 7d 86 8c 3d
       -0.2533678 -0.061570123 -0.4862248 0.06861589
0002f0 db d0 86 3d 20 11 86 3d c2 a2 94 3a c9 78 92 bd
       0.06582805 0.06546235 0.001134001 -0.07151944
000300 19 6e 3d be 58 f8 30 bc ea 37 10 be 24 18 ff 3c
       -0.1849903 -0.010801397 -0.1408383 0.03113944
000310 bb ae ce bd 43 69 99 3d 7a 27 cf 3d 21 99 4f bd
       -0.10091921 0.0749078 0.101149514 -0.050683144
000320 12 2e 18 be 81 f6 bb 3d 26 62 f1 3d cc d4 18 3d
       -0.14861324 0.09177876 0.117862985 0.037312314
000330 5d 9e 11 3e 45 3c 45 be a4 e1 07 3e eb 32 d9 3d
       0.14220567 -0.19261272 0.13269669 0.10605415
000340 51 dd a7 bd df d1 00 be 1a ab 05 be 3f e7 a0 3d
       -0.0819651 -0.1258006 -0.13053551 0.07856607
000350 b0 97 88 be 6d 30 c8 bc c5 7b a8 3d 40 f8 29 bd
       -0.26678228 -0.024437154 0.08226732 -0.041496515
000360 20 9f 66 3d b6 3b 0c 3e b2 3b d8 3c 6d 88 34 be
       0.056304097 0.13694653 0.026395652 -0.17630167
000370 cc 0e 14 3e 18 d8 0a 3e 74 d1 54 3c 30 de 89 3e
       0.1445877 0.13558996 0.012989391 0.26927328
000380 86 3d f6 3d ff 47 37 bb 74 00 0f 3e db 2a 87 bc
       0.120234534 -0.0027966497 0.13965017 -0.016499927
000390 34 96 06 be a8 95 29 bd fa ba 04 3d 58 ae 50 3c
       -0.13143235 -0.04140249 0.032404877 0.012736879
0003a0 05 2a ad bd 8f 81 68 3d 6b 84 2d be f5 02 4e bd
       -0.0845528 0.05676418 -0.16945045 -0.05029579
0003b0 9a 28 1b be 3e 9e 38 be 1b b4 49 3d 48 4a cd 3d
       -0.15152207 -0.18029115 0.049244028 0.10023934
0003c0 a6 ed a3 bc 0c 04 b3 3d 98 b6 cd be 3c 38 79 3c
       -0.02001078 0.08741006 -0.4017837 0.015211161
0003d0 ab da 85 3d 0f c9 84 3e ec 1e c7 bc e9 8e 7d 3d
       0.06535848 0.25934646 -0.024306737 0.061903868
0003e0 82 7d 49 3c 80 6d 08 3d b9 48 37 3e 4e 61 30 be
       0.01229799 0.033307552 0.17898835 -0.17224619
0003f0 31 bd 4d 3d ae 0a 37 be 00 a1 2b 3d 86 43 eb bd
       0.050229255 -0.17875168 0.04190159 -0.114874884

linear2.bias f4 [64]
000000 8a 35 85 3d 40 2e 94 bd 8b 99 5f 3d ae 7b cc 3b
       0.065043524 -0.07235384 0.05458979 0.0062403297
000010 56 d2 ee bd 57 d4 0c be 19 b8 2f be 57 27 c1 bd
       -0.11661212 -0.13752876 -0.17160071 -0.094313316
000020 f7 28 4b 3d 12 ef be 3a 00 81 18 3e 98 6b 1c be
       0.049599614 0.0014567098 0.1489296 -0.15275419
000030 7d 67 56 bc f4 d3 24 be de 59 02 bb 05 6d 90 3d
       -0.013086197 -0.16096479 -0.001988999 0.07052044
000040 50 e9 2d be 7c 34 1f 3e dc 48 67 bd e2 fb 1b 3e
       -0.16983533 0.15547365 -0.05646597 0.15232804
000050 59 e8 bf bc c6 d3 cc 3d d9 70 29 3e 32 29 80 bd
       -0.023426222 0.1000133 0.16546954 -0.062578574
000060 8a db 10 bd f5 bc b9 3d 9c 8f 1f be 84 77 e1 3d
       -0.03536562 0.09069244 -0.15582126 0.11009124
000070 68 f2 e6 bd d0 30 23 3e 14 be ee bd 34 40 82 bd
       -0.11276704 0.15936589 -0.11657348 -0.06359902
000080 be 0a 03 3e f2 60 8f bd 61 89 17 3e e5 41 f0 3d
       0.12797067 -0.07000913 0.147985 0.117313184
000090 7d eb 22 3e 7c d2 30 be 17 10 5c 3a ac 85 88 bd
       0.15910144 -0.17267793 0.00083947316 -0.06666121
0000a0 58 cb 33 3d 5a 65 01 be 46 bb 99 3d 35 c6 be bc
       0.043895096 -0.12636319 0.07506423 -0.023287872
0000b0 03 0b b7 bd 86 c0 21 be dc 00 b4 3d 83 4b 8b bd
       -0.08937647 -0.15796098 0.087892264 -0.06801512
0000c0 da 2e 0f 3e b3 9e 07 3d c3 71 69 3d a7 de 91 bc
       0.13982716 0.03311033 0.056993257 -0.017806364
0000d0 9a e4 a8 bc b8 ec 62 bd ba d3 1b be 3d 45 e4 3d
       -0.020616818 -0.055401534 -0.15217486 0.11146019
0000e0 f7 3c c7 bd 88 75 d5 3d d0 95 6a bd f2 a6 eb 3d
       -0.09728425 0.10422808 -0.05727178 0.11506452
0000f0 9e 47 1e 3e 71 d8 d6 bd a9 b2 fe 3d d6 72 b5 3b
       0.15457007 -0.10490502 0.124364205 0.005537371

bn2.weight f4 [64]
000000 8a f6 6b 3f 47 16 7e 3f 71 c6 5d 3f 04 1c 76 3f
       0.92173064 0.9925274 0.8663092 0.961365
000010 1f 00 74 3f 8e f1 72 3f d3 53 70 3f 8b 3b 79 3f
       0.95312685 0.94899833 0.93877906 0.9735648
000020 ad ef 82 3f 10 3c 73 3f 88 63 70 3f a6 c6 77 3f
       1.0229393 0.95013523 0.9390187 0.9678749
000030 74 d1 79 3f 31 0f 63 3f eb 4f 69 3f 53 fb 64 3f
       0.97585225 0.88695055 0.9113757 0.8944599
000040 29 d2 7f 3f 98 7f 7d 3f c9 9b 7a 3f 54 fa 72 3f
       0.99930054 0.9902282 0.9789396 0.9491322
000050 ec 10 6f 3f a8 97 78 3f 4f f9 80 3f 12 53 77 3f
       0.93385196 0.9710641 1.0076083 0.9661113
000060 df bd 6d 3f 08 ae 6d 3f 62 79 75 3f fe 74 74 3f
       0.92867845 0.92843676 0.9588834 0.95491016
000070 7b 55 89 3f 78 07 82 3f 61 3b 8a 3f aa c2 90 3f
       1.0729212 1.0158529 1.0799371 1.1309407
000080 67 2a 73 3f 00 e0 87 3f ec 35 81 3f c1 b6 7d 3f
       0.94986576 1.0615234 1.0094581 0.99106985
000090 79 b1 7e 3f 30 65 5a 3f 1b df 7e 3f 0d e7 74 3f
       0.9948955 0.8531065 0.9955918 0.95665056
0000a0 94 68 85 3f 22 88 70 3f 86 1d 80 3f 86 46 7c 3f
       1.042254 0.9395772 1.000901 0.9854511
0000b0 92 6f 8f 3f 92 81 80 3f 39 3c 6a 3f da b2 66 3f
       1.1205924 1.0039542 0.9149814 0.90116656
0000c0 80 1f 72 3f db 98 8d 3f ad ee 79 3f 70 fa 82 3f
       0.94579315 1.1062273 0.97629815 1.0232677
0000d0 bb 89 85 3f 7b c2 63 3f a4 5a 70 3f 4d b6 66 3f
       1.0432657 0.8896863 0.93888307 0.9012192
0000e0 27 67 82 3f 35 1b 7e 3f 8d 66 83 3f 1a 74 66 3f
       1.018773 0.99260265 1.0265671 0.90020907
0000f0 69 94 7c 3f 3b f6 75 3f f0 8b 81 3f d7 44 86 3f
       0.98663956 0.9607884 1.012083 1.0489758

bn2.bias f4 [64]
000000 85 2b 2c bd 3e 6d 8a be d0 d9 50 3c 9c 83 5c be
       -0.04203369 -0.2703647 0.012747243 -0.2153458
000010 64 4e f4 bd 7d 6b b3 bd 04 3a 59 bd e4 8b 76 be
       -0.11929014 -0.08760736 -0.053033844 -0.24076802
000020 90 c8 85 be 03 e1 8e be 0e 94 e9 bd 38 33 0b be
       -0.2612958 -0.27906045 -0.11405192 -0.13593757
000030 72 32 a1 be 21 61 ab 3d 62 10 9c be c9 4f 3f be
       -0.314838 0.08368135 -0.3048125 -0.1868278
000040 b9 e1 be bd 29 8a 56 be 11 1f 99 be 12 e1 52 be
       -0.09320397 -0.20951141 -0.29906514 -0.2059367
000050 a4 f0 2c bd 31 02 88 be 30 5a 04 be ca e6 1b be
       -0.04222168 -0.26564172 -0.12925029 -0.15224758
000060 92 39 53 be 6c 09 1d be 63 6d 93 bc 7a 23 ca bb
       -0.2062743 -0.15335625 -0.017996496 -0.00616878
000070 4b 87 41 be 2d ea 66 be f7 79 01 be b9 9d 93 3d
       -0.18899266 -0.22550268 -0.12644182 0.072078176
000080 e7 99 ce bd c7 0b c3 bd 48 d3 aa bd c7 a9 b0 be
       -0.10087948 -0.09523731 -0.0834108 -0.3450453
000090 28 95 6d be 0b d9 24 be 1e 8d 54 be 1a c6 a6 be
       -0.2320143 -0.1609842 -0.20756957 -0.32573014
0000a0 23 af 85 be ec 92 a1 be 15 3f 3a bd a5 ea 08 be
       -0.2611018 -0.31557405 -0.045470316 -0.1337076
0000b0 55 81 ab bd 66 db 9d be 02 fc 0d be d1 41 2c be
       -0.083742775 -0.3083145 -0.13865665 -0.16821982
0000c0 86 46 ab be d3 d6 87 bd cc 03 54 bd cc 47 55 bd
       -0.33452243 -0.06632771 -0.051761433 -0.052070424
0000d0 28 51 57 be c7 ec 17 be d2 e7 8a be f3 66 09 be
       -0.21027052 -0.14836417 -0.2712999 -0.13418178
0000e0 f2 e2 71 be bf 10 86 be 1f bc d1 be 1d c1 5e be
       -0.23621729 -0.2618465 -0.40963838 -0.21753354
0000f0 c0 79 21 be 61 ad 4a be f8 c4 40 be 2b 81 06 be
       -0.157691 -0.19792701 -0.18825138 -0.13135211

bn2.running_mean f4 [64]
000000 79 67 75 3b 99 db 74 be 1a 5e db 3d 8f 1d d1 3b
       0.0037445708 -0.23911895 0.10711308 0.0063816975
000010 06 d9 35 be 38 83 44 be a4 14 58 be 89 9e 1b be
       -0.17758569 -0.19190681 -0.21101624 -0.15197195
000020 77 02 39 3d 27 82 a6 3d bf d4 05 3e e3 64 75 be
       0.045168366 0.08130293 0.13069437 -0.23964266
000030 4c 65 6c be ed fe 99 bd 44 1e 17 3b 67 77 92 3c
       -0.23085517 -0.07519326 0.0023058811 0.017879201
000040 58 15 60 be 19 f7 12 3e 55 f4 60 be 32 c8 6b 3e
       -0.21883142 0.14352073 -0.21968205 0.23025587
000050 52 90 f0 3d 1f c2 42 be 1a 2c 96 bd 1b 90 a3 bd
       0.11746277 -0.19019364 -0.073326305 -0.0798647
000060 30 e5 ce bd 6a e9 75 3b 9b 74 9e be 76 e6 8e bb
       -0.10102308 0.0037523159 -0.30948338 -0.004360969
000070 15 1b 64 be 5c 8c 1e 3c 4e ed 44 be cf 7d 44 be
       -0.22275956 0.009677019 -0.1923115 -0.19188617
000080 4a 60 92 3e c2 e5 d4 3c 56 03 e5 3d 01 dd d6 3d
       0.28589088 0.025988463 0.11182277 0.10491372
000090 ec f1 f1 3c c1 f4 93 be 9e 5b 5b be 7d 36 9b bd
       0.029534303 -0.2889767 -0.21421668 -0.07578752
0000a0 6f 27 59 be 94 18 68 be 06 fc 96 3c c0 df e4 bd
       -0.21206449 -0.22665626 0.018430721 -0.111754894
0000b0 2f 90 aa be 10 95 3a be 77 ab 8e 3e ae 63 19 bd
       -0.33313128 -0.18220925 0.27865192 -0.037448578
0000c0 1a ae 8e bd d8 51 4b be 70 93 04 bc 2a 74 93 bd
       -0.06966801 -0.1985544 -0.008091792 -0.07199891
0000d0 ec de 9c be 9d 17 ab bd d9 26 63 be 42 82 92 3d
       -0.30638826 -0.08354113 -0.22182788 0.07153751
0000e0 57 38 56 be a7 12 a8 bc ed dc 87 be a8 f1 3a bd
       -0.2091993 -0.020516707 -0.2653574 -0.045640618
0000f0 a4 5f 06 3e 55 70 22 3c 90 bc 2b bd 6c a6 8f 3c
       0.13122422 0.009914477 -0.041927874 0.01753541

bn2.running_var f4 [64]
000000 50 81 37 3e 4d 79 7f 3e 62 75 23 3e 69 ef 33 3e
       0.17920423 0.24948616 0.15962747 0.17571796
000010 b6 5a f6 3d 5d 4d 37 3e 13 4a 54 3e 9d 28 48 3e
       0.120290205 0.17900605 0.20731382 0.19546743
000020 58 a0 20 3e 2c ca d4 3d f0 e4 ac 3d d4 07 29 3e
       0.15686166 0.10390124 0.08442104 0.16506892
000030 7c fb 48 3e 64 e3 1c 3e f7 fc e4 3d 4a de be 3d
       0.19627184 0.15321118 0.11181062 0.09319742
000040 96 75 1c 3e 59 d3 19 3e 23 2b 39 3e 10 a7 3b 3e
       0.1527923 0.15022029 0.18082862 0.18325448
000050 00 55 05 3e f8 76 78 3e 20 3d 3d 3e dd 8c 44 3e
       0.13020706 0.24264133 0.18480349 0.1919436
000060 a9 f6 35 3e a2 1c 3f 3e 24 a0 59 3e c1 e0 6e 3e
       0.17769875 0.18663266 0.21252495 0.23327924
000070 0d e0 16 3e 13 34 16 3e 0e 7b 31 3e 7b 77 7d 3e
       0.14733906 0.14668302 0.17332098 0.2475261
000080 28 11 89 3e e7 d1 12 3e 44 a9 fa 3d 54 e6 db 3d
       0.26770902 0.14337884 0.12239316 0.10737291
000090 58 6e 40 3e 5e 18 17 3e 16 d4 4b 3e 01 12 d2 3d
       0.18792093 0.14755389 0.19905123 0.1025734
0000a0 50 54 2a 3e 44 2c d2 3d ee 55 4c 3e 7b ef 16 3e
       0.16633725 0.10262349 0.19954655 0.14739792
0000b0 dd 17 ab 3e 4b f6 4d 3e 86 a7 06 3e 11 75 e0 3d
       0.33416644 0.20113485 0.13149843 0.10959829
0000c0 8d 6b 6a 3e 77 42 9e 3e f6 69 59 3e c1 4b 1b 3e
       0.2289259 0.30910084 0.21231827 0.15165617
0000d0 cc ed 82 3e b8 f3 d1 3d 8b 19 01 3e 79 7b 0b 3e
       0.2557205 0.10251564 0.126074 0.1362132
0000e0 cc cf 27 3e 00 f4 5a 3e e8 6d 58 3e 54 71 34 3e
       0.16387862 0.21382141 0.21135676 0.17621356
0000f0 a5 d6 1b 3e 1f 3c 65 3e 6f 34 3e 3e 65 99 0c 3e
       0.15218599 0.22386216 0.1857469 0.1373039

linear3.weight f4 [32, 64]
000000 56 c9 f9 bd e5 f4 03 3e 70 cb 97 3c 16 76 ae 3d
       -0.12196605 0.12886389 0.018529624 0.08518617
000010 0a ca 68 be f8 53 b2 3d 2f e3 51 3d 83 60 c1 3d
       -0.22733322 0.08707422 0.05124205 0.09442236
000020 67 61 cf 3c d2 28 28 be 44 11 87 3c 2b c6 11 3e
       0.025315 -0.16421822 0.016487725 0.14235751
000030 f5 ae 42 3d 44 50 95 bd 35 14 be 3d e3 ac de 3d
       0.047530133 -0.072907 0.09281198 0.10872819
000040 75 cc 7b 3d 29 2f da 3d 15 2f df bd f7 e8 8b 3d
       0.061474282 0.10653526 -0.10897652 0.06831544
000050 4b 24 4a bd d6 91 d1 3d 3d d4 e6 3d d6 78 c8 bd
       -0.049351018 0.10232894 0.1127095 -0.097886726
000060 ca 59 5b 3d 50 dc a5 bd 2e e5 5d be a4 5b ce 3d
       0.053552426 -0.08098662 -0.21669456 0.10076073
000070 45 af 06 be 17 df 03 bd 7b 2f 10 bd 5b 29 8a bd
       -0.13152798 -0.032195177 -0.03520153 -0.06746169
000080 11 81 0c bd ab 1a ca 3d 8b 0c ed bd 79 4a c5 3d
       -0.034302775 0.09868368 -0.11574658 0.09633345
000090 fd b5 c8 3d 04 d9 97 3c 1d a8 7b be 2f 48 83 bd
       0.098003365 0.018536098 -0.24575849 -0.06410252
0000a0 7c 5f 5e bd a0 31 34 bd 78 dc 46 bc 2b 63 12 be
       -0.05429028 -0.04399264 -0.012137525 -0.14295642
0000b0 23 26 95 3d b0 89 ed 3d 50 40 f3 3c cf 2e 75 be
       0.072826646 0.115985274 0.029693753 -0.23943637
0000c0 eb 4e da 3d 28 1a bc bc 20 e0 46 3d 2a 11 58 bd
       0.10659584 -0.022961691 0.048553586 -0.052750744
0000d0 61 94 d1 bd a9 06 8c 3c 4a 8a 22 bd e0 c9 cd 3c
       -0.10233379 0.01709302 -0.039682664 0.025120676
0000e0 a1 ab 0b be 6d 73 a6 bd 0b 88 39 be 2c e2 a4 bd
       -0.1363969 -0.081274845 -0.18118303 -0.08050951
0000f0 09 70 d8 bd 3b 5e 87 bd 2e 5e 01 3d 82 05 26 be
       -0.10568244 -0.0660977 0.031583957 -0.16213039
000100 be f2 a0 bd 95 06 57 bd a3 f3 0c bc c3 39 ca bb
       -0.078587994 -0.05249651 -0.008603009 -0.0061714365
000110 32 6b 23 3c 8e ef cd 3d 09 ba cf bc 24 da 36 bd
       0.009974288 0.10055457 -0.025357263 -0.04464163
000120 32 c8 01 be cd 76 d9 3c 81 c5 54 be 6c a1 3a bd
       -0.12674025 0.026545906 -0.20778467 -0.0455641
000130 48 0e 5a bd 97 e8 60 3d 71 40 da 3c af f7 ad bc
       -0.053236276 0.054909315 0.026642056 -0.021236269
000140 2b df a6 bd 22 38 12 3d 6e 2c 21 3d 7f 85 51 3e
       -0.08148035 0.035698064 0.039349012 0.20461081
000150 c7 64 1b be 20 6a 52 3c 9d 81 f7 bc ae e1 74 3d
       -0.15175162 0.012842685 -0.030213172 0.059785537
000160 48 fe aa 3d a5 ad 1f 3d 72 64 1c be 4e a3 2e be
       0.083492815 0.03898396 -0.15272692 -0.17054483
000170 9c 23 7b 3d 90 78 24 3d d2 c2 49 be b1 89 3f 3d
       0.061313257 0.04015404 -0.19703224 0.046762172
000180 2f 6a 07 3c bb 2d 15 3d 82 07 4d be a8 1e f1 bd
       0.008265062 0.036420565 -0.20022395 -0.11773425
000190 04 48 bf bd 60 d6 97 bd 19 c6 60 3d 63 bd 4b be
       -0.09339908 -0.07413936 0.05487642 -0.19896464
0001a0 ad 86 f2 bd 35 68 65 bd 6a b7 35 bc bc 17 bd 3c
       -0.118420936 -0.056007583 -0.011091093 0.023082606
0001b0 3b 6e bc bd 97 9a 08 3c 2f f6 1b 3d fb a1 26 be
       -0.09200712 0.008337638 0.038076576 -0.16272728
0001c0 0e 0c bf 3d 56 f5 d9 bd 69 f1 52 be e7 af fc bd
       0.09328471 -0.10642497 -0.20599903 -0.12338238
0001d0 1d 09 10 3c e8 cd 54 bb 18 64 2d bd e9 44 0f be
       0.008791235 -0.0032471363 -0.042331785 -0.13991131
0001e0 0e 71 43 3d 7e 4e 29 3d b5 7f a6 3b 1a bb 53 bc
       0.04771524 0.04133462 0.005081142 -0.012923026
0001f0 60 79 22 be 18 55 a7 bb eb 32 27 bd 0d 73 2a be
       -0.15866613 -0.0051065795 -0.040820044 -0.16645451
000200 9e 09 f1 3d ed 18 13 bd 7f d8 04 3e 30 3f 25 be
       0.117694125 -0.035912443 0.12973212 -0.16137385
000210 b5 9a 04 bd 6c 1e 45 3d 3d 10 85 bb b7 6f 64 bd
       -0.032374103 0.048124716 -0.0040607736 -0.055770602
000220 f5 5a 62 3d 26 a8 bf bd 9e b8 11 bc 7c 46 c5 3c
       0.055262525 -0.09358244 -0.008894114 0.024081461
000230 6a 59 d5 3d 44 58 10 be 50 5f e2 3d 32 07 10 be
       0.10417445 -0.1409617 0.11053336 -0.14065245
000240 87 3c 7e bd 1a 9c ca 3d 1a 03 8b 3a 42 b1 fa 3c
       -0.062069442 0.09893055 0.0010605783 0.030602101
000250 27 82 9e bc 44 3e dc bd 48 d9 23 3e 98 5c 7a 3c
       -0.01934917 -0.10754064 0.16000855 0.015280865
000260 c2 86 d4 bc 56 2a 1c 3d aa c8 76 bd 19 c3 d4 3d
       -0.025943164 0.038126312 -0.060249962 0.103887744
000270 92 94 31 be 97 94 80 3d 05 30 03 3e 25 49 92 bd
       -0.17341831 0.06278341 0.12811287 -0.071428575
000280 0e f7 25 bd df 73 a6 bd 8c 07 0e bd d6 97 87 3d
       -0.040518813 -0.081275694 -0.034675166 0.06620757
000290 19 73 1e bd 56 d6 b4 bd 34 cf 75 bb 2e bf f0 3b
       -0.038683984 -0.08829944 -0.0037507536 0.007347009
0002a0 f4 b4 db 3c 96 dc 0e 3d 6f af 7a 3c 9b 11 25 be
       0.026819684 0.034878336 0.015300616 -0.16119997
0002b0 4a e7 06 3c 3b 29 10 bd 79 08 9a 3d 61 14 4e bd
       0.008233855 -0.03519557 0.07521147 -0.050312404
0002c0 6d 60 44 bc ac 15 04 3e e8 93 a2 3d ab 69 bd bd
       -0.01198588 0.12898892 0.07938367 -0.0924867
0002d0 f5 a5 f4 3d 97 98 5c be 78 f3 9d 3d b7 cb 7d 3d
       0.11945716 -0.21542583 0.077124536 0.061961856
0002e0 85 4f 7d be fc f3 15 be fd 34 0f be 02 28 b4 bc
       -0.24737366 -0.14643854 -0.13985057 -0.021991733
0002f0 a1 cc 51 be 2c 5a d9 bd d2 9a 4c 3d 24 dd 00 bd
       -0.20488216 -0.10612902 0.049952336 -0.031460896
000300 6c b1 bc bd 8c 5b d7 bc 16 75 0e be 3a dc 8a bc
       -0.09213528 -0.02628877 -0.13911852 -0.016950715
000310 6f 1d f0 3d 58 fc 4a be e6 3a 11 3c 45 98 d8 3d
       0.11724364 -0.19822824 0.00886414 0.10575918
000320 80 8f b6 bd aa 5d c4 bd df 25 e2 bd b2 eb ce bc
       -0.08914089 -0.095881775 -0.110423796 -0.025258873
000330 28 fc 4c 3e d3 19 3a bd ce 73 2b bd 43 04 1e be
       0.20018065 -0.045434784 -0.041858487 -0.15431313
000340 5d 01 13 be b9 a3 04 be c8 45 bc bd 95 f2 73 3d
       -0.14355989 -0.1295308 -0.09192997 0.059557516
000350 a5 31 e7 bd bb bf 8b 3c 8b 76 fd ba 08 fd 86 bc
       -0.11288766 0.017059198 -0.0019337697 -0.016478077
000360 42 64 83 bd 25 f0 dc bd ef d1 fb bd a5 51 3c bb
       -0.06415607 -0.107879914 -0.12295901 -0.0028735187
000370 17 de ce 3d fa c5 64 3d f7 08 15 3d 7d 14 0d bd
       0.10100954 0.055852868 0.036385503 -0.034443367
000380 fc d8 04 bd 75 59 19 be 0a 1a b0 bd 08 6a c6 bd
       -0.032433495 -0.14975531 -0.085987166 -0.096881926
000390 ed 63 a4 3d ad 3c 67 bd d6 f9 8d 3c 12 39 96 bd
       0.08026872 -0.05645435 0.017331045 -0.07335104
0003a0 7d d7 94 3c 85 a3 01 bd 8d c6 96 3d eb 46 7a be
       0.01816916 -0.031650085 0.07362089 -0.24441116
0003b0 86 9c d9 bd 9c fe 41 bc 6b 27 0a be 03 c4 56 3d
       -0.106255576 -0.011840489 -0.134916 0.052433025
0003c0 02 5a 8d 3d e1 41 05 be 12 c7 68 bd 2f f8 9e be
       0.06901933 -0.13013412 -0.056830473 -0.31048724
0003d0 32 77 cb 3d 37 4c a6 ba 61 60 ac 3d d9 be 2f 3c
       0.09934844 -0.0012687509 0.0841682 0.010726654
0003e0 d1 33 33 be e4 78 b7 bd 24 f6 ed 3d b6 df e2 3c
       -0.17500235 -0.08958605 0.11619213 0.027694564
0003f0 b6 77 fb bd 2a 8c 1b 3d 26 da 87 3d bd 4a d6 bc
       -0.122786924 0.037975468 0.066334054 -0.026158685

linear3.bias f4 [32]
000000 91 45 62 3c 07 ab 0c 3d b4 57 a6 3d 38 b9 9d 3d
       0.013810531 0.034342792 0.08122197 0.07701343
000010 9e 3d 9d 3d b6 c4 0c 3d 38 26 bd 3d 8c cc ad 3d
       0.07677768 0.034367286 0.09235805 0.0848628
000020 d4 7b a9 bc 22 bc 85 3c 5a a3 88 bd 92 5b be bd
       -0.020688929 0.01632506 -0.06671782 -0.092948094
000030 16 cd e4 3d 0c 33 c6 bd d0 6f af bd 28 bf 04 be
       0.111719295 -0.09677705 -0.085662484 -0.12963545
000040 63 e4 d0 bd fb e9 13 3d f0 05 7d 3d 6f 80 ae bd
       -0.10199811 0.036111813 0.06177324 -0.085205905
000050 20 3e 68 bc 19 2b b5 bd 44 04 b6 3c ac 18 a4 3d
       -0.014174968 -0.08846111 0.02221883 0.08012518
000060 f5 46 40 bd 14 29 75 bd 47 25 ae 3d 1c cf b1 bd
       -0.04694267 -0.05985363 0.08503204 -0.08682081
000070 f7 c3 e9 bc 9a 8e e3 bd 99 ce b2 3d 4a 9f 3e 3d
       -0.028535826 -0.111111835 0.087308116 0.04653863

bn3.weight f4 [32]
000000 46 0a 7a 3f 87 30 8a 3f 32 7c 55 3f 88 cb 99 3f
       0.97671926 1.0796059 0.8339263 1.2015238
000010 3b 7f a3 3f 16 b4 88 3f 22 27 86 3f ad b1 70 3f
       1.2773203 1.0679958 1.0480692 0.9402111
000020 6b 41 66 3f 25 69 7f 3f 60 64 80 3f 34 25 64 3f
       0.8994357 0.9976981 1.0030632 0.8911927
000030 df 20 86 3f 62 5c 85 3f b2 c3 83 3f 93 8f 86 3f
       1.0478781 1.0418818 1.0294096 1.0512565
000040 d0 6b 77 3f 5c 8b 92 3f 63 f3 78 3f 52 9f 8a 3f
       0.96648884 1.1448779 0.9724638 1.0829871
000050 62 86 92 3f 29 6d 7e 3f 02 8a 7b 3f 9b e3 84 3f
       1.144726 0.99385315 0.9825746 1.038196
000060 e6 0f 7f 3f 89 94 93 3f 46 06 83 3f 2f 1b 78 3f
       0.99633634 1.1529704 1.023629 0.9691648
000070 d0 b9 8a 3f c5 58 8d 3f a6 d4 73 3f 2b a7 7e 3f
       1.0837955 1.1042715 0.9524635 0.9947383

bn3.bias f4 [32]
000000 ea 8d 6b bd 53 37 05 bd 26 b2 25 3e 11 e9 fe bd
       -0.057508387 -0.032523464 0.1618124 -0.12446798
000010 5a 5f 58 be 6a 4c e5 bc 9a d6 0c bd 82 65 b2 bc
       -0.21130124 -0.027990539 -0.034384347 -0.021776918
000020 67 d9 d7 bc 40 60 1a bc 03 78 cb bd 41 93 72 bb
       -0.026348783 -0.009422362 -0.09935 -0.003701404
000030 0e fb d7 bd c4 14 8b 3b 5f 1e 74 3d 50 a6 7f 3e
       -0.10545932 0.004244419 0.059599277 0.24965787
000040 f0 f2 9e bc 07 20 92 3d ab cd 24 be b9 6b 7b 3e
       -0.019402951 0.07135015 -0.16094081 0.24552812
000050 16 19 0f 3e 51 48 65 3d de bb e3 3c 0b b6 a8 3c
       0.13974413 0.05597717 0.027799543 0.020594617
000060 be 16 a8 bd 56 ac 95 3e 3d f5 10 be c0 92 4a 3d
       -0.08207463 0.29233044 -0.14156051 0.049456358
000070 44 12 8c bc 1e f3 66 bd fb f9 b2 bb d8 57 b5 3d
       -0.017098553 -0.0563842 -0.005461929 0.088546455

bn3.running_mean f4 [32]
000000 53 9d 5b be 22 12 d0 be 07 d3 8c bd 7b e3 cb be
       -0.21446733 -0.40638834 -0.06876188 -0.3982199
000010 cc 8e f4 be 43 16 3d be f5 8b 46 be a1 85 b0 be
       -0.47765195 -0.18465523 -0.19389327 -0.3447695
000020 0d de 58 bd 3c 66 b5 be 4a 91 ce be 60 60 f5 bd
       -0.05294614 -0.3542956 -0.40345222 -0.11981273
000030 31 a9 77 3d 8a 91 a9 be 8d c6 a4 be 21 1c 85 be
       0.060464088 -0.3311885 -0.32182732 -0.25998023
000040 8c f9 53 be 68 ca 1b bd 28 98 d5 3d cf 6a f7 be
       -0.20700663 -0.038034827 0.10429412 -0.48323676
000050 09 91 09 bf d8 e0 ed be 90 dd a3 be 2c 54 3a 3c
       -0.5373693 -0.46460605 -0.32004976 0.011372607
000060 1d 8a cc be 13 80 11 3e 5f 75 86 be e7 8b ad bd
       -0.39949122 0.14209013 -0.26261422 -0.0847395
000070 e9 15 db 3d a3 ad c3 be 05 1f b6 3d 11 86 67 bd
       0.106975384 -0.38218412 0.08892635 -0.05652434

bn3.running_var f4 [32]
000000 d9 fb fb 3e ec 62 00 3f e0 c0 dd 3e 38 42 2f 3f
       0.49215582 0.5015094 0.43311214 0.68460417
000010 fa 9c 30 3f 4b d1 14 3f 66 46 f4 3e 18 41 14 3f
       0.6898953 0.58131856 0.4770996 0.57911825
000020 d4 be fa 3e 6c 89 01 3f 96 bf 0d 3f 99 8f 9b 3e
       0.48973715 0.50600314 0.5537046 0.30382994
000030 84 f4 17 3f 54 1d fe 3e c4 f8 16 3f 6c 2b 34 3f
       0.59357476 0.4963175 0.58973336 0.70378757
000040 b1 fc bb 3e 8c 0e 48 3f 36 04 b2 3e e5 80 36 3f
       0.36716226 0.78147197 0.34768838 0.7129043
000050 52 1e 37 3f b0 90 0a 3f 30 c7 0f 3f a4 6c 22 3f
       0.7153064 0.54127026 0.5616331 0.6344702
000060 6d 62 09 3f cb ba 29 3f 93 4a b6 3e 97 db fd 3e
       0.5366581 0.6630065 0.3560377 0.49581596
000070 e7 84 3d 3f cf 69 20 3f bc 12 f7 3e 0a c6 ed 3e
       0.7403092 0.6266145 0.4825648 0.46440154

linear4.weight f4 [64, 32]
000000 74 60 26 be 36 9b dc 3d e4 31 16 3d 8d de 62 3e
       -0.16247731 0.10771792 0.036668673 0.22155209
000010 df 72 1f 3d da ac fc bd 3d 7e ca 3d 8f 50 36 3e
       0.03892791 -0.12337656 0.09887359 0.17804168
000020 fa c6 05 bd 66 14 ab 3d 89 12 5b bd c6 59 56 bd
       -0.032660462 0.083535 -0.053484473 -0.05233171
000030 5f d3 79 3d 36 75 30 be 9e 9f b5 bd c5 4f 0a be
       0.060992595 -0.17232212 -0.08868335 -0.13506992
000040 70 57 cb 3d 5e f9 47 3e 2b 0a 39 be c2 3f 6b be
       0.09928787 0.1952872 -0.18070285 -0.2297354
000050 b5 1f aa bd a3 50 1b be c2 4a 57 bd 8a 43 d6 3c
       -0.08306829 -0.15167479 -0.05256153 0.026155252
000060 91 90 14 3d e0 03 df 3d 61 46 07 be 22 c2 8a 3d
       0.03627068 0.10889411 -0.13210441 0.06775309
000070 7f 01 24 bc ac f4 0e 3c 62 67 f1 3c d0 60 4d bd
       -0.010010122 0.0087253265 0.029468242 -0.050141156
000080 dd 48 3b 39 8f 1d b4 bd 65 d3 72 3b 94 1e 3d bd
       0.00017860853 -0.087947 0.003705227 -0.04617174
000090 d3 06 ba bd d1 45 26 be ec 79 f1 bd a8 fa e1 3d
       -0.09083333 -0.1623757 -0.11790833 0.11034137
0000a0 7c 95 1e 3e 53 ee 86 be 4b bf 16 bd e5 44 5a 3e
       0.15486711 -0.26353702 -0.036803525 0.21315344
0000b0 b8 51 0e bd 0a 1a 2e 3e c7 4f d1 bc 2a ca 5c be
       -0.0347459 0.1700212 -0.025550736 -0.21561494
0000c0 81 74 ca bc 83 8d da bd 33 cc 8c bc 4c 12 74 bd
       -0.024713757 -0.106715225 -0.017187214 -0.05958776
0000d0 b1 c6 15 3e 32 f2 f5 3c 9e d9 a3 3d 6e 3f 67 be
       0.14626576 0.030022714 0.080004916 -0.2258279
0000e0 4f ee 18 be 44 a5 d1 3d 62 12 ce 3c 61 fb b2 3d
       -0.14934658 0.102366 0.02515525 0.08739353
0000f0 40 44 21 be 5b 07 cd 3d 72 f7 1d be 7b 82 60 3d
       -0.15748692 0.100111686 -0.15426424 0.054811936
000100 bf 1f b9 3d 7c 45 98 bd a1 cc a7 3d 1e 23 78 bd
       0.09039258 -0.07435128 0.08193327 -0.060580365
000110 53 3d 68 3e 25 43 4e 3e f4 71 c7 bc a2 33 0e be
       0.22679643 0.20142801 -0.02434633 -0.13886884
000120 8c 5b 0d be b7 d1 27 3d e1 5c 1b 3e d9 80 25 3d
       -0.13804454 0.040971484 0.15172149 0.04040608
000130 4d 6f 2c 3d 5d 8c aa bd 4c 8d 05 be 60 f1 ad be
       0.042098332 -0.083275534 -0.13042182 -0.33973217
000140 07 0e 77 3d 77 f6 b7 3d c1 98 a9 3d ed 4d 66 be
       0.060316112 0.08982556 0.082810886 -0.22490664
000150 c5 82 fc bd 88 af 07 3e 46 0a e9 bd bf 7f 0f be
       -0.1232963 0.13250554 -0.11378913 -0.14013575
000160 fb d2 00 bd 1b b3 bc 3c 60 b2 9b 3d 5c 5d ee 3d
       -0.031451207 0.023034623 0.07602382 0.11638901
000170 0d d3 48 3e 8a 9c 12 3e 86 3b 80 3d f7 f0 3c be
       0.1961176 0.14317527 0.06261353 -0.18451296
000180 27 cb 9c bc a2 83 87 bd 87 ec 1e 3c ca 08 ba 3d
       -0.01913984 -0.06616904 0.009699947 0.09083708
000190 35 59 4c 3e 80 ae 27 3e 68 b1 2c 3c a4 52 9e bd
       0.19955905 0.1637516 0.010540344 -0.07730606
0001a0 1e fd 64 bd 8c 14 bb bc e3 55 c5 3d 5e b7 ad 3d
       -0.055905454 -0.022836946 0.09635522 0.0848224
0001b0 33 92 a7 bd f4 89 1a 3e 17 3f 3a 3d 2c 65 13 3d
       -0.08182182 0.15091687 0.045470323 0.035985157
0001c0 22 49 b5 bd 74 6a bb bd 25 77 87 3d fe d6 99 bd
       -0.088518396 -0.09151164 0.06614522 -0.0751171
0001d0 de a4 56 be f4 13 3e 3d f2 52 91 3e 33 c2 10 bd
       -0.2096133 0.046405748 0.28383595 -0.035341453
0001e0 d0 10 5f bd fc b0 2c 3d 13 31 c9 3d 37 18 34 bd
       -0.054459393 0.042160973 0.09823813 -0.043968406
0001f0 3f eb 13 be 73 88 fe bd 9b d5 93 bc 84 62 99 3d
       -0.14445208 -0.124283694 -0.018046191 0.074894935
000200 04 c7 11 be 01 55 eb 3d c3 e4 d2 3d a0 bc 95 bd
       -0.14236075 0.114908226 0.10297539 -0.07311368
000210 f7 a6 0c 3e 81 71 db 3d 0d 4d b3 3d 37 75 90 3d
       0.13735567 0.107150085 0.08754931 0.07053607
000220 c8 4b a0 bd d7 a6 94 be a0 6a 28 bd 89 c7 88 bd
       -0.07826954 -0.2903354 -0.04111731 -0.06678683
000230 a1 02 3d 3e 6f c8 e0 bd 3c 93 04 3d 1a 98 0f be
       0.18458034 -0.1097573 0.032366976 -0.14022866
000240 96 3a b1 bd 56 0a e8 3c fc 29 28 be d8 5b 49 be
       -0.086537525 0.028325241 -0.16422266 -0.19663942
000250 0c 6b 2e be dc c2 c0 bd df b3 ef 3d be 74 fd 3d
       -0.17033023 -0.094121665 0.117042296 0.123757824
000260 ac ff 5c bd f1 bd 38 bd 34 75 e7 bc 8f 79 3c be
       -0.053954765 -0.045103017 -0.028254129 -0.18405746
000270 46 b0 4b 3e c8 13 ff 3d 7a 94 e5 bd 86 6b 27 be
       0.19891462 0.12454945 -0.1120996 -0.1634961
000280 49 82 a0 bd 16 b9 bf 3d 84 0b 63 3d 1c 08 f5 bd
       -0.0783735 0.09361474 0.055430904 -0.11964437
000290 ed d1 98 3d da da 1e bc de 09 bb bd ed 2a 3e be
       0.07461915 -0.009695733 -0.091327414 -0.18571062
0002a0 4e bf 5c 3e 0c 6d 65 3e 63 e2 42 bd 27 ae 6c 3d
       0.21557352 0.2240488 -0.04757918 0.057783272
0002b0 0f 08 cc 3d b7 64 b6 3c f5 79 d2 bc a0 d9 87 3d
       0.099624746 0.022264821 -0.02569292 0.066333055
0002c0 74 f3 86 bd 27 ce 07 be 56 6a 0c 3e de cd c2 3d
       -0.06589404 -0.13262235 0.13712439 0.09511922
0002d0 63 cf 88 bd 66 90 54 bc 07 41 cf bd c9 0f 26 3e
       -0.06680181 -0.01297388 -0.10119825 0.16216959
0002e0 1b f2 45 3e e2 26 2e be 23 a5 a9 3d 63 93 e0 3c
       0.19330637 -0.1700702 0.082834505 0.02741403
0002f0 e0 4a c3 bd d7 18 87 be cb ca 4c be 07 96 c1 3d
       -0.09535766 -0.2638614 -0.19999234 0.094524436
000300 68 a6 8a 3d 0d 0e 5b 3d de a5 1f bc aa d6 b2 bd
       0.06770021 0.053480197 -0.009744136 -0.0873235
000310 0e eb c3 3c db 72 e4 3d b7 05 c6 3c 79 45 18 3e
       0.023915794 0.111547194 0.024172647 0.14870252
000320 29 e0 3c 3d ed f8 14 be 09 b0 37 bc e3 5a 0e bc
       0.046112213 -0.14548083 -0.011211404 -0.008688661
000330 93 cc 08 bd 72 a6 72 bc 09 cc 65 be 9b fa 27 be
       -0.033398222 -0.0148101915 -0.22441114 -0.16404192
000340 c0 36 00 be d9 8a 3e 3e 3d 20 0d be c3 04 1d bd
       -0.12520885 0.18607654 -0.13781829 -0.03833462
000350 88 1e 24 be 4b e7 af 3d f8 1b 53 bd 7a 64 8b be
       -0.16027272 0.085890375 -0.051540345 -0.27225095
000360 a4 c3 98 3d 31 1b 15 3e 75 22 28 3e b2 ab 19 be
       0.074591905 0.14561154 0.16419394 -0.15006903
000370 5e 0e 26 be 79 1d 78 3d 8e 35 09 bc 9a 68 ac bb
       -0.16216418 0.060574982 -0.008374585 -0.005261493
000380 7a 98 3a bd c1 c7 a8 bd ea 77 34 bd 8a 5e 18 3e
       -0.04555557 -0.08241225 -0.04405967 0.14879814
000390 7f e6 65 3e 00 23 d0 bd ba b8 40 bd 20 85 27 3d
       0.22451209 -0.10162926 -0.04705117 0.040898442
0003a0 20 1d 28 bd a1 b3 2d 3e 25 6b c4 3d d5 96 a5 bd
       -0.0410434 0.16963054 0.09590749 -0.080854096
0003b0 b1 1a 32 be 57 cd 0a bd 13 e1 72 3c f6 4b 56 bd
       -0.17392994 -0.033887234 0.01482417 -0.052318536
0003c0 7b cf 68 3d 47 99 e6 3c d7 20 6a be 79 b5 ef bd
       0.056838494 0.02814926 -0.2286409 -0.11704535
0003d0 d7 0d cd 37 1a a5 4d 3c 0b 61 fa 3c 10 bd 08 bc
       2.4444349e-05 0.01255157 0.030563852 -0.008345857
0003e0 fe ee aa bd 23 70 a7 3c f0 44 84 bd b4 1b b6 3d
       -0.083463654 0.020439213 -0.06458461 0.08892003
0003f0 78 8f a3 3d 4b a3 41 3e 94 08 2e 3e b7 24 2f 3c
       0.07986349 0.18909948 0.1699546 0.010689906

linear4.bias f4 [64]
000000 52 a0 0c be ee 3e 4c bd 55 17 fc bd 08 75 83 3d
       -0.13733032 -0.049864702 -0.12309138 0.06418806
000010 5d d4 ea 3d 9e 0a 20 be fb 10 00 be 84 0c c8 3d
       0.11466286 -0.1562905 -0.12506478 0.09768012
000020 61 d7 25 bd 8d 4c 21 3e 26 25 30 3e e6 49 ea bd
       -0.040488604 0.15751858 0.17201671 -0.11439876
000030 d2 3e d4 3d 50 e6 2b be 41 6d 93 3d f3 3d d0 bd
       0.103635445 -0.16787076 0.07198573 -0.10168066
000040 00 0c b8 b4 b8 63 38 3e 2f 94 a7 3c 38 9e ca bd
       -3.4281402e-07 0.1800679 0.020456402 -0.09893459
000050 5b 64 a4 3d b8 a3 18 bd 44 01 1f 3e 64 60 02 be
       0.08026954 -0.03726551 0.15527827 -0.12732083
000060 30 78 e2 bc 80 31 11 be 83 02 c0 bd 21 c4 31 bd
       -0.0276452 -0.14179039 -0.09375479 -0.043399934
000070 d5 63 e3 bd e8 54 00 be 2d 5a 2c bd 26 75 cc bd
       -0.11103026 -0.12532389 -0.042078186 -0.09983282
000080 f4 fc dc bd 2d 31 09 3c 27 6e f7 bd 9a 62 eb 3d
       -0.107904345 0.008373541 -0.12081557 0.11493416
000090 45 bb dc 3d 30 e1 20 3e 96 0a 5e 3d 31 58 a2 bc
       0.10777906 0.15710902 0.054209314 -0.019817444
0000a0 26 99 e1 bc e3 af a0 bd 10 2d ff 3d e2 5b d2 3d
       -0.027538847 -0.07846048 0.12459767 0.102714315
0000b0 59 a0 f7 3d 3e 9a eb bc d4 db f8 bd 9d 15 63 3d
       0.12091131 -0.028760072 -0.12151304 0.055440534
0000c0 f4 24 1d 3e 2f 50 de bc 9e b3 0a 3e 21 eb fd 3d
       0.15346128 -0.027137844 0.13545081 0.12398363
0000d0 2f 7c 81 3d cb b0 3d bd 29 1b 71 bd 8f d7 e9 bc
       0.06322514 -0.04631118 -0.058863793 -0.02854517
0000e0 00 d0 83 bc c5 a5 08 bd 90 1c 31 be 48 96 f8 bd
       -0.016090393 -0.033361215 -0.17296052 -0.12138039
0000f0 69 45 5b bd b7 55 03 3e c8 f6 8f 3d 11 c2 26 be
       -0.05353299 0.12825666 0.07029492 -0.16284968

bn4.weight f4 [64]
000000 0f e2 85 3f 35 4b 7e 3f 11 3d 8b 3f bc da 6d 3f
       1.0459613 0.99333507 1.0878011 0.9291189
000010 15 3f 93 3f 34 12 83 3f f7 94 80 3f 1f e2 86 3f
       1.1503626 1.023993 1.004546 1.0537757
000020 3c 2b 6a 3f d2 af 77 3f f4 9c 88 3f ee 01 68 3f
       0.9147222 0.96752656 1.0672898 0.90627944
000030 20 92 97 3f e5 38 7d 3f 06 f1 83 3f 75 52 8f 3f
       1.1841469 0.9891494 1.030793 1.1197039
000040 4d 26 70 3f be 7d 8b 3f 5e c7 6d 3f ea ce 71 3f
       0.9380844 1.0897748 0.92882335 0.9445635
000050 48 21 8f 3f 23 c4 7a 3f 41 3f 74 3f fb 25 84 3f
       1.1182032 0.9795553 0.9540902 1.0324091
000060 0b 5f 80 3f 21 5c 85 3f 4f 12 8a 3f 0c 6c 72 3f
       1.0029005 1.041874 1.0786837 0.94696116
000070 9f 69 6a 3f 7c 81 85 3f f9 ab 8b 3f 95 08 70 3f
       0.91567415 1.043014 1.0911857 0.93763095
000080 32 28 81 3f 91 b8 89 3f db 31 7b 3f d7 ee 74 3f
       1.0090392 1.075945 0.9812295 0.9567694
000090 12 52 8d 3f 0c 32 83 3f c8 bf 7d 3f 4b 86 88 3f
       1.1040671 1.0249648 0.9912076 1.0665983
0000a0 a5 b9 80 3f 10 07 7a 3f 5c af 84 3f e4 76 77 3f
       1.0056654 0.97667027 1.0366015 0.9666579
0000b0 74 aa 7b 3f 79 d8 74 3f 96 89 80 3f f6 00 88 3f
       0.98306966 0.9564281 1.0041988 1.0625293
0000c0 6e a8 81 3f 0b f3 83 3f 20 21 79 3f 01 a4 82 3f
       1.0129526 1.0308546 0.9731617 1.02063
0000d0 2f ef 85 3f 08 dd 64 3f 29 34 88 3f 50 a9 75 3f
       1.0463618 0.89399767 1.0640918 0.95961475
0000e0 66 c0 76 3f 25 2c 7d 3f 4b 30 80 3f b8 65 97 3f
       0.96387327 0.98895484 1.0014738 1.1827917
0000f0 90 d6 a0 3f 6c bd 82 3f b7 aa 75 3f 5e 3f 71 3f
       1.2565479 1.0214057 0.95963615 0.94237316
