pths/classifier_train.pth (torch, 67972 bytes, 20 tensors)

conv1.weight f4 [32, 1, 3]
00000000: eae9 6e3c 0ad8 fabe 7560 84bd 7c14 fbbe
00000010: a3d3 db3e 861a abbe 5f40 1c3e a040 be3e
00000020: 20ab 57be 629d 093e 88d0 64be 1296 0bbf
00000030: 9bc8 f3be 5d30 833d 4d01 4ebe c493 ad3d
00000040: 63bf 0abf 09ba fb3d 5977 adbe 818f 73be
00000050: a2a7 df3e b347 073f f989 13bf 6599 a43e
00000060: 37d5 ef3e 31cd 463e 3786 2ebe ce47 7a3e
00000070: 6506 593e 1c50 973c d3cd 05bf a6f2 b53e
00000080: 8da7 c6be 799b e9be 710d 8c3e eca7 983d
00000090: b111 06bf 1131 d23d 2f24 8b3e 2451 593e
000000a0: 51b1 0ebf c122 8a3e 27e1 b9be c4e5 6c3e
000000b0: fc82 6fbe 8dd1 033d 67f2 143a 7a36 243d
000000c0: 973e 45bc 40e7 e4be 7862 da3e 5eb7 11be
000000d0: 86ed f53e 1cea 203e 8533 c33d d2f6 063e
000000e0: 3b3f e6be 400b 7e3e 322a 97be 0064 3cbd
000000f0: ed4d e8be 64ba e83e 8544 febe 0285 b03e
00000100: baea febe d1c3 8ebe e8e1 7cbe 6ed7 01be
00000110: cc10 bfbd a4fe d8bd 17f9 a9bd 4329 d5bd
00000120: a228 a8bd 6543 0d3e 9803 b93e 3a56 073f
00000130: 13f7 adbe b7f9 be3e 77ab cbbe 4a90 ab3e
00000140: 5010 b2be 8aad c53d e483 6e3e e1dd 0f3f
00000150: f754 25bd 6225 02bf 2505 563e dab1 adbd
00000160: e933 04bf f9e7 bebd a3ad 8f3d 4564 c13e
00000170: 8a62 e9be f898 133f 6efa 0c3f c57e 45be
0.014582137 -0.4899295 -0.0646371 -0.49039066 0.42934904 -0.33418673 0.1525893 0.3715868
-0.21061373 0.13438943 -0.22345173 -0.54525864 -0.47613987 0.06405709 -0.20117684 0.0847545
-0.5419828 0.12291343 -0.33880118 -0.23785211 0.4368258 0.5284378 -0.57632405 0.3214828
0.46842358 0.19414212 -0.17043386 0.24441454 0.21193846 0.018470816 -0.5226719 0.3553669
-0.38799706 -0.4562643 0.27354005 0.074539036 -0.52370745 0.10263265 0.27176043 0.21222359
-0.55739313 0.2697964 -0.3630459 0.23134524 -0.2338981 0.032182265 0.0005681873 0.040091015
-0.012038848 -0.4470768 0.4265325 -0.14230105 0.48032779 0.15714306 0.09531311 0.13180092
-0.44970116 0.24808979 -0.2952438 -0.045993805 -0.45371953 0.45454705 -0.4966165 0.34476477
-0.49788457 -0.2788377 -0.24695551 -0.12679836 -0.093293756 -0.10595444 -0.08299463 -0.10408261
-0.08210875 0.1379524 0.36135554 0.52865946 -0.33977565 0.37299892 -0.39779255 0.3350852
-0.3477807 0.096522406 0.232925 0.56197935 -0.040364232 -0.5083829 0.209004 -0.08481188
-0.5164171 -0.09321589 0.070155405 0.37771812 -0.45582992 0.57655287 0.55069625 -0.1928664

conv1.bias f4 [32]
00000000: 8a05 ff3e 87ff 933e d3a6 543d f8fc 133d
00000010: 4e48 ab3e 118b bc3e 05c4 1c3e aa17 c13e
00000020: 2843 63be db08 29be f9df 363e c47b ee3e
00000030: 0306 b83e c4c0 963e 6d0b 9c3e b7cc ef3e
00000040: 327c 6cbe 5980 a03d 47f0 48be 8383 f7be
00000050: 9146 93be e6d5 31be 672e 9dbe a0f6 453e
00000060: c5dd e1be 3cbb 803e f131 b3be 0ffb f93e
00000070: 0d69 aabe 24cd 063f 51c3 10be 671c ffbb
0.49808913 0.2890589 0.05191691 0.03612992 0.33453602 0.3682485 0.1530915 0.37713367
-0.22193587 -0.16507284 0.17858876 0.465788 0.35942087 0.29443944 0.30477467 0.46835873
-0.23094252 0.078369804 -0.19622909 -0.48342523 -0.28764775 -0.17366752 -0.30699465 0.19332361
-0.4411451 0.25142848 -0.3499904 0.48824355 -0.33283272 0.5265677 -0.14137007 -0.0077853682

bn1.weight f4 [32]
00000000: 03f2 853f 0f19 7f3f 2649 823f cc39 823f
00000010: 5f93 7d3f d658 813f 785b 803f 23bf 7d3f
00000020: ae6e 803f bb35 7c3f e729 7d3f 2722 7e3f
00000030: 7e3d 773f ef56 773f 89d7 7e3f a48d 803f
00000040: 447e 7e3f 26a0 7d3f f41f 833f 01de 813f
00000050: eed0 7d3f 0629 7f3f 5f17 813f ed89 813f
00000060: 251c 813f 0d1c 813f 4281 813f 9a9c 7f3f
00000070: 9c54 7e3f bdc3 813f 1afc 803f f518 7a3f
1.0464481 0.9964761 1.0178573 1.0173888 0.99052995 1.0105236 1.0027914 0.99119776
1.0033777 0.98519486 0.9889206 0.9927086 0.96578205 0.96617025 0.9954763 1.0043225
0.99411416 0.9907249 1.0244126 1.0145875 0.99146926 0.9967197 1.0085257 1.0120217
1.0086714 1.0086685 1.0117571 0.9984833 0.99347854 1.013786 1.0076935 0.9769433

bn1.bias f4 [32]
00000000: 72e7 5e3d 7baf 48bc d79b afbb 1cc1 a23c
00000010: a558 63bd 3c2d 40bc cbe1 473b 3128 ebbc
00000020: f033 d13b 55c0 eabc a15b f8bc fb94 10bd
00000030: ecd7 703c 7eb8 f1bc aa2c 95bc da6f 3abb
00000040: 9ff9 74bd 7c53 b73b 3996 32bc 1181 83bd
00000050: 063f 143c be64 fcbc d1de 00bd d85e 983c
00000060: 303d a5bc 83d4 e0bc 8d7f ef3a 203e 8ebb
00000070: 8d5e fbbb 885c e1bc ed28 3a3c 6909 443c
0.054419942 -0.012248869 -0.0053591537 0.019867472 -0.05550446 -0.011729535 0.0030499573 -0.028705688
0.0063843653 -0.028656164 -0.03031713 -0.03529833 0.014699917 -0.029506918 -0.018209774 -0.0028448016
-0.05980837 0.005594669 -0.010900074 -0.06421102 0.009048229 -0.030809756 -0.031462494 0.018599913
-0.020170778 -0.027445083 0.0018272266 -0.004340902 -0.0076711834 -0.027509943 0.0113622965 0.011965134

bn1.running_mean f4 [32]
00000000: 36c5 aa3e f085 2e3e 9592 173e da8c 1fbe
00000010: 867f 183e 9809 883e de60 e03d 4dd1 ea3e
00000020: df83 93bd dc7e a9bc 2821 3a3c b8db dd3e
00000030: 6fb2 a03e 4855 8a3e a54e 473e d014 fb3e
00000040: b718 78be 6da9 6a3e 688e 86be 0d1a 03bf
00000050: ce79 dfbe 4838 9cbe bac2 e5be 74ea d53d
00000060: aa3d a1be 8566 d73e 9b5f f2be 9117 423f
00000070: f4cc dfbe 215c a13e 9cd1 11be 9cca 8d3e
0.33353585 0.1704328 0.1480201 -0.15581074 0.14892396 0.2656982 0.10955976 0.4586281
-0.07202887 -0.020690374 0.011360444 0.43331695 0.31386134 0.2701819 0.19463594 0.49039316
-0.24228178 0.22916193 -0.26280522 -0.51211625 -0.43647617 -0.3051169 -0.44875127 0.10445109
-0.31492358 0.42070404 -0.47338566 0.7581721 -0.43711054 0.315156 -0.14240116 0.2769364

bn1.running_var f4 [32]
00000000: 1255 0f3d 412f 583d bd6b be3c 6ac8 533d
00000010: b6dc 223d ac09 083d 52e3 103d 025f 853d
00000020: 5321 1a3d 5bf6 9e3c e97a 763d eb9b dd3c
00000030: f4bb 103d 491c 1b3d 5d58 d73c 102a ee39
00000040: 282e 0c3d accf 133d 3e24 be3c 4700 683c
00000050: 12b5 883d 6fed 4b3d 88fc 8b3c a231 cd3b
00000060: 27b9 b53c 9954 723d f262 263d a768 8c3d
00000070: 6303 053d c293 3f3d 20be 033d 8e7c ce3d
0.03499324 0.05277944 0.023244733 0.0517048 0.039761268 0.03321235 0.03537304 0.06512262
0.037629437 0.01940458 0.06017581 0.027051887 0.035335496 0.03786877 0.026287252 0.00045426236
0.034223706 0.036086723 0.023210641 0.014160222 0.066751614 0.04978698 0.01708819 0.00626202
0.022183014 0.05916271 0.040621705 0.06855898 0.032473933 0.046771772 0.03216374 0.10082351

conv2.weight f4 [64, 32, 3]
00000000: 5aba 80bd 4a7c c8bd 4a91 16bd 363e c0bd
00000010: 8f15 bcbd 97a4 9fbc a971 81bd adf6 833b
00000020: a8ce ee3c f1d7 913d 3f97 99bd 7edf 78bd
00000030: 3616 d0bd 6600 b73d 9c8d dabd a6a5 82bd
00000040: fb90 903d 30e3 9dbc 764b b0bc 4cee c9bd
00000050: c352 d83c cb31 ebbc de45 6ebd d9ce 8b3d
00000060: a46d 443d c898 d4bd 3dc4 31bd b177 973c
00000070: 5e3d a93d 1ec2 b83d edd5 533c b5fc 0c3d
00000080: b2f5 d13d d6ff 913d 7cfd 18bd a741 d63b
00000090: 69c0 95bd 3e39 9739 f4c8 53bd 00ea aa3d
000000a0: b2f9 5bbb 66ec 773d 33aa a4bd 8c1b a53d
000000b0: 7adc 933d eef5 b0bd b072 07bd 23ec 0d3d
000000c0: a229 07bd 0a8b 16bc 276a 2b3c d1d1 00bd
000000d0: 0cd5 7d3d 12c5 0f3b d5dd 94bd 6765 8bbc
000000e0: 355a b6bc 6759 023d bdbc 563d af01 d03d
000000f0: 2b0f 023d 086c f4bb dab1 d63d be91 b73d
00000100: 0212 363d 2c71 9a3a 9c73 89bb 1fec bfbd
00000110: 5449 98bb c361 c3bd 05b8 5c3d f0f7 99bd
00000120: e91a 55bc dcf9 993b 56b8 573b 3bc1 163d
00000130: 2d7d c83c 827b 99bd c61c b03d 6f73 b23d
00000140: 113b 87bd 7cf1 44bd 5696 c13d 861c e1bb
00000150: 991a 323d f9a9 473d a141 adbd e4c7 673c
00000160: 8d28 96bd dfaf 96bd b2a0 7c3d b28c 923d
00000170: 3c76 8ebd f5d9 acbc 0a99 c8bd 38dd f9bb
00000180: 2581 923d 559f 86bd b379 243d 454c d93d
00000190: 166c 92bd fa0b 4a3d 09fd 843d 07c3 2bbc
000001a0: f2c9 863d 9f9b 9b3d 5c56 d53d 806c 6b3c
000001b0: a205 893d 23e2 b23d 7af3 9c3d edf0 6b3d
000001c0: 57b7 6f3d 5f28 2ab9 d320 dc3d 1080 683d
000001d0: 3c1a ac3d 0035 63bd 043b 603d 12c8 d7bb
000001e0: 5828 8f3d 4d8a 6d3c d4df a2bb d698 8cbd
000001f0: c219 d2bd cad7 a63d da3d 43bc b0b4 1abd
00000200: 4183 b7bd 9714 fcbc 72a5 5b3d 0379 2dbd
00000210: fc04 1abd c2b2 a9bc 3d36 563c c63f 26bd
00000220: a984 78bc 2b60 e23d 95ad 673c 06d4 aabd
00000230: 4a04 b13c 9494 7a3d 48f3 a63d 1c25 3d3d
00000240: 89d4 dc3a cb4d a7bc 7284 a23d 4336 22bd
00000250: fd45 12bd 886a 563d 41e5 633d dde6 c93d
00000260: 44ea 903d e4ce 6a3c 6462 323c c64c 88bc
00000270: f0ae 123d 6409 ed3c eb2e d8bc 4499 e1bd
00000280: 160d bdbc a9c3 4ebd b161 babc 983e 7b3c
00000290: 8431 e73d 2c4a 903d a2e5 963d d042 37bc
000002a0: 03ed 393d 7e9d 25bd bda2 0c3d 71a3 573d
000002b0: 3649 c93d bfa7 4fbd dd4c 72bd ae3d 9abb
000002c0: bbfa 1d3d a538 50bd b884 69bc caaa b93b
000002d0: 14b8 9dbd f9be 793d aade e23d 6177 6bbd
000002e0: 78b2 863d 1b50 a1bc 1cc6 4cbd 6e3b 29bd
000002f0: 6366 a1bc f451 a0bd d1d3 9c3d 3ada 613d
00000300: 2b40 6d3c d2b1 3cbd f3c3 083d 35db 793d
00000310: 7cb9 0ebd 4728 7d3c 15c2 823c 6aa7 753d
00000320: 048d ae3d e4cd e33c b6dc 053c 5a28 4bbd
00000330: 5a78 71bc 1bf8 bf3d cd04 c6bd d220 0bbd
00000340: d515 55bc de72 493d 15e1 4c3c c8b9 883b
00000350: fc39 463d c0d4 ab3c 2372 91bd 9270 99bd
00000360: 9901 7cbd df3d bdbb 636e 9cbd 824c 15bc
00000370: cefd c13d b2c0 8dbc 0cd5 b83d 2aea 9c3d
00000380: e036 9d3d 589f a8bd 137f abbd 60a5 35bc
00000390: 8094 c23c 9325 983d 05c2 5abc 6b6e ae3d
000003a0: 9c3a 503d a21d 673d 474d 09bd 263d 0fbd
000003b0: 7b91 213d f1f8 123d ffbf 88bd d047 923d
000003c0: bd1f 3e3d b992 8a3d c299 0c3d 7fd0 9c3d
000003d0: 66be 943d 7617 833d ee59 f63c 50f1 2bbb
000003e0: 2ffe 88bd 42fc 323d c82c 4ebc ab53 a7bc
000003f0: 86e7 cd3d 09d3 8f3b bb94 993d b7d0 1e3d
-0.06285544 -0.09789331 -0.036759652 -0.09386866 -0.091837995 -0.019487662 -0.06320507 0.004027209
0.029151276 0.07121266 -0.07499551 -0.060760014 -0.101604864 0.08935623 -0.10671541 -0.06379251
0.07058903 -0.01927337 -0.021520358 -0.09859905 0.026406651 -0.028710267 -0.0581721 0.068265624
0.047956124 -0.10380703 -0.043400038 0.01848969 0.08263658 0.090214 0.012929422 0.034420688
0.10251941 0.07128875 -0.037351117 0.006538588 -0.0731209 0.00028843613 -0.051705316 0.08345413
-0.0033565578 0.06052818 -0.080402754 0.08061895 0.07219787 -0.08640657 -0.03306836 0.034649026
-0.03299869 -0.009188423 0.01046232 -0.031450097 0.061970755 0.0021937531 -0.072688736 -0.017016126
-0.022259811 0.031823542 0.05242609 0.10156571 0.031752747 -0.0074591674 0.10483141 0.08963345
0.044450767 0.0011782995 -0.00419469 -0.093712084 -0.0046474133 -0.09540131 0.053886432 -0.075179935
-0.013006904 0.004698975 0.003291627 0.036805373 0.024473751 -0.0749426 0.08599238 0.087134235
-0.06603063 -0.04808186 0.094525024 -0.0068698553 0.043482397 0.048746083 -0.08459783 0.014146779
-0.07331953 -0.073577635 0.06167669 0.07155742 -0.06956145 -0.021100024 -0.09794815 -0.0076252483
0.071535386 -0.06573359 0.040155124 0.106102504 -0.07149522 0.049327828 0.06493575 -0.01048351
0.06581487 0.07598042 0.10416862 0.01436913 0.066905275 0.087345384 0.07663627 0.05760281
0.058524456 -0.00016227503 0.10748448 0.056762755 0.08403441 -0.055470467 0.05474378 -0.0065851295
0.06990117 0.0144983055 -0.00497053 -0.06865089 -0.10258819 0.08146627 -0.011916602 -0.037769973
-0.089605816 -0.030771537 0.053624578 -0.042351734 -0.03760241 -0.020715121 0.013074455 -0.040588163
-0.015168347 0.11053499 0.014140506 -0.083412215 0.02160849 0.06117685 0.08151871 0.04617797
0.0016848008 -0.020422837 0.07935418 -0.03960253 -0.035711277 0.05234769 0.055638555 0.09858487
0.070759326 0.014331553 0.010887716 -0.01663817 0.035811365 0.028935142 -0.02638956 -0.11015561
-0.023077529 -0.050479565 -0.022751661 0.015334748 0.11288741 0.07045397 0.07368018 -0.011185363
0.045392048 -0.0404334 0.034334887 0.052646104 0.09828417 -0.050697085 -0.059155334 -0.00470706
0.038569193 -0.05083527 -0.014252834 0.0056661116 -0.07701126 0.06097314 0.11077626 -0.057486895
0.06577009 -0.019691518 -0.04999362 -0.041316442 -0.019702142 -0.07828131 0.07657588 0.055139758
0.014480631 -0.04606802 0.033389997 0.061000068 -0.03484486 0.015451497 0.015961686 0.05997411
0.0852299 0.027808137 0.008170297 -0.04959903 -0.014738167 0.09373494 -0.096688844 -0.033966847
-0.013005693 0.04918181 0.012504836 0.0041725375 0.048395142 0.02097547 -0.07101848 -0.07492174
-0.06152496 -0.005775198 -0.07638242 -0.009112479 0.094722375 -0.017303798 0.090250105 0.07661851
0.07676482 -0.082335174 -0.08373847 -0.011086792 0.023752451 0.07429042 -0.013351922 0.08517154
0.050837144 0.056424744 -0.033520963 -0.034970425 0.03944538 0.03588194 -0.06677245 0.071426034
0.046416987 0.067662664 0.034326322 0.07656955 0.07262878 0.06400959 0.030072179 -0.0026236363
-0.06689107 0.043697603 -0.012583919 -0.020425638 0.10053925 0.004389171 0.07499071 0.038773265

conv2.bias f4 [64]
00000000: 7088 65bd 3936 5ebd 286d 95bd 8df3 abbd
00000010: 9048 903c 456a 933d 2db6 33bd 9c70 f63c
00000020: 6757 d1bd a7ce c1bd c72e 5a3d a21b 6bbd
00000030: 516f 833d 4a69 363b 9ea3 bfbd 00d7 a33d
00000040: 1212 813c 027b 223c 573d 28bd 2233 bc3d
00000050: 448c b5bd 8ed1 983d 5836 7f3d 4953 adbc
00000060: c898 79bd bee5 bebb 4e54 d4bc 4e01 323d
00000070: 236d 8d3c 63c5 4a3d e7e3 8c3c 8e89 0abd
00000080: f36d 52bd f2f1 863d e96d c2bd bda3 98bb
00000090: cf3b c13d 0faa de3c 10f1 ae3c cbdd 903c
000000a0: 3438 a5bd d99c dc3c 917a c23d 44c4 5cbc
000000b0: 3703 85bb a4aa a73a 9013 553d bf15 1f3d
000000c0: 20b6 003d 3fe3 243d 2e7a 503b 68f4 7abb
000000d0: 81a3 613d e441 ca3d 3467 bcbd ebda abbc
000000e0: a98e 9fbd 3a7f 453d 9b81 8f3d bbad 503d
000000f0: 72f7 9abd df40 843d f042 ebbc f5cf 55bb
-0.05603832 -0.05425093 -0.072962105 -0.08396063 0.017612725 0.07198004 -0.04387491 0.030082993
-0.10221749 -0.09463244 0.053267267 -0.0573994 0.06417716 0.0027833753 -0.093573794 0.07999992
0.015755687 0.009917023 -0.041074123 0.0918944 -0.08864644 0.074618444 0.062307686 -0.021157878
-0.06093672 -0.0058257272 -0.025919106 0.043458275 0.017263955 0.04950465 0.017198516 -0.03382259
-0.051374387 0.06589116 -0.0949362 -0.004658191 0.09435236 0.0271807 0.021355182 0.017683884
-0.080673605 0.02693026 0.09496034 -0.013474528 -0.004059221 0.0012791944 0.05202061 0.038839098
0.031423688 0.04025578 0.0031811106 -0.003829265 0.05508757 0.09875849 -0.09199372 -0.020978412
-0.07790882 0.048217036 0.07007142 0.050946932 -0.07566728 0.06457686 -0.028718442 -0.0032625173

bn2.weight f4 [64]
00000000: 2a96 7b3f afeb 7f3f d3b7 7c3f b00c 823f
00000010: f5b2 7e3f 6110 7c3f eae4 813f 3590 7f3f
00000020: cedd 7d3f 58bd 7e3f 8937 7a3f 8594 7f3f
00000030: c075 803f a7cb 773f 8140 7f3f 8b6b 843f
00000040: 7772 7f3f 75fe 823f 246f 803f e0b1 853f
00000050: 9082 813f 2d03 7b3f 402c 823f 40a1 823f
00000060: fe50 813f f3be 7a3f ea66 823f e451 863f
00000070: 4d85 833f 24ee 7f3f 1545 7b3f 9285 833f
00000080: 1f46 7a3f 853f 7a3f 99ab 803f 0afc 803f
00000090: bb2d 7f3f ae6b 803f f0fe 853f aabb 813f
000000a0: d553 803f 83ba 803f a845 7c3f b69d 803f
000000b0: 871b 793f 2977 7f3f 65b8 803f 1cbd 803f
000000c0: 2cfa 7a3f 0a74 7e3f e0fe 7c3f 408a 813f
000000d0: 8f63 7d3f 0755 853f 9de8 7b3f e678 803f
000000e0: 144d 803f 5349 7d3f d48e 7a3f 458b 833f
000000f0: c738 833f 4684 813f af99 7a3f 1677 7a3f
0.9827601 0.99969 0.98717993 1.0160122 0.99491817 0.9846249 1.0147984 0.9982942
0.9916657 0.99507666 0.9774099 0.99836 1.0035934 0.96795124 0.997078 1.034532
0.99784034 1.0233904 1.0033917 1.0444908 1.011797 0.9805172 1.0169754 1.020546
1.0102842 0.97947615 1.0187657 1.0493741 1.0275055 0.9997275 0.98152286 1.0275137
0.97763246 0.97753173 1.0052367 1.0076916 0.99679154 1.0032861 1.0468426 1.0135396
1.0025584 1.0056919 0.98543787 1.004813 0.9730763 0.997912 1.0056273 1.0057712
0.9803798 0.9939581 0.9882641 1.0120316 0.9898004 1.0416573 0.98401815 1.0036895
1.0023522 0.9894001 0.9787419 1.0276877 1.0251702 1.0118492 0.9789075 0.9783796

bn2.bias f4 [64]
00000000: a815 013d 4847 bfbc 3e92 2fbc 663e 41bc
00000010: 6f9c c33c d985 0dbd ac35 873a f46a 8cbc
00000020: 993b 18bd b002 84bc 47eb 92bb e441 f83c
00000030: 012f 72bd 5482 66bc 8091 b0bc e550 563c
00000040: 328b 06bc d9c4 0abd 2794 91bc dde7 823c
00000050: 93da c3bc a67d 91bc 929f 4cbc 3059 3cbd
00000060: bbfc bfbc 4409 e4bc dc51 703b 8d0b a6bc
00000070: 1a76 25bc a5a3 b6bc 63c2 ddbc b112 a73c
00000080: 6162 973c ecd9 edbc dc2f 483d 7d69 f0bc
00000090: 0bdb 1bbd c5d2 0ebd b6ca 663b 0f04 803b
000000a0: b1d2 2d3c 7ee3 8a3a d2d2 d3bc 248f 673c
000000b0: de39 dbbc 72d5 d8bc 43b0 34bd f2d1 2b3b
000000c0: 4fbd 00bd 01f9 e3bc 3fd7 95bc 19a9 22bd
000000d0: 6f32 86bd 727a 9ebc ecf5 a63c f28d 493c
000000e0: a9c3 14bc 03b3 263c 1f37 93bc e292 bcbc
000000f0: 6372 4e3c 6e13 8dbc 387e 3cbc 296a a4bb
0.031514794 -0.02334942 -0.010716019 -0.011794662 0.023878304 -0.034551475 0.0010315678 -0.017140843
-0.03716621 -0.016114563 -0.0044836137 0.030304857 -0.059126858 -0.014069159 -0.021553755 0.01308081
-0.008211898 -0.033879135 -0.01777084 0.015979702 -0.023907935 -0.01776011 -0.012489216 -0.045983493
-0.023435941 -0.02783645 0.0036669886 -0.02026918 -0.010098958 -0.022294829 -0.02707023 0.020394655
0.018479528 -0.029034577 0.048873767 -0.029347176 -0.038050693 -0.034868974 0.003521604 0.003906734
0.010609315 0.0010596362 -0.025857363 0.0141332485 -0.026760992 -0.026468966 -0.04411341 0.0026217666
-0.03143054 -0.027828695 -0.018291114 -0.039712045 -0.06552588 -0.019345496 0.020380937 0.012301909
-0.009079852 0.010174516 -0.01797062 -0.023019258 0.012600514 -0.017221179 -0.011504702 -0.005017538

bn2.running_mean f4 [64]
00000000: 628b 91be d092 4c3f 775c 573f 3e3a 303e
00000010: d19a d7be 9a8f acba 4556 aabe 7257 503e
00000020: b14a e3bd fef4 38be e814 ef3e 7e5f adbe
00000030: a012 28be 16f2 89be b600 b4be 5dc5 2fbe
00000040: 014d 74bd cfb7 99be 53b5 e4be 4e3a e0bd
00000050: 512c fbbe 283c 813e 69ba 8ebc 9f7c 1abe
00000060: 070d 0ebf 827e e43e 5b6f 133e d3f7 e4be
00000070: 59c3 46bd 057f 973d 4d94 00be a235 8cbe
00000080: 5bf9 703e eac1 c83e dbc4 5dbe 1738 1e3f
00000090: bc38 d1bd 49e1 76be 4b9f 99be e1b5 1cbf
000000a0: c147 5fbf 29ea e7bc 13e7 8e3e fd57 3ebd
000000b0: 058d a7be c152 5c3d 1eb1 9c3d 2078 e0bd
000000c0: 414d 4a3f c129 3c3e c0a2 cd3e b04f 7ebe
000000d0: dc26 d03e 2957 37bd 4872 04be 5b05 8bbe
000000e0: fb4d e7be 0602 243e 5387 85be 965c 86bf
000000f0: 4940 2cbf b6f0 e6be 5f32 4b3f d228 febc
-0.28426653 0.7991152 0.84125465 0.17209718 -0.42110303 -0.0013165355 -0.33268943 0.20345858
-0.11098231 -0.18062207 0.46695638 -0.33861917 -0.16413355 -0.2694251 -0.35156792 -0.17165132
-0.05964375 -0.30023047 -0.4466959 -0.10948621 -0.49057248 0.25241208 -0.017422872 -0.15086602
-0.5548863 0.44627768 0.14397947 -0.44720325 -0.04852614 0.07397274 -0.12556572 -0.2738467
0.23532622 0.39210445 -0.21657126 0.61804336 -0.10215899 -0.24109377 -0.30004343 -0.61215025
-0.8721886 -0.028309898 0.2791067 -0.04647063 -0.32724777 0.053789858 0.0765097 -0.10960412
0.7902413 0.18375303 0.4016323 -0.24835086 0.40654647 -0.044760857 -0.1293422 -0.27152523
-0.45176682 0.16016397 -0.26079807 -1.0497005 -0.6728559 -0.45105523 0.79373735 -0.031025324

bn2.running_var f4 [64]
00000000: 5a1c a33d d348 323e 8009 833e d388 1c3e
00000010: 7a33 373e 8072 b63d cfe2 343e 9b80 f93c
00000020: 67f1 953e 3ba5 063e c11f 443e 096e 483e
00000030: 941b aa3e f2e4 1c3e 57dc 843d 2afb ea3d
00000040: ea0a 1a3d 30af a63d bb88 8b3d 82eb 253d
00000050: 1a6c f63d 0232 213e e641 bf3d 936d 033e
00000060: ba8f f03d c01b 263e ff38 663e 5bef bf3d
00000070: 796d 893e 6227 313e 691e 333d ba57 e73d
00000080: 4dbf 943d e24a b93e 0e8e 6f3e 644e 193e
00000090: 468d c73d 5441 be3d 7353 b33d 3db6 fa3d
000000a0: 52dc c03e 91e7 213e 20e4 123e 0e00 bb3d
000000b0: a9c6 193e ee85 c23d 4cbc 4e3d cea8 333e
000000c0: 3c5a 813e c99a 563d 9a80 a13e f658 cf3d
000000d0: 3c59 4b3e 83b2 903d 5132 893d ab5f 243e
000000e0: 08d2 053e 211f ed3d 7a36 8e3e 7038 663e
000000f0: 9f40 383e 7a10 633e 3304 723e b3c2 643e
0.07964392 0.17410593 0.25593185 0.1528657 0.1789073 0.08908558 0.17664646 0.030456832
0.29285738 0.13148968 0.19152738 0.19573225 0.33224165 0.1532171 0.06487339 0.11473687
0.037608065 0.08138883 0.06813189 0.0405078 0.120323375 0.15741733 0.09338741 0.12834768
0.11746164 0.16221523 0.2248268 0.09371825 0.26841334 0.1730018 0.043730173 0.112960294
0.0726305 0.36189944 0.23394033 0.1497131 0.09743743 0.09289804 0.08756151 0.122417904
0.3766809 0.15810992 0.14344835 0.0913087 0.15017189 0.09498201 0.050472543 0.17544863
0.25264156 0.05239371 0.31543428 0.1012439 0.19858259 0.070652984 0.0669905 0.1605212
0.13068402 0.11578203 0.27775937 0.22482467 0.17993401 0.22174254 0.23634414 0.22339897

conv3.weight f4 [32, 64, 3]
00000000: c0c9 233d c4eb 993b 69f2 943c 1508 15bd
00000010: 1840 babd 474b 7dbc fc8f 53bd e27f 053c
00000020: 5e53 68bc be8b 303b d094 943c db9c 06bd
00000030: c9ec 07bd ad0f eebc ed8f af3d 2840 08ba
00000040: da80 7d3d 1a1b 2e39 c5db 6a3d ece3 b8bc
00000050: 0a90 04bd 03cd 893d ba96 813d 5b1b 553d
00000060: 4150 1f3d c546 ae3a b322 773c 395a 4e3d
00000070: 9a96 3fbb 51a5 d8bc 07aa 823d 1d39 5abd
00000080: 0d66 983d 12d6 4cbc f892 443d b264 bcbc
00000090: b70c 15bd ec24 443d 233c 643b 5a9f 9d3c
000000a0: 77d7 113d e265 803d 05cb 343d bc27 433d
000000b0: e89a 3abc faf0 90bd d229 39bd e1ae 4cbd
000000c0: 0f7b 43bc c7e2 20bd 4203 20bd 6cfe 90bc
000000d0: 4baf 9a3c 6854 3b3d 41e2 6cbc bf5d 95bd
000000e0: dd21 f3bc bc5d d8bd 4d9a 0fbc 479e 263d
000000f0: 32a8 26bc 0e95 0ebc cb4d a2bc f2a2 773d
00000100: 562a 7dbc a16b 743d 359b 84bd 9fca 60bb
00000110: c394 12bd 2274 fdbc 0710 3c3d 9258 063d
00000120: 67d6 99bd c716 38bc eb00 393d fe5d 843c
00000130: e64b 093d 906d 1b3d 419d b13d 95d9 453d
00000140: 7c05 60bd 921a c7bc 60e5 22bc e581 8ebd
00000150: d54f 0f3c 9166 7dbc b731 923d 8f50 893d
00000160: 94cc 1d3d 76f4 f73c 7665 013d e2d9 953c
00000170: 4c62 8d3c 2e02 a8bd 5d89 db3c 72c7 1abd
00000180: 8111 00bd 6d74 d2bc 63bf 8bbd cc50 babc
00000190: 1a21 e5bb 051f fabc d337 233d c1da 51bd
000001a0: e123 3fbd 83af 6f3d 5378 313c dc83 0d3b
000001b0: a79e f1bc 2984 653d 66a7 c23a a9f3 7cbc
000001c0: edc9 2f3c 5d00 44bc 1d5c df3c 7ddc a6bc
000001d0: 9401 6fbc 167f 6c3d 0649 703d 0dec 483d
000001e0: f20d c23c 86b7 75bc 5d0e 403d 4ac3 da3c
000001f0: 74e0 043d 2b28 56bc 00d2 0fbd 1893 41bd
00000200: 5b98 49bd 9095 ec3c a160 e8bc 8bd3 fcbc
00000210: 0b2c 8b3d 6634 253d f8ae 2bbc 4e65 8abc
00000220: aefc acbc 7c79 bdbc 1e97 83bd 66a9 4aba
00000230: 780a e9bc 5486 503d 11b6 413c 7123 1abd
00000240: 5b75 32bd ac9f 57bd aee8 59bd 94c2 30bc
00000250: e504 09bd 0c9a 8abc a713 b33b 4a4c b6bd
00000260: 9f5d 75bc 1785 7dbd 4543 85bc 3072 433b
00000270: cc88 5abd 15af 653d b10f 06bd 43e7 c3bd
00000280: 5c04 a03d fcf7 0b3d 7a86 9bbd 7c8c 69ba
00000290: a2f8 6bbc e89f 9c3d 7f74 903c b16b a03c
000002a0: 770a 8aba 5886 e23c 6751 403c 2be0 013d
000002b0: adad 583d f424 5fbd 9494 883c 777a ca3c
000002c0: f8c5 f03b a2f1 66bd 7146 79bc b95b 57bc
000002d0: adf8 d039 7c85 dabb 42af 313d 2997 afbc
000002e0: 87cf 733d ece6 3c3d 310b 553c 5da2 37bd
000002f0: 8c57 2c3d cb3a c43c 0235 2ebd 8f9a 79bc
00000300: f072 f63c b8cf 833d 2769 b6bc c184 debb
00000310: efe8 44bd c8bb 90bd 1290 bfbc f346 25bd
00000320: 483d 073d 03e1 a33c 13c2 703d 4604 663d
00000330: 421f 0bbc e420 843d b504 e9bc c59d 92bc
00000340: 4e48 803d 87bb 32bd 8e18 86bd 031b 27bd
00000350: 0418 93bc cb04 513d cd9d 2c3d cdd2 0abd
00000360: d695 0ebd 8193 ea3c fd82 3bbd 98e1 c3bc
00000370: 7d81 07bd 19f0 74bd 35f6 5c3d 4f4d c139
00000380: 77bb 55bb 7235 81bb 1b2d 9abb c80e 2a3c
00000390: 7ab3 5f3d cf7f a3bc 2062 0ebd 7051 3f3d
000003a0: bc41 a4bd fd48 2f3d 85e7 ecbc 87cc 283d
000003b0: ec44 773d e1f8 4b3d f4dc a63c 01af 5cbd
000003c0: 959a 4e3c 91bd 873c d810 f0bc 6dd4 81bd
000003d0: 1d36 b6bc 8f6f c4bb 38cb 4abd 296c dabb
000003e0: 9e9a 9fbc 96e1 c03d e404 17bd 1a40 97bd
000003f0: 29eb 6a3d 07fa 17bc 077f ad3d 0102 983d
0.039987326 0.004697295 0.018181996 -0.03638466 -0.09094256 -0.015459842 -0.051650986 0.008148165
-0.014180033 0.0026938762 0.018137366 -0.032864433 -0.0331848 -0.02906021 0.085723735 -0.00051975483
0.06189046 0.00016604029 0.057338495 -0.02256962 -0.03236393 0.06728556 0.06327577 0.05202804
0.038894895 0.0013296237 0.0150839565 0.05037901 -0.0029234053 -0.026446017 0.063800864 -0.053277124
0.0744134 -0.01250221 0.047991723 -0.022997234 -0.03638908 0.047886774 0.0034825883 0.019241024
0.035605874 0.062694326 0.044138927 0.047645316 -0.011389472 -0.07077213 -0.0452059 -0.049971465
-0.011931195 -0.03927877 -0.039065607 -0.017699443 0.018882414 0.045734793 -0.01445824 -0.07293271
-0.029679233 -0.105647534 -0.0087648155 0.04067829 -0.010171937 -0.00870253 -0.019812485 0.06045813
-0.015451988 0.059672955 -0.06474916 -0.003430046 -0.0357864 -0.030939166 0.045913722 0.03279931
-0.07511597 -0.011235899 0.04516689 0.0161581 0.033519648 0.037946284 0.08672572 0.048303206
-0.05469273 -0.024304662 -0.009942383 -0.06958369 0.008747061 -0.015466348 0.071383886 0.067048185
0.03852518 0.030267935 0.0315909 0.018292371 0.017258786 -0.08203541 0.026798898 -0.037787862
-0.031266693 -0.025690282 -0.068236135 -0.022743605 -0.0069924714 -0.03053237 0.03984816 -0.05123401
-0.046665076 0.05851699 0.01083191 0.0021593487 -0.029494597 0.05603424 0.0014850914 -0.0154389525
0.010729295 -0.011962977 0.027265603 -0.020368809 -0.014587779 0.057738386 0.05866339 0.04905324
0.02368829 -0.014997369 0.046888698 0.02670445 0.032440618 -0.0130711 -0.03511238 -0.04725942
-0.049217563 0.02887991 -0.028366389 -0.03086259 0.0679551 0.040333174 -0.0104787275 -0.016894009
-0.02111658 -0.023129217 -0.06425308 -0.0007730931 -0.028447375 0.050909355 0.011823193 -0.037631456
-0.04356895 -0.05264251 -0.053200416 -0.010788579 -0.033451933 -0.016919158 0.005464989 -0.0890127
-0.014975934 -0.061894502 -0.016267428 0.00298227 -0.053353116 0.056075174 -0.03272981 -0.09565594
0.078133315 0.034172043 -0.07594009 -0.00089091784 -0.01440254 0.07647687 0.017633675 0.019582601
-0.0010531683 0.02765195 0.011738158 0.031707924 0.052900005 -0.0544786 0.01667241 0.024716599
0.0073478185 -0.056382783 -0.015214548 -0.013144427 0.0003985813 -0.0066687446 0.04338003 -0.021434383
0.059524085 0.04611866 0.0130031565 -0.044832576 0.04207568 0.023953816 -0.04253102 -0.015234604
0.030084103 0.064361036 -0.022266937 -0.006790728 -0.048073705 -0.070670664 -0.023384128 -0.040350866
0.033017427 0.020004755 0.058778834 0.05615642 -0.008491339 0.06451586 -0.028444627 -0.017897496
0.06263791 -0.04363587 -0.06547652 -0.040797245 -0.017955787 0.05102996 0.042142678 -0.03389244
-0.034810863 0.028634788 -0.045779217 -0.023911282 -0.033082474 -0.059799287 0.05394574 0.00036869428
-0.0032612958 -0.0039431388 -0.004705084 0.010379501 0.05461452 -0.019958405 -0.034761548 0.046708524
-0.0802035 0.042794216 -0.02891899 0.041210677 0.060368463 0.049797896 0.02036903 -0.053877834
0.012610097 0.016569884 -0.029304907 -0.06339345 -0.0222426 -0.005994744 -0.04951021 -0.0066657257
-0.019482907 0.09418027 -0.0368699 -0.07385273 0.057353172 -0.00927592 0.08471494 0.07422257

conv3.bias f4 [32]
00000000: 90d2 283c 599d a4bb f977 813c d617 173c
00000010: bc97 18bd 9ada 40bc 5f71 07bd 415c 173c
00000020: ec7a 413d b870 2c3d 26f8 be3b b396 71bc
00000030: f2d3 a93c c4e5 573d cce3 0dbd 2bae d7ba
00000040: 9125 663d 7947 85bd edda 6bbd 9d0e 433d
00000050: 6c74 20bc 2bd4 f7ba 776f 873c 4f3d 313d
00000060: a907 61bd cd78 31bd 4459 5bbd dfd1 113d
00000070: c683 f2bc 9c82 e0bb 821b 29bd 0200 833d
0.010304108 -0.00502364 0.015804278 0.0092219915 -0.03725408 -0.011770869 -0.033067103 0.009238304
0.047236368 0.042099684 0.0058279214 -0.014745402 0.020730946 0.052709356 -0.034641072 -0.0016455104
0.05618817 -0.06507773 -0.05758183 0.04762136 -0.009793382 -0.0018907835 0.016532643 0.04327136
-0.054938946 -0.043328095 -0.053551927 0.03560054 -0.02960385 -0.0068515074 -0.041286 0.06396486

bn3.weight f4 [32]
00000000: f257 963f 54ab 963f b691 993f c487 9d3f
00000010: a215 903f c09e 953f f5d9 913f b73a 933f
00000020: 1bdc 923f f42d 973f 6848 983f 27a3 983f
00000030: 71d4 8f3f 7fa4 943f 7a23 963f 662b 8f3f
00000040: 24d6 933f 1479 973f 7fa5 943f 81eb 8e3f
00000050: 0eaf 983f 0e7e 923f 5e62 943f 18a5 943f
00000060: afb4 923f d8c0 933f 577e 943f b832 903f
00000070: 14ed 963f bffa 913f 563c 943f 81fb 943f
1.1745589 1.1771035 1.1997592 1.2307057 1.1256602 1.1689072 1.139464 1.1502293
1.1473421 1.1810899 1.1897097 1.192479 1.1236707 1.16127 1.1729577 1.1185119
1.1549726 1.1833825 1.1613005 1.116562 1.1928422 1.1444719 1.1592519 1.1612883
1.146139 1.1543226 1.1601056 1.1265478 1.17911 1.1404647 1.1580913 1.1639253

bn3.bias f4 [32]
00000000: 29de 0a3e 6075 e73d ed70 b53d 4245 203e
00000010: 8e56 e73d 64f8 bb3d 3880 833d e54d 8e3d
00000020: 5b0f 9b3d 377a c83d a236 ed3d 7dde d23d
00000030: a15a b33d fd74 ae3d 16b3 b43d 7a61 223d
00000040: 6631 e03d df9c 193e d939 923d 9d2a 853d
00000050: 4f55 f63d 1dc2 973d c9b6 813d 3ccf 0d3e
00000060: 293e 733d a931 903d 0c87 913d 5da9 543d
00000070: 569c 1b3e baed 983d b6dc a23d 04fa 983d
0.1356131 0.113016844 0.088594295 0.1565142 0.11295806 0.09178236 0.0642094 0.06948451
0.07571288 0.09788936 0.11582686 0.102963425 0.087575205 0.085184075 0.088232204 0.039643742
0.10946922 0.15001248 0.0713994 0.065022685 0.1202799 0.07410071 0.063336916 0.13848585
0.059385452 0.07040722 0.07105836 0.05191933 0.15196356 0.07467218 0.079522535 0.07469562

bn3.running_mean f4 [32]
00000000: 1913 333c a80b cf3e 90f2 583b 7b00 e2be
00000010: 0f57 0d3f 7631 c3bd 6c73 e9be a537 503e
00000020: 4693 eabe e569 b43e 2e1a 893d d57f 60be
00000030: 7471 943e 85e0 153c da23 673e bda6 ea3e
00000040: caf3 163f 10ee dfbc efc3 dc3e 75b7 4abe
00000050: 485a b03e 0bdf c4bc 17c8 1f3d 179a 403e
00000060: 1a60 fb3e ce44 c03d 43f0 a03e a046 103f
00000070: 314b 893d 0504 cdbd 7b72 1cbe b9b7 b23e
0.010929846 0.4043858 0.0033103563 -0.44140992 0.55210966 -0.09530918 -0.45595872 0.20333727
-0.45815486 0.3523704 0.066944465 -0.21923764 0.28992808 0.009147768 0.2257227 0.45830336
0.5896574 -0.027335197 0.43118235 -0.19796546 0.3444388 -0.024032136 0.03900918 0.1880878
0.49096757 0.093881235 0.31433305 0.56357765 0.06703795 -0.10010532 -0.15278046 0.34905794

bn3.running_var f4 [32]
00000000: 45fd 753d c2be 793d 0c0a ba3d 857d 993d
00000010: 89e7 753e 943f b13d 5886 6a3d 833e 633d
00000020: c6a0 923d 8b8f a93d d06d 6e3d e300 7b3d
00000030: c68f 6d3d 6ae7 a03d 3223 013e 9154 633d
00000040: 5dd6 923d d91f a63d 4f68 5a3d cd0e 1a3e
00000050: e3e7 ba3d 4047 443d de10 803d bea1 4c3e
00000060: e509 273d b748 b33d dd1a 843d 1e9a 5a3d
00000070: c403 573d c938 b43d ac66 a03d 5c26 6c3d
0.06005599 0.060972936 0.090839475 0.07494644 0.24014105 0.08654705 0.057257026 0.055479538
0.07159571 0.08279332 0.058210194 0.061280143 0.05799844 0.07856639 0.12611082 0.05550057
0.07169793 0.08111543 0.053322133 0.15044709 0.0912626 0.04791951 0.06253217 0.19983575
0.04078092 0.08754104 0.06450436 0.053369634 0.052493826 0.087998934 0.07832083 0.05765377

fc1.weight f4 [4, 512]
00000000: a835 063c 1952 d23d 0dc3 80bd 367f de3b
00000010: 66f4 8f3d 274d 5d3d 1635 adbd c6ab dcbc
00000020: 3575 4d3d 7be5 a73c b65c 8ebd cd58 5cbd
00000030: d893 0c3c 8d63 3fbc d48e ccbc e6b2 873d
00000040: 8425 223d 1bb4 c2bd a781 75ba ce80 243d
00000050: 05b9 9f3d bbe1 5a3b 82f4 df3b d2f8 af3d
00000060: a906 633d 16ab 65bc 0889 113c 3841 323d
00000070: 0fbd 923d 732e a63b d9ea 993d f44a 84bb
00000080: 3480 123d 6bb1 b0bb 9277 f1bc 4b0c 90ba
00000090: e631 dbbb 0bbb dc3c 4749 1cbd b54d 7bbd
000000a0: 5c6a 36bd 50b2 d83c 1df6 543d 2ab2 94b9
000000b0: fdec e7bc 4568 df3c b08a ea3c b97c 453b
000000c0: 230c 83bd a3b9 c03d c7c8 95bd 9c99 d13c
000000d0: f569 d4bb 8804 c43d 029f 0ebd fab4 783d
000000e0: ea5c 853b 7858 e0bc 53e8 d0bd 5f32 b9bc
000000f0: 21da 0ebe 579c e23c 95b7 2a3d e757 ec3d
00000100: 8de6 993c 2540 aebd 95d1 a5bc c5c7 4dbb
00000110: 130b 0b3d c0b0 dbbd 1e56 38bc 330e 543d
00000120: bb7d 88bd e05d a8bd 6311 b6bd 4d37 bebd
00000130: 5b12 1e3d bba8 7fbd 37b5 62bc f52a e4bb
00000140: d7a3 473d 1baf d73b 670e e73b 4f99 673d
00000150: 114b 283d 3174 c7bb ebcf 553d 847e f63d
00000160: b934 db3d f274 9a3d e73a 7fbc 6d28 94bc
00000170: 8ff9 1c3d cef9 dcbd 0d0b 733d 12e3 c7bd
00000180: 1f45 89bc 65b1 88bd 7457 203d 1556 af3d
00000190: cac4 be3d 5760 973d c896 28bc ac31 f7bb
000001a0: 8e15 8c3d 69f8 683d 8477 a9bd cbe7 493d
000001b0: 90ff e63d 76bb e0bd 805b 3e3c bfe5 6ebd
000001c0: 6de7 323d 477d 09be 1eb1 0a3c a66a 123d
000001d0: be93 ea3d cb22 dcbd bf8e 6f3d dd98 f33d
000001e0: 87b1 8b3d b172 21bd c5d5 103d 6010 843d
000001f0: 022d 6e3c 8e70 debd 8107 3d3d 22ef 99bd
00000200: 896c 3a3c d898 9b3c 7fe9 3cbd 676e a63c
00000210: 8bf2 7dbd 5644 07bd c62d b23c af9d c7bd
00000220: 5bfa 7a3c 4c91 693d fb29 00bd 9d53 9f3c
00000230: c007 673d bfd5 0cbd 7851 3c3d 5a35 8cbd
00000240: dabd 88bd 67af 91bc fcc2 913c 5bde 1ebd
00000250: 5d71 95bd f37e 533d 2e9e 893d 31b7 59bd
00000260: 123f cabd d627 13bb 1d01 91bd ff42 8ebc
00000270: 4975 0cbe 68bf 923d 1618 eb3c 5ece fd3d
00000280: 7d89 85bd 5a9a eabd 7308 c1bc d861 ffbd
00000290: 1a62 eebd 479f 27bd c451 d4bd 30dd e4bd
000002a0: f062 a7bd aec4 cfbd 9880 b6bd 64bd 12bc
000002b0: 2382 04be e5f4 1b3c 6b79 a63c d538 66bd
000002c0: 7348 9fbd 7e93 ddbd 74ed f83d 2ceb 81bc
000002d0: 59c2 99bd 9f0e aa3c d129 6d3d a49b c03d
000002e0: 479c 22be dc6b f5bc 2a6d a53d dc73 84bd
000002f0: e784 a9bd 889d 793d a635 3a3c c25f 8f3d
00000300: 82af b2bd 23b7 bfbd 7a0f 38ba 17fc a3bd
00000310: 8e6d 90bb a2ab 983d 0c42 9cbc 9df9 9e3d
00000320: 01b9 0dbd 6d4a e8bc 909e 4cbd 2b4f 9cbd
00000330: 38c4 0dbd 24e0 65bd a7c3 c3bc 8a73 36bd
00000340: 7e1f 1d3d f0e7 abbc ba77 92bd 9e6e 063d
00000350: 76e2 d33d d4d4 e8bd b8ad 803d 6ea9 853d
00000360: 6b91 21bd 77fd 63bc 9900 93bd 492a 243a
00000370: e7d7 6d3c 91ee b5bd 4329 ae3c 3f09 823d
00000380: ea6f 213d 4337 423d fbdb 34bd ab1d 0a3c
00000390: bdd1 2cbc 9b45 2dbd 34db 31bc 4101 b6bd
000003a0: 181d 203d bf02 ae3c 06ac 0abd 35fc 753d
000003b0: 6a87 683d 08d6 f83c 1981 943b 812b bfbd
000003c0: 62fd d8bc 5fa8 21bc c2f4 19bd 8401 c03b
000003d0: 5438 b33d b08f e83d 0ca7 ab3c 9860 c5bb
000003e0: 0ed5 d9bc 2334 b8bc 0f13 843c 24b0 5bbc
000003f0: a0be fb3c 8a03 c93c 4a01 9dbc 0b09 183e
0.008191504 0.10269565 -0.06287203 0.006790067 0.07029037 0.054028656 -0.08457391 -0.026937377
0.050160605 0.020495167 -0.06951277 -0.053795625 0.008580171 -0.01168145 -0.02497045 0.06625919
0.03958656 -0.09507009 -0.0009365328 0.0401619 0.077989615 0.0033398706 0.0068345675 0.085923806
0.055426273 -0.014017841 0.008882768 0.04351923 0.07164966 0.005071455 0.07515497 -0.0040372554
0.035766795 -0.0053922436 -0.02947596 -0.0010989992 -0.006689298 0.026944658 -0.03815582 -0.061353404
-0.044535026 0.026452214 0.051992524 -0.00028361502 -0.028311247 0.0272714 0.028630584 0.0030134155
-0.06398799 0.094104074 -0.07313686 0.025585942 -0.0064823576 0.09571177 -0.03481961 0.060719468
0.004069914 -0.027385935 -0.10200562 -0.022607027 -0.13950397 0.02766244 0.041678984 0.115402035
0.018786693 -0.08508328 -0.020241538 -0.003139959 0.033946108 -0.10727072 -0.011251001 0.051771354
-0.06664606 -0.0822103 -0.08890035 -0.092878915 0.038591724 -0.062416773 -0.01383715 -0.0069631287
0.048740234 0.0065821535 0.0070512774 0.05654269 0.041087214 -0.006086849 0.05220024 0.1203585
0.107034154 0.07541837 -0.015578008 -0.018085683 0.038323935 -0.10789834 0.05933671 -0.09760107
-0.016756592 -0.0667446 0.0391459 0.08561341 0.09314878 0.07391422 -0.010289855 -0.007543763
0.06840049 0.056877527 -0.08274749 0.04929332 0.112792134 -0.10973255 0.011618495 -0.05832457
0.043677736 -0.13426696 0.00846508 0.03574624 0.11453961 -0.10748824 0.058485743 0.11894391
0.0682097 -0.03941602 0.035360117 0.06448436 0.014537098 -0.10861312 0.046149734 -0.07516314
0.011378416 0.01899378 -0.046121117 0.020316316 -0.061998885 -0.033024155 0.021750342 -0.09746873
0.015318478 0.05702333 -0.031290036 0.01944905 0.056403875 -0.03438353 0.045976132 -0.068461135
-0.06676836 -0.017783834 0.017793171 -0.038786273 -0.07297013 0.05163474 0.067196235 -0.05315322
-0.09875311 -0.0022454164 -0.070802905 -0.01736593 -0.13716616 0.07165414 0.028698009 0.12392877
-0.065203644 -0.114552215 -0.0235636 -0.12469834 -0.11639805 -0.040923383 -0.10367158 -0.11175001
-0.08173168 -0.101449355 -0.08911246 -0.008956287 -0.12940268 0.009518837 0.020321568 -0.056206543
-0.077774905 -0.108191475 0.121546656 -0.015859209 -0.07507772 0.020758925 0.057901207 0.09404686
-0.15879928 -0.029958658 0.08077462 -0.06467411 -0.08277302 0.06094125 0.01136533 0.07000686
-0.08724882 -0.093611024 -0.0007021349 -0.08007067 -0.004407591 0.07454611 -0.019074462 0.07762454
-0.03460026 -0.028355801 -0.049955904 -0.076322876 -0.034610957 -0.05612196 -0.023897005 -0.04454378
0.03836011 -0.02098462 -0.07151742 0.032820337 0.10345928 -0.11368719 0.06283134 0.06526457
-0.039445322 -0.013915411 -0.07177848 0.00062624045 0.014516807 -0.088833936 0.02125991 0.0634942
0.03941337 0.047415983 -0.044155102 0.008429925 -0.010548052 -0.04230271 -0.010855485 -0.08886958
0.039090246 0.021241544 -0.03385546 0.060054976 0.056769766 0.030375496 0.004531991 -0.093344696
-0.02648801 -0.009866803 -0.037586935 0.0058595557 0.08750978 0.11355531 0.020953678 -0.0060234778
-0.02659085 -0.022485798 0.01612237 -0.013408694 0.030730546 0.02453782 -0.019165654 0.148472

fc1.bias f4 [4]
00000000: f35b 10bd 3f4b 8abc b536 3cbd d0bc aebc
-0.03524394 -0.016881583 -0.04595061 -0.021330267
