pths/classifier_train.pth (torch, 61572 bytes, 20 tensors)

conv1.weight f4 [32, 1, 3]
-0.14150459 0.23511061 0.52148384 -0.105159104 0.19949707 0.0917347 0.056413982 0.3756313
0.40591896 -0.039477985 0.46935558 -0.17326856 -0.068326525 0.5800781 0.40275845 0.42353174
-0.27974877 -0.27699992 0.35912943 -0.03403823 -0.08831973 0.23831898 -0.23275433 0.5039177
-0.42069826 -0.022820719 -0.24758933 -0.5005686 -0.49354088 -0.5006247 -0.072591804 -0.006853218
0.2691221 0.4574906 -0.50266373 0.10406424 -0.5884396 -0.35099 -0.10766433 -0.038340498
-0.19651036 0.2661423 0.003740678 -0.14847009 -0.50349826 0.1643736 -0.081440985 -0.05350149
0.4092649 -0.33809766 -0.5033511 0.4456393 -0.33624503 -0.48548394 -0.13954313 -0.4556586
-0.5301759 -0.51202965 -0.04353622 0.04494953 -0.48325917 -0.4210912 -0.46797523 0.070116006
-0.52540964 0.5030849 -0.35303667 -0.5279714 -0.46140045 0.49140707 -0.3871046 0.42052522
0.0068570627 0.1180731 0.2134065 0.24707364 0.43902636 -0.24710216 0.19940534 -0.21557172
0.22260156 -0.17748341 0.18833731 0.01234854 -0.37096006 -0.4809933 -0.11975146 0.034464743
-0.5879559 -0.33433273 0.21800178 0.286044 -0.0013987498 -0.4016313 -0.27462757 0.2664391
00000000: 94e6 10be d6c0 703e f77f 053f a85d d7bd
00000010: f648 4c3e 67df bb3d 5912 673d bf52 c03e
00000020: 9cd4 cf3e abb3 21bd 604f f03e 506d 31be
00000030: c7ee 8bbd 0080 143f 5b36 ce3e 27d9 d83e
00000040: 3b3b 8fbe efd2 8dbe d0df b73e ac6b 0bbd
00000050: f9e0 b4bd e409 743e 2757 6ebe c000 013f
00000060: c365 d7be 84f2 babc 0f88 7dbe 4425 00bf
00000070: 64b1 fcbe f128 00bf 03ab 94bd f690 e0bb
00000080: 5fca 893e 353c ea3e 92ae 00bf a21f d53d
00000090: faa3 16bf f6b4 b3be 1e7f dcbd ed0a 1dbd
000000a0: 033a 49be ce43 883e 2a26 753b 8b08 18be
000000b0: 43e5 00bf 8e51 283e 88ca a6bd 6124 5bbd
000000c0: 2b8b d13e 231b adbe 9edb 00bf d62a e43e
000000d0: 4f28 acbe 5a91 f8be 65e4 0ebe 164c e9be
000000e0: 9cb9 07bf 6014 03bf 0953 32bd 001d 383d
000000f0: bf6d f7be 4499 d7be 739a efbe fb98 8f3d
00000100: 3f81 06bf 2cca 003f 39c1 b4be 2229 07bf
00000110: ae3c ecbe b599 fb3e 9332 c6be 154f d73e
00000120: 36b1 e03b 4fd0 f13d 3c87 5a3e df00 7d3e
00000130: 10c8 e03e 5908 7dbe ea30 4c3e d5be 5cbe
00000140: aaf1 633e 36be 35be 7fdb 403e 8851 4a3c
00000150: 7aee bdbe c144 f6be 4140 f5bd e72a 0d3d
00000160: 4784 16bf a92d abbe dc3b 5f3e 5c74 923e
00000170: 4156 b7ba 9ea2 cdbe fc9b 8cbe b56a 883e

conv1.bias f4 [32]
-0.2930066 0.50890344 -0.46409738 0.087452754 0.04899775 -0.45756194 0.0796028 0.27203557
-0.09566704 0.5677811 -0.22300935 -0.48125952 0.37186807 0.023503972 -0.18896316 0.26219416
-0.5168663 -0.18411383 0.46677747 0.5380615 -0.043776464 0.35448503 0.18792522 -0.053661
-0.19694246 0.44207016 0.48475516 -0.044303097 -0.21627964 0.27419454 0.1844436 -0.15046379
00000000: f604 96be 7f47 023f 2c9e edbe 6e1a b33d
00000010: ddb1 483d 8f45 eabe cb06 a33d 3f48 8b3e
00000020: 15ed c3bd 1a5a 113f 905c 64be a667 f6be
00000030: 7e65 be3e 678b c03c 8f7f 41be 503e 863e
00000040: 5a51 04bf 5688 3cbe 75fd ee3e 66be 093f
00000050: f34e 33bd 107f b53e 786f 403e a3cb 5bbd
00000060: 49ab 49be 0557 e23e d431 f83e 2a77 35bd
00000070: 6978 5dbe 3a63 8c3e c8de 3c3e 2e13 1abe

bn1.weight f4 [32]
0.98878443 0.9733543 0.9819931 1.0537866 0.9981741 0.97248876 0.9945195 0.9975721
1.0223805 1.0296814 1.0156839 0.9972352 1.0092126 1.0069046 1.0011457 0.9930204
0.9710207 1.0093486 1.0024569 0.99876595 0.962658 0.9586103 0.9623328 1.0061629
1.0260682 1.0258923 1.0125811 1.0156987 0.99373096 0.9890583 1.0070326 1.01085
00000000: fa20 7d3f bf2d 793f e663 7b3f 7be2 863f
00000010: 5688 7f3f 06f5 783f d498 7e3f e360 7f3f
00000020: 5ddd 823f 9acc 833f ee01 823f ce4a 7f3f
00000030: e12d 813f 40e2 803f 8b25 803f 9636 7e3f
00000040: d094 783f 5632 813f 8250 803f 20af 7f3f
00000050: c170 763f 7c67 753f 715b 763f f2c9 803f
00000060: 3456 833f 7050 833f 429c 813f 6a02 823f
00000070: 2765 7e3f ed32 7d3f 72e6 803f 8863 813f

bn1.bias f4 [32]
-0.039601285 -0.029869337 0.03243073 0.0723528 0.009404009 0.0048986007 -0.02819054 0.035130993
-0.003706636 0.010459687 0.013367105 0.007577229 -0.0025172813 0.023836125 -0.02329101 0.028119344
0.017872594 0.006230686 -0.07818343 -0.04442696 -0.06784608 -0.015275731 -0.010826417 0.033071373
0.0037006643 0.05540174 -0.05361067 -0.015717776 -0.025929766 0.013593702 0.05103262 -0.03590854
00000000: f534 22bd 8ab0 f4bc 16d6 043d b42d 943d
00000010: 4613 1a3c 7184 a03b d9ef e6bc 84e5 0f3d
00000020: 08eb 72bb 1b5f 2b3c b401 5b3c 674a f83b
00000030: f9f8 24bb fa43 c33c cacc bebc 8a5a e63c
00000040: 8c69 923c c82a cc3b a21e a0bd 0bf9 35bd
00000050: e3f2 8abd 0f47 7abc 4961 31bc d975 073d
00000060: d886 723b efec 623d dd96 5bbd 91c2 80bc
00000070: a96a d4bc 1eb8 5e3c 9507 513d d514 13bd

bn1.running_mean f4 [32]
0.0070807924 0.6014677 -0.05290512 0.2189862 0.499753 -0.52400005 0.1954475 0.51558334
-0.4321748 -0.16501589 -0.13197963 -0.45852494 -0.1429737 0.03511706 -0.5043942 0.27602488
-0.7287965 -0.3686818 -0.08495265 0.28783706 -0.7161532 0.3691807 -0.47103572 0.1961321
-0.031593617 0.662823 0.5819935 -0.031026134 -0.6955776 -0.1639764 0.43318206 -0.35521314
00000000: fe05 e83b caf9 193f 0ab3 58bd eb3d 603e
00000010: a0df ff3e de24 06bf 6423 483e 45fd 033f
00000020: 0446 ddbe edf9 28be ab25 07be c8c3 eabe
00000030: b367 12be e8d6 0f3d fa1f 01bf 2253 8d3e
00000040: 6892 3abf dcc3 bcbe a8fb adbd 615f 933e
00000050: d155 37bf 4105 bd3e 982b f1be dad6 483e
00000060: 4f68 01bd c5ae 293f 87fd 143f 852a febc
00000070: 6011 32bf 6ee9 27be 0aca dd3e 7fde b5be

bn1.running_var f4 [32]
0.061896242 0.010658778 0.052888606 0.044459864 0.087882556 0.06136304 0.024828551 0.0632189
0.040159672 0.12297625 0.013968593 0.08459584 0.08106728 0.019756112 0.048068017 0.0066614253
0.09778993 0.100241825 0.08616233 0.04686 0.10391139 0.09450515 0.10240469 0.09901603
0.010299769 0.055431508 0.023746734 0.012116907 0.064303875 0.07972815 0.02200345 0.054847036
00000000: ea86 7d3d 28a2 2e3c b9a1 583d 8c1b 363d
00000010: c5fb b33d d057 7b3d 3f65 cb3c e978 813d
00000020: 787e 243d f9da fb3d 87dc 643c 9540 ad3d
00000030: 9a06 a63d 92d7 a13c f8e2 443d 1648 da3b
00000040: 1646 c83d 964b cd3d e075 b03d 45f0 3f3d
00000050: 7fcf d43d eb8b c13d 8db9 d13d ebc8 ca3d
00000060: 5dc0 283c 260c 633d 8388 c23c fe85 463c
00000070: c0b1 833d 8348 a33d 9440 b43c 49a7 603d

conv2.weight f4 [64, 32, 3]
-0.018763315 -0.07401744 0.057439283 -0.060990196 0.08031672 -0.05215104 -0.06109282 0.03432693
-0.0563035 0.042626917 -0.049305372 -0.071920685 -0.07108082 0.020039193 -0.026532529 -0.03917407
0.03342521 -0.018500622 -0.13423382 0.1192085 0.017566252 0.036753755 -0.055303875 -0.074937426
-0.03614483 -0.052552644 -0.013270566 0.03692157 0.08572828 -0.07031413 -0.06452272 0.0023768297
-0.06557792 -0.14422119 0.06909274 0.026004419 -0.04500527 0.08850811 0.035139106 0.057667784
-0.11162226 0.05562999 0.03779708 0.09167229 -0.07601183 -0.034750655 0.08198453 -0.03184463
-0.094691075 0.083780825 0.036632445 0.08220242 -0.083875135 0.036949497 0.06919167 0.08084751
0.07049933 -0.06573807 0.0056079845 0.02076414 0.03999696 -0.0922057 0.073357254 -0.067438245
-0.054105878 -0.016268965 0.00032072043 0.067703284 0.10158456 -0.052792627 0.06496706 -0.09940213
-0.07833319 -0.00788629 -0.056191165 0.09917768 0.07827314 -0.02091969 0.03555469 0.0983596
0.070815735 0.05930456 0.051378407 0.04161076 0.025159812 -0.092545256 0.026139036 -0.043803215
-0.01240509 -0.05878336 -0.062531486 -0.11439177 0.022484941 0.046485838 0.039871655 0.037271425
-0.0370117 0.03215084 0.0018383057 -0.018098835 -0.044005904 0.016046477 0.08790817 -0.09861434
0.089492455 0.09473029 0.010211726 0.081716 -0.038809557 -0.008512691 0.042201925 -0.09129836
-0.006603567 0.018238004 -0.0482211 0.08712555 0.06889923 0.029539382 -0.06263602 0.031316448
-0.005565576 0.0716906 -0.0094085075 -0.049149062 -0.010894479 0.062223587 0.05364926 -0.08594721
-0.13146481 0.040734768 0.040930014 -0.081978336 -0.09977417 -0.095126316 -0.10696423 0.004701116
0.0025177766 0.067268506 0.092923656 -0.044056192 0.07898854 0.06988074 0.031060744 -0.0334146
0.07004025 0.046742182 -0.03947631 -0.04081031 0.0680039 -0.030420955 0.021628208 0.08719938
-0.08099314 0.08717388 0.03592791 -0.047217764 -0.014413356 -0.027803969 -0.0033622917 -0.0010362869
-0.019530695 -0.03508348 -0.032397456 -0.0676145 0.058889896 0.063299805 -0.020436829 0.031169867
-0.0007140461 0.017214796 0.059954774 -0.011163925 -0.011611845 0.11727804 0.01539468 -0.04407647
0.08398826 -0.01071022 -0.012340827 -0.0046684626 -0.068769015 -0.092736244 -0.035215795 -0.09225312
0.035110038 -0.058435403 0.074904144 0.014096056 0.0024003654 0.090771906 0.012297121 -0.09527893
-0.09805706 0.07095486 -0.05895492 0.031259123 0.01577918 -0.00912153 -0.11135371 -0.108076185
0.024996953 -0.03684896 0.07160146 0.10266166 -0.009572515 -0.016789723 -0.067874655 0.0720951
-0.054667514 -0.003707097 -0.054774195 -0.11476342 -0.095892884 -0.0703954 0.08850767 -0.06417771
0.08336422 0.12864092 -0.034250952 -0.03219266 0.04272524 -0.105739556 0.069367416 0.07594858
-0.08746446 0.085152335 -0.0156621 0.091609254 -0.02731881 0.054545645 -0.0684819 0.08877632
-0.077135175 -0.05637457 0.076663375 0.058016397 -0.016286017 0.039027072 -0.032616895 0.06744379
-0.07517972 0.041860536 0.009479572 -0.03207163 -0.045874417 0.061712813 0.010161682 -0.045211952
-0.0061782175 -0.02460426 0.06556612 0.05633473 -0.075594455 -0.080729045 -0.006628663 -0.0068378304
00000000: 86b5 99bc 7596 97bd 7445 6b3d dbd0 79bd
00000010: 187d a43d 549c 55bd 773c 7abd 659a 0c3d
00000020: 809e 66bd 9099 2e3d 6ef4 49bd 274b 93bd
00000030: d292 91bd 3c29 a43c bf5a d9bc fd74 20bd
00000040: dfe8 083d 9e8e 97bc 9774 09be 9623 f43d
00000050: 1ae7 8f3c 1b8b 163d 5186 62bd cb78 99bd
00000060: 9a0c 14bd 7141 57bd ca6c 59bc 123b 173d
00000070: 4f92 af3d db00 90bd 7d24 84bd 96c4 1b3b
00000080: b74d 86bd b8ae 13be 7f80 8d3d 3807 d53c
00000090: 7257 38bd bd43 b53d 06ee 0f3d 0e35 6c3d
000000a0: 369a e4bd 46dc 633d 1cd1 1a3d aebe bb3d
000000b0: 17ac 9bbd b456 0ebd 81e7 a73d 846f 02bd
000000c0: 65ed c1bd 4895 ab3d e70b 163d be59 a83d
000000d0: bac6 abbd 5b58 173d 5db4 8d3d 6193 a53d
000000e0: f461 903d aea1 86bd 2fc3 b73b 8f19 aa3c
000000f0: dad3 233d 58d6 bcbd 543c 963d 101d 8abd
00000100: 209e 5dbd 7e46 85bc 5e26 a839 05a8 8a3d
00000110: 910b d03d 153d 58bd 730d 853d 5893 cbbd
00000120: 276d a0bd 7f35 01bc b528 66bd ab1d cb3d
00000130: ab4d a03d c55f abbc cba1 113d c270 c93d
00000140: d707 913d 57e9 723d 2a72 523d 0b70 2a3d
00000150: f31b ce3c 5e88 bdbd 8821 d63c 006b 33bd
00000160: b83e 4bbc d2c6 70bd 8210 80bd 3b46 eabd
00000170: 5732 b83c ef67 3e3d 7650 233d eca9 183d
00000180: 9599 17bd 99b0 033d 4ef3 f03a 0244 94bc
00000190: 893f 34bd e773 833c 3309 b43d 51f6 c9bd
000001a0: d247 b73d f401 c23d 154f 273c b85a a73d
000001b0: c5f6 1ebd d078 0bbc eddb 2c3d a2fa babd
000001c0: bc62 d8bb de67 953c 7d83 45bd e16e b23d
000001d0: 0a1b 8d3d 93fc f13c 5047 80bd ad45 003d
000001e0: 6f5f b6bb 85d2 923d 2426 1abc 8750 49bd
000001f0: c27e 32bc 29de 7e3d 54bf 5b3d 1705 b0bd
00000200: b69e 06be 80d9 263d 3ba6 273d 42e4 a7bd
00000210: 6656 ccbd 96d1 c2bd 1010 dbbd d20b 9a3b
00000220: 4801 253b 12c4 893d c24e be3d 4474 34bd
00000230: bec4 a13d a21d 8f3d 1a73 fe3c bfdd 08bd
00000240: 4371 8f3d bb74 3f3d e9b1 21bd b628 27bd
00000250: a145 8b3d 5e35 f9bc a42d b13c 9795 b23d
00000260: bbdf a5bd 3888 b23d 2529 133d 6a67 41bd
00000270: ff25 6cbc 26c5 e3bc e559 5cbb 05d4 87ba
00000280: d6fe 9fbc b2b3 0fbd 32b3 04bd 7979 8abd
00000290: 8836 713d 54a3 813d 236b a7bc f357 ff3c
000002a0: d32e 3bba 0b06 8d3c 2393 753d e5e8 36bc
000002b0: 9c3f 3ebc 782f f03d f839 7c3c 8789 34bd
000002c0: 0902 ac3d eb79 2fbc 2e31 4abc e7f9 98bb
000002d0: c5d6 8cbd 80ec bdbd 703e 10bd 34ef bcbd
000002e0: 8bcf 0f3d f659 6fbd 5867 993d 25f3 663c
000002f0: 734f 1d3b 9fe6 b93d dd79 493c 9a21 c3bd
00000300: 24d2 c8bd c850 913d b77a 71bd 9109 003d
00000310: 5743 813c 7872 15bc 6a0d e4bd 0c57 ddbd
00000320: 69c6 cc3c efee 16bd c9a3 923d 4740 d23d
00000330: 0ad6 1cbc 9a8a 89bc de01 8bbd 99a6 933d
00000340: 0beb 5fbd c4f2 72bb e85a 60bd 1509 ebbd
00000350: 7d63 c4bd 772b 90bd 8243 b53d 9a6f 83bd
00000360: dcba aa3d 72ba 033e ba4a 0cbd 73dc 03bd
00000370: a900 2f3d fb8d d8bd 8110 8e3d ee8a 9b3d
00000380: 9120 b3bd 5964 ae3d ce4d 80bc a29d bb3d
00000390: b2cb dfbc 416b 5f3d 3d40 8cbd 5cd0 b53d
000003a0: 0cf9 9dbd 05e9 66bd b001 9d3d 9aa2 6d3d
000003b0: 416a 85bc dada 1f3d 4b99 05bd f81f 8a3d
000003c0: d3f7 99bd f475 2b3d 3550 1b3c 8b5d 03bd
000003d0: d0e6 3bbd 93c6 7c3d 2f7d 263c 2b30 39bd
000003e0: a572 cabb e08e c9bc 8847 863d 3fbf 663d
000003f0: 44d1 9abd 4555 a5bd 4135 d9bb e10f e0bb

conv2.bias f4 [64]
0.031663638 0.052689258 0.061080787 -0.023800708 -0.08059219 0.016660418 -0.07627121 0.02627941
0.10428639 0.09727768 -0.065964706 0.047899168 0.00021005265 -0.064235695 -0.046294797 0.08143477
-0.02345305 0.059466533 -0.076054975 0.06244718 -0.073526494 -0.021941451 -0.07909377 -0.021054648
-0.07103818 0.09012279 -0.07363993 0.00016410773 0.035920385 -0.047967643 -0.055135936 -0.03628803
0.07044131 0.078402355 -0.07907605 -0.033627115 0.012674251 -0.016665539 0.03458243 0.08013432
0.043190442 -0.03404655 0.045927644 0.08697062 -0.081672676 -0.08875985 0.07003851 -0.08351963
0.0783002 -0.008536749 0.017730232 -0.027987067 -0.06603683 -0.031041116 0.04458778 0.038712364
-0.07946035 -0.032369938 0.087222144 -0.07020333 0.020655086 -0.029429927 0.0029542898 -0.085730836
00000000: bbb1 013d b1d0 573d d92f 7a3d b4f9 c2bc
00000010: 850d a5bd 6e7b 883c 1534 9cbd eb47 d73c
00000020: 1a94 d53d 8539 c73d 8118 87bd eb31 443d
00000030: 9441 5c39 018e 83bd 9d9f 3dbd 46c7 a63d
00000040: 9c20 c0bc 2e93 733d b6c2 9bbd 9dc8 7f3d
00000050: 0f95 96bd 8fbe b3bc eafb a1bd cc7a acbc
00000060: 777c 91bd 4c92 b83d 88d0 96bd 5514 2c39
00000070: 4121 133d b879 44bd 38d6 61bd c2a2 14bd
00000080: 8943 903d 6a91 a03d a0f2 a1bd 96bc 09bd
00000090: a9a7 4f3c 2b86 88bc 4ea6 0d3d 761d a43d
000000a0: 76e8 303d 6574 0bbd a01e 3c3d a71d b23d
000000b0: 0144 a7bd b9c7 b5bd 5a70 8f3d 570c abbd
000000c0: db5b a03d b8dd 0bbc fe3e 913c 2245 e5bc
000000d0: 513e 87bd f049 febc ada1 363d db90 1e3d
000000e0: 1cbc a2bd 5796 04bd 86a1 b23d c3c6 8fbd
000000f0: db34 a93c 0817 f1bc c29c 413b a693 afbd

bn2.weight f4 [64]
1.045243 1.0253915 0.9621135 0.9678773 1.0204846 0.9886475 0.97978556 1.0179598
0.96372205 0.9663582 1.0197572 0.9898771 0.9864949 0.9930993 0.9842149 1.0201199
0.96356326 0.9348472 1.0058473 0.9814382 0.989435 1.0453067 1.0102711 1.0180728
1.0592067 1.0456096 1.0339564 1.0243948 1.0430564 0.9933078 1.0070207 0.99476135
1.0001962 1.0052228 1.0234327 1.0113201 0.9712103 0.9789021 0.98493934 1.0001106
1.0049059 1.0027654 0.9925711 0.9955001 0.9809618 0.99014574 1.0091238 0.97296476
1.0196018 0.97173 1.0078524 1.0280886 1.027861 0.97073686 1.005207 0.9590854
0.95612055 1.0060697 0.9964271 1.0120993 1.0286596 0.994372 0.96889085 1.0228164
00000000: 86ca 853f 0740 833f 124d 763f cfc6 773f
00000010: 3d9f 823f 0118 7d3f 3ad3 7a3f 824c 823f
00000020: 7db6 763f 4063 773f 6787 823f 9668 7d3f
00000030: ee8a 7c3f c13b 7e3f 82f5 7b3f 4a93 823f
00000040: 15ac 763f 2552 6f3f 9bbf 803f 893f 7b3f
00000050: 9d4b 7d3f 9ccc 853f 9050 813f 3650 823f
00000060: 1694 873f 89d6 853f af58 843f 5e1f 833f
00000070: df82 853f 6c49 7e3f 0ee6 803f aea8 7e3f
00000080: 6e06 803f 24ab 803f d8ff 823f f072 813f
00000090: 3da1 783f 5499 7a3f fc24 7c3f a003 803f
000000a0: c2a0 803f 9e5a 803f 2419 7e3f 18d9 7e3f
000000b0: 5020 7b3f 317a 7d3f f82a 813f 3814 793f
000000c0: 5082 823f 4cc3 783f 4f01 813f 6898 833f
000000d0: f390 833f 3682 783f 9faa 803f 9f86 753f
000000e0: 51c4 743f e4c6 803f d915 7f3f 788c 813f
000000f0: 1eab 833f 2a8f 7e3f 3b09 783f a6eb 823f

bn2.bias f4 [64]
0.016235607 -0.022205366 -0.017408587 -0.017290764 -0.011227355 -0.047105197 -0.03122477 -0.04133028
0.0014901637 -0.014041034 0.011198511 -0.002772288 -0.063222565 -0.0077467696 -0.013510387 -6.464509e-05
0.00105577 0.027342018 0.004786764 -0.056712452 0.0015421394 -0.002604384 -0.021841558 -0.04504598
-0.010257587 0.045461398 -0.08561442 0.012810262 0.03884979 0.009448167 0.006392941 -0.03240007
0.008844886 -0.059338685 0.012472466 -0.023566678 -0.03973094 -0.02172776 0.05001709 0.022676261
0.034136336 -0.053402577 -0.013074807 -0.019249607 -0.0006541323 -0.0068429164 -0.07023093 -0.034173913
-0.036608662 -0.043114636 -0.058242023 0.018649887 -0.0029820998 -0.080145925 -0.0019661202 -0.037024606
-0.04482473 0.0060402267 -0.00947923 0.04068521 -0.043941252 0.019596417 0.033062186 -0.014498542
00000000: 8900 853c 07e8 b5bc 749c 8ebc 5ca5 8dbc
00000010: f1f2 37bc 61f1 40bd 17cb ffbc f149 29bd
00000020: 9951 c33a 5d0c 66bc f679 373c 46af 35bb
00000030: d57a 81bd 9dd8 fdbb ac5a 5dbc 1292 87b8
00000040: c361 8a3a 5efc df3c 49da 9c3b 514b 68bd
00000050: 9d21 ca3a 50ae 2abb 11ed b2bc 2282 38bd
00000060: 700f 28bc bb35 3a3d 9d56 afbd 22e2 513c
00000070: f520 1f3d 7ccc 1a3c e07b d13b f0b5 04bd
00000080: 24ea 103c 1f0d 73bd 5059 4c3c e80e c1bc
00000090: e9bc 22bd 6afe b1bc b8de 4c3d 91c3 b93c
000000a0: 8bd2 0b3d a9bc 5abd b737 56bc 5ab1 9dbc
000000b0: 137a 2bba 8b3a e0bb 3cd5 8fbd f2f9 0bbd
000000c0: f7f2 15bd f998 30bd 308f 6ebd a6c7 983c
000000d0: 556f 43bb 8c23 a4bd 06da 00bb 1da7 17bd
000000e0: 239a 37bd 18ed c53b c64e 1bbc 89a5 263d
000000f0: befb 33bd aa88 a03c 376c 073d 4b8b 6dbc

bn2.running_mean f4 [64]
-0.09413772 0.25906184 -0.1823705 0.41714418 -0.39538693 -0.764737 1.3120862 0.18052319
0.07497013 -0.26972416 -0.63950324 0.3706877 0.007550852 0.11407473 0.3263438 -0.3857352
0.16465235 0.18919455 0.13559543 0.35122326 0.47873265 0.014019903 -0.4667052 -0.015818844
-0.41668233 -0.14206427 -0.3464899 -0.001568686 -0.08211181 -0.1312471 0.30318722 -0.18569787
0.11214579 0.25698814 -0.5458766 0.0066662203 0.94059765 0.16968614 0.8817332 0.017224418
-0.1579253 -0.2058322 -0.7761167 -0.41317916 0.66983706 -0.08465256 0.11222459 0.016726919
0.11596228 -0.6491229 -0.43689147 -0.30806556 -0.38144657 -0.13914086 -0.5226812 0.6350854
0.53166616 0.2927512 0.667793 0.09883979 -0.79265046 0.5820686 -0.35348386 -0.033272102
00000000: 47cb c0bd c1a3 843e 55bf 3abe ec93 d53e
00000010: 2870 cabe cec5 43bf 71f2 a73f 12db 383e
00000020: f189 993d 4919 8abe 7cb6 23bf c7ca bd3e
00000030: 236d f73b 03a0 e93d 8916 a73e 167f c5be
00000040: a09a 283e 37bc 413e 87d9 0a3e 89d3 b33e
00000050: 721c f53e bcb3 653c fcf3 eebe 8596 81bc
00000060: 6357 d5be 4c79 11be 2067 b1be 5e9c cdba
00000070: 3d2a a8bd a465 06be 5b3b 9b3e 9527 3ebe
00000080: b1ac e53d f393 833e 92be 0bbf 4f70 da3b
00000090: 02cb 703f 34c2 2d3e 44b9 613f 391a 8d3c
000000a0: 2bb7 21be adc5 52be 96af 46bf 388c d3be
000000b0: 717a 2b3f 525e adbd 01d6 e53d e406 893c
000000c0: a27d ed3d eb2c 26bf 3db0 dfbe c5ba 9dbe
000000d0: f74c c3be f17a 0ebe 6fce 05bf f594 223f
000000e0: 461b 083f 7ce3 953e 7bf4 2a3f 846c ca3d
000000f0: 24eb 4abf 7302 153f d6fb b4be 5448 08bd

bn2.running_var f4 [64]
0.18918975 0.18441081 0.1634548 0.20241427 0.1314196 0.43122765 0.49773797 0.13990916
0.16265549 0.3374587 0.33929735 0.31934667 0.10800879 0.18748634 0.20164028 0.30144778
0.2513322 0.37684426 0.23817655 0.14510015 0.2010102 0.16137835 0.19170274 0.18572219
0.1020934 0.1650985 0.18169965 0.17236085 0.09033505 0.12515043 0.17253909 0.16037479
0.23985586 0.06688198 0.23900753 0.30665568 0.3143177 0.17360261 0.2909361 0.26235667
0.1584923 0.11781623 0.48375237 0.19509695 0.2991955 0.19901498 0.142538 0.16897127
0.13597403 0.3446604 0.18783012 0.13454361 0.13840325 0.13005444 0.21788086 0.18917851
0.27383202 0.07852925 0.24473678 0.15336555 0.23862693 0.37830973 0.23838091 0.23298246
00000000: f5ba 413e 30d6 3c3e b260 273e b045 4f3e
00000010: dc92 063e dfc9 dc3e 83d7 fe3e 5944 0f3e
00000020: 298f 263e 63c7 ac3e 62b8 ad3e 6881 a33e
00000030: b633 dd3d 6bfc 3f3e ca7a 4e3e 5d57 9a3e
00000040: 9dae 803e bbf1 c03e 8ee4 733e 2295 143e
00000050: 9ed5 4d3e 5e40 253e b94d 443e f52d 3e3e
00000060: 5816 d13d 950f 293e 790f 3a3e 5d7f 303e
00000070: 9501 b93d 6f27 003e 16ae 303e 4a39 243e
00000080: c69c 753e 6bf9 883d 64be 743e f901 9d3e
00000090: 40ee a03e e2c4 313e 94f5 943e 9d53 863e
000000a0: ce4b 223e a349 f13d 64ae f73e 7fc7 473e
000000b0: 2730 993e 95ca 4b3e 7bf5 113e ce06 2d3e
000000c0: c73c 0b3e 5477 b03e 8a56 403e cdc5 093e
000000d0: 95b9 0d3e fe2c 053e 291c 5f3e 03b8 413e
000000e0: b633 8c3e f2d3 a03d 479c 7a3e dc0b 1d3e
000000f0: 9e5a 743e d0b1 c13e 201a 743e f492 6e3e

conv3.weight f4 [32, 64, 3]
0.07449879 0.048892673 -0.0517608 0.08219668 -0.016866954 0.047331117 0.060262956 0.012817817
0.011935038 0.028269643 -0.028303122 0.053764556 0.023116017 0.06618602 -0.02087617 -0.046298668
-0.074554 0.050746504 -0.0033345702 0.0030001437 0.05582248 -0.012127069 0.04112602 -0.011633379
0.04725944 -0.03829444 0.024087567 -0.01181421 -0.07372465 -0.026872188 0.094936505 0.0019645607
0.028316403 0.022543097 0.07007525 -0.039482255 -0.077709466 0.04137543 0.02297323 -0.04954509
0.04661548 -0.0031799334 0.03359389 0.0053021703 0.04963631 -0.042099368 -0.06686743 -0.052564528
0.018802196 -0.023155894 0.061042562 0.009092575 0.028498432 0.06536958 -0.03184685 0.070055194
-0.012914204 -0.048701696 -0.04825689 0.05133268 -0.0242951 0.009490744 0.0027707994 0.04187156
0.028033964 -0.08108169 0.009752597 0.085920215 0.042801328 0.026526535 -0.046145078 0.01095043
0.0069583855 -0.06029605 -0.0022542346 -0.029398961 -0.03630475 0.09131713 -0.020889726 -0.03402455
-0.01696096 0.111929186 0.014535652 0.022405377 -0.007507021 -0.044722695 0.00087603054 -0.0046791215
0.00028177066 -0.0091256695 0.0330859 0.020942543 -0.004784877 0.028229473 0.0104482025 0.044239137
-0.025742443 -0.073479906 -0.02702399 -0.09540271 -0.045589477 0.050001517 0.047044702 0.09241203
0.027385369 -0.113599576 -0.017147204 -0.015070302 0.07856412 0.030174188 0.00484565 -0.06203396
0.04760672 0.006305976 -0.00090622733 0.058135457 -0.010015995 -0.006502014 -0.07875472 0.009705727
0.055821676 -0.016424559 0.05979973 -0.05558438 0.06491402 -0.09880941 0.016528698 0.036848586
-0.060264573 -0.067741364 -0.0021624053 0.024010519 0.007101029 0.022057213 0.012892523 0.038609494
0.04126985 -0.053612396 -0.03397594 -0.06541636 0.018965475 0.05202498 0.058375735 -0.00971194
0.07329799 -0.10996962 -0.0059250765 0.0041941255 -0.062355805 -0.056254584 0.030942986 0.026342038
-0.007224174 -0.045903575 -0.005743782 0.076236375 -0.020362008 -0.07666549 -0.047732536 0.046898916
-0.06226294 0.007813337 -0.033815254 -0.026011724 0.017509753 0.0353737 0.0010641993 0.029302532
-0.06774843 0.03828831 0.03560685 -0.022860527 -0.06647701 -0.05885382 -0.05749628 -0.04960235
0.07511556 -0.048270915 -0.015721748 -0.05468348 0.06246584 -0.038845368 -0.04943256 -0.052464474
-0.03424875 -0.06656648 0.011950845 0.0298094 -0.005192525 0.027632022 0.0032610316 -0.0015831639
0.027084738 -0.067165114 0.046462864 0.0046124407 0.0157851 0.019676942 -0.043062177 -0.019484203
-0.059566353 0.0021836623 -0.00992453 0.058884524 -0.022977198 0.01602964 0.014237219 0.02442562
0.023236837 -0.052546192 -0.031689297 0.06866636 -0.058356192 0.03286244 0.023396878 -0.039028876
-0.07781233 -0.020411173 0.00049502566 -0.037419178 0.0020646662 0.0033846665 0.050322477 0.02593067
-0.097511746 0.0034556296 0.02056129 -0.007742584 -0.059799735 0.0066071 0.07257363 -0.06103363
-0.0356579 0.04256344 0.03439561 -0.07959493 -0.041875497 0.05033015 -0.0100373 0.03380014
-0.09895607 -0.0033968042 -0.038912836 -0.05675943 -0.001390122 0.052426357 -0.05736783 -0.032739777
0.08887929 0.04071114 -0.025700502 -0.014500339 0.07456604 0.005145384 -0.07945147 -0.035296794
00000000: d292 983d af43 483d 2203 54bd bc56 a83d
00000010: 912c 8abc 46de 413d 4ad6 763d d201 523c
00000020: 2d8b 433c bd95 e73c f3db e7bc 3938 5c3d
00000030: cd5d bd3c 898c 873d 8004 abbc aca3 3dbd
00000040: c4af 98bd 91db 4f3d ce88 5abb 0f9e 443b
00000050: 1da6 643d 9db0 46bc c273 283d ee99 3ebc
00000060: 1d93 413d a1da 1cbd 4a53 c53c 6390 41bc
00000070: f3fc 96bd 1023 dcbc 126e c23d dcbf 003b
00000080: cdf7 e73c 4dac b83c 9d83 8f3d 25b8 21bd
00000090: 2426 9fbd 4879 293d 5b32 bc3c cbef 4abd
000000a0: e0ef 3e3d 6e66 50bb bf99 093d d4bd ad3b
000000b0: 724f 4b3d 6370 2cbd cbf1 88bd e74d 57bd
000000c0: 1007 9a3c 6eb1 bdbc c407 7a3d 06f9 143c
000000d0: 8b75 e93c 7de0 853d d871 02bd 1979 8f3d
000000e0: 1996 53bc 6e7b 47bd 04a9 45bd 3742 523d
000000f0: 8406 c7bc 117f 1b3c 4d96 353b 8381 2b3d
00000100: 7ca7 e53c 280e a6bd 5bc9 1f3c f0f6 af3d
00000110: 7250 2f3d 2d4e d93c 9f02 3dbd 6f69 333c
00000120: 2b03 e43b fef8 76bd c8bb 13bb 17d6 f0bc
00000130: 4ab4 14bd 7a04 bb3d ee20 abbc 545d 0bbd
00000140: b6f1 8abc 213b e53d f126 6e3c 7b8b b73c
00000150: 75fd f5bb 252f 37bd 6aa5 653a 5153 99bb
00000160: 9eba 9339 d583 15bc 1585 073d b28f ab3c
00000170: 75ca 9cbb 7f41 e73c f02e 2b3c 1934 353d
00000180: d1e1 d2bc a27c 96bd 6a61 ddbc 7f62 c3bd
00000190: 08bc 3abd 64ce 4c3d f2b1 403d 8542 bd3d
000001a0: 4857 e03c e5a6 e8bd 4b78 8cbc 6ee9 76bc
000001b0: 3ae6 a03d dc2f f73c 42c8 9e3b 5217 7ebd
000001c0: 44ff 423d 5ca2 ce3b e38f 6dba 721f 6e3d
000001d0: 211a 24bc d90e d5bb 284a a1bd c504 1f3c
000001e0: 45a5 643d cc8c 86bc 90f0 743d 72ac 63bd
000001f0: a4f1 843d 975c cabd 3167 873c 8bee 163d
00000200: fcd7 76bd fcbb 8abd 24b7 0dbb b5b1 c43c
00000210: c0af e83b 54b1 b43c 293b 533c fd24 1e3d
00000220: 930a 293d ac98 5bbd 5b2a 0bbd 03f9 85bd
00000230: 7c5d 9b3c 2518 553d 651b 6f3d d41e 1fbc
00000240: 421d 963d c137 e1bd 2527 c2bb e06e 893b
00000250: cd68 7fbd 356b 66bd 257c fd3c 42cb d73c
00000260: c4b8 ecbb 6305 3cbd 5636 bcbb d121 9c3d
00000270: 3ace a6bc cc02 9dbd 3183 43bd 1419 403d
00000280: 6d07 7fbd 8303 003c dd81 0abd 8a16 d5bc
00000290: 9d70 8f3c 03e4 103d 9a7c 8b3a dd0b f03c
000002a0: b0bf 8abd 34d4 1c3d 7dd8 113d 0046 bbbc
000002b0: 1925 88bd b410 71bd 3881 6bbd d52b 4bbd
000002c0: 30d6 993d b9b7 45bd e5ca 80bc c9fb 5fbd
000002d0: 2edc 7f3d 521c 1fbd cc79 4abd fde4 56bd
000002e0: 6b48 0cbd 0254 88bd 7acd 433c d832 f43c
000002f0: 0f26 aabb 8d5c e23c 08b7 553b 2a82 cfba
00000300: d0e0 dd3c dd8d 89bd d84f 3e3d f523 973b
00000310: c14f 813c 8a31 a13c f761 30bd 569d 9fbc
00000320: d9fb 73bd c61b 0f3b 7f9a 22bc e630 713d
00000330: ad3a bcbc 9750 833c 3943 693c 3d18 c83c
00000340: 2e5b be3c ad3a 57bd a3cc 01bd f3a0 8c3d
00000350: e706 6fbd c49a 063d cfaa bf3c bedc 1fbd
00000360: 125c 9fbd 5535 a7bc 9cc4 013a da44 19bd
00000370: 5a4f 073b 48d1 5d3b f11e 4e3d 8e6c d43c
00000380: 3db4 c7bd d877 623b 2770 a83c 81b5 fdbb
00000390: 91f0 74bd 5f80 d83b 7ca1 943d 66fe 79bd
000003a0: 050e 12bd 0057 2e3d 69e2 0c3d ab02 a3bd
000003b0: a485 2bbd fd26 4e3d 7d73 24bc 0472 0a3d
000003c0: 7ba9 cabd eb9c 5ebb 1163 1fbd 937c 68bd
000003d0: c134 b6ba 05bd 563d 88fa 6abd 251a 06bd
000003e0: 5806 b63d b9c0 263d dc89 d2bc d492 6dbc
000003f0: 14b6 983d 9c9a a83b 74b7 a2bd 5f93 10bd

conv3.bias f4 [32]
-0.02699072 0.04998557 0.06729583 -0.011607512 0.036498535 0.025234386 0.03490449 0.018060962
0.05519565 -0.027663602 0.006313121 -0.052273616 -0.026167007 -0.025547577 -0.019118031 0.03288758
-0.017599111 0.05007392 -0.057326224 0.0037520414 0.061693363 -0.052295238 0.015301944 0.024432655
-0.02993143 -0.00062186073 0.041385375 0.030941375 -0.061599765 -0.066699095 -0.056354754 0.05081506
00000000: a41b ddbc abbd 4c3d 65d2 893d 6f2d 3ebc
00000010: 7d7f 153d 58b8 ce3c 03f8 0e3d 95f4 933c
00000020: d514 623d c79e e2bc 4cde ce3b dc1c 56bd
00000030: 315c d6bc 2749 d1bc 6b9d 9cbc 21b5 063d
00000040: 032c 90bc 501a 4d3d e7ce 6abd cfe4 753b
00000050: 2eb2 7c3d 8833 56bd 01b5 7a3c fe26 c83c
00000060: c232 f5bc 5e04 23ba b683 293d c478 fd3c
00000070: 0950 7cbd 8999 88bd 3ed4 66bd 7423 503d

bn3.weight f4 [32]
1.2319651 1.1986381 1.2388864 1.1964562 1.2022836 1.1620697 1.1468055 1.1910558
1.206209 1.1993833 1.1957579 1.1565758 1.1848335 1.178295 1.1631552 1.2065297
1.2107965 1.2154931 1.1499184 1.1989936 1.179902 1.1636355 1.2702036 1.1911421
1.2421601 1.2395319 1.136664 1.1803616 1.1650037 1.1945475 1.1973165 1.0686203
00000000: 08b1 9d3f f96c 993f d493 9e3f 7a25 993f
00000010: 6ee4 993f b3be 943f 86ca 923f 8474 983f
00000020: 0e65 9a3f 6485 993f 980e 993f ad0a 943f
00000030: a0a8 973f 5fd2 963f 45e2 943f 916f 9a3f
00000040: 61fb 9a3f 4795 9b3f 8730 933f 9f78 993f
00000050: 0707 973f 02f2 943f 0896 a23f 5877 983f
00000060: 1aff 9e3f fba8 9e3f 357e 913f 1716 973f
00000070: d71e 953f efe6 983f ab41 993f 8dc8 883f

bn3.bias f4 [32]
0.09940023 0.07580678 0.10754335 0.12274472 0.06739846 0.05635938 0.08794826 0.075820506
0.10169966 0.0793163 0.08618288 0.0439122 0.06699508 0.048736673 0.076395474 0.08390876
0.10532913 0.07592232 0.052909855 0.06571912 0.055995878 0.059061825 0.14345224 0.087873325
0.121345796 0.10951827 0.074109174 0.07544876 0.09820097 0.07202742 0.09742171 0.028735336
00000000: 5992 cb3d 9640 9b3d b03f dc3d 9561 fb3d
00000010: 3408 8a3d 18d9 663d 381e b43d c847 9b3d
00000020: e947 d03d 9670 a23d a680 b03d 47dd 333d
00000030: b734 893d 1ba0 473d 3b75 9c3d 5bd8 ab3d
00000040: cdb6 d73d 297d 9b3d 01b8 583d bf97 863d
00000050: ef5b 653d d0ea 713d 25e5 123e eef6 b33d
00000060: 2584 f83d 1d4b e03d 8dc6 973d e184 9a3d
00000070: 971d c93d 1d83 933d 0985 c73d 5e66 eb3c

bn3.running_mean f4 [32]
0.0084460415 0.08595772 0.34272182 0.4339315 0.20287254 -0.063686244 0.05390987 -0.38294083
0.4535381 0.32574636 0.2562066 -0.30030456 0.031251553 -0.4621911 0.6100391 -0.2666032
-0.09509308 0.32236168 -0.26671773 0.51693213 0.07153007 -0.020158812 -0.26266396 0.13044903
-0.3324596 -0.19636573 0.5510014 0.11503222 0.07398637 0.2201379 0.15281071 -0.27073917
00000000: 4461 0a3c 9a0a b03d 3c79 af3e 452c de3e
00000010: d2bd 4f3e ef6d 82bd 99d0 5c3d d210 c4be
00000020: 2536 e83e 3ac8 a63e 832d 833e 85c1 99be
00000030: a101 003d 50a4 ecbe 862b 1c3f 3780 88be
00000040: 29c0 c2bd 970c a53e 3a8f 88be aa55 043f
00000050: 5b7e 923d 1824 a5bc e47b 86be 6e94 053e
00000060: 2538 aabe 1914 49be 6e0e 0d3f 0396 eb3d
00000070: 2a86 973d d46b 613e 697a 1c3e 539e 8abe

bn3.running_var f4 [32]
0.09868053 0.22241348 0.1307709 0.11884876 0.14106597 0.11701646 0.17029054 0.100759976
0.12982261 0.10614793 0.07545438 0.0997008 0.11624077 0.24775207 0.123369426 0.11125812
0.1115881 0.097634904 0.08017695 0.13103104 0.11241648 0.16109616 0.118611686 0.14218064
0.09625899 0.11898466 0.14415407 0.22836511 0.14515814 0.12418733 0.10870693 0.18259764
00000000: 0519 ca3d 5cc0 633e cfe8 053e fb66 f33d
00000010: 9973 103e 53a6 ef3d a560 2e3e 3f5b ce3d
00000020: 38f0 043e 1664 d93d d387 9a3d ef2f cc3d
00000030: a40f ee3d b8b2 7d3e 1ca9 fc3d 4cdb e33d
00000040: 4d88 e43d cff4 c73d d033 a43d 002d 063e
00000050: 9d3a e63d 64f6 243e afea f23d cd97 113e
00000060: 6f23 c53d 3bae f33d 209d 133e 8bd8 693e
00000070: 56a4 143e ed55 fe3d bda1 de3d e0fa 3a3e

fc1.weight f4 [4, 128]
-0.004337817 -0.16152057 0.03159362 0.11536431 -7.123756e-05 0.012124912 -0.18368338 0.0845046
-0.15121537 0.19112396 -0.05291302 0.06098588 0.035002768 -0.055367377 0.047742486 -0.020880336
0.040988687 -0.197873 -0.06692705 -0.138744 0.15491696 0.016483076 0.11617695 -0.17526478
-0.06453113 -0.07253036 0.022511577 -0.07095926 -0.026110243 -0.095021926 0.041395977 -0.043975946
0.04958156 -0.1435547 0.0135687115 0.0213891 0.13167797 0.1346785 -0.0428454 0.09841612
0.07221021 -0.058673482 -0.098272376 -0.12396601 0.14220499 0.119218774 0.16082975 0.17183691
-0.08399167 -0.09265437 -0.079570256 0.04544813 -0.1612932 -0.10632883 0.086997986 0.045831323
0.07469105 0.11423179 0.052046243 0.04369966 -0.034210503 0.08095512 -0.20960985 -0.021521412
0.18019499 -0.1536905 -0.07197352 -0.11548057 0.15118597 0.03420295 -0.17104805 0.113847524
0.09868582 -0.050926495 0.17554036 0.10503244 0.1484793 -0.082661055 -0.15243791 -0.052814394
0.030410103 -0.108120844 0.11266917 0.09604297 -0.21435603 -0.05776065 -0.124331936 0.08928485
-0.19503741 -0.09270981 0.08581688 0.060902845 -0.05459509 -0.07646196 -0.18326119 -0.011903656
-0.16619895 0.21404316 0.026750062 0.038231395 -0.03140892 -0.101792164 0.09808272 0.04199125
-0.057366617 0.1217719 0.0982697 0.008720036 -0.18760782 -0.049850874 -0.028534846 0.018253194
0.09615425 0.03989545 -0.121131465 0.064684905 0.0065476396 -0.010692237 -0.032477725 0.03022751
0.18466653 -0.019294472 -0.053288836 -0.051128566 -0.057015236 0.062938645 0.11362118 0.09413576
0.14405012 0.19864917 -0.057240773 0.04749095 -0.15890405 -0.081125036 0.023976555 -0.0012525769
0.028226364 -0.04842 0.058116853 0.062924474 0.13140978 -0.15109009 -0.044245448 0.13442977
0.056131404 0.07312048 0.08632893 -0.15936388 -0.097656585 -0.0010374247 -0.13252483 -0.091630496
-0.0748809 0.0109587535 -0.22219259 0.09437109 -0.06365199 -0.051144697 0.0578458 -0.10766128
0.1576645 -0.12228239 -0.025678484 0.112032704 -0.05374366 -0.17610833 0.09862943 -0.16455418
0.13477986 -0.10211346 0.022906808 0.14583446 0.07034846 -0.17566296 -0.052681386 -0.13614142
0.097317636 -0.14792237 0.08872666 -0.03856836 0.058500335 -0.1220017 -0.1795848 -0.0458021
-0.10319905 -0.086530834 0.099955775 0.13293333 0.107048474 -0.12273354 0.13291772 -0.01105904
-0.20049205 -0.080876134 0.10144915 0.031512775 -0.020500137 0.019786444 0.19203006 -0.10509742
0.027625684 -0.08583698 -0.1657107 0.024634443 0.11207469 0.09161492 0.013570222 0.0038262564
0.10470651 0.109759755 -0.10673401 0.07043086 0.14601795 -0.010159153 0.050753046 -0.13220637
-0.18645665 0.009423318 -0.16132307 0.098395586 0.19480267 -0.05692212 0.06798461 -0.017927317
0.11683297 -0.23993018 -0.12871523 0.074869946 -0.03572088 0.17094845 -0.10249269 -0.128805
0.13934103 0.023932261 0.09746848 0.07799482 -0.07187003 -0.03265325 0.028942527 -0.12613058
0.046174075 -0.16917233 -0.0586294 -0.043963358 0.14458568 0.01837942 0.09550828 0.09046078
-0.118097104 0.14891067 0.1427178 -0.049315732 -0.07806403 -0.13518517 -0.018631266 -0.036287263
00000000: 3f24 8ebb a665 25be 5068 013d 2044 ec3d
00000010: 6065 95b8 91a7 463c 7f17 3cbe bf10 ad3d
00000020: 34d8 1abe 00b6 433e 53bb 58bd 55cc 793d
00000030: 105f 0f3d e7c8 62bd a08d 433d 3d0d abbc
00000040: c1e3 273d 389f 4abe 0d11 89bd e812 0ebe
00000050: 8da2 1e3e 8407 873c 2eee ed3d 9c78 33be
00000060: e628 84bd cc8a 94bd 336a b83c 1753 91bd
00000070: 26e5 d5bc db9a c2bd d48e 293d 1f20 34bd
00000080: 0916 4b3d 0100 13be 4d4f 5e3c 3238 af3c
00000090: 97d6 063e 29e9 093e a87e 2fbd 648e c93d
000000a0: f2e2 933d 9b53 70bd 0743 c9bd e4e1 fdbd
000000b0: 2f9e 113e f928 f43d 8eb0 243e 04f6 2f3e
000000c0: d303 acbd 93c1 bdbd bbf5 a2bd d227 3a3d
000000d0: 0b2a 25be eec2 d9bd 002c b23d a0b9 3b3d
000000e0: 9ff7 983d 5bf2 e93d 712e 553d 6afe 323d
000000f0: 5020 0cbd cccb a53d f7a3 56be ac4d b0bc
00000100: 0985 383e 0b61 1dbe da66 93bd 1481 ecbd
00000110: 7fd0 1a3e 6418 0c3d 3827 2fbe e428 e93d
00000120: cb1b ca3d 4d98 50bd dac0 333e 3f1b d73d
00000130: f50a 183e 334a a9bd af18 1cbe e853 58bd
00000140: 9c1e f93c 766e ddbd 18bf e63d 2db2 c43d
00000150: 2680 5bbe 6e96 6cbd bea1 febd fada b63d
00000160: e3b7 47be a4de bdbd c3c0 af3d 4375 793d
00000170: 1a9f 5fbd 1798 9cbd d2a8 3bbe 8d07 43bc
00000180: 0f30 2abe 212e 5b3e f222 db3c 8698 1c3d
00000190: a4a6 00bd 6978 d0bd 98df c83d 04ff 2b3d
000001a0: 42f9 6abd 8c63 f93d a041 c93d 7bde 0e3c
000001b0: 441c 40be 6e30 4cbd e9c1 e9bc b987 953c
000001c0: 85ec c43d 6969 233d c613 f8bd 8579 843d
000001d0: 958d d63b 7e2e 2fbc 5d07 05bd af9f f73c
000001e0: 3919 3d3e 710f 9ebc 6545 5abd 306c 51bd
000001f0: cf88 69bd fae5 803d 39b2 e83d 40ca c03d
00000200: e081 133e b06a 4b3e 4d75 6abd df85 423d
00000210: beb7 22be e224 a6bd 7b6a c43c 822d a4ba
00000220: fa3a e73c 0d54 46bd f00b 6e3d 8cde 803d
00000230: 4990 063e 5cb7 1abe b73a 35bd f5a7 093e
00000240: 0bea 653d 31c0 953d 39cd b03d 4930 23be
00000250: 2d00 c8bd 32fa 87ba 97b4 07be c5a8 bbbd
00000260: 285b 99bd 588c 333c 7486 63be a145 c13d
00000270: f95b 82bd 1a7d 51bd b8ef 6c3d 847d dcbd
00000280: cd72 213e 316f fabd af5b d2bc 6771 e53d
00000290: 5022 5cbd be55 34be 3afe c93d e480 28be
000002a0: bb03 0a3e dd20 d1bd 0fa7 bb3c a155 153e
000002b0: da12 903d fee0 33be 70c8 57bd a868 0bbe
000002c0: 784e c73d f678 17be 53b6 b53d dbf9 1dbd
000002d0: 0c9e 6f3d 07dc f9bd 14e5 37be fc9a 3bbd
000002e0: 065a d3bd 1437 b1bd 9db5 cc3d ad1f 083e
000002f0: 3b3c db3d b95b fbbd 951b 083e fa30 35bc
00000300: ca4d 4dbe 63a2 a5bd 92c4 cf3d 8a13 013d
00000310: e7ef a7bc 2e17 a23c 87a3 443e 513d d7bd
00000320: 424f e23c 4ccb afbd 11b0 29be 2cce c93c
00000330: 6a87 e53d 9aa0 bb3d a355 5e3c eec1 7a3b
00000340: 5e70 d63d b9c9 e03d 5c97 dabd 0e3e 903d
00000350: bb85 153e 9372 26bc 6de2 4f3d 1b61 07be
00000360: 7eee 3ebe 4364 1a3c e031 25be a083 c93d
00000370: 5a7a 473e 2b27 69bd 843b 8b3d 4fdc 92bc
00000380: 2046 ef3d 42b0 75be edcd 03be 6a55 993d
00000390: 0f50 12bd 1c0d 2f3e b0e7 d1bd 75e5 03be
000003a0: 6aaf 0e3e 970d c43c 8e9d c73d c0bb 9f3d
000003b0: 9830 93bd 6abf 05bd e118 ed3c 6028 01be
000003c0: 0721 3d3d 833b 2dbe 6225 70bd ec12 34bd
000003d0: 450e 143e 7090 963c d899 c33d 8043 b93d
000003e0: e5dc f1bd 0a7c 183e 9d24 123e 4bff 49bd
000003f0: 09e0 9fbd fb6d 0abe 99a0 98bc f4a1 14bd

fc1.bias f4 [4]
-0.07757688 -0.0012370711 -0.053450096 0.012394773
00000000: a1e0 9ebd 3825 a2ba 7dee 5abd 7213 4b3c
