pths/classifier_train.pth (torch, 61572 bytes, 20 tensors)

conv1.weight f4 [32, 1, 3]
000000 4b 55 08 be 55 34 68 3e 1c a1 06 3f 09 7e e8 bd
       -0.13313787 0.22676213 0.52589583 -0.11352164
000010 76 91 24 3e 8c b2 05 3e 9d b2 02 3d ff e1 bb 3e
       0.16071114 0.13056391 0.03190862 0.3669586
000020 ce f8 d5 3e 23 d1 40 bc 29 f6 f8 3e d4 71 29 be
       0.41791385 -0.011768612 0.48625305 -0.16547328
000030 99 40 b8 bd 23 5f 10 3f f2 18 d1 3e e7 e6 c3 3e
       -0.08996696 0.5639517 0.40839344 0.38262102
000040 cc b5 ad be 2a 46 7d be bf ba c0 3e 39 85 5d bd
       -0.33927763 -0.24733797 0.37642476 -0.05408213
000050 a8 61 7e bd 97 c3 82 3e 0a a8 83 be 4e 52 f2 3e
       -0.06210485 0.25539848 -0.2571414 0.47328418
000060 47 b7 e4 be 19 16 ff bc 51 b2 60 be 7a 05 04 bf
       -0.4467108 -0.031138467 -0.21943022 -0.51570857
000070 47 a7 f3 be 21 3d 03 bf b3 ce 6f bd e3 4a 97 3c
       -0.4758856 -0.5126515 -0.058546733 0.018468326
000080 64 36 8c 3e 7b 66 e6 3e f8 52 04 bf 36 27 a3 3d
       0.27385247 0.4500006 -0.516891 0.07966463
000090 70 f3 0e bf 96 31 bc be e2 15 13 be 3c 1a 27 bd
       -0.55840206 -0.3675658 -0.14363816 -0.040796503
0000a0 cd 63 17 be 12 5b 9e 3e 46 6c 8f 3c 62 19 15 be
       -0.14784165 0.30928856 0.017507683 -0.14560464
0000b0 df b8 ff be e8 a1 37 3e fb b4 8b bd 3d e8 24 bd
       -0.49945733 0.17932856 -0.06821629 -0.040260542
0000c0 22 7c cb 3e 08 2a a0 be 04 e2 05 bf a1 df dc 3e
       0.39743143 -0.31282067 -0.52298 0.43139365
0000d0 a2 7a a7 be f8 f0 fb be 70 8b 20 be be 44 ea be
       -0.3271075 -0.49207282 -0.15678191 -0.4575557
0000e0 22 67 02 bf 41 a4 03 bf d2 1a 5a bd df 20 de 3c
       -0.5093862 -0.51422507 -0.053248234 0.027115284
0000f0 1e 5a 07 bf fc bb d4 be 03 c5 de be 2f 50 95 3d
       -0.5287188 -0.4154967 -0.43509683 0.072906844
000100 7d 66 01 bf a4 fc 05 3f 4a a8 b6 be c5 f6 0e bf
       -0.5054701 0.52338624 -0.3567527 -0.5584529
000110 8a 04 dd be 16 59 f7 3e 6f 34 c7 be 46 4c d6 3e
       -0.43167526 0.48310155 -0.3890719 0.41855067
000120 d7 e7 4a bc 96 b8 f8 3d b8 63 51 3e 75 f9 81 3e
       -0.0123843765 0.12144582 0.20448196 0.25385633
000130 92 88 c6 3e 50 ae 8c be 9b 57 47 3e c9 90 51 be
       0.3877607 -0.2747674 0.19467013 -0.20465387
000140 76 8a 81 3e d8 73 29 be 01 0e 2c 3e 21 6d 86 3d
       0.2530095 -0.16548097 0.16802217 0.065637834
000150 e9 11 c4 be de 8b dd be 44 f7 2e be 9d 43 23 3d
       -0.38294914 -0.43270773 -0.17086512 0.039859403
000160 76 33 11 bf 88 d1 b7 be 4f 2e 52 3e fd 6c 97 3e
       -0.5671915 -0.35902047 0.20525478 0.2957534
000170 a7 f6 9b 3c da 02 cf be a6 ff 8a be 03 80 86 3e
       0.019038511 -0.40431863 -0.2714817 0.2626954

conv1.bias f4 [32]
000000 8f 8d 99 be be f0 03 3f 8b c4 ee be 9f 16 d4 3d
       -0.29990813 0.5153922 -0.46634325 0.10355877
000010 32 b7 4a 3d b3 9d f0 be 02 87 a6 3d 2b f0 85 3e
       0.049491115 -0.46995315 0.081312194 0.26159796
000020 01 41 c9 bd 62 3c 0e 3f e1 4e 59 be b0 d8 fa be
       -0.09826852 0.55560887 -0.21221496 -0.48993444
000030 32 6f ba 3e 7e 98 b9 3c a3 75 41 be 63 9a 83 3e
       0.3641296 0.022655722 -0.18892531 0.25703725
000040 e8 bf 02 bf 5a 46 32 be 8e e5 ed 3e 33 82 0b 3f
       -0.51074076 -0.1740965 0.464642 0.54495543
000050 87 30 35 bd 98 24 b2 3e 4d e3 48 3e d3 fe 74 bd
       -0.044235732 0.34793544 0.19617958 -0.05981333
000060 74 54 3e be 2d 23 dc 3e 8a eb f3 3e 13 65 79 bd
       -0.18586904 0.42995587 0.4764064 -0.060887408
000070 a5 71 4f be a2 1b 86 3e ab d4 36 3e 92 a4 24 be
       -0.20258196 0.26192957 0.17854564 -0.16078404

bn1.weight f4 [32]
000000 fe 15 80 3f d9 8d 81 3f a2 b6 80 3f 0f 3e 7d 3f
       1.0006711 1.0121413 1.0055735 0.9892282
000010 c6 81 81 3f f4 ec 7e 3f eb 46 81 3f 98 5c 7e 3f
       1.0117729 0.9958031 1.0099767 0.99360037
000020 57 e8 7f 3f 46 55 82 3f 96 74 7e 3f af 80 82 3f
       0.999639 1.0182273 0.99396646 1.0195521
000030 75 28 81 3f e8 6a 7b 3f 23 9b 81 3f e1 18 7d 3f
       1.0090472 0.9821 1.0125469 0.9886609
000040 f5 ab 7f 3f d8 37 81 3f a4 3d 81 3f 31 3c 80 3f
       0.9987176 1.0095167 1.0096936 1.0018369
000050 f2 37 82 3f c3 bb 7e 3f e2 fc 7d 3f 5b ce 7f 3f
       1.0173323 0.9950525 0.99213994 0.9992425
000060 a0 5e 80 3f d0 20 7c 3f 5e cb 80 3f 78 1c 7f 3f
       1.0028877 0.9848757 1.0062063 0.99652815
000070 2b 4b 7e 3f e8 e3 80 3f 10 22 7f 3f 61 5e 81 3f
       0.9933345 1.0069551 0.9966135 1.0106927

bn1.bias f4 [32]
000000 5e 0b 11 ba c7 57 3a 3c f9 f7 4b ba 08 8c 2b bc
       -0.0005533005 0.011373467 -0.0007780786 -0.010470398
000010 fa 7c 13 3c 52 67 4a bb 87 46 fb 3b 27 35 23 bb
       0.009001965 -0.0030884338 0.0076683196 -0.0024903507
000020 61 b5 23 bb 85 19 9c 3c e9 a8 93 bc 41 8e b3 39
       -0.0024979936 0.019055137 -0.018024879 0.00034247528
000030 02 ee 1a 3c 7a 45 af 3a 0b a2 4b 3c 89 34 45 bc
       0.00945616 0.0013372146 0.012428771 -0.012036451
000040 dc 5a c0 3a 73 bb bf 3b 16 bc 8b 3c 8d 14 a5 39
       0.0014675516 0.005851203 0.01705746 0.00031486564
000050 5d f0 a9 3c cf 4b bb 3b d0 9c 9f bb 99 7d a7 38
       0.020744497 0.005715824 -0.0048709884 7.986575e-05
000060 84 6c f3 3b 0f 8a 6b bc cc 9a c8 3b 4d ce 5c bc
       0.0074287076 -0.014376177 0.006121969 -0.01347692
000070 33 1a 06 bb 87 de 21 3c cf 0f 51 bb bf e3 4e 3c
       -0.0020462393 0.009879715 -0.0031900292 0.012627541

bn1.running_mean f4 [32]
000000 6d 29 48 be 5c aa 0b 3f 39 47 a9 be b1 a8 20 3e
       -0.19547053 0.5455682 -0.3306215 0.1568935
000010 0e 6a 4a 3e 42 d8 01 bf 3c ed f9 3d 66 97 ac 3e
       0.19767019 -0.5072061 0.12203452 0.33709258
000020 cd 7e 57 be c2 42 9e 3e dc 95 31 be 1a 1e fc be
       -0.21044464 0.30910307 -0.17342323 -0.49241716
000030 74 d2 41 3e 93 90 2a 3d 9c 3f 96 be fd 40 8a 3e
       0.18927938 0.041641783 -0.29345405 0.27002707
000040 ac 3b 16 bf 2c 26 78 be 97 5f 8e 3e 9b af ea 3e
       -0.586848 -0.24233311 0.27807304 0.458371
000050 30 5f 8a be ac 97 b8 3e b9 12 d8 bc 30 dd a2 3c
       -0.27025747 0.36053216 -0.026376115 0.019880861
000060 15 e9 08 be 18 92 fb 3e ed 69 03 3f f9 57 43 bd
       -0.13370164 0.49134898 0.51333505 -0.04769132
000070 51 25 bb be 00 d5 e9 3d 1b 52 87 3e 04 48 68 be
       -0.36551908 0.1141758 0.2642983 -0.22683722

bn1.running_var f4 [32]
000000 c4 99 0e 3d c6 b7 4c 3b a4 59 67 3d 5f 3f 2c 3c
       0.03481461 0.0031237467 0.056481972 0.010513156
000010 c6 79 8a 3d 82 c6 c6 3b 2d f2 d1 3b 78 17 a5 3c
       0.06761508 0.0060661444 0.0064070434 0.020152792
000020 b2 23 23 3d 14 24 40 3e c8 83 ab 3b 03 88 4f 3b
       0.039828964 0.18763763 0.0052342154 0.0031666763
000030 f8 97 c2 3d d6 f9 1a 3b 2a a9 0c 3d fe 1e 32 3a
       0.09501642 0.002364745 0.034341015 0.00067947793
000040 43 b2 ab 3c be 08 90 3c 5c d9 d9 3d 38 fa cc 3c
       0.020959025 0.017582294 0.10637161 0.025021657
000050 ab ff 20 3e 83 b6 bc 3b cb ea 1a 3e aa d2 c2 3c
       0.1572253 0.005759062 0.15128629 0.023782093
000060 08 e5 0a 3c 62 dd 68 3c 03 fd b4 3b 6d d7 64 3a
       0.008477457 0.014212938 0.0055233254 0.00087296107
000070 db 74 a6 3d 30 d5 89 3d a2 15 bc 3c ab 9c 86 3c
       0.08127757 0.067301154 0.022959534 0.016432127

conv2.weight f4 [64, 32, 3]
000000 0a 0b e5 bc 96 26 cc bd 22 35 9f 3d 95 b3 84 bd
       -0.027959365 -0.09968297 0.07773806 -0.06479565
000010 bc 2f 90 3c a4 a4 24 bd 2b a8 52 bd 67 2e 24 3c
       0.017600887 -0.040196076 -0.05142991 0.010020829
000020 ac c4 4a bd 6e f8 8a 3c 7a 63 b7 bd 9b 1e 90 bd
       -0.049503967 0.016964164 -0.089545205 -0.070370875
000030 56 ac 7f bd d9 cb d6 bc 23 b9 8c bc 50 5f 4f bc
       -0.06242021 -0.026220249 -0.017178124 -0.012657002
000040 31 01 c1 3c d1 4a d8 bc 1c e3 c4 bd b7 8e b8 3d
       0.023560138 -0.026402863 -0.0961363 0.09011596
000050 e5 55 2f 3c 57 ca 71 3d 5b 54 32 bd 7a b6 65 bd
       0.010701631 0.059030857 -0.04353748 -0.056082226
000060 aa 78 69 bd bf cf a4 bd d4 5e 89 bc 6c 89 e7 3c
       -0.05699984 -0.08047437 -0.01676885 0.02826377
000070 45 4e c6 3d 1e e7 81 bd 95 a1 bd bd ea 7b 3a bc
       0.096828975 -0.0634291 -0.09259335 -0.0113820825
000080 13 a3 05 bd 33 55 e2 bd 8a 6b 70 3d 1b 02 77 ba
       -0.032626223 -0.11051407 0.058696307 -0.0009422616
000090 29 b4 38 bd 0b fe c2 3d 4f b1 34 3b 1d 0a 55 3d
       -0.04509369 0.09521111 0.0027571504 0.052011598
0000a0 76 e3 e4 bd 25 74 a6 3d 94 83 e9 3b 11 8c a9 3d
       -0.11176197 0.081276216 0.007126281 0.08278669
0000b0 02 d4 85 bd 90 63 56 3a 48 ef 75 3d 1c d9 54 bd
       -0.06534578 0.0008178288 0.06004265 -0.051964864
0000c0 a1 cc b5 bd 38 2e 9b 3d 80 63 1b 3d df d9 b8 3d
       -0.088769205 0.07577175 0.037936687 0.090259306
0000d0 d3 51 bd bd 61 7b 19 3d 6b aa 7c 3d 14 ed c6 3d
       -0.09244122 0.03747118 0.06168596 0.09713188
0000e0 80 38 9e 3d 13 6c b1 bd 4a 71 37 bd 8a c1 81 3c
       0.0772562 -0.08663192 -0.044785775 0.015839357
0000f0 cb 1b 04 3d 28 9f b0 bd c1 8b a1 3d e1 65 6c bd
       0.032253068 -0.08624107 0.07887984 -0.057714347
000100 da e3 38 bd 4c 05 b1 b9 02 91 e9 bb 78 c7 ae 3d
       -0.04513917 -0.00033764017 -0.007127882 0.085341394
000110 65 f2 cc 3d 4a d1 8f bc 75 7d 6b 3d 0c 89 d0 bd
       0.100071706 -0.017555851 0.057492692 -0.101823896
000120 a5 19 9a bd 0a 3c b9 bc c2 6a 23 bd 21 cc 93 3d
       -0.075244226 -0.022611637 -0.039896734 0.07216669
000130 87 bf 8b 3d dc 95 13 bc 51 ac 80 3d 8b d9 bf 3d
       0.0682364 -0.009007897 0.06282867 0.09367665
000140 a2 c4 9d 3d 2c 1f 50 3d 3a fd 9e bc 26 97 3a 3d
       0.0770352 0.050810978 -0.019407857 0.045554303
000150 14 f1 e5 3c 56 e0 91 bd 95 c0 15 3a c0 59 0d bd
       0.028069057 -0.07122867 0.0005712596 -0.03450942
000160 6b c2 0d bb 99 4c 8c bd c1 65 92 bd 2e 46 e0 bd
       -0.0021630775 -0.06850547 -0.07148314 -0.10950886
000170 bf ae 61 3d 8f 3c 85 3c 65 98 1d 3d 5f df 11 3d
       0.05509829 0.016264228 0.038475413 0.035613414
000180 0f 78 6d bd e2 5d 1a 3d a3 d7 28 3d 8a 58 4a bc
       -0.057975825 0.03768719 0.041221272 -0.012350211
000190 63 cc a5 bd 8b 99 0f 3d ab 0b 93 3d 6b 3d c2 bd
       -0.08095624 0.03505854 0.0717996 -0.09484371
0001a0 b6 64 b8 3d 72 21 81 3d 16 e9 4a 3c ad 9d 1d 3d
       0.09003584 0.06305207 0.012384674 0.03848045
0001b0 93 72 25 bd f8 81 9b bc 8c bb 30 3d f2 76 a4 bd
       -0.04039247 -0.018982872 0.04314761 -0.080304995
0001c0 d4 8a ba bb a4 40 ee 3c e6 80 0c bd 8f 7a 73 3d
       -0.005692819 0.029083557 -0.034302615 0.059443053
0001d0 fe 96 84 3d e8 5e 05 3d 5e 15 4b bd b7 fc 73 3d
       0.06474112 0.032561213 -0.049580924 0.05956718
0001e0 35 5b 67 3c 91 fc 19 3d 4c 2f 8e 3c 93 0b 37 bd
       0.014120867 0.03759438 0.017356537 -0.044688772
0001f0 bd e3 1e 3b 54 f1 8b 3d 55 f5 e5 3b ed e1 a0 bd
       0.002424463 0.06833139 0.0070177712 -0.07855592
000200 1c ff a4 bd 7a 25 9c 3d be a2 e8 3c df fa 83 bd
       -0.08056471 0.076243356 0.028397914 -0.06444334
000210 09 f4 cb bd 6c ba b9 bd 83 05 c0 bd 43 96 8e bb
       -0.099586554 -0.0906876 -0.09376051 -0.0043514087
000220 f3 3e 37 3c 6b d2 ae 3d c6 4a 94 3d fd d6 77 bc
       0.011184442 0.08536228 0.072408244 -0.015126941
000230 c9 c0 a3 3d 78 c6 cb 3d 65 c7 14 3c 85 12 05 bd
       0.07995755 0.09949964 0.0090807425 -0.032488365
000240 5f 19 81 3d a4 9c 76 3d bd 0d 04 bd 26 85 47 bd
       0.06303667 0.060207978 -0.032239664 -0.048710965
000250 bc 45 a9 3d 42 64 bd bc e7 d5 37 3d f4 8a bf 3d
       0.08265254 -0.023119096 0.044881728 0.09352675
000260 e0 72 3e bd 98 4f 91 3d 5e 06 79 3c de d2 9a 3c
       -0.046496272 0.070952594 0.015199272 0.018899377
000270 73 da 06 bc d3 12 b3 bc b3 52 21 ba 6c 0c af 3c
       -0.008230793 -0.021859562 -0.0006153986 0.021368228
000280 81 0c e8 3a 6d b2 7e bc 70 c8 9a bc 98 d6 58 bd
       0.0017703922 -0.01554547 -0.018894404 -0.052939028
000290 ca 8f 8d 3d 8a 58 b7 3d 75 fd 05 bd 3c 1c 44 3d
       0.06912191 0.08952434 -0.03271242 0.04787849
0002a0 95 b9 e5 bc 07 13 a9 3c 2a b6 8d 3d de 8d 98 bd
       -0.028042594 0.020638956 0.06919511 -0.07448934
0002b0 b4 5b e2 3c 4f 82 9f 3d c1 41 2a 3d be 64 47 bd
       0.027631618 0.07788526 0.041566614 -0.04868006
0002c0 9d 96 dd 3d ce 7a 12 3c 4d 3d 96 bd 3f 9f a2 3c
       0.10819743 0.008940412 -0.07335911 0.019851325
0002d0 dd 32 7f bd a7 3e aa bd bd 5a f0 bc 05 f2 86 bd
       -0.062304366 -0.08312731 -0.029340142 -0.0658913
0002e0 0e 27 32 3d a5 81 fd bc bc 11 c4 3c e0 7c 38 3d
       0.043494277 -0.030945608 0.023934238 0.045040965
0002f0 a9 9b 00 bd a2 27 96 3d cf 69 eb 3c 20 50 68 bd
       -0.03139845 0.07331778 0.028736977 -0.05671704
000300 3d 08 a7 bd c0 07 a5 3d 27 22 a0 bd 78 10 1a 3d
       -0.08155868 0.08058119 -0.07819014 0.037613362
000310 86 85 b5 3c b1 74 27 bd 21 8f d2 bd d7 15 cb bd
       0.022158395 -0.04088277 -0.10281206 -0.09916275
000320 82 7a 03 3b ea 7d 37 bd 43 1f 4e 3d f3 b2 86 3d
       0.0020062034 -0.044797815 0.050322782 0.065771006
000330 b8 ed 63 bb a9 21 8e bb f2 24 c6 bd a6 19 b6 3d
       -0.0034779143 -0.0043375087 -0.096750155 0.08891611
000340 4e f8 0a bd bd b2 40 3b 49 f9 80 bd b0 18 dc bd
       -0.033928208 0.0029403411 -0.06297547 -0.10746896
000350 6f d6 d0 bd 26 9b c4 bd 16 83 91 3d bf 52 99 bd
       -0.1019715 -0.09599905 0.07105081 -0.07486486
000360 70 a5 b0 3d e7 87 bb 3d 26 f4 7a bc 68 c1 d2 bc
       0.08625305 0.09156781 -0.015316999 -0.025726989
000370 3d 47 04 3d c1 1d 6c bd 3c 97 ac 3d fd 9b a7 3d
       0.0322945 -0.057645563 0.08427283 0.08184049
000380 7c d1 c9 bd a1 d6 72 3d 37 57 e2 bc f4 9c b4 3d
       -0.09854409 0.059286717 -0.027629478 0.08818999
000390 c0 ad 78 bc 2b 3a 4c 3d e3 4b df bc 0e 12 a9 3d
       -0.015178144 0.04986016 -0.027257865 0.08255397
0003a0 2a fd ad bd 3c 9b 87 bd 2b 1c b5 3d 59 dc 49 3d
       -0.08495553 -0.066214055 0.08843263 0.049282406
0003b0 77 d8 c0 3a a9 b7 22 3d 0c 38 bd bc 4c 31 73 3d
       0.0014712949 0.039725933 -0.023098014 0.059373185
0003c0 4c a8 68 bd 95 c0 88 3d 02 60 69 3c ab f1 59 bc
       -0.056801125 0.06677357 0.014244081 -0.013302247
0003d0 3b 62 a3 bc 68 f2 89 3d f2 18 c4 3c 7c 28 94 bd
       -0.0199443 0.067356884 0.023937676 -0.07234284
0003e0 cd 69 d4 39 e7 8e 88 3b 8e fc 4f 3d 8a 15 8d 3d
       0.0004051462 0.004167426 0.050777964 0.06888874
0003f0 7b 21 90 bd 5f c6 bb bd 3f 0e 23 3d 82 99 cc bc
       -0.07037636 -0.09168696 0.039808508 -0.024975542

conv2.bias f4 [64]
000000 5b 3e fb 3c 30 f5 67 3d a4 af 84 3d 62 e7 9c bc
       0.030669382 0.056630313 0.06478813 -0.0191533
000010 3e c2 9d bd bd 9c 83 3c dc e5 9d bd 1e 57 f2 3c
       -0.077030644 0.01606595 -0.07709858 0.029582556
000020 d3 da cb 3d b4 a8 c6 3d e6 96 84 bd 63 6d 4f 3d
       0.09953847 0.09700146 -0.06474094 0.05064143
000030 58 97 bb ba 10 b6 72 bd a7 26 47 bd e0 96 a4 3d
       -0.0014312072 -0.05925566 -0.048620846 0.080365896
000040 9e 49 8a bc 69 1b 75 3d 56 de a0 bd c8 38 77 3d
       -0.016880807 0.059840593 -0.07854907 0.060356885
000050 8c 40 92 bd 3e d9 95 bc 0a e3 9e bd 75 34 b9 bc
       -0.071412176 -0.018292066 -0.07758148 -0.022608021
000060 92 d7 88 bd b9 29 ba 3d 75 db 95 bd 72 7f 74 ba
       -0.06681742 0.09089989 -0.07317249 -0.0009326852
000070 27 48 26 3d 33 0a 4a bd b6 af 58 bd f1 8c 15 bd
       0.040596154 -0.049326133 -0.052901946 -0.036511365
000080 e0 6b 8c 3d 84 5d a2 3d 5c 8f ab bd 7e 02 12 bd
       0.06856513 0.07927993 -0.08376953 -0.035646908
000090 e0 90 3a 3c 91 75 67 bc 3b c8 04 3d 5c a4 a2 3d
       0.01138708 -0.014127151 0.032417517 0.07941505
0000a0 dc 8b 27 3d aa 32 09 bd 81 15 3a 3d b3 85 b4 3d
       0.040904865 -0.033495583 0.045430664 0.088145636
0000b0 4b 55 a7 bd d0 d2 b4 bd 8a a3 96 3d 5f 2d af bd
       -0.08170565 -0.08829272 0.07355411 -0.08553576
0000c0 97 f3 a1 3d 91 29 24 bc 03 84 97 3c 46 b3 d6 bc
       0.07907789 -0.010019676 0.018495565 -0.026208531
0000d0 63 b3 90 bd c8 d2 f8 bc 16 cf 3b 3d c1 92 22 3d
       -0.07065465 -0.030373946 0.04585179 0.039690737
0000e0 e1 ce 9d bd 38 f4 16 bd b2 57 b0 3d d6 a9 8e bd
       -0.07705475 -0.036854 0.086104766 -0.069659874
0000f0 40 69 94 3c 77 9f e9 bc b3 d4 79 3b c3 60 b0 bd
       0.018116593 -0.028518422 0.0038121163 -0.08612206

bn2.weight f4 [64]
000000 06 72 7d 3f c1 ed 7f 3f d7 8e 82 3f 3d 78 7d 3f
       0.9900211 0.9997216 1.0199841 0.99011594
000010 6b 5f 7c 3f 24 ef 80 3f e6 0b 81 3f 0a 8d 7c 3f
       0.98583096 1.007298 1.0081756 0.9865271
000020 f6 c5 82 3f d2 af 7d 3f 47 b2 7e 3f d5 19 7f 3f
       1.0216663 0.99096406 0.9949078 0.9964879
000030 69 96 80 3f e7 42 81 3f 80 54 81 3f 66 b7 80 3f
       1.0045902 1.0098542 1.0103912 1.0055969
000040 df 14 7e 3f 79 99 80 3f d2 91 7e 3f 80 75 82 3f
       0.99250597 1.0046836 0.99441254 1.0192108
000050 4a 4a 82 3f 2c a9 7f 3f 5e 3d 7f 3f a8 f0 7d 3f
       1.0178921 0.9986751 0.99703014 0.9919534
000060 5f 58 7c 3f 7e 7b 7d 3f 58 d0 7d 3f 5b 8d 7d 3f
       0.98572344 0.9901656 0.9914603 0.99043816
000070 f0 c1 7e 3f 5e 81 7e 3f f0 ff 81 3f 4e d0 7e 3f
       0.99514675 0.9941615 1.0156231 0.995366
000080 6e 26 82 3f 60 e7 7f 3f 29 5e 81 3f 6d 7d 82 3f
       1.0167978 0.99962425 1.010686 1.0194527
000090 57 f6 7f 3f f6 1b 7f 3f 02 16 82 3f 56 80 81 3f
       0.9998526 0.9965204 1.0162966 1.011729
0000a0 c5 43 81 3f 9d c3 7d 3f 32 f4 81 3f f0 24 7e 3f
       1.0098807 0.9912661 1.0152647 0.9927511
0000b0 bc d4 7c 3f a2 cd 80 3f 1c 98 80 3f 7b f4 7e 3f
       0.98762107 1.0062754 1.004642 0.995918
0000c0 8f 92 7d 3f a5 0e 7d 3f fa 73 80 3f 7d 95 7e 3f
       0.99051756 0.9885047 1.0035393 0.9944685
0000d0 6e 85 7e 3f a4 0f 7e 3f 86 98 7c 3f b0 6d 7a 3f
       0.9942235 0.99242616 0.9867023 0.9782362
0000e0 99 26 82 3f 5b 11 7e 3f e5 60 80 3f 9e c3 80 3f
       1.0168029 0.9924523 1.002957 1.0059698
0000f0 40 fc 80 3f d3 b2 7c 3f 2b f9 7a 3f 10 ec 7c 3f
       1.007698 0.98710364 0.9803645 0.987977

bn2.bias f4 [64]
000000 4a 5d d7 bb bc c2 86 3b d9 c9 ab 3c 02 f8 06 bc
       -0.0065724 0.0041125696 0.020970272 -0.008237841
000010 e0 08 59 bc e5 d4 7d 3c ca 8b ec b9 52 c6 81 bc
       -0.013246745 0.015492653 -0.0004511758 -0.015841637
000020 3f b8 ba 3c 54 85 10 3b 95 23 03 3c e6 6f 55 bc
       0.022792934 0.0022052126 0.008004089 -0.013027167
000030 b1 5c 32 3c f7 95 63 3c 71 bb 14 3c 1a 29 b6 3b
       0.010886357 0.013890735 0.009077893 0.005559099
000040 ec dc c5 3a 01 1d db 3b 53 f2 93 bb b7 3f e8 3c
       0.0015095747 0.006686807 -0.0045149713 0.028350694
000050 36 b4 b0 3c d9 42 d4 3a ba d0 fb b9 a8 e4 75 ba
       0.021570306 0.0016194239 -0.00048029964 -0.0009380081
000060 8d 5a 80 bc b4 de c9 bb b2 ec cb bb 67 ad 10 bc
       -0.015668178 -0.0061605815 -0.0062232846 -0.008830405
000070 3d ed bf bb f4 73 89 3b 6c bc 9c 3c 09 ee 04 bc
       -0.0058571384 0.004194731 0.019132815 -0.008113393
000080 c3 b7 f9 3c b4 65 05 bc 2d d3 c4 3b 4a cd 86 3c
       0.030483132 -0.008141924 0.0060066194 0.016455311
000090 83 ca 95 bb ba 1a 3b 3b 9d 27 5b 3c 5d 2f ad 3c
       -0.0045712604 0.0028549866 0.013376144 0.021140749
0000a0 4c 88 2b 3c 8d bb 7e bc 73 ea 0c bc 4c c4 22 bb
       0.010469507 -0.015547645 -0.008600819 -0.002483624
0000b0 c9 85 fa ba b0 cd 87 3c 3b eb 9e 3b 33 3e 36 bb
       -0.0019113357 0.016577572 0.004849819 -0.002780807
0000c0 cc 49 01 3c af 34 05 bc 78 9c 88 3c 53 ee 9a bb
       0.00789113 -0.0081302365 0.016676173 -0.0047281175
0000d0 35 19 2a 3c 9a ee 3b bb 64 c0 0c bc b6 16 80 bc
       0.010381986 -0.0028676153 -0.008590791 -0.01563583
0000e0 5e b2 db 3c a5 2c 27 bc 3c 34 bc 3c ec b2 da 3b
       0.02681845 -0.010203515 0.022974126 0.006674161
0000f0 ec 78 79 3c 8d 1c 5f bc b5 29 f1 bb 9d fb 6e bc
       0.015226584 -0.013617647 -0.007359708 -0.0145863565

bn2.running_mean f4 [64]
000000 42 5f d5 bd 12 a9 8b 3e 39 b8 70 be 4d 57 77 3e
       -0.104185596 0.27277428 -0.23507775 0.24154396
000010 65 bf 53 be 04 06 70 3e 8b b4 1f 3f a9 d6 63 3e
       -0.2067848 0.23439795 0.6238486 0.22249855
000020 b9 0e e8 3d 7c 8d 88 bd b1 c2 aa be 8a 8f 57 3e
       0.11330933 -0.06667611 -0.33351663 0.2105085
000030 c9 6c 4c 3e d2 ee c4 be 46 25 34 bc 3e 51 86 be
       0.19963373 -0.38463455 -0.010995215 -0.26233858
000040 cd 9e 87 be 20 66 10 be 81 5a e5 3d a6 10 48 3e
       -0.26488343 -0.14101458 0.11198903 0.19537601
000050 95 a6 69 3c 1e 48 e9 be fa a2 21 3d e0 fe 6e bd
       0.014260908 -0.45562834 0.039462067 -0.058348536
000060 bd e5 66 be 21 81 84 3e b4 06 b0 be ab d1 ba be
       -0.22548576 0.25879768 -0.34380114 -0.3648809
000070 0c 01 1e be 76 67 5c bd 29 cb 62 be 0b 8e db 3e
       -0.15430087 -0.053809606 -0.22147812 0.42881808
000080 94 fb 57 3e 50 47 43 3e 96 50 a7 be e2 2b 21 bd
       0.21092063 0.19070172 -0.3267867 -0.03934849
000090 08 cf f4 3e 25 df cf bb 05 04 83 3e e5 06 19 3e
       0.47814202 -0.0063437396 0.25589004 0.14944036
0000a0 c6 9d 16 be ea 6a 01 be 21 81 07 be c0 b1 b6 be
       -0.14708623 -0.1263844 -0.13232853 -0.35682487
0000b0 e1 4f 12 3e 2b a3 13 be 9c 91 2d be fd 07 18 be
       0.14288284 -0.14417712 -0.16950077 -0.14846797
0000c0 72 c4 99 3d 40 60 e7 bc b8 2b 65 be fe a1 e3 be
       0.07508172 -0.028244138 -0.22379959 -0.44459528
0000d0 27 3a 70 be 02 2e 60 bd b9 ad 21 be 02 a2 5a 3e
       -0.23459683 -0.054731376 -0.15788926 0.21350864
0000e0 92 2a 7f 3d cd 22 b6 bc 9b 21 79 3d 9f 63 89 3e
       0.062296458 -0.022233391 0.060823064 0.26833817
0000f0 46 3a 76 be c4 df c3 3e 0a 15 8b be 32 fc 21 3c
       -0.24045667 0.38256657 -0.2716449 0.009886788

bn2.running_var f4 [64]
000000 10 95 95 3e 00 f6 46 3e 05 74 e3 3e aa 22 83 3d
       0.29215288 0.19429779 0.44424453 0.06403096
000010 40 b9 c4 3d 08 aa e7 3e 5f 78 b0 3e e0 f4 d9 3e
       0.09605646 0.4524691 0.34466836 0.42569637
000020 3e 9f 85 3d 57 ea 67 3d b7 7a 56 3d 76 1f ba 3d
       0.06524514 0.05661997 0.052363124 0.09088032
000030 79 d4 a5 3e 6c 85 74 3d bc 53 8f 3e 5a 9b c2 3d
       0.32388666 0.059697554 0.27993572 0.09502287
000040 02 5b 22 3e 36 e9 50 3f 6e 24 d3 3e 9b 25 0d 3e
       0.15855029 0.8160585 0.4123873 0.13783877
000050 25 68 83 3c 4e 38 9e 3c aa 0a 1f 3f c1 bb c3 3d
       0.01604087 0.019313958 0.6212565 0.095572956
000060 45 b7 b7 3d 39 68 d5 3e 4e 98 15 3e aa 60 74 3d
       0.08970503 0.41681078 0.14608881 0.0596625
000070 45 2a 37 3e b5 5a 1c 3e 8d 74 3d 3f 5e f0 9f 3e
       0.17887218 0.15268977 0.7400597 0.31238073
000080 70 6c 0c 3e e2 7d 58 3e 5c ee d6 3c db d4 08 3e
       0.1371324 0.2114177 0.026236705 0.13362448
000090 33 9b 8d 3e 06 56 eb 3d 77 e8 e8 3d a7 53 c4 3d
       0.2765747 0.11491017 0.11372464 0.09586268
0000a0 a4 3d 17 3d 8a e2 45 3e 26 ba bc 3d 31 4e 85 3e
       0.03692402 0.19324699 0.092151925 0.26036218
0000b0 d2 02 c8 3e 9e 97 c3 3c 1c b2 43 3e c0 94 9b 3d
       0.39064652 0.023876008 0.19110912 0.07596731
0000c0 7d 1a 16 3d 78 f4 66 3e 0a 70 63 3e 8f 02 87 3e
       0.036646355 0.22554195 0.22210708 0.2636914
0000d0 1a 68 8c 3c d7 e3 bb 3d f9 7c f3 3e 33 fc 40 3d
       0.017139483 0.091743164 0.47556284 0.047115516
0000e0 a3 50 56 3e 82 eb 7e 3d e1 76 e8 3d 7b c6 89 3e
       0.20929198 0.062236317 0.11350799 0.2690924
0000f0 5f 58 ba 3c d0 d1 b2 3e e0 fb 9a 3e 28 83 8e 3e
       0.022747217 0.349257 0.3027029 0.2783444

conv3.weight f4 [32, 64, 3]
000000 c2 6b 5d 3d 4b dd 1c 3d 89 cd 3d bd 7e 7c ce 3c
       0.054057844 0.03829698 -0.04633859 0.025205847
000010 90 f8 da bc 6d 42 8c 3d 37 c9 30 3d db dd c8 3c
       -0.026729852 0.06848607 0.043160643 0.024519851
000020 de 38 d9 3c 2a 8a 71 3c 17 a5 81 bd 88 f7 8d 3c
       0.026516374 0.014742414 -0.063303165 0.017329946
000030 22 09 81 3c 58 e5 93 3d 39 91 5c bc 7b 06 b5 bc
       0.015751425 0.07221478 -0.013462358 -0.022097817
000040 1f 75 51 bd b5 da 58 3c 18 32 46 3b e2 56 17 3d
       -0.051137086 0.013235738 0.003024226 0.036948092
000050 75 bc 3b 3d 30 2e c3 bb 16 12 8b bc 81 27 f6 3b
       0.045834024 -0.0059564337 -0.016976397 0.0075120335
000060 85 57 26 3d e1 68 05 bd 3f 75 94 3c 04 58 f0 bc
       0.04061081 -0.032570723 0.018122314 -0.029338844
000070 f4 e2 6e bd 5c 84 ef bb 4f 85 a2 3d 05 91 85 bc
       -0.058321908 -0.0073094796 0.07935583 -0.016304502
000080 a7 1e 07 3c e5 1d 9e bc a1 e0 1b 3d 4e aa 29 bd
       0.008247054 -0.019301364 0.03805602 -0.04142218
000090 08 ce 5e bc 60 59 5c 3d f3 ea 9c 3c 97 12 60 bd
       -0.013598926 0.053796172 0.019155001 -0.05470523
0000a0 30 c1 1a 3d 79 be 1a bc 69 90 86 3c 60 a4 9a 3c
       0.037781894 -0.009444826 0.016426282 0.018877208
0000b0 e1 5e 78 3d 23 ba 86 bd 94 33 51 bd 4a 56 5a bd
       0.06063736 -0.065784715 -0.05107458 -0.053304948
0000c0 29 18 56 3c 71 3e 56 bd c2 00 3e 3d 78 b4 aa 3c
       0.013067284 -0.052305643 0.04638744 0.020838007
0000d0 b0 0e 46 3d 32 36 71 3d 42 39 99 bc 9c 8e 5a 3d
       0.04835385 0.058889575 -0.01870406 0.05335866
0000e0 4a aa 18 3b 3d 74 25 bd 21 de 82 bd f6 72 a8 3d
       0.002329486 -0.040394057 -0.06390024 0.08225052
0000f0 c3 ac 48 bd 88 f2 b7 bb c6 ad 20 bd 5c e8 e5 3b
       -0.048992883 -0.005613629 -0.039228223 0.007016225
000100 7d 42 f5 bb 78 04 02 bd 24 f3 df ba cf 6c 28 3d
       -0.0074847327 -0.031742543 -0.0017086011 0.041119393
000110 6a d4 11 3d 34 79 e3 3c 9e 36 8e bd 8b 0d 4a 3d
       0.035602964 0.027767755 -0.06944011 0.04932932
000120 d7 78 1c bc b1 fa 63 bd 21 ac 80 3d 6b 35 24 bc
       -0.009550295 -0.055659 0.06282831 -0.010022501
000130 0c 85 5a bd b6 c3 96 3d 41 1a 94 3c aa e7 36 bc
       -0.05334954 0.07361548 0.018078925 -0.011163631
000140 e3 02 8e bd f9 92 70 3d 21 fe 6e bd 92 26 28 3c
       -0.06934144 0.058733914 -0.058347825 0.010263102
000150 ed 91 db bc 62 4d dd bc 06 1b 26 3d 14 48 ee 3b
       -0.026802981 -0.027014438 0.040553115 0.007271776
000160 e5 9b 82 bd b4 9a 03 3c ea 11 49 3d b5 1b 78 bc
       -0.06377391 0.00803249 0.04908935 -0.015143325
000170 8d ee 91 bd 30 8c 4c bb 9a 1e 0f bd a7 bf 2d 3d
       -0.07125578 -0.0031211488 -0.034941293 0.042419102
000180 94 88 aa bc 42 db 50 bd 81 3d 39 bd 1e b2 55 bd
       -0.020817079 -0.05099035 -0.04522467 -0.05217182
000190 a4 6d 82 bd 4f 2a aa bc ea 6b 7b bc 39 e5 ef 3c
       -0.063685685 -0.020772127 -0.015345553 0.029284107
0001a0 6b 7f ca 3c 1e 2a 9e bd 79 e8 c9 3a 13 dd 98 bd
       0.02471896 -0.07722877 0.0015404365 -0.074640416
0001b0 2f 48 42 3d be 49 60 3c 8a 97 94 3c 63 3a 8a bd
       0.04743212 0.0136894565 0.018138666 -0.06749418
0001c0 9c 5c 43 3d 13 63 0a 3d e5 62 e2 bb 22 3e 42 3d
       0.04769574 0.03378589 -0.006908762 0.047422536
0001d0 12 9c 24 3c 3a e0 14 3d e7 4f 8e bd 27 db 45 3b
       0.010046976 0.03634665 -0.06948834 0.003019044
0001e0 be 00 02 3d 6a 42 95 ba 83 ed 45 3d 8b 87 83 bd
       0.03173899 -0.0011387591 0.048322212 -0.06422337
0001f0 2a 8e 23 3d dd a5 f2 bc 31 a1 b1 bc 97 72 9e 3b
       0.0399305 -0.029620105 -0.021683307 0.0048354375
000200 69 9d b2 bd 33 7e b6 bb 22 2b 0f 3d 48 0a 30 3d
       -0.0872143 -0.0055692433 0.034953244 0.042978555
000210 c5 dc cf bb fd fb 48 3c de 96 c0 3c 0d 36 3d 3d
       -0.0063434565 0.01226711 0.02350944 0.046194125
000220 1d 5a ad 3c 48 e4 96 ba 54 ba 02 bd 77 4d 4c bd
       0.021161133 -0.0011512125 -0.031915978 -0.049878564
000230 d1 a5 34 bd 60 c5 02 3d 36 3c 88 3d d3 c5 ec bc
       -0.044103447 0.031926513 0.06652109 -0.028902924
000240 c5 14 87 3d f3 24 6b bd 9f 6e 20 3c af 18 ed bc
       0.06595758 -0.057408284 0.009791999 -0.028942434
000250 a2 c9 59 bd 0a b3 24 bd 22 7b 13 3d 77 a6 07 3c
       -0.053170808 -0.040209807 0.0360061 0.008279434
000260 58 55 b8 bc 14 bf 22 bc 3e 3a 1f ba 75 c2 9a 3d
       -0.022501633 -0.009933252 -0.00060740474 0.07556621
000270 18 15 e1 bc 67 52 ad bc 25 2d 8c bd 22 fa 88 3d
       -0.027475879 -0.021157457 -0.06844548 0.06688334
000280 2c a7 f0 bc 93 8e a9 3c fa 5b f4 bc 84 79 98 bc
       -0.029376589 0.020697867 -0.029829014 -0.01861263
000290 c4 91 0e bc d6 7a 6d 3d df 52 71 bd de 76 77 3c
       -0.008701745 0.057978474 -0.058916923 0.015104024
0002a0 71 e4 15 bd c4 b2 69 3d 95 37 63 3d b4 3f 21 bd
       -0.03659481 0.05705525 0.05547293 -0.039367393
0002b0 a7 79 a6 bd 70 1b 27 3b 00 08 32 bd da b8 38 bd
       -0.08128672 0.0025498532 -0.04346466 -0.045098163
0002c0 f7 4f 54 3d 64 5a 2b bd 7b cf 96 3c b9 ff 30 bd
       0.051834073 -0.04183425 0.018409481 -0.043212626
0002d0 98 19 e5 3c 2b b5 84 bd cc 91 18 bd 69 84 9e bd
       0.027966306 -0.064798675 -0.037248418 -0.07740099
0002e0 de 23 00 bd 47 25 8c bd 73 61 43 3c 58 af 17 3d
       -0.031284206 -0.068430476 0.011925089 0.037032455
0002f0 b1 f0 f4 bc a1 b5 2d 3d 44 b0 a3 3b 06 c4 be 3c
       -0.029899927 0.042409543 0.0049953777 0.02328683
000300 3f a0 66 3d 89 7b 9f bd 7f 07 00 bb 65 d4 2c 3d
       0.056305166 -0.07787234 -0.0019535718 0.042194743
000310 bd fd 3c 3c 21 00 a9 bc 51 80 6d bd 0f e1 a3 bd
       0.011535105 -0.020629944 -0.0579837 -0.08001911
000320 21 93 6c bd e1 76 df 3c ba a6 70 ba 73 02 44 3d
       -0.0577575 0.027278366 -0.00091801176 0.0478539
000330 07 36 e8 bc 9a 37 66 3c 7b 6f 75 3c ef 33 dd 3c
       -0.028346075 0.014051342 0.014980192 0.027002303
000340 88 4f 2b 3d 8e 06 89 bd 47 a5 16 bd 7b f2 5d 3d
       0.041823894 -0.06690703 -0.036778715 0.054186326
000350 34 a7 69 bd 42 7c 46 3d 90 34 9a 3d ee dc 44 bd
       -0.057044223 0.048458345 0.07529557 -0.048062257
000360 4e 09 93 bd c0 ed 90 bd 66 6f 93 3c 2b 75 7b bc
       -0.07179509 -0.07076597 0.017997455 -0.015347759
000370 92 7b 18 bc 39 11 ad bc 9e 01 e2 3c f5 e7 a2 3c
       -0.009306805 -0.021126376 0.027588662 0.019885996
000380 7c c5 7e bd e7 ea 5e bb 63 ae 2b 3c 62 02 e6 bc
       -0.062200055 -0.0034014524 0.010478589 -0.028077308
000390 77 c9 e9 bc 56 52 37 3d cd db fd 3c 33 de 9c bd
       -0.028538449 0.044756256 0.030988598 -0.07659569
0003a0 6e ff 13 bd 59 7a ed 3c 83 11 2e 3d 5f 44 02 bd
       -0.03613227 0.028989004 0.04249717 -0.031803485
0003b0 27 ed 61 bd 15 ba 27 3d d5 87 6e bc d1 f1 1c 3d
       -0.055157807 0.040948946 -0.014558752 0.03831655
0003c0 94 2e 91 bd 36 e1 a9 3c ae 96 64 bd 9b 7c 49 bd
       -0.07088962 0.020737272 -0.05580776 -0.0491911
0003d0 d2 ac dc bc ff b4 4d 3d 82 55 53 bd 21 76 62 bc
       -0.026937876 0.05022144 -0.05159522 -0.013822109
0003e0 5c 4e 0d 3d b7 72 84 3c 09 71 b5 bc 53 6e a7 bd
       0.034498557 0.016167982 -0.022148626 -0.081753395
0003f0 ac ce 3a 3d d0 a3 d3 3c 27 7e 64 bd 5f 3e ec bc
       0.045607254 0.025834948 -0.05578437 -0.028838335

conv3.bias f4 [32]
000000 f4 84 f9 bc bc 76 49 3d a9 2c 88 3d 29 b9 2f bc
       -0.030458905 0.0491855 0.06649143 -0.010725298
000010 fc 8e 18 3d 16 1c d9 3c 96 2e 0d 3d 6e 01 8a 3c
       0.037245736 0.02650265 0.034468256 0.016846385
000020 38 6f 60 3d b2 74 d1 bc df 47 f6 3b 75 5d 60 bd
       0.054793566 -0.02556834 0.007515892 -0.054776628
000030 8a 09 d0 bc 9d e2 c8 bc 23 96 81 bc 5e 05 19 3d
       -0.025395174 -0.02452212 -0.015818661 0.037358634
000040 d9 15 3c bc 2a 85 54 3d a7 5d 68 bd 39 be db 3b
       -0.011479818 0.051884808 -0.05672994 0.006706026
000050 2a c1 7e 3d 38 64 5a bd 84 cf 6f 3c 43 d0 e0 3c
       0.062195934 -0.053318232 0.014636878 0.027443057
000060 58 4e 18 bd 31 2b 97 bb 93 84 1f 3d f7 d8 fc 3c
       -0.03718409 -0.004613303 0.038944792 0.030865176
000070 56 61 82 bd 3f 73 8b bd b2 5a 65 bd 39 c6 4d 3d
       -0.063662216 -0.06809091 -0.055994697 0.050237868

bn3.weight f4 [32]
000000 a5 d3 80 3f 6a 6a 80 3f e1 ed 86 3f ba d6 7e 3f
       1.0064589 1.0032475 1.0541345 0.99546397
000010 46 42 81 3f fd 58 82 3f fd bc 81 3f fa 5e 81 3f
       1.009835 1.0183407 1.01358 1.010711
000020 e5 d4 81 3f d6 48 7e 3f 59 9a 81 3f 40 b1 81 3f
       1.0143095 0.9932989 1.0125228 1.0132217
000030 4d 7b 82 3f f3 3f 82 3f e3 95 82 3f 40 02 84 3f
       1.0193878 1.0175766 1.0201992 1.0313187
000040 59 3c 7c 3f 28 2c 7f 3f e6 a3 80 3f 69 91 83 3f
       0.98529583 0.9967675 1.0050018 1.0278751
000050 05 2b 83 3f 59 96 81 3f c8 05 87 3f 1d 9d 83 3f
       1.0247504 1.0124007 1.0548639 1.0282322
000060 9b ef 83 3f ad a3 85 3f b2 f9 82 3f bf f6 7e 3f
       1.0307497 1.0440575 1.0232451 0.99595255
000070 2b 7b 7c 3f b3 5c 85 3f af e1 7e 3f 5a 28 83 3f
       0.9862544 1.0418915 0.99563116 1.0246689

bn3.bias f4 [32]
000000 ce 7d d8 bb e7 5a 0d 3a 54 95 5d 3d 1a b4 73 3c
       -0.006606794 0.00053922686 0.05409749 0.0148744825
000010 86 02 e4 3b 47 f7 f5 3c d8 11 ef 3b b8 51 7b ba
       0.0069583086 0.030025138 0.0072958283 -0.0009587067
000020 db fe e7 3c 40 4a af 3b 94 b8 27 3c a5 e3 84 3c
       0.028319767 0.0053494275 0.010236878 0.01622183
000030 8d 86 80 3c e8 ae 46 3c c8 69 55 3c 92 55 73 bc
       0.015689159 0.012126662 0.0130257085 -0.0148519445
000040 19 52 b1 bc 52 19 60 bb 26 e4 83 3c 40 f3 1e 3c
       -0.021645593 -0.003419478 0.0161 0.00970155
000050 4e 7e 84 3c 89 f5 6c 3c 42 93 13 3d e4 55 eb 3c
       0.016173508 0.014462837 0.036029108 0.02872748
000060 53 34 d3 3c 23 6b 1f 3d 7c 96 0f 3d a8 83 5d bc
       0.025781786 0.038920533 0.035055622 -0.013520159
000070 b6 c2 84 bc 04 98 30 3d 1f 84 c0 bc 02 51 cb 3c
       -0.016206127 0.043113723 -0.0235005 0.024818901

bn3.running_mean f4 [32]
000000 20 50 81 be 2e da 9d be 7e 4e f7 3e 1f ac 35 3f
       -0.25256443 -0.3083052 0.48302072 0.7096576
000010 3e 12 8a 3e 64 36 da 3d f5 8e 45 bd 3e b0 f3 be
       0.26967043 0.106549054 -0.048232038 -0.475954
000020 f0 4b d0 3c 15 4d 22 3f 08 b3 b7 3e da 64 28 be
       0.025426835 0.6339887 0.35878778 -0.16444722
000030 fe b4 17 be 15 26 93 bd 11 4f 1e 3e 34 2b ca 3d
       -0.14815137 -0.07184998 0.15459849 0.098715216
000040 12 a6 cb be b2 af 5a 3e bc 6a 55 bd ea c0 78 3e
       -0.3977514 0.21356085 -0.052103743 0.24292341
000050 7c 65 0b 3e e5 fd 14 3f d2 8a 48 be da 71 ae 3b
       0.13612932 0.5819991 -0.19584206 0.0053236308
000060 8a 47 dc 3b a7 38 90 be 8d 82 53 3e 52 7f b2 3e
       0.0067223953 -0.28168222 0.2065527 0.34862763
000070 fc 70 ae 3e 21 3c 93 bd 7e 11 5a 3e 15 15 73 be
       0.34070575 -0.07189203 0.21295735 -0.23738511

bn3.running_var f4 [32]
000000 68 ee 4c 3e 3d 4d 1a 3f 36 e3 aa 3e f3 b9 2d 3f
       0.2001282 0.60274106 0.33376473 0.6786186
000010 6d a3 6c 3f 7a ee e9 3d de 8f 72 3e 8f 60 59 3e
       0.9243687 0.11422439 0.23687693 0.2122824
000020 c7 9a 02 3e b6 78 ad 3f 08 36 10 3e 32 ea 4c 3e
       0.12754355 1.3552463 0.14083111 0.20011213
000030 1b f2 10 3e 7c 22 2b 3e bf a5 7a 3e 32 18 cd 3d
       0.14154856 0.16712373 0.2447729 0.100143805
000040 d2 64 ba 3e aa e7 ce 3e 68 a4 da 3e e5 5e 02 3f
       0.36405045 0.4041112 0.42703557 0.5092605
000050 34 be bf 3e b6 c3 7d 3f 3d e0 a8 3d 7f b9 5c 3e
       0.374498 0.99126756 0.08245895 0.21555136
000060 82 76 57 3e 95 c9 84 3d 84 ec f0 3e 10 b4 bd 3f
       0.21041301 0.06483761 0.47055447 1.4820576
000070 22 01 d1 3e 9c 10 fb 3e 02 22 c5 3d 54 33 ba 3e
       0.40821177 0.4903611 0.09625627 0.36367285

fc1.weight f4 [4, 128]
000000 af 86 70 bc 2d eb 49 bd 96 03 c3 3c 02 88 82 3d
       -0.014680549 -0.049296547 0.02380542 0.06373598
000010 da ae b3 3c fa 8a ab bb 58 a3 ab bd fa 7b 82 3d
       0.021933962 -0.005235073 -0.08380765 0.06371303
000020 3e 61 75 bd 78 b5 c1 3d 67 c6 5f bc d7 b7 b0 3d
       -0.05990719 0.094584405 -0.013658143 0.08628815
000030 1c 7b 22 3d aa 5e a6 bd e3 88 b6 3c 97 bf 0a bd
       0.039668187 -0.081235245 0.02228207 -0.03387412
000040 22 fd 54 bc 00 22 d7 bd 4c 97 8b bd c5 93 aa bd
       -0.012999805 -0.10504532 -0.06815967 -0.08328966
000050 d9 48 87 3d 46 f9 94 3d f0 3c 5c 3d f4 e7 a2 bd
       0.066056915 0.07274108 0.053769052 -0.07954398
000060 11 20 25 bd a0 8c 0c bd da 5a 00 bd 15 48 3f bd
       -0.040313784 -0.034313798 -0.031336643 -0.046699602
000070 ec b3 d2 3c de 11 9c 3a 10 1d 96 3d be fe 33 bd
       0.025720559 0.001190718 0.07329762 -0.043944113
000080 b0 91 42 3d 1f c6 6e bd 33 0b 98 3c a4 b7 0b 3d
       0.04750222 -0.05829441 0.018560028 0.03411068
000090 9a 7b d2 3c 42 15 02 3c 85 c4 03 bd ff be 72 3d
       0.025693703 0.007939639 -0.032169838 0.05926418
0000a0 a9 af 69 3d f6 3c 0b bd b2 4c 7a bd 23 02 16 bd
       0.05705229 -0.033993684 -0.0611083 -0.03662313
0000b0 3d f2 91 3d 6a a3 9d 3c 8b 89 be 3d 14 14 b6 3d
       0.071262814 0.019242961 0.09303578 0.08890548
0000c0 7d 2b f7 3c d8 3a 96 bc f0 63 8f ba 79 ca 31 3d
       0.030172104 -0.018338606 -0.0010939818 0.043405984
0000d0 57 a5 c1 bd 40 58 9b bd 8d 96 87 3b 3f 74 c1 bb
       -0.09455364 -0.07585192 0.00413782 -0.00590375
0000e0 40 aa f5 3b 9c d4 dd 3c ce 9c 80 3c 39 82 c6 3c
       0.007497102 0.02707892 0.01569977 0.024232017
0000f0 e2 33 53 3d f7 28 3b 3d 36 1e a4 bd a3 cb ad bc
       0.05156315 0.045693364 -0.08013575 -0.021215266
000100 68 87 a4 3d 23 45 3c bd 9a 11 cf 3c d7 54 a3 bd
       0.08033639 -0.04596437 0.025276948 -0.07975166
000110 47 f9 a1 3d de ed 25 3d 2a 39 c4 bd a6 73 7b 3d
       0.07908874 0.04051005 -0.09581216 0.061389588
000120 b9 bd 3e 3d 41 ee 1e bd 56 de b7 3d f3 23 9a 3d
       0.046567652 -0.038801435 0.08977954 0.07526388
000130 24 61 a0 3d 15 b5 6d bd 62 18 c3 bd ab 14 4d bc
       0.07831028 -0.05803402 -0.09526135 -0.012517135
000140 89 2d 43 bb e5 b9 1a bd e6 41 7a 3c 39 52 53 3d
       -0.002978178 -0.03777494 0.0152745005 0.051592086
000150 a4 b5 a2 bd aa 5a d3 bd f1 ce ce bd dc f4 f3 3c
       -0.079448014 -0.10320027 -0.10098065 0.029779844
000160 99 6d 5e bd 9a af 93 bd 3a 9f 82 bd 03 2b 9b 3d
       -0.05430374 -0.07211228 -0.06378026 0.07576563
000170 6b a1 b7 bc cd 5e 34 bd 92 bd 9a bd a2 78 4b bc
       -0.022415837 -0.04403572 -0.07555689 -0.012418898
000180 12 43 a0 bd 79 7d 9e 3d 24 f8 18 3d 10 1f 1d 3d
       -0.07825293 0.07738776 0.03734602 0.0383597
000190 87 50 45 3d 51 9d 41 bc cd 6c 82 3a 4f b9 9f 3c
       0.0481725 -0.011817292 0.0009950638 0.019497542
0001a0 d0 5f 3a bb 68 d7 9a 3d 0e 86 88 3d 1b e3 27 bc
       -0.0028438456 0.07560617 0.06666194 -0.010247017
0001b0 18 55 8f bd 8e 23 14 bb be 8d 28 3c ff 78 86 3b
       -0.06998652 -0.00226042 0.0102877 0.0041037793
0001c0 4d a1 81 3d 31 dc a3 bc af 6e a0 bd c0 03 f5 3c
       0.06329594 -0.020002456 -0.07833611 0.029909015
0001d0 60 dd 1a 3d a8 93 31 3d db 1c 25 3d e9 47 f7 ba
       0.037808776 0.043353707 0.04031072 -0.0018866035
0001e0 16 8f 83 3d 7d 88 ea 3c b4 5a c7 bb 77 49 96 bd
       0.06423776 0.028629536 -0.0060838107 -0.07338231
0001f0 26 19 e5 bc b6 78 5d 3c cd 37 bf 3d 9e ce 97 3d
       -0.027966093 0.013517549 0.09336815 0.07412456
000200 05 07 66 3d 0b 96 92 3d d2 8f ba bd 2d cc b7 3c
       0.056159038 0.07157525 -0.09109463 0.022436226
000210 46 6d 8d bd f5 05 91 3c b2 12 ef 3a a8 f5 ae 3c
       -0.06905608 0.017703036 0.0018239825 0.021357372
000220 a4 c9 1d bd 58 f1 4a 3d 81 d6 1a 3d 16 b5 78 3d
       -0.038522378 0.04954657 0.037802223 0.060719572
000230 19 f1 c3 ba fe ee c1 bd c0 ce 5a bd 21 1c 89 3d
       -0.0014949172 -0.09469412 -0.05341983 0.06694818
000240 42 ea de 39 92 ce 8b 3c 65 0d 31 3d 13 f8 b6 bd
       0.00042517675 0.017066274 0.043225665 -0.08934035
000250 89 2f 8e 3c 20 f3 cd bc 70 cb d1 bc 69 d4 87 bd
       0.01735665 -0.025140345 -0.025609702 -0.06632311
000260 f5 53 86 bd 19 a7 05 3d 41 d8 c5 bd ce d5 36 3d
       -0.06558982 0.03263006 -0.09660388 0.044637494
000270 9a 5f 54 3d 58 45 c1 3c 84 06 61 3d 7f 58 6c bd
       0.051848985 0.023592636 0.054937854 -0.057701584
000280 f2 0d d7 3d 11 8a ec bc 41 a9 f7 bc 1f 0c 48 3d
       0.10500707 -0.028874429 -0.030232074 0.048839685
000290 bc 8f b1 bd bd df b7 bd 35 5f 53 bb c7 27 0f bd
       -0.08669993 -0.089782216 -0.0032252793 -0.034950044
0002a0 af 33 69 3d ec e5 04 bd a5 b6 11 3c ed 6e ae 3d
       0.056934055 -0.032445833 0.0088936435 0.08517251
0002b0 b0 a9 5e 3d 1c 8b 55 bd 63 af b1 bb 01 2b a3 bd
       0.054361045 -0.05213462 -0.005422519 -0.07967187
0002c0 d9 8c 83 3d 9d 92 55 bd f0 63 28 3d 3b aa a3 bc
       0.06423349 -0.052141774 0.041110933 -0.019978633
0002d0 91 c6 5a 3c 9b c4 35 bd b7 34 ae bd b6 51 78 bd
       0.013353006 -0.04437695 -0.08506148 -0.0606248
0002e0 8c e1 40 bd 93 ef 2c bd 33 6e 28 3d 69 90 18 3d
       -0.0470901 -0.042220663 0.04112072 0.037247095
0002f0 e3 bd 8b 3d ec 88 7a bd 89 d0 26 3d 5b b2 02 bd
       0.068233274 -0.061165735 0.04072622 -0.031908374
000300 53 f9 2e bd a3 c2 2d bd 75 83 cf 3d 70 62 1e 3c
       -0.042718243 -0.04242195 0.10132495 0.009667024
000310 f7 b3 3a bd 5f 4d 7d bc 45 63 81 3d 23 62 d9 bc
       -0.045581784 -0.015460341 0.06317762 -0.026536053
000320 dd ac 8e 3c 43 df 97 bd cd 59 3c bd 78 99 0b 3c
       0.017416412 -0.07415631 -0.04598408 0.0085204765
000330 2f 78 33 3d d1 06 8d 3c 8f e6 a7 bd 1a dd 60 3c
       0.043815788 0.017215164 -0.081982724 0.01372459
000340 d3 eb 33 3d 8e 84 4d 3d 3b da 8d bd 45 41 a1 3c
       0.04392607 0.050175242 -0.0692639 0.019684443
000350 df 90 4f 3d c5 60 9d bd 53 51 9e 3a dc a1 10 bd
       0.05067527 -0.07684473 0.001207868 -0.03531061
000360 4c dd b3 bd 65 35 99 bd 27 a4 bf bd ac 98 b5 3d
       -0.087824434 -0.07480887 -0.093574814 0.088670105
000370 b2 cf a0 3d 7b 2b c3 b9 be 7e 56 3c f5 58 50 bc
       0.07852115 -0.00037225694 0.013091741 -0.0127165215
000380 e4 ee 49 3d e1 fa 70 bd b5 29 6f bd ae 21 55 3d
       0.04930009 -0.058833007 -0.058389384 0.052034073
000390 d3 bd ed 3b 9c 1f 21 3d 20 04 d1 bd 33 c9 fb bc
       0.007255295 0.039336786 -0.10205865 -0.030735588
0003a0 d0 6a b4 3d 12 28 24 3d da 34 aa 3d 7c c5 74 3d
       0.08809435 0.040077277 0.08310862 0.05975865
0003b0 6b 5a cd bc bf a5 e4 3c 44 b0 58 3d e6 29 86 bd
       -0.025067529 0.027911065 0.052902475 -0.0655096
0003c0 7d 41 47 bc 7e 83 7c bd 8b f8 c2 bd a7 1b 30 bd
       -0.01216161 -0.06164884 -0.09520062 -0.04299512
0003d0 f9 58 4b 3d ae 9c 00 3d c3 cf b2 3d f0 a9 8d 3d
       0.049645398 0.03139942 0.08731034 0.06917179
0003e0 b0 c0 f9 bb 91 92 7f 3d 2d 5f 84 3d 6a 2e 08 bd
       -0.007621847 0.062395636 0.06463466 -0.03324739
0003f0 cb f4 7e bc a5 d4 48 bd 21 24 93 bb ca 23 1e bd
       -0.015561293 -0.04903092 -0.004490391 -0.03860835

fc1.bias f4 [4]
000000 dd c6 77 bd 51 52 5e 3c 21 55 5c bd f7 a6 ea bc
       -0.060492385 0.01356943 -0.053792123 -0.028644068
