pths/classifier_train.pth (torch, 61572 bytes, 20 tensors)

conv1.weight f4 [32, 1, 3]
-0.13311343 0.24242917 0.5188382 -0.11745713 0.1466295 0.14360856 -0.0091738 0.38633662
0.3996685 -0.022610668 0.48113486 -0.16558766 -0.09054795 0.57396746 0.40109283 0.36099982
-0.35076994 -0.27105725 0.39793518 -0.039175194 -0.04940708 0.27035177 -0.2507501 0.4650783
-0.43646225 -0.022593977 -0.23173322 -0.53759074 -0.44287625 -0.5267855 -0.019983925 0.052707653
0.2946001 0.45350537 -0.50785077 0.09631165 -0.5998145 -0.3380733 -0.10477624 -0.0778621
-0.15501432 0.29101908 0.020351836 -0.1294711 -0.52108705 0.2060304 -0.048755266 -0.020107849
0.36389023 -0.2843727 -0.5800956 0.40842742 -0.35430318 -0.5002763 -0.11218836 -0.47506103
-0.5290737 -0.5172262 0.0027523055 0.055074487 -0.56110686 -0.38583145 -0.43039155 0.112000674
-0.529137 0.4891028 -0.40106255 -0.4851687 -0.4204646 0.46015564 -0.43308473 0.41594294
-0.011217474 0.108737364 0.22311905 0.29354572 0.3635658 -0.280065 0.2085572 -0.2232741
0.21832934 -0.16705081 0.16572112 0.083148934 -0.35206485 -0.50670254 -0.11606684 0.07500593
-0.5875564 -0.3255245 0.19619863 0.30529937 0.023507047 -0.34437856 -0.30561844 0.30369526
00000000: e34e 08be 5a3f 783e 95d2 043f 5d8d f0bd
00000010: 0b26 163e 1f0e 133e b54d 16bc eacd c53e
00000020: 5aa1 cc3e 023a b9bc 4f57 f63e d08f 29be
00000030: 3471 b9bd 88ef 123f 0a5c cd3e f8d4 b83e
00000040: 1e98 b3be 04c8 8abe 29be cb3e 2b76 20bd
00000050: 145f 4abd 8c6b 8a3e 5162 80be be1e ee3e
00000060: fb77 dfbe 0117 b9bc 794b 6dbe 8c9f 09bf
00000070: adc0 e2be 6adb 06bf 54b5 a3bc fbe3 573d
00000080: d3d5 963e db31 e83e 8202 02bf 0b3f c53d
00000090: 718d 19bf f217 adbe ed94 d6bd 2a76 9fbd
000000a0: 13bc 1ebe 7400 953e e5b8 a63c 1294 04be
000000b0: f665 05bf a2f9 523e 9ab3 47bd 37b9 a4bc
000000c0: d24f ba3e 4c99 91be 2581 14bf 661d d13e
000000d0: 3a67 b5be 1c12 00bf 03c3 e5bd 333b f3be
000000e0: 6071 07bf f068 04bf 0660 343b c995 613d
000000f0: b3a4 0fbf b38b c5be 485c dcbe 9c60 e53d
00000100: 8675 07bf af6b fa3e 1258 cdbe 0868 f8be
00000110: 2347 d7be 8599 eb3e 48bd ddbe 79f6 d43e
00000120: 7fc9 37bc b2b1 de3d 5279 643e a04b 963e
00000130: 4c25 ba3e ae64 8fbe 0590 553e f7a1 64be
00000140: ba91 5f3e 5e0f 2bbe ccb2 293e fd49 aa3d
00000150: d841 b4be 42b7 01bf 74b4 edbd b69c 993d
00000160: 196a 16bf 26ab a6be 4be8 483e 3350 9c3e
00000170: da91 c03c 6352 b0be 057a 9cbe f27d 9b3e

conv1.bias f4 [32]
-0.2939839 0.54175603 -0.4600533 0.09945052 0.04387317 -0.47314456 0.066120744 0.25818378
-0.095180444 0.5613972 -0.21464992 -0.48246962 0.3717946 0.020154957 -0.19570239 0.25751075
-0.51126343 -0.18806323 0.45943138 0.53393555 -0.03804346 0.3451136 0.19129021 -0.056968257
-0.19449978 0.44161737 0.47138473 -0.064425536 -0.21490426 0.26234606 0.18628216 -0.15937193
00000000: 0f85 96be 86b0 0a3f 1b8c ebbe b7ac cb3d
00000010: 5ab4 333d 0140 f2be 506a 873d aa30 843e
00000020: f7ed c2bd bab7 0f3f 30cd 5bbe 4206 f7be
00000030: dd5b be3e 021c a53c 3566 48be 73d8 833e
00000040: 29e2 02bf a693 40be 973a eb3e 00b0 083f
00000050: 76d3 1bbd bbb2 b03e 95e1 433e 8c57 69bd
00000060: f32a 47be ac1b e23e 5759 f13e 89f1 83bd
00000070: dd0f 5cbe 3952 863e c0c0 3e3e 6532 23be

bn1.weight f4 [32]
0.9937312 1.0123814 1.0094575 0.9947205 0.9775431 0.99667186 0.98553944 1.0042492
0.9841151 0.9908799 0.9788822 0.9988837 1.0021349 1.0246874 1.0230714 0.9953094
0.99323523 1.0127534 0.9882579 1.0297775 0.97411174 0.9773117 0.980208 0.9844391
1.017336 1.0023586 0.98837745 1.0332794 0.9923399 0.977043 1.0031449 1.0502511
00000000: 2b65 7e3f b795 813f e735 813f 01a6 7e3f
00000010: 4440 7a3f e325 7f3f 504c 7c3f 3d8b 803f
00000020: f8ee 7b3f 4eaa 7d3f 0698 7a3f d8b6 7f3f
00000030: f545 803f f528 833f 01f4 823f 99cc 7e3f
00000040: aa44 7e3f e7a1 813f 78fe 7c3f c0cf 833f
00000050: 635f 793f 1931 7a3f e9ee 7a3f 3304 7c3f
00000060: 1138 823f 494d 803f 4e06 7d3f 8042 843f
00000070: fd09 7e3f 7d1f 7a3f 0d67 803f a16e 863f

bn1.bias f4 [32]
-0.00073682267 0.01384492 -0.037307333 0.008462309 -0.016350402 -0.0402046 -0.0113846045 0.016021093
-0.05867127 -0.050554212 -0.05023865 -0.012789146 0.002633339 -0.0032983006 0.032159597 0.017833116
0.01849853 0.01993113 0.004435403 0.049608678 0.021749495 -0.021950977 -0.035562836 -0.00023953231
-0.018048162 0.013489813 -0.010796649 0.010574072 -0.032740932 -0.019991469 -0.009075514 0.010831249
00000000: 5527 41ba ced5 623c 93cf 18bd 7fa5 0a3c
00000010: 47f1 85bc 94ad 24bd 7e86 3abc ab3e 833c
00000020: 4951 70bd ef11 4fbd 0bc7 4dbd 9189 51bc
00000030: 1994 2c3b 4d28 58bb c8b9 033d c116 923c
00000040: 3b8a 973c 9c46 a33c db56 913b 7832 4b3d
00000050: ff2b b23c 89d2 b3bc 56aa 11bd f72a 7bb9
00000060: bdd9 93bc 6004 5d3c 6ee4 30bc df3e 2d3c
00000070: 5b1b 06bd 26c5 a3bc 77b1 14bc 8d75 313c

bn1.running_mean f4 [32]
-0.019965516 0.6192357 -0.123505324 0.22918496 0.4295858 -0.5945759 0.19104841 0.4592842
-0.38361007 -0.07872597 -0.073349185 -0.47683358 -0.066899106 0.045467515 -0.46763065 0.3120968
-0.73522425 -0.39001477 -0.021205539 0.34657022 -0.62150747 0.37002292 -0.36563802 0.12128542
-0.055838715 0.60054266 0.5531976 -0.024910156 -0.6304342 -0.103220366 0.41018525 -0.3037073
00000000: b98e a3bc 3b86 1e3f 5cf0 fcbd 76af 6a3e
00000010: acf2 db3e 2036 18bf 32a2 433e 4c27 eb3e
00000020: 8a68 c4be 153b a1bd 1938 96bd 8823 f4be
00000030: 6602 89bd 253c 3a3d 496d efbe 27cb 9f3e
00000040: a837 3cbf 04b0 c7be 3db7 adbc a771 b13e
00000050: 1d1b 1fbf a573 bd3e e834 bbbe 7e64 f83d
00000060: 23b7 64bd 2abd 193f 5c9e 0d3f 6210 ccbc
00000070: 2364 21bf 3365 d3bd cd03 d23e 867f 9bbe

bn1.running_var f4 [32]
0.05411407 0.008011228 0.052096076 0.038604204 0.08043327 0.0449525 0.02386225 0.05467719
0.042061683 0.14397526 0.014457329 0.06499255 0.086162716 0.016898563 0.04708408 0.0064831334
0.07927085 0.07670242 0.09175302 0.040807366 0.12204401 0.07767126 0.10794702 0.08436885
0.010230188 0.0456149 0.02076649 0.00846428 0.07123429 0.073578425 0.023302881 0.046134744
00000000: b7a6 5d3d 8741 033c b262 553d 711f 1e3d
00000010: 33ba a43d 1d20 383d c47a c33c 30f5 5f3d
00000020: df48 2c3d 406e 133e 6fde 6c3c d01a 853d
00000030: 1476 b03d db6e 8a3c 3cdb 403d 7770 d43b
00000040: c158 a23d 2916 9d3d 02e9 bb3d a025 273d
00000050: 36f2 f93d 1c12 9f3d 5413 dd3d 93c9 ac3d
00000060: 859c 273c b0d6 3a3d 7c1e aa3c c3ad 0a3c
00000070: 49e3 913d 49b0 963d afe5 be3c c9f7 3c3d

conv2.weight f4 [64, 32, 3]
-0.02364756 -0.10188607 0.12714529 -0.049950454 0.009818713 -0.0041952906 -0.05319516 0.024546787
-0.0011887086 0.034272958 -0.088256136 -0.072869435 -0.05391869 -0.020141741 0.0132938735 0.0063053705
0.013961019 -0.05635825 -0.06934606 0.1016011 -0.0015223328 0.08229514 -0.070263565 -0.032858334
-0.021392522 -0.09765806 -0.04422671 0.043470807 0.08072561 -0.0922536 -0.08699669 -0.014696646
0.016963601 -0.07250531 0.051374525 0.042946905 -0.042522065 0.103138104 -0.00735557 0.06598151
-0.094044775 0.109880656 0.019767595 0.08743547 -0.11224115 0.027138257 0.06712238 -0.049372293
-0.082519665 0.06815628 0.008787669 0.09842833 -0.10021773 0.008758899 0.06691187 0.083503515
0.04037875 -0.09998819 -0.02600184 0.0041412683 0.047769107 -0.09740486 0.054883648 -0.03181565
-0.053180687 0.03314611 0.006467322 0.070592605 0.07233776 0.029382471 0.044155788 -0.08645494
-0.07028379 -0.020693576 0.014433819 0.07727871 0.07795242 -0.021615075 0.10720987 0.07366247
0.09794912 0.07850738 -0.026654 0.08270817 0.040980794 -0.06387193 -0.018644571 -0.030900378
-0.021125108 -0.098893575 -0.080921404 -0.10224564 0.0266439 0.02365632 0.067535825 0.043308068
-0.039907686 0.046545494 0.024502367 -0.018014692 -0.072562814 0.06847133 0.08314455 -0.10380303
0.09109473 0.032319505 0.028181825 0.055277344 -0.048338175 -0.024880432 0.07816182 -0.0552486
0.016104229 0.041713223 -0.035637785 0.08333672 0.10161135 0.020814536 -0.01910826 0.025002519
-0.005923508 0.04444936 0.006309565 -0.058955483 0.006753614 0.053091202 0.031123005 -0.056645736
-0.11985604 0.085419364 0.058506522 -0.056204285 -0.07050979 -0.09450211 -0.11544126 0.019817803
0.041781154 0.037165742 0.078163855 -0.011101992 0.06596183 0.10243647 0.03217833 0.0013520146
0.07889864 0.063134976 -0.025439046 -0.030524874 0.088748045 -0.0083124535 0.0344302 0.09619023
-0.057430837 0.102545805 0.016785655 0.028211406 -0.016207805 -0.018137475 -0.016614398 0.031336382
0.033968095 -0.057686027 -0.030727291 -0.051242266 0.058882292 0.06633552 0.006817941 0.0387246
-0.012482795 0.023874445 0.049309026 -0.08616389 0.040764242 0.08210298 0.016228117 -0.011458225
0.08004528 -0.0049038557 -0.054032605 0.061082475 -0.037805345 -0.08536973 -0.0393499 -0.062369972
0.057506796 -0.046033073 -0.010765209 0.043001093 -0.0059857266 0.11044109 0.03182058 -0.088885136
-0.08158525 0.097962454 -0.0794896 0.038421053 0.035415567 -0.05055724 -0.09420363 -0.088779025
0.0013518931 -0.009283132 0.07751606 0.046184923 0.004944056 0.006097528 -0.11183384 0.051701073
-0.05803952 -0.011848318 -0.08147474 -0.09836648 -0.09593958 -0.07069733 0.100184746 -0.054954007
0.10257411 0.10081026 -0.013587965 -0.0174595 0.031822834 -0.036545888 0.09029635 0.10079345
-0.09397906 0.07776054 -0.01731259 0.09634165 -0.025880609 0.040822998 -0.002422159 0.08348322
-0.061617017 -0.039044384 0.0658548 0.03832876 -0.029414233 0.020666083 -0.022770325 0.0658442
-0.0933502 0.044741806 -0.01849328 -0.049992822 -0.042160187 0.041701775 0.010742803 -0.08669993
-0.044694867 -0.024865149 0.04885215 0.078992575 -0.062018976 -0.09244824 0.06483202 -0.01755909
00000000: 87b8 c1bc a5a9 d0bd 6032 023e d998 4cbd
00000010: abde 203c a678 89bb 2be3 59bd 5816 c93c
00000020: 71ce 9bba cd61 0c3d a2bf b4bd 923c 95bd
00000030: d8d9 5cbd 4b00 a5bc 8cce 593c 489d ce3b
00000040: c2bc 643c e9d7 66bd 4f05 8ebd 3d14 d03d
00000050: 0389 c7ba 5b8a a83d 58e6 8fbd 7696 06bd
00000060: 5f3f afbc f300 c8bd 1127 35bd 720e 323d
00000070: 7853 a53d 75ef bcbd 522b b2bd 33ca 70bc
00000080: 40f7 8a3c aa7d 94bd 186e 523d 18e9 2f3d
00000090: 9e2b 2ebd 123a d33d fe06 f1bb 5021 873d
000000a0: 8c9a c0bd 1c09 e13d a7ef a13c 5e11 b33d
000000b0: b0de e5bd 0d51 de3c 7577 893d 9a3a 4abd
000000c0: 1200 a9bd 8595 8b3d 28fa 0f3c cb94 c93d
000000d0: f43e cdbd 7c81 0f3c 1709 893d e403 ab3d
000000e0: 3064 253d 9cc6 ccbd d001 d5bc 7ab3 873b
000000f0: 8aa9 433d 337c c7bd adcd 603d 2151 02bd
00000100: fed3 59bd 37c4 073d d4eb d33b db92 903d
00000110: d225 943d 82b3 f03c b3dc 343d 4a0f b1bd
00000120: f3f0 8fbd 9385 a9bc d37b 6c3c 4d44 9e3d
00000130: 85a5 9f3d 1912 b1bc d990 db3d 59dc 963d
00000140: 8c99 c83d 7ac8 a03d 7d59 dabc e762 a93d
00000150: 7adb 273d 49cf 82bd 80bc 98bc ca22 fdbc
00000160: 900e adbc b788 cabd 1fba a5bd 2966 d1bd
00000170: 4f44 da3c e6ca c13c 3950 8a3d cd63 313d
00000180: 3e76 23bd 7da6 3e3d 30b9 c83c 8c93 93bc
00000190: d09b 94bd b23a 8c3d b147 aa3d af96 d4bd
000001a0: e08f ba3d 7561 043d 92dd e63c 7f6a 623d
000001b0: 40fe 45bd 0cd2 cbbc 4e13 a03d 5b4c 62bd
000001c0: 04ed 833c 7cdb 2a3d edf8 11bd 71ac aa3d
000001d0: 9d19 d03d 3f83 aa3c ed88 9cbc 15d2 cc3c
000001e0: fd19 c2bb 8810 363d 78c0 ce3b 4e7b 71bd
000001f0: 6c4d dd3b 2976 593d acf5 fe3c 5c05 68bd
00000200: 1577 f5bd 59f0 ae3d 89a4 6f3d 7736 66bd
00000210: 7067 90bd 528a c1bd 786c ecbd f258 a23c
00000220: b722 2b3d 1b3b 183d 5f14 a03d 21e5 35bc
00000230: ff16 873d 36ca d13d 6dcd 033d 1536 b13a
00000240: 9c95 a13d e94c 813d 8c65 d0bc 4d0f fabc
00000250: 89c1 b53d f530 08bc ae06 0d3d 62ff c43d
00000260: 993c 6bbd 8903 d23d 1282 893c 9b1b e73c
00000270: 3bc6 84bc 0b95 94bc eb1a 88bc 945a 003d
00000280: 2122 0b3d 2f48 6cbd cdb7 fbbc 69e3 51bd
00000290: 8f2e 713d ebda 873d 0969 df3b b09d 1e3d
000002a0: a384 4cbc 5794 c33c 43f8 493d b276 b0bd
000002b0: 68f8 263d 9b25 a83d d4f0 843c 47bb 3bbc
000002c0: c8ee a33d 86b0 a0bb 4b51 5dbd 9e31 7a3d
000002d0: c7d9 1abd 53d6 aebd 5c2d 21bd a877 7fbd
000002e0: 3f8c 6b3d 2d8d 3cbd 8f60 30bc ea21 303d
000002f0: ea23 c4bb f02e e23d 4c56 023d 6909 b6bd
00000300: 2b16 a7bd 8aa0 c83d 72cb a2bd 655f 1d3d
00000310: ea0f 113d 1c15 4fbd d5ed c0bd c7d1 b5bd
00000320: 0132 b13a 4718 18bc bdc0 9e3d 672c 3d3d
00000330: bf01 a23b c6cd c73b 2409 e5bd 81c4 533d
00000340: d9ba 6dbd 731f 42bc 3adc a6bd 5d74 c9bd
00000350: f87b c4bd c3c9 90bd a92d cd3d 7417 61bd
00000360: 6012 d23d 9c75 ce3d 0ea0 5ebc 3a07 8fbc
00000370: a958 023d 24b1 15bd 4bed b83d cc6c ce3d
00000380: 1878 c0bd eb40 9f3d 22d3 8dbc c54e c53d
00000390: 9203 d4bc 0436 273d 16bd 1ebb 40f9 aa3d
000003a0: 2062 7cbd 01ed 1fbd e2de 863d 9efe 1c3d
000003b0: 1ef6 f0bc eb4b a93c d588 babc 53d9 863d
000003c0: 642e bfbd 2f43 373d 387f 97bc 46c5 4cbd
000003d0: 29b0 2cbd 7bcf 2a3d 9502 303c bc8f b1bd
000003e0: f711 37bd ffb1 cbbc 3119 483d dcc6 a13d
000003f0: 9c07 7ebd 8155 bdbd a6c6 843d 15d8 8fbc

conv2.bias f4 [64]
0.03335891 0.05312424 0.064151 -0.01993286 -0.07929995 0.014036624 -0.07665284 0.029630994
0.10061085 0.09772175 -0.06685496 0.05246959 -0.0001719642 -0.06921701 -0.04775103 0.079662055
-0.019010156 0.060392622 -0.07855213 0.067400716 -0.07527006 -0.01964851 -0.07620799 -0.02287999
-0.071834594 0.09207809 -0.071331695 0.00021725748 0.041244835 -0.047300734 -0.058414962 -0.037500355
0.072181515 0.07912273 -0.0812757 -0.035049982 0.01472805 -0.01695372 0.034372475 0.08228528
0.034183107 -0.035090517 0.04672931 0.0846393 -0.080135725 -0.091222614 0.07208432 -0.08505345
0.07574471 -0.012165418 0.017213019 -0.029543906 -0.06548927 -0.027927103 0.047968134 0.039782386
-0.07978859 -0.032090258 0.08454796 -0.070481524 0.019152993 -0.029030634 0.003675646 -0.08627542
00000000: 5aa3 083d ce98 593d 9961 833d 3d4a a3bc
00000010: 0368 a2bd def9 653c 2afc 9cbd b3bc f23c
00000020: 100d ce3d 5722 c83d 41eb 88bd 5aea 563d
00000030: 4a51 34b9 a6c1 8dbd 9696 43bd dc25 a33d
00000040: 30bb 9bbc 415e 773d f0df a0bd 6309 8a3d
00000050: 3027 9abd e9f5 a0bc ef12 9cbd d16e bbbc
00000060: 041e 93bd 7093 bc3d 5a16 92bd 9ccf 6339
00000070: 58f0 283d 6abe 41bd 8744 6fbd f999 19bd
00000080: e7d3 933d 190b a23d e073 a6bd 9290 0fbd
00000090: eb4d 713c 87e2 8abc 27ca 0c3d 2f85 a83d
000000a0: 9603 0c3d 13bb 0fbd 3c67 3f3d 5f57 ad3d
000000b0: 331e a4bd ecd2 babd f2a0 933d 8130 aebd
000000c0: 0b20 9b3d 7651 47bc 5102 8d3c 1006 f2bc
000000d0: 3d1f 86bd 61c7 e4bc 3c7a 443d dbf2 223d
000000e0: 3368 a3bd 1371 03bd 7b27 ad3d 9e58 90bd
000000f0: bde6 9c3c a7d1 edbc 1be3 703b 2bb1 b0bd

bn2.weight f4 [64]
0.9684398 0.9894079 0.98882437 1.0134033 0.9981441 1.0069377 0.98610604 0.9891433
0.9974744 1.0032274 1.0339082 0.992641 1.0283923 1.0310735 1.0011342 1.0213993
1.0018637 0.98360926 0.99334437 0.9955738 1.0189925 0.99634564 1.0230815 0.98720056
1.0374305 1.0581801 1.0020846 1.0276498 0.99827975 0.99803454 1.0011452 1.0145743
0.975864 0.9818686 0.9609027 0.977197 1.0235426 0.977445 1.0121403 0.99371684
1.0245339 0.99339867 1.0133066 0.9983674 0.95330083 0.9896419 0.9830984 1.0022689
1.0275713 0.9882236 0.96306556 0.96204627 1.0091387 0.99000275 0.9847466 0.99764293
0.982447 1.0261686 1.0110856 0.9864123 1.0018543 1.0524427 0.9552437 0.98485786
00000000: aceb 773f d649 7d3f 9823 7d3f 33b7 813f
00000010: 5f86 7f3f 56e3 803f 7271 7c3f 7f38 7d3f
00000020: 7b5a 7f3f c169 803f 1b57 843f b81d 7e3f
00000030: 5ca2 833f 37fa 833f 2a25 803f 36bd 823f
00000040: 123d 803f d1cd 7b3f d14b 7e3f eddd 7e3f
00000050: 596e 823f 8210 7f3f 56f4 823f 2db9 7c3f
00000060: 86ca 843f 7272 873f 4f44 803f 078a 833f
00000070: 438f 7f3f 317f 7f3f 8725 803f 92dd 813f
00000080: 39d2 793f be5b 7b3f b8fd 753f 9529 7a3f
00000090: 7203 833f d639 7a3f d08d 813f 3a64 7e3f
000000a0: ed23 833f 604f 7e3f 08b4 813f 0295 7f3f
000000b0: 860b 743f 2c59 7d3f 56ac 7b3f 594a 803f
000000c0: 7587 833f 39fc 7c3f 778b 763f aa48 763f
000000d0: 752b 813f d270 7d3f 5a18 7c3f 8765 7f3f
000000e0: a681 7b3f 7e59 833f 416b 813f 8485 7c3f
000000f0: c33c 803f 71b6 863f da8a 743f a51f 7c3f

bn2.bias f4 [64]
-0.053284336 -0.019020334 -0.020108646 0.017540647 0.0024362516 -0.0032869135 -0.0055183233 -0.036493253
-0.021406395 -0.026564067 0.026761634 -0.014158125 -0.017507985 -0.02485048 -0.004367241 -0.013964824
-0.040010326 -0.01710831 -0.007870716 0.0053304774 -0.009749068 -0.018400352 0.018217932 -0.01276441
-0.033332355 -0.030145977 -0.010930054 0.017404651 0.006525284 -0.010306735 -0.020478828 -0.04224997
-0.007369635 -0.036352444 -0.009477255 -0.040365975 0.01052109 -0.033620782 -0.006244012 -0.025224982
-0.021895383 -0.010650334 0.019206438 -0.05291824 -0.03760551 -0.007987997 -0.022794137 -0.039069638
0.0043379613 -0.028784998 -0.028691359 -0.045189667 -0.03406422 -0.010008224 -0.002426342 -0.0090171695
0.005322415 0.005653984 -0.017310979 0.022142986 -0.01667058 -0.018213864 -0.03275483 0.0034151853
00000000: ad40 5abd 88d0 9bbc e3ba a4bc 67b1 8f3c
00000010: 85a9 1f3b 4269 57bb 0dd3 b4bb f379 15bd
00000020: 775c afbc e39c d9bc 373b db3c 7bf7 67bc
00000030: e86c 8fbc 3c93 cbbc 131b 8fbb b8cc 64bc
00000040: dee1 23bd ba26 8cbc 2df4 00bc 49ab ae3b
00000050: 8eba 1fbc 56bc 96bc c63d 953c d121 51bc
00000060: 8287 08bd b2f4 f6bc f813 33bc 3394 8e3c
00000070: 0dd2 d53b 94dd 28bc 37c3 a7bc 4e0e 2dbd
00000080: fb7c f1bb 4de6 14bd 7d46 1bbc cb56 25bd
00000090: a660 2c3c f2b5 09bd 929a ccbb 9fa4 cebc
000000a0: f25d b3bc bd7e 2ebc d256 9d3c ccc0 58bd
000000b0: 3c08 1abd 16e0 02bc c5ba babc 7c07 20bd
000000c0: 7525 8e3b 84ce ebbc 240a ebbc cd18 39bd
000000d0: ec86 0bbd 89f9 23bc 4403 1fbb c0bc 13bc
000000e0: a767 ae3b 0e45 b93b c1cf 8dbc 3565 b53c
000000f0: bd90 88bc 3e35 95bc ee29 06bd 4dd1 5f3b

bn2.running_mean f4 [64]
0.1304368 0.75989616 -0.19589448 0.557539 -0.44775113 0.08161057 0.95165443 0.41414812
-0.19130248 -0.4875734 -0.70597297 0.36383012 -0.18365808 -0.5458997 0.71948415 -0.746894
0.068702035 0.032119744 0.4562369 0.04653082 0.53017074 -1.1481423 0.001387704 0.21222168
-0.649975 0.04307526 -0.8041145 -0.15915117 -0.35965195 0.030972287 -0.8790512 0.10292316
0.30114543 -0.06857774 -0.8421153 0.2826873 0.5062579 0.07090466 0.36230475 0.03893954
-0.36027408 -0.57749236 -0.84151715 -0.8185358 0.06703262 -0.5683225 -0.15266857 0.29410428
0.3523004 0.13228138 -0.41992298 -0.6732296 -0.2128347 -0.43812454 0.21896529 -0.53973746
0.31628242 -0.29770026 0.41499168 0.49664757 -0.6467254 0.4234946 -0.6849165 -0.86068475
00000000: 3991 053e 8e88 423f 9098 48be e0ba 0e3f
00000010: a33f e5be 7123 a73d a09f 733f 390b d43e
00000020: cce4 43be 38a3 f9be a5ba 34bf f147 ba3e
00000030: dd10 3cbe 15c0 0bbf 1d30 383f 7234 3fbf
00000040: a7b3 8c3d fe8f 033d e297 e93e 1a97 3e3d
00000050: 45b9 073f 54f6 92bf 9fe3 b53a a450 593e
00000060: c364 26bf af6f 303d 73da 4dbf 86f8 22be
00000070: 4d24 b8be 98b9 fd3c 8009 61bf 61c9 d23d
00000080: bc2f 9a3e 7c72 8cbd de94 57bf 64bc 903e
00000090: 1e9a 013f 7636 913d 0280 b93e 117f 1f3d
000000a0: d875 b8be 8ad6 13bf ab6d 57bf 908b 51bf
000000b0: 6648 893d 957d 11bf 2655 1cbe d694 963e
000000c0: b860 b43e c574 073e 2500 d7be c658 2cbf
000000d0: 57f1 59be dc51 e0be 7038 603e 3c2c 0abf
000000e0: c5ef a13e 2b6c 98be ca79 d43e 9748 fe3e
000000f0: cc8f 25bf 49d4 d83e b056 2fbf d655 5cbf

bn2.running_var f4 [64]
0.19805092 0.18705888 0.12385849 0.12691937 0.11571533 0.40029237 0.34955657 0.26540968
0.15321778 0.29935953 0.3944578 0.30309474 0.092191 0.1288272 0.21332091 0.31695887
0.20439366 0.3338824 0.2891836 0.1283937 0.2139704 0.51914495 0.2361695 0.22769627
0.09197432 0.18049219 0.36239845 0.2436385 0.09321 0.14573342 0.20427266 0.15454246
0.33360037 0.057894506 0.16895294 0.27922222 0.2103793 0.05883009 0.155905 0.1437191
0.06753806 0.1453725 0.3397198 0.14935575 0.16061419 0.22973937 0.40751442 0.17680216
0.11581309 0.11405911 0.27283493 0.25934938 0.11197813 0.24816988 0.24095657 0.20340452
0.18196829 0.06757232 0.16451356 0.28526127 0.11430061 0.1957967 0.43552643 0.30082592
00000000: dccd 4a3e 5d8c 3f3e 85a9 fd3d 27f7 013e
00000010: 29fc ec3d 1ff3 cc3e 14f9 b23e c7e3 873e
00000020: 1fe5 1c3e a745 993e 5ff6 c93e 3c2f 9b3e
00000030: a3ce bc3d 47eb 033e cc70 5a3e 6f48 a23e
00000040: 924c 513e a2f2 aa3e df0f 943e a379 033e
00000050: 0e1b 5b3e afe6 043f 6bd6 713e 3629 693e
00000060: 085d bc3d f2d2 383e 4a8c b93e 5f7c 793e
00000070: e2e4 be3d 243b 153e da2c 513e 6140 1e3e
00000080: abcd aa3e ca22 6d3d 0002 2d3e 37f6 8e3e
00000090: ac6d 573e d2f7 703d 8fa5 1f3e 1a2b 133e
000000a0: 6551 8a3d 87dc 143e c1ef ad3e b7f0 183e
000000b0: 0c78 243e cc40 6b3e bba5 d03e a00b 353e
000000c0: 6a2f ed3d d397 e93d 05b1 8b3e 71c9 843e
000000d0: ca54 e53d 3f20 7e3e 52bd 763e 4649 503e
000000e0: e555 3a3e 5b63 8a3d 3e76 283e c40d 923e
000000f0: 7016 ea3d ee7e 483e 52fd de3e db05 9a3e

conv3.weight f4 [32, 64, 3]
0.0608938 0.03164567 -0.076336235 0.072221376 -0.024497928 0.055116236 0.047966246 0.009487682
0.029793467 0.023202734 -0.06549872 -0.0029600826 0.041756283 0.100704625 0.033867326 -0.04353583
-0.066896744 0.01379094 0.03501088 0.03652718 0.023977766 0.021421973 -0.013940001 -0.009235529
0.0074200975 -0.053925604 0.033951715 0.01584443 -0.06644997 -0.03256364 0.039149027 -0.0049389224
-0.043789726 0.019991307 0.05254115 -0.05254379 0.0013664574 0.02616451 0.034784477 -0.040535063
0.015851732 -0.010021566 0.030081997 0.013043045 0.02479717 -0.081227556 -0.046626344 -0.07651804
0.022995863 -0.08062081 0.04546488 0.008786464 -0.0037264412 0.04639808 0.0026835143 0.0093259895
-0.0070649423 -0.0502094 -0.040803093 0.089519955 -0.0484833 -0.0016613578 -0.041184925 -0.0041102166
-0.032816634 -0.09167568 0.055350713 0.007952 0.01877313 0.03934937 -0.04929582 0.04188005
-0.022530973 -0.066239856 0.06771222 0.06962546 -0.07675543 0.035732098 0.060008276 -0.04728361
-0.085218735 0.10906575 -0.05637264 -0.006891724 -0.002715115 -0.051242076 0.035062805 0.011763978
-0.06617756 0.03268271 0.025209498 -0.025013097 -0.08856798 0.023052769 -0.013325146 0.037445966
-0.02328978 -0.026896589 -0.013688671 -0.03627112 -0.059947018 0.02960291 0.016164524 0.04954306
0.056803834 -0.040745847 -0.002670415 -0.059613023 0.06909546 -0.019950636 0.022495493 -0.035859045
0.054820947 0.018957447 0.024194425 0.07746001 0.00015872503 0.0061855824 -0.049324386 -0.017395608
0.0394719 0.024242368 0.051275734 -0.07447491 0.07403657 -0.05850606 -0.010764934 0.040844724
-0.050636973 0.00032353192 0.025707306 0.04679863 0.010088597 -0.0068075354 0.003264539 0.03071171
0.02537189 -0.017551718 -0.027109867 -0.055440255 -0.046856727 0.05974254 0.06440022 -0.05314058
0.09473317 -0.04422037 -0.035738513 -0.027256116 -0.06973921 -0.061962806 0.027767193 0.00734885
-0.053080507 0.008657226 -0.0029147323 0.032251097 -0.016878316 -0.0010949022 -0.05739797 0.10111403
-0.02656337 0.024849268 -0.07733297 -0.023236986 -0.043745354 0.032814264 -0.050040837 -0.033619862
-0.032213356 0.06725814 0.049452785 -0.058994953 -0.06371255 -0.00886577 -0.052712623 -0.037399802
0.03943781 0.0064574177 0.006285993 -0.06422927 0.0012417756 -0.052596286 -0.07527908 -0.07381036
-0.049462464 -0.056542996 0.004638723 0.026494745 -0.029924309 0.05890573 0.033711635 -0.038133018
0.061831318 -0.083462745 -0.00530261 0.012339578 -0.00025167564 -0.031358097 -0.05127127 -0.056693066
-0.03227585 -0.017161958 0.008901192 0.03224853 -0.016320061 0.028998278 0.016165653 0.05595572
0.03323142 -0.02806307 -0.06393926 0.05458957 -0.07160252 0.023313835 0.03049145 -0.045529068
-0.064617775 -0.0025586614 0.032742787 -0.00951761 0.019040247 -0.006036174 0.03985072 0.017949989
-0.037940893 -0.006379585 0.019218698 -0.031963013 0.0021374004 0.018070221 0.032384254 -0.034319166
-0.11848195 0.05233978 0.019743292 -0.07364211 -0.026139474 0.031859674 0.016473858 0.048005763
-0.06465929 0.006501862 -0.049030498 -0.068726145 -0.01368225 0.037730448 -0.059484653 -0.051448103
0.01671266 0.05124641 -0.0065316004 -0.08618072 0.002523475 0.010603114 -0.0635842 -0.049529757
00000000: c76b 793d e49e 013d 2c56 9cbd cde8 933d
00000010: e1af c8bc 90c1 613d 4178 443d 3972 1b3c
00000020: 6e11 f43c a913 be3c 3124 86bd f2fd 41bb
00000030: a308 2b3d 3a3e ce3d 77b8 0a3d a052 32bd
00000040: 2901 89bd 65f3 613c 9267 0f3d 869d 153d
00000050: 056d c43c 227d af3c 9a64 64bc 9e50 17bc
00000060: 4a24 f33b 18e1 5cbd f410 0b3d 2ecc 813c
00000070: ec16 88bd 7461 05bd bb5a 203d afd6 a1bb
00000080: db5c 33bd cfc4 a33c 6435 573d 2838 57bd
00000090: b41a b33a f456 d63c 2b7a 0e3d 1808 26bd
000000a0: 7edb 813c 7f31 24bc 856e f63c 7fb2 553c
000000b0: 6f23 cb3c a25a a6bd 44fb 3ebd 7db5 9cbd
000000c0: d261 bc3c 861c a5bd 6239 3a3d 1af5 0f3c
000000d0: 4f37 74bb ea0b 3e3d e6dd 2f3b 09cc 183c
000000e0: 0881 e7bb 5fa8 4dbd 2521 27bd 3d56 b73d
000000f0: 6d96 46bd ebc1 d9ba 86b1 28bd ffae 86bb
00000100: bc6a 06bd 75c0 bbbd 6eb7 623d 1b49 023c
00000110: 1bca 993c ce2c 213d 6aea 49bd 6a8a 2b3d
00000120: e092 b8bc c3a8 87bd b4ac 8a3d cb97 8e3d
00000130: f331 9dbd d25b 123d 3dcb 753d 75ac 41bd
00000140: 2987 aebd dd5d df3d ffe6 66bd f9d3 e1bb
00000150: 12f0 31bb 36e3 51bd 049e 0f3d b3bd 403c
00000160: 1a88 87bd 4ede 053d 2684 ce3c 44e8 ccbc
00000170: 2163 b5bd 29d9 bc3c b751 5abc f160 193d
00000180: 35ca bebc 3c56 dcbc 7346 60bc 0791 14bd
00000190: 018b 75bd cd81 f23c 776b 843c aaed 4a3d
000001a0: 23ab 683d 1ee5 26bd 2102 2fbb c92c 74bd
000001b0: ec81 8d3d 846f a3bc 7848 b83c efe0 12bd
000001c0: ee8b 603d a64c 9b3c 6333 c63c 5ba3 9e3d
000001d0: 6d6f 2639 6db0 ca3b 5e08 4abd 3c81 8ebc
000001e0: 49ad 213d ee97 c63c 8106 523d 4d86 98bd
000001f0: 7ca0 973d 0da4 6fbd 685f 30bc cc4c 273d
00000200: b768 4fbd b89f a939 2198 d23c ecaf 3f3d
00000210: a54a 253c bf11 dfbb e0f1 553b 2097 fb3c
00000220: b6d8 cf3c 9fc8 8fbc 8315 debc 5215 63bd
00000230: d7ec 3fbd 98b4 743d 43e4 833d f0a9 59bd
00000240: 7703 c23d 6b20 35bd 8c62 12bd 3848 dfbc
00000250: 6ed3 8ebd b6cc 7dbd 0678 e33c 9fce f03b
00000260: f26a 59bd 0ad7 0d3c 1805 3fbb ba19 043d
00000270: 6544 8abc d282 8fba 221a 6bbd df14 cf3d
00000280: 6d9b d9bc b190 cb3c c060 9ebd 7e5b bebc
00000290: 542e 33bd 4068 063d 9ff7 4cbd fbb4 09bd
000002a0: 27f2 03bd a3be 893d 018f 4a3d b1a4 71bd
000002b0: ba7b 82bd bc41 11bc 31e9 57bd 8930 19bd
000002c0: 8b89 213d bf98 d33b bbfa cd3b a38a 83bd
000002d0: 13c3 a23a 346f 57bd eb2b 9abd e329 97bd
000002e0: 2799 4abd a199 67bd 6e00 983b 820b d93c
000002f0: d323 f5bc 2247 713d 3615 0a3d 5e31 1cbd
00000300: d642 7d3d 84ee aabd 84c1 adbb f12b 4a3c
00000310: 55f3 83b9 5971 00bd d301 52bd fd36 68bd
00000320: af33 04bd 3c97 8cbc 4ed6 113c 0917 043d
00000330: a6b1 85bc cc8d ed3c d56d 843c d331 653d
00000340: ab1d 083d 86e4 e5bc 96f2 82bd 5099 5f3d
00000350: 58a4 92bd a8fc be3c 35c9 f93c b07c 3abd
00000360: 5356 84bd 37af 27bb 4d1d 063d c0ef 1bbc
00000370: 4bfa 9b3c 19cb c5bb 823a 233d db0b 933c
00000380: e967 1bbd d60b d1bb 8870 9d3c a6eb 02bd
00000390: a113 0c3b 0008 943c 5aa5 043d 4192 0cbd
000003a0: aaa6 f2bd 3d62 563d afbc a13c add1 96bd
000003b0: 7322 d6bc 4a7f 023d 2ff4 863c b1a1 443d
000003c0: 176c 84bd 920d d53b 34d4 48bd 4bc0 8cbd
000003d0: 842b 60bc 3e8b 1a3d 2ea6 73bd 3fbb 52bd
000003e0: fde8 883c c1e7 513d 0907 d6bb 847f b0bd
000003f0: e360 253b afb8 2d3c 6f38 82bd b7df 4abd

conv3.bias f4 [32]
-0.029301748 0.049207386 0.06511712 -0.009523404 0.0384917 0.022780906 0.034770206 0.019412009
0.056611687 -0.030110862 0.008656623 -0.055436414 -0.025663275 -0.024690293 -0.01661809 0.03520895
-0.013659834 0.052311733 -0.05719711 0.007596452 0.063539095 -0.052792072 0.013182674 0.025208617
-0.03262874 -0.0019605756 0.039249457 0.029270101 -0.06467856 -0.067729644 -0.056255758 0.052967083
00000000: 380a f0bc af8d 493d 205c 853d 0d08 1cbc
00000010: 79a9 1d3d 069f ba3c 346b 0e3d ef05 9f3c
00000020: a8e1 673d 0eab f6bc 82d4 0d3c 4b11 63bd
00000030: ca3b d2bc 4c43 cabc a922 88bc 4337 103d
00000040: 7fcd 5fbc d444 563d 8447 6abd a8eb f83b
00000050: c920 823d 803c 58bd 24fc 573c 4d82 ce3c
00000060: b7a5 05bd 007d 00bb 0ac4 203d dac7 ef3c
00000070: 3176 84bd d7b5 8abd 706c 66bd 03f4 583d

bn3.weight f4 [32]
1.0596832 1.1088438 1.1415597 1.0914608 1.0946062 1.0770586 1.0678958 1.104178
1.0633609 1.0940776 1.074557 1.0203667 1.1074573 1.0803808 1.0977021 1.1122483
1.0857987 1.0890335 1.0557966 1.0461051 1.0971252 1.0581373 1.133102 1.0905932
1.0483139 1.0934192 1.0731233 1.0720907 1.07791 1.094104 1.0744429 1.0449519
00000000: b3a3 873f 98ee 8d3f a11e 923f fdb4 8b3f
00000010: 0e1c 8c3f 0edd 893f cfb0 883f b455 8d3f
00000020: 361c 883f bc0a 8c3f 158b 893f 609b 823f
00000030: 29c1 8d3f eb49 8a3f 8181 8c3f 275e 8e3f
00000040: 74fb 8a3f 7365 8b3f 5824 873f c6e6 853f
00000050: 996e 8c3f 0b71 873f 7d09 913f 8f98 8b3f
00000060: 262f 863f 29f5 8b3f 1b5c 893f 453a 893f
00000070: f4f8 893f 9a0b 8c3f 5887 893f fcc0 853f

bn3.bias f4 [32]
0.052732978 0.021809813 0.035195276 0.04590974 0.023044769 0.021202443 0.046370268 0.03351293
0.009423676 0.024394488 0.005550105 0.016177688 0.029467056 0.044985205 0.020774426 0.052972276
0.034094412 0.037960596 0.02315634 0.013763459 0.03214265 -0.002116054 0.056761943 0.027432196
0.015635828 0.017629156 0.031434942 0.054451738 0.023006905 0.04187533 0.01612638 0.009540572
00000000: 89fe 573d 7eaa b23c ec28 103d da0b 3c3d
00000010: 62c8 bc3c bfb0 ad3c c0ee 3d3d db44 093d
00000020: c365 1a3c f3d6 c73c a8dd b53b 1287 843c
00000030: e564 f13c 6842 383d 212f aa3c 75f9 583d
00000040: 95a6 0b3d 927c 1b3d 5db2 bd3c 2280 613c
00000050: 03a8 033d 7fad 0abb 367f 683d 7cb9 e03c
00000060: b516 803c 056b 903c edc1 003d c908 5f3d
00000070: fa78 bc3c 7785 2b3d 781b 843c 0f50 1c3c

bn3.running_mean f4 [32]
-0.35888547 -0.5266755 0.52989775 0.15749149 -0.1834808 -0.09365923 -0.4291737 0.027568728
0.6231128 0.55595905 0.39741084 0.24822135 0.12445651 -0.64820826 0.3337944 0.034146953
-1.069551 0.3615298 -0.17527343 0.00053557614 -0.39397818 0.5506371 -0.88951135 -0.57904875
-1.0336883 -0.10581803 0.7491421 -0.6163977 -0.036146782 0.3601754 0.16889001 0.031126015
00000000: d6bf b7be 35d4 06bf 61a7 073f 7345 213e
00000010: 64e2 3bbe 69d0 bfbd a8bc dbbe d0d7 e13c
00000020: 5284 1f3f 5553 0e3f 6f79 cb3e bd2d 7e3e
00000030: 0ee3 fe3d faf0 25bf 19e7 aa3e addd 0b3d
00000040: 0ce7 88bf 6f1a b93e e17a 33be e865 0c3a
00000050: 82b7 c9be 8ef6 0c3f 04b7 63bf 8a3c 14bf
00000060: e64f 84bf 20b7 d8bd c7c7 3f3f 3dcc 1dbf
00000070: a60e 14bd e968 b83e 81f1 2c3e fcfb fe3c

bn3.running_var f4 [32]
0.18702754 0.16824076 0.17779021 0.1566949 0.11799837 0.11709469 0.42687106 0.28474316
0.16996956 0.21549524 0.23453397 0.32589284 0.16812119 0.31297958 0.16646121 0.13301384
0.33142036 0.13432676 0.22300401 0.15657836 0.16321121 0.21609606 0.1818928 0.17985013
0.26743707 0.1663832 0.13879909 0.279165 0.13081776 0.34483948 0.17589119 0.13353226
00000000: 2684 3f3e 4e47 2c3e a30e 363e a174 203e
00000010: 21a9 f13d 57cf ef3d d88e da3e dbc9 913e
00000020: 800c 2e3e c9aa 5c3e ac29 703e 6ddb a63e
00000030: f627 2c3e dc3e a03e cf74 2a3e c834 083e
00000040: eeaf a93e f48c 093e 2a5b 643e 1456 203e
00000050: d720 273e 4948 5d3e 1b42 3a3e a22a 383e
00000060: 83ed 883e 5c60 2a3e 5921 0e3e b7ee 8e3e
00000070: 17f5 053e cd8e b03e d21c 343e aebc 083e

fc1.weight f4 [4, 128]
-0.01562707 -0.048616163 0.061109643 0.1113333 0.032000158 -0.08628469 -0.13150658 0.106197156
-0.02630725 0.114313155 -0.011059094 0.12703528 0.08185027 -0.06457974 0.107049726 -0.058723252
-0.033645112 -0.08877419 -0.098922 -0.08058251 0.054018106 0.07081341 0.11011577 -0.14841613
-0.0609791 -0.091145836 -0.013065374 -0.05901361 0.0021297717 -0.05875883 0.039865173 -0.09664159
0.046921108 -0.054716192 0.052175857 0.015242237 0.06741232 0.029045792 -0.029750697 0.011681044
0.061232165 -0.0070072617 -0.056962438 -0.11333869 0.06631779 0.009822581 0.10974182 0.059619103
0.010173874 -0.047562696 -0.12835878 0.11691807 -0.1390356 -0.12758465 0.02452833 0.028148184
-0.022393921 0.060559556 0.04212879 0.05246214 0.06641532 0.11481392 -0.16794021 -0.017305115
0.016651928 -0.13025509 -0.02491214 -0.1423299 0.07976351 0.062726535 -0.09965248 0.05232026
0.04308435 -0.0122213345 0.1159257 0.11798176 0.08033085 -0.001191256 -0.114694096 -0.12258268
-0.031000078 -0.056367893 0.030905891 0.117563166 -0.05624951 -0.036121078 -0.12804282 0.08477723
-0.09237009 -0.079580635 -0.048969664 0.06652163 -0.017521817 -0.05018383 -0.15110719 -0.033868555
-0.07540762 0.030905902 0.020266999 0.002901499 0.025955958 0.019061886 -0.016710851 0.07070669
0.02239728 0.09956286 0.081531405 -0.030473141 -0.09661875 -0.030962532 -0.017515544 -0.0011921786
0.067948565 0.01784422 -0.070914626 0.10272332 0.01824863 0.04642478 0.07011875 -0.031708445
0.078846484 0.04619808 -0.0058452743 -0.087308414 -0.035563406 0.008373014 0.10934471 0.13455233
0.04264934 0.09053019 -0.13347417 0.021051059 -0.06702708 0.038401138 -0.015304209 0.04642983
-0.04757782 0.030350689 0.06078904 -0.06643228 -0.031506028 -0.050258636 -0.079517506 0.1321223
-0.00217373 0.03886298 0.15515393 -0.14378725 0.015315382 -0.044967413 -0.12947541 -0.10159686
-0.0782509 0.029906567 -0.1152051 0.084948644 0.031075537 -0.026978169 0.002115608 -0.13979432
0.08236235 -0.005068601 -0.02873543 0.07624928 -0.063487425 -0.03789245 0.08199654 -0.12329414
0.05716415 -0.06766459 0.0044371453 0.10770313 0.04760674 -0.075282834 0.0019915458 -0.08841242
0.054860614 -0.07764736 0.010590888 -0.073765226 -0.020677757 -0.06039218 -0.15162586 -0.036558658
-0.062954225 -0.030494716 0.11043543 0.052739773 0.059756417 -0.07193003 0.055270996 -0.033902973
-0.094693124 -0.08897513 0.07773094 -0.0063015646 -0.016298674 0.006276571 0.15429544 -0.08696195
0.009595149 -0.12893006 -0.05918229 -0.0021235894 0.0622229 0.0244798 -0.0760983 0.046228323
0.036155544 0.019935278 -0.06710653 0.036473423 0.06947623 -0.04415948 0.06351122 -0.08345064
-0.12755375 -0.09097739 -0.08964657 0.093750775 0.032454085 -0.0074520265 -0.0065053017 -0.068443924
0.03591479 -0.052507035 -0.09367929 0.03220187 0.0034450125 0.056896783 -0.08372963 -0.025777074
0.09197184 0.02556195 0.11384399 0.10866869 -0.043124612 0.012627618 0.060531292 -0.11983887
0.028365675 -0.04950956 -0.061837625 -0.14829674 0.06537228 0.026236758 0.039776254 0.11376209
0.042412233 0.07917414 0.14077517 0.00044263373 -0.022687927 -0.06927257 -0.01709168 -0.053185057
00000000: 5704 80bc be21 47bd 1b4e 7a3d b702 e43d
00000010: 9912 033d 07b6 b0bd a9a9 06be e57d d93d
00000020: 4d82 d7bc 041d ea3d 3431 35bc 8915 023e
00000030: 1da1 a73d 6242 84bd e33c db3d cb87 70bd
00000040: 75cf 09bd 3ecf b5bd 9e97 cabd 7108 a5bd
00000050: 1742 5d3d 9f06 913d 6084 e13d 66fa 17be
00000060: 39c5 79bd abaa babd 2710 56bc 41b8 71bd
00000070: a493 0b3b 19ad 70bd aa49 233d 07ec c5bd
00000080: 5930 403d 161e 60bd 5ab6 553d 93ba 793c
00000090: 780f 8a3d 71f1 ed3c bcb7 f3bc d961 3f3c
000000a0: 94ce 7a3d 2c9d e5bb 7251 69bd 1d1e e8bd
000000b0: 9fd1 873d e4ee 203c 52c0 e03d 2933 743d
000000c0: 52b0 263c 1ad1 42bd 7c70 03be be72 ef3d
000000d0: 595f 0ebe 8da5 02be a3ef c83c 0597 e63c
000000e0: 7573 b7bc 4c0d 783d 3d8f 2c3d 8ae2 563d
000000f0: c104 883d 8f23 eb3d 85f8 2bbe 75c3 8dbc
00000100: a069 883c 9761 05be 8b14 ccbc eebe 11be
00000110: 0d5b a33d c576 803d 9916 ccbd c54d 563d
00000120: 3779 303d fe3b 48bc 746a ed3d 6ca0 f13d
00000130: 8084 a43d eb23 9cba bde4 eabd a10c fbbd
00000140: e0f3 fdbc 05e2 66bd 5a2e fd3c f5c4 f03d
00000150: e365 66bd b2f3 13bd a81d 03be af9f ad3d
00000160: 882c bdbd 2cfb a2bd 6a94 48bd 7e3c 883d
00000170: ea89 8fbc 8f8d 4dbd d8bb 1abe c1b9 0abd
00000180: 4f6f 9abd 602e fd3c fa06 a63c 1327 3e3b
00000190: 97a1 d43c ac27 9c3c 32e5 88bc abce 903d
000001a0: 807a b73c 9de7 cb3d f0f9 a63d cfa2 f9bc
000001b0: 0de0 c5bd 23a5 fdbc c27c 8fbc e042 9cba
000001c0: 9e28 8b3d 0b2e 923c b03b 91bd 9b60 d23d
000001d0: 277e 953c e927 3e3d 6b9a 8f3d b7e0 01bd
000001e0: 447a a13d 333a 3d3d b789 bfbb c1ce b2bd
000001f0: efaa 11bd f72e 093c 1ff0 df3d 16c8 093e
00000200: 13b1 2e3d e467 b93d 74ad 08be 4573 ac3c
00000210: 7e45 89bd 834a 1d3d 81be 7abc 352d 3e3d
00000220: f6e0 42bd 02a2 f83c eefd 783d a60d 88bd
00000230: 770c 01bd 00dc 4dbd 13da a2bd 114b 073e
00000240: 2375 0ebb ca2e 1f3d ace0 1e3e f73c 13be
00000250: 5eed 7a3c c02f 38bd 3495 04be 0412 d0bd
00000260: 0242 a0bd 9efe f43c a7f0 ebbd 8ef9 ad3d
00000270: 2092 fe3c 5201 ddbc 03a6 0a3b 3e26 0fbe
00000280: 97ad a83d 8216 a6bb 9166 ebbc 9528 9c3d
00000290: b205 82bd 1d35 1bbd cded a73d a381 fcbd
000002a0: f524 6a3d bc93 8abd 7965 913b 7593 dc3d
000002b0: 49ff 423d e32d 9abd 9884 023b 9211 b5bd
000002c0: 86b5 603d 9405 9fbd 6785 2d3c 3912 97bd
000002d0: 6664 a9bc ca5d 77bd cf43 1bbe 88be 15bd
000002e0: 25ee 80bd 0ed0 f9bc f92b e23d a905 583d
000002f0: 25c3 743d 0d50 93bd d763 623d d8dd 0abd
00000300: 78ee c1bd 9838 b6bd 6631 9f3d 5b7d cebb
00000310: cc84 85bc b2ab cd3b a0ff 1d3e 1b19 b2bd
00000320: f934 1d3c 3e06 04be 2169 72bd eb2b 0bbb
00000330: 71dd 7e3d dd89 c83c 6dd9 9bbd e959 3d3d
00000340: d617 143d 4f4f a33c 266f 89bd 2865 153d
00000350: 8e49 8e3d 92e0 34bd 2c12 823d 2be8 aabd
00000360: 739d 02be 5b52 babd 9f98 b7bd 6800 c03d
00000370: 93ee 043d 2130 f4bb 6d2a d5bb 542c 8cbd
00000380: 631b 133d 9e11 57bd edda bfbd 1ce6 033d
00000390: b8c5 613b 9a0c 693d 717a abbd 712a d3bc
000003a0: bb5b bc3d 4b67 d13c 0a27 e93d b18d de3d
000003b0: 6fa3 30bd 12e4 4e3c a9ef 773d 156e f5bd
000003c0: 225f e83c 89ca 4abd 7349 7dbd 1adb 17be
000003d0: e7e1 853d 78ee d63c 6dec 223d 19fc e83d
000003e0: 73b8 2d3d 0d26 a23d 5e27 103e 4b11 e839
000003f0: 08dc b9bc c7de 8dbd da03 8cbc 93d8 59bd

fc1.bias f4 [4]
-0.074865535 -0.006393086 -0.05983295 0.018764243
00000000: 1a53 99bd 187d d1bb 6513 75bd 78b7 993c
