pths/classifier_train.pth (torch, 61572 bytes, 20 tensors)

conv1.weight f4 [32, 1, 3]
-0.14879179 0.2430194 0.51087 -0.097068034 0.18495455 0.12718731 0.05851403 0.36634368
0.4149834 -0.019370727 0.50683355 -0.13918735 -0.11160392 0.6075927 0.35922956 0.37202996
-0.36192203 -0.24437587 0.41197842 -0.032383077 -0.03449946 0.21429712 -0.30140093 0.47089544
-0.4495376 -0.026517743 -0.21967761 -0.5925795 -0.45525637 -0.44702134 -0.033827003 0.06554755
0.26724896 0.43253165 -0.53457177 0.073964246 -0.6329003 -0.3065435 -0.12518957 -0.062493887
-0.15972055 0.29561794 0.045302913 -0.11435829 -0.5287099 0.20608889 -0.027337052 -0.037368342
0.35666654 -0.3602657 -0.5447942 0.40594593 -0.36328125 -0.50718343 -0.15068229 -0.4719179
-0.5075218 -0.50275487 -0.050633777 0.05122076 -0.55958706 -0.4151893 -0.40199968 0.040940877
-0.5671038 0.4625576 -0.3358077 -0.60521114 -0.4077329 0.49104723 -0.3627889 0.43352872
-0.018428717 0.15224302 0.17403716 0.2667216 0.40604654 -0.2556396 0.20235571 -0.21599658
0.22837758 -0.16279559 0.18396048 0.05949005 -0.31954962 -0.5045227 -0.17284122 0.03752719
-0.59999365 -0.32412052 0.25268155 0.2497595 0.00031106375 -0.39717808 -0.28174433 0.25736836
00000000: e05c 18be 14da 783e 60c8 023f 9bcb c6bd
00000010: ba64 3d3e 643d 023e 68ac 6f3d 6691 bb3e
00000020: b478 d43e 5caf 9ebc d8bf 013f 2187 0ebe
00000030: 9990 e4bd 328b 1b3f f0ec b73e b67a be3e
00000040: d84d b9be ab3d 7abe d6ee d23e 1ea4 04bd
00000050: 4e4f 0dbd b470 5b3e 3951 9abe 3519 f13e
00000060: cb29 e6be bd3b d9bc 2bf3 60be 4ab3 17bf
00000070: 5d17 e9be fbdf e4be 2f8e 0abd cb3d 863d
00000080: dbd4 883e ca74 dd3e b2d9 08bf 917a 973d
00000090: c105 22bf 45f3 9cbe b231 00be 97f9 7fbd
000000a0: c98d 23be 3c5b 973e 8c8f 393d ae34 eabd
000000b0: 8859 07bf f708 533e f4f1 dfbc 8c0f 19bd
000000c0: ff9c b63e bf74 b8be a277 0bbf 25d8 cf3e
000000d0: 0000 babe c6d6 01bf 754c 1abe 399f f1be
000000e0: f3ec 01bf 8bb4 00bf 5d65 4fbd dccc 513d
000000f0: 1941 0fbf b193 d4be e7d2 cdbe 9fb1 273d
00000100: b72d 11bf 5ad4 ec3e fdee abbe 1eef 1abf
00000110: 5ec2 d0be 8b6a fb3e 77bf b9be 7af7 dd3e
00000120: d2f7 96bc 98e5 1b3e cc36 323e bc8f 883e
00000130: 55e5 cf3e 32e3 82be 5636 4f3e 352e 5dbe
00000140: d0db 693e e3b3 26be 2360 3c3e d7ab 733d
00000150: 029c a3be 6628 01bf 4afd 30be 1cb6 193d
00000160: 2f99 19bf 20f3 a5be 7a5f 813e f4c0 7f3e
00000170: 4516 a339 ed5a cbbe cb40 90be c9c5 833e

conv1.bias f4 [32]
-0.2970687 0.5261162 -0.4655546 0.097106025 0.053444773 -0.45772737 0.08148029 0.2601893
-0.08569072 0.56139857 -0.2150682 -0.49399218 0.3665273 0.01313146 -0.18545665 0.2668966
-0.51241815 -0.1893164 0.45857167 0.53531176 -0.05129037 0.35745642 0.1944589 -0.05358747
-0.18738735 0.43938503 0.4577509 -0.07112251 -0.22250123 0.27421287 0.17256407 -0.1588106
00000000: 6319 98be 8daf 063f 2c5d eebe 86df c63d
00000010: e8e8 5a3d 3e5b eabe 23df a63d 8837 853e
00000020: 9e7e afbd d1b7 0f3f d73a 5cbe 8bec fcbe
00000030: 77a9 bb3e 5625 573c 59e8 3dbe aca6 883e
00000040: d62d 03bf 29dc 41be e8c9 ea3e 310a 093f
00000050: da15 52bd 8704 b73e 3c20 473e 897e 5bbd
00000060: 78e2 3fbe 13f7 e03e 535e ea3e aea8 91bd
00000070: 5dd7 63be a165 8c3e a3b4 303e 3f9f 22be

bn1.weight f4 [32]
0.9523362 1.0144132 1.0087874 1.0233684 0.9954333 1.0081671 0.9723447 0.96942824
1.001609 1.0130731 0.98661816 0.9891118 1.000348 1.0069462 1.0257947 0.9813036
1.0267444 1.0047643 1.0263594 1.029564 1.0078156 1.0041997 0.9814166 0.97873986
0.97960913 0.98474836 0.98218286 1.0337297 0.9834328 1.0137053 0.99867815 1.031981
00000000: 4ecc 733f 4bd8 813f f21f 813f bcfd 823f
00000010: b7d4 7e3f 9f0b 813f 95eb 783f 732c 783f
00000020: b934 803f 61ac 813f 0293 7c3f 6e36 7d3f
00000030: 670b 803f 9de3 803f 3e4d 833f b636 7b3f
00000040: 5c6c 833f 1e9c 803f bf5f 833f c1c8 833f
00000050: 1a00 813f 9e89 803f 1e3e 7b3f b28e 7a3f
00000060: aac7 7a3f 7818 7c3f 5670 7b3f 4151 843f
00000070: 41c2 7b3f 18c1 813f 5fa9 7f3f f417 843f

bn1.bias f4 [32]
-0.06857744 -0.004924454 -0.05065224 -0.027588964 -0.059656996 0.02507399 -0.018409291 -0.015665548
-0.02007805 0.012943044 -0.034730677 0.009325841 0.026259795 0.010046321 0.033799395 -0.008448473
0.033641387 -0.024798907 0.024935154 0.016700216 0.0147297075 0.01990025 -0.0001590978 -0.016883949
-0.02632144 -0.0038782675 0.0072349794 -0.026154518 -0.029038206 0.010420554 -0.062448464 0.026350003
00000000: 5472 8cbd 505d a1bb b978 4fbd 4002 e2bc
00000010: e55a 74bd f867 cd3c 15cf 96bc 0955 80bc
00000020: b97a a4bc 100f 543c c141 0ebd 6acb 183c
00000030: c81e d73c 5399 243c 3c71 0a3d 776b 0abc
00000040: 8dcb 093d 1427 cbbc cf44 cc3c e4ce 883c
00000050: df54 713c d905 a33c 7ed3 26b9 3550 8abc
00000060: 0fa0 d7bc 882a 7ebb 6813 ed3b 0042 d6bc
00000070: 88e1 edbc f9ba 2a3c f6c9 7fbd f6db d73c

bn1.running_mean f4 [32]
-0.10916995 0.5943317 -0.20394778 0.20980056 0.32235563 -0.5330861 0.18745895 0.3745567
-0.29980308 0.097156405 -0.12282682 -0.50815135 0.035660934 0.03335541 -0.36965537 0.3104791
-0.6841357 -0.33531654 0.10658646 0.37995934 -0.47887018 0.33107758 -0.22639953 0.11497083
-0.09138114 0.5726842 0.5212806 -0.044616647 -0.5344077 -0.0043801907 0.3300547 -0.2918659
00000000: 7f94 dfbd 1f26 183f b0d7 50be f5d5 563e
00000010: cc0b a53e 5578 08bf 3df5 3f3e e5c5 bf3e
00000020: ca7f 99be f0f9 c63d a18c fbbd 3516 02bf
00000030: 3311 123d af9f 083d 7843 bdbe 1ef7 9e3e
00000040: 8423 2fbf 9cae abbe 004a da3d 088a c23e
00000050: 792e f5be 0083 a93e 47d5 67be d475 eb3d
00000060: 0926 bbbd 6f9b 123f a572 053f f2bf 36bd
00000070: f1ce 08bf b487 8fbb eefc a83e 726f 95be

bn1.running_var f4 [32]
0.0530066 0.008270299 0.06830219 0.031765983 0.08921051 0.03404671 0.0221707 0.03802835
0.048220187 0.1922347 0.012148658 0.041789673 0.109322295 0.010871265 0.047175117 0.005193377
0.07018297 0.06540879 0.11788358 0.037630267 0.16338605 0.04729545 0.16114475 0.063382454
0.01038206 0.038061213 0.014051091 0.006230387 0.091390796 0.08796763 0.02591529 0.038845755
00000000: 731d 593d 2680 073c 05e2 8b3d 0c1d 023d
00000010: 00b4 b63d 9074 0b3d 549f b53c 9dc3 1b3d
00000020: 8882 453d 2cd9 443e 2a0b 473c a62b 2b3d
00000030: 5ee4 df3d 641d 323c b23a 413d 342d aa3b
00000040: 17bc 8f3d 0bf5 853d f26c f13d 3222 1a3d
00000050: ac4e 273e e0b8 413d 2103 253e a9ce 813d
00000060: 8419 2a3c 13e6 1b3d 8c36 663c 4628 cc3b
00000070: 192b bb3d 5f28 b43d 4d4c d43c ba1c 1f3d

conv2.weight f4 [64, 32, 3]
-0.021744216 -0.0904672 0.087485634 -0.050861437 0.047278862 -0.037071988 -0.053849284 0.016253142
-0.035181727 0.05612904 -0.07514641 -0.04520554 -0.04626674 -0.006717078 -0.0076860017 -0.004462476
0.028680129 -0.021169787 -0.107304804 0.09285405 0.0040727593 0.04276686 -0.031990077 -0.009377653
-0.069270246 -0.11217907 -0.02887049 -0.014107774 0.07347491 -0.076316565 -0.088476755 -0.013614854
-0.017900446 -0.097317465 0.07467841 0.039481178 -0.06808767 0.06755837 -0.0012087994 0.06458113
-0.1013081 0.11480615 -0.014623716 0.04672471 -0.08550345 -0.00022048941 0.06560532 -0.05425828
-0.09990818 0.078171976 0.023205834 0.08249344 -0.08894876 0.02436854 0.02823129 0.06396471
0.05869051 -0.08059174 -0.056712303 0.017478062 -0.009658125 -0.110347964 0.06465869 -0.044403855
-0.012217939 0.04592473 -0.0416856 0.05438994 0.08572715 -0.031952754 0.06666582 -0.050560333
-0.07151675 -0.00579212 -0.03178361 0.09875502 0.05902884 -0.004150723 0.053272158 0.10537021
0.12781498 0.073504664 0.018210756 0.04692689 0.00046823584 -0.09704674 -0.012465156 -0.05677164
-0.008492464 -0.09525455 -0.067250825 -0.12431647 0.07860689 0.0324075 0.05089047 0.058850784
-0.03265922 0.06714803 0.024861807 0.025270903 -0.07765624 0.03099174 0.10141535 -0.084714845
0.08377507 0.062442914 -0.0032566406 0.068307325 -0.0051547387 -0.018049054 0.053957332 -0.112218514
0.020316506 0.026078701 -0.066593066 0.055674806 0.08297306 0.027951509 -0.041639663 0.039970838
0.06445424 0.09211895 0.009546575 0.026457388 0.026259897 0.06783914 0.022760376 -0.053867325
-0.1064905 0.016889857 0.0299071 -0.08105188 -0.057669174 -0.06134976 -0.08181327 -0.02808341
0.032023147 0.063161366 0.12223309 0.041594576 0.06464742 0.05523531 0.007899145 -0.015984057
0.06788921 0.098048635 -0.03289555 -0.056453936 0.11738602 -0.022360122 0.122148834 0.13581671
-0.058090374 0.096345246 0.061614126 0.02010519 0.06195748 0.0043514096 -0.0040505836 -0.011122353
0.015322848 -0.034300983 0.052540857 -0.02282417 0.07224608 0.06843885 -0.04097133 0.03379066
-0.0014773802 0.037768677 0.058790542 -0.07736978 0.014969443 0.117920145 0.016844543 -0.04935215
0.082058094 0.03446299 -0.06601794 0.014720357 -0.011763277 -0.05621447 -0.0075356993 -0.012236471
0.09616804 -0.04102445 0.02790085 0.044114728 0.0030558275 0.061876636 0.055297613 -0.056545917
-0.062250827 0.09485807 -0.0801928 0.03839584 0.06022776 -0.03135171 -0.084720016 -0.081403725
0.010644078 -0.060021676 0.046217546 0.09767494 -0.0027331226 0.025020972 -0.08446576 0.06494988
-0.0061925566 0.004877309 -0.053967282 -0.07207783 -0.10013191 -0.070774235 0.07183534 -0.069079235
0.095716536 0.0842963 -0.06503651 -0.01643288 0.033290435 -0.10968056 0.11308468 0.09127883
-0.104029 0.06712385 0.003506811 0.097011894 -0.009505484 0.05106777 -0.082039975 0.1027064
-0.07289953 -0.06712114 0.07821597 0.046307977 -0.0031174913 0.0429704 0.016078848 0.05953551
-0.08278365 0.094837 0.0138193285 -0.0380592 0.006869383 0.06548934 0.022747044 -0.05194719
-0.017618766 -0.0032918751 0.04612277 0.015737832 -0.061818115 -0.08930766 -0.013113784 -0.013716174
00000000: ed20 b2bc de46 b9bd ab2b b33d 1554 50bd
00000010: 7ba7 413d ccd8 17bd 1191 5cbd 4f25 853c
00000020: b71a 10bd 90e7 653d 5ce6 99bd 7229 39bd
00000030: 3182 3dbd ef1a dcbb dbda fbbb f639 92bb
00000040: 97f2 ea3c 436c adbc 9fc2 dbbd 442a be3d
00000050: c874 853b 4e2c 2f3d 0708 03bd baa4 19bc
00000060: 8fdd 8dbd 24be e5bd ce81 ecbc 4b24 67bc
00000070: 037a 963d dc4b 9cbd 4d33 b5bd d610 5fbc
00000080: f5a3 92bc 614e c7bd fff0 983d 04b7 213d
00000090: 8c71 8bbd 0b5c 8a3d 9470 9eba 1d43 843d
000000a0: 9f7a cfbd 7d1f eb3d 4f98 6fbc 6962 3f3d
000000b0: 6f1c afbd 2d33 67b9 155c 863d ee3d 5ebd
000000c0: a99c ccbd a118 a03d 291a be3c 52f2 a83d
000000d0: c42a b6bd 88a0 c73c 4e45 e73c eeff 823d
000000e0: 7665 703d 480d a5bd 294b 68bd 272e 8f3c
000000f0: 1d3d 1ebc 1dfe e1bd c66b 843d d1e0 35bd
00000100: c02d 48bc 921b 3c3d 85be 2abd fcc7 5e3d
00000110: b791 af3d e4e0 02bd 1788 883d 5a18 4fbd
00000120: 6077 92bd d3cb bdbb 882f 02bd 1240 ca3d
00000130: 3ac8 713d ca02 88bb e833 5a3d 56cc d73d
00000140: eee1 023e 9d89 963d b92e 953c 6936 403d
00000150: 8d7d f539 71c0 c6bd a73a 4cbc 6189 68bd
00000160: fa23 0bbc d114 c3bd cdba 89bd a299 febd
00000170: a6fc a03d babd 043d 8772 503d 850d 713d
00000180: adc5 05bd e884 893d fdaa cb3c ed04 cf3c
00000190: 3c0a 9fbd 64e2 fd3c dab2 cf3d fa7e adbd
000001a0: 4492 ab3d 24c4 7f3d 5d6d 55bb b6e4 8b3d
000001b0: 15e9 a8bb 9cdb 93bc 5d02 5d3d d2d2 e5bd
000001c0: cd6e a63c 00a3 d53c f261 88bd 440b 643d
000001d0: c8ed a93d 90fa e43c 5a8e 2abd 76b8 233d
000001e0: 9600 843d dca8 bc3d 3d69 1c3c 2abd d83c
000001f0: ff1e d73c 3fef 8a3d f873 ba3c fca3 5cbd
00000200: b117 dabd 995c 8a3c bcff f43c 87fe a5bd
00000210: 8336 6cbd e349 7bbd b78d a7bd 2e0f e6bc
00000220: b42a 033d bf5a 813d 5855 fa3d 135f 2a3d
00000230: de65 843d 6c3e 623d 6a6b 013c fff0 82bc
00000240: 8009 8b3d b9cd c83d 7cbd 06bd 3e3c 67bd
00000250: 1568 f03d 932c b7bc 2b29 fa3d 8913 0b3e
00000260: 2cf0 6dbd a850 c53d 185f 7c3d a4b3 a43c
00000270: 20c7 7d3d 4596 8e3b c2ba 84bb 883a 36bc
00000280: af0c 7b3c 307f 0cbd 1535 573d c1f9 babc
00000290: c1f5 933d ab29 8c3d 8ed1 27bd 1368 0a3d
000002a0: a7a4 c1ba 54b3 1a3d 5ace 703d 0c74 9ebd
000002b0: 6542 753c 1e80 f13d 91fd 893c 7b25 4abd
000002c0: 130e a83d 1029 0d3d 6a34 87bd a72d 713c
000002d0: c3ba 40bc 2541 66bd 07ee f6bb 7b7b 48bc
000002e0: c0f3 c43d 4109 28bd 5390 e43c a5b1 343d
000002f0: 4744 483b 5b72 7d3d c07f 623d b19c 67bd
00000300: b9fa 7ebd f344 c23d 1f3c a4bd f544 1d3d
00000310: 62b1 763d a76a 00bd b081 adbd ffb6 a6bd
00000320: 8064 2e3c 4ad9 75bd 9c4e 3d3d cd09 c83d
00000330: 301e 33bb c8f8 cc3c 62fc acbd 7104 853d
00000340: eeea cabb d5d1 9f3b cc0c 5dbd 8b9d 93bd
00000350: f511 cdbd 15f2 90bd 681e 933d 6a79 8dbd
00000360: 0807 c43d 8aa3 ac3d dd31 85bd 3f9e 86bc
00000370: 8d5b 083d 34a0 e0bd f198 e73d 65f0 ba3d
00000380: 280d d5bd 3b78 893d 87d2 653b 2cae c63d
00000390: e4bc 1bbc 702c 513d 9304 a8bd bc57 d23d
000003a0: 594c 95bd cf76 89bd b22f a03d 6fad 3d3d
000003b0: d34e 4cbb bb01 303d cab7 833c 82db 733d
000003c0: 798a a9bd e739 c23d 776a 623c f7e3 1bbd
000003d0: 9018 e13b 461f 863d 0258 ba3c 94c6 54bd
000003e0: 3b55 90bc 80bc 57bb 3beb 3c3d a0ec 803c
000003f0: fe34 7dbd efe6 b6bd 32db 56bc ceb9 60bc

conv2.bias f4 [64]
0.030240213 0.055041432 0.06316026 -0.017671602 -0.077580824 0.01647783 -0.07801621 0.028463881
0.10048382 0.098169304 -0.06456959 0.052441046 -0.00076768873 -0.057866618 -0.048088435 0.077830896
-0.022321617 0.056448642 -0.078904495 0.06480169 -0.07452543 -0.021129446 -0.07746147 -0.022645565
-0.07090541 0.09108698 -0.07262612 -1.774904e-05 0.03931007 -0.048473276 -0.05258841 -0.03392398
0.07078674 0.07956053 -0.079377934 -0.037026208 0.011426216 -0.011946248 0.034978922 0.081087664
0.042828467 -0.036104836 0.04567093 0.08623526 -0.08151579 -0.09033726 0.07181869 -0.08173252
0.07807264 -0.009182011 0.018152362 -0.026321558 -0.0692279 -0.024759166 0.047043387 0.040880192
-0.07907465 -0.031153854 0.08598695 -0.06990935 0.020408798 -0.029984416 0.0016777131 -0.086295
00000000: 53ba f73c 2073 613d 2b5a 813d 09c4 90bc
00000010: b2e2 9ebd 84fc 863c f6c6 9fbd 162d e93c
00000020: 76ca cd3d fd0c c93d 103d 84bd 6ccc 563d
00000030: b83e 49ba 8c05 6dbd 61f8 44bd ce65 9f3d
00000040: d3db b6bc b136 673d ae98 a1bd c0b6 843d
00000050: caa0 98bd a917 adbc 1fa4 9ebd 3183 b9bc
00000060: db36 91bd d08b ba3d 01bd 94bd c6e3 94b7
00000070: 9903 213d ea8b 46bd f266 57bd dff3 0abd
00000080: a3f8 903d a2f0 a23d e690 a2bd cba8 17bd
00000090: 0635 3b3c 32ba 43bc 0f46 0f3d 4a11 a63d
000000a0: e76c 2f3d aae2 13bd 7111 3b3d 1d9c b03d
000000b0: c0f1 a6bd be02 b9bd ad15 933d 6163 a7bd
000000c0: 8ce4 9f3d 2570 16bc 43b4 943c 4fa0 d7bc
000000d0: 5bc7 8dbd bcd3 cabc 91b0 403d fd71 273d
000000e0: e4f1 a1bd 5e36 ffbc ed19 b03d a22c 8fbd
000000f0: 5a30 a73c e1a1 f5bc b6e6 db3a 6fbb b0bd

bn2.weight f4 [64]
0.9838825 1.031556 0.9722877 1.0443218 0.9975061 0.9762874 0.9653438 1.0324987
0.99842185 1.0305724 1.0322872 1.0275882 0.9932329 1.0475099 0.98664284 1.0259742
0.99689746 1.0343128 0.98364854 0.9821346 0.9842661 1.0122032 1.0167756 0.9795942
0.9756469 0.9904565 1.0275993 1.0407312 1.0027902 0.99505633 1.0277702 1.0091548
0.9692369 1.0209906 0.98520947 0.9786117 0.9997043 1.019681 1.0035143 1.0193908
1.0071481 1.0010169 0.9909333 0.9760098 1.0353069 1.0156099 1.0096674 0.98802334
0.9545582 0.98972857 1.0198946 1.0075618 0.9941097 0.9671654 0.9812295 0.99893016
1.0071845 0.9769712 1.0104684 0.99628013 0.99530977 0.9682426 0.9940201 0.9803133
00000000: b9df 7b3f 070a 843f d9e7 783f 56ac 853f
00000010: 8f5c 7f3f f9ed 793f c520 773f eb28 843f
00000020: 9398 7f3f cce9 833f fd21 843f 0388 833f
00000030: 8344 7e3f ce14 863f a094 7c3f 1f53 833f
00000040: ac34 7f3f 5d64 843f 64d0 7b3f 2c6d 7b3f
00000050: ddf8 7b3f e08f 813f b425 823f afc6 7a3f
00000060: ffc3 793f 8f8e 7d3f 6088 833f ae36 853f
00000070: 6e5b 803f 03bc 7e3f f98d 833f fc2b 813f
00000080: e91f 783f d2af 823f b036 7c3f 4c86 7a3f
00000090: 9fec 7f3f e884 823f 2873 803f 667b 823f
000000a0: 3bea 803f 5221 803f cead 7d3f c7db 793f
000000b0: f084 843f 81ff 813f c83c 813f 19ef 7c3f
000000c0: ed5d 743f da5e 7d3f e88b 823f c9f7 803f
000000d0: f97d 7e3f 2798 773f db31 7b3f e3b9 7f3f
000000e0: 6ceb 803f c91a 7a3f 0757 813f 370c 7f3f
000000f0: 9fcc 7e3f bfde 773f 1a78 7e3f d0f5 7a3f

bn2.bias f4 [64]
-0.017988222 0.008078764 0.0049507963 -0.01387606 -0.0052684424 -0.010445695 -0.037845008 0.022324838
0.041828785 -0.016814535 0.008330542 -0.0074007553 -0.010537818 0.00979892 0.0018741648 0.024862453
0.0011463444 0.03135679 -0.030239414 -0.035407435 0.004881672 -0.016652284 0.042765882 -0.045385808
-0.0039172 0.028099159 0.01353645 -0.009352617 0.041258026 -0.069760986 0.010147244 0.008176751
0.0046022967 -0.019033648 -0.061907776 -0.055655174 -0.03503096 0.012880751 -0.02679861 -0.01006056
-0.02055027 -0.03648093 -0.0059077744 -0.008323198 -0.04091415 0.01517649 0.0042269034 -0.03797533
-0.029454786 -0.023286877 0.029961852 -0.0340218 -0.0076707313 -0.025041234 -0.014222872 -0.020284614
-0.01595331 -0.03672863 -0.019746643 0.016713556 -0.049584355 0.012778457 -0.02933985 0.0055949152
00000000: 095c 93bc cb5c 043c 4a3a a23b 6a58 63bc
00000010: e6a2 acbb 6c24 2bbc 5e03 1bbd 94e2 b63c
00000020: a954 2b3d a3be 89bc d37c 083c 0982 f2bb
00000030: d0a6 2cbc a68b 203c 89a6 f53a 58ac cb3c
00000040: ef40 963a fa6f 003d a6b8 f7bc 6307 11bd
00000050: 6ff6 9f3b 5f6a 88bc 472b 2f3d 78e6 39bd
00000060: db5b 80bb 3530 e63c fdc7 5d3c b83b 19bc
00000070: 2dfe 283d d9de 8ebd a040 263c c8f7 053c
00000080: ddce 963b 74ec 9bbc 0293 7dbd aef6 63bd
00000090: a07c 0fbd c909 533c c288 dbbc 0cd5 24bc
000000a0: 0a59 a8bc 076d 15bd 0196 c1bb 065e 08bc
000000b0: 9995 27bd d0a6 783c d681 8a3b 058c 1bbd
000000c0: 2a4b f1bc 1fc4 bebc 8f72 f53c 715a 0bbd
000000d0: c25a fbbb 4623 cdbc 0d07 69bc eb2b a6bc
000000e0: 84b0 82bc c370 16bd b6c3 a1bc deea 883c
000000f0: f718 4bbd bc5c 513c 205a f0bc 8d55 b73b

bn2.running_mean f4 [64]
-0.07614574 0.9580088 -0.08087701 0.2281987 0.067412004 0.56848776 0.2843979 0.1553415
0.32654774 0.39681035 -0.71313584 -0.0914915 0.16026916 -0.2805207 0.11356091 -1.0326623
-0.038783535 -0.06530611 0.9043192 0.16644126 -0.09356766 -0.8770654 -0.3486697 -0.12846379
-0.69379485 0.03338839 -0.72768307 0.041718043 0.21041779 -0.147108 -0.74835503 0.45264852
0.05603371 0.29762134 -0.65783983 -0.28988844 0.9702156 -0.049322702 0.067236096 -0.31419575
-0.29106277 -0.3539571 -0.92323613 -0.4784296 0.38426742 -0.6110205 0.17529936 0.23621668
-0.3007203 0.38554206 -0.7389053 -0.7587805 -0.40063912 0.19308624 -0.56590366 0.5325497
0.3840959 -0.037260253 0.0125803435 0.2589571 -0.6967159 0.47621086 -0.26773193 -0.1135138
00000000: 4cf2 9bbd 1140 753f d9a2 a5bd ecac 693e
00000010: 4e0f 8a3d 6a88 113f 9a9c 913e d811 1f3e
00000020: 4431 a73e ba2a cb3e 1290 36bf e55f bbbd
00000030: 991d 243e 69a0 8fbe 9f92 e83d 472e 84bf
00000040: 7cdb 1ebd 36bf 85bd 7781 673f 946f 2a3e
00000050: 67a0 bfbd 5c87 60bf d684 b2be 038c 03be
00000060: 8a9c 31bf 44c2 083d 7049 3abf 8ae0 2a3d
00000070: c377 573e 7ba3 16be 3294 3fbf 8cc1 e73e
00000080: 9a83 653d d361 983e 3168 28bf 426c 94be
00000090: 0d60 783f 9a06 4abd 14b3 893d 44de a0be
000000a0: 2e06 95be dd39 b5be 3459 6cbf b9f4 f4be
000000b0: b3be c43e d76b 1cbf ad81 333e c9e2 713e
000000c0: 03f8 99be c565 c53e e628 3dbf 703f 42bf
000000d0: 9220 cdbe 66b8 453e 10df 10bf 2d55 083f
000000e0: 38a8 c43e 359e 18bd c91d 4e3c 0696 843e
000000f0: f95b 32bf e9d1 f33e 2914 89be ec79 e8bd

bn2.running_var f4 [64]
0.11766022 0.17022546 0.18129481 0.08412726 0.12738378 0.5909064 0.41015834 0.11700141
0.099753484 0.19274531 0.14495465 0.25754124 0.1256534 0.12649311 0.28423393 0.21058638
0.16966802 0.14879224 0.19503058 0.12761113 0.27371883 0.3089118 0.315291 0.27138862
0.09581774 0.28472668 0.25115648 0.11810894 0.10054654 0.15160102 0.21455537 0.23082149
0.26653808 0.07805964 0.13415094 0.18134418 0.2623534 0.114885196 0.11271824 0.32142934
0.19093926 0.16370958 0.28075457 0.17032994 0.23153287 0.34927633 0.19296768 0.07625924
0.23706342 0.21386935 0.3564954 0.22126529 0.05941637 0.08550778 0.29743612 0.25789398
0.20113072 0.059994712 0.23938328 0.21361145 0.11813374 0.42325535 0.10132483 0.2223008
00000000: d7f7 f03d 954f 2e3e 59a5 393e ea4a ac3d
00000010: e570 023e a445 173f 4600 d23e 6f9e ef3d
00000020: 8e4b cc3d 075f 453e fe6e 143e 72dc 833e
00000030: 49ab 003e 6987 013e 1c87 913e f5a3 573e
00000040: 74bd 2d3e fe5c 183e 19b6 473e 7eac 023e
00000050: e024 8c3e b029 9e3e d26d a13e 73f3 8a3e
00000060: 173c c43d b2c7 913e 9597 803e 1ae3 f13d
00000070: 58eb cd3d 4c3d 1b3e 67b4 5b3e 785c 6c3e
00000080: ae77 883e bcdd 9f3d dd5e 093e 4ab2 393e
00000090: 2f53 863e ee48 eb3d d2d8 e63d 6392 a43e
000000a0: 9585 433e 7ca3 273e 10bf 8f3e f96a 2e3e
000000b0: f416 6d3e 59d4 b23e 5299 453e ce2d 9c3d
000000c0: c1c0 723e 9100 5b3e 9186 b63e 5e93 623e
000000d0: 945e 733d b41e af3d 8c49 983e ae0a 843e
000000e0: 36f5 4d3e 04bd 753d e420 753e f6bc 5a3e
000000f0: 1af0 f13d edb4 d83e 6483 cf3d d2a2 633e

conv3.weight f4 [32, 64, 3]
0.010000124 0.072680995 -0.044488177 0.066022925 0.017478375 0.02999384 0.033967957 -0.01815654
0.016756434 -0.0013878938 -0.018455585 0.023672411 0.061605293 0.07808521 -0.01618786 0.010925775
-0.021818202 0.01781939 0.044456046 0.009087045 0.014810568 0.043997176 -0.021440554 0.0055904477
0.06278648 -0.050141137 0.0366272 -0.07331934 -0.033359315 -0.0017796302 0.10154346 -0.00089487
0.03390696 -0.027660973 0.07430484 -0.03573241 -0.06941806 0.031510666 0.018561494 -0.06348966
0.032252107 -0.005518628 0.025595715 0.04409846 0.029252557 -0.037259854 -0.034963544 -0.008412714
0.05123162 -0.024408791 0.02961491 0.016214423 0.09826273 0.058802243 -0.023407787 0.039819904
0.0050219516 -0.06414627 -0.08327487 0.010737089 -0.008660795 0.03539081 -0.03708941 -0.042229805
-0.025177717 -0.0025217526 0.007812145 0.044484094 0.061815776 0.025466532 -0.013471179 0.008269506
0.0018957752 -0.0011684925 0.0149760535 0.014294645 -0.04983633 0.104460604 -0.0021214914 -0.01510717
-0.09106351 0.052407973 -0.05195803 0.012323108 -0.02627266 -0.047339983 0.06541637 0.037415188
-0.06744016 0.05845806 0.062338077 -0.0043797325 -0.05447339 0.033024147 -0.032742076 0.07614666
0.004194168 -0.07576328 0.009686306 -0.06046491 -0.08374436 -0.02375569 0.06417933 0.026923884
-0.01950078 -0.053175982 0.02157319 -0.081291616 0.10044739 -0.017845267 -0.0056670993 -0.06738688
0.05497883 -0.0028453525 -0.029581852 0.079983816 0.013240807 0.05167564 -0.09259215 0.013354965
-0.024035558 0.020726364 0.05567323 -0.052160475 0.05569928 -0.014472329 0.0575701 0.03236672
-0.0479854 -0.021365251 0.043455172 0.008574701 -0.034329668 0.030920427 0.07291372 0.058432277
0.012429778 0.0062454743 -0.005450785 -0.023373844 -0.03509576 0.032601643 0.11658139 -0.0038759778
0.0613608 -0.06568683 0.020843629 -0.019708633 -0.08931753 -0.045656905 0.043983847 0.040797953
-0.015395212 0.01845098 0.03288461 0.09420691 -0.013930668 0.017130703 -0.05675913 0.096685335
-0.05542379 0.044619117 -0.018285494 -0.027503576 -0.033854064 0.059743926 -0.048904184 0.01182875
-0.03330172 0.064835005 0.06412403 -0.016715212 -0.04744611 -0.0056481296 -0.013480749 -0.0060106055
0.02055635 -0.039179772 0.034433376 -0.0073297797 0.02769055 -0.028775772 -0.025069848 -0.07624885
-0.040114284 -0.06270276 0.0664529 0.03428549 -0.027448209 0.0089247115 0.012860037 0.014684764
0.035348047 -0.03501451 0.022276744 0.006410355 0.03546811 -0.011270947 -0.021550788 -0.07810695
-0.009308731 0.0060010366 -0.009914118 0.07656672 -0.046846595 0.021789052 0.02406938 0.044815462
0.039571546 -0.06854735 -0.061200283 0.079237446 -0.10294552 0.05429924 0.08018398 -0.08828798
-0.049490813 -0.054951712 -0.0008127292 0.0043559205 -0.024257014 0.0029587527 0.09771953 -0.009653978
-0.062686436 -0.036989886 0.0220163 -0.00048200617 -0.01448172 0.055940066 0.028654266 -0.09140791
0.027950112 0.02003968 0.031198256 -0.053882554 -0.031952478 0.05828142 -0.06910617 0.0036256209
-0.10447299 0.04987801 -0.08943025 -0.029268306 -0.035275932 0.040344432 -0.022145592 -0.04146746
0.088265054 0.021952827 0.0029216616 -0.08625976 0.041917443 0.034412432 -0.10637256 0.0051533054
00000000: 8fd7 233c c6d9 943d 3c39 36bd 0737 873d
00000010: cf2e 8f3c a4b5 f53c fc21 0b3d 06bd 94bc
00000020: ca44 893c fde9 b5ba 2b30 97bc a5ec c13c
00000030: d555 7c3d 23eb 9f3d 679c 84bc 0602 333c
00000040: 16bc b2bc f8f9 913c 8b17 363d d4e1 143c
00000050: 06a8 723c 6236 343d 1aa4 afbc 1330 b73b
00000060: 3396 803d cb60 4dbd 6706 163d 7328 96bd
00000070: c7a3 08bd 7b42 e9ba 04f6 cf3d b695 6aba
00000080: 06e2 0a3d 4499 e2bc 232d 983d 265c 12bd
00000090: 0e2b 8ebd 5411 013d 460e 983c de06 82bd
000000a0: c91a 043d 9bd5 b4bb 1bae d13c 96a0 343d
000000b0: 0fa3 ef3c ca9d 18bd ef35 0fbd 7bd5 09bc
000000c0: 3fd8 513d f2f4 c7bc f89a f23c 1cd4 843c
000000d0: f83d c93d 9fda 703d b0c1 bfbc 321a 233d
000000e0: 2f8f a43b 1f5f 83bd 048c aabd 9eea 2f3c
000000f0: 02e6 0dbc f4f5 103d 11eb 17bd 29f9 2cbd
00000100: 8041 cebc fd43 25bb 06fd ff3b f434 363d
00000110: 8a32 7d3d 309f d03c 38b6 5cbc d27c 073c
00000120: a97b f83a 1a28 99ba 1f5e 753c 1634 6a3c
00000130: 2e21 4cbd 71ef d53d b808 0bbb 1084 77bc
00000140: 817f babd bea9 563d f1d1 54bd dce6 493c
00000150: c339 d7bc 92e7 41bd 05f9 853d ab40 193d
00000160: 111e 8abd b871 6f3d 3656 7f3d dc83 8fbb
00000170: 7d1f 5fbd 5444 073d 8e1c 06bd c8f2 9b3d
00000180: 3b6f 893b c729 9bbd 50b3 1e3c 0eaa 77bd
00000190: 2a82 abbd 4b9b c2bc 7470 833d 7a8f dc3c
000001a0: 1ac0 9fbc 0fcf 59bd 42ba b03c 387c a6bd
000001b0: 5cb7 cd3d 3d30 92bc 13b3 b9bb 2202 8abd
000001c0: 7b31 613d 1879 3abb a455 f2bc 8ece a33d
000001d0: f8ef 583c d6a9 533d f4a0 bdbd c8ce 5a3c
000001e0: 38e6 c4bc 56ca a93c 9d09 643d 39a6 55bd
000001f0: ee24 643d 591d 6dbc a0ce 6b3d f792 043d
00000200: 578c 44bd 2e06 afbc 0dfe 313d e77c 0c3c
00000210: 449d 0cbd d64c fd3c ca53 953d af56 6f3d
00000220: 45a6 4b3c d6a6 cc3b 809c b2bb 817a bfbc
00000230: 92c0 0fbd 4d89 053d 39c2 ee3d 1e04 7ebb
00000240: 7655 7b3d d186 86bd 42c0 aa3c 0074 a1bc
00000250: 1cec b6bd bc02 3bbd 6828 343d c11b 273d
00000260: 333c 7cbc 8226 973c 03b2 063d 8def c03d
00000270: 753d 64bc b055 8c3c 437c 68bd f602 c63d
00000280: 0e04 63bd 89c2 363d 76cb 95bc 2e4f e1bc
00000290: 8faa 0abd 0cb6 743d c14f 48bd 60cd 413c
000002a0: 6267 08bd 37c8 843d 7653 833d 57ee 88bc
000002b0: da56 42bd f213 b9bb 5cde 5cbc 9df4 c4bb
000002c0: ca65 a83c f87a 20bd 030a 0d3d a62e f0bb
000002d0: 4bd7 e23c 2bbb ebbc 485f cdbc 5b28 9cbd
000002e0: e04e 24bd 4e6a 80bd 7518 883d f16e 0c3d
000002f0: 11db e0bc f438 123c e8b2 523c 5d98 703c
00000300: 1dc9 103d 606b 0fbd b87d b63c f50d d23b
00000310: 0247 113d c7a9 38bc 478b b0bc 89f6 9fbd
00000320: a683 18bc 58a4 c43b d36e 22bc 03cf 9c3d
00000330: 37e2 3fbd f47e b23c 262d c53c 6b90 373d
00000340: c615 223d 8e62 8cbd 26ad 7abd 3e47 a23d
00000350: 1ad5 d2bd e168 5e3d 8037 a43d 54d0 b4bd
00000360: e1b6 4abd 0c15 61bd 550d 55ba 1cbc 8e3b
00000370: a5b6 c6bc a2e7 413b 2d21 c83d b82b 1ebc
00000380: bf61 80bd b582 17bd 875b b43c c6b5 fcb9
00000390: bc44 6dbc 6921 653d 5abc ea3c 1234 bbbd
000003a0: a2f7 e43c 412a a43c 7c93 ff3c f4b3 5cbd
000003b0: 9ae0 02bd 80b8 6e3d 8987 8dbd d39b 6d3b
000003c0: eff5 d5bd e24c 4c3d 3527 b7bd 16c4 efbc
000003d0: 7f7d 10bd 3440 253d ac6a b5bc c9d9 29bd
000003e0: 4fc4 b43d 6ad6 b33c 5979 3f3b f5a8 b0bd
000003f0: a0b1 2b3d 0df4 0c3d dbd9 d9bd 0fdd a83b

conv3.bias f4 [32]
-0.028575031 0.047562752 0.066628195 -0.008533157 0.03778921 0.021409959 0.034783263 0.019593284
0.056758374 -0.028759515 0.0074666766 -0.055562288 -0.026582658 -0.027149515 -0.018167645 0.03205032
-0.014630175 0.052254952 -0.056057934 0.005503089 0.061963677 -0.05571177 0.014803155 0.032429926
-0.03648675 -0.0007117556 0.041614056 0.030098183 -0.06351216 -0.0702809 -0.05521868 0.052064814
00000000: 2f16 eabc 29d1 423d 5d74 883d a8ce 0bbc
00000010: dcc8 1a3d f063 af3c e578 0e3d 1882 a03c
00000020: 787b 683d 1399 ebbc 06ab f43b 4895 63bd
00000030: e0c3 d9bc a968 debc 50d4 94bc 3247 033d
00000040: 67b3 6fbc 4a09 563d 019d 65bd 4253 b43b
00000050: a0cd 7d3d 0632 64bd ef88 723c 3ed5 043d
00000060: 2173 15bd 1c95 3aba 8073 2a3d 7790 f63c
00000070: aa12 82bd 6fef 8fbd fc2c 62bd ea41 553d

bn3.weight f4 [32]
1.1798584 1.1782713 1.2157397 1.0989999 1.1676497 1.1269078 1.119885 1.164664
1.1559886 1.1104912 1.1352322 1.1339668 1.1800246 1.1205047 1.2154182 1.1881443
1.1817335 1.1745973 1.1603439 1.1822518 1.1848439 1.0831882 1.181776 1.1434525
1.1170995 1.2013425 1.1208538 1.1812594 1.1386994 1.1602451 1.0996467 1.094314
00000000: 9a05 973f 98d1 963f 5c9d 9b3f 07ac 8c3f
00000010: 8c75 953f 843e 903f 6458 8f3f b613 953f
00000020: 6ff7 933f 9324 8e3f 4a4f 913f d325 913f
00000030: 0c0b 973f b36c 8f3f d392 9b3f 1d15 983f
00000040: 0b43 973f 3459 963f 2686 943f 0754 973f
00000050: f7a8 973f e9a5 8a3f 7044 973f a75c 923f
00000060: 1efd 8e3f 97c5 993f 2378 8f3f 8233 973f
00000070: e7c0 913f e982 943f 39c1 8c3f 7b12 8c3f

bn3.bias f4 [32]
0.09441404 0.1320211 0.120086424 0.027498618 0.072303884 0.060182814 0.07372088 0.08621091
0.06596992 0.07028929 0.0373972 0.04599291 0.08681493 0.068840176 0.09904687 0.116181545
0.07870413 0.08253547 0.065612145 0.08733652 0.10571932 -0.006794869 0.09283437 0.066346526
0.090916395 0.09363305 0.053203113 0.074656636 0.08085622 0.058974285 0.033014115 0.036727373
00000000: 265c c13d 8a30 073e dfef f53d c844 e13c
00000010: 0f14 943d 4182 763d f9fa 963d 588f b03d
00000020: 3d1b 873d d5f3 8f3d ce2d 193d 1063 3c3d
00000030: 07cc b13d 14fc 8c3d 16d9 ca3d 97f0 ed3d
00000040: a22f a13d 5b08 a93d a95f 863d 7ddd b23d
00000050: 5f83 d83d 7ea7 debb f21f be3d b0e0 873d
00000060: 6032 ba3d afc2 bf3d 82eb 593d 94e5 983d
00000070: f297 a53d 058f 713d cf39 073d 716f 163d

bn3.running_mean f4 [32]
0.4304151 -0.30856627 -0.07942401 0.68789023 0.46189785 -0.07150465 -0.09225284 -0.30398685
0.69297993 0.4377998 0.0625514 0.20290309 -0.58565533 -0.36709416 0.14785609 -0.6273496
-0.33068532 0.06281624 0.31302983 0.5321273 0.12796783 1.0279822 -0.29960313 0.2139508
-0.5920476 -0.14080313 0.8719747 -0.08270008 -0.3001944 0.18625088 0.29611728 -0.089884736
00000000: 5e5f dc3e 66fc 9dbe 0ea9 a2bd 9319 303f
00000010: e07d ec3e 0871 92bd 0fef bcbd 2aa4 9bbe
00000020: 2267 313f 4c27 e03e f31a 803d d4c5 4f3e
00000030: 82ed 15bf c4f3 bbbe 9667 173e fc99 20bf
00000040: 964f a9be cda5 803d 7245 a03e 7f39 083f
00000050: 000a 033e ec94 833f 9565 99be eb15 5b3e
00000060: 6e90 17bf b22e 10be bc39 5f3f a95e a9bd
00000070: 15b3 99be 8db8 3e3e af9c 973e 7d15 b8bd

bn3.running_var f4 [32]
0.16615182 0.26822576 0.11263951 0.15797445 0.23543374 0.12512079 0.40591115 0.12838216
0.15866575 0.11373003 0.12192622 0.1817447 0.14905198 0.46667013 0.15440181 0.14419891
0.15827908 0.11388543 0.11578818 0.15891366 0.16215552 0.21722732 0.24981678 0.17646135
0.18241927 0.08697401 0.118135035 0.23072629 0.16179192 0.1382091 0.14261256 0.1503791
00000000: b423 2a3e e354 893e 8baf e63d 0ec4 213e
00000010: 8b15 713e aa1f 003e 96d3 cf3e 9d76 033e
00000020: 4679 223e 4aeb e83d 74b4 f93d 481b 3a3e
00000030: 15a1 183e 63ef ee3e 821b 1e3e e1a8 133e
00000040: e913 223e c43c e93d 5a22 ed3d 43ba 223e
00000050: 190c 263e d770 5e3e f8cf 7f3e 49b2 343e
00000060: 1ecc 3a3e 6e1f b23d c8f0 f13d 8343 6c3e
00000070: c8ac 253e b086 0d3e 0709 123e fbfc 193e

fc1.weight f4 [4, 128]
0.019075245 -0.13684577 0.0738711 0.100578465 0.05114387 -0.04214963 -0.17062277 0.09712022
-0.10161418 0.17108065 -0.10645952 0.08149356 0.06331858 -0.13594958 0.042108703 -0.029106518
0.035048585 -0.21438427 -0.015036855 -0.083726436 0.1260203 0.14651188 0.11311606 -0.10345949
-0.023361586 -0.12966426 -0.029307386 -0.04487585 -0.04283387 -0.04975181 0.042955946 -0.09873648
0.040392037 -0.11728276 0.030202836 0.051106747 0.13519292 0.015828978 0.03650623 0.041523904
0.094409205 -0.09223954 -0.06718429 -0.084519856 0.13167286 -0.03611023 0.14419883 0.15710132
-0.039519526 -0.08194135 -0.06089444 0.029347558 -0.08604241 -0.1372075 0.028683336 0.048987474
-0.017767629 0.11702854 0.036540605 0.040205628 -0.06036353 0.16748135 -0.10479704 0.007911739
0.17564815 -0.12777202 0.012011286 -0.10320236 0.17456102 0.014106114 -0.16434054 0.12612648
0.14889629 -0.100325786 0.10910254 0.12657079 0.16622706 -0.111571394 0.041626733 -0.0013196608
0.060329806 -0.12756233 0.0850409 0.09063079 -0.1232323 -0.07186937 -0.07710566 0.07737475
-0.16845207 -0.22905378 -0.07329606 0.08746936 -0.14905262 -0.013431344 -0.14182235 -0.011840073
-0.11333326 0.15271178 0.042538606 0.0022456837 0.0103337485 0.021651097 0.06496853 0.008468385
-0.05661303 0.0782287 0.029913662 -0.0032461088 -0.07915859 -0.022264414 -0.08571446 0.051898107
0.1278971 -0.04654796 -0.050459158 0.046916243 -0.06759818 0.025019214 -0.020668786 -0.009753095
0.078216344 0.017301774 0.007108081 -0.0989193 -0.0035312525 0.09751345 0.07600575 0.09613668
0.14768694 0.15502211 -0.09436364 0.0048372853 -0.18883291 0.02509896 0.025591668 -0.00841863
-0.13978314 -0.017113507 0.08644568 0.05356286 0.065655 -0.013841406 -0.05050109 0.11847105
0.05299667 0.08841155 0.016953787 -0.1404461 -0.032304786 -0.11420883 -0.05927408 -0.08207812
-0.079422824 0.060483508 -0.15596227 0.03721621 -0.037922226 -0.062231544 0.00067082676 -0.117066056
0.14658505 -0.022845924 -0.027356641 0.06378784 -0.09753064 -0.06994742 0.03227655 -0.070379846
0.098712616 -0.061564453 -0.019548515 0.09077614 0.08645194 -0.057892993 -0.07060818 -0.12916067
-0.040041443 -0.14649008 0.02822514 -0.076234065 0.028067932 -0.07235046 -0.16342677 -0.107438855
-0.13664596 -0.041197624 0.11014401 0.09951888 0.054782867 -0.11904049 0.06928879 -0.06200079
-0.206938 -0.059431307 0.0154435355 -0.02816321 -0.039261527 0.051030107 0.1596791 -0.059970208
0.048617832 -0.07453767 -0.08591312 -0.014779895 0.069661565 0.12754671 -0.1356787 0.0016673226
0.09381193 0.15071663 -0.09057982 0.04312086 0.1626685 0.02089637 0.08873716 -0.041164633
-0.09762661 -0.009075905 -0.14162691 0.070210434 0.20030683 -0.046921354 0.04904726 -0.044683326
-0.0030169578 -0.17149115 -0.08777193 0.018582605 -0.035654463 0.12751505 -0.07907887 -0.010385207
0.15259425 0.070793815 0.13198553 0.113432914 -0.10515921 0.0005893203 0.052557193 -0.17362846
-0.06261441 -0.058996156 -0.08161057 -0.09088397 0.16791095 0.011152923 0.13323408 0.118810505
0.07453252 0.1352516 0.13541463 0.029922413 -0.04466783 -0.17475793 -0.00462993 -0.031204008
00000000: b043 9c3c 4c21 0cbe bb49 973d 15fc cd3d
00000010: 3c7c 513d 17a5 2cbd bcb7 2ebe f7e6 c63d
00000020: 181b d0bd c42f 2f3e 7307 dabd 18e6 a63d
00000030: 2cad 813d 5e36 0bbe 2d7a 2c3d cb70 eebc
00000040: 1b8f 0f3d 8d87 5bbe 245d 76bc c478 abbd
00000050: 770b 013e 3607 163e 65a9 e73d 92e2 d3bd
00000060: cc60 bfbc b5c6 04be 0b16 f0bc bdcf 37bd
00000070: 9172 2fbd 8ec8 4bbd 93f2 2f3d 5a36 cabd
00000080: 1f72 253d f231 f0bd f06b f73c 4f55 513d
00000090: 0370 0a3e c6ab 813c 8e87 153d f814 2a3d
000000a0: 9d59 c13d 15e8 bcbd eb97 89bd bf18 adbd
000000b0: 40d5 063e 52e8 13bd dca8 133e 2bdf 203e
000000c0: 3adf 21bd ded0 a7bd 736c 79bd 4a6a f03c
000000d0: 0137 b0bd 1f80 0cbe 51f9 ea3c 17a7 483d
000000e0: 6b8d 91bc a9ac ef3d 9aab 153d a8ae 243d
000000f0: c03f 77bd 3b80 2b3e d59f d6bd 3da0 013c
00000100: 1cdd 333e abd6 02be fcca 443c c25b d3bd
00000110: 20c0 323e 551d 673c e348 28be 4d27 013e
00000120: 4578 183e 9b77 cdbd 2771 df3d c69b 013e
00000130: 6d37 2a3e 8b7f e4bd cb80 2a3d 78f8 acba
00000140: 631c 773d b39f 02be ec29 ae3d a39c b93d
00000150: 3761 fcbd 4030 93bd 93e9 9dbd a776 9e3d
00000160: b37e 2cbe 138d 6abe 3f1c 96bd 2323 b33d
00000170: 40a1 18be 240f 5cbc e139 11be defc 41bc
00000180: 451b e8bd 7a60 1c3e f63c 2e3d 522c 133b
00000190: e24e 293c a45d b13c 380e 853d fbbe 0a3c
000001a0: 11e3 67bd 5e36 a03d 7f0d f53c abbc 54bb
000001b0: e61d a2bd dc63 b6bc 108b afbd 1c93 543d
000001c0: 75f7 023e 13a9 3ebd 43ae 4ebd 3f2b 403d
000001d0: ea70 8abd 18f5 cc3c 9651 a9bc 72cb 1fbc
000001e0: e42f a03d 73bc 8d3c e8ea e83b 3496 cabd
000001f0: 966c 67bb 22b5 c73d e7a8 9b3d 4fe3 c43d
00000200: 3f3b 173e 1ebe 1e3e b941 c1bd 1782 9e3b
00000210: 6a5d 41be 569c cd3c 9ea5 d13c 4bee 09bc
00000220: 5023 0fbe a031 8cbc 6f0a b13d bb64 5b3d
00000230: 2176 863d 11c7 62bc 3bda 4ebd f3a0 f23d
00000240: 0913 593d 1d11 b53d abe2 8a3c 1ad1 0fbe
00000250: 0652 04bd 52e6 e9bd 61c9 72bd 9318 a8bd
00000260: 6fa8 a2bd 8ebd 773d 93b4 1fbe 0670 183d
00000270: 5654 1bbd 81e6 7ebd 6cda 2f3a 54c0 efbd
00000280: 641a 163e 6027 bbbc 091b e0bc 33a3 823d
00000290: 25be c7bd 9840 8fbd 6a34 043d 4f23 90bd
000002a0: d729 ca3d 022b 7cbd 3524 a0bc d7e8 b93d
000002b0: b70d b13d 3421 6dbd 059b 90bd b242 04be
000002c0: 7f02 24bd 7f01 16be 6938 e73c 9b20 9cbd
000002d0: b8ee e53c 7a2c 94bd 5959 27be e708 dcbd
000002e0: ebec 0bbe d7be 28bd 2f93 e13d 8ed0 cb3d
000002f0: 0064 603d 80cb f3bd 48e7 8d3d 8af4 7dbd
00000300: 8ee7 53be 3e6e 73bd e206 7d3c 88b6 e6bc
00000310: b2d0 20bd f204 513d eb82 233e 52a3 75bd
00000320: 7e23 473d 35a7 98bd 38f3 afbd 5f27 72bc
00000330: b9aa 8e3d 9b9b 023e 5bef 0abe 108a da3a
00000340: 7820 c03d 7655 1a3e ea81 b9bd 809f 303d
00000350: 9292 263e dd2e ab3c d4bb b53d 3f9c 28bd
00000360: 76f0 c7bd 1bb3 14bc a506 11be 7dca 8f3d
00000370: 3c1d 4d3e 9b30 40bd c8e5 483d dd05 37bd
00000380: 27b8 45bb 609b 2fbe c5c1 b3bd 8c3a 983c
00000390: 6a0a 12bd 4e93 023e 1af4 a1bd b726 2abc
000003a0: ab41 1c3e 59fc 903d 3727 073e 844f e83d
000003b0: b65d d7bd 9e7c 1a3a 3646 573d a9cb 31be
000003c0: fc3b 80bd f4a5 71bd 7123 a7bd 6021 babd
000003d0: d9f0 2b3e c0ba 363c 846e 083e ec52 f33d
000003e0: 81a4 983d 657f 0a3e 22aa 0a3e d91f f53c
000003f0: 9df5 36bd bef3 32be abb6 97bb 8c9f ffbc

fc1.bias f4 [4]
-0.07105429 -0.026065102 -0.031816 0.010691339
00000000: e984 91bd 7b86 d5bc 7e51 02bd ba2a 2f3c
