pths/classifier_train.pth (torch, 61572 bytes, 20 tensors)

conv1.weight f4 [32, 1, 3]
000000 e4 11 13 be 9b db 69 3e b1 7e 07 3f 5c 2a ce bd
       -0.14362293 0.22837679 0.5292769 -0.10066673
000010 12 63 14 3e fa 94 21 3e 46 95 23 3d 41 62 bb 3e
       0.14490917 0.15779486 0.03993728 0.365984
000020 0c 08 d7 3e e9 eb 82 bd 79 24 d5 3e 90 3a 61 be
       0.41998327 -0.063926525 0.4162939 -0.21994996
000030 9e c1 c8 bd 14 7d 1e 3f 80 0c b4 3e fd 3b b6 3e
       -0.098025545 0.61909604 0.35165787 0.35592642
000040 ff 4c cd be 0e 21 60 be 38 ac d5 3e 88 16 4b bd
       -0.40097806 -0.2188761 0.41732955 -0.049582034
000050 fe 25 fb bc 18 72 93 3e d6 a3 87 be 0b 36 e4 3e
       -0.030657765 0.28797984 -0.26492184 0.44572482
000060 c6 bc ea be 25 b1 87 3d 4e 72 4d be 84 91 05 bf
       -0.45847148 0.066255845 -0.20063135 -0.52175164
000070 8d 0e f1 be 25 a4 00 bf 27 01 c7 bc e7 04 a6 3d
       -0.47081414 -0.50250465 -0.024292542 0.08106404
000080 3d 69 8b 3e de 67 e5 3e 1f da 05 bf 74 e3 9c 3d
       0.27228728 0.44805807 -0.5228595 0.07660571
000090 9d 4d 10 bf e2 a5 c1 be cd 5c c6 bd a7 a7 8e bd
       -0.5636843 -0.3782187 -0.09685669 -0.06965571
0000a0 0a 2c 3d be 40 6e 89 3e 65 cf 26 3d 94 2d 14 bd
       -0.18473831 0.26841927 0.04072513 -0.03617628
0000b0 4c a2 18 bf 1b 26 28 3e aa d1 70 bd c3 80 a6 bd
       -0.59622645 0.16420786 -0.0587937 -0.08130028
0000c0 1d 9d af 3e ab 8f 7c be b8 d4 1f bf 05 4c d6 3e
       0.34299555 -0.2466418 -0.6243396 0.41854873
0000d0 9e 22 9d be 5a e0 07 bf ef 3a 86 bd 61 e3 07 bf
       -0.30690473 -0.5307671 -0.065542094 -0.5308133
0000e0 9c f3 f3 be 7d 7a 06 bf 22 7a 0e bd e0 cd 35 3d
       -0.47646797 -0.5253065 -0.034784444 0.04438579
0000f0 9e 2f 01 bf db d7 e4 be 50 c4 d1 be e3 ac 51 3d
       -0.50463283 -0.44695935 -0.40970087 0.05119027
000100 4b fe 0a bf 8d d9 fb 3e 11 eb b9 be d2 93 0d bf
       -0.5429427 0.49189416 -0.36312154 -0.5530368
000110 e5 6a dd be a1 f2 f0 3e c0 71 d8 be 2b b3 d5 3e
       -0.43245617 0.4706011 -0.42274284 0.41738257
000120 4a 11 cd bc cb 11 03 3e 10 b1 52 3e 00 e1 48 3e
       -0.025032658 0.12799756 0.20575356 0.1961708
000130 ad 45 c6 3e 72 71 bc be 9f a6 32 3e 25 9e 6b be
       0.38725033 -0.36805302 0.17446373 -0.23009546
000140 4d 83 7a 3e 63 13 0d be a0 b4 67 3e 7f 77 c6 3c
       0.2446415 -0.13776927 0.22627497 0.024226902
000150 ca 88 d8 be 7e 4a dc be ea be 0b be 7e e4 5f 3d
       -0.42291862 -0.43025583 -0.13647047 0.054661267
000160 81 12 0f bf 83 25 b6 be 7a 46 57 3e d5 69 97 3e
       -0.5588761 -0.35575494 0.21022978 0.2957293
000170 01 b2 14 3d 30 e6 b8 be cf f2 90 be 18 85 9b 3e
       0.03630257 -0.3611312 -0.28310248 0.3037498

conv1.bias f4 [32]
000000 2f 75 95 be 55 35 02 3f d8 3b ea be 36 42 da 3d
       -0.29190966 0.5086263 -0.45748782 0.1065716
000010 03 65 6a 3d 79 c4 e8 be 65 01 8e 3d 3f af 95 3e
       0.05722524 -0.45462397 0.0693386 0.29235265
000020 ec 28 a7 bd 66 02 0f 3f 2b a6 53 be 57 e3 f5 be
       -0.08162102 0.55863035 -0.20668857 -0.4802501
000030 28 46 ba 3e c7 2b 7d bc fc 48 50 be fb 94 86 3e
       0.3638165 -0.015452332 -0.20340341 0.26285538
000040 7d ad 06 bf 4c 72 33 be 9e f1 ea 3e 38 8e 07 3f
       -0.5260847 -0.1752407 0.45887464 0.52951384
000050 52 92 1f bd fa 96 b4 3e 4d 13 4c 3e 0d fa 86 bd
       -0.0389579 0.35271436 0.19929238 -0.06590662
000060 d9 a7 2c be 49 0b de 3e d2 d2 00 3f fb 75 25 bd
       -0.16860904 0.43367985 0.50321686 -0.040395718
000070 03 8c 53 be 52 49 88 3e 2f 57 47 3e 8e 67 20 be
       -0.20658879 0.2661844 0.19466852 -0.15664503

bn1.weight f4 [32]
000000 85 8f 74 3f e3 e4 77 3f 77 dd 76 3f 6c 17 8c 3f
       0.95531493 0.9683363 0.9643168 1.0944648
000010 c0 60 7c 3f 20 bf 73 3f dd db 79 3f ee 5d 79 3f
       0.9858513 0.9521351 0.9760111 0.9740895
000020 a5 2c 85 3f e3 d6 82 3f d5 86 6c 3f 2d de 7e 3f
       1.040425 1.0221828 0.9239324 0.99557763
000030 8d c7 7a 3f 73 93 83 3f 84 da 88 3f 3b 5f 75 3f
       0.9796074 1.0279373 1.0691686 0.95848435
000040 ae 65 78 3f 7a be 81 3f 80 45 7d 3f d5 14 7f 3f
       0.9703015 1.0136254 0.98934174 0.9964116
000050 06 f1 79 3f d5 85 7c 3f 1d 6f 7f 3f 3e fa 77 3f
       0.976334 0.9864171 0.9977892 0.96866214
000060 e7 b6 7c 3f eb e6 8c 3f 92 1a 87 3f 3e 10 80 3f
       0.98716587 1.100797 1.0554984 1.0004957
000070 a3 fa 70 3f f1 b8 77 3f 48 44 87 3f 4a 8c 80 3f
       0.9413244 0.96766573 1.0567713 1.0042813

bn1.bias f4 [32]
000000 b6 ea 71 bd 09 83 e3 bc 87 84 f7 bc a3 9b 3e 3c
       -0.05906173 -0.027772443 -0.030214561 0.011633786
000010 70 ed 53 bc 98 e0 50 bd 4b 7d 83 bc 53 7d 73 bc
       -0.0129350275 -0.05099544 -0.016050955 -0.014861423
000020 a5 9b e3 3a 4b e4 1d bc e6 58 2c bd 44 55 af 3d
       0.0017365111 -0.009636949 -0.042076968 0.08561185
000030 93 62 6f bc b7 1e 8e 3d 89 3d ba 3d b8 07 6d bd
       -0.014610904 0.06939452 0.09093768 -0.05786869
000040 ff bf fc 3c 1e 5a 57 3c be 30 b7 bb 24 e6 48 bd
       0.03085327 0.013144044 -0.0055905273 -0.049047604
000050 8a 83 60 bd cf f5 14 3d 37 e3 ef bc 58 57 a3 bd
       -0.054812945 0.036367234 -0.02928315 -0.07975644
000060 74 67 30 3d be 01 dd 3b 57 da 59 3c 98 50 07 bc
       0.04306741 0.0067445925 0.013296685 -0.008258961
000070 9e 99 0b bd 7d 81 a2 bc f0 55 40 bd e2 cd 0e bd
       -0.034082048 -0.019837135 -0.046956956 -0.034864314

bn1.running_mean f4 [32]
000000 a6 88 cc 3a 45 59 1b 3f e2 70 83 bd d0 20 33 3e
       0.0015604689 0.6068309 -0.06418015 0.17492986
000010 3d 6c f4 3e 5f 6e 16 bf 6a cd 64 3e a4 c1 01 3f
       0.4773883 -0.5876216 0.22343984 0.506861
000020 b4 19 b6 be 47 55 16 be 9e 1c 4e bd 2a fb fa be
       -0.35566485 -0.14680968 -0.05032026 -0.49019748
000030 5f 26 00 be 58 7f 26 bc 4c 44 f7 be a2 23 8b 3e
       -0.12514637 -0.010162197 -0.48294294 0.27175623
000040 e8 ed 47 bf 77 e6 c2 be 8c 50 57 bd a9 0f 95 3e
       -0.7809739 -0.38066456 -0.05256705 0.2911351
000050 80 68 2e bf 48 d7 b0 3e 7f 18 e1 be 29 60 12 3e
       -0.68128204 0.34539247 -0.43964002 0.14294495
000060 9a c0 ae bc b1 e1 09 3f c4 70 16 3f e3 8a 8a 3c
       -0.021332074 0.5386 0.58765817 0.01691193
000070 59 a1 2c bf 3a 32 16 be 39 5f e7 3e 78 6f a2 be
       -0.67433697 -0.14667597 0.45189837 -0.3172567

bn1.running_var f4 [32]
000000 1c de 81 3d 6a fb 20 3c da 4c 68 3d 57 af 1b 3d
       0.06341192 0.009825567 0.056713916 0.038009014
000010 98 de ba 3d 72 21 68 3d eb f0 f7 3c 58 6f 72 3d
       0.09124488 0.05667252 0.030266246 0.059188217
000020 a3 4e 31 3d 9d e2 0b 3e 7d 61 70 3c cf 5d a0 3d
       0.043287884 0.13660665 0.0146716805 0.078303926
000030 98 d8 ae 3d cb 74 9f 3c b0 c0 83 3d ac 70 cf 3b
       0.08537406 0.01946487 0.064332366 0.00633057
000040 13 af ce 3d 8e d5 c5 3d c6 bd be 3d 95 b1 46 3d
       0.100919865 0.09659873 0.0931354 0.0485092
000050 b4 4b e9 3d ca e7 bb 3d 32 01 eb 3d d3 a4 c1 3d
       0.11391392 0.0917507 0.11474837 0.09455266
000060 2f b3 2f 3c 81 db 69 3d b1 bd c2 3c ac 75 40 3c
       0.010723873 0.0570941 0.023772093 0.011746805
000070 c9 5f 8f 3d 15 19 a1 3d 61 8e c6 3c ea f5 5d 3d
       0.070006914 0.07866112 0.024237813 0.0541896

conv2.weight f4 [64, 32, 3]
000000 31 a1 32 bd 8d 51 5a bd d1 54 1f 3d 0c 96 6d bd
       -0.043610755 -0.05330043 0.038899247 -0.058004424
000010 80 9c 17 3d 56 ce 87 bd e0 45 ae bc d6 f9 00 3d
       0.037014484 -0.06631152 -0.021273553 0.031488262
000020 ce a4 a8 bd 93 1e 8c 3d cd 98 e4 bd 6a 80 c3 bd
       -0.08234559 0.06841769 -0.11161957 -0.095459774
000030 b1 3a 10 bd 3e eb 3c bc 68 b7 48 bd 82 83 e2 bc
       -0.035212222 -0.0115306955 -0.049003035 -0.027650598
000040 a5 80 75 3c e1 c9 eb bc 59 ee aa bd 2c d7 a7 3d
       0.0149842845 -0.028782787 -0.083462425 0.08195338
000050 7a 0f 19 bc 71 9d 30 3d 9e 1d 86 bd 90 f5 aa bc
       -0.009342069 0.043118898 -0.06548618 -0.020869046
000060 1e 4e d8 bc cc a7 ed bd e6 1a 8d 3c 37 99 01 3d
       -0.026404437 -0.1160427 0.01722474 0.031640258
000070 98 45 b6 3d b0 73 a8 bc 96 61 dd bd 38 92 fb 3c
       0.08899993 -0.020562977 -0.10809629 0.030709371
000080 7a 7d 8d bd fd da ed bd 76 d9 2a 3d 94 00 31 3d
       -0.069086984 -0.11614034 0.041711293 0.043213442
000090 b5 bc 95 bd 66 59 03 3e 0d b5 2b 3d 4d d2 ad 3b
       -0.07311384 0.12827072 0.04192071 0.005304611
0000a0 cc 1c ca bd 89 89 a2 3d 1a 6f 02 3d 68 d6 26 3d
       -0.09868774 0.07936389 0.031844236 0.040731817
0000b0 88 6b 94 bd 45 0c 3b bb d3 d5 51 3d 7a 1a a1 bd
       -0.072470725 -0.0028541249 0.05122931 -0.07866378
0000c0 28 64 af bd 8f ca a1 3d b8 8c 96 3c aa ac bc 3d
       -0.08564025 0.07899963 0.018377647 0.092126206
0000d0 0c 1d be bd f1 1b 95 3c 58 d8 78 3d 86 c7 03 3e
       -0.09282884 0.0182018 0.060753196 0.12869081
0000e0 07 3f cc 3d e6 1f 0e be f8 0f a9 ba 95 73 a2 bc
       0.09972959 -0.13879356 -0.0012898436 -0.019830504
0000f0 e5 cc 0b 3d 3e 80 b3 bd 05 88 fd 3d 0b 8c da bd
       0.03413095 -0.08764695 0.12379459 -0.10671242
000100 04 90 77 bd f7 d2 c1 3c 44 0a af bb 91 57 d0 3d
       -0.06044008 0.023660166 -0.0053418 0.10172952
000110 81 d9 0b 3e 66 d9 95 bc 64 26 2a 3d c9 8e 51 bd
       0.1365719 -0.01829214 0.04154052 -0.05116156
000120 e4 ec 85 bd a5 df 6b 3c 8a f8 9f bd d9 74 e5 3d
       -0.06539324 0.014396583 -0.07811077 0.112039275
000130 be 5b f3 3c 2d a4 40 bd d6 ce 34 3d c3 f3 80 3d
       0.029706832 -0.04703157 0.044142567 0.06296494
000140 7e dd eb 3d cf 09 79 3d fc 14 c9 bc 01 a9 cd 3c
       0.11516856 0.06080037 -0.024546139 0.025105001
000150 2c f0 da 3a 33 1b 20 bd 02 22 1c 3d f5 bd 23 bd
       0.0016703657 -0.03908844 0.03811837 -0.03997608
000160 f1 8a 14 3d 6c 1e 18 bd 0e 7e 2f bd f7 a6 f8 bd
       0.036265317 -0.037138388 -0.042844824 -0.12141221
000170 fc 82 c6 bb c5 fa 2f bd b9 b3 c9 3d bb f4 f3 3c
       -0.006058095 -0.04296376 0.098487325 0.029779783
000180 70 37 a6 bd 33 36 6a 3c b4 4c 17 3c d8 d8 4e bd
       -0.081160426 0.014295149 0.009234596 -0.050499767
000190 ab a4 bb bd 89 33 04 3c c2 c2 8b 3d 83 a9 ca bd
       -0.09162267 0.008068928 0.068242565 -0.09895613
0001a0 a7 4c 90 3d b8 9f f9 3c d4 5c 8b 3d e8 e4 8a 3d
       0.0704587 0.030471668 0.06804815 0.06781942
0001b0 89 8e 7b bd d4 05 cb bc 79 1d 05 3d 60 7e 7a bd
       -0.06141523 -0.024783053 0.03249881 -0.061155677
0001c0 8b dc 21 3c 1d 5b 87 3c ab f1 3e bd 0f 4e 87 3d
       0.009879242 0.016522938 -0.04661719 0.06606685
0001d0 35 8c aa 3d 62 a2 0b 3d db a2 6c bd b1 84 03 bc
       0.083275236 0.034090407 -0.0577725 -0.008027242
0001e0 38 0e b6 bc 04 ea 62 3d 30 1f 2f 3d 31 23 87 bd
       -0.022223577 0.055398956 0.042754352 -0.06598509
0001f0 c3 ba 5d 3c b7 f0 95 3d e6 5b 7f bc 30 df bd bd
       0.013533297 0.07321303 -0.015585875 -0.09271085
000200 2e d7 00 be bb 0d 8a 3d e1 6c 15 3d 51 10 f0 bd
       -0.12582085 0.067409 0.03648079 -0.11721862
000210 fd 5c e3 bd 1b 9e ef bd f1 b4 a1 bd 5e 68 82 bc
       -0.111017205 -0.11700078 -0.0789584 -0.015918907
000220 e3 6e 63 bc a5 3e a4 3c bd ae 81 3d 8d a6 4a 3d
       -0.013881418 0.020049402 0.06332157 0.04947524
000230 43 24 17 3e 21 d7 b9 3d fa 53 a0 3c 72 30 03 bd
       0.14759926 0.09074236 0.019571293 -0.032028623
000240 2d 08 9d 3d 57 51 ab 3d 65 68 8c bc f8 3f 27 bd
       0.07667575 0.08365124 -0.017139623 -0.04083249
000250 10 f7 d3 3d 26 f2 51 bc d2 57 2c 3d bc c7 df 3d
       0.10349858 -0.01281408 0.04207594 0.10926768
000260 f7 bc 4f bd ec b7 7b 3d a9 3f 5d bb 90 6c e9 3c
       -0.05071732 0.0614547 -0.0033759868 0.02849415
000270 9b cf 09 bd ba 55 87 bc cc cc 29 3b eb 19 56 3c
       -0.033645254 -0.01652037 0.0025909422 0.013067703
000280 c0 14 98 bc ff 0c ba bd b7 2e 4c bd 8b 43 00 bd
       -0.018564582 -0.0908451 -0.04984924 -0.031314414
000290 4d 82 84 3d 06 6d a4 3d 61 5f f4 bc de c4 43 bc
       0.064701654 0.08028607 -0.029830636 -0.011948792
0002a0 9c 10 22 bd 28 58 12 3c 25 9c 0d 3d 50 3a d4 bd
       -0.03956662 0.008932151 0.03457274 -0.10362685
0002b0 dc 74 86 3d b8 49 0e 3e a7 33 02 3d 27 b2 40 bd
       0.06565258 0.13895309 0.03178754 -0.0470449
0002c0 35 51 e5 3c b9 92 14 bd 79 c1 7d bd fe d8 18 3c
       0.027992824 -0.036272738 -0.061952088 0.009329079
0002d0 d8 3f a8 bd 33 b7 c0 bd 1a 56 aa bc 3b 2e 9a bd
       -0.08215302 -0.094099425 -0.02079301 -0.07528349
0002e0 5e 03 71 3d e7 55 4c bd 97 26 1f 3d bd 89 84 3d
       0.0588411 -0.04988661 0.03885516 0.06471584
0002f0 c7 90 60 bc 35 6e 84 3d b8 9d ea bc 98 fa be bd
       -0.013706393 0.06466333 -0.02863966 -0.09325141
000300 ca 19 09 bd 6e e6 a8 3d 82 a3 b7 bd d8 92 15 3d
       -0.03347186 0.08247076 -0.089667335 0.036516994
000310 ce 10 fa 3c b4 ce 31 bd fe 8a b2 bd 63 1c b5 bd
       0.030525591 -0.043410018 -0.08717917 -0.08843305
000320 33 05 60 bd ad d5 87 bd 49 63 ee 3d b6 ed a5 3d
       -0.05469246 -0.06632552 0.11640031 0.081019804
000330 a3 5d d3 bc 72 4f d4 3c 0c 02 f7 bd 38 74 b8 3d
       -0.025801485 0.025916789 -0.12060937 0.09006542
000340 dd 6e d1 bc ae 5d 76 bb 75 26 aa bd 9d e0 8b bd
       -0.025565559 -0.0037592459 -0.08308116 -0.06829951
000350 c5 2a 0a be 6e d2 a1 bd 2e 04 0a 3e fc b9 59 bd
       -0.13492878 -0.079014644 0.13478157 -0.053155884
000360 39 1c 43 3d 3e 0c de 3d de 7d b3 bc 92 83 0e bd
       0.047634337 0.10842179 -0.021910604 -0.034793444
000370 6c 8d 86 3b b6 63 8b bd f3 5b 04 3e e6 8a b4 3d
       0.0041062143 -0.06806128 0.12925701 0.08815555
000380 8f b5 c2 bd f9 4a bd 3d 23 8d e4 3c c9 e7 cb 3d
       -0.09507286 0.092428155 0.02789933 0.09956319
000390 b4 8a 06 3c f3 c6 e6 3c f9 09 4d bd a8 65 e3 3d
       0.00821178 0.028171038 -0.05005834 0.11103374
0003a0 af 55 4a bd 6f b2 2e bd 6c aa bb 3d bb b3 cf 3c
       -0.04939812 -0.042650636 0.09163365 0.025354257
0003b0 41 3b 22 3c cb 3c 3d 3d 47 3e 7d bb 3c 0a 38 3d
       0.009901823 0.046200555 -0.0038641857 0.044931635
0003c0 e7 b0 34 bd fa 22 b0 3c f3 95 46 bc ff e9 66 bb
       -0.04411402 0.021501053 -0.012120712 -0.0035234687
0003d0 6a f8 5b bd 29 ab 4f 3d ea a2 02 3d 7f d9 b1 bd
       -0.053703703 0.05070034 0.03189365 -0.08684062
0003e0 51 69 ed 3b ac 83 51 3c d3 08 26 3d c5 20 6b 3d
       0.0072452207 0.012787741 0.04053576 0.0574043
0003f0 ee f6 94 bd 5c a3 f8 bd e3 4c e3 3c e4 c9 81 bb
       -0.072736606 -0.12140533 0.027746623 -0.003960835

conv2.bias f4 [64]
000000 ac 1e 11 3d c4 f6 67 3d 04 5e 81 3d e6 8f df bc
       0.03542964 0.05663182 0.0631676 -0.027290296
000010 25 22 9f bd 12 ff 87 3c bd 74 9b bd a4 0b cc 3c
       -0.077701844 0.01660112 -0.075906254 0.024907894
000020 52 98 cb 3d 4c 77 bc 3d f9 c3 86 bd fe 25 4d 3d
       0.09941162 0.092024416 -0.065803476 0.05008506
000030 c6 bf 7d 3b aa 19 62 bd a7 0e 45 bd 50 9a a4 3d
       0.0038719042 -0.055200256 -0.048109677 0.08037245
000040 58 01 9d bc bb 9d 7c 3d 45 ec 9b bd e6 b6 80 3d
       -0.01916568 0.06167386 -0.07613424 0.06284885
000050 eb 23 94 bd 1e 6c 6f bc 1d 33 98 bd 00 4d cc bc
       -0.07233413 -0.0146131795 -0.07431624 -0.02493906
000060 71 d5 88 bd 35 be c4 3d a4 a1 97 bd cc c3 81 bb
       -0.06681336 0.096065916 -0.074038774 -0.0039601084
000070 25 13 1d 3d 61 51 4c bd c7 d3 59 bd 22 4d 26 bd
       0.038348336 -0.049882296 -0.053180482 -0.040600903
000080 4c 8c 8f 3d 28 01 a9 3d 89 43 a2 bd bf 7c 0b bd
       0.070091814 0.08252174 -0.079230376 -0.034054514
000090 bb f4 d1 3b 59 d3 6f bc 10 bb 18 3d c7 d2 a7 3d
       0.006407348 -0.014637792 0.03728777 0.081944995
0000a0 e2 38 32 3d d1 60 10 bd f6 99 42 3d 47 f5 b2 3d
       0.04351128 -0.03524858 0.04751011 0.08738189
0000b0 49 a1 a2 bd 5a 33 be bd 35 a6 96 3d 1a 88 ab bd
       -0.07940919 -0.09287138 0.0735592 -0.08375569
0000c0 d9 5f a8 3d 99 85 21 bc 1a dd ae 3c 1a 85 f5 bc
       0.082214065 -0.009858512 0.021345664 -0.029970694
0000d0 f0 1b 8b bd ed ca eb bc a9 91 35 3d 1e 14 19 3d
       -0.06792438 -0.028783286 0.044328365 0.0373727
0000e0 04 dc b2 bd 02 96 0e bd f0 26 a3 3d b4 b9 87 bd
       -0.08733371 -0.034811027 0.07966411 -0.06627217
0000f0 d9 e8 af 3c 7a a5 d5 bc 9e 65 f1 b8 fb f7 af bd
       0.021473335 -0.026079882 -0.00011510703 -0.085922204

bn2.weight f4 [64]
000000 e0 15 7f 3f c5 81 7c 3f a1 02 74 3f 08 c3 7c 3f
       0.99642754 0.9863551 0.9531651 0.98735094
000010 55 47 7b 3f b8 34 72 3f 70 ec 82 3f 25 72 78 3f
       0.9815572 0.9461169 1.0228405 0.9704917
000020 d7 a6 78 3f 63 9d 78 3f 80 96 8d 3f e7 91 6e 3f
       0.9712958 0.97115153 1.1061554 0.9319138
000030 47 29 76 3f 62 9d 8b 3f bd 1e 80 3f 1d ab 7a 3f
       0.96156734 1.0907404 1.000938 0.9791735
000040 63 b7 80 3f b0 ce 7a 3f 7e 9a 82 3f fb 05 73 3f
       1.0055965 0.9797163 1.0203397 0.94931
000050 e0 f1 81 3f cb 17 87 3f 31 13 7c 3f 1b ce 80 3f
       1.0151939 1.0554136 0.98466784 1.0062898
000060 16 d9 7f 3f 41 be 82 3f 53 48 83 3f a5 35 74 3f
       0.9994062 1.0214311 1.0256447 0.95394355
000070 8c af 93 3f d4 a7 69 3f 83 e3 85 3f 4d e9 6e 3f
       1.1537948 0.9127171 1.0460056 0.9332474
000080 4e c8 76 3f 43 ad 8e 3f a9 45 87 3f 6d 3f 7f 3f
       0.9639939 1.1146625 1.0568134 0.99706155
000090 77 18 7c 3f 10 8b 7e 3f c1 a7 81 3f d2 51 70 3f
       0.9847483 0.9943094 1.012932 0.9387485
0000a0 f3 d2 89 3f 84 d7 6f 3f 15 5b 7f 3f 95 a8 85 3f
       1.0767502 0.93688226 0.99748355 1.0442072
0000b0 45 76 8d 3f 94 2a 75 3f bd 11 80 3f 74 67 6c 3f
       1.1051718 0.95768094 1.0005413 0.92345357
0000c0 9d 7d 76 3f 29 8a 77 3f da c7 84 3f 7a 12 74 3f
       0.9628542 0.9669519 1.037349 0.95340693
0000d0 0c 9a 84 3f fc ce 6d 3f 74 ab 70 3f 70 45 72 3f
       1.0359511 0.9289396 0.94011617 0.94637203
0000e0 30 88 83 3f 01 4a 78 3f 14 2d 81 3f f3 d3 75 3f
       1.0275936 0.9698792 1.0091882 0.96026534
0000f0 47 c6 70 3f d4 b6 7c 3f 05 7d 78 3f 88 f2 7d 3f
       0.9405255 0.98716474 0.97065765 0.991982

bn2.bias f4 [64]
000000 eb 69 0e bd cd de 45 3c 1c ee ae bc 0b 59 dc bb
       -0.03476898 0.012077046 -0.021353774 -0.006724482
000010 45 87 56 bc be e5 5a bd fc a3 6a bd 4e 0d 21 bd
       -0.013093774 -0.053441755 -0.057285294 -0.03931933
000020 05 8f f2 bc 42 f6 9b bb 85 b6 88 bd af 50 48 bd
       -0.029609213 -0.004759581 -0.06675438 -0.04890507
000030 3b 33 cc 3a e7 ae c5 bd 05 fd 56 bc 61 c5 3c bd
       0.0015579233 -0.096525006 -0.013121848 -0.046086673
000040 7e f4 9a bc e6 19 82 bd 8a 6d 0d 3d e6 87 54 bd
       -0.018915411 -0.06352596 0.034528293 -0.051887415
000050 0b 9b 80 bc c5 d5 2b bc ee 46 f1 bc 5d 0f 73 3b
       -0.01569893 -0.010487978 -0.029452767 0.0037088015
000060 71 99 23 3d ce 93 43 bd a0 cc 85 bd 30 3d a3 bc
       0.039941255 -0.04774838 -0.0653317 -0.019926637
000070 70 84 4b bc ce 93 79 bd 7f 26 89 bd 26 20 d2 bd
       -0.012421712 -0.060931973 -0.06696796 -0.10260038
000080 bd 9b 1e bc d4 f2 0e bd 61 bd 4e bc 0d cf a2 bd
       -0.009680686 -0.034899548 -0.012618394 -0.07949648
000090 2e 83 8b 3d 4e c7 99 bd 16 1f d4 3b fb 75 92 bd
       0.0681213 -0.075087175 0.0064734323 -0.07151409
0000a0 e0 b9 69 3c 67 e8 b8 bd a0 66 25 bc 64 36 89 bc
       0.014265507 -0.09028702 -0.0100952685 -0.016749568
0000b0 53 d7 80 3d 98 99 26 bd f0 46 db bd ad fa 93 bd
       0.0629107 -0.040673822 -0.1070689 -0.07225547
0000c0 d7 c5 05 bd 6e 84 9a bd 27 04 ed bc 29 f4 73 bd
       -0.032659378 -0.0754479 -0.028932644 -0.05955902
0000d0 76 e7 b4 3b 7e 07 89 bd 0f f0 67 bd 8d b6 77 bc
       0.0055207564 -0.06690882 -0.056625422 -0.015119207
0000e0 db 73 95 bc 51 d9 ac bd 0d 79 78 bc 75 30 01 bd
       -0.01824372 -0.08439887 -0.0151655795 -0.031540353
0000f0 3b d8 68 bd 09 a2 54 bc f1 93 a7 bc b2 23 b1 ba
       -0.05684684 -0.012978085 -0.020456286 -0.0013514666

bn2.running_mean f4 [64]
000000 fc 8f 1e be 5e 78 d8 3d b0 65 06 3e 36 7e ec bd
       -0.15484613 0.10569833 0.13124728 -0.1154751
000010 23 32 46 bf b4 6c 05 3f 08 a0 9a 3f 6e f7 62 be
       -0.7742025 0.5211899 1.2080088 -0.221647
000020 f3 62 25 bd 36 ec 0b bf 11 93 d2 be 38 a1 5a 3e
       -0.04037757 -0.54657304 -0.41127828 0.21350563
000030 3f f1 a3 3e 31 0a c4 bd 93 31 21 3f 61 d8 9b bf
       0.32019994 -0.09572256 0.6296627 -1.2175409
000040 7c 55 01 bf 39 f3 8c bd 89 11 0b 3f bd 69 ae be
       -0.50521064 -0.068823285 0.5432363 -0.34065047
000050 93 60 80 3f 54 9f c6 be c9 c5 f0 3d 16 fb d6 3d
       1.0029472 -0.38793433 0.117564745 0.104971096
000060 b5 6d 4a bf 22 4c 0b 3e 14 69 73 bf 07 c9 f3 bd
       -0.7907365 0.13603261 -0.9508221 -0.11903577
000070 ee eb 89 be 47 06 e2 be 8e 59 59 be e0 a5 be 3d
       -0.26937813 -0.44145414 -0.21225569 0.09308982
000080 31 34 84 3f b4 f8 e7 bd 3d 16 31 bf dd 32 40 3e
       1.0328428 -0.11326733 -0.6917456 0.18769403
000090 00 39 4a 3f ab 50 a7 3d 1a 7b 99 3e f0 81 e2 3e
       0.78993225 0.08169683 0.29976732 0.4423976
0000a0 e0 7b b0 be c2 95 45 bf 3e e1 3c bf 46 f3 29 bf
       -0.3446951 -0.7718164 -0.7378119 -0.6638683
0000b0 bd f4 2b 3f 03 f6 06 3e ad f8 0e 3f 82 e8 02 be
       0.67170316 0.13179784 0.558482 -0.12784007
0000c0 03 41 0e bf 7d 66 80 bf 58 04 82 bf ee 3b 97 bf
       -0.5556795 -1.0031277 -1.0157576 -1.1815164
0000d0 e2 8b c0 be 62 bb 28 be 14 e6 f0 3e be 03 94 be
       -0.37606722 -0.16477731 0.47050536 -0.28909105
0000e0 10 8b 35 be b1 94 f2 be f1 e6 5b 3c 0c 34 8e 3e
       -0.1772883 -0.47379068 0.01342176 0.27774084
0000f0 81 9b 5a bf 0d ab 01 3e db 1d 52 bf 65 fc e8 be
       -0.8539353 0.12662907 -0.82076806 -0.45505062

bn2.running_var f4 [64]
000000 0e f4 c8 3e 67 b7 6a 3e 2c 4a b0 3e d2 0a 4b 3e
       0.392487 0.22921525 0.3443159 0.19828346
000010 ec b4 17 3e 23 7b 31 3f da aa 21 3f e8 c7 88 3e
       0.1481511 0.69328517 0.63151324 0.26715016
000020 5a 1b bc 3e 7a 5a ca 3e 91 04 e8 3d 0e 3e d9 3e
       0.36739618 0.39522153 0.11328996 0.42430156
000030 b3 79 76 3e ae 86 93 3d 4d 67 b9 3e 30 f3 26 3f
       0.24069862 0.072034225 0.36211625 0.65214825
000040 cf bc 95 3e a4 12 b7 3e b7 fb 8d 3e ce f0 65 3e
       0.29245612 0.3575641 0.27731106 0.22455141
000050 f6 37 04 3f a8 a4 22 3e b3 0e 83 3e 3a 51 93 3e
       0.5164789 0.15883124 0.25597152 0.28772908
000060 3c 05 61 3e 99 26 33 3e 81 21 38 3f 3f 4d b6 3e
       0.21974653 0.17495193 0.7192612 0.3560581
000070 61 a8 7b 3d e6 0a 9e 3e 50 21 b9 3e ed cd 00 3e
       0.061439876 0.3086769 0.36158228 0.12578554
000080 d3 d4 1f 3f 6c 9e a8 3d fd fc 35 3e a4 58 a2 3e
       0.6243412 0.082333416 0.17772289 0.31708252
000090 40 6d b0 3e 33 18 85 3e 96 d7 c8 3d ac db ce 3e
       0.3445835 0.25995025 0.09806745 0.4040197
0000a0 29 c1 cd 3d ac b4 c4 3e d9 f4 05 3f 0f b8 88 3e
       0.10046608 0.38419092 0.5232673 0.26702926
0000b0 4c c6 7c 3e 41 92 a6 3e 27 cd 02 3f 84 1f d0 3e
       0.24685019 0.32533458 0.5109429 0.40649045
0000c0 96 01 d1 3e 12 55 fa 3e 7e 88 b5 3e 7b 42 bf 3e
       0.40821522 0.48893028 0.35455698 0.37355408
0000d0 96 6a 8b 3e 29 0a 93 3e 33 60 b4 3e 5c b8 66 3e
       0.27229756 0.2871869 0.35229644 0.22531265
0000e0 e8 78 34 3e ee f3 16 3e b3 47 50 3e 58 38 09 3f
       0.17624247 0.1474149 0.20339851 0.536016
0000f0 cd 3f 4b 3e 33 9a 85 3e f6 8b ce 3e c2 60 a2 3e
       0.19848557 0.26094207 0.40341157 0.31714445

conv3.weight f4 [32, 64, 3]
000000 83 a5 bf 3c 39 78 9e 3d 41 ec a6 bd dc ad dc 3c
       0.023394352 0.077377744 -0.081505306 0.026938371
000010 32 c3 b3 bb 27 ad 14 3d b7 cd f1 3c 83 c8 a3 3c
       -0.0054859156 0.036297943 0.029517038 0.019993072
000020 e0 31 58 3d f1 a9 82 3d 2c b6 bf bd 58 93 2b 3d
       0.05278194 0.0638007 -0.093609184 0.041888565
000030 5e 95 04 3d 22 32 93 3d 60 c9 3c 3d bb b2 3f bd
       0.03236901 0.071872965 0.046090484 -0.04680131
000040 1b fb b8 bd 92 36 2b 3d 4e ca 16 bc 16 94 34 3d
       -0.090322696 0.04180009 -0.009203507 0.04408654
000050 0e af af 3d 21 98 e3 3c cb da 48 bb 6b e0 1d bd
       0.08578311 0.027782502 -0.003064799 -0.0385441
000060 b1 fc 68 3c 93 e6 84 bd 8b 8b 1e 3d 25 77 08 bd
       0.014220403 -0.06489291 0.038707297 -0.03331675
000070 c3 49 ae bd 2b 7c e1 ba 68 79 0b 3e bd b3 a1 bd
       -0.08510163 -0.0017203143 0.13620532 -0.078956105
000080 f0 5c 33 bd 5d d4 91 bc 06 69 80 3d 30 61 0f bd
       -0.043789804 -0.017801458 0.06270032 -0.035004795
000090 da bf ac bc b4 1e 8d 3c 5d e3 6f 3d 04 48 e5 3b
       -0.021087576 0.017226554 0.05856644 0.0069971103
0000a0 cb ff 42 bc 1e 85 87 bd 77 ef e1 3b eb b1 d5 3c
       -0.011901806 -0.06617187 0.0068950015 0.026085814
0000b0 40 b6 35 3d f4 d2 64 bd 09 1b 8b bd 3a 53 06 bd
       0.04436326 -0.055865243 -0.06792266 -0.032794215
0000c0 ce 06 2e 3d ed 04 ca bd 5e 50 b8 3c b0 7a b1 bb
       0.04248696 -0.09864221 0.02249926 -0.005416237
0000d0 51 79 2e bc 9b 92 92 3d b5 17 83 bb 0c d2 ce bb
       -0.010649041 0.07156869 -0.004000629 -0.0063116606
0000e0 ba ec cf bc 81 99 06 bd 4c 84 4c bd 6d 05 9b 3d
       -0.025381435 -0.032861236 -0.049930856 0.07569394
0000f0 f9 b4 90 bd 43 df 4a bd 1a 65 b1 3c 5e 1e 22 3d
       -0.07065768 -0.049529325 0.021654654 0.03957974
000100 6b 0e 89 bc 37 93 6d bd 4d cf 1f 3c 0f ea 14 3d
       -0.016730508 -0.058001723 0.009754014 0.03635603
000110 65 1e 35 3d 27 58 b2 3c 4f 81 37 bd 6f d0 96 3c
       0.04421844 0.02177055 -0.044801053 0.018409936
000120 4c c3 fc b9 ff dd 2e bd 46 71 c4 3c 6c c1 74 3c
       -0.00048210693 -0.04269218 0.023979794 0.0149386935
000130 8c 04 21 bd 62 b0 9f 3d fa 14 d8 ba 46 2b 90 bd
       -0.039310977 0.07797314 -0.0016485744 -0.07039504
000140 2f 90 18 bd 31 ab 86 3d 81 35 90 bd 67 1f cd 3c
       -0.03724688 0.06575621 -0.07041455 0.025039388
000150 e2 63 f5 bb eb 6f 8c bc e3 e0 81 3d d4 f3 53 3d
       -0.0074887136 -0.01714321 0.06341722 0.051746204
000160 56 cb 57 bd 92 bf 56 3c d9 91 5a 3b f7 4f 1b ba
       -0.05268415 0.013107197 0.0033351092 -0.00059246965
000170 f8 3a 4a bd 03 c5 b2 3c de 7a 0f bc 1d 87 5c 3d
       -0.049372643 0.021822458 -0.008757321 0.05383979
000180 90 57 30 bd fe ba 13 bd d7 bb 4d 3c 1a 6d 77 bd
       -0.043052256 -0.036067 0.012556992 -0.06040678
000190 92 2b 08 3d ba cb dd 3c c6 5c 47 bc 9a e8 a0 3d
       0.033244677 0.027074683 -0.012168115 0.07856865
0001a0 0c 45 0b 3e 4a 6b 88 bd 02 17 02 3c ba 4d 31 bd
       0.13600558 -0.06661089 0.007940056 -0.043287016
0001b0 7f d1 8a 3d f7 c9 4e 3d b0 13 bc 3b 93 9f f0 bc
       0.067782395 0.050485577 0.0057396516 -0.029372966
0001c0 18 38 92 3d 1c 96 2a 3d a5 e1 5e bd cb 5c fd 3c
       0.07139605 0.04164706 -0.05441441 0.030928036
0001d0 0e cc 58 3b fb 09 64 3c 44 a9 9d bd 05 9c fa 3c
       0.003308061 0.013918395 -0.076983005 0.030591974
0001e0 d0 ec 3b 3d 27 2c 99 bc 25 ab ff 3d 50 85 5d bd
       0.04588014 -0.018697811 0.12483815 -0.054082215
0001f0 5b d5 98 3d d4 fb 18 bc 51 63 63 bc b0 ae d8 3a
       0.07462569 -0.009337384 -0.013878659 0.0016531553
000200 a0 91 a5 bd 4c ae 53 bd 0f 05 3a bc 35 b4 0b 3d
       -0.080844164 -0.051679894 -0.011353745 0.034107406
000210 d7 a1 36 bd f7 a4 02 3d b6 da 35 3d 75 87 0e 3d
       -0.044587936 0.031895604 0.044398032 0.03479715
000220 9e c8 1f 3c 43 24 06 bc a1 eb a2 bc b8 cc 1e bd
       0.009752421 -0.008187356 -0.019887747 -0.038769454
000230 39 fc 3e bd 0c bf ed 3c bc 44 63 3d 98 b8 ef bb
       -0.046627257 0.029021762 0.055485472 -0.0073157065
000240 14 01 92 3d af 7c 25 bd 51 a2 83 bc 92 a5 24 bc
       0.07129112 -0.04040211 -0.01606861 -0.010049241
000250 91 34 83 bd ed 7f 95 bd e3 99 93 3c 2e c1 3d 3c
       -0.064065106 -0.072997905 0.018017715 0.011581702
000260 44 e6 22 bd 7e 9b 97 bb 1d a4 15 bb f1 33 47 3d
       -0.03977038 -0.0046266904 -0.0022833415 0.04863352
000270 61 c5 23 bd a6 29 93 bb 17 bf d0 bd fe d2 8a 3d
       -0.039983157 -0.004491049 -0.101926975 0.06778525
000280 5f 86 18 bd 92 44 35 3d 59 4c 12 bd 8a 77 6e bc
       -0.03723752 0.044254847 -0.035717342 -0.0145548675
000290 af 88 af bc 6f 38 a0 3d 26 7b a7 bd f1 f2 16 ba
       -0.02142748 0.07823264 -0.081777856 -0.0005758247
0002a0 cf 45 4b bd 48 ad 47 3c 02 c1 2f 3c 54 96 91 bc
       -0.04962712 0.01218731 0.010727169 -0.017771877
0002b0 96 57 a3 bd b4 2d 35 bb 29 da 0f bd 99 51 e8 3b
       -0.0797569 -0.002764565 -0.035120163 0.0070898053
0002c0 94 63 df 3d 98 15 83 bd 48 77 35 bd 1f f4 9c bd
       0.10907665 -0.06400603 -0.04430321 -0.0766375
0002d0 84 b6 cc 3c 71 e7 ad bd 20 1a 8f bd 14 c9 40 bc
       0.024989374 -0.084914096 -0.06987405 -0.011766691
0002e0 40 c2 58 bc 95 23 c9 ba 3d 5f 1e 3d 0d 97 82 bc
       -0.013229907 -0.0015345687 0.038665045 -0.015941167
0002f0 ee 0b 20 bd 6b 71 0d 3d 47 34 af bc 8b 80 05 3d
       -0.039073877 0.034531992 -0.021387232 0.03259329
000300 4a be f0 3d b5 55 bd bd 48 f8 b6 3c 12 a9 a4 3c
       0.11755045 -0.09244863 0.022335187 0.02010015
000310 30 2d d5 3c 8a 49 07 3d 71 f7 2e bd 5f 7b 3b bd
       0.026022524 0.033029117 -0.042716447 -0.045771953
000320 91 3e 70 bc 38 1e 8d bc 25 3f 0c bd a3 6b de 3c
       -0.0146633545 -0.017226323 -0.034239907 0.027150935
000330 f7 6a 64 bd c9 19 93 3d 14 4b 47 3d a3 d5 8b 3d
       -0.055766072 0.071826525 0.048655584 0.06827857
000340 4e a0 01 3d 0d 3c 6c bd fb 43 26 bd b6 77 b9 bc
       0.03164702 -0.057674456 -0.040592175 -0.02264009
000350 03 03 3c bd 0c df 08 3d 7d ed 7d 3c 7a 86 ba bd
       -0.04590131 0.03341584 0.015498516 -0.091076806
000360 99 b8 0b bc fa f0 dd bd 96 fb 82 3c f5 14 d2 3c
       -0.008527898 -0.10836978 0.015989106 0.025644759
000370 73 8b 50 3b 39 07 09 bc ed 36 90 3d 08 6b b4 bc
       0.00318214 -0.008363538 0.07041726 -0.022023693
000380 0b eb 41 bd 5f 86 56 3d 80 57 b3 3b ea 1f bd bc
       -0.047343295 0.05237424 0.0054730773 -0.023086507
000390 80 74 36 bd 00 b2 ae 3c 9f fb c7 3b f1 ac 6b bd
       -0.044544697 0.021325111 0.0061029936 -0.057537977
0003a0 5f 8c c6 bd 77 80 a7 3c 6f 08 96 3c 95 4b e3 bd
       -0.096947424 0.020446999 0.018314568 -0.110984005
0003b0 b2 0c 6d bd 78 03 31 3c fb f6 b2 3c a9 a5 a2 3c
       -0.057873435 0.01080405 0.021846285 0.019854384
0003c0 ea cd 37 bd f7 d2 cf 3d 3d b3 2d bd 02 7e 45 bd
       -0.04487411 0.1014766 -0.042407263 -0.048215874
0003d0 2a cb a8 3b f4 b7 57 3d e2 47 8a bd 8e 6d 57 bd
       0.005151172 0.052665666 -0.06751992 -0.052594714
0003e0 95 ff 12 bd 89 ea be 3c 0c dd 5b bc d7 2f ae bd
       -0.035888273 0.023305194 -0.013419401 -0.085052185
0003f0 92 5d ed 3c 08 65 40 bb 8d 0a ad bd 05 41 52 bd
       0.028975282 -0.0029357094 -0.08449278 -0.05133154

conv3.bias f4 [32]
000000 fb b5 03 bd 18 a2 42 3d 8d 32 8a 3d 2e 09 e4 bb
       -0.032155972 0.047517866 0.06747923 -0.006959102
000010 2f 5d 26 3d 9d 7f c8 3c 42 4e 21 3d 5e b9 99 3c
       0.04061621 0.024474913 0.039381273 0.018765148
000020 10 41 66 3d 25 56 dd bc b7 2c 01 3c cc eb 6d bd
       0.056214392 -0.027018616 0.007884196 -0.0580862
000030 89 a9 b6 bc 3a 78 bc bc 4f 00 86 bc f4 6a 0d 3d
       -0.022297638 -0.023006547 -0.016357569 0.034525827
000040 51 72 a2 bc e0 60 65 3d 77 89 6c bd 7e d2 18 3c
       -0.019829901 0.05600059 -0.057748284 0.009327529
000050 c5 60 83 3d fe 70 56 bd 40 81 5e 3c 01 fe d5 3c
       0.06414942 -0.05235385 0.01358062 0.026122095
000060 9c de 04 bd e7 30 02 bb 50 d4 27 3d ef 48 f1 3c
       -0.03243886 -0.0019865574 0.04097396 0.029453723
000070 df 05 8c bd 88 4f 8c bd ee 7d 68 bd 06 4f 58 3d
       -0.06837057 -0.06851107 -0.05676072 0.052809738

bn3.weight f4 [32]
000000 59 65 92 3f d2 ac 97 3f 4e 4c 96 3f 39 25 97 3f
       1.1437179 1.1849616 1.1742036 1.1808234
000010 70 0a 97 3f 8e 8b 93 3f 25 24 96 3f e2 26 95 3f
       1.180006 1.1526964 1.172978 1.1652491
000020 f6 5f 93 3f 20 57 9e 3f f2 0c 9d 3f 1a ef 91 3f
       1.151366 1.2370338 1.2269576 1.1401093
000030 fa e0 91 3f 2f 72 8d 3f 8f 5f 90 3f 81 1d 91 3f
       1.1396782 1.1050471 1.1279162 1.1337129
000040 75 c4 a2 3f 67 85 8d 3f 7b 98 8f 3f 56 81 97 3f
       1.2716204 1.1056336 1.1218408 1.1836345
000050 b1 ad 96 3f 53 9f 98 3f 92 ba 96 3f 2a 5f 95 3f
       1.1771756 1.1923622 1.1775687 1.1669667
000060 b4 44 9d 3f 28 0f a3 3f 80 2f 8d 3f 29 2d a9 3f
       1.2286592 1.2739 1.1030121 1.3216907
000070 b4 69 95 3f 65 9b 8e 3f 67 d7 92 3f 90 d0 94 3f
       1.1672883 1.1141173 1.1471986 1.1626148

bn3.bias f4 [32]
000000 f4 47 94 3d d4 c0 c3 3d ff 7b 25 3d 45 7c e2 3d
       0.072402865 0.095582634 0.040401455 0.11058859
000010 d5 fd c2 3d 8d 8f 0f 3d 10 33 bc 3d 92 51 bf 3d
       0.09521071 0.03504901 0.09189427 0.0934173
000020 d5 62 7b 3d 94 5b 0c 3e 66 4c d5 3d f1 11 92 3d
       0.06137355 0.1370681 0.104149625 0.07132328
000030 37 c0 15 3d a4 e6 54 3d 95 74 86 3d 3b 1a d1 3d
       0.036560263 0.05197777 0.06565205 0.10210081
000040 e4 76 e0 3d 79 fe 4f 3d 9c 9c 31 3d 76 14 ce 3d
       0.109601766 0.050779793 0.043362245 0.10062496
000050 6e 8a 7c 3d 6a c0 8e 3d af 19 e7 3d a0 92 dd 3d
       0.061655454 0.06970294 0.11284196 0.10818982
000060 51 aa c7 3d ec 8d 17 3e 3c 97 83 3d 08 82 e6 3d
       0.09749282 0.14800233 0.0642533 0.1125527
000070 d6 42 2b 3d 49 75 19 3d c8 c7 b3 3d 9c 3d 35 3d
       0.041811787 0.037465367 0.087783396 0.04424821

bn3.running_mean f4 [32]
000000 73 2d 8e be 44 67 09 bf 10 e3 3a 3f 6f 79 e8 3b
       -0.2776905 -0.53673196 0.7300272 0.007094554
000010 66 e7 90 be ae 07 bc 3e e3 ec 55 be ae 52 05 3f
       -0.28301543 0.3672461 -0.20891146 0.52079284
000020 ed 90 06 3f 73 34 d9 3e d3 7f 60 be be 50 31 3f
       0.5256489 0.42422828 -0.21923761 0.6926383
000030 01 67 b0 3d 3e b8 77 bf 0f 9b 1a be fe 46 e7 be
       0.086133964 -0.96765506 -0.15098213 -0.4517135
000040 28 6f 25 bf 99 b7 27 3e e8 4c 3a be 26 3a d8 3d
       -0.64622736 0.1637863 -0.181934 0.10557966
000050 da fb 20 bf b5 e5 34 3f 40 37 65 bf 3c af 2f bf
       -0.62884295 0.70663005 -0.8953743 -0.6862676
000060 10 56 ae be ff 5e 38 ba 93 e9 4b 3d 2f 55 f4 3e
       -0.34050035 -0.00070331985 0.0497833 0.4772124
000070 76 00 0e 3f 30 39 8f 3d e7 e9 2a be fe 40 f8 3d
       0.55469453 0.069933295 -0.16690789 0.12121771

bn3.running_var f4 [32]
000000 63 e7 cc 3e 24 66 fe 3e 51 42 3f 3e 4f 4d 8b 3e
       0.40020284 0.49687302 0.18677641 0.2720742
000010 2b 55 9b 3e aa 51 49 3e 0c be 88 3e c4 92 e7 3e
       0.30338416 0.19660059 0.26707494 0.4522916
000020 10 40 94 3e cf ae ec 3e d0 19 91 3e 8c 9d 91 3e
       0.28955126 0.46227118 0.28340006 0.2844051
000030 3c 2b 9a 3e 5c 4d d1 3e 79 ae a5 3e d2 79 51 3e
       0.3011111 0.40879333 0.32359675 0.20456627
000040 9c f3 68 3e 59 a4 4e 3e f7 29 92 3e 7c c9 90 3e
       0.2274918 0.20179881 0.28547642 0.2827872
000050 e3 fa 9a 3e 24 7f 6e 3e 35 fa 94 3e 3a d2 55 3e
       0.30269536 0.23290688 0.29097143 0.20880976
000060 a8 d3 98 3e d4 cc fc 3e 79 28 80 3e 53 7a 5a 3e
       0.2984898 0.4937502 0.25030878 0.21335725
000070 67 7b 8c 3e db 92 52 3e e6 de 98 3e ac 19 9b 3e
       0.274379 0.20563833 0.29857558 0.30293024

fc1.weight f4 [4, 128]
000000 75 fe 55 bd 75 c7 ff bd 53 50 c8 bb 70 c1 39 3e
       -0.052244622 -0.12489215 -0.006113091 0.18140197
000010 1a be 7a bc 45 da 79 bd 50 c1 02 be 4c 8b 08 3e
       -0.015304113 -0.060999174 -0.12769055 0.13334388
000020 90 c8 95 bd 77 fa e0 3d 6c 3a a9 bc 83 eb 74 3e
       -0.07313645 0.109852724 -0.02065774 0.23917966
000030 8c 03 a5 3d e4 d2 e6 bd 16 c7 ab 3d 6b cc cf bd
       0.08057317 -0.11270693 0.08387582 -0.101464115
000040 d1 8f 6b 3b 7a a7 1c be 9b 1b 38 bc 13 a4 7b be
       0.0035943876 -0.15298262 -0.01123705 -0.24574308
000050 1d e2 5d 3d d0 7a b8 3d 7c 0c 32 3c 66 01 b2 bd
       0.054170717 0.090077996 0.010867234 -0.08691673
000060 ba fd 68 bd 34 00 48 bd 3c 05 c3 bd 10 64 26 be
       -0.056882598 -0.04882832 -0.09522483 -0.16249108
000070 f6 56 23 3a 57 45 d0 bd 19 cd 83 3d 3b 02 5b be
       0.0006230915 -0.101694755 0.06435604 -0.2138757
000080 f7 90 a3 3d 39 9d b7 bd 67 01 51 3d 76 d3 81 bc
       0.07986634 -0.08965535 0.051026728 -0.015847903
000090 74 c4 5a 3d d5 a2 89 3c b5 b1 49 3d 5c ac ee bd
       0.05341001 0.016801277 0.04924174 -0.11653969
0000a0 71 a1 93 3d a6 01 8e bd 3a 45 45 bd 00 c2 5d be
       0.07208527 -0.06933908 -0.048161723 -0.21656036
0000b0 44 5d 8f 3d f5 cf fa bc 52 d4 f5 3d be c7 8d 3e
       0.07000211 -0.03061674 0.120033875 0.27691454
0000c0 df 62 89 3c ff 65 ce bd ed aa 08 bd 21 5c ff 3d
       0.016770778 -0.10078048 -0.033366133 0.12468744
0000d0 c5 48 14 be 54 9f 03 be 1f df 1b 3d 1b 23 f1 3d
       -0.14480884 -0.12853748 0.03805458 0.11774274
0000e0 19 49 01 bb e1 2b b7 bb 1a 47 80 3d fd 90 d3 bd
       -0.0019727407 -0.0055899476 0.062635615 -0.10330389
0000f0 35 25 b9 3c 75 6f c7 3d d0 06 30 be cb b7 0e 3d
       0.02260075 0.097380556 -0.17190099 0.034843247
000100 0d 01 39 3d b7 5d fa bd bf b5 58 3c 55 ff 94 be
       0.045167018 -0.12224906 0.013226925 -0.29101053
000110 aa 8d 73 3d 05 1b 82 3d 69 39 a1 bd 90 5b db 3d
       0.059461273 0.0635281 -0.07872278 0.107108235
000120 b5 08 af 3d d6 de e9 bd 63 07 c7 3d 3b 52 14 3e
       0.085465826 -0.11419456 0.09718206 0.14484493
000130 52 92 e1 3d 98 f1 88 bd 4c a5 df bd b7 c0 2d be
       0.110142365 -0.06686705 -0.109202 -0.16968046
000140 ef 2d 4f 3b 16 31 cb bd d1 91 ad 3d 47 39 29 3e
       0.0031613072 -0.09921472 0.08475078 0.16525756
000150 3f 03 ba bd 11 9b 8f bd 93 f4 7e bd d0 0a 80 3e
       -0.090826504 -0.070119984 -0.062244963 0.2500825
000160 3c e8 1e be 41 79 2c be af 44 84 bd 98 39 c5 bc
       -0.15518278 -0.1684313 -0.06458413 -0.024075314
000170 fc 2d b8 bc 30 01 99 bd 22 59 17 be a7 63 fc bd
       -0.022482865 -0.074709296 -0.14780095 -0.12323695
000180 11 82 c1 bd ce 3d d9 3d 41 a7 d0 bc 49 26 52 3c
       -0.09448636 0.106074914 -0.025470378 0.012826511
000190 35 66 13 3c bc 6a ad 3c c5 e1 46 bd 9d a5 e1 3d
       0.008996536 0.021169059 -0.048555154 0.11017916
0001a0 85 8f 36 bc 80 7e 9d 3d cd 90 c8 3d 2a 67 b0 bd
       -0.011142616 0.076901436 0.097932436 -0.08613427
0001b0 56 b2 c5 bd b2 ab a1 bd c3 30 bd bc cc d7 6f 3e
       -0.096531555 -0.078940764 -0.02309454 0.23422164
0001c0 0a 55 46 3d ef ed 2c bd 39 26 c6 bd 20 68 5e 3e
       0.048420943 -0.0422191 -0.09675259 0.21719408
0001d0 9b 39 0a 3d 87 06 74 3d bb 64 4a bc bc fd 04 be
       0.033746343 0.059576537 -0.012353118 -0.12987417
0001e0 c2 eb 7e 3d 3e 73 11 3d 39 ae ef 3c f1 dc a1 be
       0.062236555 0.035510294 0.02925788 -0.31613877
0001f0 fd fa 36 bd e3 28 09 bd 71 c2 f9 3d 9f 8f 56 3e
       -0.044672955 -0.03348626 0.1219529 0.20953225
000200 39 cc 91 3c cc e3 be 3d ba 65 f3 bd be 5f e1 3b
       0.017797576 0.093207926 -0.11884637 0.0068778684
000210 07 da d9 bd bc d9 77 bc f4 de de 3c b2 80 7f 3d
       -0.106372885 -0.0151275955 0.027205922 0.062378593
000220 aa 1a 00 bd f8 3a 32 3d 58 42 45 3d 2a 44 4a bd
       -0.03127543 0.04351327 0.048158973 -0.049381413
000230 ad 0c 8f 3d d4 78 ba bd 33 99 c7 bc 9a 76 1e 3e
       0.069848396 -0.091050774 -0.024365043 0.1547493
000240 84 40 d9 39 67 dd a3 3c d2 f3 07 3e 51 e0 23 be
       0.00041437533 0.020003034 0.13276604 -0.16003539
000250 97 35 61 3d 31 e4 21 bc 0d 12 6e bd 53 f0 0e be
       0.054982748 -0.009881065 -0.058122683 -0.13958864
000260 f2 1e ca bd e6 de 2e bd e2 60 17 be b4 bd 2c 3e
       -0.098691836 -0.04269304 -0.14783052 0.16869241
000270 e7 c9 77 3d af af 82 bd 2e 4b 0f 3b 7b ef a3 bd
       0.060495283 -0.06381165 0.002186488 -0.08004662
000280 87 6b 40 3e 34 c0 de bc 56 f4 af bc 72 1f 9d 3d
       0.18791018 -0.027191259 -0.021478813 0.07672013
000290 50 0d 9c bc a0 36 f1 bc 35 aa d6 3d b3 cc 03 be
       -0.019049317 -0.029444993 0.10481683 -0.12871055
0002a0 2a 7f c5 3d 25 f7 ad bd 10 0b 04 3d 94 d1 27 3e
       0.09643395 -0.08494405 0.032237113 0.16388541
0002b0 14 e7 98 3d 53 b9 27 bd 57 68 1d bc 32 4a 75 be
       0.0746595 -0.040948223 -0.009607396 -0.23954085
0002c0 95 95 c6 3d cf b2 08 be 33 75 34 3d 45 47 fe bd
       0.09696499 -0.1334946 0.044057082 -0.12415937
0002d0 7d 60 7b bc c2 11 8b bd a8 c3 0a be 3c 3a 95 bd
       -0.015342829 -0.067904964 -0.135512 -0.07286498
0002e0 e6 79 82 3b 05 74 35 bd 5e 20 d3 3d 27 33 29 3e
       0.0039818166 -0.044300098 0.10308908 0.1652342
0002f0 89 cb a3 3d 54 cb b1 ba 91 06 33 3d 74 ef 19 bd
       0.079978056 -0.0013564625 0.043707434 -0.037581876
000300 07 69 bf bd fb 6d c0 bd 9b fc 1c 3e bf 62 a8 3c
       -0.09346204 -0.09395977 0.15330736 0.020554898
000310 27 35 29 3b b1 8d 2c 3d 35 99 11 3e ee 96 db bd
       0.0025819035 0.042127315 0.142186 -0.10722147
000320 15 4f b6 3c 63 93 35 be 7f 72 b2 bd cd 27 93 bc
       0.022254506 -0.17732005 -0.08713245 -0.017963314
000330 7f bb 08 3e 4c 2c 70 3d 73 a2 d4 bd 4d c4 d6 bc
       0.13352774 0.058635995 -0.10382547 -0.02621665
000340 26 79 c0 3d 46 1b db 3c 49 15 cc bd 04 c9 8b 3d
       0.09398107 0.026746403 -0.09964997 0.0682545
000350 2b 52 64 3d 7f f4 84 bd f3 7f 98 3d f7 b3 5c be
       0.055742424 -0.064919464 0.074462794 -0.21553026
000360 62 50 36 be 12 fd aa bd 1c 13 ed bd 31 20 11 3e
       -0.17804101 -0.083490506 -0.115759104 0.14172436
000370 a3 40 df 3d 3d e0 84 3c 43 a0 25 3b c5 2c 5a 3c
       0.10901 0.016220206 0.0025272525 0.013316338
000380 20 28 0a 3d fb 80 04 bd 04 7c 3d be 72 74 07 3e
       0.033729672 -0.032349568 -0.1850434 0.13228014
000390 fa 51 19 3b 20 0e 04 3e 2b de 2e be e1 69 71 bd
       0.002339481 0.12896013 -0.17076938 -0.058938865
0003a0 fc 39 d7 3d 00 2a 94 3d 5e 91 b9 3d 01 e8 eb 3d
       0.105091065 0.07234573 0.0906093 0.115188606
0003b0 80 ab d4 bd d8 9c d9 bb 9e 3a f4 3c e3 3c 8c be
       -0.103842735 -0.0066410117 0.029813107 -0.27390203
0003c0 ee f1 7a bb 09 04 d0 bc 01 56 8b bd 42 23 6e be
       -0.0038291174 -0.02539255 -0.06803513 -0.23255637
0003d0 36 77 31 3c 36 13 c2 3c 53 4a 62 3d aa 79 3b 3e
       0.010831645 0.023690801 0.055246662 0.1830813
0003e0 7d e8 0f 3c 8d b0 d0 3d 45 37 01 3e b3 b9 c7 3c
       0.008783457 0.101899244 0.1261874 0.02438054
0003f0 f5 b4 89 ba ec 4b cb bd be 1f f8 3c fa 3a 1a be
       -0.00105062 -0.0992659 0.030288573 -0.1506156

fc1.bias f4 [4]
000000 ef bb bd bd 4a 30 50 3c c7 cc 88 bd 9f 3c e9 3c
       -0.09264361 0.0127068255 -0.06679683 0.02847129
