pths/classifier_train.pth (torch, 61572 bytes, 20 tensors)

conv1.weight f4 [32, 1, 3]
-0.14188379 0.21202125 0.54547477 -0.098020926 0.17351305 0.13098611 0.017035218 0.35687113
0.4282909 -0.0149944015 0.46413973 -0.1830411 -0.092526294 0.58013 0.39158288 0.38733828
-0.3352915 -0.2422042 0.36806062 -0.05642185 -0.073370166 0.23706374 -0.2610714 0.50621074
-0.4183281 -0.05404857 -0.24590378 -0.5278657 -0.47742504 -0.49364087 -0.05263679 0.027502954
0.2811283 0.44310874 -0.5254379 0.067196295 -0.5618944 -0.36678553 -0.13852538 -0.046096615
-0.16020854 0.298714 0.018352125 -0.15276806 -0.49161357 0.18994775 -0.05365151 -0.03617056
0.37513903 -0.3383178 -0.5263212 0.41774464 -0.34022114 -0.50437796 -0.12006514 -0.49320218
-0.4862513 -0.52296 -0.04799971 0.02285128 -0.5237126 -0.42425814 -0.44085887 0.06092715
-0.5184997 0.5101748 -0.31741393 -0.5808394 -0.46696237 0.4781754 -0.39071387 0.4338767
-0.0026588012 0.11514178 0.21274756 0.2563414 0.37023672 -0.28275624 0.18529171 -0.21885507
0.2324047 -0.16262826 0.17350242 0.061991204 -0.3861025 -0.43838072 -0.15921754 0.07201279
-0.55478007 -0.3633866 0.22724025 0.27528885 0.011745359 -0.3981824 -0.28257897 0.2595341
00000000: fc49 11be 191c 593e 3ca4 0b3f 32bf c8bd
00000010: 68ad 313e 3921 063e 718d 8b3c d0b7 b63e
00000020: f248 db3e 14ab 75bc b9a3 ed3e 206f 3bbe
00000030: 6d7e bdbd 6683 143f 8d7d c83e 3451 c63e
00000040: 54ab abbe 6104 78be 7172 bc3e 991a 67bd
00000050: 1943 96bd d6c0 723e 27ab 85be 0797 013f
00000060: 1a2f d6be 0962 5dbd 33ce 7bbe 3522 07bf
00000070: 0e71 f4be 7fbe fcbe ad99 57bd e04d e13c
00000080: 0cf0 8f3e 26df e23e 1983 06bf 369e 893d
00000090: 50d8 0fbf 50cb bbbe 99d9 0dbe cecf 3cbd
000000a0: b50d 24be 0bf1 983e 3257 963c 3b6f 1cbe
000000b0: c6b4 fbbe aa81 423e b0c1 5bbd 9527 14bd
000000c0: 3912 c03e fe37 adbe fcbc 06bf a0e2 d53e
000000d0: 7731 aebe ea1e 01bf b6e4 f5bd ff84 fcbe
000000e0: eef5 f8be b5e0 05bf 589b 44bd 9c32 bb3c
000000f0: 0712 06bf 5d38 d9be 41b8 e1be bf8e 793d
00000100: 65bc 04bf d19a 023f 1484 a2be e4b1 14bf
00000110: b115 efbe 68d3 f43e a60b c8be 1625 de3e
00000120: 483f 2ebb 74cf eb3d 7fda 593e 2e3f 833e
00000130: ab8f bd3e 6dc5 90be 1cbd 3d3e 8b1b 60be
00000140: 7ffb 6d3e 0688 26be 9eaa 313e 7dea 7d3d
00000150: 3aaf c5be 7073 e0be ec09 23be 717b 933d
00000160: 1106 0ebf cf0d babe abb1 683e a9f2 8c3e
00000170: 9b6f 403c 90de cbbe 31ae 90be a7e1 843e

conv1.bias f4 [32]
-0.2998085 0.5103273 -0.4683892 0.10666088 0.05240916 -0.4777244 0.072081774 0.26347566
-0.090026096 0.56148547 -0.20640785 -0.49383244 0.36585996 0.029106425 -0.17815334 0.2681718
-0.5146391 -0.18310341 0.44992355 0.5379464 -0.04780981 0.3538591 0.17431763 -0.05410772
-0.17491156 0.43398574 0.49958783 -0.05837419 -0.2136613 0.27228692 0.17771968 -0.15035482
00000000: 8080 99be cfa4 023f b6d0 efbe 0571 da3d
00000010: fdaa 563d 4b98 f4be 9c9f 933d 48e6 863e
00000020: 9a5f b8bd 83bd 0f3f 945c 53be 9bd7 fcbe
00000030: ff51 bb3e 9970 ee3c d46d 36be d04d 893e
00000040: 63bf 03bf 767f 3bbe 615c e63e dbb6 093f
00000050: 38d4 43bd 052d b53e 5280 323e 0ea0 5dbd
00000060: 041c 33be 6133 de3e fac9 ff3e c619 6fbd
00000070: 07ca 5abe 3169 8b3e 26fc 353e 9df6 19be

bn1.weight f4 [32]
1.0019236 1.0033252 1.0061204 0.9964418 0.9952569 0.99120075 1.0026255 1.0118402
1.0127867 1.0022899 0.9864071 1.0074953 1.0106959 0.99101204 1.0161878 0.99597114
1.0184042 1.0013754 1.0211465 0.98730105 1.0136833 0.998221 1.0230695 0.98696274
0.99390906 0.9846895 1.0154165 0.9850019 0.9896041 1.0162747 0.99646413 0.9980687
00000000: 083f 803f f66c 803f 8ec8 803f cf16 7f3f
00000010: 28c9 7e3f 55bf 7d3f 0856 803f fb83 813f
00000020: ffa2 813f 094b 803f 2d85 7c3f 9bf5 803f
00000030: 7c5e 813f f7b2 7d3f 7112 823f f7f7 7e3f
00000040: 125b 823f 122d 803f eeb4 823f c3bf 7c3f
00000050: 60c0 813f 698b 7f3f f1f3 823f 97a9 7c3f
00000060: d370 7e3f 9c14 7c3f 2bf9 813f 1629 7c3f
00000070: b256 7d3f 4a15 823f 4618 7f3f 6e81 7f3f

bn1.bias f4 [32]
0.0065554567 0.005292219 0.002647874 -0.0028981958 -0.006611387 -0.012303745 -0.0023373647 0.01241076
0.019640077 0.0061335894 -0.0029599022 0.012162987 0.0080864 -0.0049086926 0.022881024 -0.010736144
0.024621742 0.0039193113 0.028170105 -0.0050189327 0.016824303 -0.014684263 0.030013904 -0.013155136
0.008579215 -0.018974084 0.02314162 -0.012898335 -0.0069953 0.022816861 0.002360855 0.0073897517
00000000: 28cf d63b 5a6a ad3b f487 2d3b a8ef 3dbb
00000010: 55a4 d8bb a695 49bc 792e 19bb 8056 4b3c
00000020: 3ae4 a03c 47fc c83b ebfa 41bb 4447 473c
00000030: d27c 043c 19d9 a0bb fc70 bb3c a7e6 2fbc
00000040: 89b3 c93c 916d 803b fec4 e63c dc75 a4bb
00000050: 1fd3 893c 4396 70bc b8df f53c a488 57bc
00000060: d68f 0c3c 8a6f 9bbc 7f93 bd3c 8a53 53bc
00000070: d438 e5bb 6dea ba3c 93b8 1a3b bb25 f23b

bn1.running_mean f4 [32]
-0.18628171 0.55005133 -0.3236021 0.15637618 0.21352965 -0.5209261 0.107424274 0.3443996
-0.21059881 0.30056676 -0.15997231 -0.50651497 0.1836786 0.045878537 -0.29182604 0.28268555
-0.61059415 -0.27002016 0.25375348 0.44995564 -0.28743288 0.36015457 -0.06484349 0.028953595
-0.11640367 0.49224877 0.53072923 -0.042099405 -0.38418928 0.11601614 0.26655564 -0.22048308
00000000: a2c0 3ebe 2ad0 0c3f 2daf a5be 1421 203e
00000010: 84a7 5a3e 6a5b 05bf 4201 dc3d 2555 b03e
00000020: 37a7 57be e3e3 993e c8cf 23be f7aa 01bf
00000030: 3e16 3c3e 22eb 3b3d 396a 95be 29bc 903e
00000040: e64f 1cbf 1540 8abe faeb 813e 9660 e63e
00000050: 672a 93be 2e66 b83e aacc 84bd 1730 ed3c
00000060: 0c65 eebd 0808 fc3e dfdd 073f 6d70 2cbd
00000070: 75b4 c4be df99 ed3d fb79 883e 51c6 61be

bn1.running_var f4 [32]
0.03520563 0.0041024727 0.054966394 0.010286196 0.06787219 0.00597577 0.004970859 0.023968562
0.04148123 0.18312736 0.0064500305 0.005061824 0.092476815 0.0029542418 0.034802113 0.000952633
0.02556539 0.020838402 0.10171663 0.024450218 0.1566142 0.01045007 0.15433247 0.027443828
0.009157544 0.01420642 0.0049350797 0.0010149166 0.079601906 0.06269575 0.022248916 0.01787686
00000000: c733 103d 096e 863b 7124 613d 6f87 283c
00000010: 9300 8b3d 64d0 c33b 96e2 a23b b859 c43c
00000020: 39e8 293d bd85 3b3e c75a d33b a8dd a53b
00000030: 7c64 bd3d f49b 413b a98c 0e3d 1eba 793a
00000040: 826e d13c 4cb5 aa3c cf50 d03d d34b c83c
00000050: 795f 203e c536 2b3c 5509 1e3e e1d1 e03c
00000060: 8609 163c 0bc2 683c 73b6 a13b f306 853a
00000070: 5306 a33d a166 803d 5c43 b63c 7e72 923c

conv2.weight f4 [64, 32, 3]
-0.023317544 -0.089362554 0.094409324 -0.060165614 0.028148623 -0.026531642 -0.046597265 0.019839412
-0.036575634 0.022841087 -0.079502985 -0.059422597 -0.05766754 -0.016301386 -0.0060254424 -0.022424567
0.012754754 -0.031914007 -0.08904227 0.09551611 0.02023517 0.06429472 -0.033606425 -0.037741773
-0.066042446 -0.09223552 -0.024136595 0.019155378 0.085770234 -0.07079757 -0.087857835 -0.00064694526
-0.01429316 -0.11491168 0.068975754 0.030004332 -0.054048706 0.083803646 -0.0049065333 0.056498457
-0.09875828 0.10507089 -0.0022929048 0.07134265 -0.071856424 0.008674772 0.064550154 -0.04209992
-0.09850945 0.06452117 0.03229346 0.08052176 -0.10352348 0.031949632 0.05229458 0.08628718
0.070047066 -0.096033156 -0.052722163 0.011939215 0.023099877 -0.09737689 0.07150248 -0.05490977
-0.031461384 0.026323665 -0.016313829 0.07445638 0.092847586 -0.011760204 0.06475928 -0.08520978
-0.070471495 -0.012649551 -0.025386415 0.078790225 0.07508882 0.0016214048 0.06852889 0.101361915
0.09591137 0.05482712 -0.0065754876 0.061204184 0.01915056 -0.08236467 -0.007000334 -0.043936424
-0.012903021 -0.07575454 -0.06597748 -0.102135524 0.06490592 0.006734293 0.03447171 0.070015475
-0.056863878 0.03535016 0.04074668 -0.010951714 -0.080966905 0.03523742 0.07132335 -0.09614957
0.09190829 0.061746996 0.014805696 0.042449933 -0.04065012 -0.01921028 0.043413173 -0.061217844
0.0035715157 0.045707434 -0.042600058 0.05939518 0.06816503 0.025243912 -0.054318916 0.05259977
0.025084812 0.048208475 0.031631216 -0.03338526 0.01329944 0.08293357 0.009101506 -0.08000617
-0.08707304 0.0841295 0.006184539 -0.062075365 -0.08845879 -0.0799107 -0.07926067 0.0029457347
0.0034441322 0.074129514 0.085263185 -0.0044718403 0.09507326 0.09168242 0.0084414305 -0.02649115
0.079509676 0.07029744 -0.015615083 -0.03184314 0.09250281 -0.006473592 0.056931347 0.10436158
-0.031792104 0.09200778 0.02330911 0.03411089 0.003040627 -0.010958006 0.013967903 0.029009009
-0.013458276 -0.02484226 -0.007380494 -0.042023703 0.08385298 0.07991928 -0.03918287 0.047453262
-0.028091673 0.018928515 0.07026979 -0.0792987 0.030276166 0.081722416 0.032133766 -0.054775547
0.09947369 0.014685715 -0.06773998 0.019973727 -0.051212452 -0.07238947 -0.0149302585 -0.052998308
0.05429237 -0.016173469 0.017726358 0.045878783 -0.029960675 0.09299815 0.027048137 -0.04502068
-0.07124164 0.094067834 -0.08140193 0.048084423 0.035267953 -0.040735286 -0.0920654 -0.0878113
-0.0014422409 -0.03400244 0.062979676 0.061928995 0.007272749 0.006814013 -0.099508435 0.09294614
-0.04248832 -0.028636394 -0.050647825 -0.097131096 -0.106301636 -0.08559659 0.08457035 -0.078840554
0.08847985 0.08226211 -0.045651134 -0.023044987 0.022794386 -0.087778 0.09429905 0.09659933
-0.10091484 0.09274977 -0.011603579 0.033726163 -0.012822135 0.04045997 -0.057413578 0.09157741
-0.06823312 -0.06586059 0.091239095 0.040089104 -0.02911711 0.053168952 -0.012501484 0.054443303
-0.053321853 0.057768222 -0.01715183 -0.009576546 -0.028849307 0.03617143 0.026745383 -0.08175383
-0.030224606 0.005774236 0.028135754 0.03851882 -0.067735046 -0.101107016 0.009551134 -0.01853018
00000000: 6f04 bfbc b703 b7bd ad59 c13d 3870 76bd
00000010: f197 e63c e358 d9bc c6dc 3ebd 4386 a23c
00000020: 55d0 15bd 3b1d bb3c 76d2 a2bd 1c65 73bd
00000030: cc34 6cbd 7c8a 85bc 1371 c5bb bab3 b7bc
00000040: 51f9 503c 43b8 02bd cb5b b6bd f39d c33d
00000050: 3ac4 a53c f3ac 833d e4a6 09bd 1e97 1abd
00000060: 4341 87bd fae5 bcbd 1cba c5bc bdeb 9c3c
00000070: 4ea8 af3d 51fe 90bd cfee b3bd c397 29ba
00000080: dc2d 6abc d156 ebbd 2943 8d3d a5cb f53c
00000090: 2d62 5dbd 3fa1 ab3d fcc6 a0bb ed6a 673d
000000a0: c841 cabd 682f d73d 8f44 16bb 181c 923d
000000b0: 7629 93bd a220 0e3c df32 843d f770 2cbd
000000c0: 53bf c9bd ad23 843d 2646 043d 98e8 a43d
000000d0: 1e04 d4bd 9edd 023d d732 563d 55b7 b03d
000000e0: d674 8f3d 08ad c4bd 32f3 57bd b29c 433c
000000f0: f43b bd3c 896d c7bd e46f 923d 11e9 60bd
00000100: a7dd 00bd baa4 d73c 94a4 85bc 967c 983d
00000110: e026 be3d dfad 40bc 83a0 843d 7782 aebd
00000120: 5c53 90bd 1040 4fbc 2cf7 cfbc c55c a13d
00000130: 2bc8 993d 5185 d43a e058 8c3d d696 cf3d
00000140: 2e6d c43d 6792 603d 3077 d7bb 3db1 7a3d
00000150: a3e1 9c3c cfae a8bd 0f63 e5bb aef6 33bd
00000160: 3167 53bc 3225 9bbd 331f 87bd 6e2c d1bd
00000170: 65ed 843d 58ab dc3b 3532 0d3d 4664 8f3d
00000180: 19ea 68bd 54cb 103d fee5 263d d16e 33bc
00000190: fad1 a5bd 1d55 103d fa11 923d 11ea c4bd
000001a0: 6a3a bc3d 6bea 7c3d 9793 723c fbdf 2d3d
000001b0: bd80 26bd e15e 9dbc 03d2 313d 90bf 7abd
000001c0: 1710 6a3b b837 3b3d 667d 2ebd 5c48 733d
000001d0: 1b9a 8b3d 52cc ce3c 837d 5ebd db72 573d
000001e0: aa7e cd3c 4076 453d bc8f 013d fbbe 08bd
000001f0: e5e5 593c 13d9 a93d 7c1e 153c 46da a3bd
00000200: 5a53 b2bd 164c ac3d aca7 ca3b bd42 7ebd
00000210: e229 b5bd 39a8 a3bd 6b53 a2bd 3a0d 413b
00000220: f3b6 613b 37d1 973d 779e ae3d 8488 92bb
00000230: c5b5 c23d fec3 bb3d ed4d 0a3c f803 d9bc
00000240: f8d5 a23d 1bf8 8f3d 68d6 7fbc f46d 02bd
00000250: 1d72 bd3d 6d20 d4bb d830 693d 86bb d53d
00000260: 7038 02bd 936e bc3d bff2 be3c dcb7 0b3d
00000270: 4245 473b 3589 33bc a2d9 643c 4da4 ed3c
00000280: 1a80 5cbc ff81 cbbc 12d8 f1bb 0c21 2cbd
00000290: 1cbb ab3d b8ac a33d 387e 20bd 5a5e 423d
000002a0: 8220 e6bc f90f 9b3c 9ce9 8f3d 5b67 a2bd
000002b0: b905 f83c 155e a73d b29e 033d 535c 60bd
000002c0: ddb8 cb3d 5a9c 703c 42bb 8abd f19f a33c
000002d0: 26c4 51bd ee40 94bd 0b9e 74bc c114 59bd
000002e0: ad61 5e3d 397e 84bc de36 913c 64eb 3b3d
000002f0: 1770 f5bc d075 be3d 0e94 dd3c 9b67 38bd
00000300: 23e7 91bd a3a6 c03d 0eb6 a6bd 2cf4 443d
00000310: 2175 103d 0bda 26bd c98c bcbd 69d6 b3bd
00000320: 9309 bdba 2446 0bbd 7dfb 803d 42a9 7d3d
00000330: 3e50 ee3b 1548 df3b 14cb cbbd 8c5a be3d
00000340: 3c08 2ebd df96 eabc 1874 4fbd abec c6bd
00000350: acb4 d9bd 444d afbd 3833 ad3d 2877 a1bd
00000360: ec34 b53d 0a79 a83d affc 3abd d7c8 bcbc
00000370: 4bbb ba3c f4c4 b3bd dc1f c13d dfd5 c53d
00000380: 71ac cebd 97f3 bd3d f01c 3ebc 7224 0a3d
00000390: ef13 52bc 5ab9 253d 802a 6bbd f08c bb3d
000003a0: cebd 8bbd ebe1 86bd 90db ba3d 7934 243d
000003b0: 0187 eebc b0c7 593d 06d3 4cbc f1ff 5e3d
000003c0: 0468 5abd 5f9e 6c3d ff81 8cbc f2e6 1cbc
000003d0: 6255 ecbc 7e28 143d 2219 db3c 8d6e a7bd
000003e0: 9899 f7bc cd35 bd3b f47c e63c e9c5 1d3d
000003f0: acb8 8abd 3211 cfbd 5c7c 1c3c 9bcc 97bc

conv2.bias f4 [64]
0.027455151 0.055104777 0.061807677 -0.021284925 -0.07692632 0.016013848 -0.0768111 0.030623663
0.097306386 0.09356499 -0.06328491 0.053523898 -0.0018942935 -0.061067283 -0.04775797 0.08236894
-0.017480599 0.058828376 -0.07765184 0.05840262 -0.07484179 -0.021787776 -0.07698891 -0.022892306
-0.068502314 0.09175473 -0.07418917 -0.0043936227 0.036408104 -0.04939776 -0.05673555 -0.03509832
0.06587907 0.0680554 -0.08187255 -0.034123134 0.013075198 -0.014138167 0.036686443 0.081342585
0.041566964 -0.03354593 0.048566364 0.08570829 -0.080836155 -0.09174957 0.0722101 -0.08544904
0.077415645 -0.007590358 0.014466566 -0.032250147 -0.067997836 -0.028438482 0.048298847 0.038342424
-0.07775682 -0.039291248 0.08487328 -0.06974954 0.028587816 -0.028978795 0.0036675923 -0.08624804
00000000: a0e9 e03c 8cb5 613d 0c2a 7d3d b95d aebc
00000010: 8c8b 9dbd 792f 833c 234f 9dbd 7ade fa3c
00000020: 9248 c73d 009f bf3d 859b 81bd e03b 5b3d
00000030: f149 f8ba b021 7abd dc9d 43bd 0cb1 a83d
00000040: 7933 8fbc 06f6 703d ee07 9fbd 9637 6f3d
00000050: a746 99bd 477c b2bc 5dac 9dbd a588 bbbc
00000060: f14a 8cbd e7e9 bb3d 7ef0 97bd 61f8 8fbb
00000070: aa20 153d 4e55 4abd 8963 68bd 42c3 0fbd
00000080: 9beb 863d a160 8b3d ccac a7bd b3c4 0bbd
00000090: 5b39 563c c5a3 67bc 8644 163d f196 a63d
000000a0: 1f42 2a3d 7567 09bd 86ed 463d d487 af3d
000000b0: 6d8d a5bd 33e7 bbbd e4e2 933d e8ff aebd
000000c0: 188c 9e3d 8ab8 f8bb 2d05 6d3c bb18 04bd
000000d0: 7342 8bbd d2f7 e8bc 03d5 453d f20c 1d3d
000000e0: f83e 9fbd dcef 20bd 0bd2 ad3d d9d8 8ebd
000000f0: ff30 ea3c f064 edbc fd5b 703b d0a2 b0bd

bn2.weight f4 [64]
1.0005921 0.9831005 1.0058413 0.98254937 0.99239844 0.9830461 0.99710816 1.00851
1.0620689 1.011354 0.98440516 1.001873 0.98954195 1.011402 0.9864588 1.0023729
0.98842984 1.0059745 0.99631536 0.9957004 0.98567194 1.0027523 0.993585 0.98704785
1.0004215 0.983162 0.98526996 0.98550195 1.004425 0.9819927 0.99973845 0.9975148
1.0114473 1.0430881 1.0014311 0.99083865 0.99327457 0.996531 0.9954282 0.97979105
0.9829022 1.0161761 0.9954503 0.99193954 0.9743446 1.001746 0.99790335 0.9967029
0.98506063 1.0073014 1.0185605 1.0046118 0.9908826 0.98638904 1.0076646 0.9852041
1.0046582 1.0002829 1.0013479 0.99824184 1.0645376 0.982931 1.0105661 1.0153719
00000000: 6713 803f 79ac 7b3f 68bf 803f 5b88 7b3f
00000010: d30d 7e3f e9a8 7b3f 7b42 7f3f db16 813f
00000020: e0f1 873f 0c74 813f fa01 7c3f 603d 803f
00000030: 9f52 7d3f 9f75 813f 9088 7c3f c14d 803f
00000040: bd09 7d3f c6c3 803f 860e 7f3f 39e6 7e3f
00000050: ff54 7c3f 305a 803f 965b 7e3f 2baf 7c3f
00000060: d00d 803f 81b0 7b3f a73a 7c3f db49 7c3f
00000070: 0091 803f e063 7b3f dcee 7f3f 215d 7f3f
00000080: 1b77 813f e983 853f e52e 803f 9aa7 7d3f
00000090: 3e47 7e3f a81c 7f3f 62d4 7e3f 96d3 7a3f
000000a0: 7b9f 7b3f 0f12 823f d5d5 7e3f c0ef 7d3f
000000b0: a66e 793f 3739 803f 9876 7f3f ec27 7f3f
000000c0: ef2c 7c3f 41ef 803f 3160 823f 1f97 803f
000000d0: 7baa 7d3f fe83 7c3f 27fb 803f 5636 7c3f
000000e0: a498 803f 4509 803f 2b2c 803f c78c 7f3f
000000f0: c542 883f 5ea1 7b3f 3b5a 813f b5f7 813f

bn2.bias f4 [64]
-0.001934159 -0.008309064 0.0036090908 -0.019578895 -0.0054664863 -0.0077819587 -0.01504999 0.014533498
-0.0037161503 0.013646921 -0.027142614 -0.023432232 -0.0068789395 0.0057711024 -0.008488917 -0.0029576153
0.0145052895 0.005945288 -0.009832502 -0.00068745285 -0.009240082 -0.00087119965 0.010880216 -0.021727491
0.0028879964 -0.02670712 -0.009807552 -0.014282621 -0.005697409 -0.016157629 -0.009179751 -0.013488069
0.00030189057 -0.022621874 -0.015037437 0.0007847069 -0.004620981 -0.008706305 0.006376168 -0.014930411
-0.013618325 0.0030624564 -0.01890537 0.004836749 -0.017601945 -0.0076924833 0.007829207 -0.009452382
-0.009443951 0.00053500634 0.013342861 0.0039985487 -0.0064605786 -0.01813021 0.0014083091 -0.005987948
0.012029534 -0.014752408 0.013850989 -0.006926636 -0.018822325 -0.021368768 -0.010309827 -0.010472356
00000000: 9b83 fdba be22 08bc 7f86 6c3b eb63 a0bc
00000010: 3620 b3bb cdff febb 3c94 76bc e91d 6e3c
00000020: a88a 73bb 5697 5f3c 305a debc f4f4 bfbc
00000030: ba68 e1bb 841b bd3b 1915 0bbc 8dd4 41bb
00000040: 98a7 6d3c b1d0 c23b 8118 21bc 2e36 34ba
00000050: b763 17bc 3861 64ba ef42 323c dafd b1bc
00000060: 8a44 3d3b e4c8 dabc dbaf 20bc a801 6abc
00000070: 55b1 babb 015d 84bc ab66 16bc 10fd 5cbc
00000080: 1147 9e39 8251 b9bc 955f 76bc cab4 4d3a
00000090: 996b 97bb e4a4 0ebc 2def d03b af9e 74bc
000000a0: 651f 5fbc 7eb3 483b 6fdf 9abc 977d 9e3b
000000b0: f431 90bc 3a11 fcbb 1346 003c 2ade 1abc
000000c0: cdba 1abc ab3f 0c3a 049c 5a3c 4206 833b
000000d0: 43b3 d3bb ce85 94bc 0397 b83a 8c36 c4bb
000000e0: 8617 453c 15b4 71bc 42ef 623c d6f8 e2bb
000000f0: 4731 9abc 8e0d afbc 8cea 28bc 3f94 2bbc

bn2.running_mean f4 [64]
-0.024337582 0.43974233 -0.30710062 0.16023763 -0.23191604 0.25123888 0.80778897 0.21524692
-0.023628853 0.022043288 -0.35737753 0.36927494 0.096519105 -0.31406116 0.17702366 -0.4130041
-0.23588617 0.041096933 0.17629023 0.16436493 0.2457362 -0.5276295 -0.07855379 0.047855005
-0.23453438 0.013039173 -0.37933517 -0.21549784 -0.09039275 -0.06556879 -0.32428056 0.5461005
0.35320532 -0.050096113 -0.563067 -0.31177208 0.43987903 -0.15758206 0.114892825 0.11329162
0.004090836 -0.43850347 -0.14373535 -0.2835573 0.031182732 0.09951667 0.10443778 -0.16853009
-0.06868092 0.23549208 -0.00054190366 -0.3506378 -0.16501856 -0.07023944 -0.15694295 0.0018882115
0.1062555 -0.32978407 0.03837739 0.06396072 -0.13023505 -0.06598926 0.0714173 0.15139885
00000000: 9c5f c7bc e825 e13e 4b3c 9dbe 5515 243e
00000010: 667b 6dbe 62a2 803e 42cb 4e3f b069 5c3e
00000020: 4c91 c1bc 2094 b43c 30fa b6be 9b11 bd3e
00000030: cfab c53d a0cc a0be b145 353e 4675 d3be
00000040: 258c 71be 4255 283d 6d85 343e 484f 283e
00000050: 45a2 7b3e ba12 07bf cfe0 a0bd 9c03 443d
00000060: c829 70be 41a2 553c 3838 c2be 77ab 5cbe
00000070: d61f b9bd ee48 86bd 1a08 a6be 3ecd 0b3f
00000080: 54d7 b43e 9531 4dbd 2925 10bf 97a0 9fbe
00000090: d337 e13e 315d 21be ee4c eb3d 7005 e83d
000000a0: 6b0c 863b 8783 e0be 5c2f 13be 6c2e 91be
000000b0: ee72 ff3c 65cf cb3d 7ae3 d53d 2793 2cbe
000000c0: 95a8 8cbd d624 713e 8a0e 0eba cc86 b3be
000000d0: a0fa 28be b2d9 8fbd a7b5 20be dd7d f73a
000000e0: 7c9c d93d 75d9 a8be 9c31 1d3d d7fd 823d
000000f0: 565c 05be 6125 87bd 3c43 923d 4d08 1b3e

bn2.running_var f4 [64]
0.057602823 0.10970217 0.18567981 0.058792233 0.24008167 1.5744786 0.30177423 0.12932625
0.008431401 0.101012886 0.034601446 0.074040696 0.25824365 0.055677645 0.16706741 0.026026053
0.29454997 0.09324644 0.1038213 0.19443922 0.25115854 0.11069425 0.6265014 0.11502623
0.24113289 0.31576964 0.28803423 0.070717946 0.050096165 0.22908586 0.017399818 0.22075519
0.024207877 0.0048952065 0.032708544 0.32801518 0.27629635 0.029076569 0.10334687 0.14925487
0.0912965 0.023536325 0.051857416 0.5263654 0.09776858 0.10538298 0.22034048 0.7596417
0.027094495 0.054956432 0.14261761 0.4942256 0.03356811 0.028926563 0.13937423 0.28506115
0.28650826 0.02324465 0.19712181 0.23553668 0.008900418 0.41016203 0.07192856 0.16788734
00000000: f0f0 6b3d 88ab e03d d922 3e3e 20d0 703d
00000010: f8d7 753e 8488 c93f 2782 9a3e 1a6e 043e
00000020: dc23 0a3c d8df ce3d 3fba 0d3d a6a2 973d
00000030: 8338 843e 3e0e 643d b813 2b3e 9734 d53c
00000040: 41cf 963e fdf7 be3d 43a0 d43d 131b 473e
00000050: da97 803e abb3 e23d 6562 203f df92 eb3d
00000060: 8aeb 763e 8fac a13e 3979 933e 92d4 903d
00000070: a331 4d3d 7c95 6a3e 108a 8e3c a60d 623e
00000080: 994f c63c f867 a03b 65f9 053d 9bf1 a73e
00000090: b776 8d3e fc31 ee3c 86a7 d33d 45d6 183e
000000a0: a9f9 ba3d 40cf c03c 7168 543d e2bf 063f
000000b0: e53a c83d 08d3 d73d efa0 613e e177 423f
000000c0: 46f5 dd3c ff19 613d 5a0a 123e 230b fd3e
000000d0: b77e 093d 66f7 ec3c 1eb8 0e3e 89f3 913e
000000e0: 36b1 923e 906b be3c 4dda 493e 8730 713e
000000f0: 0fd3 113c c200 d23e 484f 933d a9ea 2b3e

conv3.weight f4 [32, 64, 3]
0.041247074 0.024089204 -0.05743483 0.042157337 -0.023175102 0.072578944 0.041615266 0.0051699216
0.025517879 0.027566673 -0.0587648 0.018399974 0.026430849 0.08546334 -0.00031263087 -0.027917922
-0.05200842 0.029298065 0.025065003 0.03974428 0.0529218 0.017757922 -0.020304361 0.021963086
0.038357396 -0.018942636 0.043521468 -0.009595367 -0.06747956 -0.014438761 0.10115875 -0.016292173
-0.005267566 0.004765954 0.036130022 -0.052089065 0.0027357421 0.053951833 0.016087597 -0.07895038
0.03768704 -0.019284124 0.012098363 0.015590483 0.047821783 -0.038377896 -0.043409567 -0.053422656
0.010282556 -0.0452056 0.042600922 0.016480828 0.059564747 0.07288065 0.0045241057 0.048321802
0.008306666 -0.04404902 -0.072117634 0.071474455 -0.029978212 0.0176057 -0.0201207 0.021781513
0.0065425923 -0.032352682 0.02292205 0.048532464 0.036364038 0.022227144 -0.055461895 0.072333805
-0.018480621 -0.06880648 0.06733033 0.019586675 -0.04726696 0.07261456 0.017516788 -0.0008925462
-0.054702044 0.07742971 -0.06612805 0.016297782 -0.022342646 -0.033896714 0.044488654 0.020270541
-0.060489736 0.0044092876 0.044142623 -0.0037943183 -0.057642605 0.007799078 -0.018650312 0.06796076
-0.013971867 -0.06321297 -0.044996075 -0.037601177 -0.032833174 0.0031614276 -0.020488193 0.038234662
0.014003597 -0.05719927 0.022035543 -0.05771268 0.07975367 0.014310703 0.018219393 -0.06325603
0.047700007 0.034891654 -0.009153747 0.048317477 0.000977293 0.022346724 -0.077426106 -0.0018255832
0.063168 0.012323952 0.049942598 -0.042679038 0.04905853 -0.04332273 -0.030988103 0.030920647
-0.07304693 -0.013595358 0.031810213 0.027127199 0.016647676 0.013312988 0.021487024 0.059542794
0.010438623 -0.013816251 -0.011992438 -0.033922076 -0.021519994 0.050615456 0.08410674 -0.0129934605
0.06695363 -0.062765405 0.0036863512 -0.021921342 -0.074321605 -0.04162541 0.049920153 -0.0014935081
-0.038062446 -0.0005221955 0.0004776859 0.07457161 -0.020023402 -0.02447904 -0.070193455 0.086236954
-0.018253865 0.02420239 -0.037370373 -0.036958117 -0.023141474 0.067389406 -0.05188547 0.014849938
-0.03905577 0.04587586 0.049566876 -0.036086135 -0.0749238 0.00023621896 -0.05479483 -0.042006355
0.041549426 -0.029961487 0.03175114 -0.03531058 0.04323799 -0.03963351 -0.03779915 -0.0505959
-0.013590785 -0.056510497 0.027297026 0.01776973 -0.03104039 0.05812408 -0.0026306387 0.008985148
0.05232755 -0.066138044 0.016913233 0.02846678 0.006789162 -0.020326376 -0.046058476 -0.062492374
-0.037613764 0.014417376 -0.0049155136 0.052838147 -0.022951636 0.018544221 0.02076319 0.035487466
0.046617378 -0.06500832 -0.050303377 0.047560405 -0.05615033 0.03338977 0.067580335 -0.05236284
-0.050723687 -0.029596966 0.07443423 -0.005915504 -0.001539941 -0.0009480828 0.022799872 0.027008988
-0.0312927 -0.008611179 0.017482903 -0.0061318637 -0.039127015 0.03875613 0.031435415 -0.07066916
-0.041304674 0.042445287 0.03784275 -0.041308753 -0.049127713 0.031951748 -0.01651823 0.05706146
-0.07011452 0.019254616 -0.039998908 -0.040519316 -0.015932651 0.054381676 -0.065909885 -0.013723455
0.033676896 0.023693234 -0.017796606 -0.06987028 0.034322795 0.016931191 -0.05405333 -0.030195784
00000000: b1f2 283d b956 c53c c940 6bbd 2cad 2c3d
00000010: b6d9 bdbc 45a4 943d c574 2a3d 7268 a93b
00000020: df0a d13c 81d3 e13c 5cb3 70bd 8bbb 963c
00000030: 8285 d83c 6707 af3d 9be8 a3b9 20b4 e4bc
00000040: c806 55bd 7f02 f03c 1f55 cd3c e6ca 223d
00000050: 88c4 583d 1079 913c 5555 a6bc eeeb b33c
00000060: a51c 1d3d 962d 9bbc 9143 323d e335 1dbc
00000070: b932 8abd 8e90 6cbc 522c cf3d 2a77 85bc
00000080: 8c9b acbb b82b 9c3b 13fd 133d 585b 55bd
00000090: 234a 333b 99fc 5c3d 23ca 833c bdb0 a1bd
000000a0: ba5d 1a3d bdf9 9dbc 3638 463c 3a6f 7f3c
000000b0: c6e0 433d 2432 1dbd 3bce 31bd b7d1 5abd
000000c0: 2a78 283c 8229 39bd 4e7e 2e3d cd02 873c
000000d0: 2afa 733d 7342 953d f33e 943b 15ed 453d
000000e0: af18 083c bf6c 34bd 69b2 93bd 3361 923d
000000f0: de94 f5bc d439 903c 2bd4 a4bc 256f b23c
00000100: 3e63 d63b 3f84 04bd 06c7 bb3c fac9 463d
00000110: 75f2 143d b315 b63c 032c 63bd bf23 943d
00000120: ac64 97bc 69ea 8cbd 7ce4 893d 3c74 a03c
00000130: 009b 41bd f1b6 943d 5e7f 8f3c c3f9 69ba
00000140: 400f 60bd 7893 9e3d 256e 87bd ed82 853c
00000150: ed07 b7bc 48d7 0abd bc39 363d 680e a63c
00000160: 16c4 77bd c97b 903b e5ce 343d 19aa 78bb
00000170: a71a 6cbd 688f ff3b 8ac8 98bc 032f 8b3d
00000180: 42ea 64bc cd75 81bd ce4d 38bd b103 1abd
00000190: 147c 06bd f42f 4f3b dbd6 a7bc f39b 1c3d
000001a0: 586f 653c c849 6abd e283 b43c 2264 6cbd
000001b0: e455 a33d 7077 6a3c d640 953c 618c 81bd
000001c0: 1561 433d 8dea 0e3d 99f9 15bc 8ce8 453d
000001d0: 8318 803a 7a10 b73c 9491 9ebd 6848 efba
000001e0: 395e 813d 67ea 493c 9c90 4c3d 37d0 2ebd
000001f0: 99f1 483d 2d73 31bd c3da fdbc 4c4d fd3c
00000200: a199 95bd 10bf 5ebc 6d4b 023d dc39 de3c
00000210: b560 883c b81e 5a3c 8e05 b03c 25e3 733d
00000220: c206 2b3c 8f5d 62bc ee7b 44bc e0f1 0abd
00000230: b34a b0bc 2752 4f3d 2840 ac3d 86e2 54bc
00000240: fc1e 893d 268b 80bd b696 713b 6394 b3bc
00000250: ed35 98bd 687f 2abd 1379 4c3d d1c1 c3ba
00000260: 5ee7 1bbd f2e3 08ba eb71 fa39 00b9 983d
00000270: 1e08 a4bc 4588 c8bc 96c1 8fbd 009d b03d
00000280: 2189 95bc 1744 c63c ad11 19bd 6561 17bd
00000290: 3093 bdbc 7503 8a3d dc85 54bd 284d 733c
000002a0: f1f8 1fbd 53e8 3b3d a306 4b3d 0ecf 13bd
000002b0: a671 99bd 8bb1 7739 8b70 60bd db0e 2cbd
000002c0: bb2f 2a3d cb71 f5bc 7c0d 023d d4a1 10bd
000002d0: 521a 313d bf56 22bd 48d3 1abd a53d 4fbd
000002e0: e2ab 5ebc 8d77 67bd 039e df3c d391 913c
000002f0: 6a48 febc 8413 6e3d cb66 2cbb 7136 133c
00000300: 6a55 563d 6273 87bd 9f8d 8a3c 2a33 e93c
00000310: 9e77 de3b 8083 a6bc d0a7 3cbd 01f8 7fbd
00000320: e410 1abd dc36 6c3c 5112 a1bb d06c 583d
00000330: 1205 bcbc 0dea 973c 9117 aa3c 4e5b 113d
00000340: ddf1 3e3d 1523 85bd ea0a 4ebd b3ce 423d
00000350: e3fd 65bd b6c3 083d 8f67 8a3d 6b7a 56bd
00000360: a4c3 4fbd 5675 f2bc f970 983d d8d6 c1bb
00000370: d8d7 c9ba c288 78ba ccc6 ba3c f441 dd3c
00000380: c62c 00bd e715 0dbc 4e38 8f3c cded c8bb
00000390: a643 20bd bfbe 1e3d 6cc2 003d feba 90bd
000003a0: 172f 29bd 1cdb 2d3d 0001 1b3d 5e33 29bd
000003b0: 243a 49bd d6df 023d 3d51 87bc 47b9 693d
000003c0: 3498 8fbd dbbb 9d3c e5d5 23bd 95f7 25bd
000003d0: 3185 82bc 52bf 5e3d c3fb 86bd 58d8 60bc
000003e0: c9f0 093d 5018 c23c 30ca 91bc 2618 8fbd
000003f0: 0f96 0c3d 48b3 8a3c 0667 5dbd 265d f7bc

conv3.bias f4 [32]
-0.029166285 0.047187157 0.06914169 -0.01328929 0.037805162 0.022510627 0.036243595 0.019280028
0.056046456 -0.02734532 0.007244648 -0.052214224 -0.023474868 -0.025670059 -0.016042164 0.033249564
-0.014761025 0.051899854 -0.0581266 0.007565788 0.062013205 -0.053214192 0.0148575585 0.026683334
-0.038292095 -0.0074524526 0.03917917 0.030881498 -0.06500181 -0.06791618 -0.055667687 0.04930774
00000000: 22ee eebc 5247 413d 299a 8d3d 52bb 59bc
00000010: 96d9 1a3d 3568 b83c 2a74 143d 26f1 9d3c
00000020: f890 653d 4b03 e0bc 8364 ed3b 95de 55bd
00000030: 5e4e c0bc 044a d2bc db6a 83bc b230 083d
00000040: 3ad8 71bc f194 543d 2816 6ebd 6eea f73b
00000050: 8f01 7e3d 20f7 59bd 1e6d 733c 0297 da3c
00000060: 2cd8 1cbd b433 f4bb 567a 203d 32fb fc3c
00000070: ab1f 85bd a317 8bbd cd03 64bd eaf6 493d

bn3.weight f4 [32]
1.0528543 1.0680157 1.0747014 1.0435743 1.0277333 1.0142298 1.0454731 1.0041403
1.0521576 1.0029436 1.0729868 1.0386649 1.0573612 1.0495822 1.0362836 1.0557373
1.0329723 1.0572824 1.0531722 1.0515473 1.0741762 1.0527666 1.088167 1.0512277
1.0651424 1.0488666 1.0401771 1.054253 0.98797137 1.0608146 1.077417 1.0646751
00000000: eec3 863f bdb4 883f d18f 893f d893 853f
00000010: c48c 833f 48d2 813f 10d2 853f ab87 803f
00000020: 1aad 863f 7560 803f a257 893f f9f2 843f
00000030: 9d57 873f b658 863f f1a4 843f 6622 873f
00000040: 7038 843f 0855 873f 59ce 863f 1a99 863f
00000050: 9b7e 893f 0ec1 863f 0e49 8b3f a18e 863f
00000060: 9656 883f 4341 863f 8624 853f c3f1 863f
00000070: b1eb 7c3f c6c8 873f cde8 893f 4647 883f

bn3.bias f4 [32]
-0.014996552 0.013033544 0.0400909 0.026099486 0.032774102 0.02018432 0.044239204 7.135057e-05
0.019551108 -0.005152728 0.05045054 0.021476828 0.027663717 0.042630713 0.018167533 0.027161134
0.002035605 0.047672883 0.015242146 0.03458637 0.028083224 0.05565662 0.060857344 0.030803246
0.013476544 0.024436027 0.049625408 -0.0023099429 -0.005823428 0.054426182 0.068926476 0.02645289
00000000: 19b4 75bc a58a 553c 5b36 243d 97ce d53c
00000010: 233e 063d 9659 a53c 2b34 353d 0ca2 9538
00000020: a529 a03c 37d8 a8bb 3aa5 4e3d 2cf0 af3c
00000030: 059f e23c 8b9d 2e3d 14d4 943c 0781 de3c
00000040: c967 053b a444 433d 32ba 793c 70aa 0d3d
00000050: ca0e e63c 32f8 633d 8d45 793d 1757 fc3c
00000060: b9cc 5c3c 102e c83c 0344 4b3d 6962 17bb
00000070: 74d2 bebb fded 5e3d 5329 8d3d bbb3 d83c

bn3.running_mean f4 [32]
0.058262106 0.018961672 0.4589377 0.5919523 0.17293735 0.1555201 0.07993904 -0.38866147
0.0026466118 0.33744878 0.197262 -0.07633969 -0.04560342 0.20477362 0.033505134 -0.065805435
-0.013441128 -0.17735377 0.17834787 0.5071969 0.32475287 0.43941602 -0.011698002 0.07594637
-0.12725747 -0.010968268 0.29263377 0.18775235 -0.3970287 -0.005777874 0.2513293 0.094225086
00000000: 3fa4 6e3d 8255 9b3c e2f9 ea3e 308a 173f
00000010: 7d16 313e a940 1f3e 14b7 a33d a3fe c6be
00000020: c772 2d3b 16c6 ac3e 0dff 493e fc57 9cbd
00000030: a7ca 3abd 2db0 513e ae3c 093d 00c5 86bd
00000040: 2d38 5cbc 3a9c 35be d3a0 363e a8d7 013f
00000050: 0246 a63e 23fb e03e faa8 3fbc c589 9b3d
00000060: c84f 02be 40b4 33bc 18d4 953e 2742 403e
00000070: 5947 cbbe 5254 bdbb 3cae 803e 15f9 c03d

bn3.running_var f4 [32]
0.4631771 0.13510592 0.33395302 0.59741926 0.48117274 0.4319675 0.124302186 0.34278646
0.5002865 0.6914602 0.37296107 0.13899754 0.13523595 0.34090608 0.3015347 0.051069055
0.39737222 0.45736834 0.1195516 0.63120097 0.30598727 0.20344381 0.1625653 0.3106725
0.4033916 0.24497454 0.3837891 0.09538593 0.759454 0.44927996 0.2739126 0.110475935
00000000: 8d25 ed3e 3559 0a3e e4fb aa3e 78f0 183f
00000010: 465c f63e d82a dd3e 2592 fe3d b581 af3e
00000020: c712 003f 8903 313f c1f4 be3e 5f55 0e3e
00000030: 4b7b 0a3e 3e8b ae3e c262 9a3e c92d 513d
00000040: 5f74 cb3e 2f2c ea3e 78d7 f43d 6396 213f
00000050: 5daa 9c3e 9353 503e 8577 263e 7710 9f3e
00000060: 5889 ce3e 9bda 7a3e 0180 c43e b359 c33d
00000070: 946b 423f 0608 e63e 463e 8c3e 3541 e23d

fc1.weight f4 [4, 128]
-0.042825937 -0.074704535 0.00034775407 0.05066727 0.02683579 -0.0052246116 -0.069924764 0.13273898
-0.058076397 0.094772115 -0.012540183 0.14128894 0.027466295 -0.09354639 0.023633352 -0.127941
-0.04143826 -0.112604566 -0.059972797 -0.14537817 0.05875279 0.06215583 0.049122665 -0.038747363
-0.06432771 -0.062007435 -0.050875902 -0.06561414 0.016825294 -0.012512675 0.060488835 -0.027731922
0.05067447 -0.05929124 0.021160759 0.08996119 0.0028790638 -0.05157716 -0.083999194 0.016962435
0.03390999 -0.03318685 -0.053824134 -0.11381111 0.0665223 0.015848218 0.0921592 0.13636981
0.031133214 -0.02736038 -0.008830104 0.09142354 -0.12580305 -0.094721384 -0.010236218 -0.029118137
-0.019429917 0.023451423 0.013751073 -0.039862182 0.034592845 0.058017608 -0.066674635 0.009386052
0.08304225 -0.043805666 0.029003482 -0.14850792 0.04927508 0.0098264925 -0.11269192 0.04757907
0.047618072 -0.039321937 0.08762826 0.14037792 0.075384796 -0.10926669 -0.14143877 -0.06951859
-0.051208284 -0.06050833 -0.00030344917 0.02484542 -0.09770985 -0.15652785 -0.1424575 0.040671434
-0.090144455 -0.077558465 -0.05597158 0.0066981465 -0.05113294 -0.039974596 -0.07017931 -0.09751325
-0.06949459 0.09493694 0.06078481 -0.044997692 0.035402533 -0.017182978 -0.004716687 0.0499215
-0.0039575603 0.069934264 0.0688556 -0.074318625 -0.053061068 0.003072078 0.024589375 0.06931791
0.03823651 -0.027120477 -0.07205577 0.0129925655 0.04017363 0.038445313 0.0353941 0.05014263
0.044524867 0.029411012 0.0011089827 -0.15041846 -0.023006823 0.016476007 0.09920964 0.13301249
0.02499863 0.04792457 -0.10911063 0.00644944 -0.055167392 0.024325732 -0.0033686138 -0.036570217
-0.045719612 0.038540114 0.024927376 -0.002431968 -0.0034971691 -0.08106786 -0.043733064 0.100157656
-0.018210892 0.013008934 0.0467081 -0.041168444 0.013471297 -0.025448753 -0.028443703 -0.105675474
-0.08191247 0.015279395 -0.120521285 0.022605121 0.054650072 0.01971372 0.05052776 -0.08388613
0.091297686 -0.036026653 -0.04005353 -0.013107035 -0.10602544 -0.13884988 -0.05837947 -0.016807321
0.028130332 -0.040857453 0.005602014 0.106247485 0.049836453 -0.05318224 -0.002985625 -0.13762973
0.06567178 -0.050964784 0.040642925 -0.081852265 -0.012640167 -0.066912614 -0.10169683 -0.07761353
-0.07084801 -0.044745274 0.038964786 0.059826415 0.098492675 -0.026624093 0.07639996 -0.05718558
-0.0666292 -0.061955325 0.08319185 0.021359758 -0.063822106 -0.03662862 0.04225324 -0.05372982
0.01985076 -0.067680195 -0.04368139 -0.061456684 0.042412154 -0.039016183 -0.13437034 0.056789022
0.003526767 0.029922698 -0.08878607 -0.0061526657 0.03728956 -0.10661468 -0.038178045 -0.06923565
-0.118411586 -0.07193507 -0.09215078 0.11746438 0.05214579 -0.002303532 0.010527192 0.0027877053
0.051179245 -0.06840525 -0.05483455 0.06561826 0.011457311 0.041420486 -0.09725493 -0.07845145
0.09234183 0.04652589 0.09437786 0.06660471 -0.042205572 0.025086245 0.045099284 -0.13179357
0.00063626736 -0.028383855 -0.04634552 -0.041696776 0.048903123 0.02839326 0.0841838 0.009016954
-0.017268738 0.06429333 0.07418136 -0.0011521068 -0.03307656 -0.057363313 -0.009249434 -0.1008771
00000000: 406a 2fbd b1fe 98bd c352 b639 7c88 4f3d
00000010: bbd6 db3c 3833 abbb b734 8fbd baec 073e
00000020: 84e1 6dbd e217 c23d 5775 4dbc 0cae 103e
00000030: ff00 e13c 4095 bfbd bb9a c13c f702 03be
00000040: 2abb 29bd 399d e6bd 09a6 75bd 04de 14be
00000050: c4a6 703d 1d97 7e3d d934 493d 8eb5 1ebd
00000060: 3fbe 83bd 82fb 7dbd 4063 50bd b560 86bd
00000070: 33d5 893c f601 4dbc 24c3 773d 0e2e e3bc
00000080: 0890 4f3d 5fdb 72bd 5459 ad3c 933d b83d
00000090: adae 3c3b 9242 53bd c507 acbd cef4 8a3c
000000a0: 34e5 0a3d efee 07bd b276 5cbd cd15 e9bd
000000b0: d83c 883d 1fd4 813c f6bd bc3d 87a4 0b3e
000000c0: 150b ff3c e022 e0bc 24ac 10bc 443c bb3d
000000d0: 84d2 00be 49fd c1bd cfb5 27bc 2989 eebc
000000e0: 7d2b 9fbc 331d c03c 2e4c 613c 8746 23bd
000000f0: 3ab1 0d3d dfa3 6d3d b68c 88bd f5c7 193c
00000100: 0e12 aa3d 926d 33bd b698 ed3c 7612 18be
00000110: abd4 493d 4cff 203c 05cb e6bd 45e2 423d
00000120: 2b0b 433d 0a10 21bd 7276 b33d 3bbf 0f3e
00000130: 5863 9a3d 37c7 dfbd 53d5 10be c35f 8ebd
00000140: c7bf 51bd 95d7 77bd 4218 9fb9 9f88 cb3c
00000150: 1a1c c8bd d648 20be 61e0 11be 1797 263d
00000160: a89d b8bd f9d6 9ebd 7542 65bd 207c db3b
00000170: c670 51bd 67bc 23bd 2cba 8fbd 07b5 c7bd
00000180: 2e53 8ebd 4c6e c23d 7ef9 783d 804f 38bd
00000190: 3f02 113d 51c3 8cbc 708e 9abb 7d7a 4c3d
000001a0: 6cae 81bb b239 8f3d 2a04 8d3d 5d34 98bd
000001b0: 9056 59bd eb54 493b a86f c93c 8cf6 8d3d
000001c0: e39d 1c3d c32b debc fa91 93bd c5de 543c
000001d0: 1b8d 243d d578 1d3d 67f9 103d 5c62 4d3d
000001e0: b55f 363d 5def f03c 495b 913a 4c07 1abe
000001f0: ce78 bcbc b1f8 863c 6c2e cb3d 6d34 083e
00000200: edc9 cc3c 8e4c 443d 6575 dfbd d355 d33b
00000210: 34f7 61bd c246 c73c f6c3 5cbb a7ca 15bd
00000220: 7d44 3bbd 3ddc 1d3d 7f34 cc3c a761 1fbb
00000230: c330 65bb e806 a6bd 7121 33bd 751f cd3d
00000240: 022f 95bc 6d23 553c fe50 3f3d 3ea0 28bd
00000250: b7b6 5c3c e779 d0bc c502 e9bc 626c d8bd
00000260: bac1 a7bd 6d56 7a3c ddd3 f6bd 602e b93c
00000270: c1d8 5f3d ab7e a13c 32f6 4e3d 7ecc abbd
00000280: 48fa ba3d af90 13bd 2c0f 24bd e4be 56bc
00000290: de23 d9bd aa2e 0ebe 501f 6fbd 82af 89bc
000002a0: 9571 e63c 255a 27bd 1991 b73b 4898 d93d
000002b0: 4f21 4c3d 9fd5 59bd 7aaa 43bb cfee 0cbe
000002c0: ed7e 863d 73c0 50bd 3279 263d 29a2 a7bd
000002d0: b418 4fbc 7b09 89bd 6d46 d0bd d8f3 9ebd
000002e0: c318 91bd d246 37bd 8a99 1f3d 8b0c 753d
000002f0: 87b6 c93d c51a dabc 9577 9c3d 6d3b 6abd
00000300: e474 88bd dec4 7dbd 7d60 aa3d a9fa ae3c
00000310: 2ab5 82bd e407 16bd bc11 2d3d cd13 5cbd
00000320: 109e a23c ea9b 8abd 42eb 32bd 01ba 7bbd
00000330: 5eb8 2d3d 6fcf 1fbd 6198 09be 9b9b 683d
00000340: 5521 673b 7220 f53c 79d5 b5bd 4d9c c9bb
00000350: f0bc 183d cc58 dabd 9560 1cbd 6ccb 8dbd
00000360: c681 f2bd b252 93bd 8cb9 bcbd 2a91 f03d
00000370: d396 553d dbf6 16bb 3e7a 2c3c efb1 363b
00000380: 54a1 513d 0d18 8cbd 319a 60bd de62 863d
00000390: 72b7 3b3c 87a8 293d 982d c7bd 27ab a0bd
000003a0: b71d bd3d ee91 3e3d 2e49 c13d 0d68 883d
000003b0: c0df 2cbd ab81 cd3c 07ba 383d e5f4 06be
000003c0: 2ecb 263a 4285 e8bc cdd4 3dbd 3dca 2abd
000003d0: a44e 483d fb98 e83c 8e68 ac3d d9bb 133c
000003e0: 2b77 8dbc 39ac 833d 66ec 973d 4a02 97ba
000003f0: 497b 07bd cbf5 6abd f08a 17bc a798 cebd

fc1.bias f4 [4]
-0.066418454 0.012442697 -0.056912474 -0.027956191
00000000: 6606 88bd 74dc 4b3c 0e1d 69bd 6204 e5bc
