pths/classifier_train.pth (torch, 61572 bytes, 20 tensors)

conv1.weight f4 [32, 1, 3]
00000000: 4f24 13be 4869 7c3e 3bde 023f 30c5 d4bd
00000010: 9bba 3c3e dcf3 f23d 8c8c 9e3c 9e90 c93e
00000020: 3b82 c83e eb7b fabc b34f f83e c7d9 24be
00000030: a873 98bd 26e9 153f d9a9 c93e fc66 cb3e
00000040: a19e acbe 2383 7bbe 8bac b43e 4252 87bb
00000050: 31ba d3bd 9c5e 623e 23f0 7fbe 7e57 013f
00000060: c73d d9be cbc6 22bd af4b 78be a209 03bf
00000070: b6d9 efbe 0d29 04bf cfd3 a7bd fe08 833b
00000080: 5239 843e 3012 ee3e a03b ffbe 08f7 c23d
00000090: d7e1 14bf 6343 b7be 819e d8bd 9fca 49bd
000000a0: ac36 23be bfc5 9b3e 4688 15ba 95b7 17be
000000b0: 890a 01bf 8d6b 3e3e 6c72 9abd 5c7a 14bd
000000c0: 58ea d73e f3b3 b7be b659 f3be c6ef d83e
000000d0: aa87 96be a84d 08bf d0b2 0dbe 0192 fcbe
000000e0: 9010 fdbe ec77 07bf 2f30 afbc 01e3 2a3d
000000f0: 2305 05bf c017 e1be 5652 d0be a811 5c3d
00000100: a368 06bf 15be 013f 33bb b8be 1a00 ffbe
00000110: 7da2 f6be 750f 033f 894f bdbe db7d cf3e
00000120: 3188 393d e9a7 063e b288 423e 2993 843e
00000130: 9c1f e13e ad99 60be 113b 673e aec5 4ebe
00000140: 618f 5f3e f772 2dbe d817 443e 0abf c03c
00000150: d29e c8be 0506 e2be ebcc 1ebe cf2b 283d
00000160: 548a 1dbf c327 9cbe 018b 653e 7e98 8f3e
00000170: 8ae6 203b 6be9 ccbe a231 85be 7234 913e
-0.1436932 0.24649537 0.51120347 -0.10389173 0.1843056 0.11862919 0.019354127 0.39368147
0.39161858 -0.030576667 0.48498306 -0.160987 -0.07443935 0.5855888 0.39387396 0.39727008
-0.33714774 -0.24561743 0.3528789 -0.004129679 -0.103382476 0.22106403 -0.24993949 0.5052413
-0.42429945 -0.039740365 -0.24247621 -0.51186574 -0.46845788 -0.5162514 -0.08194696 0.0039988747
0.25824982 0.4649825 -0.49850178 0.09519774 -0.58157104 -0.357936 -0.10577107 -0.0492655
-0.15938824 0.30424306 -0.0005704205 -0.14816125 -0.504067 0.18595715 -0.075413555 -0.036249503
0.42170978 -0.35879478 -0.47529382 0.42370433 -0.29400378 -0.53243494 -0.13837743 -0.49330142
-0.494267 -0.5291736 -0.02138528 0.041720394 -0.51960963 -0.43963432 -0.40687817 0.053727776
-0.5250341 0.5068067 -0.36080322 -0.49804765 -0.48170844 0.5119546 -0.36974743 0.40525708
0.045295898 0.1314999 0.18997458 0.25893524 0.4396943 -0.21933623 0.22581126 -0.20192596
0.21832038 -0.16938387 0.1914972 0.023528595 -0.3918367 -0.44145218 -0.15507858 0.041057404
-0.61539197 -0.30499086 0.22416307 0.2804603 0.0024551474 -0.40021834 -0.2601443 0.28360325

conv1.bias f4 [32]
00000000: ea8a 97be 8a1d fa3e b5e9 ecbe 1ec1 f33d
00000010: 9dad 503d f5a2 f2be dbf8 b23d f2de 833e
00000020: 8ea9 b2bd c598 0f3f cb3a 61be d21d fbbe
00000030: 8b61 bb3e ac35 f13c d6cc 44be a07f 803e
00000040: f9b9 02bf 3bbd 3abe 94c2 ec3e 20dd 093f
00000050: 7451 26bd 85ef b63e 45e9 423e f10b 54bd
00000060: cfea 46be b331 de3e 2ecb f73e 12d9 69bd
00000070: 8ca1 61be 6959 883e 0a33 403e 1655 21be
-0.2959817 0.48850662 -0.46272054 0.119020686 0.05094682 -0.4738995 0.08738872 0.2575603
-0.08723746 0.5609248 -0.21995084 -0.4904619 0.36597857 0.029444538 -0.19218764 0.2509737
-0.5106502 -0.18236248 0.462422 0.53853035 -0.040605024 0.35729614 0.19034298 -0.0517692
-0.1942551 0.43397292 0.483972 -0.05709178 -0.22034281 0.26630715 0.1876947 -0.15755114

bn1.weight f4 [32]
00000000: 328d 803f fa81 793f 1359 7a3f 3574 883f
00000010: 0207 7a3f 237a 783f e57b 7b3f ab34 7f3f
00000020: 8743 833f 5d85 863f 166b 803f 1c82 7d3f
00000030: 5306 803f 1365 803f 89d3 793f 5499 803f
00000040: 7f58 793f e055 813f cd21 7e3f c0cf 813f
00000050: 7061 763f 6a65 7d3f 66b0 7b3f a739 823f
00000060: 58d4 7f3f 48c3 843f 62cd 803f f898 813f
00000070: f483 813f 758e 7a3f 2acc 813f 353c 7f3f
1.0043089 0.97463953 0.97792166 1.0660464 0.97666943 0.97061366 0.98235923 0.9968974
1.0254983 1.0509449 1.003268 0.99026656 1.000193 1.0030845 0.975884 1.0046792
0.9740066 1.0104332 0.99270326 1.0141525 0.9624243 0.9898287 0.9831604 1.0173844
0.99933386 1.0372095 1.0062678 1.0124807 1.0118394 0.9787362 1.0140431 0.99701244

bn1.bias f4 [32]
00000000: c59c f73a 7015 85bd 9ba5 bc3c faa7 8a3d
00000010: b8ca 853c ba7a 503c 0737 4bbd 74a1 10bc
00000020: 12dc cf3c 4ea9 1cbc 92fa a3bc 550b 7b3d
00000030: e15b a63c d1b0 e73c 4c19 56bd e2ad ac3c
00000040: 660f d8bc 0463 383d 7adc 31bd e38c e9bc
00000050: ae3d 97bd a113 12bd d003 96bd 6753 483d
00000060: a8e1 a1bc e728 d03c d485 b7bc 69ef 8bbc
00000070: 65d1 8cbb 6471 66bb 2e30 743c 12aa f4bc
0.0018891325 -0.064982295 0.023028186 0.0677032 0.016332015 0.012724573 -0.049613025 -0.008827556
0.025373492 -0.00956185 -0.020016942 0.061290104 0.020307483 0.028282555 -0.05227022 0.021079008
-0.02637453 0.045016304 -0.043423153 -0.028509563 -0.07384811 -0.03566325 -0.07324946 0.048907664
-0.019760922 0.025410129 -0.022402681 -0.017081933 -0.0042974227 -0.00351628 0.014904065 -0.029866252

bn1.running_mean f4 [32]
00000000: 20a4 e239 a19c 153f 9fff 91bd 5cb2 883e
00000010: 4ee1 fb3e dbdf 10bf ac80 533e 4665 f73e
00000020: 8f6d dbbe 1f10 2abe 834d 08be da3c efbe
00000030: c966 12be 9b5e 933d 439c 01bf 4243 933e
00000040: f940 36bf 6ffb c1be 0bcb acbd 9fee 943e
00000050: 5e67 34bf 8a3a bb3e 3f37 ecbe 8958 533e
00000060: d0c8 82bc 81c7 2b3f 3e07 193f b5df 06bd
00000070: a08d 33bf eac7 26be a888 de3e f7d5 b0be
0.00043228362 0.5844212 -0.07128834 0.26698577 0.4919533 -0.56591576 0.20654553 0.48319453
-0.42857024 -0.16607712 -0.13310818 -0.46726114 -0.14297022 0.07195779 -0.5062906 0.2876225
-0.7119289 -0.3788714 -0.08437165 0.29088303 -0.70470226 0.365681 -0.461359 0.20639242
-0.015964895 0.67101294 0.59776676 -0.032928187 -0.7013798 -0.16287199 0.43463635 -0.34538242

bn1.running_var f4 [32]
00000000: 596f 783d 3736 2b3c c26e 593d 8b03 383d
00000010: a9e7 b23d 0962 733d d0a0 c33c 4a75 7c3d
00000020: 0854 233d fe6e fd3d 8687 553c 5215 a83d
00000030: 0b76 a43d 3403 ab3c bca7 423d e5ac f03b
00000040: 4321 c43d 45af ca3d e82f b03d 8780 473d
00000050: 0607 d53d 77e1 bb3d c94c d03d 3324 c23d
00000060: aa80 1a3c a586 5a3d 0156 c03c 0789 3d3c
00000070: c93e 7f3d 4367 a73d 09f5 b23c 8b3c 5e3d
0.060653064 0.010449938 0.053084143 0.044925254 0.08735592 0.059419665 0.023880392 0.061635293
0.03987506 0.12374686 0.0130328 0.082071915 0.080303274 0.02087555 0.047523245 0.0073448294
0.09576657 0.09896711 0.086028874 0.048706558 0.1040173 0.091738634 0.101708956 0.09479561
0.00943009 0.053351063 0.02347851 0.011568314 0.062315736 0.081739925 0.021845357 0.054256957

conv2.weight f4 [64, 32, 3]
00000000: 4272 03bd 543e d5bd a167 c83d 4759 a5bd
00000010: dbd5 633d a147 aabc 6cc3 30bd e98b 0d3d
00000020: 9565 e7bc 46a0 df3c 9680 72bd 9e2a 2cbd
00000030: 3345 90bd 2fce da3b dec6 be3b b784 07bd
00000040: 938d edbb 20de e0bb 084b fbbd 2fb6 a93d
00000050: d7c8 d73c be89 303d fe73 6cbd 63d5 68bd
00000060: a144 72bd 9d4c 73bd da9e 35bd bb76 373d
00000070: 0b0c b93d 2110 ccbd 4933 b1bd 7dff f2bc
00000080: e839 b0bc 89e0 1ebe 9535 463d 04aa 9c3c
00000090: 105a 51bd 410d b83d d0f1 b63c f0bd 133d
000000a0: 95c1 0cbe 0633 b93d 34dd 0c3d 43e7 943d
000000b0: b028 96bd c55d 38bd 74bd 4b3d 7939 f4bc
000000c0: 342c abbd 8881 3d3d 4bb6 6b3d 9b3f c73d
000000d0: 2df2 f8bd 2849 733d 08ed a23d 77db a13d
000000e0: ab0d 653d b5cc aabd 4e20 bfbc db6c 193d
000000f0: 2691 303d 60cf bbbd 0a51 533d 2a11 bbbd
00000100: 3a38 9fbd 6d4f 863c 63ef 723c e014 923d
00000110: 93ec 9e3d 0238 52bd 5159 7f3d 9d51 d0bd
00000120: 2ab4 7dbd 4ed5 453a 8db0 efbc 0b48 003e
00000130: 64ad 9a3d 6b1d bc3b b2f0 003d 0de5 c23d
00000140: 706d a03d 06a8 893c ac42 003d 93fc 783d
00000150: b466 d83c e2ac bdbd 4b4a cf3c 1b0c ccbc
00000160: 2679 eebc cb3e 6ebd 48a6 98bb c051 debd
00000170: 86f1 733d 6a1a c83c 5f07 1c3c d0a3 a53d
00000180: 8156 4abd 38bc 113d 7984 fb3b acd6 e4bc
00000190: 48b7 71bd 0ba8 ac3c 3ff8 af3d 947a b7bd
000001a0: 660c c03d 8cfc 6a3d 8eed 003d a48c 563d
000001b0: 915f 28bd e530 bd3b ba9f 383d 63ee b6bd
000001c0: 7fd2 9e3b 04f7 a23c 7177 5fbc 6346 d33d
000001d0: f4a8 5f3d ebdb 9e3c 9864 60bd 0d15 923d
000001e0: 95a7 5fbb 2781 ed3c 5ad0 843c 8553 81bd
000001f0: c27c 7abc 57fd 9b3d 2cdc 093d 6a6f adbd
00000200: b1f4 f3bd b895 1a3d 1926 e13c 62b9 87bd
00000210: c96c ecbd f52a cebd 6b13 aabd 4c8a cfbc
00000220: b961 cf3b 01f7 a43d 2564 9e3d 8cab 07bd
00000230: cf09 893d f441 c13d d6b2 223d a206 06bd
00000240: ce3f 763d e389 803d a801 86bd 1707 46bd
00000250: 62ef ad3d f723 5ebd 1f14 ca3c 3c2a 9f3d
00000260: d82e 88bd ff51 963d 8d8f 703c b834 85b9
00000270: d3ce f7bc ca61 17bd fbfc 0f3c 4133 a6bc
00000280: 1388 86bc aacd 84bc efb1 4fbd 8395 8cbd
00000290: 2096 833d ca36 833d c349 f7bc d904 4b3d
000002a0: cf85 9a3c 9469 d13c 4015 8e3d 71ac cdbc
000002b0: 2d50 233d b589 993d 4d05 093c d1b1 5abd
000002c0: 49ee d63d a193 a3bc 4687 3fbd 74e8 b73b
000002d0: 0f2b c3bd 8279 c6bd 3be7 ecbc 0fde e5bd
000002e0: 35c3 0f3d e987 69bd 3714 a23d 1116 853d
000002f0: 7b32 c3bc c2a3 853d cb3c 3d3c c7e4 aebd
00000300: 0d08 d5bd 709f af3d 14ca 32bd 57dd a93c
00000310: 8421 123d f624 acba 7ac4 08be 653b b3bd
00000320: e5ee e03c f0fe a9bc 3c8b 883d d82c b93d
00000330: bfea bebc 8c2e 0e3c 5a44 8dbd 2a9e d53d
00000340: eecb 84bd 51a2 42bc 5c5f 56bd 2005 fdbd
00000350: fdee f4bd 073a c6bd d090 963d 4bdb 85bd
00000360: 72c4 c13d fc3b 093e b4f3 02bd 7136 e0bc
00000370: ddd6 803d 3cad b7bd 1742 8a3d 5e54 873d
00000380: 7f96 97bd 609e da3d f7fb 88bc ff91 c13d
00000390: 7a46 cd3a 87a4 6c3d b6df 43bd d7e4 b63d
000003a0: 7dd6 b7bd 2583 3abd 7a39 bb3d 4773 8d3d
000003b0: c435 f5bc 82e7 853d a3c2 11bd 5759 403d
000003c0: 8118 31bd fa30 ea3c 9637 793b 52aa c1b9
000003d0: bb4a 6dbd 4c37 613d 214d f33c 9920 4dbd
000003e0: 406b f8bb ebe2 153c c0a8 8c3d 73cb 983d
000003f0: d657 8fbd 0954 8dbd 5ac2 203c 1f5b 07bc
-0.032091387 -0.10412279 0.09785391 -0.08073669 0.05562387 -0.020786108 -0.04315512 0.034557257
-0.02824668 0.027298104 -0.05920466 -0.04203283 -0.07044449 0.006677411 0.0058220467 -0.03308555
-0.007249543 -0.006862417 -0.122701705 0.08286702 0.026340885 0.04310011 -0.057727806 -0.056844126
-0.05914748 -0.059399236 -0.044340946 0.044790965 0.090355 -0.09964014 -0.0865236 -0.029662842
-0.021511987 -0.15515341 0.048390944 0.019124039 -0.05111128 0.08986903 0.022332102 0.03606981
-0.1374572 0.09042935 0.034390643 0.07270672 -0.07331979 -0.0450113 0.049741223 -0.029812561
-0.083580405 0.04626611 0.057546895 0.09728929 -0.12155566 0.05939594 0.079553664 0.07903188
0.055921238 -0.08339826 -0.023330834 0.03745733 0.043107174 -0.09170413 0.051590957 -0.09134133
-0.07774396 0.016395295 0.014827582 0.07132888 0.07759967 -0.051322944 0.06234104 -0.101718165
-0.061939396 0.00075467385 -0.02925899 0.12527482 0.07552603 0.0057408116 0.031479545 0.09516344
0.078333735 0.016803753 0.031313583 0.06078775 0.02641616 -0.092614904 0.02530398 -0.024908116
-0.029110502 -0.058165353 -0.004658494 -0.10855436 0.059556507 0.024426658 0.009523242 0.080878854
-0.049398903 0.03557989 0.007675704 -0.027934395 -0.05901268 0.021076223 0.08592271 -0.08958927
0.09377365 0.057369754 0.03147655 0.05238022 -0.041106764 0.005773651 0.045074202 -0.089321874
0.0048468704 0.019893177 -0.013639317 0.103161596 0.054604486 0.019391974 -0.054783434 0.07132921
-0.0034126986 0.028992249 0.016212631 -0.06314758 -0.015288534 0.0761668 0.033657238 -0.08468516
-0.119119056 0.03774044 0.027483987 -0.06627156 -0.115441866 -0.10066787 -0.08304485 -0.0253345
0.006328788 0.08054925 0.07733945 -0.033122584 0.06691324 0.09436408 0.039721332 -0.03272117
0.060119443 0.062763 -0.06543285 -0.048346605 0.08492924 -0.054233517 0.024667798 0.077717274
-0.0664956 0.07339858 0.014682663 -0.00025407015 -0.030249989 -0.036958493 0.008788343 -0.020288112
-0.016422307 -0.01621135 -0.0507068 -0.068644546 0.064251184 0.064069346 -0.03018654 0.04956517
0.018862633 0.025563039 0.06937647 -0.02510664 0.039871383 0.07496969 0.00836308 -0.053392235
0.10494668 -0.019967856 -0.046759866 0.0056124274 -0.09529697 -0.096911445 -0.028918853 -0.11223995
0.035098273 -0.05701438 0.07914012 0.064983495 -0.023827782 0.06525375 0.011550139 -0.085397296
-0.10401926 0.08575332 -0.043649748 0.020735426 0.035676494 -0.0013133574 -0.133562 -0.08751563
0.027457664 -0.020751446 0.06667182 0.090417564 -0.023305295 0.00867809 -0.06897803 0.10430558
-0.06484209 -0.01187952 -0.052337036 -0.12354493 -0.11959646 -0.096790366 0.073518395 -0.065359674
0.09461297 0.13401788 -0.031970695 -0.02736971 0.06290982 -0.08968589 0.06750887 0.06607889
-0.07401752 0.10674739 -0.016721709 0.09451675 0.0015661262 0.057774093 -0.04782077 0.089303665
-0.08976457 -0.045535225 0.09141822 0.06906753 -0.029932864 0.06538297 -0.03558601 0.0469602
-0.04323626 0.028587807 0.0038027517 -0.00036938727 -0.057932597 0.054984376 0.029699864 -0.050079916
-0.0075811446 0.00914834 0.06868124 0.0746068 -0.06999175 -0.06900794 0.009811962 -0.008261471

conv2.bias f4 [64]
00000000: 35fc 0b3d 454f 673d f62a 833d 4607 9fbc
00000010: e02e 99bd 41cd 893c db72 99bd 8bfc e63c
00000020: da31 ce3d 78e7 c63d 6d90 85bd cc06 5b3d
00000030: 0321 31ba da36 81bd dfc3 4dbd 52de a83d
00000040: 3aba 9cbc 181c 723d cac6 a2bd 491c 7c3d
00000050: 3227 9abd 2a36 b3bc f26d 99bd a7a8 d5bc
00000060: 5ad1 8ebd c198 b63d 906a 98bd d0e5 89ba
00000070: 7ebd 113d ab2f 37bd 4656 73bd cc1b 0ebd
00000080: 4598 973d 3d7b a33d 2515 9cbd 242e 0bbd
00000090: 351f 4c3c 0e6f 29bc 290c 083d ddc2 a23d
000000a0: e4b8 313d b720 11bd e5fd 353d cfe4 ac3d
000000b0: 0c18 a8bd c0e4 b4bd c9eb 8e3d 23ed afbd
000000c0: 7fb3 993d d8a2 f5bb b4b0 a53c e18e efbc
000000d0: 871e 94bd d161 b9bc a784 3e3d 68ec 2e3d
000000e0: 518a a0bd 90da 0abd c7a7 a73d 9454 99bd
000000f0: 28f2 993c 8ed5 d2bc 06ae 833b 9150 afbd
0.03417607 0.05647208 0.064046785 -0.019412648 -0.07479644 0.016821506 -0.0749261 0.028196594
0.10068102 0.09712118 -0.06521688 0.05347328 -0.0006756933 -0.0630929 -0.050235625 0.08245529
-0.019131768 0.059108824 -0.07948072 0.061550412 -0.07527007 -0.021876413 -0.074916735 -0.026081396
-0.069735244 0.08915854 -0.074422 -0.001052076 0.035581104 -0.044723194 -0.05940845 -0.034694478
0.0740209 0.0798249 -0.076212205 -0.03397955 0.012458612 -0.010341419 0.03321472 0.079473235
0.043389216 -0.03543159 0.044431586 0.08442079 -0.082077116 -0.08832693 0.06978566 -0.08590152
0.07504939 -0.007496219 0.02022586 -0.029242935 -0.07232385 -0.02262965 0.046513226 0.042705923
-0.07838882 -0.033899844 0.08186298 -0.07486835 0.018792227 -0.025736596 0.004018548 -0.08560289

bn2.weight f4 [64]
00000000: d168 833f 2cb8 7c3f d9e7 783f ee65 823f
00000010: 117b 813f 1c2c 783f e2e5 773f 78b1 7c3f
00000020: b1f9 763f b57b 793f 5034 813f babd 7b3f
00000030: 1f57 7b3f 32ff 793f cf43 7f3f 5b7b 883f
00000040: 95aa 723f 615c 763f 635a 7e3f d19f 763f
00000050: 4191 7f3f 1d4d 843f 4334 823f ea67 833f
00000060: e3d0 833f 8d2e 7e3f 2011 823f 7ca0 7e3f
00000070: 348b 803f 690f 813f d575 813f cb7e 803f
00000080: 2276 823f eb47 7f3f 3327 803f 5bf2 7d3f
00000090: 8f47 7c3f 46d8 803f 746b 7b3f 2c3c 7e3f
000000a0: ae52 843f 2a2f 793f 809d 813f c8ea 773f
000000b0: 0919 813f 99aa 833f e58f 833f 4c5f 7a3f
000000c0: dc02 7a3f ec18 723f 6f9f 873f 838f 833f
000000d0: 8e62 813f b778 743f 10ae 823f bca9 7f3f
000000e0: 22d9 773f 8964 833f 6290 803f 843b 803f
000000f0: 41ea 823f 2dde 7f3f 32a0 7e3f 3e29 853f
1.0266362 0.98718524 0.9722877 1.0187356 1.0115682 0.96942306 0.9683515 0.98708296
0.9647475 0.97454387 1.009409 0.98336375 0.9817981 0.9765502 0.9971284 1.0662645
0.9479154 0.9623471 0.9935667 0.9633761 0.99831015 1.0336033 1.0172199 1.0266087
1.0298122 0.9928978 1.0161476 0.9946363 1.0042481 1.0082828 1.0114084 1.0038694
1.0192301 0.99719113 1.0011963 0.9919793 0.9854669 1.0066001 0.98210835 0.99310565
1.0337732 0.9733759 1.012619 0.9684262 1.0085765 1.0286437 1.0278288 0.9780166
0.97660613 0.9456928 1.059553 1.0278171 1.0108202 0.95496696 1.020937 0.9986837
0.96815693 1.0265056 1.0044062 1.0018163 1.0227739 0.9994839 0.9946319 1.0403211

bn2.bias f4 [64]
00000000: 8e8e 343c 4266 f5bc 9118 39bb 7582 133d
00000010: 175a 8fbc bd17 05bd a667 e4bc fba4 bcbc
00000020: 497c 5f3c e44a b13c 6be9 06bd 76de 1d3c
00000030: 7a23 a4bd 1c17 703a bdd2 d8bb edca 9fbc
00000040: 5ad5 52bd 8bab 2b3b 8a1b 853c 2176 6cbd
00000050: 404a 35bd 0891 2c3c 5036 aabc 4888 17bc
00000060: 2f89 7a3c d7b0 e7bb 6828 07bd 65ed 5dbd
00000070: 47e8 bc3c 09c6 373b d09a 22bd f782 d6bb
00000080: f1d6 04bd 240c 90bd 4653 31bb 9074 e0bc
00000090: 3dcb 02bc 8297 9fbb 6eb0 673c c6e2 203c
000000a0: 81db 323c 5759 f7bc a724 49bc 33f6 98bc
000000b0: a6e7 693a 6462 c63c 4ef0 e2bc 1238 1dbd
000000c0: 72d9 3cbd 90f8 56bd cce9 45bc 5a9e 233d
000000d0: 24a4 48bd 3158 02bd 33a5 abbc 4f50 a2bd
000000e0: 679a aabc 4496 7a3c 020c 86bc e0c9 d73b
000000f0: 7b57 f3bb 9921 0b3d a9ca 04bd 3093 cfbb
0.011020316 -0.029955987 -0.0028243402 0.036013085 -0.017499013 -0.03249334 -0.027881455 -0.023027888
0.013640472 0.021642156 -0.03293745 0.009635558 -0.08014579 0.0009158717 -0.006616919 -0.019505942
-0.051473 0.0026194777 0.016248483 -0.057729844 -0.044260263 0.010532625 -0.020777851 -0.009248801
0.015291496 -0.0070706415 -0.03299752 -0.054181475 0.023059977 0.0028041622 -0.039698422 -0.006546374
-0.032431547 -0.07033566 -0.0027057691 -0.027399331 -0.007983026 -0.004870356 0.014141185 0.009819692
0.010916592 -0.030193968 -0.012276805 -0.018672084 0.0008922763 0.024216838 -0.027702477 -0.03838355
-0.04610581 -0.05248314 -0.012079667 0.039945938 -0.04898466 -0.031822387 -0.020952797 -0.07925474
-0.020825578 0.015294615 -0.016363148 0.0065853447 -0.0074262 0.033967588 -0.032419834 -0.006334685

bn2.running_mean f4 [64]
00000000: a4bb 2bbe 0b9e 733e 9b61 853d db67 993e
00000010: 9f7f 6bbe 8dee 0cbf 4db3 9b3f 52b3 453e
00000020: 5d92 1e3e 0808 82be d73f 87bf e772 0f3f
00000030: 0057 f33c bf21 5d3e 5ed8 b23e 07a5 0cbe
00000040: ab1c febd 033d be3e 2062 2b3f fbd4 1f3e
00000050: 345e 1e3f 54c4 30be 8bb1 21bf 24fa 113c
00000060: 1363 91be 7aa0 32bf 3217 abbe 097e 80bc
00000070: 328e 90bd ccf4 43bd 539c 97be 8b1c 0dbd
00000080: 9e36 a6bd a345 293e 2b73 81bd ae83 c4bc
00000090: 0fc0 343f 2f85 22bc 66b0 273f a2f2 5a3e
000000a0: 55b1 18be 30e4 08bf a489 81be da54 0abf
000000b0: a779 293f 2ce1 4f3d 9738 43bd 6745 273e
000000c0: 35b1 253e e79d d8be 63ab cabd 524c 90be
000000d0: 8e1c ddbe 460c f13b 0910 4abe 46a1 963d
000000e0: 72e5 d73e dce9 2d3e 6e62 0e3f c475 d2bd
000000f0: e888 d4be 9081 8f3e 42de d8be 3d27 9cbe
-0.16770798 0.23790757 0.065127574 0.29962048 -0.22997902 -0.550515 1.2164093 0.19306687
0.1548552 -0.25396752 -1.0566357 0.560347 0.02970457 0.21594904 0.349307 -0.13734828
-0.12407812 0.37155923 0.669466 0.1560859 0.6186249 -0.17262393 -0.63161534 0.008909736
-0.283959 -0.6977612 -0.33416134 -0.015685098 -0.070583716 -0.04784088 -0.29611453 -0.03445105
-0.08115886 0.1653047 -0.06320795 -0.023988571 0.7060556 -0.009919449 0.6550354 0.2138162
-0.14911397 -0.53473186 -0.25300324 -0.54035723 0.6620125 0.05075185 -0.04766139 0.16335069
0.1618088 -0.4230797 -0.09895971 -0.28183228 -0.43185848 0.0073561994 -0.1973268 0.07354979
0.4216724 0.16983742 0.5561894 -0.10276368 -0.415107 0.28028536 -0.4235707 -0.30498686

bn2.running_var f4 [64]
00000000: 6c56 093e 1bae 813e 00bd 643e cb5d 093e
00000010: 70cc fb3d 4e71 bc3e cfb7 f63e f247 973e
00000020: dc1d 2f3e f9b4 753e 7c34 d73e 9b14 9d3e
00000030: a573 ff3d bd91 223e 3012 593e 7ef1 913e
00000040: dedc 133e c849 a73e 3745 e03e 6ebc f03d
00000050: 828c 723e 51c3 533e 2b5e 913e 4c63 443e
00000060: 9cf7 f83d 7cd3 de3e fad1 9a3e d480 363e
00000070: 2f11 cc3d 0aeb d03d 5d79 383e ae28 343e
00000080: 8e0a 573e 28dd fa3d 7d08 8b3e 47d7 853e
00000090: b210 913e bdc9 1f3e 5c65 8c3e b513 063e
000000a0: 55dc bc3d a88a 943e 90c0 c33e f724 413e
000000b0: 7404 a03e e79d 643e 4a08 1f3e 5e28 053e
000000c0: f07b 1b3e e499 b13e 5dcf 403e a0c9 473e
000000d0: a700 e43d 15c8 683d dd80 2f3e 1e94 4d3e
000000e0: 3f96 b43e 6043 703d 734b a93e 9e77 3f3e
000000f0: e2c6 3c3e 78cb b53e 5b12 353e 0ebf c23e
0.13411874 0.25328144 0.22337723 0.13414685 0.12294853 0.36805195 0.4818711 0.29547077
0.17101234 0.23994817 0.4203223 0.30679783 0.12473229 0.15875907 0.21198344 0.28504556
0.14439723 0.32673478 0.43802807 0.1175469 0.23686412 0.20679976 0.28392157 0.19178504
0.12156603 0.43520725 0.30238324 0.17822582 0.09964215 0.1020108 0.18015046 0.17593643
0.2100012 0.122492135 0.27154914 0.26140806 0.2833305 0.15604301 0.2742108 0.13093455
0.092217125 0.29012036 0.3823285 0.18861757 0.31253397 0.2232586 0.15530506 0.1300368
0.15183997 0.34687722 0.18829103 0.19510508 0.11132937 0.056831438 0.17139001 0.20076033
0.3527088 0.058658004 0.33065376 0.18697974 0.18435243 0.35506797 0.17682783 0.38036388

conv3.weight f4 [32, 64, 3]
00000000: b000 9c3d abbc ff3c 2300 8abd edbe 803d
00000010: cdf4 7cbc bf1b 6a3d d3b4 e13d 53f8 853b
00000020: b46c 6b3c 8282 503d eb3b 8abd 2fd2 423d
00000030: 1a49 4d3d f565 383d 3a3a 26bc c284 00bd
00000040: 106e 26bd 4d92 2a3d 4015 003c 14fc e1bc
00000050: 8f46 223d 5355 88bb 1867 d23c f3a8 4b3a
00000060: 7dad 5c3d 1ce1 23bd 7620 34bc d6c1 2cbd
00000070: 0b33 abbd 8582 b4bc 906c bd3d 2627 8fbb
00000080: 6d7e 53bc 464d 493c 3e50 833d 6c1b 4cbd
00000090: 5515 4cbd 5f9a 6f3d 8420 613d f859 f9bc
000000a0: a7e8 6f3d 8d14 a1bb 5c37 943d cea8 f6bb
000000b0: 2337 0d3d f822 7cbc 3769 a7bd e3a0 1cbd
000000c0: 0490 6a3d 6409 943c 0101 263d 6467 13bd
000000d0: cf46 f03c ec58 993d 2c48 01bd 07d7 db3c
000000e0: bd59 b53c 852d 63bd b3fb 66bd c79e 883d
000000f0: 1974 efbc 7f03 813c 6d28 09bc 157e a2ba
00000100: 324c 893a 5fcd a6bd 8d93 a73c 21c3 7c3d
00000110: 566c 323d 9d6b a13c 78ae 5fbd 23b9 063d
00000120: ed22 0fbb 9a17 3ebd adeb 6f3d 9f2e 803b
00000130: 4dc8 a3bb cea3 8a3d 7505 9abc 9bfb 51bb
00000140: fedc 5ebd 70b6 743d 92b3 1b3d b23f 983c
00000150: a26d 60bc 0eaa 21bd 52e1 4b3d 5817 013c
00000160: 537d 87bd 8de5 2c3d 0d8b 60bc 6482 083d
00000170: 36e8 27bd bcad 633c 4e30 843a d200 2c3c
00000180: 5966 22bd 8cb5 6abd b33c cfbc f40d 3abd
00000190: 65f5 67bd 6099 5c3d 8ca7 6a3d 1db2 e23c
000001a0: 3212 0f3d 4392 a2bd d992 c63b 76fd 74bd
000001b0: 24c3 5f3d 6201 46bc b508 a43c 29b9 8abd
000001c0: 9224 8f3d 7269 0e3d 6a3d 923c d82d 613d
000001d0: a500 083d 6825 583c 6701 2cbd d70f 50bb
000001e0: 07e0 913d 6828 9eba 2382 d03d 0285 cdbd
000001f0: 8582 383d 6e07 ccbc 9c41 6f3a 8dc5 a33c
00000200: 640c 90bd 85d6 6dbd 540a 133d cfd8 a13d
00000210: 233b 063d cb15 ca3c c9c5 213d 8952 703d
00000220: a811 d43c 6005 c7bc d199 13bd df99 46bd
00000230: 6680 023c 51c8 493d 2493 a33d f848 08bd
00000240: a5ec 893d cdb4 99bd 1a1e 56bd 8d8b 183c
00000250: 299e 26bd 2f46 59bd d0ff 2a3c 31a8 533d
00000260: 29c0 96bd e376 dabc 1762 a9bc fb84 ad3d
00000270: b03e 5bbd fbaf 0abd 8338 7bbd f796 003d
00000280: 8f7c 47bd afe5 7dba 5471 3fbd 1e2a 953c
00000290: 1c92 b138 fdc5 453d dd02 0dbc 4e5a 1cbc
000002a0: 90f4 0ebd 4dd1 833d a6eb d73c b3ac f8bc
000002b0: 6df1 d9bd 2f25 5bbd 347a 99bd caf2 bbbc
000002c0: 6e2e 1b3d 9e95 40bd 8ac7 33bd bd20 43bd
000002d0: a116 d43c d04d 8fbc be15 74bd 9e0e 2bbd
000002e0: 1f1b 8cbc 5bdd 9ebd 8505 e6bb b34c be3c
000002f0: 5026 13bd e75a 4c3d 9d44 88bc 2ced bf3b
00000300: 6040 153c 8310 aebd 0f4e a2bb cc2a 063b
00000310: d615 553c db0a 2bbd 78eb a8b9 2606 3cbd
00000320: 288b e4bc 7869 65bc 7a15 14bd e092 093d
00000330: 3af8 49bd 2660 1f3d 204e 7a3d b734 e23c
00000340: 650e 133d 4a9c 58bd a6b4 5ebd 58cf 953d
00000350: 55b5 bbbc d1a6 f53c ff5f 653d 26cb 63bd
00000360: f117 b2bd 67c9 35bd 36cd 413c 968c 0cbd
00000370: c98c 38bc e9be 253d f21a c33c 9fef 593d
00000380: d34e 93bd 8d85 8bbc 9da4 043d a756 bbbd
00000390: 3cef a7bd 1519 043d 4a85 b83b e416 a4bd
000003a0: 9e1a 083b bea0 413d d745 063d 8c7b f5bc
000003b0: 9e23 34bd baf2 353d d708 b33c 79e1 813d
000003c0: 3211 02bd f178 8a3d 2427 7abd ca4b 5ebd
000003d0: 6128 1fbc c4b0 933d 2fb6 83bd b617 29bd
000003e0: 84d9 373d db2f 0f3d 318e 8dbc 49d1 c6bc
000003f0: 58b4 e13c 00a0 333d 7163 c0bd 0382 0dbd
0.07617319 0.031217894 -0.06738307 0.06286416 -0.015439224 0.057155367 0.110208176 0.0040884404
0.014369179 0.050905712 -0.0674971 0.047563728 0.050118543 0.04501911 -0.010145718 -0.031376608
-0.040632308 0.04164343 0.007817566 -0.02758602 0.03961807 -0.004160562 0.025683925 0.0007769011
0.05387639 -0.040009603 -0.010994067 -0.042177044 -0.08359345 -0.022034893 0.09249222 -0.0043686805
-0.01290856 0.01228649 0.06411789 -0.04983084 -0.04982503 0.05849683 0.05496265 -0.030438408
0.058571484 -0.00491578 0.072371215 -0.0075274473 0.03447641 -0.015389197 -0.08174365 -0.03823937
0.05726625 0.018070884 0.0405283 -0.035987273 0.02933064 0.074876636 -0.03156297 0.026835931
0.022137517 -0.055463333 -0.056392383 0.066709094 -0.029230164 0.015748737 -0.008371455 -0.0012397195
0.0010474978 -0.0814464 0.0204561 0.061709527 0.04356035 0.019704634 -0.054609746 0.032891404
-0.0021840886 -0.046409227 0.058574367 0.0039118077 -0.004998243 0.067695245 -0.01880143 -0.0032040838
-0.054409973 0.0597443 0.03801305 0.01858506 -0.0136980135 -0.039468817 0.04977543 0.007879101
-0.066157006 0.042211104 -0.013705027 0.033327475 -0.040992938 0.013896402 0.0010085197 0.010498242
-0.039648388 -0.057302043 -0.025297498 -0.045423463 -0.05663051 0.053857207 0.05728869 0.027672822
0.03492946 -0.079380535 0.006059986 -0.05981203 0.05462946 -0.012085291 0.020023683 -0.06773598
0.06989397 0.03476853 0.01785155 0.05497536 0.03320374 0.013192512 -0.041993525 -0.0031747723
0.07122808 -0.0012066485 0.101810716 -0.10035135 0.045046348 -0.024905887 0.0009126903 0.01999166
-0.07033613 -0.05806591 0.03589852 0.07902681 0.03277124 0.024668595 0.039495263 0.05867246
0.025887325 -0.024294555 -0.036035363 -0.048486587 0.007965183 0.049263302 0.07987049 -0.033272713
0.067345895 -0.07505188 -0.0522748 0.009310615 -0.040678177 -0.053045448 0.010436967 0.05167407
-0.073608704 -0.026668018 -0.020676656 0.0847263 -0.05352658 -0.033859234 -0.06133319 0.03139397
-0.048702773 -0.00096854096 -0.046738937 0.01820856 8.467233e-05 0.04828452 -0.00860664 -0.009543015
-0.0349012 0.06436405 0.026357483 -0.030355787 -0.106417514 -0.053502258 -0.074940115 -0.02294292
0.037886076 -0.047017686 -0.043891467 -0.047638644 0.025889697 -0.017493159 -0.059591047 -0.041761987
-0.017102776 -0.07757064 -0.007019701 0.023229932 -0.03592521 0.04989138 -0.01663428 0.0058571305
0.0091095865 -0.08499243 -0.004953153 0.0020472286 0.013005694 -0.0417584 -0.00032218895 -0.0459043
-0.027898386 -0.0140021965 -0.036153294 0.033587337 -0.049308993 0.038910054 0.061109662 0.027613027
0.0359024 -0.052883424 -0.0543715 0.07314938 -0.022913614 0.02998677 0.055999752 -0.05561366
-0.08695973 -0.044381525 0.011828711 -0.03431376 -0.011264035 0.04046527 0.02381656 0.053207036
-0.07192769 -0.017031455 0.03238355 -0.09147387 -0.08199927 0.032250483 0.0056311237 -0.080121785
0.0020767818 0.047272436 0.03278145 -0.029966138 -0.04397928 0.044420935 0.021854801 0.063418336
-0.03175468 0.06761349 -0.061072484 -0.054271497 -0.009714217 0.0721145 -0.06431233 -0.041282378
0.044885173 0.034957748 -0.017279716 -0.024269717 0.027551815 0.04385376 -0.09393967 -0.034547817

conv3.bias f4 [32]
00000000: fd81 efbc 99f1 463d 0738 8b3d 3895 3fbc
00000010: da4c 123d 1327 b73c daa3 133d b6df 923c
00000020: 014a 613d 79be d3bc c5da 283c 5aa2 76bd
00000030: b506 dcbc 63be d7bc efd6 77bc b84a 103d
00000040: d59c a0bc 6f08 533d 8e49 5fbd 40f3 003c
00000050: 6ffa 7f3d 821b 56bd 6e46 603c 67ad db3c
00000060: 9638 23bd d117 80bb a2bb 243d 6c00 f03c
00000070: 96d9 80bd c40e 86bd 1c0c 64bd 5167 4b3d
-0.029236788 0.04857025 0.06797796 -0.011693291 0.035717823 0.0223575 0.036044933 0.01792894
0.055002216 -0.02584766 0.010306065 -0.060213424 -0.026858667 -0.0263359 -0.015126928 0.035227507
-0.019606033 0.051521715 -0.054513507 0.007870495 0.06249469 -0.052272327 0.013688667 0.026816083
-0.039848886 -0.003909089 0.040218003 0.029297076 -0.06291501 -0.06545785 -0.05567561 0.049659077

bn3.weight f4 [32]
00000000: 815c a03f d58b 9c3f cd6b a13f d946 9b3f
00000010: a374 9d3f 594b 953f 68a1 923f f950 993f
00000020: 65a8 9c3f 13c9 993f 9c86 9c3f a3d3 923f
00000030: 8778 983f 1e84 993f 4dd7 993f a2ca 9d3f
00000040: 50bb 9a3f f1fc 973f 36dc 933f ed81 9d3f
00000050: 1d43 9a3f 0b1f 943f 3ef3 a73f 9c76 973f
00000060: 5af7 a13f d6d0 a03f b9d0 923f 7542 9f3f
00000070: 1c0a 963f 0e3d 993f b8e6 9c3f 8ad7 8c3f
1.252823 1.2230173 1.2611023 1.2130996 1.230122 1.1663619 1.1455507 1.1977836
1.223889 1.2014488 1.222858 1.1470836 1.1911782 1.1993444 1.201883 1.2327464
1.2088413 1.1874067 1.1551578 1.2305275 1.2051731 1.1571974 1.3121107 1.1833072
1.2653611 1.2563732 1.1469947 1.2442156 1.1721835 1.1971757 1.225791 1.1003277

bn3.bias f4 [32]
00000000: 0e69 eb3d 9bbe c93d bb5d fa3d bda5 123e
00000010: a423 a53d 951d 8b3d 96a7 8f3d 7628 a63d
00000020: 6239 d03d 3b38 b33d dc2d b53d 6d7f 413d
00000030: 60ad 743d 1f58 9c3d 47e9 a43d 30a3 d73d
00000040: fc06 943d aea7 523d df92 903d 415a 8f3d
00000050: 36ec 7f3d e1fd 513d 41a2 293e 6602 9f3d
00000060: 7dd6 df3d a9bb b73d 1a2c 813d 9179 f03d
00000070: d05f 9f3d 3458 a63d f12c b53d b0b4 243d
0.11494647 0.09850808 0.12224909 0.14321037 0.080634385 0.06792752 0.07014386 0.08113186
0.10167195 0.087509595 0.088466376 0.047240663 0.059735656 0.07633995 0.080523066 0.105291724
0.07227895 0.051429443 0.070592634 0.069996364 0.062481128 0.05126751 0.16565801 0.07764129
0.10929582 0.0897134 0.0630724 0.11741937 0.07781947 0.08122292 0.088464625 0.04021138

bn3.running_mean f4 [32]
00000000: 221c 273d c70d 77be 1a00 e83e d0f8 ea3e
00000010: 4a17 f43d fc85 15be a379 6bbd 82ec 88be
00000020: 2b01 053f 14f4 b73e 3b18 d13d 74fc d2be
00000030: 6c9f 0e3e 5565 dcbd 6a34 f63e 5efe b3bd
00000040: 766b 1bbf e803 e13d 7257 a7be 64ff 013f
00000050: 114d cdbc 842c 323e b147 803c 7902 8d3d
00000060: b7bd 90be 0542 16be ba8a bc3e 42ba af3e
00000070: 79d9 89be ec22 4a3e 0dea bc3c 623a 30be
0.040798314 -0.2412635 0.45312577 0.45892954 0.119185045 -0.14601892 -0.05748905 -0.2674294
0.5195491 0.35928404 0.102097 -0.4120823 0.13928002 -0.10761515 0.48086864 -0.08788751
-0.6071085 0.10987073 -0.32683903 0.5078032 -0.025061162 0.17399794 0.015659185 0.06885237
-0.2826974 -0.14673622 0.3682459 0.3432179 -0.2692373 0.19739884 0.023060823 -0.17209771

bn3.running_var f4 [32]
00000000: e48b 043e 233e 393e e624 0f3e 559e 063e
00000010: 45a1 ef3d 55b1 0f3e b4df b83e fe79 0b3e
00000020: 794e 083e d0dd ff3d d36b d13d 608b f13d
00000030: 2df2 2b3e 1ef0 6d3e d453 063e 3f04 dd3d
00000040: 961a 1a3e 05bb d03d 4549 d13d c94e 173e
00000050: 8161 0f3e 7f21 333e 78f3 ef3d 1645 0f3e
00000060: 7176 d23d f03d eb3d 8f74 4d3e 620e 293e
00000070: 6852 f73d 2ab8 e13d a327 f33d f7df e13d
0.12943989 0.1809011 0.1397892 0.13146336 0.117006816 0.1403249 0.36108172 0.13620755
0.13311185 0.12493479 0.10225644 0.11794162 0.16791601 0.23236129 0.13117915 0.107918255
0.15049204 0.10191921 0.10219053 0.14776148 0.14002039 0.17493246 0.1171636 0.13991198
0.10276497 0.11486423 0.20063995 0.16509393 0.120762646 0.11021455 0.118727945 0.11029046

fc1.weight f4 [4, 128]
00000000: fcc4 533d 0455 2bbe 8d32 533d b447 0f3e
00000010: 1d42 c23c a308 e1bd eeda 2dbe 9a69 063d
00000020: 3683 26be 110a 2f3e 0456 c3bc a33d 2b3d
00000030: bfb6 c53c bb60 65bd 172c 0e3d 6ba0 04bd
00000040: 0c3f f73b b9e0 77be 13ee bcbd 9c75 17be
00000050: 8ad2 0b3e 9aed 933d 6dbd 083e c4a8 29be
00000060: 74a3 7abd aca5 81bd fe2a d0bc 46b8 bcbd
00000070: a8eb ecba 252e dcbd 1672 973d e7d2 9bbd
00000080: 8516 ea3c 565e ebbd 2f9c 233d ad71 783c
00000090: b02e e23d 3220 1e3e 9467 b9bb 6e59 b13d
000000a0: f59f 943d c973 4cbd 578a c2bd 29bf 0bbe
000000b0: 773d 0b3e 5836 f03d a20f 203e 900e 273e
000000c0: d835 bfbd 1b82 2dbd f2e2 88bd 7fc6 0b3d
000000d0: baaf 21be 5454 bbbd c960 23bc fcac 7b3d
000000e0: b33e 6e3d b629 fc3d 9a98 533c 9a31 903d
000000f0: ef0f c0bc 60e6 183e 80a8 4ebe 2b91 cebc
00000100: 7044 113e 4f12 33be b6e0 aebd 8557 24be
00000110: c575 283e b35c ab3d 210f 14be e9f1 b03d
00000120: cc96 fe3d c14d ebbd 1836 1d3e 202e 173e
00000130: 61f5 0e3e 8f8b ebbd 9aa6 8ebd 6c34 dabd
00000140: 6d47 d53c f326 e8bd 4233 e53d 2644 043e
00000150: fbdb 46be 5277 17bd fffd 07be 544f 1f3d
00000160: e49a 91bd 86c8 30be e317 a93d 82d7 ac3d
00000170: 0329 73bd 0e75 94bd 69b3 3dbe 647a 1ebd
00000180: 7da5 28be 9385 673e 6ac5 523d e0e5 8d3d
00000190: 9fee 51bc a465 a5bd ca43 033e 701d 2cbd
000001a0: e53c 7dbd 3818 f73d df21 e83d 21ca e8bc
000001b0: 3755 4abe 9f42 eebc 9954 aabc 0fb2 a03d
000001c0: 80cf 013e 1b66 f6bc 67cc babd 9d1c c93c
000001d0: 555a e73c 99e7 59bc 4695 f4bc da74 053c
000001e0: a976 4c3e f689 3fbc 0b50 8cbd 6078 92bd
000001f0: 91e0 aebd 3655 c63d 1b38 193e 4479 dc3d
00000200: 3596 b13d 7ce5 523e 0ec3 b9bd b675 c93c
00000210: 0693 3fbe 033a f23c 6e79 8dbd 2b2d 61bd
00000220: d0c1 a43c c5b6 80bc 5e5d 613d 05d0 133d
00000230: 437a 0b3e f251 3dbe ab6f 16bd 35f8 113e
00000240: 7044 b13d e47e 1d3e e025 b93d 4069 4abe
00000250: ff55 f5bd 7592 d0bc d9e1 0abe a792 97bd
00000260: 043d 7dbd 652a 70bc c312 18be 3302 973d
00000270: f0b1 82bd a790 1dbd 548f 8b3c 36d0 37be
00000280: 5772 383e d6f0 0fbe bff6 3ebd 2043 cb3d
00000290: 4098 05bd 4021 47be fa97 a23d a205 09be
000002a0: 93c4 093e dd1f 07be 78d4 2e3d cde3 e23d
000002b0: cfb6 b33d 0435 12be 3fe7 c9bc 02a4 fdbd
000002c0: 19d1 fe3d fb3c 50be 9a37 803d 8da5 01bd
000002d0: 6206 b93d 2b58 1bbe c695 aebd 27af c2bd
000002e0: 2069 49bd 35ff d8bd 6233 0f3e 2e85 023e
000002f0: 10ea ec3d 51c0 1fbe d82e d23d a0c6 0ebd
00000300: 833d 37be 815f 4bbd a486 0f3e 2cab f53c
00000310: be65 1fbd 24c9 e0bb 038c 453e e711 c1bd
00000320: 431f 6c3c 81ad 6abd 3654 f8bd 6217 d6bb
00000330: 5d5e c93d 7426 e13d 04a3 0fbd 9f56 17bd
00000340: 0566 f43d 8417 0c3e 1b68 ebbd 9911 483d
00000350: 348e 1a3e 7884 d3bc 4612 283d 75b6 dbbd
00000360: 27e0 6fbe 9519 5e3d 7ee0 1fbe 730b bc3d
00000370: 3bcd 3d3e d4a7 2abd ab40 943d a14d e5bc
00000380: ddc6 e83d bfb6 6dbe ba6d 1dbe 66d5 ea3c
00000390: 2232 2cbd 2fd5 153e e0a6 0fbe c72d b0bd
000003a0: 1f73 ea3d ca3e 283d 015a 983d a3d5 d63d
000003b0: 58af 923c 1a0b 3cbd f7a9 3a3d c486 4abe
000003c0: 9392 f33b 72ff 0ebe 9a38 9bbd 96b6 d9bc
000003d0: 949f 093e b0e4 be3c 7e66 cf3d 8759 df3d
000003e0: 9efd ffbd ae0d 1c3e 3019 393e fdd7 d6bc
000003f0: 9966 96bd b343 22be faea 81bd 4aa8 2abd
0.05170153 -0.1673165 0.05156188 0.13992196 0.023713166 -0.109879754 -0.16978046 0.032815553
-0.1626099 0.17093684 -0.023844726 0.04180683 0.024134992 -0.056000452 0.034710016 -0.03237955
0.0075453576 -0.24206819 -0.092250966 -0.14790958 0.13654533 0.07223053 0.1335351 -0.16568285
-0.061191037 -0.063304275 -0.025411125 -0.09214835 -0.0018075602 -0.10750989 0.07394807 -0.07608586
0.028575191 -0.114926025 0.03994387 0.015163821 0.11044061 0.15441969 -0.0056580994 0.086596355
0.07257072 -0.04991511 -0.094990425 -0.1364714 0.13597666 0.11729115 0.15630963 0.16314149
-0.09336442 -0.042360406 -0.066839114 0.034124848 -0.1578969 -0.09146944 -0.009971806 0.061444268
0.058165263 0.12312643 0.012914801 0.07040711 -0.023445098 0.14931631 -0.20181465 -0.025215706
0.14186263 -0.17487453 -0.08538954 -0.16049011 0.16451176 0.0836729 -0.14458896 0.08639891
0.12431106 -0.1148944 0.15352666 0.14763689 0.13960792 -0.11501228 -0.069653705 -0.1065453
0.026035035 -0.11335554 0.11191417 0.12916622 -0.19419853 -0.036979027 -0.13280486 0.038894013
-0.07109621 -0.17263994 0.08256509 0.08439542 -0.059365284 -0.07248889 -0.18525471 -0.03869094
-0.16469379 0.22609548 0.0514578 0.06928611 -0.012813239 -0.08076027 0.12818828 -0.04202026
-0.06182565 0.12065166 0.113345854 -0.028416695 -0.1975907 -0.029084502 -0.020792292 0.07846462
0.12676811 -0.030077985 -0.09121018 0.024549777 0.028241316 -0.013299846 -0.029856335 0.008145535
0.1996714 -0.011690607 -0.068512045 -0.07151866 -0.085389264 0.096842214 0.14962809 0.10765317
0.08671228 0.20595354 -0.09070407 0.024592262 -0.18708429 0.029568678 -0.069079265 -0.054974716
0.020111948 -0.015712151 0.055020683 0.036087055 0.13620858 -0.18488291 -0.03672759 0.1425484
0.086556315 0.15380436 0.09040427 -0.19766712 -0.11979293 -0.025460461 -0.13562717 -0.074010186
-0.061825767 -0.014658545 -0.14850907 0.07373466 -0.06381595 -0.03846803 0.017036118 -0.1795052
0.18012367 -0.14056715 -0.046622034 0.099249125 -0.0326159 -0.19446278 0.079391435 -0.13381055
0.13453893 -0.13195749 0.042683095 0.11078606 0.08775102 -0.14278036 -0.0246464 -0.12384798
0.12442226 -0.20335762 0.06260605 -0.031652022 0.090344205 -0.15170352 -0.08524661 -0.09506064
-0.04917252 -0.10595552 0.13984445 0.12746117 0.115680814 -0.15600707 0.10262841 -0.034857392
-0.17894559 -0.049651626 0.14016205 0.029988848 -0.03891539 -0.0068599153 0.19291691 -0.09427243
0.01441175 -0.057294372 -0.12125437 -0.006533549 0.098324515 0.109936625 -0.035067573 -0.036947843
0.11933521 0.13680845 -0.11494466 0.048844907 0.15093309 -0.025820002 0.041033052 -0.1072816
-0.23425351 0.054223616 -0.1561298 0.09181871 0.1853532 -0.04166396 0.07238897 -0.027991118
0.11366055 -0.23214243 -0.15373889 0.02866621 -0.042039998 0.14632104 -0.14028502 -0.08602481
0.11447739 0.041075505 0.07439042 0.10489967 0.017905876 -0.045909025 0.045572247 -0.19777972
0.0074332445 -0.13964632 -0.07579155 -0.026576322 0.1343978 0.023302406 0.10126971 0.10905748
-0.124995455 0.15239593 0.18076015 -0.026226038 -0.07343788 -0.15846138 -0.06343646 -0.0416644

fc1.bias f4 [4]
00000000: 8543 96bd ff8e 99ba 9e83 7bbd d8f7 833c
-0.07337097 -0.001171559 -0.061404817 0.016109392
