pths/classifier_model.pth (torch, 67972 bytes, 20 tensors)

conv1.weight f4 [32, 1, 3]
00000000: 5dc5 263e db8f 92be db85 3bbd eb89 22be
00000010: f39c aebe 9b45 9bbe e980 a43d 66ef 5dbd
00000020: 34e5 d33e 4f68 093f 2f75 86be 92fc 07be
00000030: 71e5 bcbd 11ac f1be afa8 83bd 639a f33e
00000040: 238c 81be 1c19 d1bd b424 b4be 7bf5 4dbd
00000050: 99f0 c5be 8102 9abe c80d 483e 5759 983e
00000060: bf2b 26bd e370 d8be 7231 86be bb4d 943e
00000070: ea9b 92be bd6c 793d 9c9c 7f3e 5c02 533e
00000080: 63a0 fabe 33f6 b83e e268 03bf bf9b da3d
00000090: c59b 68bd 59ab d03e 9bea 963b 9a04 233e
000000a0: 2c59 3e3e 8533 853d 8270 b43b e39b b4be
000000b0: a81f a33e fba6 fc3e 63bc af3e f8f4 103f
000000c0: d148 78be 1711 dabe 6e29 8ebd 923d ccbd
000000d0: 123d c8be 1323 3e3e 71a3 3f3e e79e 96be
000000e0: 344b f9be 9f5b 10bf 4954 2bbe 55f7 f23e
000000f0: 36ec f03e 97be de3d a3a6 cfbe b215 ccbd
00000100: 609c 053f c06c 68be 520e 86be faec bd3e
00000110: 8a00 8e3e 5295 c63e 63ca b1be f374 89be
00000120: 1919 b6be 7293 7abd 91c3 64be 7c9b 133f
00000130: 6090 5f3e eb26 003e 03cf e5be e72b 0c3f
00000140: 9226 09bf 46e4 993e 44ae 6f3e 9144 cbbe
00000150: 73e2 2abe b3de 66be 7c12 55be 9273 05bf
00000160: 2cb3 bebe 396a 0b3e 6e66 953b 1424 083f
00000170: 00bc ce3b 6413 a63d cd90 15bf 0660 cdbd
0.16286226 -0.28625378 -0.04578195 -0.15872924 -0.34104118 -0.30326542 0.080324 -0.054183386
0.41385806 0.5367479 -0.2626128 -0.13279942 -0.0922345 -0.4720159 -0.06428658 0.47578725
-0.25302228 -0.10209867 -0.35184252 -0.050282937 -0.38660124 -0.30080035 0.19536507 0.2975566
-0.040569063 -0.42273626 -0.262096 0.28965554 -0.28634578 0.060894717 0.24962085 0.20606369
-0.4895049 0.36125335 -0.51331913 0.106742375 -0.05678918 0.40755728 0.004605604 0.15919724
0.18588704 0.06503967 0.005506576 -0.35275182 0.3186009 0.49346146 0.34323415 0.5662379
-0.24246527 -0.42591164 -0.06941496 -0.09972681 -0.39109093 0.18568067 0.18714692 -0.29418108
-0.48690188 -0.563898 -0.16731371 0.47454324 0.47055215 0.10876196 -0.4055682 -0.099650756
0.52191734 -0.22697735 -0.261828 0.3709486 0.27734786 0.38785797 -0.3472472 -0.26847038
-0.35566023 -0.06117577 -0.22340228 0.57659125 0.21832418 0.12514846 -0.448845 0.5475449
-0.5357448 0.3005697 0.23406321 -0.3970075 -0.16687946 -0.2254589 -0.20807832 -0.5212947
-0.37246072 0.1361474 0.0045593297 0.5318005 0.0063090324 0.08109167 -0.58424073 -0.10028081

conv1.bias f4 [32]
00000000: 0e27 0d3f 8105 9bbe cc2d 4ebe a7a8 da3e
00000010: bbad eb3e 0ecb 913e ee9b df3e 82e2 843e
00000020: 308a d53e c787 063e c51d cebc d6a4 8bbe
00000030: 5e33 27bd 7884 bebe 9b33 d5bd 3277 d33e
00000040: ce05 e23d a7e4 5d3e 4777 0b3f f4b2 49be
00000050: 10b4 e9be f4fe 99bc 726f f23e bdfb d23e
00000060: 3f50 84bd 7027 be3e a485 533e 544d 483e
00000070: 26f9 92be 5eeb cbbd 9499 2b3e da03 603d
0.5513772 -0.30277637 -0.20134658 0.42706797 0.46030983 0.2847523 0.43673652 0.25954062
0.4170699 0.13137732 -0.02516068 -0.27274197 -0.040820472 -0.3721044 -0.104102336 0.41301876
0.110362634 0.21669255 0.5447888 -0.19697171 -0.4564519 -0.018798329 0.4735065 0.41207686
-0.06460618 0.37139463 0.20656449 0.19560748 -0.2870571 -0.09957002 0.16757804 0.054691173

bn1.weight f4 [32]
00000000: 7c23 7f3f 1b64 7f3f 69f2 803f c442 813f
00000010: b1dd 7e3f 54d0 7e3f bfed 7e3f b651 803f
00000020: 4c63 7e3f b525 813f c11d 7f3f e16b 7e3f
00000030: 8ed1 803f 2341 803f e4c3 7e3f 110f 7d3f
00000040: b606 813f 6f77 803f 5e8d 7c3f f9b1 7c3f
00000050: 608a 813f b3e8 813f 057d 803f f023 803f
00000060: 6bee 7f3f 7340 7f3f 7371 813f 005c 7e3f
00000070: 8333 803f 8f51 813f e712 803f 9969 7d3f
0.9966352 0.99762124 1.0073978 1.00985 0.99557024 0.99536633 0.9958152 1.0024936
0.99370265 1.0089632 0.99654776 0.9938336 1.0063951 1.0019878 0.99517655 0.98851115
1.0080173 1.0036448 0.9865321 0.98709065 1.0120354 1.0149139 1.0038153 1.0010967
0.9997317 0.99707717 1.0112747 0.9935913 1.001572 1.0103015 1.0005769 0.98989254

bn1.bias f4 [32]
00000000: b9d8 59bc 5bd1 e1bb 1c3b 933b a4b1 2d3b
00000010: 1983 82ba ada3 83bc aee3 643b 703c 0bbc
00000020: 312b 7fbc 442a afba 7b33 cf3b a293 8ebb
00000030: f221 573a 0998 c9ba 40c3 0e3c b93d bb3b
00000040: d4b9 d43b 3c4d f5ba 68e6 60bc cbfb 20bc
00000050: 7c24 343c a712 623c 1705 623b ee5e 68bc
00000060: a9c0 ffbb e437 f83b dd63 cb3b 3d60 aebb
00000070: b876 2bba 70db 71ba ee29 95ba 4a3d 07bc
-0.0132963 -0.006891412 0.0044931304 0.0026503587 -0.0009957283 -0.016069258 0.0034925747 -0.008498296
-0.0155742625 -0.0013364037 0.0063232756 -0.0043510953 0.00082066574 -0.0015380393 0.008713543 0.005714145
0.006491879 -0.0018715034 -0.013726808 -0.009825657 0.010995027 0.013798392 0.0034487897 -0.014182789
-0.0078049493 0.007575022 0.006206973 -0.005321531 -0.0006540823 -0.0009226119 -0.0011380294 -0.008254359

bn1.running_mean f4 [32]
00000000: f71f f63e fc2e 19bf e76c 0cbd 21b8 f33e
00000010: f332 5d3e 72e2 a63e 69e1 093e b28b a73e
00000020: 1a50 0d3e 14d0 1c3e a9e3 08bd f307 92be
00000030: 08a3 c43d 8edc 59be 8d0c e8bd 7caf 6e3f
00000040: 6d55 2ebe c532 cb3d 9ae7 a13e 0282 94be
00000050: e9a6 c3be df90 663d 5322 1d3f 67f3 a43e
00000060: 0368 9bbe 5ade 353f efb7 243d 5da2 7b3e
00000070: 2855 02bf 652b c4be b736 bd3e 9039 31be
0.48071262 -0.5983732 -0.034283545 0.47601417 0.21601467 0.3259464 0.13464893 0.32723767
0.13800088 0.1531375 -0.03342024 -0.2852169 0.09601408 -0.21275541 -0.11330519 0.9323652
-0.17024775 0.09921793 0.3162201 -0.29005438 -0.3821328 0.056290504 0.613805 0.3221695
-0.30352792 0.71042407 0.040214475 0.24573655 -0.5091119 -0.38314357 0.36955807 -0.17307115

bn1.running_var f4 [32]
00000000: ccde eb3c 546e 853d 0d4b 323d 7b12 743d
00000010: 485c 663d 3b1e 4f3d f678 8f3d f16f 283d
00000020: 5d9b 803d c7b0 0f3d 20d1 5e3d baea 803d
00000030: f218 213d 5818 e83c 3c7f 293d 1011 2a3e
00000040: c2d2 803d 6d5e 283d 0174 8c3d 2e1a a93d
00000050: 4bff 7b3d c799 633d 9849 593d 7349 673d
00000060: ff24 513d 1082 bb3d 65f9 ed3d 0dd2 4d3d
00000070: 8447 2c3d f33c ae3d f575 6f3d c4b0 8e3d
0.028792761 0.06515184 0.043528605 0.059587937 0.05624035 0.05056594 0.07005493 0.04112238
0.06279633 0.035080697 0.054398656 0.062947705 0.03933043 0.02833192 0.041381106 0.16608071
0.06290199 0.041105676 0.068580635 0.082569465 0.061522763 0.055566575 0.0530487 0.05646653
0.051060673 0.09155667 0.11619834 0.05024915 0.04206039 0.08507719 0.058462102 0.06967309

conv2.weight f4 [64, 32, 3]
00000000: 2318 1bbd a870 2fbc df3a 3f3d 3d04 803c
00000010: 2bf3 fd3c 3a14 29bd d044 b6bd 8358 fdbc
00000020: ca9d 703d 91b7 343d c975 0bbd 71db 56bd
00000030: 089c c9bd 7880 4abd 6bde a0bc 9f9b 603d
00000040: a09d a03d 68b5 6bbd 36aa bfbd 9f67 e2bd
00000050: ddb5 aebc 931e 503d 20ee a53d 8386 c73d
00000060: f7f5 17bd 9e6a c83c 891e 893d 2491 163d
00000070: 24c6 3a3d 7cfd d03d 3273 8bbc f010 acbd
00000080: 9f54 33bd 4a70 e0bc 3e55 c7bc 8fc0 6cbd
00000090: de9a 64bb bd8e 7ebd ceb2 0abd 3490 943d
000000a0: 7562 c23d eb50 293d 0586 2bbd d7a8 903d
000000b0: 2eaa 2dbc cfcf 25bc 83bd 1abd 095a 97bd
000000c0: 4aff 453d 0c70 903d 6c30 2bbc 32b0 383d
000000d0: 5f7b a0bd 0d04 1dbd 3156 a13d 8862 883d
000000e0: 98f8 0b3d 5b02 9cbd 6703 953d bee9 443d
000000f0: 1230 4f3d 8a4e 023d 4b21 babd 9992 f1bd
00000100: 0f16 3c3d a1dd 063d 6ba9 c63b 445f 79bd
00000110: f01a c63d 136a c83d 2ca7 a5bd 6c40 693d
00000120: 37fa 953b 55dd 9e3d 1f93 a9bd ef7e f5bb
00000130: 6625 b13c 25f7 74bd a479 2ebd f657 8fbd
00000140: f2fa d43c eeb6 b5bd 19ea 69bd 2548 053d
00000150: abfd c53c 74f7 83bc 5e7e b7bd 73c8 64bd
00000160: 953e 99bd e3a9 c9bd 49f6 a9bd ca35 c9bb
00000170: 60b3 a0bd 6484 78bd 7dbf a1bd 43ad 923c
00000180: ac8f 8abd 5fd8 a13c 6138 dabc 0edb 603c
00000190: 8ad2 743d bbe9 a83d 88d9 393d a996 dbbc
000001a0: fae9 c13d b4b8 2e3d 7a54 a13d f922 a2bd
000001b0: ddb9 f53b 405a c1bb dc20 373d d1c1 87bc
000001c0: b6df ac3d a0f7 993d c5f9 943d a019 3bbd
000001d0: d555 bdbd 6849 50bd d7f4 ae3c 1bef a93c
000001e0: bb58 dbbc 21f4 3bbd 41ed b2bd 0b38 04bd
000001f0: fb96 c7bb 3301 0bbc fe3c df3d d75c 253d
00000200: 9ca6 253c a798 b3bd c194 54bd 3255 77bb
00000210: 3890 433b a3d3 bc3d e376 433d 7756 53bc
00000220: d4f1 c33c 9b46 c9bc c13c afbd 8aed f7bc
00000230: 699f d23d 1812 b93d dffd 9abd 443a b53d
00000240: d93a afbd 1f6e 83bd 1606 103d 94d8 8f3c
00000250: 8b32 a43d bbec 71bd f5e8 89bb aac7 083d
00000260: ce40 80bd 8741 b2bc dc96 123d 8df5 8e3d
00000270: 3fb4 70bc b8b9 21bd 7e3b 6ebc 7c4a a93c
00000280: 1497 2e3b ec20 4d3c eddf 143d bf7f 62bd
00000290: bf85 81bd 7eb8 663d d12a 66bd 880e 85bd
000002a0: 3376 d3bd dbda b73d adec 03bd 21c2 a3bd
000002b0: ca57 babc d116 78bd a292 a5bc ac85 a33d
000002c0: 3f82 4cbc 505e 373d 8d52 883d 07d2 973d
000002d0: 921d 823d 9d73 c0bd 60e3 edbb 22b5 ad3c
000002e0: a60b d4bd aa24 e6bc dae2 a23d 1372 8abd
000002f0: 6e02 553d 222f 843d c379 523d f1cb 353d
00000300: 432d 3ebd b10d 72bd 0ec2 ce3c 7481 b23b
00000310: fa61 45bd 69f6 2d3d dea8 4abb 2ddd 0c3d
00000320: 5a7f ef3c 25a9 38bc d264 993d 7253 99bd
00000330: 894d 07bd 1e91 a93c 4dc8 543d 9145 323b
00000340: de57 693b 04f8 ba3d 165f b13d bff8 b6bd
00000350: 818c 7dbd 7ae8 1abd c38a 0dbd 3fe9 a6bd
00000360: 26d3 90bd c2ce 52bd e883 0b3c e91c 773d
00000370: 01dd 2abd 1e87 c03d 3d32 21bd 6cfd e13b
00000380: b0e5 c43d 28a3 143d 57cd 39bd 2991 223d
00000390: d70d 843c 9cc6 ba3b 288b c73d 1778 e8bc
000003a0: f92d 803d 3fa4 343d 0602 90bd abb1 163d
000003b0: 9087 893a c4fe b53d 0aa6 6d39 c2ff 903a
000003c0: 575a 34bd 95dc a6bd 7548 6a3d f0c9 213d
000003d0: 056e 853d e5a9 cebd 9dd9 983d 3033 b0bd
000003e0: 6e68 05bd 116d 903a a5fa 35bd d3d8 1bbd
000003f0: 5759 763d faf3 a2bc 6718 083c 33cb af3d
-0.037864815 -0.010708012 0.046687003 0.015627021 0.03099974 -0.041279055 -0.08899844 -0.030925995
0.05874423 0.044120375 -0.034047876 -0.05245537 -0.09844214 -0.049438924 -0.019637307 0.05483591
0.078425646 -0.05754605 -0.09358637 -0.110549204 -0.021326954 0.050810408 0.08102059 0.09742453
-0.037099805 0.024464902 0.06695277 0.03675951 0.045599118 0.10204598 -0.017022703 -0.08401668
-0.043781873 -0.027397294 -0.024332639 -0.057800826 -0.0034882347 -0.062147845 -0.033861928 0.07254067
0.094914354 0.041336935 -0.041875858 0.07063454 -0.010599656 -0.010120346 -0.03777839 -0.0739022
0.048339166 0.07052621 -0.010448556 0.045089908 -0.07836031 -0.03833394 0.07877768 0.06659418
0.034172624 -0.07617637 0.072760396 0.048074476 0.050582953 0.031813182 -0.090883814 -0.117955394
0.045919474 0.032926206 0.0060626767 -0.060881868 0.09673107 0.09785857 -0.08088526 0.056946203
0.004576947 0.077570595 -0.08280014 -0.0074919383 0.021624278 -0.059806008 -0.042596474 -0.06999199
0.025998566 -0.08872782 -0.05710802 0.032539506 0.02416881 -0.016109206 -0.089596495 -0.055855226
-0.0748264 -0.098468564 -0.08298928 -0.0061404454 -0.07846713 -0.060673133 -0.078978516 0.017904883
-0.067656845 0.019756494 -0.026638212 0.013724102 0.0597711 0.082477055 0.04537347 -0.026805239
0.094684556 0.042656615 0.07877441 -0.07916827 0.0074989633 -0.005900651 0.04470907 -0.016571911
0.08441107 0.07517934 0.07274202 -0.045678735 -0.09244887 -0.050851256 0.021356983 0.020743897
-0.026775708 -0.045887116 -0.08736659 -0.03228001 -0.0060909963 -0.008484173 0.10900305 0.040371742
0.010110524 -0.087693505 -0.051899675 -0.003773999 0.00298406 0.09220054 0.0477208 -0.012899033
0.023919024 -0.0245698 -0.0855651 -0.030264635 0.10284311 0.09036654 -0.07567953 0.08849004
-0.08556146 -0.06417488 0.035162054 0.017559327 0.08017453 -0.059063654 -0.004208679 0.03339354
-0.062623605 -0.021759761 0.035788402 0.06980429 -0.0146914115 -0.039483756 -0.014540551 0.0206654
0.0026640343 0.012520056 0.036346365 -0.05529761 -0.06324338 0.05632829 -0.056193177 -0.06496912
-0.10325279 0.0897729 -0.032208133 -0.079960115 -0.02274694 -0.060568634 -0.020211522 0.0798448
-0.012482225 0.044767678 0.0665637 0.074131064 0.06353296 -0.093970515 -0.007259771 0.021204535
-0.10353784 -0.028093655 0.07953425 -0.06760039 0.05200427 0.06454302 0.051385652 0.044383947
-0.046429884 -0.05909509 0.025239017 0.005447561 -0.04818914 0.042471323 -0.0030923407 0.034390617
0.02923553 -0.011270796 0.07489933 -0.07486619 -0.033032928 0.02069908 0.051948834 0.002720211
0.0035605351 0.091293365 0.08660714 -0.08934163 -0.061901573 -0.037819363 -0.03455616 -0.08149957
-0.07071523 -0.05146671 0.008515336 0.060330305 -0.041714672 0.094007716 -0.03935455 0.0068966653
0.09614122 0.03628841 -0.045361843 0.039689217 0.01611988 0.0056999456 0.09743339 -0.028377576
0.062587686 0.04410195 -0.07031636 0.03679053 0.0010492671 0.08886483 0.00022663936 0.001106255
-0.044031467 -0.081475414 0.057198007 0.039499223 0.06515125 -0.100909986 0.074633814 -0.08603513
-0.032570295 0.0011018832 -0.044428486 -0.038048577 0.060143795 -0.019891728 0.008306599 0.08583679

conv2.bias f4 [64]
00000000: 36da a33d 18d8 343d ec09 8fbc 2aa6 133d
00000010: c1e9 bdbd 5821 0d3d 18e4 8b3d e636 49bd
00000020: b48d 953d 06c5 91bd 67a5 47bc 5d9c cf3b
00000030: 6578 4cbd 6a10 a03a 702d 93bd efa0 7dbd
00000040: 4f9d cfbd ebca 553d a72b 5fbd ac27 3b3d
00000050: 4360 3a3d 1e14 623d 5771 2a3d b5c0 353c
00000060: cbf2 b3bd 73c7 aa3c 3c3f 43bd 3b6e 77bc
00000070: ca42 a6bd 4fc0 083d 5ae6 1abc 9ee4 a2bc
00000080: 76f3 143d 3735 b43d 2804 973c d4d9 dfbc
00000090: fe48 9fbd 24ee 96bd fe67 b1bd 3967 3a3d
000000a0: 39bc cd3d f0b1 e1bc 3513 08bd cf63 34bc
000000b0: 4c01 a33d 40ae 49bd a61b 89bd b9d1 393d
000000c0: 22b0 50bd 8c8a 543d e5f3 b9bd ffce 4abc
000000d0: 1539 cfbd 4aa4 85bd 2809 c53d 8779 d0bd
000000e0: 9d46 c73d db8f 5a3d 3ef3 7abd f9f9 0aba
000000f0: 6bc1 373d 0ac2 ca3d f99e 923c c78c a23c
0.08000605 0.044151396 -0.017460786 0.03604714 -0.09273101 0.034455627 0.06830615 -0.04912462
0.07302418 -0.07117657 -0.012185431 0.0063357786 -0.049919505 0.0012211923 -0.07186401 -0.061921056
-0.10137426 0.05219547 -0.05448499 0.04569213 0.04550196 0.055194966 0.041611996 0.011093308
-0.087865435 0.020847058 -0.047667727 -0.015101965 -0.08118208 0.033386525 -0.009454334 -0.019884404
0.036364995 0.087992124 0.018434599 -0.027325548 -0.07777594 -0.073696405 -0.08662413 0.045508597
0.10045666 -0.027550668 -0.033221442 -0.011010124 0.07959232 -0.049238443 -0.06694727 0.045366023
-0.050949223 0.05188994 -0.09079722 -0.012378453 -0.101183094 -0.06525476 0.09620887 -0.101794295
0.09730265 0.053359848 -0.06126713 -0.0005301531 0.044862192 0.09900291 0.01789807 0.019842518

bn2.weight f4 [64]
00000000: 4247 803f b79a 7f3f 9861 803f 6cc0 7e3f
00000010: 0019 7e3f 0c23 813f d57d 823f 2066 813f
00000020: 0871 7e3f 1141 7f3f 11aa 7a3f 95fc 7e3f
00000030: d583 7f3f 2488 803f 4948 813f 7fb4 7f3f
00000040: 77f5 7f3f ab13 803f 1be3 7f3f e542 803f
00000050: d685 803f 11a6 813f 0866 7f3f 669c 7f3f
00000060: 41ee 803f 2027 803f 2b51 7f3f de6e 803f
00000070: e94e 7f3f 5883 7d3f 4def 7e3f af8c 7f3f
00000080: 1a59 813f 7aa1 803f 81ff 7e3f aaec 7e3f
00000090: 9cd8 7e3f da09 813f 5c28 7f3f a7a2 7d3f
000000a0: 7455 803f d473 7d3f d357 7d3f 0550 803f
000000b0: 5b55 7d3f 3b89 7f3f f91b 813f d809 803f
000000c0: c313 803f bfe7 7e3f f0e0 803f a595 7e3f
000000d0: 6dfc 7e3f c338 803f 4b88 803f 15fb 7d3f
000000e0: af90 813f b306 803f 3406 813f a0b1 7f3f
000000f0: be94 7e3f 37c6 7f3f c645 813f fcc4 803f
1.0021746 0.9984545 1.0029783 0.9951236 0.99256897 1.008882 1.0194651 1.0109291
0.9939122 0.9970866 0.9791575 0.9960416 0.99810535 1.0041547 1.0100185 0.9988479
0.99983925 1.0006002 0.9995591 1.0020415 1.0040843 1.0128804 0.9976506 0.9984802
1.0072709 1.001194 0.9973323 1.0033834 0.9972978 0.9902854 0.99583894 0.9982404
1.0105317 1.0049279 0.9960862 0.9957987 0.9954927 1.0081131 0.9967096 0.9907631
1.0026078 0.99004865 0.98962134 1.002442 0.9895837 0.9981877 1.0086662 1.0003004
1.0006031 0.99572366 1.0068645 0.9944709 0.9960392 1.0017322 1.0041593 0.99211246
1.0122279 1.0002044 1.0080018 0.9988041 0.9944571 0.99911827 1.0099418 1.0060115

bn2.bias f4 [64]
00000000: b46e a1bb 6be0 8fbb ea09 1e3c d0f1 95bc
00000010: ca81 c73b 4641 973b 543f 223c 0868 d33b
00000020: c827 a9bc 41bf 0e3c aba0 12bc 2fd0 52bb
00000030: aa87 e6ba 4ddf 79ba 6e89 033c 444c 11bb
00000040: a101 19bc c383 06bc d7f9 303a 1d95 41bb
00000050: 9f26 b03b 8d95 29bc 65f3 48bb 030a 3e3b
00000060: 6421 f3b9 26bf b2bb 7d92 cebb 09dd 7839
00000070: 8f31 1ebb 969e 683b 1acb 6aba c284 c03a
00000080: 7536 26bb dd6d 01bc 9140 0cbc d5ae c93a
00000090: 3d56 84bc e09d 3c3c 3a50 58bc 6bee 88bc
000000a0: 29e5 673b b6b6 adba 8a78 8abc cec4 8a3a
000000b0: 1759 65bc 0ecc 193b 661c 283c cba3 e839
000000c0: fea9 1abc 94c4 bd3b 5660 9039 30e5 77bc
000000d0: 0d45 57ba db8b acbb c0ce 813b 52a3 6a3a
000000e0: 81aa e0bb a2e3 33bc 58de cbbb b84e e7bb
000000f0: 9c6d c23b 73bf 613c 6cd0 473c dfc9 1a3c
-0.004926527 -0.0043907664 0.009645918 -0.018303782 0.00608847 0.0046159355 0.009902794 0.0064516105
-0.020648852 0.008712591 -0.008949439 -0.0032167544 -0.0017588038 -0.00095318706 0.008028371 -0.0022170702
-0.009338767 -0.008210125 0.0006751096 -0.0029538341 0.0053756977 -0.010350597 -0.0030662653 0.0028997667
-0.0004637345 -0.0054549156 -0.006304084 0.00023733465 -0.0024138426 0.0035494915 -0.0008956656 0.0014688002
-0.0025362049 -0.007899729 -0.008560316 0.0015387187 -0.016154403 0.01151225 -0.013202721 -0.016715249
0.0035384393 -0.0013253305 -0.01690318 0.0010587217 -0.013998291 0.0023467573 0.010260677 0.00044372524
-0.009439943 0.005791256 0.00027537596 -0.015130326 -0.00082118885 -0.0052656955 0.003961414 0.0008950728
-0.006856263 -0.010979565 -0.006221574 -0.0070589446 0.0059334766 0.013778555 0.012195688 0.009447544

bn2.running_mean f4 [64]
00000000: fd49 c4be 6c02 603e 3d7e 25bd d205 6e3d
00000010: 1be8 493f 1e9d 11be 4ec6 24be a69a 0ebf
00000020: d934 10bf f75a 403e f1fb 923d d3fb afbe
00000030: 4d73 3ebe 2ba1 b1be 830e 21bf 77f5 a03e
00000040: 31ef f73e 57c9 8b3e c660 e1be c27e 333d
00000050: ba8b d8be baa3 c3be fa4b cabe bc6d e33d
00000060: 6d61 4dbe e4bc 083f b233 59be e2e1 31bf
00000070: 83e6 563d a9a6 71be c8d6 ea3d 99a8 a2be
00000080: 6952 6c3e c72a 923e b34a 2f3f feee 81be
00000090: 8763 6bbe 8677 c9be b7bb 9b3e 67ee 3f3f
000000a0: 82a4 06bf fe66 183f 47cc f5be 88c2 97bd
000000b0: c9ba a43e 725d 16bf 43bd 86be dcd7 37be
000000c0: 00d1 f6bd c06b 0e3e 80b4 c0be 6d72 813d
000000d0: fdc4 9f3d 9862 94be 49fd f53e c9ea c6be
000000e0: 4384 e03d 2112 95bd 16c7 2abe b862 b3be
000000f0: a0cb 2ebe a9b3 85bc 791d cc3e 1477 ce3e
-0.383377 0.21875924 -0.040403593 0.05811102 0.7886979 -0.14220092 -0.16091272 -0.55704725
-0.5633064 0.187847 0.0717696 -0.34371814 -0.18598671 -0.34693274 -0.6291277 0.31437275
0.48424676 0.27302048 -0.44019145 0.043822058 -0.42294103 -0.3821085 -0.3951109 0.111049145
-0.20056696 0.53413224 -0.21211126 -0.69485295 0.052465927 -0.23598732 0.114667475 -0.31769255
0.23078312 0.28548262 0.68473357 -0.2537765 -0.22987185 -0.39349002 0.30416653 0.7497315
-0.5259477 0.59532154 -0.48007414 -0.07410151 0.32173756 -0.58736336 -0.2631627 -0.17953438
-0.12051582 0.13908291 -0.3763771 0.06320653 0.078012444 -0.2898147 0.48044804 -0.38851002
0.10962727 -0.072788484 -0.16677508 -0.35036254 -0.17069864 -0.01632102 0.39866236 0.40325224

bn2.running_var f4 [64]
00000000: f318 1c3e 73c9 fe3d eff2 463e 9c87 503e
00000010: 63c7 d13e 4725 b03d f052 fd3d 078d 393e
00000020: 3138 4b3e d044 2e3e 36b1 ef3e e6dc 953d
00000030: 457f 0c3e d2e9 613e dd97 fd3d b688 363e
00000040: 66b8 703e 8835 0e3e 414a f63d ebaf 3c3e
00000050: 96ec 3e3e a3f0 2a3e 5b7c 293e 050d f33d
00000060: ac5a 283e 7e54 483e 92a8 4b3e 5a78 633e
00000070: 24c5 c93d 399c f53d c29a 1a3e 5753 1c3e
00000080: 326b e53d 6677 f33d 325d 143e 350a e03d
00000090: a9e3 263e 9754 f13d b186 a33e 95be 703e
000000a0: 2027 3b3e 10cb 183e 1d6e f33d 2f69 e33d
000000b0: 82ef 933d 1cb8 d43d 0858 be3d a6e1 fb3d
000000c0: 7e84 b33d 567b 2d3e 26b4 b03d 1ae1 d33d
000000d0: 5bad 253e 8edb 393e 4b82 f23d cf5d 483e
000000e0: 11b1 073e f253 893e 5560 c73d 5ab0 6f3e
000000f0: 1aa2 073e 029a 343e 34ff 223e bbce bd3e
0.15243892 0.12440767 0.1942861 0.20364231 0.40972432 0.0860086 0.12369335 0.18120204
0.19845654 0.17018437 0.4681489 0.07317524 0.13720424 0.22061852 0.12382481 0.17825589
0.23507842 0.13887608 0.120258816 0.18426482 0.18644938 0.16693358 0.16551344 0.11867718
0.16440839 0.19563481 0.19888523 0.22213879 0.09852055 0.11992688 0.15098098 0.15266167
0.112020865 0.11888008 0.14488676 0.10939447 0.16297783 0.11783712 0.319387 0.23510201
0.18276644 0.14921212 0.11886237 0.111040466 0.07223417 0.103866786 0.092941344 0.122988984
0.08765505 0.1694158 0.086281106 0.10345669 0.16179411 0.1815016 0.11841258 0.19567035
0.13251139 0.26821858 0.09735171 0.23407117 0.1324543 0.17636874 0.15917665 0.37071785

conv3.weight f4 [32, 64, 3]
00000000: 8cda 98bc 403c 27bd cd9d ebbc 8b99 dcbc
00000010: f202 113d 301c 293c f8c2 423d ed7e 8e3d
00000020: b022 5abd 6ec5 7dbd dc2d 3c3c a77f 9fbc
00000030: 1b1f 5f3d 9703 8cbc 3f3b 1abd 5dde 05bc
00000040: 2130 213d 07bc c3bc 3364 593d 3bb9 933c
00000050: b8e1 8ebc d9c3 7cbd a5ec 0e3d 335c 68bd
00000060: 439b bfbc d430 1b3d ac3b 8ebd a05f 2d3c
00000070: a39c 53bc f3fd 28bd 002f cd3b 6ac8 8cbd
00000080: 144e 273d f5ca 853d 37d4 1f3b 4b1b 473d
00000090: 3f54 92bd ca1a e73c 1800 4d3d a6d1 243c
000000a0: b041 24bd 3ce5 5f3d 15ec 693b efac 22bd
000000b0: 6310 213d 575f bc3c 15d7 28bd b9ef 34bd
000000c0: da84 f5bc 8f42 143d 02d1 b23c 3371 7cbd
000000d0: 3a27 073c 7b60 7c3c 60ab aeba ab53 463c
000000e0: 003c 073d 2c05 2d3d 6fc8 653d bb31 d2bc
000000f0: cc51 42bd f3f3 393d d837 8c3d 8f78 9a3d
00000100: e3b7 60bd a907 093d 9102 1d3d ba4a 0ebc
00000110: 6373 ea3c 8c83 0abd c88a 8e3d 9980 d6bc
00000120: 605f 253d 9342 3dbd a1f6 883d 56f9 33bd
00000130: e205 b6bc 75d8 813d 79c1 91bd 6532 663d
00000140: de47 33bd abce 953b 62e0 28bd 4239 803d
00000150: b8cc 133b d460 4ebb b513 2a3d 5700 6b3c
00000160: 944e b4bb 3bc9 22bd c3d0 023d 0ce0 19bd
00000170: 541b ea3c b288 ae3c 9595 53bd 5480 723b
00000180: c6dd 3abd a83e 543d cd0e 88bd bfc3 5cbb
00000190: 0d4e 8abd 3853 21bd 91f2 7ebb 7445 803d
000001a0: ba2d 0bbd 44c5 c1bc d93c 0bbc ec78 8cbd
000001b0: f54d 35bc 16c9 9c3c 635e 83bc f36e 2abd
000001c0: bd7b 233d 6c4a 5a3d 2154 b93c 4264 ca3c
000001d0: ea49 853d facb 0fbd 2167 653d c3e3 38bd
000001e0: 07cc 7b3d d286 90bd 7d20 d1bc 57dd 6f3a
000001f0: ab8f 7ebd 9459 5fbd eebc 6abc 9f9a 8b3c
00000200: 68cb 413d c0ba b43c c236 77bd 329a 2d3b
00000210: ba3f adbb 67c6 9e3c dcf5 81bd 14c4 dcbc
00000220: 0c4c 373b d488 833d 9d70 a5bc 73c6 11bc
00000230: 9793 853d de6d a13d 2e10 81bd 2d10 273c
00000240: 2f13 bb3c d8c5 87bd a165 5ebd ce54 25bd
00000250: 1d5c c83c 365a 57bd cf54 8abd 74ac a13c
00000260: 237d 473d 6cad a23c 7d0a 973d 6027 533d
00000270: dfe6 46bc 9580 083d 6f1e e93c 35b3 8bbd
00000280: 70b0 18bd 6449 ce3c b293 683c 3624 1d3c
00000290: 9c94 73bc 75bf 3b3d de56 47bd 3de8 52bd
000002a0: 68e2 443d d760 80bd 6763 cd3c d740 643d
000002b0: c871 83bd baba f1bc 6a14 6c3d 534e 663d
000002c0: 4977 38bd dc7f 9e3c ad0c 2dbb 5448 d3bc
000002d0: 41c7 1ebd 4667 a23d 12d4 2e3d 5a87 35bc
000002e0: 2f7a 8bbc a1b3 d23c 1966 8ebd be49 a7bc
000002f0: aa0a 4bbd 3bf8 fc3a 05bb 7f3d 236f 58bc
00000300: 81b4 083d 107d 6d3d 9af8 e7bc a31a 13bd
00000310: e626 e4bc 626b 4fbd 5de2 7dbd 62fd 493d
00000320: 8b1b 79bd 1245 efbc c15d 81bd dd15 63bc
00000330: b486 113d 1269 cdbc 85ec fbbc 0c9c 8e3d
00000340: bc48 f9bc fd44 75bb 66f2 cf3c f5f7 443d
00000350: a9b0 903d 810d 7b3c fa69 a0bd bda4 3cbb
00000360: cedc 93bd 5c19 b73c 6982 a93c 9e7a ec3c
00000370: 05e2 3a3d 3d79 003d fb09 2ebb 9a55 8d3c
00000380: dbee 203d cad0 2a3d 520e d1bc 38cf 3c3c
00000390: 5a02 39ba 7cb1 9d3c 1c8d 2ebd 345f 0f3d
000003a0: efef 71bd 6d4f 983c 679d 27bd 074d 8c3d
000003b0: 09db 4aba 8ddb bebb 87f9 953d 0917 013d
000003c0: 27be 12bd cd35 893c 5009 8b3c d0b1 ea3b
000003d0: b7fc 8c3d 54ff 4ebd 234d 773d 866d 7d3d
000003e0: 13dc 673d ff96 28bd 976b 3d3d 2481 923a
000003f0: 8900 223d 4729 86bc 3b1b 86bd 8347 473d
-0.018658899 -0.040828943 -0.028761769 -0.026928684 0.0354032 0.010321662 0.047549218 0.06957803
-0.053255737 -0.06195586 0.011485543 -0.019470049 0.054473024 -0.017091556 -0.037654158 -0.008170691
0.03935254 -0.02389337 0.053074073 0.01803266 -0.017441615 -0.061710212 0.03489365 -0.056728553
-0.023389464 0.037888363 -0.06944975 0.010581881 -0.012915763 -0.04125781 0.0062617064 -0.068741634
0.040845945 0.065328516 0.0024387965 0.048610013 -0.07144975 0.028211016 0.050048918 0.01005975
-0.040101707 0.054661974 0.0035693694 -0.039715704 0.03932227 0.02299468 -0.041220743 -0.04417393
-0.029970575 0.036196288 0.021828178 -0.061631393 0.008249098 0.015403862 -0.001332622 0.012104909
0.033016205 0.04224126 0.05609935 -0.025658479 -0.04744129 0.045398664 0.06846589 0.07542526
-0.054862868 0.03345457 0.038332526 -0.008684808 0.028619474 -0.03381686 0.06960064 -0.026184367
0.04037416 -0.04620607 0.06687666 -0.043938957 -0.022219602 0.06340114 -0.0711698 0.056200404
-0.04376971 0.004571756 -0.041229613 0.06260921 0.0022552442 -0.003149082 0.0415227 0.014343343
-0.0055025313 -0.03974269 0.031937372 -0.037567183 0.028577484 0.021305416 -0.051656324 0.003700276
-0.045621656 0.051817566 -0.06643448 -0.003368601 -0.06753168 -0.039386004 -0.0038901905 0.06263247
-0.033979155 -0.023653634 -0.008498394 -0.068590015 -0.01106595 0.019138854 -0.016036218 -0.041609716
0.039912928 0.05329363 0.022623124 0.02470601 0.065082386 -0.035106637 0.056006555 -0.045139086
0.061473873 -0.07056965 -0.025528187 0.00091501087 -0.06214873 -0.054528788 -0.014327271 0.017041503
0.047313124 0.022061706 -0.060354955 0.0026489613 -0.005287138 0.019381715 -0.06345722 -0.026948966
0.0027968911 0.06422582 -0.0201953 -0.008897412 0.06522291 0.07882284 -0.06301914 0.010196728
0.022836296 -0.066295326 -0.05429614 -0.04036408 0.024457986 -0.052576266 -0.06754457 0.019735552
0.048703324 0.019858085 0.07375047 0.051551223 -0.012140005 0.03332575 0.028456895 -0.068212904
-0.03727764 0.02518148 0.01419537 0.009591153 -0.014866974 0.045836885 -0.048666827 -0.05149101
0.04806748 -0.06268471 0.025071813 0.0557259 -0.064181864 -0.029507983 0.057636656 0.05622704
-0.045035634 0.019348077 -0.002640526 -0.025791325 -0.038764242 0.07929854 0.042682715 -0.011079634
-0.017026035 0.02572042 -0.06953067 -0.020420905 -0.049570717 0.0019300053 0.062434215 -0.013210091
0.033375267 0.057980597 -0.028316785 -0.035914075 -0.02785058 -0.050639518 -0.061983455 0.04931391
-0.060817283 -0.02920774 -0.0631671 -0.013860193 0.035528854 -0.025074515 -0.03075243 0.06963357
-0.03043019 -0.0037425153 0.02538414 0.048088033 0.07064945 0.015323044 -0.078327134 -0.0028784715
-0.072198495 0.02235096 0.020692067 0.028867062 0.045625705 0.03136562 -0.0026556242 0.017252732
0.03929029 0.041703023 -0.025519524 0.011524014 -0.00070575404 0.01924967 -0.04261504 0.035002902
-0.05906671 0.01859256 -0.040921595 0.06850629 -0.0007738327 -0.0058245123 0.07322984 0.03151611
-0.035825875 0.016749287 0.016972214 0.00716231 0.06884139 -0.05053647 0.060376298 0.061872028
0.056606364 -0.041159626 0.046245184 0.0011177403 0.03955129 -0.016377104 -0.065481625 0.048652183

conv3.bias f4 [32]
00000000: 93d0 55bd 9b25 893d cc85 d73c 4f69 09bd
00000010: ada4 4ebd c91f 03bc 3672 84bd 0526 7cbd
00000020: 9759 873b 70e1 fabc 4a4a 34bd 9770 673c
00000030: e815 e33c 9145 5f3d bca4 92bd dbfa 5f3c
00000040: 91e5 b8bc a5e0 163c ec2c d3bc ad83 3a3d
00000050: 5306 803b 6076 853d 67c0 3abd 6240 18bd
00000060: a927 89bc 3a20 adbc 6ffa f73c 7668 6bbc
00000070: 2cc0 20bd 6baa 86bc 08b9 c9bc 2b38 233d
-0.052200865 0.06696626 0.026308917 -0.033547696 -0.050450016 -0.008003184 -0.064670965 -0.061559696
0.004130553 -0.030625075 -0.04401616 0.014125965 0.027720407 0.054509703 -0.07160327 0.013670648
-0.022570403 0.009208833 -0.025778256 0.045535732 0.003907004 0.06516719 -0.045593645 -0.037170775
-0.016742544 -0.02113353 0.030270783 -0.014368167 -0.03924577 -0.016438683 -0.024624363 0.039848488

bn3.weight f4 [32]
00000000: 4dd9 813f 3e6c 803f 3cda 813f 335f 813f
00000010: 1a4e 803f a32e 833f 300b 813f 243b 813f
00000020: f73b 813f a972 813f 056f 833f bd1d 823f
00000030: 1f24 813f b4c9 813f 52e9 813f caa7 813f
00000040: 51a8 813f f46c 823f 4176 813f 879e 813f
00000050: df91 823f 3852 813f 545f 7e3f 9344 823f
00000060: 4887 823f ec20 833f 0e78 803f c67f 803f
00000070: b8d0 813f c842 843f e029 823f 1feb 813f
1.014444 1.0033033 1.0144725 1.0107177 1.0023835 1.0248607 1.0081539 1.0096173
1.0096425 1.0113117 1.0268255 1.0165325 1.0089148 1.013968 1.0149329 1.012933
1.0129491 1.01895 1.0114213 1.0126504 1.0200766 1.0103216 0.9936421 1.0177177
1.0197535 1.0244422 1.0036638 1.0038993 1.0141821 1.033288 1.0169029 1.0149878

bn3.bias f4 [32]
00000000: 666d 2a3c 5b57 72bb a253 513b 022c 3d3c
00000010: 38a6 243b ce7d dc3b f946 bd3b d991 bbbb
00000020: 4cc9 1dbb 0aef a8ba 4df4 823c 8073 2e3b
00000030: b2bf cf3b d3b7 223c b37d 163b 5c0d 1439
00000040: 9a49 da3b b4c4 4cba 7fa4 2fbb ba72 53ba
00000050: 1f59 03bc 6e33 b23b 71d4 67bc 223d 533b
00000060: 153e ba3b ed0a e93b 355a 38bb 20c0 c7b9
00000070: 697d 83bb 51ee 443c d610 873b fd58 993b
0.010402059 -0.0036978337 0.0031940718 0.011546137 0.0025123488 0.0067288643 0.005776283 -0.0057241735
-0.002407628 -0.0012888622 0.015985632 0.0026619136 0.0063399905 0.009931522 0.0022963106 0.00014119357
0.006661606 -0.00078112935 -0.0026800928 -0.0008066107 -0.008016854 0.00543826 -0.014149771 0.0032232483
0.0056836703 0.007111898 -0.002812994 -0.00038099382 -0.004012753 0.01201971 0.00412188 0.0046797977

bn3.running_mean f4 [32]
00000000: 15cc 38be 5ee8 1e3f 1d2c b23e bcd5 debd
00000010: 7d4e a23e acea 9e3c 7e23 f1bd 1cab b93c
00000020: 6df8 d9be 7b23 54be 0e95 9dbd 0178 873e
00000030: c991 e0be 6787 7a3e 9e88 a0bd 04db 1ebe
00000040: f412 47bd 24da 9b3d 18d9 2ebd 410b 663e
00000050: 5ac1 00be 75b9 4dbe 6b49 b0be e4f4 42bb
00000060: 1405 87bd b404 ea3e 865e 9fbe 2afa d93d
00000070: 9b12 e93e 86c7 17be 05f9 a9bd 1ffc 2b3f
-0.18046601 0.62073314 0.3479928 -0.1088061 0.31700507 0.01939901 -0.11774348 0.0226646
-0.42572346 -0.2071666 -0.076944456 0.26458743 -0.43861225 0.24465714 -0.07838558 -0.15513235
-0.04860206 0.076099664 -0.042687505 0.2246523 -0.12573758 -0.20090277 -0.34431013 -0.0029748017
-0.065927655 0.45706713 -0.31126803 0.10643418 0.45522007 -0.14822206 -0.0829945 0.6718158

bn3.running_var f4 [32]
00000000: 1ec4 c73d 70b7 793e d57d e13d 5c7a 703e
00000010: eded 693e 23c0 173e 4942 263e 1637 283e
00000020: 1233 113e 5367 583e 2536 0c3e 93e5 0e3e
00000030: 5b4e 423e cd0e 4f3e 72c3 dc3d a486 153e
00000040: 5049 6a3e 643e 013e 2931 023e 8f6b f33d
00000050: 7da0 203e c39c 973e b849 313e 6c0f 213e
00000060: e142 093e 9fb1 cd3d 48d0 e03d 92a0 283e
00000070: 30a3 743e a2a2 263e 0a17 0c3e 969f fa3d
0.09754203 0.24386382 0.11010329 0.23484176 0.22844668 0.14819388 0.16236223 0.16427264
0.14179638 0.21133165 0.1369253 0.13954763 0.18975203 0.2022049 0.10779466 0.14602143
0.22879529 0.12621456 0.12714066 0.118857495 0.15686221 0.29611787 0.17313278 0.15728539
0.13404419 0.10043644 0.109772265 0.16467503 0.23890376 0.16272977 0.13680664 0.1223747

fc1.weight f4 [4, 512]
00000000: 350c f03c 470f 8e3c bd6a b5bc 0ef8 d3bc
00000010: ce3c 1cbd 178d 20bd 4654 3fbc d058 573d
00000020: 28fb 0bbd 9e33 c43c 6aab 443d a288 bc3c
00000030: daf3 4cbd 94e4 d73b cb69 093d 6dc8 dcbc
00000040: d1bc e6bc a2a0 c73a e282 37bb f765 73bd
00000050: 469c 9cbc b732 ffbc 6b5f d0bc 1729 c7bc
00000060: f585 34bd ff37 b1bc a36d aa3c f826 e2bc
00000070: 50d6 333d 6d26 7d3c 1be3 9ebc 3624 3cbd
00000080: 2e6a d5bc 8f32 79bd 41f7 793d fb11 843c
00000090: 225a bf3c 1c55 393d f9e6 ebbc 4157 45bb
000000a0: 41cc 353d d33b bd3c f982 94bc 351f 7d3d
000000b0: 95a1 4a3d 72b3 113d ed8e 1a3d 81dc 893c
000000c0: a129 9dbb 1c7f bb3c 857c 153d d95b a13c
000000d0: 2d06 543d 2555 2a3d e75a 04bd cb00 943c
000000e0: 9b06 ac3c 7b24 943c e370 183c e271 793a
000000f0: fbbb 443b 4604 34bd b9b9 583d eaa3 b13c
00000100: 1e57 593c 83d8 7ebc 1633 7cbc c5f3 d93c
00000110: 0ad0 de3c d203 ec3c c875 22bd cb71 debc
00000120: fc66 31bd c06e acbc 9e85 523d 5d83 69bc
00000130: 904d fcbc 9b57 95bc 9d66 f3bb 64f7 663c
00000140: 4e54 57bd f8e2 c9bc 6f24 cb3c 690b d93c
00000150: 4ac7 273d 5a92 57bc 1d5d cabc 570e 353d
00000160: b7a6 84bb 6fa5 97bb f7ee 9abc f510 f5bc
00000170: f209 5abc f621 373d 2e2a 233d 39ba 43bc
00000180: 35d0 07bd b968 a23c d3d1 82bc 924e 89bc
00000190: c249 40bc 194d debc e314 e8bc 5b33 f2bc
000001a0: e9d0 febc 9199 90b9 c69a a13b 35eb 503d
000001b0: 3ea9 1b3d f866 fb3c d17a 42bd 4d6e 39bd
000001c0: b687 e03c 1d47 ab3b 550f 13bd 37a8 e2bc
000001d0: 32fa 493c d23e eb3a 7d0f 2cbc f346 b53b
000001e0: 1c1b 2fbd f2b0 76bc cba0 cf3c 2975 1b3d
000001f0: 8620 973c 6f55 a4bc 04f5 c8bc f4ee f93c
00000200: 0f60 11bd f0e5 3cbc 5111 09bd e5f2 1fbc
00000210: 4684 9f3b 284e d63c f17a 053d c6db fe3c
00000220: 8294 bdbc 1449 56bc 2b3e 2c3b 1094 bf3c
00000230: 78f5 cdbc 4fbe 023d bdb4 253d 5407 463c
00000240: 8ffd 3e3b c6b8 a93b 86e5 41bc b226 df3c
00000250: 9dac e73c 3c55 13bd ab1f 2abd 18fc 16bd
00000260: fc2e f9bb 2804 edbc d3fd b6bc 1c34 a83c
00000270: ca82 153d 16e1 693c 5d6e 3d3c f163 97bc
00000280: 7843 c8bc a552 1ebd e1c6 65bd 8d88 9e3c
00000290: 2fdb 2f3b 4458 343d fe5f 563c 5704 a5bb
000002a0: 5d63 ecbc ffe9 fb3c 22eb 3e3d 6428 8bba
000002b0: c7b5 493d 96ed 803c 52da 043c 9f14 163d
000002c0: 72a0 82bb 9734 7a3b acb1 44bd 0414 363d
000002d0: fd8c 82bc 4c33 853b 6751 483d 4072 823c
000002e0: b076 ec3c 2512 723c f8ef b43b 4c97 f5bb
000002f0: cce8 86bc b4f6 00bd 348d ef3c f59d ddbc
00000300: fe62 69bc a9a4 ee3b a586 19bd 5ebb 47bc
00000310: 9aa7 ac3c 0a65 fe3b f487 ecbc e679 aa3c
00000320: 718d 4d3d 97d6 29bc a178 a03c 6163 453b
00000330: 119f 213d 3321 f83c 2948 8cbc 2e46 8e3c
00000340: 15f9 68bb 5e86 1d3c 6574 1c3b b962 cfba
00000350: e042 8fbb 3677 cc3c 0057 b43c 3378 e7bc
00000360: 1bf7 93bc f654 13bd ca23 86bc c602 433d
00000370: 067c 303c b3fa 2a3d b6bd a3bc d643 b0bc
00000380: ced4 653c 63df 7abd 11a5 18bd 96b6 2bbd
00000390: deb7 1fbd aec8 30bd bbb1 a7ba 244e aebc
000003a0: 384c 39bb e347 a13c ddf5 fdbc 1220 b4bb
000003b0: 1920 fa3b 230d 45bd 46df 3c3d ef64 f9bc
000003c0: b5d5 41bd 2ed9 053b 9015 3f3c 8b35 7dbc
000003d0: 01f1 883c a0d0 94bc 0dc6 193c a929 98bb
000003e0: 35b2 d5bb 39fb ccbc d6d0 aeba d45c 0d3d
000003f0: a5c5 a83c d80c 6d3d 2282 1a3c 90bb 96bc
0.029302696 0.01734127 -0.022145623 -0.025875118 -0.038143925 -0.039197054 -0.011677807 0.052574933
-0.03417507 0.023950394 0.048015036 0.02301437 -0.050037242 0.006588528 0.033548158 -0.02695104
-0.028166207 0.0015230367 -0.0028001596 -0.059423413 -0.019117486 -0.031152112 -0.025436124 -0.024311585
-0.044073064 -0.021633146 0.020804232 -0.027606472 0.043905556 0.015451056 -0.019395402 -0.04593297
-0.026051607 -0.060839232 0.061026815 0.016121855 0.023358408 0.045247182 -0.02879666 -0.0030111822
0.044384245 0.023099815 -0.018128859 0.06179734 0.049470503 0.035571523 0.03773396 0.016828777
-0.0047962223 0.022887759 0.036495704 0.019697117 0.051763702 0.041585106 -0.032313254 0.018066784
0.020999243 0.018083801 0.009304258 0.0009515566 0.0030019272 -0.043949388 0.052911494 0.021684606
0.013265399 -0.01555455 -0.015393039 0.026605496 0.02719881 0.028810415 -0.039663106 -0.02715387
-0.043311104 -0.021048903 0.05139696 -0.014252511 -0.030798703 -0.01823025 -0.007428004 0.014097068
-0.052570634 -0.02464436 0.024797646 0.026494699 0.04096154 -0.0131574515 -0.024702603 0.04420313
-0.0040481943 -0.0046278755 -0.018912775 -0.029915312 -0.013308035 0.044710122 0.039835148 -0.011946254
-0.033157546 0.019825326 -0.015969193 -0.016761098 -0.011736335 -0.027136372 -0.028330272 -0.029565504
-0.031105476 -0.00027580236 0.0049317805 0.05100556 0.0380032 0.030688748 -0.047480408 -0.045271207
0.027408462 0.005226983 -0.035903294 -0.027668102 0.012327718 0.0017947799 -0.01050174 0.0055321394
-0.042750463 -0.0150568355 0.025345227 0.03795353 0.018448126 -0.02006027 -0.024530895 0.03050945
-0.035492 -0.011529431 -0.03346378 -0.0097625 0.004868063 0.026160315 0.03258795 0.031110656
-0.023142103 -0.013078947 0.0026282172 0.023386031 -0.025141463 0.031919774 0.04045557 0.012086708
0.0029142832 0.0051794974 -0.011834508 0.027240131 0.02828055 -0.035969958 -0.041534107 -0.03686151
-0.007604478 -0.028932646 -0.02233783 0.02053266 0.036501683 0.014274856 0.011561957 -0.018480273
-0.024446234 -0.038653035 -0.05609787 0.019352222 0.0026833524 0.04402949 0.01308441 -0.0050359177
-0.028855974 0.030751226 0.04661096 -0.0010616896 0.049245622 0.01573829 0.008108692 0.03664076
-0.0039864117 0.0038178319 -0.048021004 0.044452682 -0.01593637 0.004064953 0.048905756 0.01592362
0.028865188 0.014774834 0.0055217706 -0.0074948426 -0.016468428 -0.031485274 0.029242136 -0.027052859
-0.014244793 0.0072828126 -0.037481923 -0.012190668 0.021076012 0.0077635096 -0.028873421 0.020810079
0.050183717 -0.010366104 0.01958877 0.003011905 0.03945834 0.030289268 -0.017124252 0.017367449
-0.0035548855 0.009614555 0.0023873087 -0.0015822268 -0.004371986 0.024959188 0.022014141 -0.028255558
-0.018062165 -0.035969697 -0.016374487 0.047610067 0.010771757 0.04174299 -0.019987922 -0.021516722
0.014027787 -0.061248194 -0.037266795 -0.041922174 -0.03899371 -0.043160133 -0.0012794057 -0.021277495
-0.002827419 0.019687599 -0.031001026 -0.005496987 0.007633221 -0.04810823 0.046111368 -0.030443637
-0.047322948 0.0020423639 0.011662856 -0.01545466 0.016716482 -0.018165886 0.009385598 -0.004643638
-0.006521488 -0.025022136 -0.0013337384 0.034512356 0.020602057 0.057873577 0.00943044 -0.018399984

fc1.bias f4 [4]
00000000: 3307 7439 68ce 23bd 79ca d73c 8a6c 103d
0.00023272335 -0.039991766 0.026341664 0.03525976
