pths/classifier_train.pth (torch, 61572 bytes, 20 tensors)

conv1.weight f4 [32, 1, 3]
00000000: 3895 98bd 4cd4 453e e544 193f cb9d f2bc
00000010: 0130 543e d5c9 043e 1ddb 483d 82bf a63e
00000020: 8bca ea3e 2f03 ab3c 28a0 e73e 07a8 4ebe
00000030: 6ece 5fbd 34c0 0e3f ddad d93e 23ec c83e
00000040: 6699 a7be 3a1b 81be 3242 c33e 1184 90bd
00000050: bcdd 54bd 949b 673e 2da4 97be be3d f43e
00000060: 1723 11bf cdbb 6c3c 82b3 c2bd 8e60 02bf
00000070: 1329 02bf 4a8b e5be 96c5 d4bb 11e3 f4ba
00000080: 9527 b53e 122f c73e a06b 14bf 6931 543d
00000090: 1c2e 01bf c6da e0be 0717 c3bd 50e2 afbd
000000a0: be60 47be 24ec 863e d6e5 d23c 236b 4fbd
000000b0: 8249 17bf 7788 163e 5e90 dfbd 8019 96bd
000000c0: 6cee bd3e fb40 a2be b8e5 11bf 664e c73e
000000d0: ff8d 9cbe 9c2f 12bf 75cc 2fbe c7f2 f7be
000000e0: a05c f0be a3e9 11bf 8188 8a3c 5a8b c53c
000000f0: 9511 dfbe df4c f1be 26f0 e0be 22fc 323d
00000100: b302 01bf 686f 083f 5cb7 9ebe dfb1 1cbf
00000110: 9e92 cdbe 9fdd 013f 9f99 c6be 9667 c93e
00000120: 8428 7e3c 60cb ce3d a64d 743e d50f 8f3e
00000130: c61f ba3e fe47 9abe 968a 333e efac 60be
00000140: e561 863e 2dd8 21be b1e3 2c3e e5fc c33d
00000150: a485 eebe cda6 d2be 3b93 c1bd 3b5a 803d
00000160: 6496 23bf eb8a 89be 62c3 403e 2c98 a13e
00000170: df5c 453d 91f2 bbbe 0c8d 9abe e372 883e
-0.07450336 0.19319266 0.5987075 -0.029616257 0.20721437 0.12967618 0.049037088 0.32567984
0.45857653 0.020875541 0.45239377 -0.20181285 -0.054640226 0.5576203 0.4251546 0.39242658
-0.3273422 -0.25216085 0.3813644 -0.0705644 -0.051969275 0.22617942 -0.29617444 0.47703356
-0.5669417 0.014449072 -0.09506895 -0.5092858 -0.50843924 -0.44832832 -0.0064932806 -0.0018683394
0.3538176 0.389031 -0.5797672 0.051804934 -0.5046098 -0.4391691 -0.095258765 -0.085880876
-0.19470498 0.26352036 0.02574436 -0.050639283 -0.5909654 0.14700495 -0.10916208 -0.073290825
0.37095964 -0.316902 -0.5699115 0.38927 -0.30577084 -0.57103896 -0.17167838 -0.48427412
-0.46945667 -0.56997126 0.016910793 0.0241143 -0.43568102 -0.4712896 -0.4393322 0.043697484
-0.50394744 0.5329499 -0.30999267 -0.6120891 -0.40150923 0.5072879 -0.3878908 0.39336842
0.015512589 0.100973845 0.23857746 0.27941766 0.36352366 -0.3013305 0.17533335 -0.21940969
0.26246563 -0.15805121 0.16883732 0.0956972 -0.46586335 -0.41142884 -0.0945191 0.0626721
-0.6390135 -0.26863798 0.18824533 0.3156141 0.048184272 -0.367085 -0.30185735 0.26650152

conv1.bias f4 [32]
00000000: 4e35 94be 51d3 023f d143 edbe e3a1 f73d
00000010: 91f2 6d3d 638e efbe ef3a e53d 9c1c 823e
00000020: 458f 9bbd c2fa 103f 1d6d 4abe bf07 ffbe
00000030: 1668 c53e 31d0 293d ce68 2cbe 427a 763e
00000040: f7f5 fdbe e6fa 4cbe ff59 f03e d022 0f3f
00000050: 6a1c 1dbd c3a8 b33e 6927 553e f543 12bd
00000060: f91f 3bbe 7954 df3e 4f60 fd3e b81f 84bc
00000070: 8c4c 6bbe 7da4 8c3e 2b0d 1c3e 3824 20be
-0.28946918 0.51103693 -0.46340802 0.12091424 0.058092657 -0.4678832 0.11192881 0.25412452
-0.07595686 0.56632626 -0.19768186 -0.49810597 0.38555974 0.041458312 -0.16836855 0.24070075
-0.4960172 -0.20017585 0.46943662 0.55912495 -0.038357176 0.35089692 0.20815815 -0.03570934
-0.18273915 0.43619135 0.4948754 -0.016128406 -0.22978419 0.27469245 0.15239398 -0.15638816

bn1.weight f4 [32]
00000000: 3e8e 7e3f 747e 6c3f 5e96 803f 5605 803f
00000010: 2017 713f 1ea6 7d3f b88b 6e3f dec8 773f
00000020: 23b1 893f 2911 853f 31ec 723f 79f7 833f
00000030: 624a 833f 9fd0 823f f70d 8a3f 6a51 823f
00000040: 7e77 873f 5073 853f 717a 823f 8158 8c3f
00000050: b5c0 873f fc61 833f 542a 893f 16ba 763f
00000060: 0a39 7d3f fd22 6e3f 1893 7c3f 4e1c 6f3f
00000070: a0ac 833f f2c7 873f c010 6b3f 9b41 823f
0.99435794 0.9238045 1.0045888 1.0001628 0.9417591 0.990816 0.93181944 0.96790874
1.0757183 1.0395862 0.9489165 1.0309898 1.0257075 1.0219916 1.0785512 1.0181096
1.0583341 1.0425816 1.0193616 1.0964509 1.0605685 1.0264277 1.0716043 0.96377695
0.9891516 0.9302214 0.9866195 0.93402565 1.0287056 1.0607893 0.91822433 1.0176271

bn1.bias f4 [32]
00000000: 5f18 22be 70ec c8bd 7ee2 93bd 21ef 24bd
00000010: 3ff6 9dbd feb7 5d3d c79e cbbd daab 74bb
00000020: fe0b bebc 3e30 3cbd d5e6 07bd 38f5 5bbd
00000030: a0b8 ccbc 9f20 29bc 9eb9 573d 9386 e93b
00000040: 3dd4 713c 0759 cbbc 86c2 cb3c 3e72 6dbc
00000050: 9b94 e1bc 240f f2ba a1a6 aebd ee59 91bd
00000060: 77fe f1bd bb9d 05bd ac3b 9ebd 5c99 70bd
00000070: f5ed 37bc d417 de3c d57e 6dbd e769 86bc
-0.1582961 -0.09810722 -0.07220934 -0.040267114 -0.07712983 0.054130547 -0.09942394 -0.0037333877
-0.023199078 -0.045944445 -0.033179123 -0.053700656 -0.02499038 -0.010322719 0.052667253 0.007126638
0.014760074 -0.024822725 0.02487303 -0.0144925695 -0.02753668 -0.0018467647 -0.08527876 -0.07097231
-0.118161134 -0.032621127 -0.07726225 -0.058740005 -0.011226167 0.027110972 -0.057982285 -0.01640792

bn1.running_mean f4 [32]
00000000: 1017 c7bd f42a 183f 9afc 76be b9d8 483e
00000010: fc1a 9e3e 3896 06bf 626b 323e 833e b63e
00000020: 5084 74be ce60 3a3e 97bd d9bd a595 0bbf
00000030: 45ac ea3d ddc0 153d 42ee a9be 9ec7 693e
00000040: a4eb 23bf a09f acbe 338c 2e3e 9cf7 da3e
00000050: 1299 c8be 0503 bb3e 9eae 11be dec5 b63d
00000060: 7dd0 b4bd 2886 063f 1058 0c3f 3b8e 803c
00000070: 6375 f7be 3309 393d d8ad 983e ba1b 85be
-0.09721196 0.5944054 -0.24119797 0.19613923 0.30879962 -0.52572966 0.17423776 0.35594568
-0.23878598 0.1820099 -0.106318645 -0.54525214 0.11458639 0.036560882 -0.3318959 0.22830054
-0.64031434 -0.33715534 0.1704567 0.42767036 -0.39179283 0.3652574 -0.14226767 0.08924459
-0.088288285 0.52548456 0.5482187 0.01569282 -0.48331746 0.04517479 0.29820132 -0.25997716

bn1.running_var f4 [32]
00000000: 6a78 6f3d 3e80 233c db44 873d 77ae a03c
00000010: e7b4 b33d fc7f 9e3c 24a1 443c 2856 ff3c
00000020: 9ea3 363d 650e 403e fc6c 7c3c d945 dc3c
00000030: a431 cc3d 1afa e03b dade 3d3d df1f 083b
00000040: 5d3e 4b3d 98d8 443d f168 eb3d f66d 0f3d
00000050: ad0e 223e 8883 013d 80a9 203e ef45 3c3d
00000060: d922 4d3c 6224 d53c 86ab 353c 963e 853b
00000070: ee2e b23d d7e2 9d3d 74ba ed3c a6f8 e83c
0.058464445 0.009979306 0.0660493 0.019614441 0.08774739 0.019348137 0.01200131 0.031169012
0.04458963 0.18755491 0.015406843 0.026888775 0.09970406 0.006865752 0.046355106 0.002077095
0.04962002 0.048058122 0.11494625 0.035016976 0.15825911 0.03161958 0.15689659 0.04596513
0.012520515 0.026018325 0.011088258 0.0040662987 0.087003574 0.07709282 0.029019572 0.028438877

conv2.weight f4 [64, 32, 3]
00000000: 4c22 2ebd 5b09 00be 1d46 a43d 5d72 aabd
00000010: 3c3b c53c c0ca f7bc ea22 96bd de92 a4bb
00000020: f125 22bd 12d9 1d3c c535 80bd a63d e7bd
00000030: b6dc adbd 0111 d8bc 3d85 f5bb b4a5 bc3c
00000040: bc7c ff3b 9c41 42bc 06c9 a6bd 2711 9f3d
00000050: 8a99 84bc 14f4 833d 5c0b 60bd ec8a 0dbd
00000060: 7125 77bd 7223 28bd c291 8cbd 03e9 623d
00000070: 1898 c13d 8319 04bd 8565 ccbd 4ccc 12bd
00000080: d238 94bc e69e b6bd 39bd 5a3d b250 48bd
00000090: 5565 f9bc d2b9 af3d cbb8 b13c 0c8d 803d
000000a0: 7903 0dbe 6ba3 cf3d 99a3 3b3d 3d29 983d
000000b0: 499a 39bd adad 8e3c 2481 4e3d 806b 85bd
000000c0: 0126 44bd 8b31 843d f6b5 b93d 6f33 053e
000000d0: 2e70 d6bd b1a8 ab3d b68d bf3d 320b d53d
000000e0: 0a07 013e 8cbc 0dbe c4b8 ecbc 1196 e93c
000000f0: b1c0 723d 67e5 b5bd bbaa e13d b1de 3abd
00000100: 33ce a3bd bc6e b13c a836 af3c ad91 b53d
00000110: 6315 143e fa56 433c d5db 4e3d f7cb ecbd
00000120: c92c c1bd 4208 2abd 5a5d 19bd cc28 7a3d
00000130: 659d 593d 8eaf 24bd b6d6 ab3d c6ec a43d
00000140: a5d1 c43d 7c55 2b3d 4cb5 57b5 ddac 263d
00000150: 292c 2e3d edaa a1bd bb10 a83c 5759 233c
00000160: b2e6 8e3c 7d8a 1cbc 1342 c2bd 1851 ddbd
00000170: bce9 383d e9e0 ea3c ef15 533c 1530 8c3d
00000180: bd37 d3bd 5650 043c 024f 8e3d 216a 52bd
00000190: 889d 15be 26a3 6d3d aed8 dd3c ca29 16be
000001a0: c902 063e a1ce bd3c 0386 fcbc e6c4 e6bb
000001b0: 7da6 b2bd 0297 b9bd 265b a43d fcb2 93bd
000001c0: 652f 14bb 1e3a 363b 4d7c 9cbd a3e7 d73c
000001d0: 91ba 543d 875c 82bc a8aa 98bd 6f5c 263d
000001e0: 6e5e 1e3d 9745 9f3d b967 2dbd f425 26bc
000001f0: f8e6 463b a6c6 873d 7bca d8bc 33d0 d7bd
00000200: 2a02 8dbd 8ce9 793d 2c8f be3c 1418 eabd
00000210: 74b2 cabd 7901 c5bd 43b5 03be ed6c 89bb
00000220: ba91 403b 1cc3 813d ae24 e23d b274 87bc
00000230: a902 823d c2c6 a13d e11e 6a3b 3ac8 60bd
00000240: 3d31 813d 2d93 683d bc12 73bd 9722 44bd
00000250: bde8 a13d 1c85 45bd 33db 903d 9b73 e23d
00000260: 1b1c 51bd 468a c43d 4db3 0f3d cd42 81bd
00000270: 5c81 e43c e028 95bc 3fe9 54bb e930 b43c
00000280: 39ca 36bc 6ac0 0cbd 0f37 4cba af6b 31bd
00000290: 9828 713d 7d85 013d 5668 9bbd 399b 253d
000002a0: 0e06 93bd 0343 6bbc 57de cf3d fb23 d6bd
000002b0: 758c c6bc 0129 523d 7f01 87bb 68f0 aebd
000002c0: ed79 b13d 20eb 2cbd 90ce bcbd 7293 713c
000002d0: 1ca5 6ebd ee97 b6bd fe76 7ebd 4835 25bd
000002e0: fcff 793d a774 2cbd f9b4 1dbc a88c 8dbc
000002f0: 6137 83bd a960 d53d 1672 3abc d2a1 a2bd
00000300: 9a4d 93bd 59ca 903d ee9c a8bd 8c27 443d
00000310: da5e b73c d424 6ebd 8fe0 b8bd 6f2b ddbd
00000320: ae24 3fbc a3fd c8bc 9ff7 833d 4f5e 1e3d
00000330: 3e4f d33b bc79 18bc b649 f5bd a388 143e
00000340: c2f0 11bd 2c57 5d3c c439 09bd cc20 e8bd
00000350: b23a dcbd 4e27 c8bd 089f 973d 3e4b 89bd
00000360: 34da d43d 9481 fb3d 5532 2c3d 30aa 0bbd
00000370: f820 023d c5d1 dbbc 1089 a33d a6f4 ab3d
00000380: 7e63 e8bd 6927 163e 8051 f3bb 144f e03d
00000390: 0023 f5bc 7d89 033d c6fb 4fbc dfaf a83d
000003a0: 3d6d 7bbd 94ac b9bd 3bde e53d 611d 653d
000003b0: 7a60 e03c c256 c73d 0dbf bebc e554 923d
000003c0: 2803 06bc ec24 3d3d 8211 df3c c486 123d
000003d0: c151 12bd a2ca 9f3d f233 ba3c f12b a5bd
000003e0: 55e7 e63c bae7 073c b49f 423d 839d e43d
000003f0: b3de 9cbd 5bca b9bd 3966 9a3d b59d 24bc
-0.042513177 -0.12503569 0.080211855 -0.08322594 0.024076097 -0.030248046 -0.07330878 -0.0050223907
-0.039586965 0.009634273 -0.06260256 -0.112910554 -0.08489363 -0.026375296 -0.00749269 0.023028232
0.007796852 -0.011856463 -0.08143811 0.077669434 -0.016186494 0.064430386 -0.054698333 -0.034556314
-0.06033844 -0.04104943 -0.068637386 0.055398 0.09452838 -0.032250892 -0.09980301 -0.035839364
-0.0180935 -0.08917026 0.053403113 -0.048905082 -0.030443827 0.08580364 0.021694561 0.062769026
-0.13770856 0.101385914 0.045810316 0.074297406 -0.045313153 0.0174168 0.050416127 -0.065146446
-0.047887806 0.06454762 0.090679094 0.13007902 -0.10470615 0.08381785 0.09353201 0.10402526
0.12600341 -0.13841456 -0.028896697 0.02851394 0.059265796 -0.08881646 0.110188924 -0.04562253
-0.07998314 0.021659248 0.021388367 0.08865676 0.14461283 0.011922592 0.050502617 -0.11562341
-0.0943237 -0.04151178 -0.037442543 0.061074063 0.05312862 -0.040206484 0.08390562 0.080529734
0.09610299 0.04182957 -8.0357563e-07 0.0406922 0.042522583 -0.0789393 0.02051579 0.009970031
0.017443988 -0.009554503 -0.09485259 -0.10806483 0.04514478 0.028671699 0.012883647 0.068451084
-0.103133656 0.008075794 0.06948663 -0.051370744 -0.14610875 0.05801692 0.02708086 -0.14664379
0.13087 0.023169817 -0.03082562 -0.007042515 -0.08723161 -0.090620056 0.08025198 -0.07211873
-0.0022611257 0.0027805637 -0.07640896 0.02635557 0.051935736 -0.015913261 -0.07454425 0.040615495
0.038664274 0.07776945 -0.042335246 -0.010140885 0.003035007 0.06629686 -0.026463738 -0.10537758
-0.068851784 0.061013743 0.023261629 -0.11430374 -0.098973185 -0.096194215 -0.12862115 -0.004193893
0.0029383735 0.06336042 0.11042152 -0.016535137 0.06348164 0.07899238 0.0035723972 -0.05487845
0.063082196 0.056780983 -0.05934404 -0.04788455 0.079057194 -0.048222646 0.07073059 0.11057206
-0.051052194 0.09596686 0.035083104 -0.06311569 0.027893715 -0.018207967 -0.0032487658 0.021995978
-0.011156612 -0.034363188 -0.0007790187 -0.043315586 0.058876604 0.031621445 -0.0758826 0.040431235
-0.07178889 -0.014359239 0.1014983 -0.104560815 -0.024236897 0.051308636 -0.0041200514 -0.085419476
0.086658336 -0.04221642 -0.09219086 0.014744626 -0.05826293 -0.08915697 -0.0621252 -0.040334016
0.06103514 -0.042103436 -0.009625667 -0.017278984 -0.06407047 0.10418827 -0.011379739 -0.07941021
-0.07192536 0.07069845 -0.08233057 0.047889277 0.022384096 -0.05814059 -0.09027206 -0.107993
-0.01166646 -0.024535006 0.06443714 0.03866416 0.0064486554 -0.0093063675 -0.1197695 0.14505248
-0.035629995 0.013509553 -0.033502355 -0.113343805 -0.10753383 -0.09773122 0.0740338 -0.067038044
0.103931814 0.122805744 0.042040188 -0.03409785 0.031769723 -0.026833424 0.07985127 0.08396272
-0.11347102 0.14663471 -0.007425487 0.10952583 -0.029923916 0.03211354 -0.012694305 0.0823667
-0.061383475 -0.0906612 0.11224028 0.05593622 0.027389754 0.097333446 -0.02328446 0.071450986
-0.008179463 0.04617779 0.027230028 0.035773054 -0.035722498 0.07802321 0.022729848 -0.08065022
0.02818648 0.008294994 0.047515586 0.111628555 -0.07659664 -0.09071799 0.07539029 -0.010047366

conv2.bias f4 [64]
00000000: b674 053d b19d 603d 8703 743d 1d4e c5bc
00000010: 094d aabd 28a0 633c 3992 9abd ee0a ff3c
00000020: 92d7 c73d ac1d df3d 4794 81bd edcf 523d
00000030: 5535 a6b9 0a3e 6fbd d2c9 1ebd 2137 a13d
00000040: 0be6 0cbc b5f9 733d 4b83 a2bd 86a7 7a3d
00000050: e5b5 99bd b724 a5bc a47d 97bd 1457 a6bc
00000060: 695e 85bd ec4c b73d 4d0c 8bbd 5de4 073b
00000070: 81d9 2c3d 146d 4dbd a852 59bd b9ff 08bd
00000080: 34fb 8d3d f9e1 613d 1524 9ebd 4e43 0ebd
00000090: 39e5 433c 0598 19bc 9bee 0e3d cff1 9e3d
000000a0: ce06 223d a8c8 19bd a6b0 2a3d 97be b63d
000000b0: 4c64 a9bd c204 c0bd e335 953d 17c7 afbd
000000c0: a2df a33d 649f 1fbc a829 a23c 99d6 fdbc
000000d0: 24b9 93bd 9b2c c0bc a98a 2a3d 1c95 203d
000000e0: fbd0 9fbd bbc9 33bd 06c6 c03d b5c7 83bd
000000f0: 70df 2e3c 9fd6 ddbc 9116 133a 5f29 b1bd
0.032582007 0.054837886 0.059573676 -0.024085099 -0.083154745 0.013893165 -0.07547421 0.031133141
0.09757914 0.10894331 -0.0632711 0.051467825 -0.00031701723 -0.058408774 -0.03876669 0.07871843
-0.008599768 0.05956431 -0.079351984 0.06119492 -0.07505397 -0.020159109 -0.07397011 -0.020305194
-0.06512148 0.089502186 -0.067894556 0.002073548 0.042199615 -0.050152853 -0.053057343 -0.033447
0.06932679 0.055147145 -0.07721726 -0.034732156 0.011956506 -0.009374623 0.03489552 0.07760965
0.03955727 -0.037544876 0.04167237 0.08923071 -0.08271083 -0.093759075 0.07285669 -0.08582895
0.08001639 -0.0097425915 0.019795254 -0.030986117 -0.07213047 -0.02345877 0.041636143 0.0392047
-0.07803532 -0.043893557 0.0941277 -0.064345755 0.010673389 -0.027079878 0.00056109676 -0.08650469

bn2.weight f4 [64]
00000000: 3c13 703f 3696 7c3f bd52 823f fb04 6e3f
00000010: 5c34 963f f4c6 763f b939 7a3f d32d 723f
00000020: 3d82 713f 5b0a 883f e6e4 793f e4b0 803f
00000030: 7508 703f be9c 8c3f 6d87 7a3f 5ceb 823f
00000040: ba44 853f 2666 843f a627 723f 412a 803f
00000050: faf4 6e3f 2292 833f f3a3 833f 8601 763f
00000060: 75ff 733f 6b8e 723f 687d 843f 0a03 8d3f
00000070: 0dc4 8c3f 7000 753f 9392 843f eab0 633f
00000080: b830 873f ff20 8f3f a896 813f 0507 683f
00000090: 341b 7e3f 6f02 7d3f 72f4 783f c017 783f
000000a0: c491 7b3f 6ec0 7e3f 4733 7f3f f5ee 833f
000000b0: 7f35 753f 2d94 7d3f 5443 643f 54d9 5d3f
000000c0: a6fb 733f e299 7b3f 3781 813f a136 8b3f
000000d0: e657 803f 148b 7d3f 4e32 893f 5305 613f
000000e0: 28f7 803f fda5 7f3f 5a25 823f 28b5 723f
000000f0: 1512 773f 5cc0 763f b523 8c3f 55b9 803f
0.9377935 0.98666704 1.01815 0.9297635 1.1734729 0.9639733 0.9774433 0.9460117
0.9433935 1.062816 0.97614896 1.0053983 0.93762904 1.0985334 0.97862893 1.0228076
1.0411599 1.0343673 0.9459175 1.0012895 0.93342555 1.0278971 1.0284408 0.96096075
0.9531167 0.9474856 1.0350771 1.1016552 1.099733 0.9570379 1.0357231 0.88941824
1.0561743 1.1181945 1.0124102 0.9063571 0.9926026 0.9883184 0.97247994 0.9691124
0.98269296 0.99512374 0.9968762 1.0307299 0.95784754 0.99054223 0.89165235 0.8665974
0.9530586 0.9828168 1.0117558 1.0876046 1.0026824 0.9904034 1.0718477 0.8789875
1.0075426 0.99862653 1.0167649 0.9480767 0.96511966 0.9638727 1.0948397 1.0056559

bn2.bias f4 [64]
00000000: b8cc 1cbd 67a8 24bc 2d2b 3fbd acfd 22be
00000010: a701 f73a 8224 5fbd c8b6 10be 71a7 d3bd
00000020: cb40 71bd fb77 e4bb 3aae 7abd fcb0 10bd
00000030: f51e cabd 0483 aabc a4e4 edbd a889 22bd
00000040: 58bc 48bd e108 0cbc 856f 0dbe 5022 b8bc
00000050: 4d94 46bd 6b2e ec3c cebd 1a3c 1858 8abd
00000060: b19a b9bd e30d 65bd beac e83c 7cb0 f13c
00000070: d6c8 64bc a1c8 abbc 04e5 10bd d488 f6bd
00000080: bf1f 993c 39cb bebc df02 dcbc b346 e8bd
00000090: aba2 05be 0f7c e0bc 8890 b2bc 838f 13be
000000a0: 74d7 e2bd afbc 80bc 9854 7bbd bc76 eebb
000000b0: ed3c 68bd ac20 d1bb 8558 c0bd d7c8 b8bd
000000c0: ab94 55bd 24f2 63bc c072 52bd 1d5c d03c
000000d0: 5dbe 8cbd 828a 67bd 9b5e 02bd a60a 6fbd
000000e0: 3ed8 83bd 45d8 243c 950c bebc 044b 9ebd
000000f0: 17e5 91bd c2d3 c3bd eed3 643d c8dc 9e3c
-0.038281173 -0.010049916 -0.046672035 -0.1591708 0.0018845097 -0.054478176 -0.14132226 -0.10334671
-0.058899682 -0.0069723106 -0.06120131 -0.035325035 -0.09869186 -0.020814426 -0.11615875 -0.03968206
-0.049007744 -0.008547039 -0.13812073 -0.022477299 -0.048481274 0.028830728 0.009444667 -0.06755084
-0.09062708 -0.055921447 0.028402682 0.0295031 -0.013963899 -0.02096969 -0.035374656 -0.12037817
0.018691896 -0.023290263 -0.026856838 -0.1134161 -0.13050334 -0.027402906 -0.021797433 -0.14410214
-0.11076251 -0.015714971 -0.06135997 -0.007277338 -0.05669873 -0.0063820686 -0.09391884 -0.09022682
-0.052143734 -0.013912711 -0.051378965 0.025434548 -0.068722464 -0.056528576 -0.031828504 -0.058359765
-0.06437729 0.010061328 -0.023199359 -0.07729152 -0.071237735 -0.09561874 0.055866174 0.019392386

bn2.running_mean f4 [64]
00000000: a8c9 d73d 900b b6be 142a 0e3e 9a8b 0a3f
00000010: a9df 01bf 5b3f 133f 8863 6b3f c8c2 713f
00000020: 90db 333d ed10 65be 927e b5be 6d81 19bf
00000030: 41bd c03e 98ab 74be 4870 7d3f 10fc 95bf
00000040: cb25 b13e 92b2 8dbe f2d9 073f a806 163f
00000050: 105d 373f 2d00 91be 4fd3 39bf 1b87 80be
00000060: eb52 68be f157 593c b4a7 83bf 9e9d 49bf
00000070: ae20 85bf 7a7b 293e 0fb6 0cbf cb37 a83e
00000080: 9e8a 97be 307d 0bbf 1e69 3abf 6b86 adbe
00000090: 085f 5e3f 645e 84be 7232 883e 7f03 963f
000000a0: e704 c13e f5cb 54bf 2b05 b8be 17d1 97bf
000000b0: 01d5 09bf f475 2fbd ab2a 8bbe d981 7ebf
000000c0: a675 a23e d205 3dbe f027 08bf 0bd1 2dbf
000000d0: 5c14 0abf 1f14 8e3d 9dc9 75bf 57a5 2cbf
000000e0: 1683 163f d850 06be 0088 263f 4c2b 183f
000000f0: 3418 cdbe 300e 923f 51ca 28bf 1ce4 7cbe
0.1053651 -0.35555696 0.13883239 0.54119265 -0.50731903 0.5751855 0.9194875 0.9443784
0.043910563 -0.22369738 -0.35448128 -0.59963113 0.3764439 -0.23893583 0.9899945 -1.1717548
0.34599146 -0.276753 0.53066933 0.58603907 0.7162638 -0.28320447 -0.72588056 -0.25103077
-0.2268788 0.013265596 -1.0285554 -0.7875613 -1.0400598 0.16551009 -0.549653 0.32855067
-0.29597944 -0.54487896 -0.72816646 -0.33891615 0.86863756 -0.25853264 0.26600987 1.1719817
0.37699053 -0.83123714 -0.35941443 -1.1860684 -0.53840643 -0.0428371 -0.2718099 -0.9941688
0.31730384 -0.18459252 -0.5318594 -0.678971 -0.53937316 0.069374315 -0.9601076 -0.6743979
0.5879377 -0.13116777 0.6505127 0.59441066 -0.40057528 1.141058 -0.6593371 -0.24696392

bn2.running_var f4 [64]
00000000: 2b8e 403f 6079 ba3e 63e6 183f 558e 033f
00000010: 3101 0a3e 43e7 b23e d311 4a3f 5675 e03e
00000020: ebb2 383f 01c1 883e 364e 9e3e 6b1d 0d3f
00000030: 6eba e13e e760 193e aa8e 073e fc4a 9c3e
00000040: a000 2d3e 91c0 073e 878b e93e c4d9 723e
00000050: 631b d23e a01f c43e cf97 a13e 41f5 813f
00000060: 8a2f 903e 0bd6 f13e 7c2d 8f3e e5b7 b13e
00000070: 32fc 983e 49a0 6f3e 4b38 e63d 8877 203f
00000080: 1894 c53e dbe8 713d b004 973e 244a c53f
00000090: 8a4f a93e 9f75 bd3e a3e0 5f3e 8ebb 1f3f
000000a0: c8e1 2f3e 1217 523f 91de 883e 24ee 3c3e
000000b0: 05c4 cf3e cc85 503e 4bb1 863f 41b8 593f
000000c0: ca82 273e 0ebe fe3e 8ce3 c63e aa5c 8a3e
000000d0: 9246 673e ea35 0f3e 6f4d 9a3e ba31 583f
000000e0: d639 113f b5c9 9f3e c544 ce3e 3904 ae3e
000000f0: 9237 333e 1cd6 163f b23f 6f3e db51 e03e
0.7521693 0.36420727 0.5972654 0.51389056 0.13477017 0.34942064 0.7893345 0.4383952
0.7214801 0.2670975 0.30919045 0.55123013 0.44087547 0.14978372 0.13238016 0.3052596
0.1689477 0.13257052 0.45614263 0.23715883 0.4103652 0.38305378 0.31561133 1.015297
0.2816127 0.47233614 0.2796439 0.34710613 0.2987991 0.23400988 0.11241206 0.6268239
0.3858955 0.05905996 0.29495764 1.5413251 0.33068496 0.370038 0.21863036 0.6239556
0.17175972 0.8206645 0.26732305 0.18450218 0.4057924 0.2036354 1.0522856 0.85046774
0.16358486 0.49754375 0.3884548 0.27023822 0.22585514 0.1398541 0.30137202 0.84450877
0.56728876 0.31208578 0.40286842 0.33987597 0.17501667 0.58920455 0.23364142 0.4381245

conv3.weight f4 [32, 64, 3]
00000000: 9ea2 103d df81 293d 14ca a6bd fe2f cc3c
00000010: f297 403c e159 443d 56d4 123d e5d1 313d
00000020: 1a8a ba3d 85f9 ca39 bdb5 8cbd 3043 ff3c
00000030: 2a66 2dbd 2786 8d3d cc59 1bbd 7509 28bd
00000040: 711b 6fbd b435 d83b 0c9b 943c 66a9 7f3c
00000050: 9429 dc3c 98f7 87bb 0372 0ebd 4c91 463c
00000060: ac62 913c a12c eebc c86b f13c e9a7 1fbd
00000070: 0857 b2bd 5c02 33bd 0514 123d ab11 953c
00000080: 8838 03bd d8b0 c1bc 018b b33d 3de8 3abd
00000090: c9d6 01bd 9ac7 5d3d b3a3 173d 971e 8dbd
000000a0: 3901 003d d765 8eba eecd 683c 0b31 793c
000000b0: ecfd 423c 81e0 5ebd 096c 043c de8a 82bd
000000c0: be09 a7bb 459c e4bc 5c42 853d caa4 ee3c
000000d0: ed6e a03d 5c38 013d 9ffd 0dbd fa5a 193d
000000e0: 0793 a2bc d69b 14bd 8dd3 b9bd 8edb 9c3d
000000f0: 90e3 d4bc d727 063d f98e 2ebd 987f 22bd
00000100: 82c2 cbbc 0195 a3bd ae5e d8bc 2100 243d
00000110: 687c 10bc 5419 bc3c e49e 3dbd 2753 023d
00000120: 3282 f3bc 8cf8 9abd c49e f13d 0068 853a
00000130: a995 89bd e6bb 973d 7597 26bc 266b 15bd
00000140: 61bb b3bd 2ba3 903d 6c90 8cbd f733 9cbc
00000150: e2dc 14bd a982 1abd 19e6 8a3d c225 69bc
00000160: 81a0 abbd c03c 5b3c 9433 2d3d b081 dcbc
00000170: 4e4d c3bd d0fc 3f3a e8f0 04bd 253b 2f3d
00000180: 8115 6e3b 3a3e e6bc cb03 54bd 48c6 1dbd
00000190: c941 a43c eb1c a8bc 1f0c c63c f6ef a33d
000001a0: 84c2 933d 507e 8bbd f314 a93c d796 8fbd
000001b0: d673 4f3d ba26 01bc 29f7 323d da47 7abd
000001c0: 4d5d b53d 7d00 943d f7ff 42bc 6d08 8c3d
000001d0: 09aa 0ebd 2b26 933b 5859 90bd 8b1a ac3c
000001e0: 2846 3e3d 14e3 553c c71c 193d e6f0 92bd
000001f0: 4c5f 943d dc19 9dbc 4fdc 593c 2598 3d3d
00000200: 088f 97bd a366 96bc 53b0 7f3d abe1 e03c
00000210: 3bd9 edbb ce73 123d feb7 8e3b 0c48 113d
00000220: de28 013b f5fa 0bbd 1619 5dbc 2493 e9bc
00000230: 9fe3 19bd 4732 033d 6ed6 b23d 6517 a4bc
00000240: 03cf 8d3d fee1 0cbd 3fee b6bb a5cd e1bc
00000250: 6337 d6bd 4afd 78bd 9b4a 1a3c 26dc cebc
00000260: 8e69 bfbd 1706 96bd ad09 183d df19 c33d
00000270: 7161 42bd 54a0 053d fcc3 a4bd 8b46 d73d
00000280: 9946 cabc 73cf 813a 6163 91bd b038 a0bd
00000290: 7d09 4dbd 2d8b 553d a8ef 03bd a2a6 d73b
000002a0: 4ab6 3ebc ed1e 6f3d 1c99 a03d 1764 fdbc
000002b0: 7aaf 93bd 0bac 32bd 0d6f cebd 1fd3 dabc
000002c0: de6f f03c c1fa 32bd dc4a ed3c 2ad2 30bd
000002d0: d4ac 813d f3cf 15bd 8408 1dbd eb64 8bbd
000002e0: d489 68bd 2c4d 80bd 8a7b 443d a45d 6cbc
000002f0: 589e bcbc 62f6 773d 6db8 10bc a421 d33c
00000300: 4e70 703d 65bf 83bd 2e76 053d 75f4 af3c
00000310: 6375 3c3b ac54 efbc a77f 1fbd 0b0d a9bd
00000320: 6548 a2bd bbad 903c e942 b7bc 7f89 503c
00000330: 3e1a a3bb aa24 bf3c 164e 6abc b80c 193d
00000340: 3c1f 9c3d 9f05 23bd 381e 38bd 3a8c 0f3d
00000350: f0c5 f5bd 9a1c 3e3d de1e 723d f4ef 9bbd
00000360: 5467 a6bd f375 5abd f812 053d d510 b23c
00000370: b5e3 d8bb 5769 b93b 667d 5c3c 2fd6 6f3c
00000380: 84e5 70bc a107 75bc 9401 923c 57df 67bc
00000390: 42fc 85bd e452 013d 0ecf c8bc d798 b9bd
000003a0: 22ac 52bc 7b1b 7b3d 8800 b13c d292 dfbc
000003b0: 3613 bebd 4cab 013d 5573 88bc e50b 263e
000003c0: a34c 94bd 8558 c53c 9e8d 2ebd 9e7c 8bbd
000003d0: 08f3 2c3d fb92 353e 7070 58bd 5007 9ebc
000003e0: 1cb3 b5bc 3ab2 e53b 1a0f 2cbd 2842 82bd
000003f0: 268f 4d3c 0423 c23c 7599 4fbd 1b11 413a
0.035311334 0.04138362 -0.08144012 0.024925228 0.011754977 0.047937278 0.03584703 0.04341306
0.09108372 0.0003871435 -0.06870601 0.031159967 -0.04233376 0.06910353 -0.037927434 -0.041024644
-0.05837578 0.006598199 0.018140338 0.015604353 0.026875295 -0.0041493885 -0.0347767 0.012119602
0.017747246 -0.029074015 0.02947034 -0.03897849 -0.08708006 -0.043703422 0.035663623 0.018196901
-0.032036334 -0.023643896 0.08766747 -0.045631636 -0.031698976 0.054145433 0.03702135 -0.068906
0.031251166 -0.0010864091 0.014209254 0.015209447 0.01190136 -0.054413322 0.008082398 -0.06374143
-0.005097597 -0.027906546 0.06506798 0.029131312 0.078336574 0.03154789 -0.0346657 0.037440278
-0.019845499 -0.03628143 -0.09073553 0.07659064 -0.025987417 0.032752838 -0.042616818 -0.039672464
-0.024873022 -0.079874046 -0.026412334 0.040039185 -0.008818723 0.022961296 -0.046294108 0.03181758
-0.029725168 -0.07566938 0.1179786 0.0010178089 -0.067179985 0.07408886 -0.010167946 -0.036479138
-0.08775974 0.07062372 -0.06863484 -0.019067748 -0.036343463 -0.037722263 0.06782169 -0.014230194
-0.08380223 0.013381183 0.042285517 -0.026917309 -0.09536229 0.0007323744 -0.03245631 0.042781014
0.0036328735 -0.028105844 -0.05176143 -0.038519174 0.0200509 -0.020521602 0.024175702 0.08004753
0.07214835 -0.068112016 0.020639872 -0.07011192 0.05064758 -0.007882768 0.04369274 -0.06110368
0.08855686 0.07226656 -0.011901847 0.068375446 -0.034830127 0.004490634 -0.07048291 0.02100875
0.046453625 0.013054628 0.03738096 -0.07174854 0.07244739 -0.01917737 0.013297155 0.046287674
-0.07400328 -0.018359488 0.062424015 0.027451357 -0.007258562 0.03575497 0.0043554297 0.0354691
0.0019708197 -0.03417488 -0.0134947505 -0.028512545 -0.037570592 0.03203037 0.087323055 -0.020030687
0.0692425 -0.03439521 -0.0055826004 -0.02756388 -0.10459783 -0.06078843 0.009417201 -0.02525146
-0.09346305 -0.0732538 0.037118603 0.09526419 -0.04745621 0.032623604 -0.080451936 0.10511502
-0.024691867 0.0009903744 -0.07099033 -0.07823312 -0.050057877 0.05213468 -0.032210976 0.0065811435
-0.011640141 0.058379102 0.07841703 -0.030931516 -0.07211204 -0.043621104 -0.10079775 -0.026711999
0.029350217 -0.04369617 0.02896636 -0.043169178 0.063317925 -0.03657527 -0.0383382 -0.06806358
-0.05677207 -0.06264719 0.04796938 -0.014426623 -0.023024723 0.060537703 -0.008833033 0.025772877
0.058700852 -0.0643299 0.032583408 0.02147887 0.0028756491 -0.02921518 -0.038940098 -0.08254441
-0.079239644 0.017660966 -0.022370772 0.012728094 -0.0049774935 0.023332912 -0.014300844 0.037365645
0.07623145 -0.039800283 -0.044950694 0.03504584 -0.12000644 0.046413995 0.05911147 -0.07614127
-0.08125177 -0.05333514 0.032488793 0.021736542 -0.0066189417 0.0056583094 0.013457632 0.014638468
-0.014703158 -0.014955432 0.017823018 -0.014152369 -0.06542255 0.03157319 -0.024512794 -0.09062355
-0.0128584225 0.061305504 0.021606699 -0.027291689 -0.09281008 0.031657502 -0.016656557 0.16215475
-0.0724118 0.024090061 -0.042615525 -0.06810878 0.04222396 0.1773185 -0.052841604 -0.019290596
-0.022180133 0.0070097717 -0.04200659 -0.063602746 0.012546336 0.023698337 -0.050683457 0.00073649146

conv3.bias f4 [32]
00000000: 4d55 f7bc f5ab 413d df6c 8b3d 2319 32bc
00000010: 3154 183d bf90 b33c fdce 033d cb6f 943c
00000020: 931f 603d 03e2 e5bc c72f 8c3b 45f3 3abd
00000030: bc13 fcbc 76af d6bc fdea 7fbc 4138 193d
00000040: edd2 79bc 394a 4c3d dee8 70bd 337f 073c
00000050: 5bd5 8a3d dde2 4bbd 004d 7d3c f98e a33c
00000060: 789e 0cbd 4e30 11bc 9d86 2e3d 9f41 f93c
00000070: 097a 72bd 4811 93bd 79af 5fbd bc25 433d
-0.030192042 0.04728313 0.06807875 -0.010870251 0.037189666 0.021919606 0.03217982 0.018119713
0.05471761 -0.028061872 0.0042781564 -0.045642156 -0.030771129 -0.026206713 -0.01561999 0.037407164
-0.0152480425 0.04987547 -0.05881583 0.008270073 0.067789756 -0.0497769 0.015460253 0.019965636
-0.034330815 -0.008861614 0.042608846 0.030426798 -0.059198413 -0.071810305 -0.054610703 0.04764341

bn3.weight f4 [32]
00000000: 1487 913f 5f6d a53f 477c 9e3f 88d1 a43f
00000010: cbea 973f cbe4 a23f 402e 983f b750 923f
00000020: 1e5c 983f 898a 9b3f 6175 a03f b4a9 a03f
00000030: 6374 9f3f 45b1 9a3f a829 903f 24ee 9e3f
00000040: d3e8 9f3f 1a51 953f f47c 983f f827 993f
00000050: bd8c 9e3f a5b4 963f 76df a33f dbe8 a73f
00000060: a657 a63f edce 973f 01db 943f 3ac0 9b3f
00000070: 3bf7 9b3f 22ae a53f 3b79 9e3f 9729 a03f
1.1369348 1.2924002 1.2381676 1.2876444 1.1868528 1.2726072 1.1889114 1.1430882
1.1903112 1.2151653 1.2535821 1.2551789 1.2457393 1.2085348 1.1262712 1.2416425
1.2492927 1.1665375 1.1913133 1.1965322 1.23867 1.1773878 1.280257 1.3117937
1.2995498 1.1860024 1.1629335 1.2168038 1.2184824 1.2943766 1.2380747 1.2512692

bn3.bias f4 [32]
00000000: 549b ce3d 3c32 073e eee9 fa3d bfab c63d
00000010: c1be 9a3d fc7d 7e3d a9e1 f03d ef79 3dbc
00000020: bbdf 883d d8a5 6dbc c756 9a3d 3b28 113d
00000030: ccea 0e3d 67f7 023e 4348 823d 9f6f 6f3d
00000040: 70f7 093d 2eb7 513d 34a1 523d fb27 053e
00000050: 6970 f03d 9c8e 473d ef11 953d b533 fa3d
00000060: 31e6 713d fe89 d13d bac2 c93d e883 853d
00000070: a32b 1b3c 99d4 c03d a0a1 8e3d 0a3f 1c3d
0.1008822 0.13202757 0.1225165 0.09700727 0.07555915 0.062131867 0.11761791 -0.011564716
0.06683298 -0.014504872 0.07536083 0.035438757 0.03489189 0.12789689 0.06361439 0.05845606
0.03368324 0.051200084 0.051423267 0.13003533 0.117401905 0.048719987 0.07278811 0.122168936
0.05905742 0.10231398 0.09851594 0.065193 0.009470853 0.0941555 0.06964421 0.038146056

bn3.running_mean f4 [32]
00000000: 2cd5 afbe 884e dbbe fba4 593e fa4b 05bf
00000010: 4779 0c3f 108e afbd 08b8 28bf 0f2d 5e3e
00000020: aaba d63e b974 6d3f fd83 223e a7cc 8c3b
00000030: ca58 d33e c986 13be 8a3c 90be 9dea 3d3e
00000040: b03a 0a3f dfe2 e6bd b65d a43e 9609 173f
00000050: c8c7 64bf 0017 133f f089 46bc 5d52 c73d
00000060: ee4b b43e 1ca1 953e 35ba 233e c745 04bf
00000070: cc7e 0d3f ce1c 81bf b8ac bd3e 9d27 95be
-0.34342325 -0.42833352 0.21254341 -0.52069056 0.54872555 -0.08572018 -0.6590581 0.21696876
0.41939288 0.9275623 0.15870662 0.0042968574 0.41278678 -0.14406885 -0.28171188 0.18546529
0.539958 -0.11273741 0.32102746 0.58999 -0.8936734 0.5745697 -0.012117848 0.097325064
0.3521418 0.2922448 0.15989001 -0.5166897 0.552716 -1.0086915 0.37045836 -0.29131785

bn3.running_var f4 [32]
00000000: e780 993e 5038 2e3e 67a5 9d3e 3bee b63d
00000010: b8e8 413e 0793 f53d 1821 733d ddd9 203e
00000020: 51cd 8a3e 342a 153e b692 0e3e 87d1 d73d
00000030: 3f4c cf3d 76b6 2a3e b4b3 f33e f3f5 193e
00000040: 5bc7 2e3e f326 6f3e d709 d73e 8dc1 a03e
00000050: b723 b03e 33b7 363e 2766 293e 588f 403e
00000060: 9513 813e 8a71 e93d 2899 833e 25a1 933e
00000070: 973f 223e 882a ef3d 8695 383e 35ac 053e
0.29981157 0.17013669 0.30790254 0.089321576 0.18936431 0.11990934 0.059357733 0.15708108
0.2710977 0.1456688 0.13923153 0.10538011 0.10121965 0.16671166 0.4759804 0.15035228
0.17068236 0.23354702 0.41999695 0.31397668 0.34402248 0.17843322 0.16542874 0.18804681
0.25210252 0.11398609 0.25702786 0.2883388 0.1584457 0.11678034 0.18025789 0.13053973

fc1.weight f4 [4, 128]
00000000: 9d03 383b 1644 cbbd c310 44bd 9e88 5e3c
00000010: 17e5 f9bc c8e7 b8bc 3630 eabd d96f 653e
00000020: d510 87bd 6688 b43d db91 a2bd eba9 973e
00000030: aba1 813d 9bcb f4bd d8d6 013d fbce afbe
00000040: 86a7 a63c 26f2 2ebe 9c45 48bd ba3d 4bbe
00000050: fc3b 733d 64fe 343c 2d32 c2bd e169 b3be
00000060: 39c4 b7bd 63f1 cbbd ae8a d8bd 0d9d 3fbe
00000070: 7c63 293c 98ae c4bd 86fa da3c 4c59 10be
00000080: 801d 663c 5828 c5bd 7bf1 233d 945c e73d
00000090: 83f2 553d 65a2 55bd 517e 3bbd f195 eabc
000000a0: 7bae bd3d ba78 95bd ede9 87bd 8834 2abe
000000b0: c2e5 5e3d 7921 0abd aa8b a53d 709f 4f3e
000000c0: 68a7 fb3c 4404 a3bd 1654 97bd cc4b 2e3e
000000d0: 9a1f 07be fe97 3cbe f640 50bd d661 db3d
000000e0: 9d71 46bd 7fe4 0f3d 15e6 77bd c2f3 cabd
000000f0: 31b7 1a3d 5f79 353d 9c5c 30be ca49 1e3e
00000100: e6bf c53d d63e a7bd 7dac dc3c 1cdc 5ebe
00000110: 126c aa3d d4f5 893c 08e8 31be 6076 d33e
00000120: 5cd0 5c3d 5872 58bd 7ebc 1d3d 600c be3d
00000130: 5e6e d73d 62b6 60bd d6f6 ddbd 6407 e2bd
00000140: 9f2b 26bd 201e c8bd bf7c 5fbd ef09 7c3e
00000150: c143 7abd 0432 a4bd db99 8bbe f407 4abe
00000160: 4019 0dbe a1f1 0dbe d822 fcbd b1b8 f8bd
00000170: a127 433c 88ce 65bd 276a 03be e8f6 fcbd
00000180: 09cc 9ebd c62a d83d 8769 443d 0825 0ebe
00000190: d148 1c3c 0cfa a1bc 746b 94bb 4ee2 053e
000001a0: 4ae7 99bb 93f4 bd3d b358 5c3c dfb5 cd3d
000001b0: 1e87 17be 4495 5fbc 88de c33b 1fa7 313e
000001c0: 4160 893d 62cb 3dbd 7257 93bd 899e 32bd
000001d0: f24b ed3c 2334 7bbc e9e2 773c 291b f73c
000001e0: 4b67 963d 809d 1e3c 2db6 6f3c 8d2b 85be
000001f0: 9ff4 b2bd 08d2 bcbc 9155 aa3d c29a 843e
00000200: 0f6c 0a3e 5e0d f23c 2c3e 12be 54e7 17bd
00000210: c24c 9cbd b0b5 793d 54b6 c23d b9ef 313d
00000220: 17d6 d5bd 3abd 803d f044 ba3d 758c 8bbd
00000230: cf0e 943d 4376 35be ae01 dd3c a265 ed3d
00000240: cbbf 973d bf46 1cbd aa10 b8bc 8f28 00be
00000250: d564 523d 3143 1abe 2883 ffbd afd9 00be
00000260: 14c0 b1bd 9a68 0cbd 62df 2bbe 071e 043e
00000270: 9a55 3a3d c963 c6bd 329c a23b 314e e4bd
00000280: 42c1 0a3e cadb 0fbe 5e08 c1bb c3d7 893d
00000290: 4ef8 26bd eb28 41be 0c02 0f3d dca9 e4bd
000002a0: be45 af3d 433b 64be b9b4 0ebd eea0 e63d
000002b0: 9b14 713d 1bee 6fbe db90 f03c 01d9 6cbe
000002c0: b361 cb3d 1a0f 62be d0ea 9f3c f855 23be
000002d0: 2486 553d 5f14 eebd 826e 54be 783d 40be
000002e0: 7806 31bd 786b 94bd 7c4b 8b3c 92d7 c4bd
000002f0: ea11 e93d 861c 7fbd 6a1e 6f3c 1dfc 41be
00000300: 4970 b3bc 0dd5 81be 19dd 8b3d 43e8 d53c
00000310: 5405 0bbd 46f8 14bc 7283 1c3e 89bf 72be
00000320: f12d aa3d b8de 98bd c402 fdbd 20ef 1ebc
00000330: 00a8 063e 7bdc 853d feb0 01be 9e00 263d
00000340: f1e7 acbc ab3a 193e 46d8 b43c 82ef a33d
00000350: a9b7 e13d 94ac 69bd 2a4b bbbd 3e22 60be
00000360: a901 1dbe b2e4 aabd 4a8c 28be e186 fc3d
00000370: b7ce 243e 6afc 693d 7d00 f4bd 923e 94bd
00000380: d420 8a3d 5cda 72be edf2 7cbd 2fe7 7b3d
00000390: 4af3 a83a ddc1 063e da8d 10be 6a3c 4abe
000003a0: a903 033e a5c9 163e 9db6 9e3d b17e 183d
000003b0: 26b4 69bd 764c 1d3d 162e 143e b7de 89be
000003c0: 8e70 8a3d 2884 14be ee09 a5bd c40f f2bd
000003d0: ad1f fc3d e693 02bd 7ffc 123e efd2 4e3e
000003e0: 71fc b13c 2bb7 fd3a 6187 4e3d 29c3 c8bc
000003f0: e50f 553b 491d f7bd 758a d43a 539b 85be
0.0028078326 -0.09925096 -0.047867548 0.013582377 -0.030504746 -0.02257146 -0.11434977 0.22405948
-0.06595007 0.088150784 -0.07937976 0.29621825 0.06329664 -0.11952897 0.03169903 -0.343376
0.020343553 -0.1708456 -0.04889451 -0.19847766 0.059383377 0.01104698 -0.094822265 -0.35041717
-0.089729734 -0.0995815 -0.10573326 -0.18712254 0.01033866 -0.096036136 0.026730787 -0.14096564
0.014045119 -0.096268356 0.040025216 0.11296955 0.05223323 -0.052156825 -0.04577476 -0.02863595
0.09261795 -0.072984174 -0.06636415 -0.16621602 0.054418333 -0.03372333 0.080832794 0.20275664
0.030719474 -0.07959798 -0.07389085 0.17021102 -0.13195649 -0.18417355 -0.0508432 0.1071202
-0.048448194 0.03513002 -0.060522158 -0.09909774 0.03777236 0.0443052 -0.17222828 0.15457836
0.09655742 -0.08166282 0.026937718 -0.21763653 0.08321394 0.016840853 -0.17373669 0.4130125
0.053909644 -0.05284342 0.03850984 0.09279704 0.10519098 -0.054861434 -0.10838096 -0.11036566
-0.040568944 -0.09771371 -0.054562327 0.24613164 -0.06109977 -0.08017352 -0.2726582 -0.19729596
-0.13779163 -0.13861705 -0.123113334 -0.12144602 0.011911304 -0.056105167 -0.12833463 -0.12351781
-0.0775376 0.105550334 0.0479522 -0.13881314 0.009538845 -0.019772552 -0.004529411 0.1307461
-0.0046967613 0.092751645 0.013448882 0.10044455 -0.14797637 -0.013646428 0.0059774555 0.17348908
0.06707812 -0.04633654 -0.07194413 -0.043608222 0.028966878 -0.015332255 0.015129783 0.030164318
0.0734392 0.009681106 0.014630836 -0.2600979 -0.08738064 -0.02304937 0.08317102 0.2589932
0.13517784 0.02954739 -0.14281529 -0.037085846 -0.07631828 0.060964286 0.095074326 0.043441508
-0.10441225 0.06286092 0.0909518 -0.068138994 0.07229387 -0.17720895 0.02697834 0.115916505
0.074096285 -0.038153406 -0.022468884 -0.12515472 0.051365692 -0.15064694 -0.12476188 -0.1258304
-0.08679214 -0.034279443 -0.16784433 0.1290208 0.045491792 -0.09687001 0.0049624676 -0.11147726
0.13550285 -0.14048687 -0.00589089 0.067306064 -0.040764146 -0.18863265 0.03491406 -0.111652106
0.08558224 -0.22288232 -0.03484032 0.11261164 0.05885754 -0.23430674 0.029365947 -0.23129655
0.09930744 -0.22076073 0.019521147 -0.15950763 0.05212988 -0.11624979 -0.2074528 -0.18773448
-0.04321906 -0.072470605 0.017003767 -0.09611429 0.1138037 -0.06228306 0.014594654 -0.1894383
-0.021904128 -0.25357857 0.068292804 0.026111728 -0.03394063 -0.009092396 0.15284517 -0.23705877
0.08309544 -0.07464355 -0.12354043 -0.0097005665 0.13150024 0.06536194 -0.12665173 0.040527932
-0.021106692 0.14963786 0.022075783 0.08004667 0.110213585 -0.05704935 -0.09145196 -0.21888062
-0.15332665 -0.083444014 -0.16459766 0.123304136 0.1609448 0.057125486 -0.11914156 -0.07238497
0.06744543 -0.2371611 -0.06175511 0.06149977 0.0012889889 0.1315989 -0.14116612 -0.19749609
0.12794365 0.14725359 0.077496745 0.037230197 -0.05705657 0.038402997 0.14470705 -0.2692773
0.06759749 -0.14503539 -0.080585346 -0.11819413 0.12310729 -0.03187933 0.14354132 0.20197652
0.021726819 0.0019356956 0.050422076 -0.024507122 0.0032510695 -0.120661326 0.001621558 -0.26095065

fc1.bias f4 [4]
00000000: 574f d2bd ba7a 103d 86a7 bfbd ad82 fe3c
-0.10269039 0.03527329 -0.093581244 0.03106817
