pths/classifier_train.pth (torch, 61572 bytes, 20 tensors)

conv1.weight f4 [32, 1, 3]
000000 42 d3 0d be 73 01 5c 3e 71 5e 0b 3f 60 5e bc bd
       -0.1385012 0.21484928 0.5444098 -0.09197688
000010 e2 3e 38 3e eb 0d 00 3e 01 93 57 3c 4d 3d b5 3e
       0.17992738 0.1250531 0.013157607 0.3539833
000020 bc b5 dc 3e 0f 0e 6c bc e0 f5 ee 3e 35 cb 38 be
       0.43107402 -0.014407649 0.46671963 -0.18046267
000030 30 89 b1 bd 24 88 15 3f 8b 9a c6 3e 6b 8d ca 3e
       -0.086687446 0.5841086 0.38789782 0.39561018
000040 be 1f a7 be 92 67 70 be 30 b7 bb 3e cd 4a 68 bd
       -0.32641405 -0.23477009 0.36663198 -0.05671196
000050 c5 47 99 bd 77 72 6c 3e 73 aa 88 be 46 ac fe 3e
       -0.07484392 0.2309054 -0.26692542 0.4974081
000060 84 cc d6 be 5f 4f 57 bd 5e 2f 7b be f9 9e 03 bf
       -0.41952908 -0.05256593 -0.24529788 -0.5141445
000070 e5 bc f6 be 20 f5 04 bf 2d 3e 5c bd 7f 68 dd 3c
       -0.4819099 -0.5193653 -0.053770233 0.027027367
000080 4f 05 8f 3e 7d c8 e2 3e 63 bb 06 bf b0 fd 7f 3d
       0.27933738 0.44293585 -0.5262968 0.062497795
000090 65 0c 10 bf b2 1a bb be a2 05 0e be 9a c0 3c bd
       -0.5626891 -0.36543804 -0.13869336 -0.046082117
0000a0 95 3e 22 be 26 99 99 3e b8 92 c3 3c 42 b9 1e be
       -0.15844186 0.29999655 0.023873672 -0.15500358
0000b0 e4 d8 fa be 09 c3 40 3e 6a b4 60 bd dd 96 24 bd
       -0.489936 0.188244 -0.054859556 -0.040182937
0000c0 64 c0 c0 3e 8c 0c aa be 43 8e 0d bf d4 1c da 3e
       0.37646782 -0.33212698 -0.552952 0.4260012
0000d0 74 af ab be ac e0 f9 be 18 64 f2 bd 85 81 fc be
       -0.33532298 -0.48804224 -0.118354976 -0.49317566
0000e0 3c 85 fb be fd 66 04 bf c4 f7 06 bd d8 74 ff 3c
       -0.49125087 -0.5171965 -0.03295113 0.031183645
0000f0 7f d8 04 bf e9 20 d9 be 75 0b e7 be 69 a0 7c 3d
       -0.51892847 -0.4240792 -0.4512593 0.061676417
000100 b7 c0 04 bf b9 90 02 3f bc 87 a6 be f4 15 0d bf
       -0.5185656 0.5100208 -0.32525432 -0.5511162
000110 07 40 f2 be 08 a6 f5 3e c8 ab c7 be 08 56 dc 3e
       -0.47314474 0.47978234 -0.38998246 0.43034387
000120 13 e5 c0 bb 24 df e5 3d 27 6a 5c 3e 36 42 81 3e
       -0.005886683 0.11224201 0.21524869 0.25245827
000130 3c 10 bf 3e d6 57 91 be 2f 5c 3c 3e 32 65 64 be
       0.37317073 -0.28387326 0.1839454 -0.22304228
000140 4c 7f 64 3e 8f 6a 23 be a0 4c 32 3e fb dd 88 3d
       0.22314185 -0.15958618 0.17412043 0.066829644
000150 a2 f6 c6 be 72 1e e0 be c6 f3 1f be 19 7a 24 3d
       -0.3886004 -0.43773228 -0.15620336 0.040155504
000160 57 01 12 bf af 97 b3 be 69 fa 6b 3e c5 13 8a 3e
       -0.57033294 -0.35076663 0.23044743 0.26968208
000170 85 ac b0 3c 27 2f cc be 9f 61 91 be 84 61 84 3e
       0.021566639 -0.39879724 -0.2839479 0.2585565

conv1.bias f4 [32]
000000 39 a9 9b be 70 18 06 3f d0 62 ed be a6 98 c7 3d
       -0.30402544 0.5238104 -0.4636445 0.09745912
000010 67 be 50 3d 76 e2 f1 be 7b 1e a3 3d 5f 38 88 3e
       0.05096283 -0.47243088 0.07964798 0.26605508
000020 96 f4 95 bd ea 38 0f 3f 59 b1 58 be 32 4f fd be
       -0.07322042 0.5594622 -0.21161403 -0.49474484
000030 ba 9a bf 3e 04 50 e0 3c 62 23 4f be f9 b0 86 3e
       0.37422734 0.027381904 -0.20228341 0.26306894
000040 bf 36 06 bf a3 bc 48 be cc cf e8 3e 36 45 0c 3f
       -0.52427286 -0.19603209 0.45471036 0.5479311
000050 85 67 3c bd 00 61 b5 3e e1 04 43 3e 2f 44 72 bd
       -0.04599716 0.35425568 0.1904483 -0.059147056
000060 30 e3 40 be 22 af da 3e 29 e5 fa 3e 8a e3 4e bd
       -0.18836665 0.4271174 0.4900296 -0.050509967
000070 b7 dc 63 be 77 f6 86 3e 22 bc 3c 3e 58 dc 2b be
       -0.22252165 0.26359913 0.18431142 -0.16783273

bn1.weight f4 [32]
000000 15 32 80 3f b5 62 80 3f 26 e2 80 3f c8 e7 7e 3f
       1.0015284 1.0030123 1.0069015 0.9957242
000010 16 b6 7d 3f bf 72 7c 3f 21 af 80 3f 00 d4 81 3f
       0.99105966 0.9861259 1.0053445 1.0142822
000020 ee 67 81 3f 99 b6 81 3f 00 b4 7c 3f 67 ee 80 3f
       1.0109842 1.0133849 0.9871216 1.0072755
000030 54 52 81 3f a2 37 7e 3f 36 69 82 3f fd 5a 80 3f
       1.010325 0.9930364 1.0188358 1.0027767
000040 89 3a 81 3f 1f 5f 80 3f da 0c 83 3f 8e 5f 7c 3f
       1.0095989 1.0029029 1.0238297 0.98583305
000050 a2 f3 81 3f 6f 2c 7f 3f ae f0 81 3f 80 b9 7b 3f
       1.0152476 0.99677175 1.0151575 0.98329926
000060 a4 b2 7e 3f 2b 6e 7b 3f ff 31 81 3f 2c 4c 7d 3f
       0.99491334 0.9821498 1.0093383 0.98944354
000070 7b d6 7c 3f ab 3b 82 3f a0 11 80 3f 0c 9d 80 3f
       0.9876477 1.0174459 1.0005379 1.0047927

bn1.bias f4 [32]
000000 0e e3 e5 3b 4c 47 7d 3b 95 08 2d 3c 14 01 8c bb
       0.0070155924 0.0038647233 0.010561128 -0.0042725895
000010 71 9f 61 bc ad dd 82 bc e1 3f 47 3a 04 f8 7e 3c
       -0.013770924 -0.015974844 0.0007600766 0.015562061
000020 2c 89 a3 3c 19 9e 94 3c 04 b3 18 bc 67 ab 77 3c
       0.01996287 0.018141793 -0.009320024 0.015116549
000030 3b 78 26 3c 7a 6e 94 bb ac f5 d2 3c 89 b6 98 bb
       0.010160501 -0.0045297714 0.025751911 -0.0046604318
000040 44 84 84 3c 66 1f bd 3a 31 18 fe 3c 6b 54 1c bc
       0.01617635 0.0014428913 0.031017395 -0.009541611
000050 9c 85 99 3c b5 95 52 bc d0 3d b3 3c 6b 5d 97 bc
       0.018740468 -0.012853076 0.02188006 -0.018477162
000060 4f 1e de 3b 06 d9 9f bc d2 91 a0 3c c7 62 34 bc
       0.0067785154 -0.019512665 0.019600783 -0.0110098785
000070 03 fc 41 bc 33 9c c6 3c ca f4 e2 3b 43 e0 8e 3c
       -0.011839869 0.024244403 0.006926154 0.01744092

bn1.running_mean f4 [32]
000000 12 e2 41 be 6e a7 10 3f 7e b8 a3 be 08 5f 18 3e
       -0.18933895 0.5650548 -0.31976694 0.14880002
000010 af 78 5a 3e 82 98 02 bf a2 a3 e9 3d cf c1 af 3e
       0.213351 -0.5101396 0.114081636 0.34327552
000020 2a 64 46 be 58 70 97 3e de 2e 29 be e6 62 02 bf
       -0.19374147 0.295779 -0.16521785 -0.5093216
000030 77 17 44 3e 89 f4 38 3d a2 2f a1 be 0e 76 8d 3e
       0.19149576 0.045155082 -0.31481653 0.2762913
000040 8b b1 1f bf 6f 2d 8d be 6f 94 83 3e 47 b9 ed 3e
       -0.62380284 -0.27573726 0.25699183 0.46430418
000050 3e 2f 93 be 5e 89 b8 3e 4a 3c 47 bd de 89 c5 3c
       -0.2874698 0.36042303 -0.04864148 0.024113592
000060 2a 49 05 be 7b de f8 3e c2 eb 04 3f ef d7 02 bd
       -0.13016191 0.4860724 0.5192224 -0.03194421
000070 30 6d c9 be 5f c4 d1 3d be 8a 8c 3e aa af 73 be
       -0.39341116 0.10242533 0.27449602 -0.2379748

bn1.running_var f4 [32]
000000 ef c3 12 3d 9b a5 8d 3b d6 45 5f 3d 06 cc 2e 3c
       0.035831388 0.00432272 0.05450996 0.01066876
000010 2a d1 8c 3d 6f 2d aa 3b 6b 4c 9d 3b 85 ab b6 3c
       0.068758324 0.0051934044 0.0048003695 0.022298584
000020 04 bc 29 3d ff f1 3f 3e 53 f0 cd 3b 5b f6 a5 3b
       0.04143907 0.18744658 0.0062847524 0.0050647683
000030 39 94 bd 3d 21 a9 44 3b 46 a7 0c 3d 4c 94 59 3a
       0.09256787 0.0030008035 0.034339212 0.0008299991
000040 dc d5 df 3c 76 1e 99 3c ed 3b d2 3d 8e 2c b3 3c
       0.027323656 0.018691283 0.10265336 0.021871831
000050 2d ad 21 3e 74 d9 2a 3c e6 51 1a 3e 0a 2a e0 3c
       0.15788718 0.010427821 0.15070304 0.027363796
000060 c6 3d 13 3c 75 fe 6a 3c 99 2c 92 3b ec e2 92 3a
       0.008986896 0.014342894 0.004460883 0.0011206544
000070 a2 f3 a2 3d d5 19 8a 3d 37 fa ba 3c 01 95 94 3c
       0.079566255 0.06743208 0.02282439 0.018137457

conv2.weight f4 [64, 32, 3]
000000 d3 00 ac bc d5 61 ba bd 54 56 b9 3d 70 54 6c bd
       -0.020996487 -0.09100691 0.09049669 -0.057697713
000010 e5 77 dd 3c 02 ac f0 bc d7 2c 37 bd bd 11 9c 3c
       0.02703471 -0.029378895 -0.044720497 0.019051427
000020 91 8d 1e bd 64 22 c6 3c bf cf a1 bd b9 62 72 bd
       -0.038709227 0.02418632 -0.079009525 -0.05917618
000030 6c d6 63 bd 29 f8 89 bc fe c2 fb bb aa 21 b4 bc
       -0.05562441 -0.016841965 -0.007683157 -0.021988709
000040 59 b1 49 3c b8 69 f3 bc c6 17 b7 bd c6 58 c7 3d
       0.012310349 -0.029713497 -0.08940081 0.09733729
000050 e1 18 ae 3c 01 c3 86 3d c9 b5 10 bd 3e 2e 2b bd
       0.021252098 0.06580163 -0.035329614 -0.041792147
000060 d8 4b 86 bd 07 28 bd bd 8c 6f b9 bc 5e ef a0 3c
       -0.06557435 -0.0923615 -0.022636198 0.01964539
000070 88 3e af 3d cc ed 8d bd 19 37 af bd 6d 70 3a bb
       0.08556849 -0.06930122 -0.08555431 -0.0028448359
000080 bb 5d 9c bc 10 36 ea bd 76 a3 6e 3d a1 37 d2 3c
       -0.019087663 -0.11436093 0.058261357 0.025661292
000090 6a 7c 5b bd 5a 4f ab 3d 4c 52 5b bb eb 6f 77 3d
       -0.053585447 0.083647445 -0.00334658 0.060409468
0000a0 45 bd d3 bd ca 56 ca 3d b6 d9 e4 ba 3b 52 92 3d
       -0.10338835 0.09879835 -0.0017459902 0.071445905
0000b0 2d 80 90 bd 1a 28 ff 3b f2 b2 88 3d 7b 07 28 bd
       -0.070556976 0.007786763 0.06674756 -0.04102276
0000c0 2a 65 c8 bd 74 22 84 3d 62 48 0b 3d 12 09 a6 3d
       -0.097849205 0.06451884 0.034004577 0.08107199
0000d0 19 20 d4 bd ba 5b 0a 3d 4e ee 58 3d e7 42 b0 3d
       -0.10357685 0.033778884 0.05296164 0.086065106
0000e0 45 47 92 3d e4 d7 c2 bd d5 22 60 bd ac 87 43 3c
       0.071425 -0.09513834 -0.05472072 0.011934202
0000f0 74 c5 c1 3c 5e de c7 bd 66 66 95 3d cc 9e 41 bd
       0.023653723 -0.0975921 0.072949216 -0.04727058
000100 12 27 19 bd 72 c0 9c 3c 0e 1a 81 bc f9 ac 97 3d
       -0.037390776 0.019134734 -0.015759494 0.07406039
000110 91 dd c0 3d 45 70 34 bc 51 56 82 3d 88 58 b5 bd
       0.094172604 -0.011013095 0.0636412 -0.088547766
000120 a0 2f 8c bd f2 e7 61 bc 74 25 e7 bc 7e dc a1 3d
       -0.06845021 -0.01378821 -0.028216101 0.07903384
000130 d5 1a 9c 3d 7f d2 04 3b 70 2b 8e 3d da da cb 3d
       0.07622305 0.0020267067 0.06941879 0.09953852
000140 c9 02 bc 3d 99 93 72 3d bd 0a 18 bc e3 bd 68 3d
       0.09180219 0.05922279 -0.009279904 0.056821715
000150 8b 85 9f 3c 90 33 a9 bd dd 29 b6 bb 3c 64 31 bd
       0.019472858 -0.08261788 -0.0055591897 -0.04330848
000160 3b f7 58 bc 44 53 98 bd f8 c7 84 bd 77 a7 cf bd
       -0.013242538 -0.07437757 -0.064834535 -0.10139363
000170 c9 a0 86 3d aa bb 09 3c 77 86 cb 3c fd 4d 6b 3d
       0.06573636 0.008406559 0.024844391 0.057447422
000180 a0 8c 4f bd cc a7 25 3d 79 a1 02 3d ab c4 98 bb
       -0.05067122 0.040443227 0.031892274 -0.0046621165
000190 fa 42 9e bd c2 28 07 3d 29 a1 9e 3d 36 ff bb bd
       -0.077276185 0.032997854 0.077455826 -0.09179537
0001a0 c2 9f ba 3d ba 8c 8a 3d 88 b5 a0 3c 27 80 41 3d
       0.09112503 0.06765123 0.01961781 0.047241356
0001b0 e0 60 0d bd ca 56 71 bc a8 0e 3b 3d 0e 7f 86 bd
       -0.034516215 -0.014730165 0.045668274 -0.065672025
0001c0 90 51 25 b9 fc e2 28 3d 87 6d 18 bd af d6 86 3d
       -0.0001576601 0.041232094 -0.03721383 0.065839164
0001d0 22 77 97 3d 98 0d fe 3c 4a 8c 51 bd 99 f3 2f 3d
       0.0739577 0.031012341 -0.05115918 0.042956922
0001e0 82 a2 a9 3c d7 82 32 3d 0a a9 e1 3c e9 fb 19 bd
       0.020707373 0.04358181 0.027546424 -0.037593756
0001f0 cd d6 0f 3c fb 90 a1 3d 70 ad 77 3c cb 1b 9f bd
       0.00877924 0.07888981 0.015117034 -0.07768973
000200 fb 08 c4 bd 6e 8f 96 3d b3 3a 24 3c 7b ef 98 bd
       -0.095720254 0.07351576 0.010023761 -0.07467552
000210 be f3 bd bd 9b c2 ac bd b0 63 aa bd 1d 21 0e 3c
       -0.09275006 -0.084355555 -0.08319795 0.008674887
000220 3a 17 75 3a 51 22 85 3d 8f ed a5 3d 55 66 16 bc
       0.00093494693 0.06500686 0.08101951 -0.009179671
000230 5a e6 b9 3d 9a 05 c7 3d 99 4f 7d 3c 15 fa a9 bc
       0.09077139 0.09717865 0.015460872 -0.020749131
000240 3c 6c 99 3d 4d 95 86 3d ae 47 a6 bc 69 f8 14 bd
       0.07491347 0.065714456 -0.020297851 -0.036369715
000250 b9 8f b4 3d ea 93 35 bc 32 4e 57 3d 26 2c cc 3d
       0.088164754 -0.011082629 0.052564807 0.09969358
000260 a7 6e 13 bd ff f9 b5 3d e8 58 99 3c bb 6e ee 3c
       -0.0359942 0.088855736 0.018719152 0.029105535
000270 9a 0c a1 ba d9 96 7e bc 99 e3 21 3c 77 58 0b 3d
       -0.0012287081 -0.015538895 0.009880924 0.034019914
000280 c7 fe 94 bc f8 d4 0b bd a0 f2 41 bc 7f 84 3f bd
       -0.018187894 -0.03413865 -0.011837631 -0.046757217
000290 09 fb a2 3d cd ec ae 3d da 54 0f bd 91 3b 1f 3d
       0.079580374 0.0854126 -0.03499303 0.038875166
0002a0 7f df b3 bc 69 71 bb 3c 86 58 86 3d 79 6d 97 bd
       -0.021957157 0.022881227 0.06559853 -0.07393927
0002b0 3a 9c 12 3d b2 6c b1 3d e3 3e 19 3d fb 71 54 bd
       0.03579352 0.0866331 0.03741349 -0.051866513
0002c0 5a af b4 3d e4 44 ab 3c d6 a0 87 bd 34 34 5a 3c
       0.08822508 0.020906873 -0.06622474 0.01331811
0002d0 5d a8 62 bd 7c 50 9d bd 76 48 9a bc 43 39 6b bd
       -0.055336345 -0.07681367 -0.01883338 -0.057427656
0002e0 49 33 4b 3d 3a 3f a7 bc 93 d9 c2 3c 73 53 53 3d
       0.049609456 -0.020415891 0.023785388 0.051593255
0002f0 8f 08 c4 bc 27 43 ba 3d 3b e1 b8 3c ea 1e 59 bd
       -0.023929862 0.090948395 0.022568336 -0.053007998
000300 f7 bc 8e bd 45 50 ba 3d ec c3 a6 bd 67 86 4b 3d
       -0.06969636 0.090973414 -0.08142838 0.049688723
000310 27 02 07 3d bb 78 27 bd 71 70 b9 bd 2a bb b5 bd
       0.032961037 -0.040886622 -0.090546496 -0.08873589
000320 90 13 9c ba be c0 05 bd ab 9b 83 3d 35 9e 7b 3d
       -0.0011907686 -0.032654516 0.06426176 0.061430175
000330 c2 bb 10 3c 2d 02 cf 3b 30 7f cb bd b4 0b c7 3d
       0.008833827 0.006317398 -0.099363685 0.09719029
000340 69 ef 35 bd 78 2f e9 bc cd 58 4a bd 29 b2 c3 bd
       -0.044417772 -0.028465018 -0.049401093 -0.09555466
000350 d1 71 d8 bd 83 dd ac bd 84 58 a6 3d ec 9b a1 bd
       -0.10568584 -0.084406875 0.08122352 -0.07891068
000360 7b fa bc 3d c2 9e ac 3d 87 42 3c bd c0 31 9d bc
       0.09227463 0.08428718 -0.045961883 -0.019188762
000370 15 87 ca 3c 55 13 b5 bd fc 45 c4 3d ff a6 bd 3d
       0.024722615 -0.08841578 0.09583661 0.092603676
000380 7c c6 ce bd 68 12 d4 3d ec f8 a4 bc 46 49 31 3d
       -0.10096452 0.10355073 -0.020138226 0.04328277
000390 9b 5a 15 bc 71 93 2d 3d 34 c5 6c bd 68 a8 bd 3d
       -0.00911584 0.04237694 -0.057805255 0.092606366
0003a0 0b b4 97 bd d4 ab 89 bd 43 6a c2 3d 64 55 2b 3d
       -0.07407387 -0.06722227 0.09492924 0.04182948
0003b0 a2 3b f3 bc ee b6 5d 3d e2 9b 33 bc a0 33 61 3d
       -0.029691521 0.054129533 -0.010962458 0.054980874
0003c0 d3 fc 4a bd 31 d2 6d 3d 46 b0 8d bc 95 ae bf bb
       -0.04955752 0.058061782 -0.017295968 -0.005849669
0003d0 d5 fc ed bc f9 4c 13 3d 91 07 fb 3c dd c1 a3 bd
       -0.029051224 0.03596208 0.030643256 -0.07995961
0003e0 02 f5 fb bc 71 37 14 3c 3c ae f2 3c da 87 1d 3d
       -0.030756477 0.009046421 0.029624097 0.038459636
0003f0 3c ed 82 bd a2 12 cb bd d2 65 15 3c fb d6 8f bc
       -0.06392905 -0.09915663 0.009118514 -0.017558565

conv2.bias f4 [64]
000000 05 50 08 3d 39 32 60 3d 66 cb 78 3d df ef c0 bc
       0.033279438 0.054735396 0.06074085 -0.02355188
000010 64 ac a6 bd 7e f5 8a 3c 97 cd 9a bd 24 e7 f5 3c
       -0.0813835 0.016962763 -0.075587444 0.030017443
000020 0e 87 d0 3d c7 64 bd 3d 7d 16 86 bd 83 f0 62 3d
       0.1018201 0.092477374 -0.06547258 0.05540515
000030 5b 05 2b bb 21 c7 7c bd da 9f 3e bd 61 db 9f 3d
       -0.0026095721 -0.06171334 -0.046539165 0.07805515
000040 1f 96 bf bc 7c e7 57 3d 1f d7 9f bd 5a e5 83 3d
       -0.023387013 0.052710995 -0.07804703 0.0644023
000050 d8 30 96 bd 25 d4 a0 bc 4b 53 9d bd e3 4f c5 bc
       -0.07333535 -0.019632408 -0.076819025 -0.024085945
000060 39 76 8f bd 7f dc bb 3d 35 e3 90 bd 2c 70 cf b9
       -0.07004971 0.09172916 -0.07074586 -0.0003956569
000070 4e ac 4b 3d 66 b4 43 bd e1 47 5b bd cb c6 17 bd
       0.04972487 -0.047779463 -0.053535346 -0.037054818
000080 3b c9 83 3d c4 3a a2 3d 56 82 b0 bd 74 af 0f bd
       0.06434866 0.07921365 -0.086186096 -0.035079435
000090 8c de 49 3c 0a 1a a2 bc c7 47 09 3d 5e 81 a5 3d
       0.012321126 -0.019787807 0.033515718 0.080813155
0000a0 23 b3 23 3d 56 11 15 bd d3 a4 3c 3d 92 b6 b1 3d
       0.03996576 -0.036393486 0.046055626 0.08677401
0000b0 d4 37 a5 bd 41 8c b2 bd 0e d3 94 3d 2a f6 ad bd
       -0.08067289 -0.087181576 0.07266818 -0.08494218
0000c0 bc 9e 9f 3d a6 70 11 bc 02 4d 93 3c 8e 77 da bc
       0.07793948 -0.008876955 0.017981056 -0.026668336
0000d0 ce da 88 bd 2d 2b ee bc 31 b7 32 3d 21 25 22 3d
       -0.06682359 -0.029073322 0.043631736 0.03958619
0000e0 04 87 9d bd b5 ab 04 bd 03 f4 ad 3d eb 48 8e bd
       -0.07691768 -0.032390315 0.08493807 -0.06947502
0000f0 24 c6 a1 3c ab ab f0 bc 03 59 5a b9 e9 ee b4 bd
       0.019747801 -0.029378733 -0.0002082326 -0.08834631

bn2.weight f4 [64]
000000 ab a8 80 3f 8a 2e 7b 3f 81 f2 80 3f 10 5a 7c 3f
       1.0051473 0.9811789 1.0074006 0.98574924
000010 13 22 80 3f 6b d1 77 3f 6f bc 7f 3f ca e7 80 3f
       1.0010399 0.9680392 0.998969 1.0070736
000020 3d a7 87 3f 1e c4 81 3f 55 cb 7e 3f 37 8c 82 3f
       1.0597912 1.0137975 0.9952901 1.019904
000030 81 73 7c 3f 38 4c 81 3f 73 2f 7d 3f 2c 07 81 3f
       0.98613745 1.0101385 0.98900527 1.0080314
000040 88 a9 7c 3f 62 27 83 3f b5 68 7d 3f 07 fb 7d 3f
       0.98696184 1.0246394 0.98987895 0.9921116
000050 6c 35 7c 3f cf 63 7f 3f c1 61 7e 3f 33 b1 7c 3f
       0.98519015 0.9976167 0.9936791 0.98707885
000060 07 78 7e 3f ac a4 7c 3f b4 62 7b 3f 49 d2 7c 3f
       0.994019 0.9868877 0.98197484 0.9875837
000070 4c 11 7f 3f 6b bf 7a 3f ef 4d 7d 3f 84 68 80 3f
       0.9963577 0.9794833 0.9894704 1.0031896
000080 50 77 81 3f 26 9d 85 3f 24 67 81 3f e4 df 7d 3f
       1.0114536 1.0438583 1.0109601 0.99169755
000090 a2 ca 7b 3f 5e 02 7e 3f 9e 36 7e 3f 0c e6 7b 3f
       0.9835607 0.9922236 0.9930209 0.983979
0000a0 25 07 7b 3f e8 f3 80 3f 4c f5 7f 3f e5 a9 7d 3f
       0.98057777 1.0074434 0.9998367 0.99087363
0000b0 77 b8 78 3f 0b 3b 80 3f 2a ca 7d 3f 58 66 7f 3f
       0.9715647 1.0018018 0.991366 0.9976554
0000c0 96 5d 7b 3f 1a 24 82 3f c5 9a 80 3f c2 47 7e 3f
       0.98189676 1.0167267 1.0047232 0.99328244
0000d0 97 6d 7f 3f 4f 33 7d 3f 17 2c 81 3f b5 fb 7c 3f
       0.99776596 0.98906416 1.009158 0.98821574
0000e0 0a 71 7e 3f 8e 5f 7f 3f 08 ae 7e 3f d1 15 80 3f
       0.99391234 0.9975518 0.994843 1.0006658
0000f0 b1 27 88 3f ba d3 7b 3f 40 bb 81 3f bc 90 82 3f
       1.0637113 0.98369944 1.0135269 1.020042

bn2.bias f4 [64]
000000 c3 71 e7 3b 23 ef 93 bb 75 2e ba 3b f5 2a 82 bc
       0.007063122 -0.0045145913 0.0056818076 -0.015889624
000010 0f 67 41 3b c3 93 f1 bc d4 a0 e2 bb 54 59 53 3c
       0.002951089 -0.029489404 -0.006916145 0.012899715
000020 28 bd 7f 3b 56 6c 13 3c c9 c9 a3 bc 2d b9 a2 bb
       0.0039022658 0.008997997 -0.01999368 -0.0049659223
000030 3a 1a e7 bb e1 ca a4 3c ed a7 10 bb 3b be f6 bb
       -0.007052687 0.020116271 -0.0022072748 -0.0075300015
000040 9f 9e 3c 3c e7 f7 04 3b be 28 5e bc f8 62 73 bb
       0.011512428 0.0020289363 -0.013559518 -0.0037137847
000050 63 2a 58 bc 3c 95 90 ba 20 8c 3e 3c 1b 56 ba bc
       -0.0131936995 -0.0011030803 0.011630088 -0.022746136
000060 f4 d4 8f bb ed 83 b5 bc 00 7b 26 bc 7a 97 8e bc
       -0.0043893997 -0.022157634 -0.010161161 -0.017406214
000070 11 b6 a5 bb a8 7b 86 bc 3f 7d 86 bc 58 96 3b bc
       -0.0050571044 -0.016416386 -0.016417144 -0.011449419
000080 c7 a6 05 3b 1b dc f5 bc 8f 8b 2a bc 5a 37 04 38
       0.0020393596 -0.030012181 -0.01040925 3.1522803e-05
000090 1a 3c 87 bc b1 66 56 bc 84 d6 39 b7 a6 52 bd bc
       -0.01650815 -0.013086007 -1.1076805e-05 -0.023110699
0000a0 ac a6 88 bc e9 7d 27 bb f5 63 b1 bc 5e cc ab b8
       -0.016681038 -0.0025557226 -0.021654109 -8.191982e-05
0000b0 99 f9 9d bc ec c1 17 bc 7f 45 f2 ba 2c e6 ed bb
       -0.019284056 -0.009262543 -0.0018483846 -0.0072601046
0000c0 7d c0 1a 3a a1 be 30 3c 7b 1b bc 3b d2 72 bb bb
       0.0005903317 0.010787637 0.0057405806 -0.0057204748
0000d0 ab c8 d8 39 e9 02 94 bc db 66 5b 3c 26 0b 0f bb
       0.0004134824 -0.018067794 0.013391222 -0.0021826713
0000e0 27 db 36 3a 2c eb 0d bc 11 39 12 3b 17 49 d3 bb
       0.0006975405 -0.008662026 0.0022311846 -0.006447922
0000f0 64 ac 8d bc 51 5f a9 bc 29 3e 3d bc 18 ad 71 bc
       -0.017294116 -0.020675333 -0.011550465 -0.014750741

bn2.running_mean f4 [64]
000000 f9 c9 21 bd ad de ce 3e 90 22 95 be e5 d5 70 3d
       -0.039499257 0.40404263 -0.29127932 0.058797736
000010 c9 2c 44 be e0 3f f3 3d 25 4a 46 3f 3a 33 a9 3e
       -0.19157709 0.118774176 0.77456886 0.33046895
000020 77 55 eb bd 0c 18 5e 3d 21 05 b7 be 59 f1 cb 3e
       -0.114909105 0.05422215 -0.357461 0.3983257
000030 8d ce f1 3d 40 af 9c be f2 f2 41 3e ce 9c e3 be
       0.118069746 -0.30602455 0.18940333 -0.4445557
000040 93 bd 75 be 7a 26 86 bc 13 62 2e 3e 2c f8 15 3e
       -0.23998098 -0.016375769 0.170296 0.14645451
000050 57 96 85 3e 99 92 0b bf d4 3c 5c bd 9e 5e 62 3d
       0.26091263 -0.54520565 -0.053768948 0.055266015
000060 f7 7d 83 be ef 4a c6 3c ad 58 d1 be 7b a5 25 be
       -0.2568204 0.024205653 -0.40887967 -0.16176407
000070 b5 83 7b be fd 64 86 bd 44 eb a4 bd 29 8e 1b 3f
       -0.24561961 -0.06562231 -0.08052686 0.60763794
000080 e8 c0 a3 3e aa e9 97 bd 56 d2 12 bf 69 3f a7 be
       0.31983113 -0.07417615 -0.573522 -0.32665566
000090 46 7b e3 3e 7f 66 37 be 53 20 05 3e d4 26 12 3e
       0.44429988 -0.17910193 0.13000612 0.14272624
0000a0 b9 1c a4 bc 4c 4b ef be 36 40 47 be 40 3f 8b be
       -0.020033227 -0.46737134 -0.19458088 -0.27196693
0000b0 ac 91 43 3d 97 98 db 3d f2 af 10 3e d7 71 1a be
       0.047746345 0.107224636 0.14129618 -0.15082489
0000c0 d2 b7 7f bd e8 97 33 3e c9 2d 43 bd ba 9f 12 bf
       -0.062431164 0.17538416 -0.047651086 -0.57274973
0000d0 b0 c2 5c be ad 1d bd bb c1 c0 ac bd 12 09 78 3b
       -0.21558642 -0.00577136 -0.084352024 0.0037847203
0000e0 99 36 da 3d 2d 59 8f be 21 48 ea 3b ed 40 0c 3e
       0.10654945 -0.27997723 0.0071497117 0.13696642
0000f0 18 f7 e2 bd ec e4 01 be cb 8c aa bc 33 c3 53 3e
       -0.11082286 -0.12684983 -0.020819088 0.20679931

bn2.running_var f4 [64]
000000 da f1 47 3d af 0f 14 3e bd c1 40 3e f7 67 0d 3d
       0.048814632 0.14459108 0.18823905 0.034522977
000010 6f ed 44 3e 48 23 b6 3f 7b ce 72 3e 8c c1 24 3e
       0.19231199 1.4229517 0.23711579 0.16089457
000020 01 b5 06 3c 25 84 78 3d 45 7a d5 3c 66 44 f4 3d
       0.008221866 0.060672898 0.02605928 0.119271085
000030 1e 50 7d 3e d2 60 ba 3d bc 82 a7 3d 92 36 67 3c
       0.24737594 0.09100498 0.081792325 0.014112132
000040 2c 8d 8c 3e eb e4 3c 3d e3 ed 48 3e 53 68 53 3e
       0.27451456 0.04611675 0.19621997 0.20645265
000050 3c fe 99 3e 91 b4 10 3e bf 00 21 3f 3a 1e 92 3d
       0.30076778 0.1413138 0.62891763 0.071346715
000060 45 cc 67 3e 6d b4 e1 3e 6e 4b 84 3e e8 0d 58 3d
       0.22636516 0.44082966 0.25838798 0.052747637
000070 e2 73 2a 3c 0c d9 6d 3e e3 73 08 3e a6 b8 f9 3d
       0.010403605 0.23227328 0.13325457 0.12193422
000080 22 e4 bb 3c 56 61 86 3b 78 24 86 3d 9c d8 ce 3e
       0.02293593 0.004100959 0.065499246 0.40399635
000090 d0 44 ab 3e 19 bb 9b 3c e9 11 bc 3d 54 cb aa 3d
       0.33450937 0.019010114 0.091831036 0.08339563
0000a0 c1 ce da 3d 8f ee 19 3d b4 50 72 3d 77 2e fb 3e
       0.106839664 0.037581023 0.059158996 0.49058887
0000b0 55 e5 cc 3d d3 57 fe 3d 3f b1 67 3e 53 25 4d 3f
       0.10004679 0.12419095 0.22626208 0.8013508
0000c0 78 2f a3 3d ca 4f cb 3c fc 1b 52 3e 14 ee bd 3e
       0.07968038 0.02481832 0.20518488 0.37095702
0000d0 b4 8f e5 3c 0b d6 80 3c 44 d7 55 3e cb 7c b1 3e
       0.028022625 0.015727064 0.20882899 0.34665522
0000e0 02 2d 74 3e a4 50 b1 3d 9b 9d 22 3e bb b8 60 3e
       0.23845294 0.08657959 0.15880434 0.21945469
0000f0 e3 c3 c5 3b 78 db fd 3e ce 70 88 3d 35 a4 0d 3e
       0.0060353144 0.49581504 0.06662141 0.13832171

conv3.weight f4 [32, 64, 3]
000000 fd 83 4d 3d ff 66 00 3d 5f f1 79 bd 50 dc 21 3d
       0.050174702 0.031348225 -0.061021205 0.039516747
000010 f1 ec a6 bc cc 8f 8b 3d 8c 28 2a 3d c4 3b 5d 3c
       -0.020376654 0.068145365 0.041542575 0.013503019
000020 16 d7 bc 3c 6b fe f0 3c a3 84 79 bd 3f da 89 3c
       0.02305178 0.029418191 -0.060917508 0.0168277
000030 f4 fd e7 3c 09 af a4 3d 4f 07 dc ba 54 7b d9 bc
       0.028319336 0.08041198 -0.0016786846 -0.026548065
000040 8e be 43 bd 8a eb d7 3c ae 8e 00 3d 6a 55 4e 3d
       -0.04778915 0.026357431 0.03138607 0.050374426
000050 f7 75 5b 3d 1b 53 7f 3c 0d ea 3c bc c9 f4 88 3c
       0.053579297 0.015583779 -0.011530411 0.016718285
000060 d6 11 f5 3c 3a 27 c2 bc 07 a6 09 3d 36 fc 2c bc
       0.029915731 -0.023700345 0.0336056 -0.010558179
000070 07 80 7f bd 4d 7a 94 bc c3 5a da 3d 62 02 93 bc
       -0.062377956 -0.018124724 0.10661843 -0.017945472
000080 b8 7a da bb 41 3d d2 3a 81 d2 2d 3d fe 09 5c bd
       -0.0066674612 0.0016039984 0.04243708 -0.053720467
000090 c0 44 7e 3b 66 8f 52 3d 71 df 82 3c 80 38 82 bd
       0.0038798302 0.051406287 0.015975686 -0.06358433
0000a0 98 43 13 3d 63 85 a5 bc 05 f8 8a 3c 90 c6 b4 3c
       0.035953134 -0.020205205 0.016963968 0.022067338
0000b0 08 1b 3e 3d fb 54 21 bd 6f 5a 4d bd 5c 77 64 bd
       0.046412498 -0.039387684 -0.050135072 -0.055777892
0000c0 c6 10 4a 3c b3 3a 22 bd 76 65 2a 3d af cc 69 3c
       0.012333101 -0.03960676 0.041600667 0.014269992
0000d0 2e 4d 6a 3d 47 c6 97 3d c4 a7 ad 3a d7 55 6e 3d
       0.05720251 0.07410865 0.0013248851 0.058187332
0000e0 e7 ab 82 3b fa e1 30 bd 72 28 8d bd a0 1b 8d 3d
       0.0039877775 -0.043184258 -0.0689248 0.06890035
0000f0 2b df ef bc 0a fe 93 3c e8 d4 b4 bc bf 95 9a 3c
       -0.02928122 0.018065471 -0.022074178 0.018870233
000100 78 a7 77 38 e8 6b 0b bd 0d 62 c3 3c 80 72 4e 3d
       5.9045356e-05 -0.034038454 0.023850465 0.050402164
000110 68 52 10 3d d8 f6 a7 3c 8d 57 5f bd 1f 35 87 3d
       0.03523484 0.020503446 -0.054526854 0.06601929
000120 d2 21 85 bc f4 54 7d bd 4d c8 74 3d 55 e0 a5 3c
       -0.016251478 -0.061848596 0.059761334 0.020248571
000130 3c c8 48 bd 47 8e 93 3d 5b 67 a8 3c 70 1b ae bb
       -0.049019083 0.072048716 0.020557096 -0.0053133294
000140 10 1d 65 bd 88 76 a2 3d 74 c2 86 bd ec 84 19 3c
       -0.05593592 0.07932764 -0.06580058 0.00937007
000150 a5 10 bf bc c7 6f 13 bd 56 e5 31 3d 64 c2 ac 3c
       -0.023323366 -0.03599527 0.043431602 0.021088786
000160 89 91 7c bd 29 06 83 3b 28 7c 3c 3d 5e 04 ca bb
       -0.06166223 0.003998537 0.046016842 -0.0061650714
000170 4b 01 68 bd 94 d6 0a 3c a9 82 03 bc cf ba 86 3d
       -0.056641858 0.008474011 -0.008026757 0.065786
000180 27 33 43 bc 2b 00 7c bd 05 ec 40 bd b6 3c 3d bd
       -0.011914051 -0.061523598 -0.047100086 -0.046200477
000190 d5 a7 bb bc a5 06 88 ba 1c 65 b4 bc 95 2c 1a 3d
       -0.022907177 -0.0010377957 -0.022020869 0.037640173
0001a0 32 58 48 3c aa 74 64 bd 68 88 be 3c 47 66 70 bd
       0.012228059 -0.055775322 0.023258403 -0.05869129
0001b0 94 51 a3 3d 10 3f 7c 3c cf 7c 86 3c 7a e4 83 bd
       0.07974544 0.015395895 0.016416935 -0.06440063
0001c0 3e 92 57 3d d3 5f 0c 3d 33 a9 80 3c 7e 2c 57 3d
       0.0526297 0.034271073 0.01570568 0.052532665
0001d0 e2 64 5e b9 fe 4e d0 3c 81 98 8f bd 9e f8 a7 bb
       -0.00021209152 0.025428291 -0.0701151 -0.005126073
0001e0 19 1c 84 3d 53 57 32 3c 9b dc 47 3d 0d fb 52 bd
       0.06450672 0.0108850775 0.04879437 -0.051508952
0001f0 a2 7c 3a 3d 22 96 38 bd 45 25 f2 bc 72 f3 f6 3c
       0.045529015 -0.045065053 -0.029558787 0.03014538
000200 60 11 99 bd 9a 29 43 bc 49 f2 15 3d 8a 52 d0 3c
       -0.07474017 -0.011911774 0.036608014 0.025429983
000210 1f 0b b0 3c 36 8e 9a 3c ec 79 ad 3c 99 cd 79 3d
       0.021489678 0.01886664 0.021176301 0.06098709
000220 e7 92 72 3c 20 19 75 bc b4 63 2b bc 4b 58 07 bd
       0.014805532 -0.014959604 -0.010460783 -0.033043187
000230 02 c0 c4 bc 31 79 52 3d 39 c9 aa 3d 58 0f 5e bc
       -0.024017338 0.05138511 0.083391614 -0.013553463
000240 33 91 88 3d ee b5 87 bd b2 5f b4 39 c5 1a b1 bc
       0.066683196 -0.06626497 0.00034403574 -0.02161921
000250 fc 55 89 bd f8 e5 3e bd f0 e8 49 3d ca aa 39 3b
       -0.06705853 -0.046606034 0.049294412 0.0028330558
000260 5b ef 24 bd 30 c3 92 3a e2 c8 06 b9 16 6c 94 3d
       -0.04026733 0.0011197086 -0.0001285407 0.07247178
000270 d7 43 54 bc f7 be 94 bc 63 92 92 bd eb 21 b4 3d
       -0.012955627 -0.018157465 -0.07156827 0.08795532
000280 8b 1b 92 bc 5a 5b c0 3c 49 4f 12 bd 6b 1e 08 bd
       -0.0178354 0.02348106 -0.035720143 -0.033232134
000290 ce 4a d4 bc fb f1 8b 3d a3 8e 55 bd f3 bf 67 3c
       -0.025914576 0.068332635 -0.052137982 0.014144885
0002a0 eb 95 18 bd 93 f4 3a 3d 9e ee 3d 3d d1 72 eb bc
       -0.037252348 0.0456434 0.04637014 -0.028741272
0002b0 ce c3 9a bd 57 71 41 bb 9e 4b 52 bd 43 16 25 bd
       -0.07556878 -0.0029517019 -0.051341645 -0.040304434
0002c0 50 ab 1f 3d d6 e4 f3 bc 08 37 00 3d eb 8a 14 bd
       0.038981736 -0.029772203 0.031302482 -0.036265295
0002d0 a2 3b 1e 3d 6f ec 50 bd a8 a7 28 bd 6e 66 4b bd
       0.03863109 -0.05100673 -0.041175514 -0.04965823
0002e0 8b f8 7e bc 24 f9 6e bd 4f 86 9f 3c 02 4d a1 3c
       -0.015562187 -0.058343068 0.019473223 0.01969004
0002f0 ef a3 1f bd 84 1c 77 3d ea 88 6d 39 95 14 fb 3b
       -0.0389747 0.06032993 0.00022653086 0.0076623657
000300 82 75 59 3d c4 c2 8d bd 2c 43 80 3c 8f 91 14 3d
       0.05309058 -0.06921914 0.01565703 0.036271628
000310 16 00 04 3c 31 63 8d bc 99 75 73 bd 48 ad 8c bd
       0.008056661 -0.017259212 -0.05943832 -0.06868988
000320 73 b2 1b bd 35 20 97 3c 00 62 88 3a 9f c3 75 3d
       -0.03801198 0.018447975 0.0010405183 0.060001012
000330 ad 39 e8 bc c3 19 f3 3c 72 25 c3 3c 25 aa ba 3c
       -0.028347814 0.02967537 0.023821566 0.02278621
000340 a4 11 52 3d 96 1e 7d bd 77 a3 48 bd d7 2d 3b 3d
       0.051286355 -0.061796747 -0.048984017 0.045698013
000350 3a 02 6a bd ea 57 19 3d e4 81 88 3d b1 78 56 bd
       -0.05713103 0.037437357 0.066654 -0.052361194
000360 47 8b a4 bd 3d b2 16 bd a1 ed 97 3d 68 f7 80 bc
       -0.080343775 -0.036791075 0.07418371 -0.015742972
000370 f3 a2 26 bb 2f db e5 ba 62 fc b8 3c f8 f9 db 3c
       -0.0025426715 -0.0017536635 0.022581283 0.026852593
000380 c8 3f fe bc d8 a1 4a bc 67 21 63 3c 67 72 da bb
       -0.031036273 -0.012367688 0.013862944 -0.00666647
000390 fe 2b 14 bd 63 bd 29 3d e9 03 00 3d 61 09 93 bd
       -0.036174767 0.04144038 0.03125373 -0.07179523
0003a0 29 96 1d bd b0 46 27 3d 9f 47 1e 3d dc 15 2b bd
       -0.038473282 0.040838897 0.038642522 -0.041768894
0003b0 9e 6e 47 bd 3c 06 c9 3c 4f 2c 6c bc e0 80 87 3d
       -0.048689477 0.024539106 -0.014414861 0.06616378
0003c0 7c 23 ae bd dc f1 9d 3c f2 f1 1c bd f3 3c 2e bd
       -0.08502862 0.019280367 -0.038316675 -0.042538594
0003d0 31 68 b4 3b df 49 b2 3d 84 9e 7e bd 7c 64 85 bc
       0.0055055846 0.08705496 -0.06216289 -0.016283266
0003e0 d8 60 0c 3d 5f fd 25 3c 67 b8 8d bc 44 60 85 bd
       0.034272045 0.010131209 -0.017299844 -0.06512502
0003f0 64 7f 10 3d 2e 0e 8b 3c d2 33 5b bd d8 72 09 bd
       0.03527774 0.016974535 -0.053516217 -0.03355679

conv3.bias f4 [32]
000000 cc a3 ed bc 19 57 50 3d 5b 9b 88 3d 3f 69 66 bc
       -0.029008768 0.050864313 0.06670257 -0.014063179
000010 79 ab 16 3d 15 36 dd 3c f1 c3 0b 3d 9f c6 9b 3c
       0.036784623 0.027003327 0.03412241 0.019015608
000020 5e d6 65 3d 46 91 d8 bc 6e 9b ec 3b 60 58 5a bd
       0.05611264 -0.02643646 0.007220677 -0.053306937
000030 1a d0 aa bc 07 de d2 bc 4c 2a 6a bc 5b 1f 17 3d
       -0.020851184 -0.025740637 -0.014292311 0.036895137
000040 9e fb 74 bc 48 a6 55 3d 5e af 64 bd c9 ec f4 3b
       -0.014952568 0.05216053 -0.055831306 0.007474516
000050 4e 11 82 3d 61 67 5f bd 96 7b 4f 3c 9a b3 f2 3c
       0.06350957 -0.05454195 0.0126637425 0.029626656
000060 6c 99 14 bd 80 26 db ba a5 3b 1c 3d 89 06 00 3d
       -0.036279127 -0.0016719848 0.03814282 0.031256232
000070 17 f0 80 bd 0d a0 81 bd c0 d5 66 bd 3b ce 4e 3d
       -0.062957935 -0.063293554 -0.05635619 0.050489645

bn3.weight f4 [32]
000000 91 34 86 3f ba 09 88 3f 1b 03 89 3f e9 87 84 3f
       1.0484792 1.0627968 1.0704073 1.0353976
000010 f6 8a 83 3f f4 a3 81 3f e8 4a 85 3f b5 c6 80 3f
       1.0276783 1.012816 1.0413485 1.006064
000020 a1 d6 86 3f d2 e5 80 3f 97 27 89 3f 29 25 85 3f
       1.053425 1.0070136 1.0715207 1.0401965
000030 f5 c3 87 3f 5d ec 85 3f af c7 87 3f 3a 0a 86 3f
       1.0606676 1.0462757 1.0607814 1.0471871
000040 9d 91 84 3f 6d 6b 87 3f 9d a3 87 3f f8 e0 86 3f
       1.0356938 1.0579659 1.0596806 1.0537405
000050 41 a0 89 3f 3f 58 86 3f 26 e4 8a 3f 5e ab 86 3f
       1.0752031 1.049568 1.0850875 1.0521047
000060 64 a1 88 3f af 0a 86 3f 40 45 85 3f 5f fb 85 3f
       1.0674253 1.047201 1.0411758 1.0467337
000070 0c c7 7c 3f 83 b0 87 3f 33 b8 89 3f bd 4d 88 3f
       0.9874122 1.0600742 1.0759338 1.0648724

bn3.bias f4 [32]
000000 aa fc 56 bc 64 8b a8 3c 61 2f 39 3d be d5 53 3c
       -0.013121763 0.02057428 0.0452112 0.012929378
000010 07 57 04 3d 1f 77 97 3c 56 06 24 3d 57 09 ab ba
       0.03230956 0.018489419 0.040045105 -0.0013049048
000020 8c 7f 6f 3c d3 35 a2 3a 3d 93 4f 3d 52 2c d2 3c
       0.014617812 0.001237566 0.050677527 0.0256559
000030 35 63 b9 3c 44 a9 2d 3d fa 5f 4c 3a 74 08 e3 3c
       0.022630313 0.042397752 0.0007796284 0.027713992
000040 50 99 10 3b bf 08 40 3d 82 d9 9f 3c a4 88 0a 3d
       0.0022064038 0.04688334 0.019512895 0.033821717
000050 e5 8b e6 3c 63 91 63 3d 3c 64 5c 3d 86 8c 0c 3d
       0.028142879 0.055558573 0.05380653 0.0343137
000060 72 bf ae 3c af 70 03 3d 91 de 47 3d 0c 97 98 ba
       0.021331523 0.032089885 0.04879624 -0.0011641695
000070 74 11 05 bc 32 e2 3c 3d ca 57 8f 3d ad 9c d1 3c
       -0.008121837 0.046114154 0.06999166 0.025587404

bn3.running_mean f4 [32]
000000 4f e0 b3 3d 14 16 65 bc 45 26 27 3f 4d 60 1e 3f
       0.08783018 -0.013982315 0.6529277 0.61865693
000010 f7 4f 79 3e 5e 68 df 3c 10 cd 32 3e bc c7 c5 be
       0.2434691 0.027271446 0.17461038 -0.38628948
000020 94 9b 48 bb 48 cf c1 3e b7 98 63 3e 31 f6 85 3d
       -0.003061031 0.37853456 0.22226225 0.06541098
000030 b7 36 0c bd 1a 5f 9b 3e 90 9f b8 3d b2 e3 2b be
       -0.034231868 0.30345994 0.09014809 -0.16786078
000040 01 4e 03 3e 02 f0 f0 bd 2d 89 8b 3e d1 97 de 3e
       0.12822725 -0.11764528 0.27253094 0.43475202
000050 1a 94 aa 3e 23 cf ea 3e d8 6b 82 bc 9f cc 8d bc
       0.33316118 0.45861158 -0.015920565 -0.017309485
000060 88 94 f3 3d a9 4d 8e bd 62 2a a1 3e eb dc 34 3e
       0.118935645 -0.06948406 0.31477648 0.17662399
000070 c1 02 ca be 61 7d d0 bd 3e 33 6a 3e ed 6c cc 3d
       -0.39455226 -0.10180164 0.2287111 0.099817134

bn3.running_var f4 [32]
000000 30 d2 f3 3e ce 09 48 3e 31 9c 4b 3e 63 52 10 3f
       0.47621298 0.1953499 0.19883801 0.5637571
000010 1c 1b c8 3e a0 20 cc 3e a6 7e d8 3e 16 85 c1 3e
       0.39083183 0.3986864 0.42284125 0.3779685
000020 55 e1 88 3e 5a 0c 2d 3f e0 c6 de 3e 75 02 d9 3d
       0.26734415 0.6759697 0.43511105 0.10596172
000030 8e 33 1d 3e 6f b7 0c 3f 01 16 38 3e 87 46 88 3d
       0.15351698 0.549674 0.17977144 0.06654077
000040 f4 6c ce 3e a9 5a 12 3f ca ed 1a 3e 59 ed fc 3e
       0.403175 0.57169586 0.15129772 0.49399832
000050 b3 c9 11 3f 8f 31 a3 3e 02 d5 66 3e be eb 4f 3e
       0.56948394 0.31873748 0.22542194 0.20304772
000060 a5 8a b9 3e af 5b 38 3e 18 14 b5 3e 1f 0b bf 3d
       0.3623859 0.18003725 0.35366893 0.09328293
000070 ed c7 23 3f d4 99 f5 3e 46 d2 93 3e d7 d6 3e 3e
       0.6397694 0.47968924 0.28871363 0.18636642

fc1.weight f4 [4, 128]
000000 01 ec 29 bd db 29 94 bd 93 8d b5 3a 56 31 47 3d
       -0.041484836 -0.07234546 0.0013851397 0.048631035
000010 ab eb 9e 3c 3c ea 2a bc 07 1c 96 bd 0c d9 07 3e
       0.019399485 -0.010431822 -0.073295645 0.1326639
000020 95 3d 81 bd 6a 86 b9 3d 63 22 83 bc 87 1a 12 3e
       -0.06310574 0.090588406 -0.016007608 0.14267932
000030 66 09 bd 3c 1b cb c6 bd 03 67 99 3c 0a 7a 09 be
       0.02307577 -0.09706708 0.018725878 -0.1342546
000040 5b aa 25 bd 5d d3 e3 bd 49 cd 6d bd 73 2d 17 be
       -0.040445667 -0.11124299 -0.058057103 -0.14763431
000050 98 c4 67 3d 06 18 76 3d ce dd 40 3d 65 11 24 bd
       0.05658397 0.060081504 0.04708653 -0.04005565
000060 ca ba 7d bd cc 2d 78 bd 72 49 4c bd 02 4e 8e bd
       -0.061945714 -0.06059055 -0.04987473 -0.069484726
000070 3b 5c 53 3c e0 08 3f bc 10 3e 80 3d ba 68 00 bd
       0.012900407 -0.011659831 0.062618375 -0.031349875
000080 75 aa 57 3d b4 16 76 bd 34 2a a3 3c 8c be b5 3d
       0.052652795 -0.060080245 0.019917585 0.088742346
000090 95 0b 37 3b bd 87 63 bd 94 77 b7 bd ed 56 97 3c
       0.0027930487 -0.055549372 -0.089583546 0.018474067
0000a0 28 29 23 3d bf 44 0b bd ad 37 60 bd 16 b0 e8 bd
       0.03983417 -0.03400111 -0.054740597 -0.11361711
0000b0 f4 03 8b 3d ac c5 6b 3c b5 1c b9 3d 7e be 0c 3e
       0.067878634 0.01439039 0.090386786 0.13744542
0000c0 ef 6a 05 3d 1f 18 dc bc 53 26 0c bc d1 98 be 3d
       0.032572683 -0.02686697 -0.008554059 0.09306491
0000d0 1a ba fb bd 6c fd be bd d3 22 08 bc ca 26 13 bd
       -0.122913554 -0.0932568 -0.008309084 -0.035925664
0000e0 3e 59 98 bc 98 54 9d 3c e8 15 04 3c f7 18 11 3c
       -0.018597241 0.019205377 0.0080618635 0.00885605
0000f0 ce 17 fe 3c 74 ef 61 3d 23 b5 8f bd 45 2d ce 3c
       0.03101721 0.05516 -0.07016971 0.02516807
000100 bf bd a6 3d fe 31 37 bd 2a 2a e6 3c 90 c3 19 be
       0.0814166 -0.04472541 0.028096277 -0.15016007
000110 22 0f 4d 3d 95 45 3f 3c 51 b1 e2 bd cc 64 42 3d
       0.05006326 0.0116743045 -0.11068977 0.04745941
000120 d8 7f 33 3d dd 85 23 bd 76 94 b4 3d af c2 0e 3e
       0.043823093 -0.039922584 0.08817379 0.13941453
000130 b6 71 a0 3d 0a 1a 95 bc 9d 43 6d bd cb 4b 92 bd
       0.07834189 -0.018200893 -0.05792581 -0.071433626
000140 a0 c7 39 bd f4 81 6f bd 97 cb ad 3a b9 65 d9 3c
       -0.045356393 -0.058473542 0.0013259527 0.026537763
000150 3b 80 c5 bd 07 14 1b be ce f6 0f be c2 59 1a 3d
       -0.09643599 -0.15144359 -0.14058992 0.037683256
000160 cd d3 b1 bd 31 32 a2 bd 12 dc 6b bd c5 de c1 3b
       -0.08682976 -0.079197295 -0.057582922 0.005916449
000170 c9 89 ad bd 84 18 24 bd c3 d4 8f bd 40 66 c6 bd
       -0.08473546 -0.040062442 -0.07023003 -0.096874714
000180 19 39 94 bd 01 80 bf 3d d3 ba 71 3d 89 76 3d bd
       -0.07237453 0.09350587 0.05901606 -0.046255622
000190 16 ae f6 3c 78 d4 8e bc 62 62 b7 bb ea 13 4d 3d
       0.030112308 -0.017435297 -0.005596445 0.05006782
0001a0 49 a5 a8 bb a6 4e 8e 3d 28 ef 8c 3d fa 88 ac bd
       -0.0051466567 0.06948595 0.06881553 -0.08424564
0001b0 a7 98 46 bd 11 44 3c 3b 6c bc c5 3c 6c f6 84 3d
       -0.048485424 0.0028727094 0.024137698 0.06492314
0001c0 5b 0d 14 3d ad 3c 0d bd e2 16 a4 bd de 93 34 3c
       0.03614555 -0.034481693 -0.08012177 0.011021582
0001d0 04 9a 24 3d 6e 80 16 3d 7d 10 0a 3d 62 89 67 3d
       0.040185943 0.036743574 0.03370713 0.056527503
0001e0 81 dc 3c 3d 52 8f ef 3c 42 99 d9 3a 0f b3 1a be
       0.046108726 0.029243145 0.001660146 -0.15107368
0001f0 88 4b d2 bc bb da 7b 3c f1 4d c8 3d b7 4c 07 3e
       -0.025670782 0.015371974 0.09780491 0.13212858
000200 99 ac ca 3c 7a 8e 3c 3d af 02 ea bd 0f 48 22 3c
       0.024740504 0.046034314 -0.11426293 0.009904875
000210 0d fb 2a bd e6 ac 20 3d 4a 0d 4c 3c 6f 54 0f bd
       -0.041743327 0.03922739 0.01245434 -0.03499263
000220 3e 5a 31 bd 60 ef 0f 3d b3 58 b2 3c e3 be 06 3c
       -0.043298952 0.035140395 0.02177081 0.008224222
000230 66 6b d0 39 50 19 9a bd 17 d5 14 bd b0 30 aa 3d
       0.0003975287 -0.07524359 -0.03633603 0.08310068
000240 19 9b 9a bc 09 4b 69 3c 6f 74 45 3d 99 26 1e bd
       -0.018872784 0.014239081 0.048206743 -0.03861103
000250 84 83 7a 3c ae 97 cc bc 05 50 e3 bc ac 3a d3 bd
       0.015290145 -0.02497467 -0.027748117 -0.10313925
000260 1e f7 a6 bd c9 ac 7f 3c c1 3e f7 bd a2 44 66 3c
       -0.081526026 0.01560516 -0.12072516 0.014054449
000270 2a 40 5f 3d b3 ee dc 3c b9 f9 75 3d dc b2 98 bd
       0.05450455 0.02696929 0.060052607 -0.0745599
000280 1a 3d a1 3d 63 07 3a bd 32 ff 4a bd b3 6b b9 bc
       0.07872982 -0.0454172 -0.04955978 -0.022634363
000290 e4 fd dc bd d6 5c 16 be da b8 87 bd 58 85 aa bc
       -0.10790613 -0.14683852 -0.066270545 -0.020815536
0002a0 07 4c 06 3d 61 86 3c bd 72 2c 06 3a 33 98 db 3d
       0.03278735 -0.04602659 0.0005118317 0.10722389
0002b0 9b dd 67 3d de b4 31 bd e2 2f d5 3b e6 f4 04 be
       0.056607824 -0.04338538 0.006505952 -0.12984046
0002c0 da 6c 86 3d 70 59 2a bd 21 f5 4e 3d 0d 2e b1 bd
       0.065637305 -0.0415892 0.050526742 -0.086513616
0002d0 17 67 39 bc 94 17 88 bd f4 3a cd bd 79 a2 8a bd
       -0.011316082 -0.06645122 -0.1002101 -0.067692704
0002e0 cd 27 8a bd a3 08 60 bd d0 57 dd 3c 2e 06 23 3d
       -0.06745873 -0.054695737 0.027019411 0.039800815
0002f0 ef a7 cc 3d b1 a9 d1 bc 02 91 9e 3d c3 82 5a bd
       0.09992968 -0.02559361 0.07742502 -0.05334736
000300 af 9d 83 bd cf 9b 69 bd f2 9b b4 3d c1 a2 c3 3c
       -0.0642656 -0.057033356 0.08818807 0.023881318
000310 ba d0 82 bd 1e b5 13 bd e0 0d 2f 3d 9f 4b 63 bd
       -0.06387468 -0.0360614 0.04273784 -0.05549204
000320 0c a2 e3 3c 7c bb 9a bd 6c df 4d bd d1 7b 75 bd
       0.02778723 -0.07555291 -0.0502619 -0.059932534
000330 af 47 20 3d 30 61 ae 3c 66 92 8e bd d6 68 6a 3d
       0.039130863 0.021286577 -0.06961517 0.057228886
000340 ac 5f 12 3b f8 f2 fe 3c a1 5e b4 bd e6 45 a6 bb
       0.0022334857 0.031121716 -0.088071115 -0.0050742505
000350 74 8b 19 3d 38 f8 d5 bd 79 95 2b bd 4a ac 8e bd
       0.03748651 -0.104477346 -0.041890595 -0.06966455
000360 ab a8 ea bd d6 c7 85 bd aa 30 ac bd 34 0b f2 3d
       -0.11457952 -0.06532256 -0.084077194 0.11818543
000370 82 71 44 3d a6 3c 44 3b 43 f3 84 3c 72 d2 6e 3b
       0.047959812 0.0029943376 0.016229277 0.0036441353
000380 05 df 46 3d 70 cd 8c bd 71 9d 63 bd 2c 48 8c 3d
       0.04855253 -0.068751216 -0.05557007 0.06849703
000390 35 3b a4 3c 7f ea 56 3d 12 3b a8 bd 95 62 9d bd
       0.020047763 0.052469727 -0.08214392 -0.07684819
0003a0 c5 3f c3 3d ad 5a 45 3d 42 cf c6 3d 98 53 96 3d
       0.095336474 0.04818218 0.097075 0.07340163
0003b0 28 e1 40 bd 4c 33 99 3c 7f f4 1a 3d b2 5f fc bd
       -0.047089726 0.018701218 0.037830826 -0.1232294
0003c0 9a 84 50 3b 3d 05 c9 bc a6 c6 2d bd d0 ad 25 bd
       0.0031817318 -0.02453863 -0.042425774 -0.040448964
0003d0 78 04 3c 3d 08 a8 df 3c 34 73 aa 3d 00 23 af 37
       0.0459027 0.027301803 0.083227545 2.0877924e-05
0003e0 af 4f 80 bc 9f 2a 83 3d e1 1d 99 3d 59 e9 09 3b
       -0.015662996 0.06404614 0.07476402 0.0021043627
0003f0 67 73 21 bd f7 5f 59 bd e7 4a 9f bb e4 89 df bd
       -0.039416697 -0.053070035 -0.004861224 -0.109149724

fc1.bias f4 [4]
000000 d4 ea 8b bd e4 5a 5f 3c 08 61 63 bd 07 56 e6 bc
       -0.06831899 0.01363251 -0.055512458 -0.028117193
