pths/classifier_train.pth (torch, 61572 bytes, 20 tensors)

conv1.weight f4 [32, 1, 3]
0.39789367 0.41660142 -0.29949608 0.523772 -0.14921954 0.10371535 -0.16038659 0.22285008
0.70833063 -0.41495153 0.5018295 0.14614859 0.40680337 0.09815015 0.2947886 -0.08042606
0.49445432 0.013840886 -0.24695486 0.19718345 -0.2559529 -0.076649845 -0.1419735 0.45910752
-0.3679124 -0.31789586 -0.22749609 -0.29014924 0.015719354 -0.62759346 0.43304515 -0.5544846
0.42609003 0.056662578 -0.13109358 0.41717657 0.05861984 0.49542755 0.06315519 -0.076034285
0.19595979 -0.21046518 0.19939837 0.3152468 0.5365884 -0.25464624 0.35200214 0.067164086
0.26766726 -0.29532892 -0.6356489 -0.23728597 -0.3443476 0.5556872 0.049150344 0.14538382
0.33938313 -0.05506615 0.43172416 -0.4317335 0.09741493 -0.37792176 0.18764366 -0.14238535
0.23029429 -0.11438717 0.4501457 -0.30356094 -0.42000106 -0.33156958 0.48723102 0.27175426
0.5310023 -0.42762497 -0.6485817 -0.5499124 -0.29774958 0.2180712 0.17370118 0.3897172
-0.38800085 -0.27428994 0.35791522 -0.30218115 0.22176418 -0.21316653 0.37160712 -0.45838395
-0.27695096 0.18318023 0.07105084 -0.08331888 0.4282753 0.44411695 -0.39367932 -0.26406172
00000000: b8b8 cb3e c84c d53e 8d57 99be ec15 063f
00000010: 02cd 18be b768 d43d 623c 24be d032 643e
00000020: 2855 353f 8774 d4be e677 003f faa7 153e
00000030: 8848 d03e f202 c93d 88ee 963e 6bb6 a4bd
00000040: 1e29 fd3e e2c4 623c bce1 7cbe 75ea 493e
00000050: 420c 83be 98fa 9cbd 8061 11be 2410 eb3e
00000060: 045f bcbe 3fc3 a2be bcf4 68be 718e 94be
00000070: e0c5 803c f7a9 20bf 18b8 dd3e b4f2 0dbf
00000080: 7928 da3e 0517 683d 653d 06be 2b98 d53e
00000090: 5b1b 703d aea8 fd3e 8257 813d ddb7 9bbd
000000a0: afa9 483e 2f84 57be 162f 4c3e 0768 a13e
000000b0: db5d 093f fe60 82be a039 b43e 538d 893d
000000c0: af0b 893e 5a35 97be e3b9 22bf 18fb 72be
000000d0: 544e b0be 8441 0e3f df51 493d 7fdf 143e
000000e0: a0c3 ad3e 0b8d 61bd f30a dd3e 2c0c ddbe
000000f0: 7b81 c73d f67e c1be a925 403e 77cd 11be
00000100: 44d2 6b3e d243 eabd 7f79 e63e 576c 9bbe
00000110: 610a d7be 7dc3 a9be 5876 f93e 6023 8b3e
00000120: c4ef 073f a9f1 dabe 7309 26bf 0fc7 0cbf
00000130: a272 98be 0f4e 5f3e b9de 313e 0389 c73e
00000140: 0ca8 c6be bb6f 8cbe aa40 b73e 7db7 9abe
00000150: 2616 633e 5448 5abe 4a43 be3e 4db1 eabe
00000160: 84cc 8dbe 9993 3b3e 1a83 913d 17a3 aabd
00000170: e646 db3e 4c63 e33e 5690 c9be 1933 87be

conv1.bias f4 [32]
0.5318465 -0.19139665 -0.20251971 -0.55927676 -0.33730698 0.15114619 -0.07628295 -0.4407633
0.014232605 -0.39707062 -0.49575752 -0.3253752 -0.49769142 -0.34636214 0.58123404 0.10991864
0.17840259 -0.54943824 -0.38246047 -0.18336768 0.0861336 -0.49554694 -0.25071472 -0.35003808
-0.0013454559 -0.2173877 -0.048754398 -0.40108877 -0.39305133 -0.33751312 -0.17291887 -0.45666626
00000000: 1827 083f 7cfd 43be 5461 4fbe c32c 0fbf
00000010: 80b3 acbe 11c6 1a3e 3c3a 9cbd baab e1be
00000020: df2f 693c d74c cbbe eed3 fdbe 9497 a6be
00000030: 69d1 febe 6156 b1be c1cb 143f 061d e13d
00000040: 2baf 363e fca7 0cbf dcd1 c3be bdc4 3bbe
00000050: d066 b03d 54b8 fdbe ae5d 80be 3138 b3be
00000060: 025a b0ba e29a 5ebe b1b2 47bd 825b cdbe
00000070: 063e c9be 85ce acbe a511 31be 29d0 e9be

bn1.weight f4 [32]
0.96685004 0.91534346 1.0774369 0.9733297 0.8999628 0.9682793 0.9647514 1.0460403
0.9694234 1.0054954 1.025271 1.0581999 0.9755069 1.0193062 0.9957132 0.95087385
0.8798672 0.9877407 1.0491147 1.1141056 1.0074122 0.96641046 0.95271415 0.9998566
0.936853 0.94402266 1.0390193 0.96619105 1.028797 0.93054116 1.034462 0.92072666
00000000: 7c83 773f f353 6a3f 74e9 893f 232c 793f
00000010: f663 663f 27e1 773f f3f9 763f a6e4 853f
00000020: 222c 783f 13b4 803f 153c 833f 1873 873f
00000030: d2ba 793f a078 823f 0fe7 7e3f 786c 733f
00000040: fa3e 613f 93dc 7c3f 6449 863f 039b 8e3f
00000050: e2f2 803f ad66 773f 13e5 733f 9af6 7f3f
00000060: 99d5 6f3f 78ab 713f 96fe 843f 4c58 773f
00000070: 9faf 833f f237 6e3f 4069 843f beb4 6b3f

bn1.bias f4 [32]
0.0011356076 -0.0372452 0.067099325 -0.017527519 0.05030569 -0.09230998 0.08885821 0.011065636
0.15148298 0.11305795 0.12150249 -0.00652369 -0.06766738 0.3078896 0.012135402 0.09656476
-0.022971403 0.23890208 0.043788113 0.20770358 0.16423205 0.070398964 0.14242177 0.09576278
0.15107451 0.123371266 0.050006796 0.31382543 0.08191262 0.14755745 0.17680387 -0.0289815
00000000: abd8 943a 6c8e 18bd 5f6b 893d df95 8fbc
00000010: 570d 4e3d 040d bdbd 4bfb b53d a44c 353c
00000020: 5b1e 1b3e ed8a e73d 4cd6 f83d aec4 d5bb
00000030: 3295 8abd b5a3 9d3e 91d3 463c bfc3 c53d
00000040: 862e bcbc bfa2 743e 2a5b 333d 3fb0 543e
00000050: 722c 283e 552d 903d 03d7 113e 471f c43d
00000060: 47b3 1a3e 13aa fc3d edd3 4c3d baad a03e
00000070: cec1 a73d 4d19 173e 130c 353e 9c6a edbc

bn1.running_mean f4 [32]
0.6267016 -0.1119553 -0.032524385 -0.49131614 -0.18425128 0.24692772 -0.1300596 -0.3876748
-0.1653591 -0.5757795 -0.45126793 -0.25594205 -0.3674721 -0.3615209 0.79657876 0.15637182
0.026488902 -0.54714966 -0.27109393 -0.19075805 0.060897067 -0.4944036 -0.32764837 -0.24444373
-0.13939856 -0.3298331 -0.016781198 -0.43463445 -0.32264206 -0.43714905 -0.08837535 -0.5211761
00000000: 846f 203f d248 e5bd 4a38 05bd ca8d fbbe
00000010: 5eac 3cbe 9fda 7c3e 582e 05be 507d c6be
00000020: e553 29be 4966 13bf 970c e7be d60a 83be
00000030: 4e25 bcbe 4419 b9be 96ec 4b3f ef1f 203e
00000040: 41ff d83c 0012 0cbf d3cc 8abe 1456 43be
00000050: 346f 793d 7822 fdbe 87c1 a7be 754f 7abe
00000060: 7fbe 0ebe e2df a8be b978 89bc 6888 debe
00000070: 5731 a5be 00d2 dfbe 23fe b4bd cc6b 05bf

bn1.running_var f4 [32]
0.62611264 0.44768095 0.91322035 0.60225594 0.49086225 0.38415146 0.23918864 0.33162913
0.57730424 0.82463247 0.9178354 0.28789902 0.4342761 0.1205716 0.8314856 0.26298723
0.8560697 0.6506803 0.25310633 0.507729 0.25519454 0.11518237 0.63891584 0.6045394
1.2440265 0.6691441 0.45662618 0.4017995 0.3420497 0.49336517 0.30185762 0.56635535
00000000: eb48 203f 7036 e53e cfc8 693f 722d 1a3f
00000010: 4c52 fb3e 80af c43e deed 743e 4bcb a93e
00000020: 36ca 133f 1d1b 533f 43f7 6a3f 8067 933e
00000030: 7059 de3e 3eee f63d 3edc 543f 43a6 863e
00000040: 6227 5b3f fc92 263f 2797 813e 87fa 013f
00000050: dca8 823e bce4 eb3d fd8f 233f 18c3 1a3f
00000060: 433c 9f3f 074d 2b3f e8ca e93e aab8 cd3e
00000070: 2321 af3e 5c9a fc3e 158d 9a3e aafc 103f

conv2.weight f4 [64, 32, 3]
0.05164124 0.025562005 0.068629295 0.01248595 -0.06937574 0.076150104 0.05525465 -0.07596335
-0.15675053 -0.07720663 0.07916435 -0.0021766706 0.020973066 -0.08497188 0.07157966 -0.08474783
0.023224695 0.051261812 0.0264856 0.064583935 0.089161195 -0.04548038 7.3847036e-07 -0.15606235
-0.024667157 -0.1238294 0.06527712 -0.09576497 -0.01425809 0.014668555 0.004137472 -0.10216669
0.07118778 0.053597935 -0.042693842 -0.18374829 0.016693683 0.0015178145 -0.03555723 0.07893246
0.034754016 -0.043587096 -0.023970071 -0.07411383 0.063398935 0.0049044797 -0.010621089 -0.0066042147
-0.046093594 0.022376638 0.052339703 -0.111221105 0.019851377 0.0041486383 0.058425773 -0.11006946
0.05602751 0.042568546 0.08421866 -0.0023907246 -0.069375396 -0.009654874 -0.039415568 -0.033942062
0.07922222 0.10661943 0.020021085 -0.011629338 0.005755199 0.025722437 0.07205317 0.050239027
-0.059964735 -0.030859867 0.08256491 0.02311716 -0.014344315 -0.08831327 -0.0792507 -0.04124541
-0.04483414 0.026394177 0.06716334 0.066666245 -0.08455286 -0.11458785 -0.034600418 0.08724217
0.0011027752 -0.051727675 0.07470044 -0.1017038 -0.14396009 0.09099586 -0.05088054 -0.018748455
-0.047959883 0.08349804 0.06251735 0.00966699 -0.022606352 -0.13704902 -0.023207318 0.117973395
-0.0017948645 0.111985855 0.13323528 0.06181177 -0.019172078 -0.04803965 -0.14625749 -0.04160326
0.14386119 -0.07974158 -0.014885646 -0.13909712 0.033197667 -0.046996366 -0.114449315 0.05053136
-0.038921095 0.06808633 0.018274106 -0.06367666 -0.119187124 0.0007847954 -0.059719875 -0.0140113095
0.049054462 -0.062674135 0.042163283 0.04482817 0.124991484 0.037501045 0.040831115 -0.043864615
-0.06948979 0.09775944 0.0015136726 0.02158137 -0.09884428 -0.053418975 0.1281173 -0.085531645
0.062936194 0.040986158 0.11397899 0.024575055 -0.10996594 0.060208477 0.07413272 -0.10282404
-0.100817285 -0.034391306 -0.16625096 -0.053455133 -0.016672198 -0.018328052 -0.04644327 0.08833547
0.09287349 -0.006616254 -0.017719362 -0.08184671 -0.08324552 -0.050661396 0.11711361 -0.06559117
-0.06773261 -0.06297192 -0.01775072 -0.027038824 0.029524265 0.0027258073 0.0082189785 -0.13420434
-0.09687768 0.088109836 -0.09653395 0.04377867 -0.0650379 0.048898194 0.06051179 0.049401734
-0.057702996 0.06400352 0.10310793 0.025458327 0.05660301 0.0961406 0.011127829 0.020756928
-0.09447211 0.014763578 0.12208196 0.07113914 -0.055310387 -0.03054705 -0.0459244 -0.07328455
-0.17704672 0.011090213 0.10786372 -0.0058594085 -0.055415973 -0.06912658 0.046868693 -0.08484884
0.04034435 0.07662923 -0.024140837 -0.049230948 -0.036093716 0.009915181 -0.08457586 -0.13897996
-0.03309467 -0.05618508 0.027839202 -0.019314433 -0.11310768 -0.017587576 0.038130056 0.023233473
0.08520131 0.089286946 -0.1470953 -0.03727591 0.034300063 0.031762715 -0.030870866 0.10705366
-0.038576584 -0.06418215 -0.08817056 0.025796078 -0.015246135 0.054107744 0.06445484 -0.109392814
-0.049803264 0.0152430665 0.0795896 0.08958177 -0.07746411 -0.052070893 -0.0638379 -0.04077365
-0.06182007 0.0413481 0.097474664 -0.066671 0.0795101 -0.09408622 0.024131846 0.100634806
00000000: c485 533d 6967 d13c 848d 8c3d df91 4c3c
00000010: de14 8ebd 96f4 9b3d b352 623d ac92 9bbd
00000020: 3683 20be 821e 9ebd eb20 a23d 79a6 0ebb
00000030: b5cf ab3c bd05 aebd 5b98 923d 4590 adbd
00000040: b741 be3c e8f7 513d 54f8 d83c 9544 843d
00000050: 259a b63d a349 3abd 4c3b 4635 cfce 1fbe
00000060: c712 cabc 459a fdbd 03b0 853d 6d20 c4bd
00000070: c49a 69bc 6154 703c a193 873b c53c d1bd
00000080: e6ca 913d 8289 5b3d bddf 2ebd 8328 3cbe
00000090: 31c1 883c 67f1 c63a 75a4 11bd 57a7 a13d
000000a0: 3a5a 0e3d 6288 32bd e25c c4bc fec8 97bd
000000b0: 4dd7 813d c2b5 a03b 1304 2ebc 2b68 d8bb
000000c0: a3cc 3cbd 364f b73c 2862 563d e4c7 e3bd
000000d0: 5b9f a23c 4df1 873b dd4f 6f3d 196c e1bd
000000e0: 1a7d 653d 5b5c 2e3d d57a ac3d b4ad 1cbb
000000f0: b014 8ebd 7a2f 1ebc 3872 21bd d506 0bbd
00000100: 423f a23d 4a5b da3d 4203 a43c fb88 3ebc
00000110: 1c96 bc3b dcb7 d23c 9d90 933d 70c7 4d3d
00000120: 959d 75bd d5cd fcbc cb17 a93d 3360 bd3c
00000130: 6b04 6bbc 96dd b4bd 314e a2bd f2f0 28bd
00000140: 01a4 37bd 9a38 d83c ef8c 893d 5088 883d
00000150: 0d2a adbd 09ad eabd 2bb9 0dbd 06ac b23d
00000160: ff8a 903a 66e0 53bd 8bfc 983d 154a d0bd
00000170: 466a 13be 0a5c ba3d 1d68 50bd 5c96 99bc
00000180: 9571 44bd 0501 ab3d 1909 803d 4b62 1e3c
00000190: f530 b9bc 9456 0cbe 461d bebc 099c f13d
000001a0: a941 ebba d758 e53d d46e 083e 572e 7d3d
000001b0: c30e 9dbc 39c5 44bd 86c4 15be 2e68 2abd
000001c0: 5950 133e 8e4f a3bd ede2 73bc 7a6f 0ebe
000001d0: 47fa 073d 437f 40bd 6764 eabd f9f9 4e3d
000001e0: ba6b 1fbd d970 8b3d 94b3 953c e968 82bd
000001f0: 6118 f4bd baba 4d3a d49c 74bd b18f 65bc
00000200: 55ed 483d 4c5b 80bd 68b3 2c3d be9d 373d
00000210: 89fb ff3d b29a 193d 873e 273d 62ab 33bd
00000220: aa50 8ebd 1a36 c83d 6d66 c63a 6acb b03c
00000230: df6e cabd dbcd 5abd 2e31 033e 372b afbd
00000240: b1e4 803d 1ae1 273d d16d e93d a051 c93c
00000250: d335 e1bd 2a9d 763d e5d2 973d 6995 d2bd
00000260: 4b79 cebd e6dd 0cbd b13d 2abe c5f3 5abd
00000270: 2294 88bc b624 96bc 4c3b 3ebd 3ae9 b43d
00000280: 7534 be3d 29cd d8bb 3228 91bc 3f9f a7bd
00000290: a17c aabd 5382 4fbd 43d9 ef3d aa54 86bd
000002a0: 65b7 8abd 6cf7 80bd f569 91bc 8680 ddbc
000002b0: dfdc f13c 75a3 323b e5a8 063c dd6c 09be
000002c0: ce67 c6bd ee72 b43d 97b3 c5bd 4351 333d
000002d0: 9732 85bd 7949 483d 36db 773d 7959 4a3d
000002e0: fa59 6cbd 4714 833d 402a d33d fb8d d03c
000002f0: 8fd8 673d 5de5 c43d 7f51 363c 6f0a aa3c
00000300: 987a c1bd efe2 713c 1b06 fa3d 66b1 913d
00000310: 258d 62bd cf3d fabc 391b 3cbd 3616 96bd
00000320: bc4b 35be bab3 353c a7e7 dc3d 4800 c0bb
00000330: dcfb 62bd 3d92 8dbd 63f9 3f3d 3bc5 adbd
00000340: 1e40 253d c9ef 9c3d 01c3 c5bc 64a6 49bd
00000350: 01d7 13bd 4973 223c 1c36 adbd c350 0ebe
00000360: 478e 07bd 5422 66bd 0a0f e43c 4d39 9ebc
00000370: 00a5 e7bd d213 90bc 432e 1c3d 2054 be3c
00000380: 067e ae3d 13dc b63d 26a0 16be a0ae 18bd
00000390: 397e 0c3d 9f19 023d e6e4 fcbc f33e db3d
000003a0: 7b02 1ebd ee71 83bd c492 b4bd 4c52 d33c
000003b0: edca 79bc 15a0 5d3d e600 843d 5709 e0bd
000003c0: 82fe 4bbd 0ebe 793c dfff a23d a676 b73d
000003d0: 81a5 9ebd 4a48 55bd 72bd 82bd 4502 27bd
000003e0: 0b37 7dbd a05c 293d cca0 c73d ce8a 88bd
000003f0: 31d6 a23d 47b0 c0bd 26b0 c53c 9f19 ce3d

conv2.bias f4 [64]
-0.0636415 0.07257784 0.08399328 0.071287796 -0.0032256967 0.026564274 0.0045944694 -0.038499333
-0.10298952 -0.013580966 0.043838054 0.057709895 0.027679555 0.038009737 0.07150175 -0.022538144
0.069457196 0.00042177225 -0.033622548 -0.027352257 -0.061092593 -0.0773583 0.022770386 0.09546464
0.015197288 0.012435866 -0.03759553 -0.037737943 -0.03500872 0.034759182 0.017403465 -0.037519827
0.023511093 -0.017257221 -0.006769092 0.07086003 -0.041645378 0.09457082 -0.05713565 0.09946058
0.03962977 0.043272473 -0.021417737 -0.03148256 -0.071720205 -0.09803706 0.07302751 0.09928238
0.029025795 -0.03858468 0.023064498 -0.0048913937 -0.088775024 -0.08031211 0.03773589 -0.029483665
-0.023834284 -0.062825724 0.049650364 -0.04784318 -0.033204913 0.054289266 0.09652973 0.09053848
00000000: 7a56 82bd b1a3 943d ab04 ac3d 56ff 913d
00000010: 3666 53bb 529d d93c 348d 963b 7ab1 1dbd
00000020: 2bec d2bd b382 5ebc 888f 333d 3661 6c3d
00000030: 3cc0 e23c 19b0 1b3d 826f 923d eaa1 b8bc
00000040: 933f 8e3d 5021 dd39 ccb7 09bd d711 e0bc
00000050: 3a3c 7abd 076e 9ebd f688 ba3c f782 c33d
00000060: 0cfe 783c cdbf 4b3c c5fd 19bd 1a93 1abd
00000070: 4e65 0fbd a55f 0e3d b691 8e3c 64ae 19bd
00000080: 569a c03c 045f 8dbc 42cf ddbb 101f 913d
00000090: 5894 2abd 59ae c13d 1207 6abd fdb1 cb3d
000000a0: d352 223d 7a3e 313d 4074 afbc dbf3 00bd
000000b0: 0be2 92bd a7c7 c8bd 728f 953d 8f54 cb3d
000000c0: 81c7 ed3c f80a 1ebd c2f1 bc3c fc47 a0bb
000000d0: aecf b5bd ad7a a4bd f390 1a3d ba87 f1bc
000000e0: 1e40 c3bc c6aa 80bd 2e5e 4b3d 36f7 43bd
000000f0: e001 08bd 6c5e 5e3d 61b1 c53d 3d6c b93d

bn2.weight f4 [64]
1.046211 1.0739148 0.9326189 0.9478444 0.93566495 0.9294794 0.9327731 0.8723339
0.9588946 0.9634649 0.91642225 0.8929681 1.0054936 1.0427861 1.0846436 1.1217419
0.9976336 1.0551714 0.9877946 1.1915258 0.8953054 0.96979713 1.083799 0.9931555
1.042401 1.004733 1.0062914 0.99112076 1.0587777 0.90063655 0.92190385 0.9563276
0.89385164 1.1474848 0.8383008 1.0290861 0.9288112 0.95004886 0.9041834 1.1402194
0.93407303 0.95119697 0.93850666 1.1194321 1.0253938 1.0635592 0.9468743 0.8973799
1.0232896 0.95593894 0.91763365 0.8957973 0.9357703 1.0277835 0.93940187 1.0877459
0.89150566 0.9614529 0.97318745 0.9597713 0.9092877 1.0264684 1.0893391 1.0460424
00000000: 3eea 853f 0a76 893f 1dc0 6e3f eea5 723f
00000010: bd87 6f3f 5df2 6d3f 38ca 6e3f 4651 5f3f
00000020: 1e7a 753f a3a5 763f a69a 6a3f 8f99 643f
00000030: 04b4 803f 047a 853f 9ad5 8a3f 3d95 8f3f
00000040: ea64 7f3f db0f 873f 1be0 7c3f eb83 983f
00000050: bc32 653f a044 783f edb9 8a3f 703f 7e3f
00000060: 656d 853f 179b 803f 28ce 803f 17ba 7d3f
00000070: 0786 873f 1e90 663f e401 6c3f e3d1 743f
00000080: 76d3 643f c8e0 923f e29a 563f 18b9 833f
00000090: 92c6 6d3f 6736 733f 9078 673f b6f2 913f
000000a0: 691f 6f3f a581 733f f941 703f 8d49 8f3f
000000b0: 1b40 833f b522 883f 5b66 723f b0ba 653f
000000c0: 27fb 823f 6ab8 743f 0aea 6a3f f952 653f
000000d0: a48e 6f3f 698e 833f a47c 703f 423b 8b3f
000000e0: b739 643f c721 763f d022 793f 92b3 753f
000000f0: 14c7 683f 5163 833f 776f 8b3f b8e4 853f

bn2.bias f4 [64]
-0.019753521 -0.08099266 -0.050720714 0.009821742 -0.013571101 -0.028755972 0.001026154 -0.08385513
-0.07760777 0.02027354 -0.05938923 -0.04049413 -0.018867629 -0.090903565 -0.08023567 -0.24345946
-0.05349664 -0.11413189 0.076145515 -0.13712354 0.050762292 -0.025051335 0.025131408 0.04088315
-0.024276469 -0.14412442 -0.0597886 0.024673475 -0.24357326 -0.067552865 -0.053714696 -0.024625503
-0.0701853 -0.28674868 -0.03697802 -0.09496264 -0.016875254 -0.14033638 -0.014035984 -0.0578872
-0.05030213 -0.13123417 -0.11170754 -0.030825317 0.020899128 -0.048159573 -0.07744118 -0.0068797725
0.081084736 -0.09076698 -0.09778236 -0.060703065 -0.023649413 -0.078234576 -0.026028063 -0.06453979
-0.036971595 -0.06031687 -0.056897495 -0.03222948 -0.10273928 -0.07645438 -0.13436632 -0.123598024
00000000: 23d2 a1bc 7bdf a5bd 86c0 4fbd 5feb 203c
00000010: 5359 5ebc a591 ebbc 0480 863a 3dbc abbd
00000020: d3f0 9ebd b214 a63c 1f42 73bd 2cdd 25bd
00000030: 4990 9abc a62b babd 9952 a4bd 704d 79be
00000040: 4b1f 5bbd fbbd e9bd 2ef2 9b3d 1d6a 0cbe
00000050: 1fec 4f3d 7538 cdbc 62e0 cd3c 1775 273d
00000060: 72df c6bc 5a95 13be e4e4 74bd 0720 ca3c
00000070: 456b 79be 2859 8abd f103 5cbd 6cbb c9bc
00000080: 50bd 8fbd b9d0 92be 4476 17bd c67b c2bd
00000090: f93d 8abc 57b4 0fbe 2ff7 65bc 211b 6dbd
000000a0: 9b09 4ebd 4062 06be ecc6 e4bd 6085 fcbc
000000b0: a634 ab3c f942 45bd 7b99 9ebd b76f e1bb
000000c0: c10f a63d 0ae4 b9bd 1e42 c8bd c7a3 78bd
000000d0: 6abc c1bc 7339 a0bd ce38 d5bc 702d 84bd
000000e0: 876f 17bd d30e 77bd 590d 69bd 0f03 04bd
000000f0: f968 d2bd 1d94 9cbd 5397 09be f620 fdbd

bn2.running_mean f4 [64]
-0.46698272 -0.26251647 -0.32020423 -0.65421444 -1.0364963 -0.96427774 -0.5286698 1.1613632
-0.66998786 -0.9362683 -0.14910883 1.3267419 -0.3221239 -0.16451894 -0.015527955 -1.0295771
0.99596655 -0.31414163 -0.31472915 -0.7787127 1.119168 -0.7662441 -0.3034986 -1.0415051
-0.49783447 -0.68632853 -0.96039766 -0.36887935 -0.36614946 0.009987233 -0.4182037 -0.13417591
0.8025353 -0.62431973 0.73750514 -1.6436318 0.07196539 -0.4317645 -0.1907397 -0.10446586
-0.24225485 -0.7887272 -0.16046517 -0.30762663 -0.34756303 -0.4822238 -0.3363275 1.2938423
-0.8256116 -0.28783095 1.2699893 0.72909695 -0.9644747 -1.1648886 0.56598914 -1.4957751
0.43706942 -0.17203389 -0.6599014 -0.01945741 -0.5127708 -1.4327664 -0.6023463 -1.1932137
00000000: 5c18 efbe 8f68 86be cff1 a3be 997a 27bf
00000010: e9ab 84bf e8da 76bf e756 07bf 8da7 943f
00000020: 5384 2bbf 48af 6fbf fcaf 18be aed2 a93f
00000030: 6ced a4be a777 28be f768 7ebc 2fc9 83bf
00000040: aaf7 7e3f 2cd7 a0be 2e24 a1be b759 47bf
00000050: e640 8f3f 9328 44bf 2b64 9bbe 0a50 85bf
00000060: 29e4 febe 3ab3 2fbf 9fdc 75bf c1dd bcbe
00000070: f177 bbbe 7ea1 233c cc1e d6be 6965 09be
00000080: f472 4d3f 6bd3 1fbf 23cd 3c3f 8762 d2bf
00000090: 9762 933d 3d10 ddbe 4551 43be 32f2 d5bd
000000a0: a811 78be 07ea 49bf fb50 24be 3d81 9dbe
000000b0: c8f3 b1be 0ae6 f6be 1e33 acbe a09c a53f
000000c0: 485b 53bf 945e 93be 028f a23f 19a6 3a3f
000000d0: d0e7 76bf 121b 95bf aae4 103f 8f75 bfbf
000000e0: 90c7 df3e a729 30be 4cef 28bf 2565 9fbc
000000f0: f244 03bf e464 b7bf 5e33 1abf 3abb 98bf

bn2.running_var f4 [64]
0.2528557 0.18305089 0.41481698 0.6961592 0.39446458 0.677022 0.3209967 0.8073061
0.2769563 0.31002194 0.30988437 0.7282743 0.3197718 0.3146568 0.10847893 0.30208912
0.56827474 0.31899905 0.41150835 0.34585014 0.605541 0.38738245 0.27363336 0.6043197
0.23425066 0.47366902 0.61116827 0.20324606 0.16870113 0.21679088 0.38401526 0.24623531
0.46321738 0.16822238 0.43221918 0.9524517 0.26027894 0.46730116 0.4353529 0.12791412
0.54158354 0.2830846 0.26171377 0.24055013 0.4478823 0.39158356 0.2884721 0.48915425
0.5419359 0.26027948 0.7626479 0.4469359 0.4145799 0.4625528 0.31366682 1.0538297
0.6429491 0.17303143 0.46426994 0.20912074 0.24580532 0.7231286 0.3125239 0.5287476
00000000: 4d76 813e b171 3b3e e462 d43e 7d37 323f
00000010: 43f7 c93e 5051 2d3f ae59 a43e 9dab 4e3f
00000020: 37cd 8d3e 32bb 9e3e 2aa9 9e3e 2f70 3a3f
00000030: 21b9 a33e b21a a13e 342a de3d 6dab 9a3e
00000040: 747a 113f d853 a33e 39b1 d23e 4513 b13e
00000050: bc04 1b3f fe56 c63e ac19 8c3e b2b4 1a3f
00000060: 68df 6f3e bf84 f23e 8675 1c3f bc1f 503e
00000070: fdbf 2c3e 6efe 5d3e a69d c43e 1c25 7c3e
00000080: d42a ed3e 7d42 2c3e d54b dd3e e0d3 733f
00000090: 4843 853e 1942 ef3e 93e6 de3e ebfb 023e
000000a0: 38a5 0a3f 77f0 903e 59ff 853e c652 763e
000000b0: d450 e53e a47d c83e 9db2 933e 6d72 fa3e
000000c0: 50bc 0a3f 5a43 853e e53c 433f c8d4 e43e
000000d0: d143 d43e b8d3 ec3e f098 a03e e4e3 863f
000000e0: 5098 243f 272f 313e cab4 ed3e bf23 563e
000000f0: 64b4 7b3e f51e 393f 2203 a03e 015c 073f

conv3.weight f4 [32, 64, 3]
0.04498857 0.031694245 0.06438557 0.048743524 0.009355763 -0.030189628 0.010807633 0.016782623
0.0646035 0.016329618 -0.037133113 -0.053559758 -0.06681772 -0.045199014 0.013488798 -0.024329988
-0.06899454 -0.029143443 0.029634805 -0.011771777 0.024440775 0.0018217284 0.0006735226 -0.042912185
-0.01884334 -0.018494258 -0.04707651 -0.061960444 -0.02914543 0.011189228 0.04782799 -0.01831003
0.036208685 0.008550735 -0.044527452 -0.046139933 -0.017051002 -0.0710179 0.048135996 -0.008070706
-0.01887891 -0.0064955605 -0.02247165 0.10786905 0.06542214 -0.032059267 0.121089846 -0.06121415
0.05819651 -0.01667601 0.0051860157 0.003998291 0.0045955647 0.010145027 -0.034094997 -0.031587057
0.109610595 -0.021060938 0.037718255 0.04742408 -0.040995713 0.0067401365 -0.007992452 0.045861203
0.051358502 -0.01788037 0.025747968 -0.04665737 -0.011443521 0.0023751617 0.04039895 -0.049313106
0.005069854 -0.030042088 -0.023000797 -0.025597416 0.046157986 -0.021790642 -0.006421452 -0.041363418
-0.041145843 -0.015429004 0.024806213 0.025190191 -0.054580506 0.030230904 0.006749911 -0.03623947
0.02511342 0.03662103 0.025798919 0.022719786 0.042922463 -0.04150225 -0.025645664 0.07554269
-0.042916924 0.018129244 0.012006248 0.065762006 0.17350215 -0.070828624 -0.0069346526 -0.028106188
0.03908734 0.050125744 -0.0019452787 -0.07728178 -0.008784373 -0.03248231 0.04488734 -0.069610305
-0.0032616311 0.026602102 -0.047924545 0.05427739 0.06473231 -0.04431898 0.093249425 -0.014295814
0.05683367 -0.06938947 0.027179796 -0.026454983 0.046506044 -0.080340415 0.002133664 0.01473015
0.091027506 0.0103133945 0.012664877 0.03436662 -0.05892697 -0.021998992 0.10875927 0.030903358
-0.09032339 0.062263288 0.024576606 -0.0019836405 0.053256523 -0.0043080673 0.0034184153 -0.0286626
0.0034805392 0.100815475 -0.0070485338 -0.050075933 0.0061580143 0.094806194 -0.04200514 0.0035706663
0.012436637 0.05034745 0.066126674 -0.049533136 -0.06262513 0.04577322 -0.014431896 0.069438435
0.084973335 -0.07525534 0.03772023 0.041272063 0.0018584995 0.0694549 0.03855546 -0.053741705
-0.055244736 0.046624336 -0.06334719 0.027212575 -0.05714908 -0.014143097 -0.014257002 0.052220833
-0.045706842 -0.03630594 0.022004133 -0.054503635 -0.025977194 0.0434801 -0.005958479 0.03302915
0.022147028 -0.015184819 0.058335938 -0.041468553 -0.028419932 0.035837397 0.06861608 -0.06844853
0.03866516 -0.04112941 -0.013427808 -0.011398211 0.096656516 -0.060407247 -0.023869414 0.03540843
0.019075306 0.018630201 -0.024945337 0.07479767 3.1349213e-05 0.046192996 0.023187144 -0.044530723
-0.024719793 -0.0072134878 -0.06057567 0.010520797 -0.056190446 -0.04467954 -0.014709114 0.03201628
0.014606513 -0.056780107 -0.03140017 0.015592936 0.0064218356 -0.040666625 -0.01197052 -0.035595503
0.011641267 0.0067481417 0.07555084 -0.072618105 0.029919203 0.07907134 0.11069428 0.027563097
-0.060951445 -0.024450775 -0.013860868 -0.030280264 -0.11171955 0.0610833 -0.04750198 0.043076728
0.027844103 0.03166314 -0.07861817 -0.010868734 0.09818467 0.028281987 0.011895125 0.06409497
0.03245794 -0.014978365 -0.015948117 -0.12010621 0.08243756 -0.06361397 -0.081402406 0.008309085
00000000: ef45 383d d3d1 013d 95dc 833d 4aa7 473d
00000010: ea48 193c 3d50 f7bc 8012 313c b67b 893c
00000020: d74e 843d b1c5 853c e418 18bd 7a61 5bbd
00000030: bbd7 88bd 9a22 39bd 1f00 5d3c af4f c7bc
00000040: 024d 8dbd 3bbe eebc b1c4 f23c 69de 40bc
00000050: 0538 c83c 10c7 ee3a 568f 303a b0c4 2fbd
00000060: 595d 9abc 4581 97bc 4cd3 40bd 3cca 7dbd
00000070: 66c2 eebc 0653 373c 48e7 433d ebfe 95bc
00000080: 8f4f 143d 6218 0c3c 6b62 36bd 3afd 3cbd
00000090: 8bae 8bbc d571 91bd 402a 453d ff3a 04bc
000000a0: f2a7 9abc b6d8 d4bb 7716 b8bc 73ea dc3d
000000b0: 0bfc 853d 9450 03bd f4fd f73d b0bb 7abd
000000c0: 775f 6e3d 219c 88bc 74ef a93b 1904 833b
000000d0: 6496 963b 5437 263c 32a7 0bbd 6e61 01bd
000000e0: 857b e03d fd87 acbc 757e 1a3d c13f 423d
000000f0: 1feb 27bd 5ddc dc3b c6f2 02bc f5d8 3b3d
00000100: 4b5d 523d db79 92bc 67ed d23c cc1b 3fbd
00000110: 9b7d 3bbc 9aa8 1b3b 5f79 253d 8afc 49bd
00000120: 0521 a63b d31a f6bc 2b6c bcbc acb1 d1bc
00000130: 2810 3d3d 4a82 b2bc 0b6b d2bb b06c 29bd
00000140: 8b88 28bd efc9 7cbc 6636 cb3c a95b ce3c
00000150: cf8f 5fbd cda6 f73c 5b2e dd3b d76f 14bd
00000160: a9ba cd3c efff 153d 4158 d33c d81e ba3c
00000170: 77cf 2f3d 43fe 29bd db16 d2bc 20b6 9a3d
00000180: a8c9 2fbd c883 943c dbb5 443c 3bae 863d
00000190: 8caa 313e 990e 91bd 153c e3bb f33e e6bc
000001a0: 0c1a 203d a750 4d3d b9f8 feba e945 9ebd
000001b0: 55ec 0fbc 2c0c 05bd cadb 373d d98f 8ebd
000001c0: 17c1 55bb a7ec d93c 874c 44bd f851 5e3d
000001d0: 6092 843d d287 35bd 8ef9 be3d fd38 6abc
000001e0: 6cca 683d 111c 8ebd 2aa8 de3c 1fb8 d8bc
000001f0: 1f7d 3e3d 8489 a4bd f1d4 0b3b ba56 713c
00000200: a16c ba3d 83f9 283c 5880 4f3c 03c4 0c3d
00000210: 685d 71bd 3b37 b4bc 2ebd de3d 0a29 fd3c
00000220: 78fb b8bd ca07 7f3d e154 c93c f7ff 01bb
00000230: 8323 5a3d b02a 8dbb 7e07 603b d4cd eabc
00000240: c219 643b 5878 ce3d 63f7 e6bb 6c1c 4dbd
00000250: 2bc9 c93b c029 c23d 950d 2cbd d701 6a3b
00000260: 09c3 4b3c 2139 4e3d 6c6d 873d 42e3 4abd
00000270: 9b41 80bd b37c 3b3d c273 6cbc bd35 8e3d
00000280: 8006 ae3d 791f 9abd 8780 1a3d e50c 293d
00000290: e598 f33a 5f3e 8e3d 54ec 1d3d 4320 5cbd
000002a0: 4e48 62bd 29f9 3e3d 2cbc 81bd e8ec de3c
000002b0: 2715 6abd 73b8 67bc 3396 69bc 83e5 553d
000002c0: 1937 3bbd 8ab5 14bd 0342 b43c 343f 5fbd
000002d0: 20ce d4bc 3018 323d 583f c3bb 9349 073d
000002e0: af6d b53c bfc9 78bc aaf1 6e3d eeda 29bd
000002f0: ebd0 e8bc 3cca 123d 9686 8c3d be2e 8cbd
00000300: 5c5f 1e3d 5077 28bd 4f00 5cbc 90bf 3abc
00000310: daf3 c53d 976d 77bd ca89 c3bc 6e08 113d
00000320: d143 9c3c 5d9e 983c 2a5a ccbc 852f 993d
00000330: f67c 0338 de34 3d3d f7f2 bd3c d965 36bd
00000340: 2a81 cabc 1f5f ecbb 321e 78bd 6c5f 2c3c
00000350: f427 66bd e501 37bd 7ffe 70bc 8123 033d
00000360: 2850 6f3c 4292 68bd 779d 00bd 8479 7f3c
00000370: 436e d23b 0c92 26bd 0020 44bc 97cc 11bd
00000380: 03bb 3e3c 841f dd3b 66ba 9a3d cdb8 94bd
00000390: 1e19 f53c 28f0 a13d afb3 e23d 01cc e13c
000003a0: 39a8 79bd fe4c c8bc b218 63bc 510e f8bc
000003b0: 38cd e4bd 7b32 7a3d 7091 42bd 3971 303d
000003c0: 5119 e43c 35b1 013d 9002 a1bd c612 32bc
000003d0: 0b15 c93d a0af e73c c5e3 423c 3944 833d
000003e0: 9ef2 043d d167 75bc a0a5 82bc 3ffa f5bd
000003f0: 06d5 a83d 0b48 82bd 4eb6 a6bd d422 083c

conv3.bias f4 [32]
-0.0038917265 -0.04933698 -0.03265243 0.012961162 -0.03304744 0.02729913 0.009421759 -0.064217485
0.03810603 -0.033725835 -0.027952213 -0.027412707 0.02861802 -0.06921894 -0.05241387 0.030963194
-0.020401573 -0.014987717 -0.06664499 0.006972498 0.029808044 -0.027285205 0.0077051846 0.0041497336
-0.018160421 0.060577292 0.019478112 0.015602065 -0.0020326069 0.00018977483 0.040261235 0.009761269
00000000: 560c 7fbb 9315 4abd 8ebe 05bd 0e5b 543c
00000010: c15c 07bd 6da2 df3c b95d 1a3c 7584 83bd
00000020: 1215 1c3d 1a24 0abd 0afc e4bc 9d90 e0bc
00000030: 5670 ea3c a9c2 8dbd edaf 56bd 86a6 fd3c
00000040: 3321 a7bc 0b8f 75bc 2b7d 88bd 8d79 e43b
00000050: 0030 f43c 3985 dfbc c67b fc3b 7dfa 873b
00000060: 2ac5 94bc e51f 783d 9090 9f3c ce9f 7f3c
00000070: 7c35 05bb 4bfe 4639 f7e8 243d bbed 1f3c

bn3.weight f4 [32]
1.1300694 1.2172648 1.4078387 1.2748885 1.4087834 1.2256601 1.368345 1.3664194
1.1270969 1.3759949 1.3836077 1.3636897 1.2154822 1.416618 1.1738575 1.2545813
1.2656751 1.1011492 1.2970071 1.213278 1.446674 1.3639803 1.4350812 1.2982783
1.4185961 1.4033234 1.4381243 1.4177929 1.3921258 1.2833136 1.194693 1.3008678
00000000: 1da6 903f 55cf 9b3f 0f34 b43f 8c2f a33f
00000010: 0453 b43f 6ee2 9c3f ee25 af3f d5e6 ae3f
00000020: b644 903f 9a20 b03f 0f1a b13f 628d ae3f
00000030: ec94 9b3f bd53 b53f f640 963f 1f96 a03f
00000040: a401 a23f 75f2 8c3f 5404 a63f b24c 9b3f
00000050: 9d2c b93f e896 ae3f beb0 b73f fc2d a63f
00000060: 8f94 b53f 1aa0 b33f 7514 b83f 3d7a b53f
00000070: 2e31 b23f 9f43 a43f b3eb 983f d682 a63f

bn3.bias f4 [32]
0.021890787 0.09487055 0.14681672 0.14209254 0.14176045 0.06790388 0.17555207 0.13195428
0.06067204 0.012414264 0.042960275 0.012604227 0.081999004 0.12924922 0.127544 0.069464736
0.16608013 0.08197675 0.11800084 0.18219948 0.16795737 0.08715577 0.08753527 0.12856565
0.16767886 0.15584415 0.12008309 0.23614426 0.15624692 0.090053074 0.173146 -0.021417765
00000000: 4f54 b33c 7e4b c23d 1f57 163e b580 113e
00000010: a729 113e 3011 8b3d ecc3 333e 061f 073e
00000020: 3f83 783d 3265 4b3c 1df7 2f3d f681 4e3c
00000030: 18ef a73d e859 043e e59a 023e 8743 8e3d
00000040: e910 2a3e 6de3 a73d 6daa f13d 8092 3a3e
00000050: 04fd 2b3e b97e b23d b145 b33d b7a6 033e
00000060: 02b4 2b3e 9c95 1f3e 20ee f53d cdcf 713e
00000070: 31ff 1f3e bf6d b83d 2f4d 313e 4f74 afbc

bn3.running_mean f4 [32]
0.40078628 0.13105339 -0.09332822 0.09915833 -0.11582717 -0.56167454 0.24135625 -0.33587882
-0.40739122 -0.08742533 -0.11595085 -0.14815468 -0.55814946 -0.32218912 -0.044126034 -0.20070502
0.10843127 -0.076981775 0.8581483 -0.5526543 -0.8472041 -0.070017904 0.053425167 -0.45965597
-0.18015178 -0.3412674 0.14658397 0.27562714 0.06755556 -0.12436307 -0.315671 0.07678224
00000000: dc33 cd3e dc32 063e de22 bfbd 8613 cb3d
00000010: cc36 edbd e7c9 0fbf 1826 773e 4ff8 abbe
00000020: 9595 d0be 0d0c b3bd a477 edbd dcb5 17be
00000030: e2e2 0ebf f9f5 a4be 80bd 34bd 9e85 4dbe
00000040: 3711 de3d 9fa8 9dbd 9baf 5b3f c17a 0dbf
00000050: 5ee2 58bf 8c65 8fbd 59d4 5a3d 0758 ebbe
00000060: b579 38be 9aba aebe 1c1a 163e 001f 8d3e
00000070: 925a 8a3d 11b2 febd a19f a1be 0240 9d3d

bn3.running_var f4 [32]
0.21424204 0.32944936 0.26787984 0.27794403 0.27140155 0.15145813 0.28448573 0.19731784
0.121403314 0.18758188 0.22399667 0.17090002 0.12576602 0.26106712 0.12982027 0.17619923
0.20739152 0.17472756 0.65644354 0.16599281 0.2505756 0.20868362 0.17502025 0.16318291
0.22953327 0.17030257 0.33941874 0.20277695 0.19084863 0.1583272 0.13719723 0.32478827
00000000: 4462 5b3e 96ad a83e 8c27 893e ae4e 8e3e
00000010: 25f5 8a3e d717 1b3e 1da8 913e b00d 4a3e
00000020: 4da2 f83d 7715 403e 625f 653e 6a00 2f3e
00000030: cfc8 003e 97aa 853e 9bef 043e 926d 343e
00000040: 715e 543e c8eb 323e af0c 283f 05fa 293e
00000050: 724b 803e 29b1 553e 8238 333e 6c19 273e
00000060: c50a 6b3e cc63 2e3e 4bc8 ad3e c3a4 4f3e
00000070: d36d 433e 8720 223e 6e7d 0c3e a64a a63e

fc1.weight f4 [4, 128]
0.04301855 0.06814014 0.068250366 0.052881073 -0.05006412 0.04701804 -0.020809399 -0.35106194
0.09136029 -0.07084163 0.090142846 -0.34767026 -0.07322625 0.0611293 0.025693934 0.120391004
0.041284233 -0.049108706 -0.0518435 -0.4281968 -0.013018056 -0.031322055 0.10851158 -0.18014038
0.02547278 -0.045752943 -0.026859256 0.2649211 0.011885497 0.0701316 0.002488006 -0.4134491
0.048461623 0.08452521 0.0018777058 0.16109836 -0.0024754296 -0.07469396 -0.034836434 -0.14290343
-0.013891751 0.0028710682 -0.053271856 -0.19717327 0.08041875 0.023148 0.07880444 -0.10888659
0.06446534 0.090899706 -0.08415141 -0.18127951 -0.06647935 0.11631957 0.023163108 -0.35246122
-0.057862625 0.08136413 0.053258512 -0.14105842 -0.036426716 -0.0017952113 0.024795864 -0.33710903
-0.03351617 0.041070733 0.09195926 0.17028153 0.03803123 0.020546548 0.051357765 0.22488852
0.0676461 0.041406438 0.011646374 -0.030836347 -0.043722697 0.076305695 0.03199128 -0.18170737
0.012396344 -0.11340034 -0.05146767 0.2456127 -0.004454834 -0.08706414 0.038572993 0.28802475
0.0053303544 -0.1153419 -0.04619172 0.31951207 -0.052428205 0.04315727 -0.07926513 0.16011785
0.09116976 0.0886898 -0.027224414 -0.44389322 -0.021272017 -0.027988736 -0.13997243 0.32134852
0.053622685 0.095711045 -0.12176884 -0.39628083 0.04235903 -0.01264864 -0.044442907 0.29190072
0.033213932 0.019323425 0.12273873 -0.3515593 -0.08097848 0.027631098 0.11658239 0.31194565
-0.062370673 0.07511583 0.07503339 -0.044558987 0.060014077 0.044714317 0.009924115 -0.19597252
0.0037012429 -0.029407045 0.033679683 -0.19571052 0.051182445 0.051564254 -0.072353035 -0.074946515
0.088902496 -0.009870173 0.038839143 -0.2804806 0.019223033 0.08349995 0.0687092 0.12308057
-0.02594076 -0.0883758 0.023884958 0.108232155 -0.0028621007 0.009986205 0.011615063 0.22492859
0.017488927 0.01974686 -0.007827493 0.118102185 -0.075121395 -0.06835134 0.020448618 -0.015649484
-0.060138773 -0.048373874 0.08763064 -0.025402298 0.059552297 0.044004146 -0.035319906 -0.340668
0.0009856193 0.079610534 -0.011988649 -0.3354156 0.063975744 0.05715524 -0.023874873 -0.30231526
0.07883183 0.005069262 0.08879931 -0.017076464 -0.087035045 -0.104005575 0.079795584 0.04957992
0.032725632 0.06636016 0.057756633 0.17670172 0.049810275 0.08410238 0.0469721 0.12582082
0.032848686 -0.0181877 0.08713106 0.06796988 0.07525153 0.020476019 0.11246442 -0.041609246
-0.0626461 -0.03806437 -0.031876463 0.01920312 0.13597116 0.0708911 0.01966431 0.117173865
0.021035066 -0.10831866 -0.053617653 0.1807219 -0.008361388 -0.0299069 -0.026762001 -0.2176796
0.03677113 0.038768526 -0.03980816 -0.3524333 -0.0028573733 0.057389874 -0.020171126 0.14787777
0.11017344 0.013528041 0.05096429 0.05898007 0.041888256 -0.030465007 0.052691657 -0.032242402
0.022432137 -0.040967047 0.027550396 -0.014341996 0.026571691 0.035735216 -0.027610762 0.049094193
0.029910319 0.08645472 0.08828785 0.10771671 0.04395559 0.04836972 0.087800436 -0.21137741
0.062162142 0.03261439 0.072042644 0.07785763 -0.03065726 -0.016557593 -0.02986539 -0.30839053
00000000: 3834 303d 0f8d 8b3d d9c6 8b3d d399 583d
00000010: 0910 4dbd fd95 403d 7978 aabc 64be b3be
00000020: 1b1b bb3d 6b15 91bd d09c b83d d601 b2be
00000030: a5f7 95bd b862 7a3d 167c d23c 8f8f f63d
00000040: a819 293d 3626 49bd da59 54bd 9c3c dbbe
00000050: af49 55bc 8e4b 00bd 523b de3d b876 38be
00000060: 4bac d03c 7067 3bbd f107 dcbc bda3 873e
00000070: 63bb 423c 28a1 8f3d d00d 233b 9aaf d3be
00000080: b27f 463d 8e1b ad3d 5a1d f63a f8f6 243e
00000090: d13a 22bb 26f9 98bd a6b0 0ebd 4755 12be
000000a0: 3a9a 63bc 8828 3c3b 9733 5abd cae7 49be
000000b0: 96b2 a43d e0a0 bd3c 3964 a13d efff debd
000000c0: 6706 843d a029 ba3d 9357 acbd 56a1 39be
000000d0: 5326 88bd f438 ee3d 8fc0 bd3c cc75 b4be
000000e0: 5c01 6dbd 3da2 a63d 9925 5a3d 9e71 10be
000000f0: 2e34 15bd 4c4d ebba b220 cb3c 8e99 acbe
00000100: 4048 09bd c939 283d 2355 bc3d 485e 2e3e
00000110: a3c6 1b3d 3c51 a83c 855c 523d 2d49 663e
00000120: 0a8a 8a3d cc99 293d 6fd0 3e3c 829c fcbc
00000130: 9216 33bd 2946 9c3d 4a09 033d 7f11 3abe
00000140: 091a 4b3c 703e e8bd c3cf 52bd e581 7b3e
00000150: dbf9 91bb af4e b2bd b7fe 1d3d fb77 933e
00000160: 41aa ae3b 6038 ecbd 8733 3dbd 1697 a33e
00000170: f5be 56bd adc5 303d c255 a2bd eff5 233e
00000180: 36b7 ba3d ffa2 b53d bc05 dfbc f945 e3be
00000190: a742 aebc a248 e5bc ef54 0fbe cb87 a43e
000001a0: 76a3 5b3d 2704 c43d f161 f9bd 52e5 cabe
000001b0: aa80 2d3d 3e3c 4fbc c409 36bd 0374 953e
000001c0: 550b 083d 294c 9e3c 715e fb3d 95ff b3be
000001d0: 0cd8 a5bd 9d5a e23c c0c2 ee3d 57b7 9f3e
000001e0: 6478 7fbd 54d6 993d 1bab 993d 7c83 36bd
000001f0: 52d1 753d 5c26 373d c198 223c 05ad 48be
00000200: 8d90 723b 0be7 f0bc b5f3 093d 5768 48be
00000210: afa4 513d 0a35 533d d42d 94bd 8f7d 99bd
00000220: 8312 b63d 82b6 21bc cb15 1f3d 279b 8fbe
00000230: 9f79 9d3c 0602 ab3d 69b7 8c3d aa11 fc3d
00000240: b781 d4bc 5ffe b4bd 63aa c33c d2a8 dd3d
00000250: 1592 3bbb 2e9d 233c 1b4d 3e3c ae53 663e
00000260: f044 8f3c 2bc4 a13c e33e 00bc 8fdf f13d
00000270: 3fd9 99bd cafb 8bbd dc83 a73c 5933 80bc
00000280: 1354 76bd af23 46bd b177 b33d 7b18 d0bc
00000290: 1ced 733d b13d 343d 9bab 10bd 096c aebe
000002a0: e52f 813a d90a a33d 0a6c 44bc 98bb abbe
000002b0: b705 833d 9d1b 6a3d 3d95 c3bc 11c9 9abe
000002c0: 9572 a13d 0d1c a63b 6adc b53d f1e3 8bbc
000002d0: 6e3f b2bd e000 d5bd de6b a33d 5014 4b3d
000002e0: 500b 063d d6e7 873d 3892 6c3d 4cf1 343e
000002f0: dc05 4c3d de3d ac3d d165 403d 2cd7 003e
00000300: 588c 063d 5ffe 94bc c571 b23d cb33 8b3d
00000310: 791d 9a3d 53bd a73c bf53 e63d 756e 2abd
00000320: 994c 80bd 63e9 1bbd e590 02bd dd4f 9d3c
00000330: 063c 0b3e 5a2f 913d 0c17 a13c daf8 ef3d
00000340: bb51 ac3c 2cd6 ddbd 2f9e 5bbd 290f 393e
00000350: 34fe 08bc 51ff f4bc fc3b dbbc 67e7 5ebe
00000360: 539d 163d bfcb 1e3d e20d 23bd 2372 b4be
00000370: c542 3bbb a511 6b3d eb3d a5bc 456d 173e
00000380: 9da2 e13d b7a4 5d3c eebf 503d 1695 713d
00000390: 0593 2b3d c091 f9bc 35d3 573d 9c10 04bd
000003a0: 9ac3 b73c 10cd 27bd 5eb1 e13c b1fa 6abc
000003b0: e0ac d93c 175f 123d f72f e2bc fe16 493d
000003c0: 7c06 f53c 2c0f b13d 43d0 b43d 949a dc3d
000003d0: c70a 343d 541f 463d b7d0 b33d 5273 58be
000003e0: bb9d 7e3d ab96 053d 188b 933d d273 9f3d
000003f0: ef24 fbbc caa3 87bc 43a8 f4bc 5de5 9dbe

fc1.bias f4 [4]
0.003010753 0.10619379 -0.033088185 -0.07240564
00000000: 0e50 453b 217c d93d 7a87 07bd 6849 94bd
