pths/classifier_train.pth (torch, 61572 bytes, 20 tensors)

conv1.weight f4 [32, 1, 3]
000000 4a cc b8 bd 32 07 9b 3e d2 8b e1 3e 92 e9 5d bd
       -0.0902334 0.30278927 0.44051987 -0.054177828
000010 a3 83 67 3e 0e 59 b2 3d 62 83 9a 3d 65 ca b6 3e
       0.22608809 0.08708392 0.075445905 0.3570129
000020 94 fe d9 3e 77 75 9c bd f6 32 e2 3e 9f ea 4e be
       0.4257704 -0.07639592 0.44179505 -0.20206688
000030 0d 4f 96 bc 12 e3 28 3f 99 6d a0 3e 0b 43 c9 3e
       -0.018348241 0.6597148 0.31333616 0.39308962
000040 17 f9 bf be b8 12 5d be 48 d4 bb 3e b5 41 ee bb
       -0.37494728 -0.21589172 0.36685395 -0.0072710165
000050 92 0c e0 bd 73 1d 97 3e 89 02 49 be f8 1d f7 3e
       -0.109398976 0.29514655 -0.19629873 0.48265052
000060 14 c9 09 bf 07 0c 51 bd d6 f1 e7 bd 9c 9c 0e bf
       -0.53822446 -0.05103686 -0.113254234 -0.55707717
000070 dd 9f e5 be f0 c7 09 bf 4e 8c a6 bc d1 3b 8e 3d
       -0.44848529 -0.53820705 -0.020330574 0.06945003
000080 7b 48 9d 3e 63 51 c3 3e 6d 2a 13 bf 19 7d d0 3d
       0.3071936 0.3814803 -0.5748661 0.101801105
000090 f6 72 17 bf 77 f0 88 be de 9a 89 be d4 8b 7a bc
       -0.5915979 -0.2674596 -0.26875967 -0.015292127
0000a0 88 bb 52 be bb be 8d 3e 2a 82 31 3d 7d 62 a9 bd
       -0.2057935 0.27684578 0.043337025 -0.08270738
0000b0 1d 5a 10 bf 28 14 53 3e c2 78 35 bd 7f ea 54 bd
       -0.563875 0.20613158 -0.044304617 -0.051981445
0000c0 6c f6 d7 3e f5 f9 e7 bd 7a 20 12 bf 03 12 e3 3e
       0.42180192 -0.113269724 -0.57080805 0.4434968
0000d0 26 d6 98 be 20 27 ff be 7f e0 82 be 85 8a f9 be
       -0.29850882 -0.49834538 -0.25561902 -0.48738495
0000e0 e4 a6 e4 be 91 08 ec be c6 37 97 3d 50 85 c3 3d
       -0.44658577 -0.46100286 0.07383685 0.09546912
0000f0 74 c7 04 bf da a7 d9 be d1 42 ff be b5 0e 8e 3d
       -0.5186684 -0.42510873 -0.49855664 0.06936399
000100 0a 69 15 bf 80 37 e4 3e d4 8d f8 be 18 86 c6 be
       -0.583634 0.44573593 -0.48545706 -0.3877418
000110 bf c9 f2 be eb 59 0f 3f 87 ad 98 be 63 77 c7 3e
       -0.47419545 0.5599658 -0.2981989 0.38958272
000120 25 b0 5f bc 41 5b 13 3e bc c9 3f 3e 1b 2d 8f 3e
       -0.013652836 0.1439028 0.187293 0.279641
000130 34 d3 b7 3e d8 ec 97 be 41 c2 02 3e f7 3c 8a be
       0.35903323 -0.29672885 0.12769414 -0.26999637
000140 16 3f 69 3e 20 b3 2b be 81 2b 4a 3e 76 b0 11 3d
       0.22777972 -0.1676755 0.19743158 0.035568677
000150 be be b6 be b6 2a fa be 31 c8 be bd 00 d1 f5 3c
       -0.356924 -0.4886071 -0.09315527 0.030006886
000160 5e 6e 10 bf bb aa c0 be 1f b0 62 3e 79 4d 92 3e
       -0.56418407 -0.37630257 0.22137497 0.28574732
000170 e1 b6 e3 bc 64 41 e5 be a5 6f 96 be 97 3b 67 3e
       -0.027797164 -0.44776452 -0.29382053 0.22581325

conv1.bias f4 [32]
000000 86 5f 9f be d8 b2 ee 3e 55 35 e7 be 73 8c ee 3d
       -0.31127566 0.46620822 -0.45157877 0.11647882
000010 8d d9 42 3d 74 3d f9 be 94 6a 4e bc 13 fd 78 3e
       0.047570754 -0.48679698 -0.012598652 0.2431529
000020 57 d5 d9 bd ea 1c 19 3f 28 2d 4c be 2f f0 ff be
       -0.106363945 0.59809744 -0.199391 -0.49987933
000030 b1 b8 b2 3e 44 63 11 bd fc 8d 5f be 95 6d 36 3e
       0.34906533 -0.035495058 -0.21831506 0.1781524
000040 e5 54 fa be b2 f7 3c be 19 38 06 3f 60 2a fe 3e
       -0.48892894 -0.18453863 0.5242935 0.49641705
000050 d8 ea dd bd 53 eb 64 3e 1e 77 4a 3e 72 7b 4a bd
       -0.108358085 0.22355394 0.19772002 -0.049434133
000060 aa 71 43 be cf aa cf 3e 11 20 e3 3e 11 ac 90 bd
       -0.19086328 0.40560004 0.44360402 -0.07064069
000070 d4 df 88 be f5 0f 9d 3e 6b cb 24 3e 32 ff 51 be
       -0.26733267 0.30676237 0.16093223 -0.20507506

bn1.weight f4 [32]
000000 9c d8 66 3f c9 be 69 3f 0a e3 66 3f df dd 75 3f
       0.9017427 0.9130674 0.90190184 0.96041673
000010 6a 79 78 3f 94 f0 85 3f d6 0e 72 3f 19 9b 66 3f
       0.97060263 1.0464044 0.9455389 0.9008041
000020 c9 1d 85 3f 2c b4 8f 3f 2c 39 67 3f 10 ca 91 3f
       1.0399715 1.1226859 0.9032161 1.138979
000030 59 c3 7c 3f 99 1a 77 3f 52 a5 8d 3f c1 b1 5f 3f
       0.98735577 0.9652496 1.1066077 0.87380606
000040 15 0a 8a 3f 31 d1 86 3f 66 e7 86 3f ca 38 83 3f
       1.0784327 1.053259 1.0539367 1.0251706
000050 31 15 8d 3f 45 f5 8d 3f 4d 6c 86 3f 93 7a 67 3f
       1.1022092 1.1090475 1.0501801 0.9042141
000060 87 49 77 3f 04 11 73 3f 93 53 77 3f 94 79 65 3f
       0.9659657 0.9494784 0.966119 0.8963864
000070 13 e9 7d 3f c3 4a 7f 3f d0 c1 6e 3f 29 22 7d 3f
       0.9918377 0.9972345 0.93264484 0.9888025

bn1.bias f4 [32]
000000 29 81 49 bd 55 b3 85 bd f9 40 d2 bd 24 5b 5b 3c
       -0.049195442 -0.065283455 -0.10266299 0.013388429
000010 ae 6e 71 bd 9d 34 62 3c 21 4d d1 3d dc c5 c7 bd
       -0.058943443 0.013806489 0.10219789 -0.097545356
000020 ca d3 27 bd c0 f9 0e be 57 e9 35 bc eb 36 29 be
       -0.040973462 -0.1396246 -0.011102996 -0.16524856
000030 da fe 9c bd 77 39 2e bc 5c a2 2b bd 59 bd 94 3d
       -0.076657966 -0.010633818 -0.041902885 0.07262678
000040 f4 31 19 3b b8 11 6b bc 72 a0 8f bd de 77 23 bd
       0.0023375722 -0.014347486 -0.070130244 -0.039909236
000050 96 c8 ae bd dc 28 5a bd e1 d9 92 bd f3 1f b5 bd
       -0.085343525 -0.053261623 -0.07170463 -0.088439845
000060 00 e0 37 3c 26 bb 86 bd 74 7a dc bc 38 35 6c bd
       0.011222839 -0.065786645 -0.026913859 -0.05766794
000070 be 9e 4a bd 98 a2 43 bd 97 ad 16 bd da 31 ca bc
       -0.049467795 -0.047762483 -0.036786642 -0.024681974

bn1.running_mean f4 [32]
000000 49 28 2c be b8 19 06 3f 85 b5 88 be df 3f 1f 3e
       -0.16812243 0.52382994 -0.26700988 0.15551709
000010 a3 2f 83 3e d5 d9 09 bf dd d0 0e 3d 95 14 b9 3e
       0.2562228 -0.5384801 0.034867156 0.36148515
000020 9c 31 7e be 54 74 8c 3e db db fa bd ae 6c 07 bf
       -0.24823612 0.274325 -0.12248965 -0.5290021
000030 e7 af ed 3d 14 56 c6 bc eb 78 b2 be 80 da 4a 3e
       0.11605816 -0.024210967 -0.34857878 0.19809914
000040 fc 86 0d bf f4 fe 89 be d1 c6 8a 3e 36 17 e2 3e
       -0.55284095 -0.26952326 0.2710481 0.44158334
000050 8d 6b d2 be 30 79 51 3e 4e 57 ae bd 26 2e a1 3d
       -0.4109768 0.20456386 -0.08512746 0.0787013
000060 04 5b f9 bd 1a cf f3 3e 46 a6 ea 3e 46 14 57 bd
       -0.12175563 0.47618943 0.45829982 -0.05250957
000070 90 2b ee be 85 b2 dc 3d 1a e5 85 3e 70 b1 9e be
       -0.4651761 0.107762374 0.26151353 -0.3099475

bn1.running_var f4 [32]
000000 54 7c 1c 3d 78 0b ce 3b b0 7a 7d 3d b5 19 f2 3b
       0.038204506 0.0062879883 0.061884582 0.0073883184
000010 f9 87 a3 3d 29 dc 03 3c 7c a1 d1 3b 60 d0 01 3d
       0.07984919 0.008048096 0.0063974243 0.031692863
000020 6b c4 23 3d d6 d5 44 3e 3d e8 3f 3c 73 00 0d 3c
       0.03998224 0.19222197 0.011713085 0.008606064
000030 7b c8 d0 3d 3f 3c 4b 3b 54 d9 0d 3d ce 13 b9 3a
       0.101944886 0.0031011251 0.03463109 0.0014120282
000040 eb 9c 76 3c e1 6d 99 3c 93 f0 ed 3d d7 dd 0e 3c
       0.015052061 0.018729152 0.116181515 0.008719883
000050 ab d7 2b 3e b5 0d 53 3c 44 f4 15 3e 38 ed 1e 3d
       0.1678149 0.012881686 0.14643961 0.03880045
000060 b5 53 0f 3c 9f 82 7d 3c 92 83 5e 3b fc b0 b0 3a
       0.008747985 0.015473037 0.0033952934 0.001348048
000070 c3 82 96 3d 96 5e 93 3d 62 08 a3 3c 82 30 d6 3c
       0.073491596 0.07195775 0.019901458 0.026146177

conv2.weight f4 [64, 32, 3]
000000 6b a2 65 bd cc 91 f3 bd 51 a7 a1 3d 1b 7c b9 bd
       -0.056063097 -0.11893043 0.07893241 -0.09056874
000010 22 41 80 bb 1a 39 25 bd 10 7b a8 bd 96 31 2c bc
       -0.0039140144 -0.04033766 -0.08226597 -0.010509869
000020 a0 f6 54 bd 72 83 b6 3a ca ea cf bd 2d f7 c6 bd
       -0.051993012 0.0013924672 -0.10152204 -0.09715114
000030 79 1f b9 bd 3c 8d 42 bd 36 10 bd bc ca 08 3c bd
       -0.09039206 -0.047497973 -0.023079019 -0.04590682
000040 14 40 59 3c 7c d8 ae 3b be 76 05 be dc 1b 8f 3d
       0.013259906 0.0053358655 -0.13033578 0.06987736
000050 2d 08 09 bc 0d 84 04 3d 48 ec 8c bd 1f 5c 5d bd
       -0.008363766 0.032352496 -0.068810046 -0.05404293
000060 14 a0 d9 bc da c5 78 bd 42 31 be 3c 2f 18 66 3d
       -0.026565589 -0.06073556 0.023216847 0.056175407
000070 e2 bd 0b 3e ff a9 f7 bc 2e 3d ec bd 0c 65 ee bc
       0.13646653 -0.030232428 -0.115351066 -0.029100917
000080 72 bb f1 bc 14 f1 14 be 3c da 63 3d b9 77 0f bd
       -0.029508326 -0.14545089 0.055628046 -0.035026286
000090 54 50 92 bc 69 66 fb 3d 88 e8 3f 3d fa d8 42 3d
       -0.017860569 0.122753926 0.04685262 0.047570206
0000a0 31 2a f2 bd 2e 3f a8 3d 89 2b e5 3c 6f f6 cf 3d
       -0.118244536 0.082151756 0.02797486 0.10154425
0000b0 f5 ae 74 bd 06 f3 0e bd 6a 6f 33 3d e3 fa 8f bd
       -0.059737165 -0.034899734 0.043807425 -0.07030275
0000c0 1d 71 d3 bd a2 5e 97 3d 01 19 03 3c ef 88 93 3d
       -0.10324309 0.07391097 0.008001567 0.072038524
0000d0 d2 a6 c7 bd 45 56 26 3d aa 43 ad 3d fd 71 03 3e
       -0.09748615 0.040609617 0.084601715 0.12836452
0000e0 6d 09 e5 3d 5c ac 72 bd 85 93 27 bd 21 70 48 3d
       0.111834385 -0.059246406 -0.04091217 0.04893506
0000f0 68 5c 7a 3d 8b 04 3e bd e2 41 e7 3d 52 c1 87 bd
       0.06112328 -0.04639105 0.11291863 -0.0662867
000100 49 cb a3 bc 88 c9 6d bb a4 be 97 3c b1 ee f8 3d
       -0.019994395 -0.0036283452 0.018523522 0.12154902
000110 c1 ab 06 3e fe 09 48 bd 9e 3a f2 3c 2c 99 ce bd
       0.13151456 -0.048837654 0.029568966 -0.10087809
000120 71 ef d8 bd da 0c 30 bd 1b fe 25 bd 01 b9 17 3d
       -0.10592545 -0.042981006 -0.040525537 0.037041668
000130 c9 6a 43 3d 18 ae 0a bd 14 fa 35 3d 60 01 8b 3d
       0.04770926 -0.033857435 0.044427946 0.06787372
000140 47 72 92 3d df bc 2c 3d 25 ad 0a bd 63 da 2c 3d
       0.07150703 0.04217231 -0.03385653 0.042200457
000150 6a 11 65 3d 4d 5d 09 bd 33 06 2c 3d 5a 35 cd bc
       0.05592481 -0.033536244 0.0419981 -0.025049854
000160 ed 1e 8d 3c 84 85 1d bd 05 3b d7 bd 25 17 0b be
       0.01722666 -0.03845741 -0.10509304 -0.13583048
000170 5b 4d f5 3c f1 61 42 3d 36 e7 b5 3d b5 57 5f 3d
       0.029944113 0.047456685 0.088819906 0.054527003
000180 24 d4 2d bd 8d a8 1d 3d 93 8b 2c 3d 5f 3a 04 3c
       -0.04243864 0.03849082 0.042125296 0.008070557
000190 8b ee 84 bd 14 f4 74 3d bb 89 c4 3d 41 2b ab bd
       -0.06490811 0.059803084 0.095965825 -0.083578594
0001a0 5a 2f eb 3d 1c 4f 41 3d dd 58 34 3d 21 47 92 3d
       0.11483641 0.047194585 0.04403006 0.07142473
0001b0 f7 e9 90 bc fd 3d a1 3a 4b 05 9f 3d f1 0e c8 bd
       -0.017689688 0.0012301799 0.077646814 -0.09768475
0001c0 f6 87 18 bd a2 12 8b 3c 36 29 31 bd 33 46 95 3d
       -0.037239037 0.016976658 -0.043252192 0.0728878
0001d0 87 66 d0 3d 56 d8 f9 3c e7 0e 8e bd de 8c 4a 3d
       0.101758055 0.030498665 -0.06936436 0.049450748
0001e0 b3 06 c7 bb 0e 34 f3 3b 2e 82 81 3c e2 75 4d bd
       -0.0060737967 0.007421977 0.015809145 -0.05016125
0001f0 ea b1 bd bc cc bf 83 3d 09 11 a2 3c bb 42 bc bd
       -0.023156125 0.06433067 0.019783514 -0.09192415
000200 e9 46 be bd d1 5f 28 3d 56 8c 1b bd bc 12 bb bd
       -0.09290869 0.041107003 -0.03797563 -0.09134433
000210 9d ad db bd a2 8f f3 bd e2 7e c3 bd c9 d6 90 bc
       -0.107264735 -0.1189263 -0.09545685 -0.017680543
000220 d9 cc 55 bd 46 ed 46 3d a8 ad 5d 3d a3 6b 0b bd
       -0.05219731 0.048566125 0.05412069 -0.034038197
000230 cc ef 91 3d 3b 0d af 3d b6 fe 5d 3c 9b f0 28 3c
       0.07125816 0.085474454 0.013549497 0.010311271
000240 30 c9 48 3d 47 95 1e 3d c7 dc 48 bd 84 e5 8f bd
       0.049019992 0.03871658 -0.049038675 -0.070261985
000250 73 0c 67 3d b8 b7 1f bd 4b 1b 23 3d fd 02 8e 3d
       0.056408357 -0.038993567 0.03982095 0.06934164
000260 ee c7 51 bd a8 f1 36 3d a8 90 b1 bc 78 6a 32 3c
       -0.05121606 0.044664055 -0.021675423 0.010889642
000270 3e 75 68 bc 8b f6 42 bd 68 ac 86 bb 0e 60 43 bc
       -0.014188109 -0.047598403 -0.004109908 -0.011924757
000280 30 ba a8 bd b5 5a 66 bd 33 f4 cf bc 30 c5 a1 bd
       -0.082386374 -0.05623885 -0.025384998 -0.07898939
000290 c7 1e 85 3d 4a a6 a1 3d c5 c7 5e bd 65 25 5c 3d
       0.06500011 0.07893045 -0.054389734 0.0537466
0002a0 59 42 0f bc b3 0e da 3c d0 28 a0 3d 6b 89 ba bd
       -0.008743846 0.026618337 0.07820284 -0.09108242
0002b0 5a 28 6f 3d d0 9d e5 3d 99 7a 51 3c fc 34 d6 bd
       0.05838809 0.11211741 0.012785577 -0.10459325
0002c0 b8 98 9b 3d 8d 10 be 3b 23 47 3c bd 71 4b b7 3c
       0.07597488 0.005800313 -0.04596628 0.02237484
0002d0 28 5b 8f bd df ec e2 bd ff 8b 05 bd 70 af 95 bd
       -0.069998085 -0.11080336 -0.032604214 -0.07308853
0002e0 1b 80 b2 3c 68 fb 17 bd d4 b0 e7 3c 40 5a 96 3d
       0.021789601 -0.037104994 0.02828256 0.073414326
0002f0 a7 1b 80 3a a1 8b 5e 3d f6 c6 0e bd 52 70 9a bd
       0.0009773866 0.05433238 -0.034857713 -0.07540955
000300 75 e8 f8 bc d5 13 82 3d bf 5e f8 bc dc 62 b0 3d
       -0.030384282 0.06351439 -0.030318616 0.08612606
000310 64 ae 21 3c 6b 3a 17 3c 01 b3 34 bd ee 1d dc bd
       0.009868238 0.0092302365 -0.044116024 -0.10747896
000320 54 f9 57 3d 4d 2c 1f 3c c9 0e a5 3c a7 f4 9d 3d
       0.052728012 0.009715152 0.020148652 0.07712679
000330 f4 03 50 3d 8c 12 7d bc b0 2f 55 bd d6 20 82 3d
       0.05078502 -0.015446316 -0.05204743 0.06353919
000340 c7 91 57 3b 81 68 9a bd 28 47 87 bd d3 89 bb bd
       0.0032893287 -0.07539464 -0.06605369 -0.09157147
000350 33 aa f6 bd 3c 78 95 bd 01 d9 69 3d 6f 97 56 bd
       -0.12044182 -0.072983235 0.057091717 -0.052390512
000360 10 a6 06 3e 25 77 12 3e 1a e1 a4 bd 60 fd b0 3b
       0.13149285 0.14303263 -0.08050747 0.0054012984
000370 5f 1a 86 3d 2f 53 0d be be 46 04 3e 05 6d 82 3d
       0.06547999 -0.13801263 0.12917611 0.0636845
000380 77 84 69 bd a8 77 09 3e d5 da 73 be 11 e0 97 3c
       -0.057011094 0.13424551 -0.23813947 0.01853946
000390 c5 83 b7 3b 1b c4 02 3e 05 fe ce bd 75 41 a8 3d
       0.005600425 0.12770121 -0.10107044 0.0821561
0003a0 08 36 e9 bd 9b 26 4d bc 4e 69 28 3d 64 ac 29 3d
       -0.11387259 -0.012521411 0.04111605 0.04142417
0003b0 50 1d ec bc 15 61 21 3d 2a f0 2f bc 8b a6 b3 3c
       -0.028822571 0.039399225 -0.010738412 0.02193
0003c0 98 94 0f be 85 b8 25 3d a8 60 44 bc 39 12 90 bd
       -0.14021528 0.040459175 -0.011985935 -0.07034726
0003d0 79 ab 67 bc 2e 5a 44 3c 68 6b 5c 3c 01 c1 b2 bc
       -0.014140003 0.011984391 0.013453342 -0.021820547
0003e0 a5 c1 9f bd 8a 0e 15 3b fa 62 0a 3e e4 46 a9 3c
       -0.07800607 0.0022744262 0.13514319 0.020663686
0003f0 cd 92 2a bd 28 a6 70 bd 8d 2e 1f bd 72 16 38 3e
       -0.041643906 -0.05875221 -0.038862754 0.17977312

conv2.bias f4 [64]
000000 e5 76 24 3d a4 b7 56 3d d9 80 8f 3c f8 0e b3 bc
       0.04015245 0.052421227 0.017517494 -0.021857724
000010 3c 3c 94 bd bb 4f 82 3c 3d 80 9e bd df bc f0 3c
       -0.07238051 0.01590716 -0.07739303 0.029386936
000020 ef 0c ba 3d 37 2e ce 3d 16 f7 76 bd 4e 56 18 3d
       0.09084498 0.100674085 -0.060294233 0.03719168
000030 98 d4 70 b9 d3 52 5b bd e1 5d 44 bd e9 ef a3 3d
       -0.00022967381 -0.053545784 -0.047941092 0.080047436
000040 28 fe 29 bc e9 e0 21 3d 81 ce 9f bd 05 fc 80 3d
       -0.010375537 0.03952113 -0.07803059 0.06298069
000050 c2 93 98 bd 23 40 7f bc 92 9f 9d bd c3 fd a3 bc
       -0.074500576 -0.015579256 -0.07696451 -0.020018464
000060 da 7c 7d bd 2b 06 bb 3d 2f 42 38 bc 80 48 d4 bc
       -0.061886646 0.09132036 -0.011246248 -0.025913477
000070 5c e8 cb 3c bd d1 04 bd e5 55 83 bd 24 14 10 bd
       0.024891071 -0.032426585 -0.064128675 -0.035175458
000080 7a e1 92 3d bd c7 85 3c ba fe 9c bd da 8b 0b bd
       0.071719125 0.016330594 -0.07665773 -0.03406892
000090 cd fe 6d 3c 33 3f 7a bc 81 9b 0e 3d 2f dc b3 3d
       0.014526081 -0.015273857 0.03481627 0.08782231
0000a0 2b 89 22 3d e0 5a 1e 3d 06 09 46 3d 87 7e a6 3d
       0.039681595 0.038660884 0.04834845 0.08129602
0000b0 9b 5d 5b bd c9 ec bd bd a5 5b 94 3d a5 33 af bd
       -0.053556066 -0.09273679 0.07244042 -0.08554772
0000c0 c7 3f 9c 3d 28 2d 5e bc 14 e9 c4 3c d5 51 26 bd
       0.07629352 -0.013560571 0.024036922 -0.040605385
0000d0 dc 24 8c bd 03 cc f3 bc 6c 3b 19 3d 00 ea 21 3d
       -0.06842968 -0.029760366 0.037410185 0.0395298
0000e0 b6 b5 96 bd 00 be 55 bd 1f 5f bb 3d 35 07 8e bd
       -0.07358877 -0.05218315 0.09149002 -0.069349684
0000f0 e0 cd 0f 3c 70 0c ed bc cb 41 a1 3b 7a c1 c5 bd
       0.008777112 -0.028936595 0.004921173 -0.09656043

bn2.weight f4 [64]
000000 e2 10 6f 3f 61 b3 6a 3f 5c 1d 84 3f 94 f9 70 3f
       0.93385136 0.9167996 1.032146 0.94130826
000010 b1 d2 68 3f a9 06 73 3f b1 d1 67 3f 86 40 68 3f
       0.9094649 0.9493204 0.9055434 0.90723455
000020 8f 38 83 3f 07 9f 6a 3f c9 79 66 3f 48 51 7a 3f
       1.0251635 0.91648906 0.9002958 0.97780275
000030 b5 c4 56 3f f1 09 79 3f 86 4d 56 3f 9f 22 54 3f
       0.838939 0.97280794 0.8371204 0.8286533
000040 83 8c 85 3f a3 ba a1 3f a2 d9 66 3f b9 12 7c 3f
       1.0433506 1.2635082 0.9017583 0.9846607
000050 ff e8 61 3f 9c ba 87 3f cf 3d 5f 3f 35 41 6d 3f
       0.8824615 1.0603824 0.8720369 0.92677623
000060 4a 48 8f 3f 97 c8 60 3f 64 ed cf 3f 97 64 7d 3f
       1.1193936 0.87806076 1.6244321 0.9898161
000070 bb 80 8b 3f d4 ba 80 3f b7 1e 74 3f bb 45 50 3f
       1.089866 1.0057015 0.9535937 0.813564
000080 a8 23 6a 3f 0c 25 8d 3f 56 7d 71 3f 5d 8a 61 3f
       0.9146066 1.1026931 0.9433187 0.8810175
000090 35 12 67 3f 52 64 60 3f 13 4d 69 3f a9 f3 86 3f
       0.90262157 0.87653077 0.9113323 1.0543109
0000a0 3c 72 5d 3f aa 7a 9b 3f f9 a8 59 3f 6c 7a 60 3f
       0.8650243 1.2146809 0.85023457 0.876868
0000b0 56 4b 91 3f 35 34 88 3f cc ba 5f 3f 7b 5a 5b 3f
       1.1351116 1.0640932 0.87394404 0.8568494
0000c0 3f 3d 58 3f 85 62 76 3f 4d 5a 69 3f e2 ca 7e 3f
       0.84468454 0.9624408 0.91153413 0.99528325
0000d0 f2 9d 86 3f 21 88 62 3f e8 76 67 3f 68 6c 5b 3f
       1.0516951 0.88488966 0.9041581 0.8571229
0000e0 7b d7 70 3f 1d 7a 7a 3f 31 c6 6c 3f 61 64 61 3f
       0.940788 0.9784258 0.92489916 0.8804379
0000f0 75 b4 86 3f 91 94 57 3f c3 f6 75 3f 9a b2 81 3f
       1.0523821 0.8421107 0.96079654 1.013263

bn2.bias f4 [64]
000000 97 47 65 bd b7 1b 13 bd 9d d3 52 bd d6 14 7e bc
       -0.055976477 -0.035915103 -0.05147134 -0.015507897
000010 d7 ed 18 be ca b7 f4 bd 3d 48 df bd 80 99 b6 bd
       -0.14934479 -0.119491175 -0.1090245 -0.089159966
000020 bf 4c c0 bd 1e 30 b8 bc 05 1d 06 be a9 a8 b9 bd
       -0.09389638 -0.022483882 -0.13097008 -0.090653725
000030 ed d7 d7 bd 14 00 ac bd df 62 b9 bd 7d ee 69 bd
       -0.105392314 -0.083984524 -0.09052061 -0.057112206
000040 43 7c 8d b8 ef c9 8e bd ca 2f b4 bd 40 aa c8 bd
       -6.7465495e-05 -0.069721095 -0.087981775 -0.097980976
000050 04 d7 c2 bd d8 f7 a5 bd 9f 6c c9 bd 26 aa a9 bd
       -0.09513667 -0.08103913 -0.09835171 -0.08284406
000060 12 7f 6c bd 94 d9 e0 bd 0e f0 06 be 00 a9 e0 bc
       -0.05773837 -0.10979 -0.13177511 -0.027424335
000070 a1 ef f6 bd 96 27 e7 bc 71 34 c5 bd 65 23 2b be
       -0.12057424 -0.028217118 -0.09629143 -0.1671272
000080 43 73 9f bd 36 fe 8f bd aa 7b a7 bd 15 98 c6 bd
       -0.07785656 -0.07030909 -0.08177884 -0.09696976
000090 d3 d8 a3 bd b9 b1 00 be 29 cf b5 bc eb 95 cd bc
       -0.0800034 -0.12567796 -0.022193508 -0.0250959
0000a0 37 1d 11 bd 52 8f 2c bd d6 b9 0a be 48 1a c6 bd
       -0.035428252 -0.04212887 -0.13547453 -0.096729815
0000b0 05 a0 eb bd 94 7d b6 bd b3 92 ed bd 63 4d 13 be
       -0.11505131 -0.08910671 -0.11600246 -0.1438499
0000c0 7c 09 c7 bd 15 ba 6a bd 04 0e 3b bd c4 a9 cd bd
       -0.09718606 -0.057306368 -0.045667663 -0.10042146
0000d0 3a 5a f6 bc da d4 ab bd 14 07 df bd d5 48 da bd
       -0.03007232 -0.083902076 -0.10890022 -0.10658423
0000e0 2f d5 b0 bd e0 75 b6 bd 2b d0 f8 bd da 46 9b bd
       -0.086344115 -0.089092016 -0.1214908 -0.07581873
0000f0 fb fa 85 bd 7c 7c 0f be b0 83 b4 bd 85 ec a0 bd
       -0.06542011 -0.14012331 -0.0881418 -0.078576125

bn2.running_mean f4 [64]
000000 77 a9 4f bd f9 04 90 bd 8a c4 b2 be 99 b4 3c be
       -0.050698724 -0.070321985 -0.34915572 -0.18428268
000010 7d ae 12 3e 44 85 b9 3f b5 71 29 3f 5d b3 74 3d
       0.14324374 1.4493794 0.6618913 0.059741367
000020 ae e2 c2 bd 15 1d b9 be 2d 9d cd be da 81 e7 3e
       -0.09515892 -0.36155 -0.40158978 0.45216256
000030 b2 eb 46 be 3b a3 2e be a3 6d 08 3d 9a 7d 02 bf
       -0.19425848 -0.17054455 0.033307683 -0.509729
000040 54 17 d3 be ac 5e 26 3e b6 18 e6 bd 60 b8 03 be
       -0.41228735 0.16247052 -0.11235182 -0.12863302
000050 c3 66 38 3e 68 2c 6f be 0d ee 8e bf c4 d0 02 3e
       0.1800795 -0.23356783 -1.1166397 0.1277495
000060 31 a7 b2 bd 18 1e 15 be ab 05 9b bd 92 8d 8f be
       -0.087232955 -0.14562261 -0.075694405 -0.28037697
000070 14 3a a9 be 2f 02 1f be 05 8f 3c bf 7c a1 3b 3d
       -0.33052123 -0.15528177 -0.7365573 0.0458083
000080 06 04 78 3e 0d 07 24 bd 5a f7 8c bf 3d 63 92 be
       0.24220285 -0.040045787 -1.1012986 -0.28591338
000090 5b 07 d6 3e 8e 7d e3 be 82 89 1d be 3d 87 8d 3f
       0.41802487 -0.44431728 -0.15384486 1.1056896
0000a0 47 fd ec be 2f 28 03 be a9 30 12 bf 80 83 36 be
       -0.46286985 -0.12808298 -0.571055 -0.17823601
0000b0 bf 0f 0b 3d b8 82 02 3e 35 ac 9d be 38 12 a9 bf
       0.033950564 0.12745178 -0.30795446 -1.3208685
0000c0 59 f7 5f be 61 10 06 bd b0 a8 32 3e a5 ea 80 be
       -0.218717 -0.032730464 0.17447162 -0.2517902
0000d0 4a 8e 55 bf 71 81 66 be 12 2c 7e bf a8 ce 75 be
       -0.8342024 -0.22510315 -0.99285996 -0.24004614
0000e0 d2 16 aa 3e e0 34 a5 bd 21 4f b8 3e 5f 8f 3c be
       0.33220536 -0.08066726 0.3599787 -0.18414067
0000f0 1b 57 cb be 67 c9 9c be c5 a3 65 be de 6e 1a be
       -0.39714894 -0.30622408 -0.22425754 -0.15081355

bn2.running_var f4 [64]
000000 ba bb ad 3f fa 46 0c 3f d4 e2 48 3d 5c 1b c8 3e
       1.3572915 0.547958 0.049044445 0.39083374
000010 54 64 d7 3e e0 72 dd 3f 2e 61 cb 3f a0 c8 39 3f
       0.42068732 1.7300682 1.5889032 0.72571754
000020 0f 09 6c 3d 8d ad 92 3e 61 be 50 3e 4d 57 cb 3e
       0.057625826 0.28648034 0.20385124 0.39715043
000030 04 c3 06 3f a6 58 91 3d 23 aa 57 3f 00 23 68 3f
       0.5264132 0.070969865 0.84243983 0.90678406
000040 c6 35 17 3e b4 ea 0a 3e 88 e7 f3 3f cb cc a9 3e
       0.14766607 0.13566095 1.9055033 0.33164057
000050 95 1d 90 3f ee 15 bd 3e 81 ea 95 3f da 97 29 3f
       1.1259028 0.36930794 1.171219 0.6624733
000060 60 c8 34 3e b3 83 f1 3f f1 37 7c 3c e9 2e e7 3d
       0.17654562 1.8868316 0.015394197 0.11288244
000070 88 c6 80 3e fc d7 47 3e f1 85 62 3e 13 68 b1 3f
       0.25151467 0.19515985 0.22121407 1.3859886
000080 00 52 93 3f 0d 54 ad 3d 26 73 4a 3e d5 ae 08 40
       1.15094 0.08463297 0.19770488 2.135671
000090 30 e2 91 3f e3 24 34 3f bc 51 3d 3f 82 16 44 3e
       1.1397152 0.70368785 0.7395284 0.19149211
0000a0 89 33 c1 3e c8 3d 46 3d 62 0f 57 3f 81 96 cf 3f
       0.3773463 0.048398763 0.8400785 1.6217805
0000b0 fd 36 7e 3e ca dd 20 3f 3e 59 d0 3f 6a 3f 0e 3f
       0.24825664 0.62838423 1.6277235 0.5556551
0000c0 28 4e 8e 3f 51 ee 5a 3f 4a 21 66 3f dd a8 94 3e
       1.1117601 0.8551989 0.89894545 0.29035082
0000d0 22 3a 4b 3e df a6 2c 3f 42 c9 38 3e 97 8b e5 3f
       0.19846395 0.67442125 0.18045524 1.7933224
0000e0 80 7b 99 3e e2 c8 76 3e b8 fa de 3f a7 35 8b 3f
       0.29977036 0.24100068 1.7420263 1.0875748
0000f0 88 c4 48 3e a0 03 ab 3f cc 5b 79 3e 82 ff e3 3e
       0.1960622 1.3360481 0.24351424 0.44530874

conv3.weight f4 [32, 64, 3]
000000 24 0c 67 3d 3d 9d e3 3c ec 7a ab bd 68 58 37 3d
       0.056408063 0.027784938 -0.08373055 0.044762045
000010 ca c2 83 bc df 57 d9 3d a6 cf 34 3c 7d a4 73 3c
       -0.016084094 0.10612463 0.011035835 0.01487076
000020 dd 52 48 3d a2 fe 33 3c 26 1f 97 bd c9 b8 76 3c
       0.04890715 0.010986002 -0.07378988 0.015058705
000030 87 d0 86 3c 06 ed 60 3d 4f 9c a1 bc d5 05 28 bd
       0.016456855 0.054913543 -0.019727854 -0.041021187
000040 d4 7b a8 bd 12 00 3c bb 4e 43 ba 3a 53 95 0e 3d
       -0.08226743 -0.0028686565 0.0014210732 0.034810375
000050 8a 32 a0 3d 3c 3b c5 3c aa d7 26 bc e7 a7 12 3d
       0.078221396 0.024076097 -0.010183254 0.035804655
000060 ba c0 09 3d e4 cf 52 bd 4f b2 77 3c 7a 23 36 bc
       0.033631064 -0.05146779 0.015118196 -0.011116857
000070 d1 b5 8b bd a3 3a 29 3c 40 76 cb 3d d5 b4 59 bc
       -0.06821788 0.0103289215 0.09934664 -0.013287743
000080 7c 4f ba bb 89 d0 9e bc c5 09 17 3d c9 a5 28 bd
       -0.005685745 -0.019386547 0.03687455 -0.04117373
000090 ac b2 d4 bc 0e 39 f5 3c fe 11 80 3c 36 9c a6 bd
       -0.025964104 0.029934432 0.01563358 -0.081352636
0000a0 e7 18 2f 3c 6d 63 90 bc 88 bd 43 bb 09 ce 98 bb
       0.0106870895 -0.017625535 -0.0029867608 -0.004663233
0000b0 fc 8c 99 3d ae 71 4c bd aa 56 21 bd a7 9f 0d bd
       0.07497594 -0.0499131 -0.03938929 -0.034576084
0000c0 f1 31 0a 3c dd 44 27 bd 88 c9 26 3d e8 6d e1 bb
       0.0084347585 -0.040837158 0.04071954 -0.006879557
0000d0 1e 14 29 3d 1b a5 03 3d be e0 a6 bc 1f 04 46 3d
       0.04127895 0.03213988 -0.020370837 0.048343774
0000e0 72 69 2b 3d 09 f8 84 bd 26 6e ab bd 22 07 72 3d
       0.041848607 -0.064926215 -0.083706185 0.059088834
0000f0 55 d2 1f bd e5 06 2e 3c 48 04 9c bb c9 79 d4 3c
       -0.039018948 0.010621761 -0.0047612526 0.025936978
000100 db 55 d0 bc 0f f8 09 bb df 92 f6 3c f4 e9 93 3d
       -0.025431564 -0.0021052395 0.03009933 0.072223574
000110 a7 49 98 3d 31 d9 04 3d e0 57 94 bd e6 5c 3b 3d
       0.07435923 0.032433692 -0.07243323 0.04574289
000120 f2 63 29 bd dc 1a a6 bd ee df 66 3d 5e 43 89 3b
       -0.04135508 -0.08110592 0.0563659 0.004188939
000130 45 d2 49 bd 08 74 ce 3d 17 81 05 3c 38 a7 11 bd
       -0.049272794 0.10080725 0.008148453 -0.035559863
000140 7e 21 0c bd 6d 2e ab 3d 16 e8 3f bd 15 f1 ca bc
       -0.03421163 0.083584644 -0.046852194 -0.02477316
000150 a8 0a ef bc 85 28 17 bd 87 9f 5c 3d 5b eb ab 3c
       -0.029179886 -0.036903877 0.053863075 0.02098625
000160 6f 02 94 bd f7 93 8f bc bd fd eb 3c 56 cb 88 bc
       -0.07227027 -0.01752661 0.028807515 -0.01669852
000170 68 ed ce bd 5f ce 31 bc 85 10 21 bd a2 d4 a3 3d
       -0.101038754 -0.010852425 -0.039322395 0.07999541
000180 cf 17 fc bc 30 24 98 bd 02 01 57 bd 13 3f 7f bd
       -0.030773072 -0.07428777 -0.052491195 -0.06231601
000190 eb 01 08 bd 67 6c ad bc 7e 14 94 3b fb 09 60 3d
       -0.033204954 -0.021169854 0.0045190444 0.054697018
0001a0 f5 6a 25 3d 49 a1 99 bd a0 f6 59 3c 75 70 cf bc
       0.040385205 -0.07501466 0.013303429 -0.025322178
0001b0 49 ef 4b 3d 90 67 19 bc 3d f8 3a 3c fd c0 81 bd
       0.049788747 -0.00936307 0.011411724 -0.06335638
0001c0 89 95 32 3d 08 3d 5a 3d 51 3f 3c 3c 3a 57 53 3d
       0.04359964 0.05328086 0.011489705 0.051596858
0001d0 d1 e6 01 3d 82 72 85 bb 08 8a e6 bd de 47 39 bd
       0.031714264 -0.0040724883 -0.11256796 -0.045234554
0001e0 8f 74 6e 3d 48 32 00 3d 4f 62 9c 3d 1c bb 81 bd
       0.058216628 0.031297952 0.076359384 -0.063345164
0001f0 63 33 1e 3d b5 02 8e bd b4 1f 1f bd 52 dc 80 3b
       0.038623225 -0.0693411 -0.038848594 0.003932514
000200 93 8e 22 bd e2 a4 a7 bc 7f bd f3 3c b0 99 81 3c
       -0.03968675 -0.020464364 0.029753445 0.015820354
000210 39 6f 1b bd ea c0 74 bb 90 ea b3 bc db 5b 8e 3c
       -0.037947867 -0.003734643 -0.021962434 0.017377784
000220 0f 54 9a b9 a3 71 9a 3a ca 0f 1c bd 71 cc 3a bd
       -0.00029435797 0.0011783134 -0.038100995 -0.045605127
000230 e5 58 28 3c 61 fc 4b 3d f6 00 c6 3d cf 6a 9e 3c
       0.0102751 0.049801234 0.09668152 0.01933804
000240 37 40 3c 3d 11 fa 91 bd d5 cf 48 3d 2b 16 fa bc
       0.045959678 -0.071277745 0.04902633 -0.030528149
000250 2a bc c4 bd ec f0 b0 bd b0 0c 25 3d 97 e5 17 bc
       -0.09606202 -0.08639702 0.040295303 -0.009271047
000260 7f c5 50 bd 65 09 18 bd bd 8b a9 bc 47 5a da 3d
       -0.050969597 -0.037118334 -0.020696515 0.1066175
000270 d0 09 a0 bc bd 99 a1 bc 45 1a 98 bd d0 49 5e 3d
       -0.019535929 -0.019726628 -0.074268855 0.05426961
000280 77 29 fc bc 26 8d 84 3d 0a 63 94 bc af 60 af bc
       -0.03078149 0.064722344 -0.018113632 -0.021408407
000290 aa 87 ae bc 28 53 32 3d 1f 13 69 bd c8 39 4d 3d
       -0.021304924 0.043536335 -0.056903 0.050103933
0002a0 0f 2f 76 bd cd b5 fc 3c b3 60 21 3d e1 c5 14 bd
       -0.060103472 0.030848408 0.03939886 -0.036321525
0002b0 3e bd b1 bd 44 0c 94 3c f8 8e 7e bd d4 aa 70 bd
       -0.08678673 0.018072255 -0.062148064 -0.058756664
0002c0 e8 31 3f 3c 1a fa 34 bd a3 bc 09 3c 57 be cd bc
       0.011669613 -0.044183828 0.008406791 -0.025115175
0002d0 12 32 d4 3c d5 27 ac bc f0 9c 2c bc 1e 90 85 bd
       0.025902782 -0.021015087 -0.010535464 -0.06521629
0002e0 90 ac 81 bc a0 6b b8 bc f1 37 c9 3c b5 18 f6 3c
       -0.015829355 -0.022512257 0.024562808 0.030041078
0002f0 b1 39 94 bd 4f cb 28 3d 9f 13 49 bc 1b de dd bb
       -0.07237566 0.041209515 -0.012272744 -0.006770862
000300 bf 9c 2d 3d 2e 96 b1 bd 2d c9 24 3c bf c8 93 3c
       0.042385813 -0.086712226 0.01005773 0.01804006
000310 37 91 c3 bb 97 0d 6d bc f8 3e f2 bc f7 ce a8 bc
       -0.0059682387 -0.014468572 -0.029571041 -0.020606501
000320 88 59 94 bc 73 ab 09 3d 93 af 14 3c 8f a7 1e 3d
       -0.018109098 0.033610772 0.009075063 0.038734015
000330 f8 e1 1b bd 9d 53 a6 3d 00 a7 a4 3c bd d0 8d 3c
       -0.038057297 0.08121417 0.020099163 0.017311448
000340 95 1f 81 3d 5e 52 8a bd 54 07 5e bd 39 bf f1 3c
       0.06304852 -0.067539915 -0.054206207 0.029510127
000350 09 c8 8c bd 6e ea d6 3c 4a 96 82 3d 1f 17 4f bd
       -0.06874091 0.026234832 0.063763216 -0.05055916
000360 fd 24 88 bd 8f 37 c2 bc 4d 0a 0b 3e 9c bb 63 3c
       -0.0664768 -0.023708133 0.13578148 0.01389971
000370 29 0e 8c bc fb e9 ea 3b 7f 23 ff 3a 5a a0 bd 3c
       -0.017096596 0.007169006 0.0019465535 0.02314775
000380 70 16 32 bd 97 ad 42 bd 5a 1c 06 3c 01 12 f8 bc
       -0.04347843 -0.04752883 0.0081854705 -0.030282022
000390 1d 03 1a bd c9 30 25 3d 8a aa 9d 3b 8d d0 29 bd
       -0.037600625 0.04032973 0.0048115896 -0.041458655
0003a0 3e d6 6e bd 92 df ea bc 97 f4 25 3d 5d 43 3e bd
       -0.058309786 -0.02867106 0.040516462 -0.04645096
0003b0 d3 1b 60 bd 8a 9e 95 3c 48 69 ce bc f4 b7 3c 3d
       -0.054714035 0.018264074 -0.025196686 0.04607387
0003c0 15 5c 64 bd 44 39 f4 3c 51 e4 07 3d d6 96 cb bd
       -0.05575188 0.029812463 0.033176724 -0.09940879
0003d0 2e b8 46 3d 6e 32 b6 3a b1 f7 91 bd d9 36 b7 bc
       0.04851549 0.0013900527 -0.071273215 -0.02236502
0003e0 05 5d b4 3c db 33 2b 3d bb d0 87 3c 8d 9c 3d bd
       0.022017011 0.0417975 0.016579023 -0.046291877
0003f0 d8 36 bb 3c 6a ea 32 3b 49 80 84 bd 9d f2 f3 bc
       0.0228533 0.0027300366 -0.06469781 -0.029778773

conv3.bias f4 [32]
000000 a7 a2 e8 bc 72 cd 47 3d d0 59 87 3d 57 1f 33 bc
       -0.028397871 0.048779912 0.06608927 -0.010932765
000010 ac c8 28 3d 67 1e d5 3c 25 5b 0d 3d e9 35 94 3c
       0.041207 0.026015474 0.03451075 0.018092113
000020 54 af 6f 3d 12 cb d4 bc e0 7c 8d 3b f7 5c 78 bd
       0.058516815 -0.025975738 0.004317865 -0.060635533
000030 33 f6 cc bc a6 64 d9 bc 53 b6 81 bc b4 6a fe 3c
       -0.02501974 -0.02653725 -0.01583401 0.03105674
000040 f9 91 71 bc 61 da 40 3d e8 bc 44 bd 58 03 be 3b
       -0.014744275 0.047083262 -0.048031718 0.0057987384
000050 62 21 7d 3d 4e 23 58 bd 41 87 7f 3c b5 9b f4 3c
       0.061799414 -0.052768044 0.015596212 0.029859403
000060 75 ed 11 bd 9e 78 92 bb 30 48 0e 3d ea 7f 15 3d
       -0.035626847 -0.004469945 0.034736812 0.03649894
000070 16 24 85 bd 5e b7 8b bd 8c 37 64 bd 56 26 50 3d
       -0.065010235 -0.06822084 -0.055717036 0.05081781

bn3.weight f4 [32]
000000 96 fe 8d 3f 60 f7 9f 3f 8c 03 db 3f c5 9e 8a 3f
       1.1093318 1.2497368 1.7110457 1.0829703
000010 a9 71 b0 3f 8c 92 9f 3f 74 a2 95 3f 6e 65 c1 3f
       1.3784686 1.2466598 1.1690202 1.5109079
000020 b1 6d 99 3f d1 b7 dd 3f a9 42 9e 3f 62 0d 9a 3f
       1.19866 1.7321721 1.2364093 1.2035334
000030 d6 de a9 3f 2c f5 92 3f 29 c5 98 3f 75 9c b9 3f
       1.3271129 1.148107 1.1935169 1.4500872
000040 87 b6 cd 3f ff 84 e3 3f c0 28 a5 3f 70 51 93 3f
       1.6071328 1.7774962 1.2903061 1.1509228
000050 14 8a 9f 3f 0c c8 99 3f 44 4a a8 3f 73 81 9b 3f
       1.2464013 1.2014174 1.3147664 1.214888
000060 ea 9f 90 3f 52 58 ac 3f dd f1 91 3f 8a 65 9f 3f
       1.1298802 1.3464453 1.1401936 1.2452862
000070 7a c4 84 3f ae 51 ab 3f 2e 1f a3 3f 0e d2 9e 3f
       1.037246 1.3384302 1.274389 1.2407854

bn3.bias f4 [32]
000000 9b 57 81 3c a7 06 c7 3d 45 4c 3c 3e a4 08 bf 3d
       0.015788844 0.09718066 0.1838847 0.0932782
000010 b5 3f f1 3d 4c 42 3e 3c 1d b2 1e 3e 70 20 51 3e
       0.11779729 0.011612486 0.15497632 0.2042253
000020 d9 3b 1b 3c 19 07 2c 3e 00 60 25 3e 58 34 19 3d
       0.009474718 0.16799583 0.16149902 0.037403435
000030 0d 85 0a 3e d7 82 eb 3d fb aa ba 3d d3 fd 2c 3e
       0.13527317 0.11499565 0.09114643 0.16893701
000040 eb 01 27 3e 47 46 18 3e ab 6a a6 3d 0b ee d6 3d
       0.16309325 0.14870559 0.08125814 0.10494622
000050 22 42 d4 3d e4 97 59 3e e2 b8 10 3e aa f1 8c 3d
       0.10364176 0.21249348 0.14133027 0.06882031
000060 a3 1f 8e 3d 4e fe f8 3d de bf 21 3d 8a 61 63 3d
       0.06939628 0.1215788 0.03948962 0.055512942
000070 7e 33 d9 3c 3f 34 a1 3d b3 e6 c4 3d 60 b3 70 3d
       0.026513811 0.07871293 0.09614315 0.058764815

bn3.running_mean f4 [32]
000000 45 db ec be e8 ab 2f 3e 4f 7d 3f 3e 68 40 37 be
       -0.4626104 0.17155421 0.18700145 -0.17895663
000010 9a 87 94 3e 0d fb f6 3d 23 79 04 3e 9a a1 99 3e
       0.29009706 0.12059603 0.12936835 0.30006105
000020 58 6c 46 3e e3 f2 17 3e e8 1f ed 3d a3 f2 fa bd
       0.19377267 0.14838748 0.11578351 -0.122533105
000030 88 f7 e2 bb 2e e9 97 3e 68 fe e3 3e e6 38 74 3e
       -0.0069264807 0.2967009 0.44530034 0.2384983
000040 5b 1c b3 bc 4c 18 78 3d d6 30 e1 bd a1 5c 37 be
       -0.021864107 0.060570046 -0.10995643 -0.17906429
000050 a5 18 23 3e fd 8c 3b 3f c9 7c e4 bd 28 e0 9a be
       0.1592737 0.73262006 -0.111566134 -0.30249143
000060 ac c3 45 bf 81 83 bf bd 73 20 1c 3f 26 81 a0 3e
       -0.77251697 -0.09351254 0.60987014 0.31348532
000070 8a df 79 3e 16 2c b7 bd e6 b0 a5 bc 4a f8 32 be
       0.2440168 -0.089439556 -0.020225953 -0.17477527

bn3.running_var f4 [32]
000000 2e 26 b5 3e c7 76 85 3d 85 92 f9 3c ce 7a ad 3e
       0.3538069 0.065167956 0.030465374 0.33882755
000010 fb ec ee 3c 35 58 31 3e 93 f6 75 3f ff 07 ea 3c
       0.029165735 0.17318805 0.9607937 0.028568266
000020 ad 26 63 3d 45 fc f5 3c 47 05 9a 3e 34 f9 6e 3e
       0.055456806 0.030027518 0.3008215 0.23337251
000030 05 fd 05 3d 5c f2 81 3f 12 d7 70 3f c3 c0 49 3e
       0.032712 1.0152087 0.9407817 0.19702439
000040 82 fa 02 3d ab bf 06 3d 37 42 23 3e 0d 80 97 3d
       0.031977184 0.032897633 0.15943228 0.073974706
000050 09 d0 c7 3d 09 43 6c 3f c1 fb 63 3e 78 a4 d6 3d
       0.097564764 0.9228979 0.22264005 0.10480589
000060 5e d4 5d 3e 8a 5f 3b 3d d2 3f de 3d 55 eb 55 3d
       0.21663043 0.04574541 0.108520165 0.052226383
000070 70 8b 78 3e 55 36 12 3d 18 86 67 3d e6 6d 11 3e
       0.24271941 0.035696346 0.056524366 0.14202079

fc1.weight f4 [4, 128]
000000 f6 c9 0c bd 5e d4 d8 bd 27 73 61 bd ef 31 fc 3c
       -0.034372292 -0.10587381 -0.05504146 0.030785529
000010 20 2d f9 bc 55 3a cf bc 9a a7 7f bd b3 dd 79 3e
       -0.030417025 -0.02529637 -0.062415697 0.24400978
000020 c2 7c dc bd 3f bd ae 3d 66 6a 8a 3d cd 03 4d 3d
       -0.10765983 0.085321896 0.06758575 0.050052453
000030 69 bc a5 3c d4 1b 01 be d0 39 1e be c4 1d f1 be
       0.020231443 -0.12608272 -0.15451741 -0.47093022
000040 cb 50 5c bd 53 65 4d be 8a 1d 21 3e 0b 52 51 be
       -0.053787988 -0.20058183 0.15733925 -0.20441453
000050 57 13 31 3d b6 34 63 3d d6 02 52 3d 91 02 80 3e
       0.043231335 0.05547019 0.051272236 0.25001958
000060 54 db 9c bd 53 37 fd bd 2c 74 ee bd 0a 60 c3 bd
       -0.07659021 -0.12364068 -0.11643252 -0.09539802
000070 fe fb aa bc ad ff d8 bd 06 52 35 3e f6 b5 06 bd
       -0.020872112 -0.10595641 0.1770707 -0.032888375
000080 ea 26 61 bb 5c fa c6 bd d5 29 a8 3d cb 49 47 3e
       -0.003435547 -0.09715721 0.08211104 0.19461744
000090 3b c6 4c bc 4e 34 20 3d e2 24 d5 3d fd 69 d8 bc
       -0.012498434 0.03911238 0.104074255 -0.026417727
0000a0 bc c1 e0 3b 5a 3d b6 bd 3e ff 66 bd a2 56 41 be
       0.0068590324 -0.08898421 -0.05639576 -0.18880704
0000b0 a7 c1 6b 3d 26 99 93 bc 67 f5 f5 3c 50 2c 7b 3e
       0.05755773 -0.018017363 0.030024244 0.24528623
0000c0 41 5e 31 bd b7 db e2 bd 9e 2e fb 3c 56 b1 44 3e
       -0.04330278 -0.110770635 0.030661877 0.19208273
0000d0 46 a1 1d be 01 72 08 be 1c 9d 44 bd 16 01 c5 bd
       -0.15393552 -0.13324739 -0.048001394 -0.09619348
0000e0 4f 1b 42 bc bc b9 23 bb c6 f3 bb bd 68 38 0f bd
       -0.011847331 -0.0024982532 -0.091773555 -0.034965903
0000f0 a8 bc f3 3b e1 8b 55 3d 71 cb 07 bd 0d 21 91 be
       0.007438261 0.052135352 -0.033153 -0.28345528
000100 71 32 ff b9 c2 fb a2 bd 27 de e4 3d 37 c9 57 be
       -0.00048674972 -0.07958175 0.11175185 -0.21072851
000110 e6 d0 2b 3d 1d 15 c4 3c 6b a3 ab 3c 5c dd 69 bd
       0.041947268 0.023935849 0.020951947 -0.05709587
000120 d5 1c 0e 3d b8 9b ac bd 5c 0f 5f bd 9d f4 87 3e
       0.034695465 -0.084281385 -0.054458007 0.26553813
000130 1c 12 3e 3d 24 69 a1 bd 1b 1a a7 bc cf 7d 1d be
       0.04640399 -0.07881382 -0.02039819 -0.15380023
000140 dd 8a ee bc cb 8c cc bd bc a7 67 bd 94 e4 14 bd
       -0.02911895 -0.09987792 -0.05655645 -0.0363508
000150 5d db c8 bd 29 b1 2f be 86 67 91 be 2a 61 4e 3d
       -0.09807465 -0.17157425 -0.28399295 0.05038563
000160 10 38 04 be 4b b1 d8 bd 64 9a 57 be 02 a2 b0 bd
       -0.12912011 -0.10580691 -0.21054989 -0.086246505
000170 55 a3 a5 bd 18 d4 6b bd 24 bf 3f be e6 67 d6 bd
       -0.08087794 -0.057575315 -0.18725258 -0.10469036
000180 bb 77 d1 bd 54 d0 79 3d d0 57 29 bb 3f 68 b3 bd
       -0.10227915 0.060989693 -0.0025839694 -0.08760118
000190 fe 9e 12 3c 67 f2 5a bd 7e 93 ac bd 76 40 f0 3d
       0.0089490395 -0.05345383 -0.084265694 0.11731045
0001a0 2a fa a3 bd c7 e6 66 3d da 2a c7 3d 49 dd 2d 3e
       -0.080066994 0.05637243 0.0972497 0.16978945
0001b0 32 d4 15 be db 01 e9 bb e1 7a 8c 3d 67 96 ea 3d
       -0.14631727 -0.007110817 0.06859375 0.11454468
0001c0 7a ff 63 3d bf 11 9a bd 8f c5 26 be e5 06 43 3d
       0.055663563 -0.07522916 -0.162863 0.047613997
0001d0 c2 8c 03 bc 05 8e f5 bb 25 81 83 3d 7d 05 ab 3d
       -0.008029165 -0.0074937367 0.06421117 0.08350656
0001e0 69 8f 32 3d 4c a1 09 3d b4 c3 92 bd b5 fa 87 be
       0.043593798 0.03360109 -0.07166234 -0.26558462
0001f0 71 dc 8a bd 0e 89 5e bb 34 c6 0d 3e 20 21 7c 3e
       -0.06780327 -0.0033956203 0.1384514 0.24622011
000200 16 81 f0 bb e9 1c ff 3c ba 53 32 be 10 ce af bd
       -0.007339607 0.031141715 -0.17414752 -0.08584225
000210 58 8f 1a bc 91 8b a7 3b a0 68 c5 3d a0 6b 4a be
       -0.00943359 0.005113073 0.09639096 -0.19767618
000220 bd 46 cf bc 6b 35 77 3d 23 98 92 3e 53 a9 6d be
       -0.025302285 0.060353678 0.28631696 -0.23209123
000230 c2 44 5b bc b8 86 ab bd 34 81 05 bd 9c 6b ad 3d
       -0.013383092 -0.08375305 -0.03259392 0.084677905
000240 1e d2 92 bc ab a2 ae bc bf ed 8f 3e a4 fa c5 bd
       -0.017922457 -0.0213178 0.28111073 -0.096669465
000250 6e dc ac 3b 78 03 be bb 20 8d 87 bc e8 1c b6 be
       0.0052753007 -0.0057987534 -0.016546786 -0.3556893
000260 32 e4 24 be aa ab d2 bc 2e ea 47 be f6 bc 75 bd
       -0.16102675 -0.025716621 -0.19522926 -0.05999466
000270 b6 38 44 3d 3a d7 0d be 35 73 8c 3e 68 d8 db bd
       0.047905646 -0.13851634 0.27431646 -0.107346356
000280 a4 f0 d0 3d 40 49 83 bd 93 1e 99 3d fa 66 c0 bd
       0.102021486 -0.06410456 0.07476535 -0.09394641
000290 6b 61 59 bd ab 10 c0 bc 9e db b0 3e 80 0c 77 be
       -0.05307142 -0.023445448 0.34542555 -0.24125862
0002a0 c2 19 ab 3c 9a 89 fa bd 31 c7 e7 3d 79 f8 eb 3d
       0.020886306 -0.12233277 0.113172896 0.11522002
0002b0 68 c0 97 3d d0 80 12 3c 7b f6 c4 bd e5 53 8f be
       0.074097455 0.008941844 -0.09617325 -0.27993694
0002c0 fc 11 87 3d d7 8a e7 bd b3 d0 34 3e 57 e3 3e be
       0.06595227 -0.113057785 0.17657737 -0.18641411
0002d0 02 ad c2 bd 3d ba f4 bd 69 e4 17 be ca 1f e1 bd
       -0.09505655 -0.11949585 -0.14833225 -0.109923914
0002e0 c8 ac aa bd 37 aa 64 bd 5e 2a a5 bd 76 92 65 3d
       -0.08333737 -0.055826392 -0.080647215 0.05604788
0002f0 0d 04 97 3d 53 17 d8 3c 3d 7f 36 3e 5e b3 52 be
       0.073738195 0.02637831 0.17821975 -0.20576236
000300 79 08 62 bd 3d 9c c7 bd ea dd c0 3e a2 2f f7 bd
       -0.05518386 -0.09746597 0.37669307 -0.12069632
000310 5c 61 0e 3b 77 22 51 bb 9c eb b8 3e b7 12 99 be
       0.0021725511 -0.0031911412 0.36117256 -0.2989709
000320 78 1b 3a 3d cd fa 99 bc 37 41 5f be 01 dd 10 be
       0.045436352 -0.018796349 -0.21802221 -0.14146806
000330 ee 86 14 3d 2f e1 3c 3d e5 2a 02 be 11 b3 95 3d
       0.03626149 0.04611319 -0.12711675 0.07309545
000340 60 4f 87 bd a0 e3 cb bc 43 74 0d be 80 9e e1 bd
       -0.066069365 -0.024888813 -0.13813882 -0.110165596
000350 28 66 1f 3c 8b 8a 70 be 93 9c 27 be fc 55 f5 bd
       0.009728946 -0.2349035 -0.16368322 -0.11979291
000360 09 9c 96 bd fa f1 99 3d 75 c6 55 be ad 64 08 3e
       -0.0735398 0.075168565 -0.20876487 0.13319655
000370 76 2f 91 3c 5e fd 6d 3d 4e 42 28 be 9f 28 52 3b
       0.017722826 0.058102958 -0.16431543 0.003206767
000380 73 1f d4 3c fd fe c2 bc 2c 28 e3 bd 6c 88 ac 3d
       0.025893902 -0.023803229 -0.110916466 0.08424458
000390 f8 9b 86 3c a7 4d 30 3e 08 19 89 be 9f 88 21 be
       0.016431794 0.17217122 -0.2677691 -0.15774773
0003a0 ac fb d7 3d e4 96 13 3d c0 48 1a 3e dc 2c b6 bd
       0.105460495 0.036032572 0.15066814 -0.08895275
0003b0 0b 02 9b bc c0 0f 9d 3c c5 ae 59 3e 8d 81 7a be
       -0.018921873 0.01917255 0.21258076 -0.24463482
0003c0 6b 53 4f 3a 4b 08 c5 bc d5 7c 37 bd dd a9 eb bd
       0.00079088536 -0.024051806 -0.044796783 -0.11507008
0003d0 69 0e de 3c 60 0c 48 3c 63 4e 54 3e df 00 12 be
       0.02710648 0.012209982 0.20733027 -0.14258145
0003e0 bc bf 9f 3c 9f 4b 5b 3d 59 8a 5f 3d 08 aa 7f 3c
       0.019500606 0.053538915 0.054575298 0.015604503
0003f0 b9 42 34 bd f8 7b 40 bd e3 8d bc 3c e7 d3 80 be
       -0.044008944 -0.046993226 0.023016876 -0.2516167

fc1.bias f4 [4]
000000 90 c9 e7 bd c8 2c e5 3a a9 35 1e bd 0a f9 0e bd
       -0.11317742 0.0017484659 -0.038625393 -0.03490547
