pths/classifier_train.pth (torch, 266200 bytes, 32 tensors)

conv1.weight f4 [32, 1, 3]
0	0xbe9d4835	-0.30719152
1	0xbea85e7e	-0.32884592
2	0x3e8cf998	0.27534175
3	0xbed5dc80	-0.4176979
4	0xbe9bfc18	-0.3046577
5	0x3e8cae72	0.2747684
6	0xbf0f77f0	-0.56042385
7	0x3e65c557	0.2243856
8	0xbc95375d	-0.018214876
9	0x3da31d9b	0.07964631
10	0x3ebac5a1	0.36478904
11	0x3eda2e64	0.42613518
12	0x3ecbf23b	0.39833245
13	0xbf151fc8	-0.5825162
14	0x3ec71c33	0.38888702
15	0xbecb00b6	-0.3964898
16	0xbe11260f	-0.14174674
17	0x3edd1146	0.4317724
18	0xbec3f947	-0.3827612
19	0x3dde3f77	0.10851949
20	0xbecd121d	-0.40052882
21	0xbefdbe8b	-0.49559435
22	0x3e9356bc	0.2877711
23	0x3efc5ee1	0.49291137
24	0x3ea0133f	0.31264684
25	0xbeed7fed	-0.46386662
26	0xbed1619f	-0.4089479
27	0xbeaf9b8b	-0.34298357
28	0x3d649fc3	0.055816423
29	0xbe145166	-0.14484176
30	0x3d55cea5	0.052199025
31	0xbe959ea8	-0.29222608
32	0x3e8a28c6	0.26984233
33	0xbe11afdc	-0.14227241
34	0xbe0b6bbd	-0.13615318
35	0xbe08b55a	-0.1335043
36	0xbd190535	-0.03735848
37	0xbdd02c3f	-0.10164689
38	0xbf0e7a02	-0.5565492
39	0x3e93b7fa	0.288513
40	0xbde2eca3	-0.11080291
41	0xbecab320	-0.39589787
42	0x3e9239df	0.28559777
43	0xbdfa6d14	-0.12227836
44	0xbf03a8fe	-0.51429737
45	0x3ee62216	0.4494788
46	0xbd111c49	-0.035427365
47	0x3e60dd27	0.21959363
48	0x3d846643	0.064648174
49	0xbec8ace0	-0.39194393
50	0xbece741c	-0.4032296
51	0xbec8c229	-0.39210632
52	0xbe805df6	-0.25071687
53	0x3ea83917	0.32856056
54	0xbee2f090	-0.4432416
55	0xbee9d36f	-0.45669124
56	0xbea9f412	-0.33194023
57	0x3d9d5075	0.076813616
58	0xbe86fff9	-0.26367167
59	0xbe2b7a91	-0.16745974
60	0xbf05249d	-0.5200899
61	0x3f0c210a	0.54737914
62	0xbe5531d9	-0.20819797
63	0x3e88c6fd	0.26714316
64	0x3e8d2a37	0.2757127
65	0xbed9ce0f	-0.42540023
66	0x3e8d9b5b	0.2765759
67	0x3ea91247	0.33021757
68	0x3d52b7b5	0.051444728
69	0xbe3fd239	-0.18732537
70	0x3edc724b	0.4305595
71	0xbe2bc131	-0.16772915
72	0x3f02ba66	0.5106567
73	0x3e6d9d4e	0.23204538
74	0xbe598192	-0.21240833
75	0x3ee219d5	0.44160333
76	0x3d932150	0.07184088
77	0x3f0d40a7	0.55176777
78	0xbd6431cd	-0.055711556
79	0xbee07019	-0.43835524
80	0xbebb44a6	-0.36575812
81	0x3bd4089c	0.006470753
82	0xbf028821	-0.50988966
83	0xbe810229	-0.2519696
84	0x3e031f29	0.12804855
85	0x3e2cc35e	0.16871402
86	0xbd3b712a	-0.04576222
87	0xbe7b483c	-0.24539274
88	0xbe699fe6	-0.22814903
89	0x3e1a2715	0.15053971
90	0xbe913302	-0.28359228
91	0xbe86dadf	-0.2633886
92	0xbe01c2cb	-0.12671964
93	0x3dae6d6c	0.08516964
94	0x3e921942	0.28534895
95	0x3e8ffd27	0.28122827

conv1.bias f4 [32]
0	0x3d143733	0.036185455
1	0xbb675e19	-0.003530389
2	0x3d89225b	0.06696006
3	0x3d37e7bd	0.044898737
4	0xbf11a857	-0.5689749
5	0x3f111e27	0.56686634
6	0xbed8347b	-0.4222754
7	0x3e1142cf	0.14185642
8	0x3e461358	0.19343317
9	0xbedf46d4	-0.43608725
10	0xbe5ae761	-0.21377327
11	0x3e69c678	0.22829616
12	0xbea500ea	-0.3222726
13	0xbcf57d2a	-0.02996691
14	0x3e7b01d2	0.24512413
15	0xbeded056	-0.43518323
16	0x3ede28fa	0.43390638
17	0xbef9a296	-0.48756856
18	0x3ebce371	0.36892274
19	0xbe955205	-0.29164138
20	0xbe973d40	-0.29538918
21	0x3ed12a66	0.4085266
22	0x3ee6f9a9	0.4511235
23	0xbe4cbba2	-0.19993451
24	0x3f023e4c	0.5087631
25	0xbebb48b9	-0.3657892
26	0xbf069c8f	-0.5258264
27	0x3f0006a5	0.5001014
28	0x3f086959	0.5328575
29	0xbf0b2524	-0.5435355
30	0x3f1035f1	0.5633231
31	0xbf036bb9	-0.51336247

bn1.weight f4 [32]
0	0x3f7e7f32	0.99412835
1	0x3f806c6f	1.0033091
2	0x3f7f44ff	0.99714655
3	0x3f806e7a	1.0033715
4	0x3f7ff544	0.9998362
5	0x3f7f86b0	0.9981489
6	0x3f80de71	1.0067884
7	0x3f806204	1.0029912
8	0x3f7ebba9	0.99505097
9	0x3f811508	1.0084543
10	0x3f80cac7	1.0061883
11	0x3f801153	1.0005287
12	0x3f80c69e	1.0060613
13	0x3f80990f	1.004671
14	0x3f7f0806	0.9962162
15	0x3f7f23bb	0.99663895
16	0x3f804796	1.0021846
17	0x3f7e1bbd	0.99261075
18	0x3f7e95b3	0.9944717
19	0x3f8038d3	1.0017341
20	0x3f7fb10c	0.9987953
21	0x3f7f581f	0.9974384
22	0x3f80389f	1.0017279
23	0x3f7e5760	0.99352074
24	0x3f807095	1.0034357
25	0x3f7f3cc5	0.997021
26	0x3f80d286	1.0064247
27	0x3f7ebf76	0.99510896
28	0x3f7ed3b2	0.9954177
29	0x3f800e10	1.0004292
30	0x3f804942	1.0022357
31	0x3f806f19	1.0033904

bn1.bias f4 [32]
0	0x3c1cf7de	0.0095805805
1	0xbb9b3792	-0.004736849
2	0x3a0f2f1b	0.00054620364
3	0x3c9aaee1	0.018882217
4	0xbc110f64	-0.008853767
5	0xbb93266b	-0.0044906638
6	0x3b066c2e	0.0020511257
7	0x3b2a0376	0.0025942004
8	0xbbccf4c0	-0.0062547624
9	0x3c25bf94	0.010116477
10	0xbab65721	-0.0013911464
11	0xba78db85	-0.000949316
12	0xbba6c8f0	-0.0050898716
13	0xbbb3d285	-0.0054877424
14	0x3bee5817	0.0072736847
15	0x37961146	1.7889437e-05
16	0x38817e2d	6.1747014e-05
17	0xbb12abd8	-0.002238026
18	0xbc04d4c9	-0.008107373
19	0xbbda15c7	-0.006655428
20	0x3924a8f3	0.00015703197
21	0x3b5eaeb2	0.0033978638
22	0xbbeef1c2	-0.0072920034
23	0x39253f14	0.00015759125
24	0x3ba4e634	0.005032325
25	0x3c1e3c1d	0.009657887
26	0x3bf37cfb	0.0074306703
27	0x3bc114a9	0.0058923555
28	0x3be9e3f7	0.007137771
29	0xbbd2f201	-0.0064375405
30	0xbc46f95a	-0.012144411
31	0x3be81cfd	0.007083534

bn1.running_mean f4 [32]
0	0xbdf35b2e	-0.118826255
1	0xbe480efa	-0.19536963
2	0xbda96e05	-0.08272938
3	0x3ed4a926	0.415353
4	0xbef83e17	-0.4848487
5	0x3f0530a5	0.5202735
6	0xbf35363c	-0.7078588
7	0x3e86b647	0.26310942
8	0xbd3a658b	-0.045506995
9	0xbf1e8336	-0.6191896
10	0xbe4f8f93	-0.20269613
11	0x3d591c9e	0.053005807
12	0xbf1dfd20	-0.61714363
13	0xbdfa8100	-0.12231636
14	0x3dc5b039	0.096527524
15	0xbe2a75ab	-0.1664645
16	0x3dfb885d	0.122818686
17	0xbf1f6741	-0.6226693
18	0xbe1f534c	-0.15559119
19	0xbee2bbdb	-0.44283947
20	0xbebd614f	-0.36988303
21	0x3eeba801	0.46026614
22	0x3f3b611e	0.73195064
23	0xbe29f19b	-0.16596071
24	0x3f3c4101	0.7353669
25	0x3db04795	0.08607403
26	0xbf6460a6	-0.89209974
27	0x3e35fd8f	0.17772506
28	0x3f23e5f9	0.64022785
29	0xbf2e92cb	-0.6819274
30	0x3e8d791a	0.27631456
31	0xbe719127	-0.23590527

bn1.running_var f4 [32]
0	0x3d2ede25	0.042692322
1	0x3d5b7e17	0.053587046
2	0x3d5e3f61	0.05425966
3	0x3d7b3173	0.061326455
4	0x3dba79e8	0.09105283
5	0x3d595017	0.053054895
6	0x3d5a77ef	0.053337034
7	0x3dadd72a	0.08488305
8	0x3d9b83b7	0.07593482
9	0x3cc13b72	0.023587916
10	0x3cb878bd	0.02251851
11	0x3c3bb8e0	0.011457652
12	0x3d637a77	0.055536713
13	0x3d1a862f	0.037725624
14	0x3d613f67	0.054992106
15	0x3d312eff	0.04325771
16	0x3d6994e7	0.05702677
17	0x3d489b70	0.04897636
18	0x3dd4d86a	0.1039284
19	0x3c8f08db	0.017460277
20	0x3db109e6	0.08644466
21	0x3d4286a4	0.047491685
22	0x3d122c31	0.035686675
23	0x3d0ef6b5	0.034903247
24	0x3d6c7773	0.057731103
25	0x3dbf213c	0.09332511
26	0x3d7ec506	0.062199615
27	0x3d6d967b	0.058004837
28	0x3c034359	0.008011662
29	0x3cb0981f	0.021556912
30	0x3d065fe0	0.032806277
31	0x3d058d46	0.032605432

conv2.weight f4 [64, 32, 3]
0	0x3d844c9d	0.06459925
1	0xbdccf9f8	-0.10008615
2	0xbdac0ec2	-0.08401252
3	0x3b87117e	0.0041219583
4	0x3d1c941b	0.038227182
5	0xbd219b23	-0.03945459
6	0xbdb7a27f	-0.089665405
7	0x3d8ff73a	0.070295766
8	0xbd82115d	-0.06350968
9	0xbd4f92bb	-0.050677042
10	0xbd9eb7c0	-0.07749891
11	0xbbdbcc9a	-0.00670774
12	0x3d043b57	0.032283153
13	0xbc60e6c8	-0.013726898
14	0x3c03892a	0.008028308
15	0x3d20ca51	0.039255444
16	0xbd5faa8f	-0.054606017
17	0x3c977929	0.01849039
18	0x3d72f767	0.059317973
19	0x3dccb6e5	0.09995822
20	0x3da346d2	0.07972492
21	0xbdaf628f	-0.085637204
22	0xbdb39d62	-0.08770253
23	0x3b130c5e	0.0022437791
24	0xbdcbcaf3	-0.09950819
25	0xbd8b09a6	-0.0678895
26	0x3cd91c60	0.026502788
27	0xbd690e22	-0.056898244
28	0x3da69f69	0.08135874
29	0xbd8dc8a4	-0.06923035
30	0x3d7dccb1	0.061962787
31	0xbd0a5aa0	-0.033777833
32	0x3dab968a	0.083783224
33	0x3c9f978f	0.019481448
34	0x3d37e72c	0.044898197
35	0x3cb61c3b	0.022230258
36	0xbd8f777b	-0.07005211
37	0x3dd210c7	0.10257106
38	0x3d86cf00	0.06582451
39	0xbd968935	-0.07350389
40	0x3ca91cc5	0.020643601
41	0x3c03a5c1	0.008035124
42	0xbc340b24	-0.010988984
43	0xbdafb333	-0.085791014
44	0xbdae2fa2	-0.08505179
45	0xbd96c0ea	-0.07361014
46	0x3d3a657b	0.045506936
47	0x3d9e3e05	0.07726673
48	0xbd828bfb	-0.063743554
49	0xbd9d22b6	-0.07672636
50	0xbd1bcc87	-0.03803685
51	0xbda63f2d	-0.081175186
52	0x3da0363e	0.07822846
53	0x3d8123e4	0.06305674
54	0x3db3f862	0.0878761
55	0x3c894818	0.01675801
56	0x3d770e20	0.060316205
57	0xbdc91862	-0.09819104
58	0xbcd17cdc	-0.025572233
59	0x3d9ca93a	0.07649465
60	0xbb6a2c4f	-0.0035731976
61	0x3d341cdb	0.04397283
62	0xbd8ede49	-0.06975991
63	0xbce91142	-0.028450612
64	0xbdae9654	-0.085247666
65	0x3dcb2005	0.099182166
66	0x3d948de7	0.07253628
67	0xbdb32dad	-0.08748946
68	0x39e195ad	0.0004302686
69	0xbd85e2c9	-0.065373965
70	0xbb5c340e	-0.0033600363
71	0x3dcdd370	0.10050094
72	0x3c436b91	0.011927501
73	0x3d0cb855	0.03435548
74	0x3d8f1079	0.06985564
75	0xbd1f0bd0	-0.038829625
76	0xbd13d94b	-0.0360959
77	0x3d458be8	0.048229128
78	0xbc9295da	-0.01789372
79	0xbd7c55c7	-0.06160524
80	0x3d3140b7	0.043274608
81	0x3dc6fed9	0.09716577
82	0x3c9298a9	0.01789506
83	0x3d0bcd62	0.034131415
84	0x3dd74c80	0.10512638
85	0x3d3c737f	0.046008583
86	0x3d894153	0.06701913
87	0x3d64b97a	0.055840947
88	0xbd7ade49	-0.061247144
89	0x3d2fa729	0.042884026
90	0xbd8647c9	-0.06556661
91	0x3d6e2c92	0.058147974
92	0x3d9776f4	0.073957354
93	0x3c8b9b6b	0.017041883
94	0x3dc7fb78	0.09764761
95	0x3ca39fbd	0.01997363
96	0x3b415c4f	0.0029504483
97	0x3d13f332	0.0361206
98	0xbc0df355	-0.008663972
99	0xbd940104	-0.07226756
100	0x3b81b3bb	0.003958193
101	0x3cf4e1b4	0.02989278
102	0xbd7e79d7	-0.062127914
103	0x3d85bcd6	0.06530158
104	0xbd636923	-0.055520188
105	0x3d2bf423	0.041980874
106	0x3d110cd2	0.035412617
107	0xbd4daba1	-0.050212506
108	0xbd9da7c4	-0.076980144
109	0xbac8c908	-0.0015318701
110	0xbdac67f7	-0.08418267
111	0xbdd6e4c8	-0.10492855
112	0xbd981e19	-0.07427616
113	0xbd137645	-0.036001462
114	0x3db80f32	0.08987273
115	0x3d3e46b0	0.04645413
116	0x3cdcf060	0.026970088
117	0x3d44a1e9	0.048005972
118	0x3cad2577	0.021136029
119	0xbda15c17	-0.07878893
120	0x3d96be06	0.07360463
121	0xbc8099f6	-0.015698414
122	0x3db7651f	0.08954834
123	0xbd78656d	-0.060643602
124	0xbd9bb806	-0.07603459
125	0x3cbcdd7c	0.02305483
126	0x3d71fca1	0.059078816
127	0xbd34e94c	-0.0441678
128	0x3d616519	0.055028055
129	0xbba43a4d	-0.005011833
130	0xbd5326c5	-0.051550645
131	0x3db22392	0.08698191
132	0xbc498c63	-0.012301537
133	0x3cca7704	0.024714954
134	0x3cb6f331	0.02233276
135	0x3d7d55db	0.061849456
136	0xbb0f8a8c	-0.0021902649
137	0x3da0bfb6	0.07849066
138	0x3d45b6e2	0.048270114
139	0xbdc4c91e	-0.096086726
140	0xbdb9613d	-0.0905175
141	0x3db2b002	0.08724977
142	0xbdad23a0	-0.084540606
143	0x3cbe98df	0.023266254
144	0x3ddb9e31	0.10723532
145	0xbce52e6d	-0.02797624
146	0x3a3323ac	0.00068336236
147	0xbd318b1d	-0.04334556
148	0xbd1f07e5	-0.03882589
149	0x3ccc1915	0.024914304
150	0xbc1af3ee	-0.009457571
151	0xbd8ee4ab	-0.06977209
152	0xbd3234df	-0.043507453
153	0x3d7c3f1a	0.061583616
154	0xbd28ff0a	-0.04125885
155	0xbcdb3703	-0.02675963
156	0xbdf05ef3	-0.1173686
157	0xbdb381f9	-0.08765025
158	0x3d8301c9	0.06396825
159	0x3da58a4f	0.08083021
160	0x3cabb8e9	0.020962195
161	0x3d29ea03	0.041482937
162	0x3dbfd9c1	0.09367705
163	0xbd81c55b	-0.06336471
164	0xbd531d5e	-0.05154168
165	0x3db875c1	0.09006835
166	0x3d15c6fb	0.036566716
167	0x3d9a9209	0.07547385
168	0x3dbdc1ec	0.09265503
169	0x3b9ab655	0.0047214427
170	0xbd5ad85e	-0.053429
171	0xbae8e63e	-0.0017768813
172	0x3da14759	0.078749366
173	0xbd99b95d	-0.07506058
174	0xbc09c13c	-0.008407887
175	0xbdd1e653	-0.10249009
176	0xbd87cb18	-0.06630534
177	0x3dab23f0	0.08356464
178	0x3d3c0ceb	0.045910757
179	0xbd1978e2	-0.0374688
180	0x3d21b81c	0.03948222
181	0x3d2c57bb	0.042075854
182	0x3dbbbdba	0.09167047
183	0xbcfa69d9	-0.03056805
184	0xbd87d1c3	-0.06631806
185	0x3dcb583e	0.0992894
186	0x3d5bfb8e	0.053706698
187	0xbdbdc286	-0.09265618
188	0xbb8d2a7f	-0.0043080444
189	0x3b3a8b3b	0.0028464335
190	0x3da18cff	0.07888221
191	0xbcdeaf76	-0.027183276
192	0x3d171ac7	0.03689077
193	0xbd851eb2	-0.06499995
194	0xbafc3c05	-0.0019243961
195	0xbd51df13	-0.05123813
196	0x3d7b29ba	0.06131909
197	0x3cbf1cce	0.023329165
198	0xbd804aa6	-0.06264238
199	0x3d21d159	0.03950629
200	0xbd25db84	-0.04049255
201	0x3c583850	0.01319702
202	0x3d9211d7	0.07132309
203	0xbdb54804	-0.088516265
204	0x3c17976c	0.00925241
205	0xbc176d90	-0.00924243
206	0x3db603cd	0.08887444
207	0x3dab5762	0.08366276
208	0x3d253aae	0.040339164
209	0x3caba0e7	0.020950748
210	0x3d9c83e6	0.07642345
211	0x3ce349bf	0.027745126
212	0x3d76739c	0.060168847
213	0x3bfcadd0	0.0077111498
214	0x3d472ac1	0.048624758
215	0x3d4f06cb	0.050543588
216	0x3d0af11b	0.033921342
217	0x3d80c32c	0.06287226
218	0x3d9a2271	0.075261004
219	0x3bbcfe25	0.005767601
220	0xbdcdea0f	-0.10054409
221	0xbd151af9	-0.036402676
222	0x3dc8c983	0.0980406
223	0xbdc154cc	-0.09440002
224	0x3cfd37da	0.030910421
225	0x3d97b187	0.074069075
226	0xbda94a18	-0.082660854
227	0xbaab5caa	-0.0013073881
228	0x3dae7331	0.08518065
229	0xbd41a78e	-0.047278933
230	0xb9c9f5c8	-0.0003852083
231	0x3d72e058	0.059295982
232	0x3c854649	0.016268866
233	0x3d29c1ed	0.041444708
234	0x3d7aa1b7	0.06118938
235	0x3cbf839e	0.02337819
236	0x3dd0240b	0.10163125
237	0x3cae4ffc	0.021278374
238	0xbdbc3112	-0.09189047
239	0x3d8afc3b	0.067863904
240	0x3cced825	0.02524955
241	0x3db5a32a	0.08869012
242	0x3c8ccf29	0.017188625
243	0x3d197a2b	0.037470024
244	0xbd6b5e62	-0.057463057
245	0xbdda68d0	-0.10664523
246	0xbd22d5eb	-0.03975479
247	0x3cc77a36	0.024350267
248	0xbd18a464	-0.03726615
249	0xbd5b41af	-0.053529438
250	0xbcce1c1f	-0.025159894
251	0x3cd83d2f	0.026396362
252	0x3dc7a99c	0.09749147
253	0x3dd42bd3	0.10359921
254	0x3d8ded92	0.069300786
255	0x3d04edf7	0.032453503

conv2.bias f4 [64]
0	0x3d2908c9	0.041268144
1	0x3d94415b	0.07239028
2	0x3d75a844	0.059974924
3	0x3d3bbdac	0.045835182
4	0x3db5cf05	0.088773765
5	0x3dbf817e	0.093508705
6	0xbd51b2cb	-0.0511959
7	0x3d907bdf	0.070548765
8	0xbd50c24b	-0.050966542
9	0x3db373ec	0.08762345
10	0x3dc683c0	0.09693098
11	0xbd9b3b94	-0.07579723
12	0xbc4d313e	-0.012523947
13	0xbd1c520d	-0.038164187
14	0xbbf8cb84	-0.0075926203
15	0x3d011196	0.031510912
16	0xbc07821f	-0.008270769
17	0x3d1b35ae	0.03789299
18	0x3d9b7490	0.07590592
19	0xbbd6caf7	-0.006554957
20	0xbd3b0ccd	-0.045666505
21	0xbc81d382	-0.015847925
22	0x3cb523d5	0.022111813
23	0x3d30ab2b	0.04313199
24	0xbd928166	-0.07153587
25	0xbda4b4b1	-0.08042277
26	0xbdbd702c	-0.09249911
27	0x3c44dbc6	0.012015289
28	0xbd5b18dd	-0.05349051
29	0xbd2014dd	-0.039082397
30	0xbd66a675	-0.05631109
31	0x3d9ff778	0.07810873
32	0xbc8b9127	-0.017036987
33	0xbd0bf931	-0.034173194
34	0xbcc0d6ee	-0.023539986
35	0xbd17476b	-0.036933344
36	0xbdbc7b56	-0.09203212
37	0xbda1e78b	-0.079054914
38	0x3da05326	0.07828359
39	0xbdb0e6ad	-0.08637748
40	0x3d44b17b	0.04802082
41	0x3c5e5ce2	0.01357195
42	0xbdcff700	-0.101545334
43	0x3cf1f24a	0.029534478
44	0xbd6b9fd0	-0.057525456
45	0x3d99c4a1	0.07508207
46	0x3dbb1906	0.09135632
47	0x3b135236	0.0022479421
48	0xbd95a395	-0.073065914
49	0xbda7d2b4	-0.08194485
50	0x3d81b51f	0.06333374
51	0x3d20803b	0.03918479
52	0x3c8bb79e	0.017055329
53	0x3dca5799	0.09879989
54	0xbd736acf	-0.059428032
55	0xbae8d721	-0.0017764309
56	0xbd4902f7	-0.049075093
57	0x3c1086a6	0.008821165
58	0xbca432fe	-0.020043846
59	0x3cdc747c	0.026911013
60	0xbd0472d6	-0.03233608
61	0xbd782a6d	-0.060587335
62	0xbd76b482	-0.06023074
63	0x3dcea7e3	0.100906156

bn2.weight f4 [64]
0	0x3f80d4e1	1.0064965
1	0x3f7ccd12	0.9875041
2	0x3f805aba	1.0027688
3	0x3f7de10e	0.9917153
4	0x3f7e8ab3	0.9943039
5	0x3f809fe0	1.004879
6	0x3f7eb03e	0.99487674
7	0x3f7fa4d3	0.99860877
8	0x3f7e764b	0.9939925
9	0x3f7f28ce	0.9967164
10	0x3f8053ee	1.0025613
11	0x3f7dba7c	0.9911268
12	0x3f800052	1.0000098
13	0x3f7f0e37	0.99631065
14	0x3f802497	1.0011166
15	0x3f8091ca	1.0044491
16	0x3f81b791	1.0134145
17	0x3f7d7c3e	0.99017704
18	0x3f8074e3	1.0035671
19	0x3f7d92e8	0.99052286
20	0x3f819240	1.0122757
21	0x3f7d0600	0.9883728
22	0x3f806d3e	1.0033338
23	0x3f7d447b	0.9893262
24	0x3f813c9c	1.0096622
25	0x3f7ef235	0.9958833
26	0x3f805ed0	1.0028934
27	0x3f81a499	1.0128356
28	0x3f7e3489	0.9929891
29	0x3f7c9c38	0.9867587
30	0x3f7e976a	0.9944979
31	0x3f83078d	1.0236679
32	0x3f7fe191	0.9995356
33	0x3f8015f1	1.0006696
34	0x3f7cbb2b	0.98723096
35	0x3f800666	1.0001953
36	0x3f7faaaa	0.9986979
37	0x3f7f095c	0.99623656
38	0x3f8009dd	1.000301
39	0x3f7d4170	0.98927975
40	0x3f7e9118	0.99440145
41	0x3f7dfe4c	0.9921615
42	0x3f810241	1.0078813
43	0x3f8028c7	1.0012444
44	0x3f80dc7e	1.0067289
45	0x3f80beb2	1.0058196
46	0x3f7d3d64	0.989218
47	0x3f819177	1.0122517
48	0x3f821c3f	1.016487
49	0x3f821d7a	1.0165246
50	0x3f7d7d36	0.9901918
51	0x3f80e5ae	1.0070093
52	0x3f8198a2	1.0124705
53	0x3f80bc80	1.0057526
54	0x3f810e2a	1.0082448
55	0x3f822736	1.0168216
56	0x3f80e95d	1.0071217
57	0x3f7d972c	0.99058795
58	0x3f816780	1.0109711
59	0x3f7c631c	0.9858873
60	0x3f7bba8e	0.98331535
61	0x3f81a829	1.0129443
62	0x3f8056b8	1.0026464
63	0x3f804dee	1.0023782

bn2.bias f4 [64]
0	0x3c17e4af	0.009270831
1	0x3bdf399a	0.0068122866
2	0x39793455	0.00023765986
3	0xbcc4782f	-0.02398309
4	0xbc41ada2	-0.011821182
5	0x3ba045ae	0.004891119
6	0x3bf48a80	0.0074627995
7	0xbc4238d4	-0.011854369
8	0xbadd4010	-0.0016880054
9	0xbc09e015	-0.008415242
10	0x3bdf5c97	0.0068164575
11	0xbc33e199	-0.01097908
12	0x3bed4b9c	0.0072416794
13	0x3bc38f66	0.005968022
14	0x3b8585c9	0.0040747863
15	0x3b963740	0.004584223
16	0x3912b82c	0.00013992254
17	0xbc4f92b5	-0.012669255
18	0xbb353d08	-0.0027654786
19	0xbc78b892	-0.015180724
20	0x3c8f12ca	0.017465014
21	0x3b4269ee	0.002966519
22	0xbb0ee267	-0.0021802427
23	0x3afdfa5b	0.001937698
24	0xbb4694a1	-0.0030300992
25	0xba2a940f	-0.0006507048
26	0x3bb17c74	0.0054164473
27	0x3c139c6a	0.00900946
28	0x3c248d1a	0.010043407
29	0xbc4a97b5	-0.012365271
30	0xbc7e14e7	-0.015507913
31	0x3c3cc02d	0.011520428
32	0xbc4faeae	-0.012675924
33	0xbb4f6f31	-0.0031651969
34	0xbc3ca428	-0.011513747
35	0x3c1b1860	0.009466261
36	0xbc72bf5e	-0.014816133
37	0x3b43e1b0	0.002988916
38	0x3c70f6b3	0.014707255
39	0xbc7f5048	-0.015583105
40	0xbae0743f	-0.0017124488
41	0x3b03cde2	0.002011173
42	0x3bb1364c	0.005408084
43	0xbbd2022c	-0.0064089503
44	0x3c6f529e	0.0146071
45	0xbbd1b065	-0.0063992017
46	0xba0027a4	-0.00048887194
47	0xbabdfa8f	-0.0014494228
48	0x3cd32d9b	0.025778582
49	0x3c879954	0.016552605
50	0xbba9f56c	-0.0051867273
51	0x3b2121b3	0.0024586737
52	0xbba70791	-0.0050973375
53	0x3a70c6fc	0.00091849244
54	0xbade3003	-0.0016951564
55	0x3bca561b	0.0061748154
56	0xbc49c017	-0.012313864
57	0xbb983960	-0.0046455115
58	0x3ba06830	0.0048952326
59	0xbc7c85a0	-0.015412718
60	0x3bfae312	0.0076564634
61	0x3ccc2ed9	0.024924682
62	0xbae6b385	-0.0017601108
63	0xba9dd305	-0.0012041038

bn2.running_mean f4 [64]
0	0x3e6b3c90	0.22972322
1	0x3e314994	0.17313224
2	0x3e9bdeaf	0.30443332
3	0x3e84bc41	0.25924876
4	0xbe6d3808	-0.23165905
5	0xbd4db12b	-0.05021779
6	0x3eb2e1be	0.34937853
7	0x3e0fbb0a	0.14036193
8	0xbe9eeb93	-0.31039104
9	0x3e9f4d15	0.31113496
10	0x3ec40021	0.38281348
11	0xbcee7992	-0.029110704
12	0xbef08eac	-0.4698385
13	0xbd87dbe6	-0.06633739
14	0x3eccec95	0.40024248
15	0x3ea1328f	0.31483886
16	0xbe1a9b15	-0.15098222
17	0xbdd70287	-0.10498529
18	0x3dd4f3da	0.103980735
19	0xbeef8b03	-0.46785745
20	0x3e41db45	0.18931301
21	0xbe1526d5	-0.14565594
22	0xbf1fd32e	-0.6243161
23	0xbe771f8b	-0.24133126
24	0x3e8b8be1	0.27255157
25	0x3d6d4135	0.057923514
26	0x3e8b88a3	0.27252683
27	0x3c4139fd	0.011793611
28	0x3e9cc341	0.30617717
29	0x3f1b0b84	0.60564446
30	0xbecfe14a	-0.4060157
31	0xbee9cea1	-0.45665458
32	0x3d2354d2	0.039875813
33	0x3e1efb60	0.1552558
34	0xbd9f6f7e	-0.07784937
35	0x3ecaedf1	0.3963466
36	0xbd81855b	-0.06324264
37	0x3e68a1dc	0.22717994
38	0xbe96b97f	-0.29438397
39	0xbef1d5cb	-0.47233424
40	0x3d8ca017	0.06866472
41	0x3eee418e	0.4653439
42	0xbf03790a	-0.51356566
43	0x3f18752f	0.5955381
44	0xbe1094c8	-0.14119256
45	0xbe4a4446	-0.19752607
46	0xbda5fa68	-0.08104402
47	0x3e056816	0.13027987
48	0xbe698d44	-0.22807795
49	0xbe0edae7	-0.13950692
50	0x3ea914e2	0.33023745
51	0xbed883a7	-0.42287943
52	0xbed65d1a	-0.41867906
53	0x3e6fb692	0.23409489
54	0xbf5897af	-0.8460645
55	0xbf42a261	-0.7602902
56	0x3ecc1b5f	0.39864632
57	0x3f6ecbb1	0.9327956
58	0xbea2e0e8	-0.31812215
59	0xbe7923b3	-0.24330024
60	0x3ec95ee3	0.39330205
61	0x3f29d9b0	0.6634779
62	0xbe11a5c0	-0.14223385
63	0x3ec040ee	0.37549537

bn2.running_var f4 [64]
0	0x3da1b431	0.07895697
1	0x3e3be7fb	0.18350212
2	0x3dfb45a7	0.122691445
3	0x3e87d627	0.26530573
4	0x3e20dff0	0.15710425
5	0x3e3bf35e	0.18354556
6	0x3e06693a	0.13126078
7	0x3dd2df95	0.10296551
8	0x3e8e4737	0.27788708
9	0x3e17ba8e	0.14817259
10	0x3e26381b	0.1623234
11	0x3df3a5b4	0.1189684
12	0x3e0c8569	0.13722767
13	0x3dcb7b9c	0.09935686
14	0x3da15d4c	0.07879123
15	0x3e3b922b	0.18317477
16	0x3dc0b752	0.094099656
17	0x3e1a29c3	0.15054993
18	0x3e1481d0	0.14502645
19	0x3e432a2c	0.19059056
20	0x3e01a72e	0.1266143
21	0x3e087bfe	0.1332855
22	0x3e07f7ca	0.13278118
23	0x3e1f0f59	0.15533198
24	0x3e9f06b0	0.3105979
25	0x3e66b8bd	0.2253141
26	0x3e23633c	0.15955824
27	0x3d7c1a6c	0.061548635
28	0x3e0ca25e	0.13733813
29	0x3e8455b7	0.25846645
30	0x3e0e3937	0.13889013
31	0x3e5e5b98	0.21714628
32	0x3e2440e1	0.16040374
33	0x3e645d99	0.2230133
34	0x3e51c1ae	0.20484039
35	0x3e08682f	0.13320993
36	0x3e39542c	0.18098515
37	0x3e67ac5f	0.22624348
38	0x3dd94034	0.10607949
39	0x3dddbde5	0.10827235
40	0x3d9323d2	0.071845666
41	0x3ddf2f3c	0.10897681
42	0x3e03df01	0.12878038
43	0x3e14cb30	0.14530635
44	0x3d6aa745	0.057288427
45	0x3e47ecb6	0.19523892
46	0x3d972770	0.07380569
47	0x3e1882ad	0.14893599
48	0x3e818cf1	0.25302842
49	0x3e1237d5	0.1427911
50	0x3e19eb60	0.15031195
51	0x3e13bd29	0.14427628
52	0x3e257532	0.16157988
53	0x3e26ae08	0.16277325
54	0x3e13c85e	0.14431903
55	0x3e4ab784	0.19796568
56	0x3e669576	0.22517952
57	0x3e8d4e63	0.27598867
58	0x3e211572	0.15730837
59	0x3e7e327c	0.24823946
60	0x3db7c1d7	0.08972519
61	0x3e682bc7	0.2267295
62	0x3e9f33c6	0.31094187
63	0x3e75fa9b	0.2402138

conv3.weight f4 [128, 64, 3]
0	0xbcb7793e	-0.02239668
1	0x3d2b6e39	0.041853163
2	0xbd98a0a4	-0.07452515
3	0xbc58c28a	-0.0132299755
4	0xbc4d7681	-0.012540461
5	0xbb82aae4	-0.003987657
6	0xbd3fc39d	-0.04681741
7	0xbd89eb9b	-0.06734391
8	0xbd900756	-0.07032649
9	0x3b8ecf6b	0.0043582222
10	0xbd35549b	-0.04427014
11	0xbd8857b5	-0.06657354
12	0x3c9002b6	0.017579418
13	0x3d0721fc	0.032991394
14	0xbd8a6cf0	-0.067590594
15	0xbc98439f	-0.018586932
16	0x3ceea5a3	0.029131716
17	0x39c39d70	0.00037310598
18	0x3c95735e	0.018243488
19	0xbd999864	-0.07499769
20	0xbd4eef86	-0.050521396
21	0x3da36736	0.0797867
22	0x3c4322ea	0.01191018
23	0x3d55fc5a	0.052242614
24	0xbcc48123	-0.023987358
25	0xbc92e82c	-0.017932974
26	0xbc67d16e	-0.014149053
27	0x3d35406b	0.044250887
28	0x3d500b88	0.050792247
29	0xbd4687cb	-0.048469346
30	0xbd5c7a32	-0.053827472
31	0xbd865d02	-0.065607086
32	0x3d04b6b3	0.032400798
33	0x3d68d3d8	0.056842655
34	0x3b36573c	0.0027822992
35	0x3d0a927e	0.033831112
36	0x3d85553e	0.06510399
37	0xbcfdd7e1	-0.030986728
38	0xbd2222dd	-0.03958403
39	0xbd167719	-0.036734674
40	0xbb1e865e	-0.0024188976
41	0xbc9447f9	-0.018100725
42	0xbc94f744	-0.018184312
43	0x3d697949	0.057000432
44	0xbca0e85e	-0.019642051
45	0x3d580d11	0.052746836
46	0x3c87cc5e	0.016576942
47	0xbd13a499	-0.036045644
48	0x3b1e1852	0.0024123383
49	0xbd6feef3	-0.05857749
50	0x3d130353	0.035891842
51	0xbc76185a	-0.015020454
52	0xbce2d8ec	-0.027691327
53	0x3d086a5b	0.033304553
54	0x3c5e1a5c	0.013556089
55	0x3c42476b	0.011857848
56	0xbc860393	-0.016359126
57	0x3cbbceef	0.022925822
58	0x3b351ba4	0.0027634883
59	0x3c8fa7bf	0.017536042
60	0xbcfda306	-0.030961525
61	0xbd8b3f67	-0.067992024
62	0xbcd55ebc	-0.02604615
63	0xbd753fa4	-0.059875146
64	0x3d1594eb	0.036518972
65	0xbd394c11	-0.04523856
66	0x3c191305	0.0093429135
67	0x3cc1c524	0.023653574
68	0x3d24e062	0.04025305
69	0x3ce9a088	0.02851893
70	0x3d84be17	0.06481569
71	0xbd5d9601	-0.054098133
72	0xbd42e838	-0.047584742
73	0xbd00d45e	-0.03145253
74	0x3cc74b17	0.024327798
75	0xbcf0cc97	-0.029394431
76	0x3d579f71	0.05264229
77	0x3d4eee96	0.050520502
78	0x3cfe33e5	0.031030605
79	0x3cda52ce	0.026650812
80	0xbd9c4034	-0.07629433
81	0x3c1f9363	0.00973973
82	0x3d4f6c7b	0.050640564
83	0x3d1e2954	0.038613632
84	0xbd9d66b4	-0.07685605
85	0x3a5988c8	0.0008298275
86	0xbcdefe7f	-0.027220963
87	0x3da4e479	0.0805139
88	0x3d39f7b9	0.045402262
89	0x3d556964	0.05210246
90	0x3d96d7c8	0.07365376
91	0xbcb09422	-0.02155501
92	0xbd21666e	-0.039404325
93	0x3d0d2ae2	0.034464724
94	0x3d5d8b6c	0.05408804
95	0xbb78f90d	-0.0037990243
96	0x3d416c88	0.047222644
97	0x3c8b8fec	0.0170364
98	0xbd0b3027	-0.03398147
99	0xbd0287f8	-0.03186795
100	0x3d4b33a0	0.04960978
101	0xbbdd8b09	-0.006760959
102	0xbd93030e	-0.07178317
103	0xbd8e1813	-0.069381855
104	0xbc647632	-0.013944196
105	0x3d755b42	0.059901483
106	0x3cd81f62	0.026382152
107	0x3d7fcf04	0.062453285
108	0x3c49df47	0.0123213
109	0x3bfd8654	0.0077369604
110	0xbd995b8f	-0.074881665
111	0x3d52ce25	0.051466126
112	0x3d485631	0.048910324
113	0xbb13b884	-0.00225404
114	0x3cfa1e0b	0.030531904
115	0x3cd8d9af	0.026470987
116	0x3d7b6174	0.061372235
117	0x3cfa0f09	0.030524747
118	0xbcc8e7d0	-0.0245246
119	0x3d85ece1	0.06539322
120	0xbd9d4ef7	-0.07681077
121	0xbcb6bf4e	-0.022308018
122	0xbd9e7ef9	-0.07739062
123	0x3d1828c0	0.037148237
124	0xbc8f898c	-0.017521642
125	0xbd0a4e9d	-0.033766378
126	0xbcbd8355	-0.023133913
127	0x3d28c8a3	0.041206967
128	0xbd11d9d4	-0.035608128
129	0x3d00ec87	0.03147557
130	0x3d8bf1a1	0.068331964
131	0xbd0e751c	-0.034779653
132	0xbdb33f0d	-0.0875226
133	0xbd97c795	-0.07411114
134	0xbd61cc86	-0.05512669
135	0x3d4cbfbf	0.04998755
136	0xbd1d71d7	-0.038438644
137	0xbaeb9ce3	-0.0017975833
138	0x3ad887ac	0.0016519926
139	0xbd8a8a87	-0.06764703
140	0xbd801723	-0.06254413
141	0x3c8d5255	0.017251173
142	0xbd586fa8	-0.05284086
143	0x3c1dc747	0.009630031
144	0x3c3cc97d	0.011522648
145	0xbc956aac	-0.018239342
146	0xbd848973	-0.06471529
147	0x3cbe8955	0.023258844
148	0xbd94018e	-0.07226859
149	0xbd5aeacd	-0.05344658
150	0xbd3bf759	-0.045890186
151	0xbaa2ec36	-0.0012430015
152	0x3d541746	0.051780008
153	0x3abd167e	0.0014426259
154	0x3d852bb4	0.06502476
155	0xbd7d3b4a	-0.06182412
156	0xbcf6b5bc	-0.030115955
157	0xbd060eab	-0.032728832
158	0xbd3f7d50	-0.046750367
159	0xbc99a137	-0.018753631
160	0xbc1c9312	-0.009556549
161	0xbd2112cc	-0.039324567
162	0x3d81d630	0.06339681
163	0x3d728bd3	0.059215378
164	0xbd2e1089	-0.042496238
165	0xbd966132	-0.07342757
166	0x3d932fc2	0.071868435
167	0x3d4fcf78	0.050734967
168	0x3d2be715	0.041968424
169	0x3d0d47d1	0.034492318
170	0x3ca0b3b1	0.019616934
171	0x3d64f3c3	0.05589653
172	0x3cb17a45	0.021664748
173	0xbd88f7af	-0.06687867
174	0xbd3676dc	-0.044546947
175	0x3d19dfc5	0.03756692
176	0xbd496a29	-0.049173508
177	0x3c962ecd	0.018332863
178	0x3c8312fa	0.01600026
179	0x3d510c5c	0.051037177
180	0x3cada452	0.021196518
181	0xbc79e1ae	-0.01525156
182	0x3d0f8148	0.0350354
183	0x3d8c5b8d	0.068533994
184	0xbd0f635a	-0.03500686
185	0xbbf36c83	-0.007428707
186	0x3c882e97	0.016623778
187	0xbd04fa36	-0.032465182
188	0xbc5664ca	-0.013085553
189	0xbd3b4c5e	-0.045727126
190	0xbc4ea9cd	-0.012613726
191	0x3c4a2908	0.012338884
192	0xbd4d4418	-0.050113767
193	0xbc99b399	-0.018762397
194	0xbd2f3c14	-0.042781904
195	0xbd94ff12	-0.07275213
196	0x3d992d88	0.074793875
197	0x3d641bbf	0.055690523
198	0xbd9385dd	-0.07203267
199	0x3d0bfbca	0.03417567
200	0x3cfc0f0d	0.030768896
201	0xbb773ca8	-0.0037725363
202	0x3d0b1787	0.033957984
203	0x3aeddab5	0.0018146845
204	0x3d602729	0.054724846
205	0xbc45906f	-0.012058361
206	0xbd49244f	-0.049106892
207	0xbac85884	-0.0015285169
208	0xbd15bcdd	-0.036557067
209	0xbb97d9be	-0.004634111
210	0x3b085a62	0.0020805825
211	0x3d8df640	0.06931734
212	0x3d017366	0.031604193
213	0x3d87c3ad	0.06629119
214	0xbd5b6c75	-0.05357023
215	0xbce2c684	-0.02768255
216	0x3d5f04d2	0.054447956
217	0x3d4829ea	0.048868097
218	0x3cad4f18	0.021155879
219	0x3c218fae	0.009860916
220	0x3b108c54	0.0022056298
221	0x3ac4024f	0.0014954301
222	0x3c866ca3	0.016409224
223	0xbc6d3477	-0.014477841
224	0xbd7e963c	-0.062154993
225	0x3c7a9f92	0.015296834
226	0xbad88e81	-0.0016521962
227	0xbd6795df	-0.056539413
228	0x3d3746ba	0.044745184
229	0x3cc04f5c	0.023475341
230	0x3d7bdde7	0.06149092
231	0xbcc7a825	-0.02437217
232	0xbcd1d32d	-0.025613392
233	0x3c895f38	0.016769037
234	0x3cec4cbf	0.02884519
235	0xbd247c56	-0.04015764
236	0x3d06a7ce	0.032874875
237	0x3cb03dfb	0.02151393
238	0x3cd32460	0.02577418
239	0x3d7a905f	0.06117284
240	0x3ca25649	0.019816535
241	0xbd5bd3db	-0.053668838
242	0x3d07c33c	0.033145174
243	0xbca67e76	-0.020323973
244	0x3d6890ed	0.056778837
245	0xbcbdc57b	-0.023165455
246	0xbd16597c	-0.036706433
247	0xbc8ef9b6	-0.017453056
248	0xbd41f232	-0.047350116
249	0xbcb2d8e3	-0.021831935
250	0x3d85a40b	0.06525429
251	0xbd9e464c	-0.07728252
252	0xbc545805	-0.012960439
253	0x3d92072f	0.071302764
254	0x3a9066ea	0.0011016999
255	0xbd550bd0	-0.05201322

conv3.bias f4 [128]
0	0xbd1c0b9d	-0.038097013
1	0xbc5a8efc	-0.013339754
2	0xbd318626	-0.043340825
3	0xbd3ff41a	-0.046863653
4	0x3d809c09	0.06279761
5	0x3d82bdbb	0.063838445
6	0x3c3f5ebe	0.011680303
7	0x3be428b6	0.006962861
8	0x3d3599ef	0.044336256
9	0xbd846a3a	-0.064655736
10	0x3d8d13ff	0.068885796
11	0x3d8cd117	0.06875818
12	0x3c128fd2	0.008945422
13	0xbd56863a	-0.052374102
14	0x3bc34028	0.0059585758
15	0xbd460afa	-0.04835031
16	0xbbd6d768	-0.00655644
17	0xbc046943	-0.008081737
18	0x3d0ce158	0.034394592
19	0x3c72bb72	0.014815198
20	0xbd14a537	-0.036290374
21	0xbcebe5bc	-0.02879607
22	0xbd498094	-0.049194887
23	0x3d1dc09e	0.038513772
24	0xbb530e90	-0.0032204725
25	0x3d2d1b38	0.042262286
26	0xbcef695c	-0.029225044
27	0x3d78f702	0.06078244
28	0xbd8a6629	-0.06757767
29	0x3b21c327	0.002468297
30	0x3d080525	0.03320803
31	0xbcf4af8f	-0.02986887
32	0x3c328825	0.010896717
33	0x3c192463	0.009347054
34	0x3d893cf0	0.06701076
35	0xbd750a4b	-0.05982427
36	0x3cf7b9bb	0.03023993
37	0xbc118f94	-0.008884329
38	0xbce62e9c	-0.028098397
39	0x3d589b94	0.052882746
40	0x3cb9912c	0.022652231
41	0x3c455215	0.012043496
42	0x3b6344c8	0.0034678448
43	0x3cdfc2d4	0.027314581
44	0x3cdc6bf6	0.026906949
45	0x3d8299a6	0.06376962
46	0x3c6de03f	0.0145187965
47	0xbd51e03c	-0.051239237
48	0xb8db1b1c	-0.00010447783
49	0xbceed88a	-0.029155988
50	0x3b94d8f4	0.0045424644
51	0x3d6479a5	0.05578007
52	0x3d5c66cb	0.05380897
53	0xbccdd02b	-0.025123676
54	0x3c9fef6a	0.019523341
55	0xbd7933d1	-0.06084043
56	0x3d76cc3f	0.060253378
57	0xbd1fa583	-0.038976204
58	0xbd663fbe	-0.056213133
59	0xbcab969c	-0.02094584
60	0x3d65e88a	0.05612997
61	0xbd0b891f	-0.034066316
62	0x3b6699e3	0.0035186938
63	0x3d3d71c5	0.046251077
64	0xbd8ca56f	-0.068674915
65	0x3d69aa0c	0.057046935
66	0x3cc8f8d5	0.024532715
67	0xbd7c5c24	-0.06161131
68	0x3d905af9	0.07048602
69	0xbd7851ea	-0.060624994
70	0xbd93c166	-0.07214622
71	0xbc723671	-0.014783488
72	0x3d7b5334	0.061358646
73	0x3d803435	0.06259958
74	0x3ca85511	0.020548375
75	0x3b12c35d	0.0022394278
76	0x3d84ef08	0.06490904
77	0x3d91df45	0.071226634
78	0x3c0fcde0	0.008777112
79	0x3d4c60e2	0.049897082
80	0x3d8bbb58	0.06822842
81	0xbcb09cc9	-0.021559136
82	0x3d18b89e	0.03728544
83	0x3d7be393	0.06149633
84	0xbd482b80	-0.04886961
85	0xbab7b41c	-0.0014015469
86	0x3d91f856	0.071274444
87	0x3c5fa300	0.013649702
88	0xbd65dd55	-0.05611928
89	0x3d8989b9	0.06715722
90	0xbd92b4f4	-0.0716342
91	0xbc4b49ff	-0.012407779
92	0x3caa9035	0.020820716
93	0xbab803bd	-0.00140392
94	0xbb90b1a1	-0.0044157063
95	0x3cc9863a	0.024600137
96	0xbd89abcf	-0.06722223
97	0x3cc32de3	0.023825591
98	0x3d369deb	0.044584196
99	0xbd3525b1	-0.0442254
100	0xbd05f020	-0.032699704
101	0x3d2739ff	0.040826794
102	0x3ca0f8f8	0.019649968
103	0xbd4531b9	-0.048143122
104	0xbd4a386d	-0.049370218
105	0xbd6ad8ab	-0.057335537
106	0xbcf52afd	-0.029927725
107	0xbc9ff2ce	-0.019524958
108	0xbd50d959	-0.05098853
109	0xbc9b0d1c	-0.01892715
110	0xbd83555e	-0.06412767
111	0x3d69f786	0.057120822
112	0xbd8070cd	-0.06271515
113	0x3d34b73c	0.04412006
114	0xbd779d73	-0.06045289
115	0xbd8b18bd	-0.06791828
116	0xbd8dfb0b	-0.06932648
117	0xbd39cb23	-0.045359742
118	0xbb234ee2	-0.0024918844
119	0x3d4bd669	0.049765024
120	0xbd11fd21	-0.035641793
121	0xbd25052d	-0.04028814
122	0x3ccd42fd	0.025056357
123	0xbd4060ef	-0.046967443
124	0x3c5a124c	0.013310026
125	0x3d7aa54f	0.061192807
126	0x3d39500c	0.045242354
127	0xbaaa7010	-0.0013003368

bn3.weight f4 [128]
0	0x3f7e5522	0.9934865
1	0x3f7ffb25	0.9999259
2	0x3f810846	1.008065
3	0x3f7e22a4	0.9927161
4	0x3f7f41f8	0.99710035
5	0x3f82af04	1.020966
6	0x3f8046eb	1.0021642
7	0x3f80d8b4	1.0066133
8	0x3f7c148a	0.9846884
9	0x3f7c6d25	0.9860404
10	0x3f8072e5	1.0035063
11	0x3f804e97	1.0023984
12	0x3f7b10e4	0.9807265
13	0x3f802331	1.001074
14	0x3f7e3de1	0.9931317
15	0x3f7f1c79	0.9965282
16	0x3f7e203e	0.9926795
17	0x3f7dfa5b	0.9921014
18	0x3f7ec2d4	0.99516034
19	0x3f7daccd	0.990918
20	0x3f7ed53c	0.9954412
21	0x3f800606	1.0001838
22	0x3f8003d1	1.0001165
23	0x3f819902	1.0124819
24	0x3f82ea27	1.0227708
25	0x3f80e43d	1.0069653
26	0x3f7c77f9	0.98620564
27	0x3f815af5	1.0105883
28	0x3f806f7d	1.0034024
29	0x3f813f6d	1.0097481
30	0x3f81191e	1.008579
31	0x3f804b4a	1.0022976
32	0x3f8140fb	1.0097955
33	0x3f7c6d17	0.9860396
34	0x3f7dfdd7	0.99215454
35	0x3f7e9924	0.99452424
36	0x3f7fc669	0.99912125
37	0x3f81df3f	1.0146254
38	0x3f7fc3cd	0.99908143
39	0x3f7d5088	0.98951006
40	0x3f8039fe	1.0017698
41	0x3f81a088	1.0127115
42	0x3f805927	1.0027207
43	0x3f7e1dd5	0.9926427
44	0x3f7b84e8	0.98249674
45	0x3f7dfe6d	0.9921635
46	0x3f7da5bc	0.99081016
47	0x3f7ce5b9	0.9878803
48	0x3f7e6df5	0.9938653
49	0x3f817e17	1.0116605
50	0x3f80874a	1.0041287
51	0x3f807a2c	1.0037284
52	0x3f7c814b	0.98634785
53	0x3f812bf1	1.0091535
54	0x3f7fc307	0.99906963
55	0x3f807318	1.0035124
56	0x3f80db91	1.0067006
57	0x3f80ad51	1.0052892
58	0x3f7dfab7	0.99210685
59	0x3f807121	1.0034524
60	0x3f802c5c	1.0013537
61	0x3f8090b9	1.0044166
62	0x3f7d9602	0.9905702
63	0x3f7f01b4	0.99611974
64	0x3f7fdad8	0.99943304
65	0x3f8205f1	1.0158063
66	0x3f7ddbfc	0.99163795
67	0x3f7c2d35	0.9850648
68	0x3f7dd349	0.9915052
69	0x3f7bd9c3	0.98379153
70	0x3f819b52	1.0125525
71	0x3f7d9a0d	0.9906319
72	0x3f7f6c2c	0.9977443
73	0x3f7fece5	0.9997085
74	0x3f80276d	1.0012032
75	0x3f81d4b1	1.0143033
76	0x3f810689	1.0080119
77	0x3f7eeaf6	0.9957727
78	0x3f8091a3	1.0044445
79	0x3f7d5580	0.9895859
80	0x3f81f175	1.0151812
81	0x3f812c49	1.009164
82	0x3f7c56f5	0.98570186
83	0x3f7dade2	0.9909345
84	0x3f80ee91	1.0072805
85	0x3f805e46	1.002877
86	0x3f7f3c19	0.99701077
87	0x3f7c5789	0.9857107
88	0x3f7cc8f5	0.98744136
89	0x3f821d5e	1.0165212
90	0x3f80d50f	1.006502
91	0x3f810d61	1.0082208
92	0x3f7e266b	0.9927737
93	0x3f80788c	1.0036788
94	0x3f7afc9c	0.980417
95	0x3f7ee293	0.99564475
96	0x3f80bd8f	1.0057849
97	0x3f80bbe6	1.0057342
98	0x3f802ecb	1.001428
99	0x3f8104b8	1.0079565
100	0x3f8021a5	1.0010267
101	0x3f7f9e55	0.9985097
102	0x3f7cc392	0.98735917
103	0x3f824863	1.0178341
104	0x3f7cac23	0.9870016
105	0x3f802096	1.0009944
106	0x3f7e41a4	0.9931891
107	0x3f813dec	1.0097022
108	0x3f7f184a	0.9964644
109	0x3f7f1803	0.99646014
110	0x3f7e5574	0.9934914
111	0x3f8250aa	1.0180867
112	0x3f8190b5	1.0122286
113	0x3f806206	1.0029914
114	0x3f82ed31	1.0228635
115	0x3f7f42b8	0.9971118
116	0x3f80d78f	1.0065783
117	0x3f821b1c	1.0164523
118	0x3f7da3f2	0.99078286
119	0x3f7d20ae	0.9887799
120	0x3f80063f	1.0001906
121	0x3f82d0d6	1.0219982
122	0x3f7f08cd	0.99622804
123	0x3f813065	1.0092894
124	0x3f8175ed	1.0114113
125	0x3f82388a	1.0173504
126	0x3f80258e	1.0011461
127	0x3f80223a	1.0010445

bn3.bias f4 [128]
0	0xbbb6e30e	-0.0055812662
1	0x3b17cfdd	0.0023164668
2	0xbb1f266a	-0.0024284371
3	0xbb2e3096	-0.0026579252
4	0xbc18074f	-0.009279086
5	0x3c0ef6af	0.008725806
6	0x3a6a3add	0.0008935163
7	0x3c152048	0.009101935
8	0x3c348618	0.011018299
9	0xbc803356	-0.015649479
10	0x3b738538	0.0037158262
11	0x3bc35e4b	0.0059621683
12	0xbc93eff7	-0.01805876
13	0x3bf68df6	0.0075242473
14	0x3a4c58c8	0.0007795212
15	0xbbb6f2b5	-0.005583132
16	0xbc2f680b	-0.010705958
17	0xbb054828	-0.0020337198
18	0xb60ba5ec	-2.0809193e-06
19	0xbc73c5f9	-0.014878743
20	0xbc30796a	-0.010771135
21	0xbc0ff916	-0.008787414
22	0xbc3b17a3	-0.01141921
23	0x3cabe5a4	0.020983525
24	0x3bdd2c65	0.006749677
25	0xbc072352	-0.008248167
26	0xbc6a1b0d	-0.014288676
27	0x3c8578a8	0.016292885
28	0xbbd6a00b	-0.0065498403
29	0xba01c13c	-0.00049497536
30	0x3c2179c0	0.009855688
31	0x3a3c9168	0.0007193298
32	0x3c7ce8d0	0.015436366
33	0xbc07946a	-0.008275131
34	0xbc0c381e	-0.008558301
35	0x3bc0d90a	0.005885248
36	0xbc8004dd	-0.015627319
37	0x3c5d5cbe	0.013510881
38	0x3c056312	0.008141296
39	0xbc7f9617	-0.015599749
40	0x3ba4f73e	0.0050343564
41	0x3bda87ec	0.006669035
42	0x3b2191f0	0.0024653636
43	0xbc456a89	-0.012049326
44	0xbc75644b	-0.014977525
45	0xbc904a69	-0.017613607
46	0xbc8e4e2f	-0.017371265
47	0x3bd5d6fb	0.006525872
48	0x3bea19e5	0.0071442
49	0x3c7a22d1	0.01526709
50	0xbba57bb2	-0.005050146
51	0xbb943191	-0.0045225103
52	0xbc537f6e	-0.0129088
53	0x3bc7824d	0.006088531
54	0x394e93a9	0.00019700699
55	0x3bda6de9	0.0066659343
56	0xbc998fef	-0.01874539
57	0xbc1d8343	-0.009613815
58	0xbc374fae	-0.011188431
59	0x3b6c5fe5	0.00360679
60	0xbc795aea	-0.0152194295
61	0x3c630158	0.013855301
62	0xbc1bc4af	-0.009507342
63	0xbc9cac4e	-0.01912513
64	0xbc4570a9	-0.012050786
65	0x3ada3fe0	0.0016651116
66	0x3c6e1044	0.014530245
67	0x3ac8122a	0.0015264202
68	0xbc4d7137	-0.0125392
69	0xbb3c0ecb	-0.002869534
70	0xbb7946e3	-0.0038036637
71	0x3b1bafc3	0.0023755885
72	0x3c2b1b65	0.010443543
73	0xbc1d51b1	-0.009601996
74	0xba979d15	-0.00115672
75	0x3c5e3a88	0.01356376
76	0x3b5078d0	0.003181029
77	0xbcad8a3f	-0.021184085
78	0x3be98bc6	0.007127258
79	0x3bce0060	0.006286666
80	0x3b2e700c	0.0026617078
81	0x3bd5cc94	0.0065246318
82	0xbca6471b	-0.020297578
83	0xbc43154f	-0.011906936
84	0xbc5181ef	-0.012787326
85	0x3c0c7022	0.008571656
86	0xbbbc88df	-0.005753621
87	0xbcc1c46f	-0.023653237
88	0xbc4dfd26	-0.012572562
89	0x3c78d089	0.015186437
90	0xbc102379	-0.00879752
91	0xbc039acc	-0.008032512
92	0xbc301b81	-0.010748745
93	0xbc064c6e	-0.008196933
94	0xbc6aba0b	-0.014326583
95	0x3b9a5c89	0.004710738
96	0xbba81011	-0.0051288684
97	0x3c232957	0.009958587
98	0xbc1a9b4c	-0.00943644
99	0x3ca519ac	0.020153843
100	0x3aa971e4	0.0012927619
101	0x3c99ed88	0.018790022
102	0xbc81cebe	-0.015845653
103	0xbb9f1be6	-0.0048556207
104	0x3be04427	0.006844062
105	0xbc22a496	-0.009926936
106	0xbc080bd1	-0.0083035985
107	0xbc61d27e	-0.013783095
108	0xbc3fc13e	-0.011703787
109	0xbb376005	-0.0027980816
110	0xbba42a56	-0.0050099296
111	0xba29991b	-0.0006469653
112	0x3ca02139	0.019547092
113	0x3b568761	0.00327345
114	0xbc318b8d	-0.010836494
115	0x3b4ae546	0.0030959412
116	0x3c6612cb	0.0140425665
117	0x3c4a53de	0.012349097
118	0xbc285d02	-0.010276081
119	0xbb2a93f5	-0.002602813
120	0xbc91398c	-0.017727636
121	0x3c48c7ce	0.012254668
122	0x3b9b0a1d	0.00473143
123	0x3aba1a3d	0.0014198493
124	0x3c92843f	0.017885325
125	0x39e0e505	0.00042895242
126	0xbb406d92	-0.0029362184
127	0xbc13df26	-0.009025371

bn3.running_mean f4 [128]
0	0xbeaad6b3	-0.33366928
1	0x3d512a3b	0.051065665
2	0xbebdfc28	-0.37106442
3	0x3e8a16a2	0.26970392
4	0xbd867a0b	-0.065662466
5	0x3e93958e	0.2882504
6	0x3d0aaf9c	0.03385888
7	0xbe907f99	-0.2822235
8	0x3efac7bc	0.4898051
9	0xbe30eae4	-0.17277104
10	0x3f425f1d	0.7592638
11	0x3e2263ea	0.15858427
12	0x3ee2e496	0.44315022
13	0xbcff7df4	-0.031187989
14	0xbea33e3d	-0.31883422
15	0xbe3fb621	-0.1872182
16	0xbe7f6708	-0.24941647
17	0x3dd5c558	0.10438031
18	0x3f8941e5	1.0723234
19	0xbe99d445	-0.3004476
20	0xbecfda2a	-0.40596133
21	0x3f2e8fa3	0.6818792
22	0x3e35a338	0.17738044
23	0xbf5d7fdd	-0.8652323
24	0x3d899675	0.067181505
25	0x3e19a17f	0.15003012
26	0xbe68dcae	-0.22740433
27	0xbf526022	-0.8217794
28	0x3d686cfa	0.056744553
29	0xbd66279e	-0.056190126
30	0xbd9a6512	-0.07538809
31	0xbf1f4ddf	-0.62228197
32	0xbe64bd8a	-0.22337928
33	0x3e4e9a14	0.20175964
34	0xbe0f6762	-0.14004281
35	0x3f0a0da2	0.5392705
36	0xbe6f0c0a	-0.23344436
37	0xbed549f3	-0.4165798
38	0xbe403999	-0.18771972
39	0x3d40473c	0.046942934
40	0x3dc10373	0.09424486
41	0xbec68ead	-0.38780728
42	0xbeef52d8	-0.46742892
43	0x3e47c8ba	0.19510165
44	0xbe1bd57c	-0.15218157
45	0x3db89f8e	0.09014808
46	0xbf3178a1	-0.6932469
47	0xbd6b7975	-0.057488877
48	0xbf0f7472	-0.56037056
49	0xbf8dd9b3	-1.1082062
50	0xbe5bedfd	-0.21477504
51	0xbe8bf4e2	-0.27335268
52	0x3f618bf2	0.88104165
53	0xbf03518e	-0.5129632
54	0xbf067190	-0.5251703
55	0x3f22dcbf	0.6361808
56	0xbf12aa41	-0.57291037
57	0x3dd2edc9	0.1029926
58	0xbe07707a	-0.132265
59	0xbec93169	-0.3929551
60	0xbf7ad501	-0.9798127
61	0xbe271dcb	-0.16319959
62	0x3f2afb19	0.66789395
63	0xbe8e39bc	-0.27778423
64	0xbee60d51	-0.44932035
65	0xbf64d396	-0.89385355
66	0x3ca008a7	0.019535376
67	0x3e758546	0.23976621
68	0x3e026980	0.12735558
69	0xbea79954	-0.32734168
70	0x3ee1fdfd	0.4413909
71	0xbe1974bd	-0.14985938
72	0x3f630e75	0.88693935
73	0xbed8322e	-0.42225784
74	0x3ca689bc	0.020329349
75	0xbe90acd3	-0.28256854
76	0x3e6e6470	0.23280501
77	0x3f131696	0.5745634
78	0x3e39bdfd	0.18138881
79	0x3f4de9bd	0.8043478
80	0x3e9f2bea	0.3108819
81	0x3e12a28c	0.14319819
82	0xbec52906	-0.3850786
83	0x3f2404b9	0.64069706
84	0x3f25823f	0.64651865
85	0x3cea0c62	0.028570358
86	0x3ebd9d6f	0.37034175
87	0x3b96e19d	0.004604532
88	0x3f04691c	0.51722884
89	0xbe9298c6	-0.28632182
90	0x3d321d89	0.0434852
91	0x3e8d0b25	0.27547565
92	0xbd8c997e	-0.06865214
93	0x3e3bce96	0.18340525
94	0x3f1c0dac	0.6095836
95	0x3dac0bc0	0.08400679
96	0xbdba5efd	-0.09100149
97	0xbe8720f7	-0.26392338
98	0xbf10702b	-0.56421155
99	0x3e8bda66	0.27315062
100	0xbe9286d5	-0.28618494
101	0xbe10996a	-0.14121023
102	0x3eb117e0	0.34588528
103	0xbe893ca2	-0.26804072
104	0x3c8823b6	0.01661859
105	0xbf058851	-0.5216113
106	0xbd3960ea	-0.04525844
107	0x3eb5eb0c	0.3553089
108	0xbf81cd90	-1.0140858
109	0xbe9dfc45	-0.3085653
110	0x3f035ac0	0.5131035
111	0xbeb11c60	-0.3459196
112	0xbe6f1d50	-0.23351026
113	0x3d51d00b	0.051223796
114	0xbea97263	-0.33095083
115	0xbf4c7f37	-0.79881614
116	0x3e537b09	0.20652403
117	0xbfbe4b0f	-1.4866656
118	0x3ebefeb2	0.37303692
119	0x3d6a461a	0.05719576
120	0xbe5a42b5	-0.21314509
121	0xbed8f0ae	-0.42371124
122	0x3f04de32	0.51901543
123	0xbe312ce2	-0.17302278
124	0xbeb66f93	-0.35632
125	0xbd94582d	-0.07243381
126	0x3eef4c08	0.46737695
127	0xbc59f97a	-0.013304109

bn3.running_var f4 [128]
0	0x3e3bbf88	0.18334782
1	0x3e09b420	0.13447618
2	0x3e0da13d	0.13831039
3	0x3e4e14db	0.20125143
4	0x3e53e5d5	0.20693143
5	0x3df667e5	0.12031535
6	0x3e33abbc	0.1754598
7	0x3e0dbb30	0.13840938
8	0x3e802958	0.25031543
9	0x3e447dc9	0.19188608
10	0x3e53dd9d	0.20690008
11	0x3e2e5d42	0.17027763
12	0x3ebcb410	0.36856127
13	0x3dfa647c	0.12226197
14	0x3e34f543	0.17671685
15	0x3e102ff1	0.14080788
16	0x3e190a2a	0.14945284
17	0x3e09fd70	0.13475585
18	0x3ef26bcd	0.4734787
19	0x3e22ca44	0.1589747
20	0x3ea6f8c5	0.3261167
21	0x3e239cec	0.1597783
22	0x3e3570e1	0.17718841
23	0x3e430c64	0.19047695
24	0x3e1bf65a	0.15230694
25	0x3dcada39	0.09904904
26	0x3e864be5	0.26229778
27	0x3f0c1e06	0.5473331
28	0x3e003ab6	0.12522396
29	0x3e58b116	0.21161303
30	0x3df5ec20	0.12007928
31	0x3e1f2e0d	0.1554491
32	0x3dca692b	0.098833404
33	0x3dcfb702	0.10142328
34	0x3e3c67c4	0.18398958
35	0x3e4ee7aa	0.2020556
36	0x3de2856e	0.11060606
37	0x3db948fa	0.09047122
38	0x3df885c7	0.12134891
39	0x3e1e645f	0.15467976
40	0x3e1cd59a	0.15315858
41	0x3e26b04e	0.16278192
42	0x3e030003	0.12792973
43	0x3dcc79d5	0.09984175
44	0x3e9cc3ec	0.30618227
45	0x3dd18e7c	0.10232255
46	0x3ee098af	0.43866488
47	0x3ebdcd23	0.3707057
48	0x3e232378	0.15931499
49	0x3e9f131b	0.31069264
50	0x3e2e8dc6	0.1704627
51	0x3e81f9aa	0.2538579
52	0x3ef5940e	0.4796452
53	0x3e3fef35	0.18743594
54	0x3e5c6376	0.21522316
55	0x3e228246	0.15870008
56	0x3e3630b0	0.1779201
57	0x3dbdc98c	0.09266958
58	0x3e4fed01	0.20305254
59	0x3da6d4fa	0.08146091
60	0x3e95531b	0.29164967
61	0x3e141974	0.14462835
62	0x3e014650	0.12624478
63	0x3e299459	0.16560496
64	0x3e258eee	0.16167805
65	0x3e989f7e	0.29809183
66	0x3e23a75e	0.15981814
67	0x3e478694	0.19484931
68	0x3e188b16	0.14896807
69	0x3e62031d	0.220715
70	0x3e00bf80	0.12573051
71	0x3e6b9ae7	0.2300831
72	0x3e4b41eb	0.19849364
73	0x3dc5391d	0.09630034
74	0x3e40b4c6	0.1881896
75	0x3e19e8c0	0.15030193
76	0x3e0ebaa9	0.13938393
77	0x3e0ff822	0.14059499
78	0x3e1d555e	0.15364596
79	0x3e280ff1	0.16412331
80	0x3e1f98d4	0.15585643
81	0x3e0cac50	0.13737607
82	0x3e5eee34	0.21770555
83	0x3e27de1f	0.16393326
84	0x3df31e34	0.11870995
85	0x3df777c6	0.12083392
86	0x3e84b0d6	0.25916165
87	0x3e37bf42	0.17944053
88	0x3e41ded9	0.18932666
89	0x3e12c302	0.14332202
90	0x3dd861c7	0.105655245
91	0x3e46d773	0.19418125
92	0x3e25d2b0	0.16193652
93	0x3e211d41	0.15733816
94	0x3e911fc9	0.28344563
95	0x3e38f07a	0.18060485
96	0x3df7564b	0.12077006
97	0x3e0c0817	0.13674961
98	0x3dd5a302	0.10431482
99	0x3dbcd6c1	0.092206486
100	0x3e012015	0.12609895
101	0x3e270cf3	0.16313533
102	0x3eceb93a	0.40375692
103	0x3de06023	0.109558366
104	0x3e53d162	0.20685342
105	0x3e064ce0	0.13115263
106	0x3e944ba6	0.28963965
107	0x3e841f9e	0.25805372
108	0x3ea8db90	0.32980013
109	0x3ddbcb3e	0.10732125
110	0x3e3ded1d	0.18547483
111	0x3df9c4c6	0.12195735
112	0x3eb67b30	0.3564086
113	0x3e6fe280	0.23426247
114	0x3e59c276	0.21265587
115	0x3edd5629	0.43229797
116	0x3e022da2	0.1271272
117	0x3eea3dee	0.45750374
118	0x3e236eb2	0.15960196
119	0x3e66da3e	0.2254419
120	0x3ded353e	0.11582421
121	0x3e66bd32	0.2253311
122	0x3dfb6cf8	0.122766435
123	0x3e172906	0.14761743
124	0x3e42c801	0.19021608
125	0x3ddaab68	0.106772244
126	0x3dbca119	0.092104144
127	0x3e542cf5	0.20720275
