pths/denoiser_model_2.pth (torch, 166322 bytes, 17 tensors)

conv1.weight f4 [32, 1, 3]
0.19185747 -0.32565737 0.34439307 -0.00781271 -0.4703024 0.28688663 -0.25214648 0.07429214
-0.020793302 0.102617815 0.544554 0.23826109 0.55806404 -0.22959913 -0.1930316 -0.008193937
0.231635 -0.12326606 0.3428146 0.55134046 0.4471244 0.27944013 -0.018353244 0.53584045
-0.1522224 0.2943869 -0.37249932 0.2296734 -0.48592564 -0.24514008 -0.3051695 -0.17242835
-0.2976663 -0.13248774 0.37870282 0.34350103 0.51545703 -0.11528011 -0.1683066 -0.03427918
0.20931174 -0.04433218 -0.19056481 0.18376449 -0.32344592 0.20083149 0.18724203 0.39160642
-0.3428345 -0.34067827 -0.5983617 0.4862834 -0.38067755 0.19624808 0.46483958 0.5362734
0.28255734 0.01381264 -0.41713744 -0.5121361 -0.3236274 0.09690925 0.21014789 -0.31987032
-0.48176783 0.40608793 -0.018967766 -0.30474198 0.5452754 0.15646999 -0.22908996 -0.026749102
-0.53899086 -0.24819651 0.53255814 0.15427968 -0.39015472 0.17263941 -0.13511248 -0.4205633
-0.54503846 0.39715308 0.3776455 -0.3753524 -0.47702977 0.13907966 -0.40885404 0.29998899
-0.4069277 0.14993298 0.27106604 -0.097441874 0.07131718 -0.35582754 -0.49063787 0.19088124
00000000: 4976 443e 90bc a6be 4a54 b03e e100 00bc
00000010: 7acb f0be cee2 923e 5819 81be 7a26 983d
00000020: b756 aabc 4a29 d23d e467 0b3f b7fa 733e
00000030: 49dd 0e3f 091c 6bbe 13aa 45be dd3f 06bc
00000040: ba31 6d3e eb72 fcbd 6585 af3e a624 0d3f
00000050: 7ded e43e c712 8f3e 8b59 96bc d72c 093f
00000060: 30e0 1bbe e1b9 963e 3bb8 bebe 812f 6b3e
00000070: 3fcb f8be 0006 7bbe 2d3f 9cbe 0f91 30be
00000080: b867 98be deaa 07be 56e5 c13e 5edf af3e
00000090: fef4 033f fa17 ecbd 9158 2cbe 5368 0cbd
000000a0: d155 563e a995 35bd 6c23 43be c22c 3c3e
000000b0: b49a a5be c5a6 4d3e 60bc 3f3e a380 c83e
000000c0: 0188 afbe 626d aebe 3b2e 19bf 23fa f83e
000000d0: 2be8 c2be 42f5 483e 74ff ed3e 3749 093f
000000e0: 5bab 903e 694e 623c 0a93 d5be 5a1b 03bf
000000f0: 7eb2 a5be 5b78 c63d 0231 573e 0bc6 a3be
00000100: 46aa f6be c2ea cf3e 4a62 9bbc 2407 9cbe
00000110: 2b97 0b3f ab39 203e 8f96 6abe ef20 dbbc
00000120: 4efb 09bf 3a27 7ebe bb55 083f 7efb 1d3e
00000130: 5cc2 c7be 63c8 303e ed5a 0abe 1354 d7be
00000140: a487 0bbf a657 cb3e c05a c13e 312e c0be
00000150: 3f3d f4be e66a 0e3e 5155 d1be 2898 993e
00000160: d458 d0be 0888 193e 2bc9 8a3e 9b8f c7bd
00000170: be0e 923d 072f b6be e334 fbbe 5f76 433e

conv1.bias f4 [32]
-0.103370905 0.101638466 -0.033746015 -0.48270604 -0.032304533 0.33124334 -0.03284239 -0.2513384
-0.3701537 0.4064364 -0.53033966 -0.03588 -0.33245638 0.14451785 0.05811244 0.06536206
-0.3288217 -0.21115646 -0.48577985 0.47791183 0.21189907 -0.05621177 0.09925905 -0.22626695
0.39666283 -0.16829468 0.15101923 -0.37715533 0.48196152 0.03386269 -0.11568221 -0.19053635
00000000: 20b4 d3bd d427 d03d 4339 0abd 3f25 f7be
00000010: c251 04bd ba98 a93e be85 06bd 6daf 80be
00000020: c984 bdbe 6f18 d03e 57c4 07bf e8f6 12bd
00000030: b937 aabe 7dfc 133e 4f07 6e3d 8bdc 853d
00000040: 515b a8be 6639 58be 23b8 f8be dcb0 f43e
00000050: 12fc 583e 503e 66bd 5448 cb3d 86b2 67be
00000060: 6417 cb3e 7155 2cbe c9a4 1a3e 811a c1be
00000070: a9c3 f63e 9bb3 0a3d cbea ecbd f61b 43be

bn1.weight f4 [32]
0.98002464 0.9729687 0.99480814 1.0220563 0.9825167 1.0690392 0.9988296 0.9637118
0.9633711 0.9822921 0.94644415 1.0477935 1.029496 1.0973252 0.9711486 0.9874502
0.95528567 0.96366453 1.0375139 0.9860048 1.0094537 1.0089213 0.9913137 0.9687439
0.97520477 0.97105956 0.9644461 1.0828083 0.9904882 0.98125374 0.95386785 0.9774472
00000000: e5e2 7a3f 7a14 793f bfab 7e3f bed2 823f
00000010: 3786 7b3f 47d6 883f 4cb3 7f3f d1b5 763f
00000020: 7d9f 763f 7f77 7b3f 2a4a 723f 191e 863f
00000030: 86c6 833f 2775 8c3f 329d 783f 89c9 7c3f
00000040: 9a8d 743f b8b2 763f 41cd 843f d06a 7c3f
00000050: c735 813f 5524 813f bcc6 7d3f 9aff 773f
00000060: 05a7 793f 5c97 783f f1e5 763f 7699 8a3f
00000070: a290 7d3f 7233 7b3f af30 743f fb39 7a3f

bn1.bias f4 [32]
0.02940491 0.07102355 0.10932139 0.06576489 -0.058489934 0.07634732 0.0075722057 -0.057069186
0.012171332 0.038765322 -0.018539054 0.0021159444 0.0465039 0.097695865 0.004961856 -0.0067166947
0.026611453 -0.016598122 -0.008918038 0.09567327 0.09941805 0.06404839 0.014097786 0.010209345
0.026012698 0.06292978 0.021888789 0.022945065 0.0004343865 0.06148247 0.019052384 0.07337785
00000000: 91e2 f03c cc74 913d e5e3 df3d beaf 863d
00000010: 2493 6fbd fc5b 9c3d 4420 f83b 61c1 69bd
00000020: 446a 473c 63c8 1e3d 37df 97bc a8ab 0a3b
00000030: e07a 3e3d c514 c83d 1197 a23b b817 dcbb
00000040: 4300 da3c c9f8 87bc f61c 12bc 59f0 c33d
00000050: b19b cb3d cd2b 833d 66fa 663c 1945 273c
00000060: 9518 d53c 54e1 803d 1e50 b33c 4af7 bb3c
00000070: 5ebe e339 0bd5 7b3d bf13 9c3c 2047 963d

bn1.running_mean f4 [32]
-0.083635345 0.07962075 -0.05441466 -0.3912397 -0.018284023 0.34259114 0.104804076 -0.17158942
-0.391766 0.35466656 -0.609356 0.024514897 -0.30837172 0.15862635 0.025852153 0.14444989
-0.4592881 -0.18189016 -0.35332426 0.38479963 0.20941424 -0.099783234 0.1192124 -0.23633024
0.36726904 -0.17639484 0.038850676 -0.33385083 0.40699947 0.036411818 -0.090929784 -0.25989786
00000000: 0249 abbd 3410 a33d e8e1 5ebd 9250 c8be
00000010: 60c8 95bc 1b68 af3e 85a3 d63d 23b5 2fbe
00000020: 8e95 c8be db96 b53e c1fe 1bbf 77d3 c83c
00000030: e6e2 9dbe f26e 223e e5c7 d33c acea 133e
00000040: cf27 ebbe 6a41 3abe ebe6 b4be 7504 c53e
00000050: b070 563e 275b ccbd a125 f43d 8e00 72be
00000060: b00a bc3e d9a0 34be e321 1f3d 7fee aabe
00000070: 3c62 d03e 8f24 153d 6539 babd 5511 85be

bn1.running_var f4 [32]
0.276235 0.3248215 0.07813078 0.47372848 0.42365068 0.07376015 0.85026646 0.4433754
0.26366556 0.39966998 0.284301 0.33592182 0.32797268 0.051695745 0.19136159 0.30429053
0.79471505 0.44458205 0.7940285 0.5533183 0.1676246 0.5477478 0.41376242 0.082492344
0.6814247 0.21622582 0.650333 0.48580357 0.48390824 0.29099238 0.09734872 0.4768333
00000000: ad6e 8d3e 014f a63e 0803 a03d 8a8c f23e
00000010: bee8 d83e 900f 973d 10ab 593f 1a02 e33e
00000020: 2cff 863e 8ba1 cc3e e78f 913e f2fd ab3e
00000030: 09ec a73e ebbe 533d 4bf4 433e f8cb 9b3e
00000040: 7272 4b3f 42a0 e33e 7445 4b3f 45a6 0d3f
00000050: c8a5 2b3e 3339 0c3f abd8 d33e bff1 a83d
00000060: d971 2e3f 4d6a 5d3e 397c 263f 3fbb f83e
00000070: d2c2 f73e f4fc 943e c45e c73d 7f23 f43e

conv2.weight f4 [64, 32, 3]
-0.020444173 -0.033623077 -0.024853578 0.043864448 0.08442323 0.008137665 -0.038250644 0.06354415
-0.07424209 0.120148085 0.004589394 0.047682595 -0.026771728 -0.100059345 -0.048883587 0.08946647
-0.010377094 0.009840405 0.02577965 -0.04410739 -0.098737895 -0.007877687 0.044035636 0.08084108
0.08397838 0.052664332 -0.041091483 0.053834 0.013785265 -0.09681947 -0.032737277 -0.08694468
0.10741555 -0.06528163 -0.035156712 0.051196907 0.047406696 -0.05319904 -0.066400245 0.10241152
-0.045405965 0.00441782 -0.038468037 -0.039403863 -0.07655287 -0.12545727 -0.08130819 -0.09487988
0.04278559 0.06032951 -0.0855603 -0.06497383 -0.009341387 0.01632374 0.13571577 0.054038975
-0.06614357 -0.0393337 -0.033201665 -0.055977073 0.03277951 -0.0034942988 0.009019638 0.043316346
-0.009008069 -0.094906 -0.056809474 -0.0589345 0.06356042 0.025629463 -0.039208114 0.03702455
-0.043873068 0.040253118 0.08682417 -0.012160514 -0.099924 -0.0067732134 0.01922707 0.083715655
-0.059175972 0.13697056 -0.041809373 0.06530748 -0.16531101 0.07432073 0.1167076 -0.06212197
-0.043946594 0.030366236 0.021709537 -0.025063455 0.01826212 -0.09716991 0.07744875 0.06793128
0.033896666 0.027376648 0.036371756 -0.13226849 -0.05668219 0.03876359 0.047816534 -0.06278621
-0.097677216 -0.03955673 -0.030308276 0.047205407 0.072325714 -0.023976408 0.0039031927 -0.0030051747
-0.04065144 -0.104714304 -0.03777705 0.09387659 -0.08251999 0.015297527 -0.054061666 0.09810782
-0.07590394 0.05498761 -0.045512427 -0.030153187 0.013763706 0.05408117 0.013249783 0.058943134
-0.08717937 0.086993314 -0.09358856 0.030321712 0.036083676 -0.011662306 -0.08233616 0.09993944
-0.057265893 -0.15875089 0.022248432 0.058585353 0.04741476 0.016756183 -0.034800064 0.07857414
-0.062057875 -0.042361684 -0.0022675074 0.035433274 -0.018718058 -0.047867496 0.006528315 0.097137496
-0.07419749 0.08751206 0.013688466 -0.0535848 0.11353877 -0.0048045903 -0.061317135 -0.08560012
-0.06358545 0.11913547 -0.059098713 -0.12133998 0.038263142 -0.06262938 0.024092706 0.08832773
-0.023162091 -0.08159524 0.1263101 -0.069441676 -0.0088670775 -0.030790448 -0.069634154 0.059506826
0.09845866 0.003939798 0.08164509 0.055962596 0.054420028 -0.018371595 -0.072321646 -0.04951311
0.039421715 0.0024073625 0.07490837 0.0015939873 0.08526255 0.0050439425 -0.055148844 -0.007922526
0.026802711 0.048623104 -0.07886137 0.013156129 -0.035280928 -0.053210117 -0.08845554 0.0016102793
-0.008176881 -0.0013415876 0.048230533 0.056114443 0.028942417 -0.028076578 0.01886628 -0.18253003
-0.12061663 0.09950558 0.0023071999 -0.08077525 -0.040352393 0.03657146 0.108188756 -0.004473052
-0.049917113 -0.10442096 -0.005116198 -0.020664653 -0.036708534 0.013948512 0.12681451 0.039997183
0.0057601845 -0.008807816 0.058301482 -0.112284325 0.051315863 0.032133058 0.003909172 -0.17735137
-0.045064602 0.11868805 0.00047463196 0.08585637 0.11609003 0.032180052 0.015313523 -0.100447915
0.079572484 -0.015712991 -0.01649139 -0.013154453 0.019166267 0.03776926 0.037156954 -0.005527633
-0.098499835 -0.021963466 0.06548352 -0.03941481 0.014082685 -0.13262181 -0.012719727 -0.03458817
00000000: 8a7a a7bc 5ab8 09bd bb99 cbbc 35ab 333d
00000010: 16e6 ac3d d753 053c b5ac 1cbd 6f23 823d
00000020: 3d0c 98bd 3310 f63d a162 963b d34e 433d
00000030: 6250 dbbc eaeb ccbd 283a 48bd 323a b73d
00000040: b004 2abc a639 213c d82f d33c f3a9 34bd
00000050: 1837 cabd 6a11 01bc b65e 343d 0290 a53d
00000060: dbfc ab3d 8eb6 573d 8b4f 28bd 0a81 5c3d
00000070: 98db 613c 4949 c6bd 8617 06bd 0d10 b2bd
00000080: affc db3d 60b2 85bd 7c00 10bd d9b3 513d
00000090: 862d 423d 3de7 59bd dafc 87bd 22bd d13d
000000a0: 9bfb 39bd 5cc3 903b a990 1dbd f265 21bd
000000b0: c0c7 9cbd df77 00be e984 a6bd 6250 c2bd
000000c0: f13f 2f3d 141c 773d 3d3a afbd 0011 85bd
000000d0: 9e0c 19bc 5db9 853c 13f9 0a3e f957 5d3d
000000e0: 4876 87bd 601c 21bd 78fe 07bd 3748 65bd
000000f0: cf43 063d 9b00 65bb 1bc7 133c 7b6c 313d
00000100: 9496 13bc 145e c2bd 0db1 68bd 4d65 71bd
00000110: f72b 823d e1f4 d13c b098 20bd 0ea7 173d
00000120: 3fb4 33bd 74e0 243d dfd0 b13d e43c 47bc
00000130: f4a4 ccbd d5f1 ddbb 1782 9d3c 1d73 ab3d
00000140: 8162 72bd 0342 0c3e 4e40 2bbd eebf 853d
00000150: 4a47 29be 7835 983d 6504 ef3d 9b73 7ebd
00000160: 5801 34bd 9dc2 f83c 33d8 b13c e051 cdbc
00000170: 719a 953c 0501 c7bd 739d 9e3d 8e1f 8b3d
00000180: 3bd7 0a3d fe44 e03c 8dfa 143d 6471 07be
00000190: 962b 68bd 92c6 1e3d 45db 433d 0e96 80bd
000001a0: fe0a c8bd 3d06 22bd 1049 f8bc 755a 413d
000001b0: 811f 943d 2c6a c4bc b5cc 7f3b 77f2 44bb
000001c0: 2082 26bd 7474 d6bd 1cbc 1abd 5f42 c03d
000001d0: 3e00 a9bd 7ba2 7a3c c46f 5dbd c1ec c83d
000001e0: 8673 9bbd b03a 613d 3d6b 3abd d103 f7bc
000001f0: 2b81 613c 3884 5d3d 9e15 593c 5b6e 713d
00000200: 198b b2bd 8d29 b23d 5cab bfbd 3d65 f83c
00000210: 7acc 133d 4213 3fbc dc9f a8bd 0dad cc3d
00000220: a48f 6abd 988f 22be 5842 b63c 32f7 6f3d
00000230: fb35 423d 4344 893c 838a 0ebd 7beb a03d
00000240: 6630 7ebd 7283 2dbd 769a 14bb 7b22 113d
00000250: 9d56 99bc b510 44bd 7aeb d53b 06f0 c63d
00000260: dbf4 97bd 8639 b33d 9645 603c bc7b 5bbd
00000270: 0487 e83d d36f 9dbb ad27 7bbd 1e4f afbd
00000280: 1739 82bd 4cfd f33d 7e11 72bd 1881 f8bd
00000290: d0b9 1c3d d543 80bd 115e c53c 2be5 b43d
000002a0: 6dbe bdbc 681b a7bd 6f57 013e 7037 8ebd
000002b0: 3847 11bc 403c fcbc 5a9c 8ebd 6ebd 733d
000002c0: b2a4 c93d 6c19 813b 8a35 a73d 0939 653d
000002d0: 89e7 5e3d 0780 96bc 5f1d 94bd 42ce 4abd
000002e0: aa78 213d d7c4 1d3b 8f69 993d 57ed d03a
000002f0: 229e ae3d a847 a53b c1e3 61bd 7ccd 01bc
00000300: 5c91 db3c 0529 473d 1282 a1bd ce8c 573c
00000310: bc82 10bd daf2 59bd 2e28 b5bd 0210 d33a
00000320: 53f8 05bc 36d8 afba 618d 453d 42d8 653d
00000330: a618 ed3c da00 e6bc 758d 9a3c 27e9 3abe
00000340: da05 f7bd 95c9 cb3d 6434 173b 7f6d a5bd
00000350: 8d48 25bd f5cb 153d 1192 dd3d ae92 92bb
00000360: e375 4cbd a8da d5bd c8a5 a7bb eb48 a9bc
00000370: b05b 16bd 4d88 643c aadb 013e 16d4 233d
00000380: eebf bc3b a84e 10bc 89cd 6e3d 53f5 e5bd
00000390: 9530 523d f49d 033d 8318 803b 999b 35be
000003a0: a995 38bd b812 f33d 06d8 f839 77d5 af3d
000003b0: 9cc0 ed3d 3bcf 033d 92e5 7a3c a3b7 cdbd
000003c0: e6f6 a23d 88b8 80bc f418 87bc c685 57bc
000003d0: 9302 9d3c f1b3 1a3d e431 183d 2521 b5bb
000003e0: 48ba c9bd baec b3bc 391c 863d 6c71 21bd
000003f0: 10bb 663c 03ce 07be 6766 50bc 53ac 0dbd

conv2.bias f4 [64]
-0.015274049 -0.011794375 -0.04979859 -0.03451399 0.011550408 0.09767013 -0.05030696 -0.05750824
0.09223191 -0.03420557 0.0012339901 -0.09609183 0.049993444 0.057588935 0.0779772 -0.03637414
-0.034765527 -0.011588442 -0.0596812 -0.10079909 -0.10066758 -0.050462343 -0.071777575 -0.020093914
-0.093390375 -0.06438796 -0.028334001 0.02717178 -0.08707967 0.031038918 0.009724119 -0.072081365
0.0326303 0.0009275915 0.048476294 -0.009863455 0.04510145 0.08080528 -0.074817464 0.084522165
-0.09913246 -0.063250296 0.097997695 -0.07093998 0.045615736 -0.09162165 0.10023099 -0.028179847
0.08135757 -0.04653002 0.030908514 -0.07909821 -0.094382524 -0.09170837 0.03477289 0.08996471
-0.01431691 0.08908509 -0.0819485 -0.06901606 0.031332478 -0.07579174 -0.030866288 -0.0942354
00000000: 0140 7abc 323d 41bc 9bf9 4bbd 8b5e 0dbd
00000010: ec3d 3d3c 4707 c83d ac0e 4ebd c38d 6bbd
00000020: 15e4 bc3d 241b 0cbd d6bd a13a cbcb c4bd
00000030: edc5 4c3d 60e2 6b3d 83b2 9f3d 0dfd 14bd
00000040: 4c66 0ebd 73dd 3dbc 4674 74bd c16f cebd
00000050: ce2a cebd 9ab1 4ebd 1f00 93bd fe9b a4bc
00000060: 7443 bfbd d6dd 83bd b51c e8bc 5a97 de3c
00000070: d356 b2bd 5445 fe3c e951 1f3c 659f 93bd
00000080: 59a7 053d 9d29 733a 148f 463d 549a 21bc
00000090: 4cbc 383d 3d7d a53d e639 99bd f519 ad3d
000000a0: f605 cbbd 5f89 81bd 04b3 c83d fb48 91bd
000000b0: 91d7 3a3d 22a4 bbbd e845 cd3d 6cd9 e6bc
000000c0: cc9e a63d 4396 3ebd da33 fd3c 3efe a1bd
000000d0: a04b c1bd 99d1 bbbd 056e 0e3d 6b3f b83d
000000e0: 7991 6abc 3e72 b63d 9dd4 a7bd 4b58 8dbd
000000f0: 7c56 003d b338 9bbd 4cdb fcbc 7dfe c0bd

bn2.weight f4 [64]
1.0645852 1.0665634 1.0420077 1.0381305 1.0545062 1.0593163 1.0502136 1.062843
1.0132587 1.0270866 1.0659516 1.0382904 1.0497149 1.0279645 1.0454789 1.0432653
1.0661385 1.0324599 1.0800773 1.0398642 1.0495743 1.0573919 1.0317783 1.0505329
1.0434617 1.0538963 1.0536525 1.0515684 1.0571692 1.0808566 1.0428354 1.0469342
1.0863155 1.0783927 1.0290574 1.0493573 1.0501479 1.0586529 1.0734311 1.0543528
1.0593507 1.0595832 1.0854963 1.0637996 1.0450411 1.0314181 1.0180446 1.0352286
1.0700876 1.038154 1.0643296 1.0686885 1.0772402 1.0644984 1.0457548 1.0523958
1.0158165 1.042465 1.0553932 1.0747719 1.0587827 1.0338962 1.0718974 1.0657328
00000000: 5444 883f 2685 883f 8260 853f 76e1 843f
00000010: 0ffa 863f ad97 873f 666d 863f 3d0b 883f
00000020: 76b2 813f 9377 833f 1a71 883f b3e6 843f
00000030: 0f5d 863f 5794 833f 41d2 853f b889 853f
00000040: 3a77 883f a527 843f f93f 8a3f 451a 853f
00000050: 7358 863f 9e58 873f 5011 843f dd77 863f
00000060: 2790 853f 13e6 863f 16de 863f cb99 863f
00000070: 5251 873f 8259 8a3f a17b 853f f101 863f
00000080: 630c 8b3f c608 8a3f 27b8 833f 5751 863f
00000090: 3f6b 863f f081 873f 3166 893f 08f5 863f
000000a0: ce98 873f 6ca0 873f 8bf1 8a3f 962a 883f
000000b0: e8c3 853f 8205 843f 494f 823f 5f82 843f
000000c0: a1f8 883f 3be2 843f f43b 883f c9ca 883f
000000d0: 02e3 893f 7c41 883f 4bdb 853f e8b4 863f
000000e0: 4606 823f 7e6f 853f 2017 873f 2092 893f
000000f0: 3186 873f b656 843f ef33 893f ef69 883f

bn2.bias f4 [64]
0.0458008 0.05765009 0.036428098 0.053506307 0.016819863 0.031627923 0.025487088 0.029660098
0.017926674 0.026058963 0.023852175 0.02445028 -0.0044914572 0.013789105 0.014101434 0.043828517
0.038183525 0.021367675 0.031832997 0.0045241695 0.023102395 0.044263043 0.014472274 0.045505956
0.035097383 0.040419452 0.032388397 0.061142575 0.02071089 0.07162079 0.042097546 0.026881037
0.04648826 0.044418775 0.011630436 0.023588656 0.03989045 0.030467814 0.04087649 0.03402171
0.016739571 0.021721048 0.07606941 0.021349967 0.021961039 0.0055495203 0.0035453213 0.023105111
0.052158713 0.025801908 0.027289778 0.05973029 0.07180515 0.036204927 0.026583286 0.02405522
0.026447888 0.03586944 0.028046316 0.058461636 0.026795521 0.016590659 0.041387722 0.03319144
00000000: 9f99 3b3d 8022 6c3d a135 153d 6e29 5b3d
00000010: cfc9 893c 488c 013d 4cca d03c bcf9 f23c
00000020: f6da 923c 9b79 d53c a365 c33c f44b c83c
00000030: 132d 93bb b3eb 613c b309 673c 8885 333d
00000040: 5466 1c3d 430b af3c 5163 023d 7c3f 943b
00000050: 3c41 bd3c 2a4d 353d 1e1d 6d3c 7464 3a3d
00000060: 46c2 0f3d de8e 253d b2a9 043d a370 7a3d
00000070: e2a9 a93c ecad 923d 7a6e 2c3d 9f35 dc3c
00000080: 796a 3e3d 76f0 353d 968d 3e3c ff3c c13c
00000090: 2b64 233d a397 f93c 1b6e 273d 595a 0b3d
000000a0: 6d21 893c 57f0 b13c 47ca 9b3d 20e6 ae3c
000000b0: a3e7 b33c c0d8 b53b 9f58 683b ee46 bd3c
000000c0: 60a4 553d 865e d33c d08e df3c c0a7 743d
000000d0: 940e 933d 9e4b 143d 31c5 d93c 740f c53c
000000e0: 3ea9 d83c d5eb 123d 63c1 e53c 7875 6f3d
000000f0: 4882 db3c 22e9 873c 2c86 293d bff3 073d

bn2.running_mean f4 [64]
-0.18452984 -0.19113192 -0.62069196 -0.6493902 -0.16872033 0.3249041 -1.2382234 -0.06533404
-0.29426226 0.0006481544 -0.34391305 -0.2609657 -0.35643783 0.0405228 -0.16992459 -0.051045053
0.21332686 -0.23218323 -0.33127984 -0.36275524 -0.2074377 0.16007407 -0.26257825 -0.1895005
0.2238697 -0.16929577 -0.26092288 -0.43784598 -0.17042422 -0.22684863 0.48778614 -0.23527363
0.02433975 -0.26857984 -0.5229293 -0.65708834 -0.77704024 -0.15024295 -0.068797715 0.14875253
-0.6182985 -0.4446853 -0.05140687 -0.00915372 -0.2021683 -0.4266686 0.15762977 -1.0559646
0.27300954 -0.5267967 -0.06331615 -0.2766773 -0.18383595 -0.057200942 -0.48088378 0.06907326
-0.3449434 -0.021464521 -0.49891582 -0.0025639124 -0.0025062778 -0.57844085 0.39066032 -0.45798355
00000000: 64f5 3cbe 16b8 43be abe5 1ebf 703e 26bf
00000010: 06c5 2cbe d559 a63e 1b7e 9ebf dacd 85bd
00000020: 8ba9 96be e8e8 293a 5f15 b0be 4c9d 85be
00000030: 057f b6be 3cfb 253d b600 2ebe 9e14 51bd
00000040: 5b72 5a3e 71c1 6dbe 839d a9be 0ebb b9be
00000050: 8c6a 54be 75ea 233e a870 86be 6b0c 42be
00000060: 193e 653e df5b 2dbe af97 85be 592d e0be
00000070: b083 2ebe 024b 68be 1bbf f93e 92eb 70be
00000080: 2864 c73c 4c83 89be b2de 05bf f136 28bf
00000090: 1cec 46bf 4ad9 19be d1e5 8cbd 9552 183e
000000a0: cf48 1ebf cbad e3be 0390 52bd 7cf9 15bc
000000b0: 3505 4fbe 4f74 dabe b369 213e d929 87bf
000000c0: e8c7 8b3e 26dc 06bf e6ab 81bd a6a8 8dbe
000000d0: 7e3f 3cbe 894b 6abd 6636 f6be 4876 8d3d
000000e0: 6c9c b0be 5dd6 afbc e571 ffbe 5007 28bb
000000f0: 5d40 24bb b314 14bf a104 c83e d27c eabe

bn2.running_var f4 [64]
0.21595743 0.2971145 0.2551394 0.5463422 0.22109304 0.2676744 0.40251866 0.15116093
0.4777464 0.38443786 0.20328672 0.21949007 0.13234761 0.26616177 0.25619653 0.2848313
0.1648128 0.20723931 0.18914841 0.17871846 0.25774136 0.3063132 0.24380231 0.33493045
0.25983706 0.4057222 0.24605523 0.42488828 0.31314993 0.17724998 0.43136942 0.14877059
0.18776506 0.18863538 0.31459248 0.27298957 0.26294234 0.16509558 0.23013811 0.1764665
0.29921055 0.15111406 0.23979254 0.2698711 0.23169672 0.34646767 0.20246755 0.33291435
0.20977126 0.15562497 0.2779512 0.13996242 0.10386605 0.18670315 0.2479607 0.20895945
0.38487542 0.20998386 0.27013835 0.26998842 0.23089239 0.3534383 0.18333729 0.37505427
00000000: f223 5d3e 641f 983e a2a1 823e 15dd 0b3f
00000010: 3766 623e 9e0c 893e ed16 ce3e eec9 1a3e
00000020: 2d9b f43e 0ad5 c43e 652a 503e 01c2 603e
00000030: 2286 073e 5b46 883e 312c 833e 68d5 913e
00000040: b0c4 283e 8b36 543e 1fb0 413e f901 373e
00000050: adf6 833e 15d5 9c3e 50a7 793e 017c ab3e
00000060: 5d09 853e d2ba cf3e e7f5 7b3e f58a d93e
00000070: 3055 a03e 0581 353e 74dc dc3e 5157 183e
00000080: 7c45 403e a229 413e 4412 a13e 4ac5 8b3e
00000090: 61a0 863e d10e 293e 53a9 6b3e a2b3 343e
000000a0: 2032 993e a5bd 1a3e 2d8c 753e 8b2c 8a3e
000000b0: e841 6d3e 3664 b13e a753 4f3e c073 aa3e
000000c0: 47ce 563e 275c 1f3e 9f4f 8e3e 4f52 0f3e
000000d0: b9b7 d43d 1c2f 3f3e 69e9 7d3e 77f9 553e
000000e0: 640e c53e 0206 573e 934f 8a3e ec3b 8a3e
000000f0: 0e6f 6c3e ddf5 b43e c5bc 3b3e 1d07 c03e

t_conv1.weight f4 [64, 128, 2]
0.029396858 0.00046005598 -0.0047628433 -0.0041397475 0.05319831 -0.047232766 0.020135999 0.008654423
0.108616464 0.041292112 0.04353613 0.07499268 -0.041867916 -0.020503506 0.014336784 0.0024504121
0.02937186 0.07613561 -0.04323602 0.048694447 0.0669106 0.015742518 0.01603971 -0.008807636
0.094056115 0.0013554408 0.000994064 0.05294064 0.009101214 0.08822197 0.018492974 0.020567648
0.12673153 0.010076908 -0.0038985594 0.092713624 0.04047671 0.021546671 0.042082876 -0.008288455
-0.10695386 0.05870874 -0.03201252 0.023465814 -0.10274894 0.06950586 -0.023018029 0.050504792
-0.026811408 0.05721108 -0.07574221 0.026111543 0.0013212628 0.030396817 -0.077737674 0.09535894
0.08635306 -0.019332796 -0.07020751 0.014812237 0.009531548 0.03176362 0.01042616 0.07815081
0.027695792 -0.033544287 0.0037057693 0.05647429 0.09165184 -0.0027558678 -0.067494415 0.05920268
0.01898813 -0.014142677 0.060025156 0.08918332 0.02472248 0.10033966 -0.015840042 -0.0592589
0.008725328 0.0704647 0.06778702 0.02719471 0.07071298 0.028929858 -0.047363296 0.014605975
0.0570432 -0.03059624 -0.07050595 0.021100065 -0.028053552 0.10858122 -0.004580065 -0.08154142
-0.0050308895 -0.0022659453 -0.04488816 -0.017779857 0.059744954 -0.03228868 -0.02211182 0.016166138
0.018500859 0.07342946 -0.021311667 -0.0096996175 0.006469821 0.027672358 0.024726031 0.01650895
-0.05075825 0.08367766 0.051457237 0.029283786 -0.025695778 0.041184444 -0.0061124903 0.06299433
-0.053689323 0.09778109 0.10991733 -0.06379722 0.06268231 0.07866946 0.051690117 -0.049255658
-0.07430262 0.05010106 0.015580585 0.00080710615 -0.023411384 0.0567751 -0.06104461 -0.07408507
0.06147839 0.04487681 0.07641607 -0.009618891 0.010530246 0.01590453 -0.04013932 0.03314127
-0.010052041 0.07618432 -0.03852159 0.09074159 0.017677432 -0.005980572 0.05519111 -0.03098333
-0.012406821 -0.0068049924 -0.0044053774 -0.011737392 0.012238237 0.014952313 -0.029286098 -0.012683814
0.05403029 -0.04403844 0.040872235 -0.06980926 0.0875615 0.026734382 0.009442617 -0.021305269
-0.022421153 0.093319595 -0.026344443 0.093524165 0.0153614115 0.014492157 -0.046695136 0.08415544
0.09180099 -0.035296325 0.06889336 -0.033821736 0.06254874 -0.012951999 -0.00017769617 0.018051695
-0.050781228 0.02721148 0.047023796 -0.049119573 -0.047417376 -0.008379959 0.061431885 -0.026851974
0.058590565 -0.02626786 -0.025877455 0.09973944 0.028232036 0.092952296 0.021279758 0.0027113673
0.045842428 0.08581813 -0.021593545 0.058231175 0.04098958 0.049823683 0.04500015 -0.042865835
0.017099893 -0.038577307 -0.056391176 0.045525562 0.08418436 0.044656143 -0.026748454 -0.056723982
-0.050356183 -0.003250363 -0.0998838 0.063591965 -0.010951976 0.012008069 0.0119148195 -0.015646003
0.050351176 0.030007059 -0.026584916 0.093195595 -0.0009988149 -0.016170453 0.022548541 -0.006602155
0.059342477 0.015987094 0.057963658 -0.0568263 0.12077939 -0.08964835 -0.010412779 0.0796613
-0.007894434 0.09921846 -0.0005166286 0.087352104 -0.044821255 0.032612145 0.061533548 0.05413577
0.05260493 0.057423998 -0.07670603 0.033995982 -0.018105702 0.057216175 0.042624507 -0.006305641
00000000: aed1 f03c ab33 f139 a011 9cbb b8a6 87bb
00000010: 79e6 593d 2577 41bd 40f4 a43c 48cb 0d3c
00000020: 4f72 de3d eb21 293d f152 323d c395 993d
00000030: b17d 2bbd f8f6 a7bc d5e4 6a3c 1897 203b
00000040: 419d f03c fdec 9b3d 4118 31bd d473 473d
00000050: 6d08 893d 74f6 803c b665 833c e74d 10bc
00000060: 7ea0 c03d 0ca9 b13a 414b 823a 49d8 583d
00000070: 421d 153c b8ad b43d 947e 973c 7c7d a83c
00000080: e9c5 013e 9e19 253c f97e 7fbb a4e0 bd3d
00000090: e8ca 253d a582 b03c 185f 2c3d 4dcc 07bc
000000a0: a00a dbbd 9378 703d 8f1f 03bd 613b c03c
000000b0: 096e d2bd 1759 8e3d 4e90 bcbc 1dde 4e3d
000000c0: 99a3 dbbc 2a56 6a3d bb1e 9bbd e0e7 d53c
000000d0: 392e ad3a bf02 f93c ee34 9fbd 8c4b c33d
000000e0: e0d9 b03d d05f 9ebc f4c8 8fbd 06af 723c
000000f0: 362a 1c3c 921a 023d 7cd2 2a3c 880d a03d
00000100: 49e2 e23c bc65 09bd 7edc 723b 9651 673d
00000110: f6b3 bb3d ca9b 34bb 833a 8abd 827e 723d
00000120: ff8c 9b3c b0b6 67bc f0dc 753d bfa5 b63d
00000130: cc86 ca3c e17e cd3d fac2 81bc 76b9 72bd
00000140: aef4 0e3c cc4f 903d ecd3 8a3d 71c7 de3c
00000150: f8d1 903d 4ffe ec3c 0400 42bd e64d 6f3c
00000160: 21a6 693d f7a4 fabc 6c65 90bd 0bda ac3c
00000170: 90d0 e5bc d55f de3d 5f14 96bb 30ff a6bd
00000180: 29da a4bb 4180 14bb a6dc 37bd 10a7 91bc
00000190: 20b7 743d 2341 04bd d923 b5bc d96e 843c
000001a0: 1d8f 973c 2f62 963d ce95 aebc 25eb 1ebc
000001b0: cb00 d43b 24b1 e23c 3f8e ca3c c73d 873c
000001c0: e2e7 4fbd 315f ab3d d3c4 523d 8de4 ef3c
000001d0: f47f d2bc 05b1 283d 494b c8bb 2c03 813d
000001e0: 56e9 5bbd 7441 c83d 561c e13d 1ea8 82bd
000001f0: 955f 803d 741d a13d 04b9 533d 4dc0 49bd
00000200: f92b 98bd c536 4d3d b645 7f3c fa93 533a
00000210: 3bc9 bfbc 028d 683d ea09 7abd eab9 97bd
00000220: c4d0 7b3d bfd0 373d 0780 9c3d 8e98 1dbc
00000230: 0e87 2c3c 384a 823c 2169 24bd 24bf 073d
00000240: 51b1 24bc 8606 9c3d d1c8 1dbd bad6 b93d
00000250: 43d0 903c adf8 c3bb 1310 623d c1d0 fdbc
00000260: fb45 4bbc 6afc debb fc5a 90bb 314e 40bc
00000270: e382 483c 8cfa 743c 66e9 efbc c6cf 4fbc
00000280: de4e 5d3d a761 34bd a569 273d 28f8 8ebd
00000290: 7253 b33d 1002 db3c 35b5 1a3c 6388 aebc
000002a0: 91ac b7bc 581e bf3d 4dd0 d7bc 9989 bf3d
000002b0: 6eae 7b3c 8370 6d3c 6643 3fbd b059 ac3d
000002c0: 2802 bc3d e192 10bd f617 8d3d a988 0abd
000002d0: 8e19 803d 9f34 54bc f453 3ab9 26e1 933c
000002e0: faff 4fbd 9cea de3c 069c 403d 9b31 49bd
000002f0: b938 42bd 184c 09bc 00a0 7b3d acf8 dbbc
00000300: a9fc 6f3d b22f d7bc f5fc d3bc 3144 cc3d
00000310: df46 e73c c65d be3d e352 ae3c 32b1 313b
00000320: 45c5 3b3d 6ac1 af3d f2e4 b0bc d083 6e3d
00000330: b1e4 273d eb13 4c3d 1452 383d 1694 2fbd
00000340: 1315 8c3c 3d03 1ebd 6ffa 66bd 0379 3a3d
00000350: da68 ac3d 5ce9 363d 931f dbbc 6857 68bd
00000360: 4942 4ebd 0b04 55bb e18f ccbd 813c 823d
00000370: eb6f 33bc 7ebd 443c 6036 433c 0c2c 80bc
00000380: 093d 4e3d 5dd1 f53c 9cc8 d9bc 55dd be3d
00000390: abea 82ba e677 84bc b8b7 b83c e456 d8bb
000003a0: 1911 733d 5ef7 823c 4d6b 6d3d b2c2 68bd
000003b0: 2f5b f73d 8e99 b7bd 5c9a 2abc 7725 a33d
000003c0: a857 01bc 0c33 cb3d 5c6e 07ba a9e5 b23d
000003d0: 7e96 37bd 5094 053d 9a0a 7c3d 78bd 5d3d
000003e0: 4478 573d 6d35 6b3d 0d18 9dbd 5f3f 0b3d
000003f0: 6952 94bc 825b 6a3d 0997 2e3d 8d9f cebb

t_conv1.bias f4 [128]
0.001765631 -0.029276785 0.055267118 0.027267076 0.0017128874 0.033899 -0.01873293 0.00051613053
-0.01763756 0.016463034 0.027451938 0.06671981 0.0006751172 0.0046148365 0.021621196 0.017916271
0.05481089 -0.039288122 -0.013998162 0.050962884 0.08980663 -0.03239207 0.092087425 -0.0117868455
-0.01235499 0.010843693 -0.029783893 0.034260366 -0.030615337 0.01890498 -0.018480606 0.014138478
0.014617104 -0.02795917 0.085239336 0.08120356 0.0667617 0.06692136 0.066945665 0.008626653
0.0036878753 0.018481532 0.09945407 -0.045900308 0.0030305132 0.05019935 0.0001913238 0.023711026
0.045365598 0.0046396805 -0.021454768 0.035410244 -0.019179365 -0.0154986065 0.03426232 -0.0002891255
0.021199867 0.040712956 0.031427532 -0.013694919 -0.011805561 0.106996015 0.024341917 0.017492633
0.008808232 0.03241408 -0.0006207345 0.03612343 0.012165959 0.04703707 -0.041175794 0.050207578
0.022560729 -0.015286519 -0.051614042 -0.04336124 -0.05754253 0.039338846 0.007580981 -0.022311324
-0.03999211 0.051450323 0.0477177 0.042736005 -0.009805955 0.0108308485 -0.008632433 -0.034354262
0.042584594 0.003400542 0.05764018 0.0032093462 -0.064180255 -0.032821067 0.019715112 -0.02064105
0.08506815 0.0049066604 -0.014215116 -0.007468145 0.0046535335 0.041270792 0.047061034 0.016988821
0.062658474 -0.012298258 -0.04633412 -0.038939852 -0.0030668564 0.034716506 -0.023766808 -0.022553207
-0.044474542 0.054987933 -0.0041836593 0.002977653 0.012608591 -0.024768751 0.07094664 0.04844256
0.01022638 0.102286495 -0.029020635 0.04077717 0.06042556 -0.04453418 -0.037455343 -0.024188278
00000000: bf6c e73a ded5 efbc c65f 623d 345f df3c
00000010: f782 e03a aed9 0a3d cd75 99bc ef4c 073a
00000020: a57c 90bc 7cdd 863c e3e2 e03c 65a4 883d
00000030: 59fa 303a 0e38 973b ef1e b13c 25c5 923c
00000040: 6281 603d 95ec 20bd 8c58 65bc 75be 503d
00000050: 8aec b73d 8cad 04bd 5598 bc3d 9d1d 41bc
00000060: 956c 4abc bfa9 313c 5afd f3bc 9954 0c3d
00000070: 04cd fabc 9ede 9a3c a464 97bc 13a5 673c
00000080: 947c 6f3c a10a e5bc f691 ae3d 0d4e a63d
00000090: 5cba 883d 110e 893d cf1a 893d ce56 0d3c
000000a0: 48b0 713b 9566 973c 93ae cb3d f601 3cbd
000000b0: 939b 463b d59d 4d3d 179e 4839 a03d c23c
000000c0: 47d1 393d 7608 983b e9c1 afbc 550a 113d
000000d0: 0b1e 9dbc deed 7dbc a556 0c3d c595 97b9
000000e0: 58ab ad3c a1c2 263d 28ba 003d a760 60bc
000000f0: 1d6c 41bc ba20 db3d b368 c73c b64c 8f3c
00000100: 6750 103c a0c4 043d cab8 22ba 29f6 133d
00000110: bb53 473c f1a9 403d f3a7 28bd 76a6 4d3d
00000120: 47d1 b83c 4f74 7abc 3f69 53bd 8e9b 31bd
00000130: b7b1 6bbd c521 213d e169 f83b 3dc6 b6bc
00000140: c4ce 23bd 93bd 523d a373 433d f30b 2f3d
00000150: 28a9 20bc df73 313c 0c6f 0dbc 0eb7 0cbd
00000160: 2f6d 2e3d a1db 5e3b 1c18 6c3d e553 523b
00000170: f070 83bd 626f 06bd 9681 a13c 6b17 a9bc
00000180: 3638 ae3d 0dc8 a03b 85e6 68bc 57b7 f4bb
00000190: ab7c 983b 900b 293d 12c3 403d 242c 8b3c
000001a0: 1653 803d a27e 49bc d9c8 3dbd 657f 1fbd
000001b0: 50fd 48bb e532 0e3d 9cb2 c2bc 81c1 b8bc
000001c0: f02a 36bd 073b 613d 1417 89bb ba24 433b
000001d0: 4394 4e3c d6e7 cabc 794c 913d b56b 463d
000001e0: 8c8c 273c 957b d13d afbc edbc f605 273d
000001f0: cb80 773d 7969 36bd c66a 19bd 7f26 c6bc

t_conv2.weight f4 [128, 64, 2]
-0.05793654 0.067327514 -0.027335051 -0.017357102 -0.009789505 -0.023263931 0.0045797206 -0.07917806
0.039453276 0.08463583 -0.024330974 0.021704452 0.05493902 0.032986943 0.015799638 0.07873745
0.041653004 -0.0748657 -0.083942674 0.072088145 0.08842363 0.09306912 0.024406748 -0.054240625
-0.024769543 0.039661054 0.12955853 0.0025172164 -0.05600079 -0.026668044 -0.08202966 -0.029229373
0.10452523 0.047962695 0.06631135 -0.018447509 0.054602116 0.059493273 0.10013922 0.011611911
0.031740095 0.08672929 -0.043559603 -0.010435286 0.023740422 -0.08332341 0.0803956 0.03073909
0.0008324607 -0.0007842968 0.015874024 -0.018986128 -0.004315144 0.0739642 0.024068516 0.060582876
0.015209928 0.058785602 0.044733543 0.067930765 0.006522738 0.051166195 0.08195823 -0.06367801
0.076116174 0.06601176 -0.011182535 0.008523466 -0.025051458 0.017361961 -0.036654852 0.07416951
-0.029107012 -0.0032941522 0.0113039315 0.098012686 -0.085536174 0.009105903 0.026281137 -0.10038978
0.063203745 -0.027932854 -0.0072506256 -0.06399703 -0.011427303 0.036223054 -0.01597297 0.06691326
0.0077971937 0.00016037017 -0.08638732 -0.08161117 0.055394385 0.032198407 0.08736992 0.057246007
-0.018663578 -0.056309722 0.017839426 0.012492267 0.04032574 -0.1063236 -0.09280831 -0.021743085
-0.029610235 -0.030430747 0.048789106 -0.008131918 0.10321596 0.0036269366 0.023545654 0.048968002
-0.043108743 0.054890767 -0.056725547 -0.08071323 -0.05687789 0.018481724 -0.063558094 -0.01936188
-0.0079359785 -0.027576692 0.09785306 0.025233682 0.015111277 -0.06178382 0.044997737 0.083505236
0.08035356 0.0017957869 -0.04922421 0.06423813 -0.07157946 0.028127605 0.0061655943 0.0717065
0.081522174 -0.015194449 -0.045465887 0.1652124 0.0153517425 0.11030596 -0.050460394 0.05374821
0.015950108 -0.028485896 -0.026384095 0.031442583 0.112529136 -0.076134846 0.025410837 0.030804621
0.020662658 -0.06920339 -0.015026199 0.036275767 0.0024383366 0.12500861 0.027325118 -0.07754575
-0.02959333 0.02981726 0.1137257 -0.1212792 -0.016479257 -0.011502488 0.031788733 0.0918774
-0.020532135 0.0640717 -0.040983643 -0.06162483 -0.013475402 -0.0045281164 -0.018717758 0.085016824
-0.0073975157 -0.08373889 0.047861744 0.057009995 0.08493464 -0.1336467 -0.022169108 0.11076036
0.07501784 -0.00042960636 0.012451741 0.039824486 -0.07864457 -0.013225672 0.0114223035 -0.014416931
0.06417447 -0.004807251 -0.06325026 0.02642479 -0.09596022 -0.03478389 -0.10308382 -0.047333084
0.0727794 0.046391733 0.11618733 -0.086138524 -0.03668545 -0.009776127 -0.061241195 0.05338352
-0.04802301 0.09550604 -0.12734856 -0.013362172 -0.038576566 0.14203799 -0.0728685 0.117862254
-0.06161656 -0.026180062 0.03099399 -0.032165594 0.0639941 -0.10100941 -0.006613412 0.082018636
-0.084829435 0.10555772 0.08058106 -0.033775207 -0.09252082 0.051133346 0.028131897 0.13439044
-0.08295467 0.021782532 0.022120003 0.0508489 0.11788998 -0.0842093 0.019572662 0.080318645
0.09004069 -0.06638755 0.019017957 0.012402569 0.16702941 -0.051472872 0.06214319 -0.0837986
-0.029956004 -0.04279298 -0.0995645 0.033300776 -0.01663833 0.08824741 0.07659132 0.07306577
00000000: de4e 6dbd 02e3 893d c2ed dfbc 7b30 8ebc
00000010: 2964 20bc 0094 bebc 7b11 963b 1b28 a2bd
00000020: c299 213d 8d55 ad3d c051 c7bc 89cd b13c
00000030: bd07 613d 511d 073d 3e6e 813c 1a41 a13d
00000040: 579c 2a3d 3053 99bd 23ea abbd f3a2 933d
00000050: 7317 b53d 069b be3d a9f0 c73c 6b2b 5ebd
00000060: 7fe9 cabc a173 223d feaa 043e e2f7 243b
00000070: 1661 65bd f176 dabc 2bff a7bd 7072 efbc
00000080: 5311 d63d 8874 443d 3fce 873d 3b1f 97bc
00000090: 78a6 5f3d 38af 733d cb15 cd3d e23f 3e3c
000000a0: e701 023d 209f b13d 8e6b 32bd c3f8 2abc
000000b0: 467b c23c 77a5 aabd 73a6 a43d 8bd0 fb3c
000000c0: 7e39 5a3a 4499 4dba 3e0a 823c cc88 9bbc
000000d0: 0d66 8dbb 8b7a 973d 562b c53c c025 783d
000000e0: 1033 793c 2cc9 703d 853a 373d 491f 8b3d
000000f0: b1bc d53b a593 513d b7d9 a73d 9e69 82bd
00000100: cce2 9b3d 2c31 873d f436 37bc 02a6 0b3c
00000110: b738 cdbc ac3a 8e3c 6623 16bd 2fe6 973d
00000120: d471 eebc b4e2 57bb 2034 393c e0ba c83d
00000130: 972d afbd ed30 153c 8a4b d73c 2899 cdbd
00000140: f770 813d 71d3 e4bc a896 edbb e010 83bd
00000150: 9539 3bbc a05e 143d bfd9 82bc d209 893d
00000160: 9a7f ff3b 0a29 2839 d6eb b0bd c223 a7bd
00000170: 39e5 623d 7ae2 033d 00ef b23d ca7a 6a3d
00000180: 5ce4 98bc 06a5 66bd fd23 923c 5eac 4c3c
00000190: 9a2c 253d 30c0 d9bd 4912 bebd 8e1e b2bc
000001a0: 2a91 f2bc e749 f9bc 16d7 473d bc3b 05bc
000001b0: e462 d33d e6b1 6d3b d1e2 c03c ac92 483d
000001c0: cb92 30bd 24d5 603d 0c59 68bd fa4c a5bd
000001d0: caf8 68bd fc66 973c bf2a 82bd ce9c 9ebc
000001e0: e805 02bc 84e8 e1bc 2f67 c83d deb6 ce3c
000001f0: 4a95 773c 0811 7dbd 8c4f 383d cb04 ab3d
00000200: 6890 a43d 9c60 eb3a 539f 49bd 488f 833d
00000210: 4098 92bd dd6b e63c c108 ca3b dcda 923d
00000220: 19f5 a63d 23f2 78bc 703a 3abd 702d 293e
00000230: e085 7b3c 17e8 e13d 8faf 4ebd 1527 5c3d
00000240: cda9 823c 415b e9bc 7523 d8bc f0c9 003d
00000250: ad75 e63d 96ec 9bbd 632a d03c f959 fc3c
00000260: bc44 a93c 82ba 8dbd 7230 76bc e695 143d
00000270: 80cc 1f3b 4202 003e edd8 df3c 4ed0 9ebd
00000280: b66d f2bc 5443 f43c 05e9 e83d 3b61 f8bd
00000290: 82ff 86bc ee74 3cbc e734 023d 382a bc3d
000002a0: 0233 a8bc 0638 833d 77de 27bd 516a 7cbd
000002b0: efc7 5cbc 9860 94bb fc55 99bc 4d1d ae3d
000002c0: dc66 f2bb 4c7f abbd ad0a 443d 5083 693d
000002d0: 36f2 ad3d aeda 08be fd9b b5bc 54d6 e23d
000002e0: f4a2 993d ca3c e1b9 6302 4c3c 001f 233d
000002f0: 6810 a1bd 7db0 58bc 9d24 3b3c fe34 6cbc
00000300: e86d 833d 2586 9dbb 5a89 81bd cd78 d83c
00000310: cb86 c4bd 8d79 0ebd 9c1d d3bd 56e0 41bd
00000320: 5e0d 953d 4205 3e3d 9ff3 ed3d 6569 b0bd
00000330: 7b43 16bd 0c2c 20bc 0cd8 7abd aea8 5a3d
00000340: c7b3 44bd ac98 c33d a967 02be 03ed 5abc
00000350: 7602 1ebd 6872 113e 153c 95bd c461 f13d
00000360: a561 7cbd 9277 d6bc 1ce7 fd3c 12c0 03bd
00000370: 570f 833d 06de cebd 52b5 d8bb 63f9 a73d
00000380: 0ebb adbd a52e d83d af07 a53d df57 0abd
00000390: 8e7b bdbd 3371 513d dd74 e63c a69d 093e
000003a0: 23e4 a9bd 4871 b23c 0235 b53c f046 503d
000003b0: 4d70 f13d ed75 acbd d956 a03c 1a7e a43d
000003c0: 4167 b83d 32f6 87bd 8ccb 9b3c 2534 4b3c
000003d0: c209 2b3e 38d5 52bd dc89 7e3d 9a9e abbd
000003e0: 4b66 f5bc b147 2fbd 79e8 cbbd 6566 083d
000003f0: 1b4d 88bc 0fbb b43d e9db 9c3d 82a3 953d

t_conv2.bias f4 [64]
0.02162994 -0.06737823 0.06412914 0.1199261 -0.026132341 0.07886916 0.035593 -0.06423599
0.050471343 -0.030011088 0.09742375 -0.040508926 -0.037433565 -0.02368862 0.021908073 0.05051944
0.07858189 0.05724746 0.0605227 0.06458563 0.038690493 -0.04764034 -0.06334431 0.027547257
-0.0056952327 0.04879516 0.067349635 -0.02281849 0.0048287953 0.0071038296 0.012708172 -0.0504289
0.07366533 0.04561067 -0.027317513 0.023872983 0.010825791 0.073078714 0.08964879 0.09453605
0.063814886 0.08662627 -0.060741335 -0.043766983 0.050450917 0.07072098 0.002758311 0.082482725
0.050980777 0.090103 0.012041192 0.032608896 0.010897358 0.08124076 0.085610576 0.020623686
-0.034570694 -0.0045270994 0.075526915 -0.0074024634 0.06002642 0.037634633 -0.027622305 0.086912066
00000000: 4631 b13c 99fd 89bd 2356 833d d19b f53d
00000010: 7e13 d6bc 2786 a13d f7c9 113d 298e 83bd
00000020: 0abb 4e3d d0d9 f5bc 1a86 c73d b0ec 25bd
00000030: f053 19bd a30e c2bc 8f78 b33c 79ed 4e3d
00000040: 8bef a03d 507c 6a3d a7e6 773d 7945 843d
00000050: ec79 1e3d 8422 43bd a9ba 81bd c9aa e13c
00000060: 139f babb 6fdd 473d 9bee 893d d8ed babc
00000070: df3a 9e3b 3ec7 e83b f035 503c 898e 4ebd
00000080: d9dd 963d 41d2 3a3d fac8 dfbc 4691 c33c
00000090: a95e 313c 4baa 953d c999 b73d 1e9c c13d
000000a0: 61b1 823d 1d69 b13d e8cb 78bd 0245 33bd
000000b0: 9fa5 4e3d 29d6 903d c8c4 343b b4ec a83d
000000c0: 38d1 503d ec87 b83d 6b48 453c e890 053d
000000d0: d58a 323c 8e61 a63d 9954 af3d 01f3 a83c
000000e0: 009a 0dbd 1058 94bb dbad 9a3d 5d90 f2bb
000000f0: 43de 753d c626 1a3d 2c48 e2bc f4fe b13d

conv_out.weight f4 [1, 64, 3]
0.10276344 0.025547037 -0.06567394 0.05972342 -0.044026595 0.041516617 -0.07432947 -0.05723671
-0.0596343 0.0448421 0.13355328 -0.005446963 0.008508683 -0.10250509 -0.06861573 0.010212555
0.12060737 -0.1493444 -0.059380732 0.13125458 0.08660044 -0.15147209 0.023070654 0.042125568
0.12854278 0.0333694 0.07331355 -0.06938571 -0.11858293 0.08633713 0.016823897 -0.12577467
0.032742012 -0.027301516 -0.0019542878 0.05526771 -0.07405687 -0.08687155 -0.08069304 -0.12542608
0.06155113 0.031416845 -0.027476057 0.024014533 -0.09377477 0.1302385 -0.011178018 0.01699545
-0.03988696 -0.11196264 0.022631273 -0.030513402 -0.09823519 0.0073333485 0.10026662 0.02849591
0.035887133 -0.022032702 0.09222873 -0.11626891 -0.0040392284 0.0055329883 -0.09856563 0.11748408
-0.06468192 -0.01714488 0.00084577146 0.10161025 -0.0065710666 -0.06921032 -0.0962237 -0.07586069
-0.018731548 0.03716797 0.025852365 0.11370503 0.10860587 -0.04390771 0.11038839 -0.04094991
0.11471917 -0.11736785 0.098697595 0.102258846 0.12131754 0.007425284 -0.089092486 -0.009649959
-0.11446609 -0.038308974 -0.14629778 -0.011302286 0.082658365 -0.11001439 0.040758476 -0.104906656
-0.053134084 -0.061721172 -0.09545417 0.0095888935 0.054340668 -0.08422544 -0.1557871 0.0810996
0.11726182 -0.108462125 -0.064545795 0.089024246 -0.059756264 -0.075190045 0.028707046 0.140458
-0.11594068 0.027359828 0.07278079 0.13664934 -0.044459693 -0.036342163 0.1268431 -0.05459269
-0.03236059 -0.0680416 -0.075376764 -0.09902118 0.013790574 -0.006082771 -0.02806662 0.028907329
-0.14891987 -0.031693533 -0.015481834 -0.12362353 0.038054593 0.08561447 0.092384435 0.019972112
0.08868888 0.09141818 0.033629753 -0.11644029 -0.041341588 -0.029962515 -0.035716735 -0.068385415
-0.1149162 0.050004482 0.016833512 -0.078396164 -0.10855128 0.0210161 -0.077093184 0.06763572
0.10894412 -0.06823119 0.07509849 0.020905413 -0.089027405 0.019249016 -0.019856777 -0.030092768
-0.05478886 0.006473452 -0.01773173 -0.112957425 0.023211073 0.08440336 0.0872651 -0.06623538
0.083627865 0.036289945 0.01932505 0.110861644 0.0640222 -0.016637623 0.07400164 -0.07925404
-0.10263792 0.08104275 -0.059846852 0.09009886 0.032426942 -0.09756471 0.07848176 -0.075592496
-0.071241416 0.0983996 -0.06410175 -0.09087726 -0.040340804 0.01527182 0.026288798 -0.13924514
00000000: a375 d23d 0548 d13c 0f80 86bd 8ba0 743d
00000010: 3b55 34bd 540d 2a3d 0d3a 98bd 0a71 6abd
00000020: 1943 74bd 5aac 373d 31c2 083e 707c b2bb
00000030: 0168 0b3c 30ee d1bd 6786 8cbd 8f52 273c
00000040: ff00 f73d bded 18be 3639 73bd 9a67 063e
00000050: 925b b13d 801b 1bbe abfe bc3c dc8b 2c3d
00000060: b8a0 033e 5aae 083d 6a25 963d 181a 8ebd
00000070: 9bdb f2bd 85d1 b03d 45d2 893c 13cb 00be
00000080: 7d1c 063d 6ea7 dfbc 8213 00bb 6560 623d
00000090: 21ab 97bd b6e9 b1bd 6442 a5bd b26f 00be
000000a0: 0a1d 7c3d f3ae 003d 7815 e1bc 20ba c43c
000000b0: fd0c c0bd 3e5d 053e 0124 37bc 0b3a 8b3c
000000c0: 8260 23bd ab4c e5bd 3865 b93c 3ef7 f9bc
000000d0: 882f c9bd 964c f03b 9658 cd3d 4170 e93c
000000e0: 63fe 123d ed7d b4bc 6be2 bc3d 651e eebd
000000f0: 815b 84bb 124e b53b c7dc c9bd 7e9b f03d
00000100: f477 84bd 6b73 8cbc c3b6 5d3a 0919 d03d
00000110: 1a52 d7bb 24be 8dbd ee10 c5bd d95c 9bbd
00000120: e772 99bc 713d 183d 57c8 d33c 2fde e83d
00000130: c16c de3d 92d8 33bd 4f13 e23d 18bb 27bd
00000140: e2f1 ea3d 8e5e f0bd f721 ca3d 166d d13d
00000150: 5575 f83d cc4f f33b 1f76 b6bd dd1a 1ebc
00000160: 336d eabd dfe9 1cbd 16cf 15be 392d 39bc
00000170: ca48 a93d 394f e1bd 5cf2 263d 4dd9 d6bd
00000180: 20a3 59bd 57cf 7cbd 7a7d c3bd bc1a 1d3c
00000190: 5294 5e3d 637e acbd a786 1fbe 8c17 a63d
000001a0: f726 f03d 6421 debd 9630 84bd 5852 b63d
000001b0: fcc2 74bd 3dfd 99bd 0a2b eb3c 39d4 0f3e
000001c0: 4f72 edbd b821 e03c 180e 953d ceed 0b3e
000001d0: 5e1b 36bd 85db 14bd 28e3 013e 969c 5fbd
000001e0: 8a8c 04bd 6559 8bbd 225f 9abd 9ecb cabd
000001f0: dcf1 613c fb51 c7bb f8eb e5bc 10cf ec3c
00000200: 737e 18be 14d1 01bd 85a7 7dbc 552e fdbd
00000210: 22df 1b3d a456 af3d 0d34 bd3d 8e9c a33c
00000220: 84a2 b53d 7439 bb3d 5abf 093d 3f78 eebd
00000230: cc55 29bd f373 f5bc b64b 12bd a70d 8cbd
00000240: 2f59 ebbd 80d1 4c3d 6fe6 893c 2b8e a0bd
00000250: 2250 debd f529 ac3c 08e3 9dbd 9984 8a3d
00000260: 181e df3d cbbc 8bbd 3dcd 993d d441 ab3c
00000270: 0054 b6bd 1db0 9d3c aeaa a2bc 1c85 f6bc
00000280: 496a 60bd 401f d43b 2242 91bc 3956 e7bd
00000290: 2625 be3c abdb ac3d 0bb8 b23d 6aa6 87bd
000002a0: 1645 ab3d c4a4 143d 914f 9e3c 6e0b e33d
000002b0: 121e 833d a04b 88bc 2c8e 973d f14f a2bd
000002c0: d433 d2bd bef9 a53d f921 75bd c085 b83d
000002d0: 1dd2 043d 02d0 c7bd 0cbb a03d 3dd0 9abd
000002e0: 05e7 91bd bb85 c93d c747 83bd db1d babd
000002f0: 663c 25bd a836 7a3c 9b5b d73c 4796 0ebe
