pths/denoiser_model_4.pth (torch, 166322 bytes, 17 tensors)

conv1.weight f4 [32, 1, 3]
0.42887414 0.4879822 -0.1421764 0.5088747 -0.15689614 0.10375824 -0.23862843 0.34553158
0.5544731 -0.4039656 0.50320536 0.18047266 0.35884747 0.10581607 0.3399736 -0.106951185
0.3876471 0.1492434 -0.2773714 0.16190568 -0.2605095 -0.08633112 -0.2163219 0.394055
-0.4464928 -0.28493685 -0.15475245 -0.38921604 0.06327448 -0.5276051 0.569553 -0.4928217
0.3948858 0.07003035 -0.15706307 0.40319997 0.0729749 0.4971705 0.0046226615 -0.15860467
0.1980363 -0.124597095 0.23784879 0.50664926 0.3405734 -0.21623978 0.37595463 0.115574114
0.281662 -0.42105198 -0.51625896 -0.24450174 -0.4736081 0.42358294 0.19561185 0.2604383
0.13136916 0.015799131 0.4803432 -0.38277972 0.076022446 -0.41764846 0.13606302 -0.118269734
0.2524842 -0.109241955 0.4420289 -0.375394 -0.3543362 -0.2952233 0.57643294 0.19155827
0.5773739 -0.53339726 -0.49095935 -0.42941758 -0.4024515 0.26342666 0.22914425 0.43710575
-0.33925954 -0.39302728 0.30807784 -0.23072004 0.3400682 -0.1268871 0.34573215 -0.38933858
-0.3163016 0.21159701 0.09312545 -0.13971056 0.36430278 0.39059848 -0.44368705 -0.24909084
00000000: 6495 db3e ced8 f93e b196 11be 9d45 023f
00000010: 62a9 20be 337f d43d 035b 74be 84e9 b03e
00000020: f3f1 0d3f 94d4 cebe 11d2 003f d3cd 383e
00000030: dbba b73e 19b6 d83d 0511 ae3e 3909 dbbd
00000040: ae79 c63e 43d3 183e a003 8ebe 9aca 253e
00000050: 8061 85be 5fce b0bd 7d83 5dbe 94c1 c93e
00000060: b49a e4be 3ee3 91be 6d77 1ebe 5347 c7be
00000070: 0d96 813d 2111 07bf 3ace 113f 2053 fcbe
00000080: 792e ca3e 126c 8f3d 24d5 20be 3a70 ce3e
00000090: dd73 953d 228d fe3e b279 973b 4369 22be
000000a0: 07ca 4a3e c32c ffbd a28e 733e c4b3 013f
000000b0: a35f ae3e f66d 5dbe 207d c03e 1fb2 ec3d
000000c0: 0036 903e 2094 d7be 8c29 04bf aa5e 7abe
000000d0: c37c f2be dddf d83e 794e 483e 2b58 853e
000000e0: a385 063e 2e6d 813c 8bef f53e b4fb c3be
000000f0: a8b1 9b3d 05d6 d5be 1b54 0b3e 6737 f2bd
00000100: 9c45 813e 3fba dfbd 9d51 e23e a433 c0be
00000110: 8e6b b5be 8227 97be 1c91 133f da27 443e
00000120: c7ce 133f b98c 08bf 065f fbbe 9fdc dbbe
00000130: 1f0e cebe dcdf 863e caa4 6a3e 53cc df3e
00000140: 6db3 adbe df3a c9be 61bc 9d3e e041 6cbe
00000150: 6b1d ae3e b1ee 01be ce03 b13e 6357 c7be
00000160: 49f2 a1be e3ac 583e 8eb8 be3d 4910 0fbe
00000170: e585 ba3e 86fc c73e f32a e3be ab11 7fbe

conv1.bias f4 [32]
0.52938443 -0.19530357 -0.20404415 -0.55879164 -0.3303012 0.14463983 -0.07581762 -0.41983408
0.01315447 -0.3949423 -0.48935625 -0.31709877 -0.5050318 -0.36927086 0.57754004 0.10920645
0.17806363 -0.53873116 -0.37863052 -0.19168028 0.0900537 -0.50725937 -0.24837455 -0.3466275
0.0010397357 -0.21511716 -0.04076434 -0.3909292 -0.39690655 -0.33706462 -0.19575836 -0.45621032
00000000: bd85 073f a9fd 47be f3f0 50be f80c 0fbf
00000010: 3d1d a9be 771c 143e 4546 9bbd 7ef4 d6be
00000020: d985 573c e135 cabe e78c fabe c55a a2be
00000030: c449 01bf 1211 bdbe aad9 133f a2a7 df3d
00000040: 5056 363e 49ea 09bf dcdb c1be d647 44be
00000050: 136e b83d c0db 01bf e655 7ebe 2979 b1be
00000060: be47 883a ac47 5cbe 82f8 26bd df27 c8be
00000070: 5637 cbbe bc93 acbe e174 48be 6694 e9be

bn1.weight f4 [32]
1.0658847 1.0288761 0.9422922 0.9992901 0.95453936 0.98117566 0.97678775 1.037611
1.014362 0.985969 0.9986612 0.9507763 1.0158304 0.98789567 0.9880365 1.0326544
0.9843376 1.0255152 1.0337828 1.0155457 0.99563295 0.9907276 0.9712971 1.0009673
0.99182963 0.9650955 1.0427977 0.9714755 1.0007292 0.9533817 0.9918795 1.0163944
00000000: e96e 883f 36b2 833f 103a 713f 7ad1 7f3f
00000010: b15c 743f 542e 7b3f c30e 7a3f 70d0 843f
00000020: 9dd6 813f 7768 7c3f 43a8 7f3f 1366 733f
00000030: bb06 823f bbe6 7c3f f6ef 7c3f 052e 843f
00000040: 8dfd 7b3f 1544 833f ff52 843f 67fd 813f
00000050: cde1 7e3f 53a0 7d3f eda6 783f b21f 803f
00000060: 8ce8 7d3f 8010 773f 657a 853f 9eb2 783f
00000070: e517 803f d310 743f d1eb 7d3f 3619 823f

bn1.bias f4 [32]
0.035039715 0.07730512 0.068237185 0.0318355 0.017459255 0.04795055 -0.032347172 0.07673712
0.07720618 0.050562408 0.010285518 0.023231784 0.09980054 0.027414484 0.004793358 0.052650437
0.06866289 0.0806613 0.012932564 0.08825184 0.054773636 -0.0038736693 0.05795071 0.04587289
0.052855704 0.08896981 0.078523494 0.03816137 -0.015791414 0.023694929 -0.003177813 0.08577445
00000000: ce85 0f3d 2652 9e3d f0bf 8b3d f165 023d
00000010: b606 8f3c cc67 443d 787e 04bd 5a28 9d3d
00000020: 461e 9e3d 871a 4f3d 9784 283c 9550 be3c
00000030: 3a64 cc3d 5794 e03c 9a11 9d3b fca7 573d
00000040: 219f 8c3d c031 a53d 1be3 533c 61bd b43d
00000050: 525a 603d 63dd 7dbb b95d 6d3d 36e5 3b3d
00000060: 397f 583d ce35 b63d edd0 a03d 194f 1c3d
00000070: ff5c 81bc de1b c23c db42 50bb 84aa af3d

bn1.running_mean f4 [32]
0.5491486 -0.18431634 -0.19357213 -0.5547794 -0.31325844 0.15247141 -0.08309157 -0.4201439
-0.0071685766 -0.41174206 -0.47965822 -0.3115343 -0.49199426 -0.37038302 0.6002031 0.114048116
0.16740681 -0.54934 -0.36562377 -0.18581228 0.084632 -0.5056736 -0.25121728 -0.3382611
-0.0036178988 -0.23099995 -0.030297043 -0.39753821 -0.38553497 -0.3502644 -0.1906008 -0.45974287
00000000: 0195 0c3f 6cbd 3cbe c637 46be 0606 0ebf
00000010: 6963 a0be 7721 1c3e ea2b aabd 1a1d d7be
00000020: 61e6 eabb dbcf d2be c395 f5be 6c81 9fbe
00000030: ace6 fbbe d8a2 bdbe e9a6 193f 0f92 e93d
00000040: b16c 2b3e 8ca1 0cbf 0a33 bbbe 9345 3ebe
00000050: 8b53 ad3d d373 01bf 8d9f 80be 8f30 adbe
00000060: 451a 6dbb 408b 6cbe 8131 f8bc 218a cbbe
00000070: d764 c5be db55 b3be db2c 43be 6b63 ebbe

bn1.running_var f4 [32]
0.62103146 0.31415072 0.61980474 0.45478636 0.40735695 0.23474714 0.18140173 0.20176281
0.5140555 0.5714988 0.66264087 0.19644436 0.34376535 0.06981805 0.7581564 0.2146228
0.65585536 0.47992897 0.2177896 0.35137936 0.19286011 0.07867905 0.490396 0.5042861
0.92402345 0.51525754 0.38499594 0.28290546 0.2944513 0.3758358 0.16576006 0.43366113
00000000: ebfb 1e3f 5dd8 a03e 86ab 1e3f c2d9 e83e
00000010: 1791 d03e 8e61 703e 60c1 393e e99a 4e3e
00000020: 2499 033f bf4d 123f d5a2 293f b628 493e
00000030: 0302 b03e c4fc 8e3d 8a16 423f 14c6 5b3e
00000040: 23e6 273f 40b9 f53e 3d04 5f3e ffe7 b33e
00000050: 1f7d 453e 7b22 a13d 2f15 fb3e e518 013f
00000060: cd8c 6c3f ebe7 033f 301e c53e fcd8 903e
00000070: 52c2 963e 8d6d c03e 01bd 293e d508 de3e

conv2.weight f4 [64, 32, 3]
0.094557576 -0.032835867 0.071803 0.06123132 -0.14002036 0.05918497 -0.032946393 -0.075010635
-0.08879284 -0.092850044 0.016568318 -0.033733066 0.06571861 -0.09148286 0.071383856 -0.06405962
-0.015934149 0.008616462 0.029541057 0.06068386 0.089652844 -0.09466424 0.00838862 -0.009294416
0.0074416636 -0.10958382 0.08745652 -0.11418421 0.046409253 0.035903696 0.04714137 -0.07549911
0.10836987 -0.012512801 -0.001707797 -0.0597472 0.048159387 -0.0010050947 -0.05866033 0.071300104
0.004157703 -0.05456508 -0.016306318 -0.005497348 0.059687216 -0.014319963 -0.06841218 -0.044888698
-0.08811152 0.007542914 0.05843843 -0.09471738 0.0074690576 0.078295395 0.056476668 -0.044776138
0.06180115 0.030161161 0.05848578 -0.017162068 -0.037472427 -0.0006475721 -2.1541195e-05 -0.047084056
0.05380269 0.09417305 -0.002338735 -0.051004436 -0.019798039 0.00893837 0.014875413 0.019027976
-0.08906245 -0.06595863 0.06384735 0.064862564 -0.03050993 -0.061164923 -0.07036408 -0.077241555
-0.042707454 0.01914472 0.042310152 0.04517217 -0.08100701 -0.07063302 -0.015004744 0.13025734
-0.018116295 -0.0291335 0.00591818 -0.05504582 -0.037500303 0.07588073 -0.08118882 -0.041092813
-0.06380627 0.10160923 0.061070483 0.076034814 -0.11777136 -0.12206984 -0.11102523 0.083446935
0.07458744 0.13991547 0.042745143 0.025807882 0.008198507 -0.074405186 -0.095774345 -0.05425108
0.022825195 -0.05273786 0.017079573 -0.04843174 -0.029394254 -0.10153288 -0.05779543 0.04612352
-0.032284487 0.06671192 -0.031532157 -0.06183527 -0.007620712 -0.047126055 -0.0038221225 -0.12075506
0.029780434 -0.076591365 0.06232296 0.04774078 0.1266612 -0.067566365 0.059386533 0.0020442132
0.048111424 0.07772445 0.0033282095 0.00043196496 -0.011260623 -0.028765822 0.03308917 -0.10386463
0.054180745 0.07457533 0.11036225 -0.054666277 -0.07267955 0.03394376 0.07205617 -0.09008126
-0.011102041 -0.0072208107 0.019055506 -0.06003587 -0.0319971 -0.034605864 -0.13073653 0.14200234
0.09205573 -0.028244553 -0.0042484645 -0.060002565 -0.07138486 -0.051644504 0.02150663 -0.057035677
-0.06311466 -0.020887634 -0.015149376 -0.066220745 0.015476343 -0.004007455 0.016129931 -0.027630512
-0.09924506 0.13573852 -0.034355666 0.017415443 -0.01875669 -0.010211629 0.08357964 0.018574547
-0.072474554 0.06159525 0.09376903 0.034632213 0.06611644 0.10821251 -0.030643374 0.0287424
-0.031395357 -0.0013402733 0.06971822 0.052461702 -0.034370225 -0.12815666 -0.032450654 -0.16106412
-0.08326532 0.0041589127 0.058982845 0.0022660065 -0.0553105 -0.12175994 0.05727456 -0.047780294
-0.011167525 0.03986058 -0.018683514 0.006376244 -0.0043804417 -0.031329498 -0.09446845 -0.0920906
-0.019415032 -0.039931383 0.09198546 -0.022639541 -0.052688144 0.029091405 -0.005388141 0.06490646
0.051670693 0.03767575 -0.15617543 0.012124547 0.10378114 0.01381513 -0.0758819 0.11648379
-0.026987122 -0.05561602 -0.04794359 -0.025268815 0.035745926 0.053179618 0.00920687 -0.09111961
-0.10621995 0.04046666 0.06579519 0.053557575 -0.073244415 -0.02055521 -0.021305947 -0.08483515
0.0020312069 0.049291532 0.09892872 -0.09267992 0.031068193 -0.026561422 0.028802384 0.10960782
00000000: 67a7 c13d e77e 06bd 740d 933d b1cd 7a3d
00000010: 7f61 0fbe f06b 723d ccf2 06bd 2d9f 99bd
00000020: 05d9 b5bd 2a28 bebd 48ba 873c af2b 0abd
00000030: 7b97 863d 5e5b bbbd b331 923d b131 83bd
00000040: 5588 82bc 102c 0d3c 1600 f23c a48f 783d
00000050: e99b b73d 53df c1bd 6c70 093c 9b47 18bc
00000060: 33d9 f33b 7b6d e0bd 671c b33d 69d9 e9bd
00000070: a117 3e3d c10f 133d 4f17 413d 479f 9abd
00000080: 06f1 dd3d 7e02 4dbc 29d8 dfba 7bb9 74bd
00000090: c742 453d 62bd 83ba d045 70bd ca05 923d
000000a0: 573d 883b a27f 5fbd d494 85bc 1923 b4bb
000000b0: 957a 743d 479e 6abc af1b 8cbd 36dd 37bd
000000c0: d073 b4bd 8c2a f73b 235d 6f3d 30fb c1bd
000000d0: ffbe f43b 5659 a03d 1454 673d 2f67 37bd
000000e0: 3423 7d3d 8a14 f73c c98e 6f3d 7797 8cbc
000000f0: b07c 19bd d4c1 29ba 5db3 b4b7 36db 40bd
00000100: 3660 5c3d cddd c03d 7645 19bb 07ea 50bd
00000110: 7f2f a2bc 3e72 123c 01b8 733c 8fe0 9b3c
00000120: 6066 b6bd 5115 87bd 66c2 823d aad6 843d
00000130: f6ef f9bc 1288 7abd 0b1b 90bd d230 9ebd
00000140: 03ee 2ebd 63d5 9c3c 694d 2d3d 7406 393d
00000150: 01e7 a5bd 0ba8 90bd 75d6 75bc 2e62 053e
00000160: a068 94bc 61a9 eebc 4bed c13b ba77 61bd
00000170: eb99 19bd 5b67 9b3d 5346 a6bd f050 28bd
00000180: ddac 82bd 8018 d03d 0b25 7a3d 24b8 9b3d
00000190: 1c32 f1bd c1ff f9bd 3261 e3bd 3ae6 aa3d
000001a0: 4dc1 983d 0046 0f3e 8815 2f3d 0d6b d33c
000001b0: 0853 063c bf61 98bd 5725 c4bd 6136 5ebd
000001c0: e7fb ba3c a703 58bd 76ea 8b3c 5c60 46bd
000001d0: 38cc f0bc 78f0 cfbd e7ba 6cbd 04ec 3c3d
000001e0: bd3c 04bd 42a0 883d dd27 01bd fb46 7dbd
000001f0: 2ab7 f9bb 4007 41bd 937c 7abb 6e4e f7bd
00000200: 19f6 f33c efdb 9cbd 5c46 7f3d d68b 433d
00000210: 79b3 013e 3c60 8abd 4b3f 733d 35f8 053b
00000220: 7c10 453d ff2d 9f3d 171e 5a3b 5b79 e239
00000230: 7a7e 38bc 4da6 ebbc 8288 073d fbb6 d4bd
00000240: a1ec 5d3d f3ba 983d 9a05 e23d bfe9 5fbd
00000250: 04d9 94bd 9d08 0b3d 2f92 933d 867c b8bd
00000260: 56e5 35bc 8d9c ecbb 4b1a 9c3c 2ce8 75bd
00000270: 640f 03bd e1be 0dbd ccdf 05be 1069 113e
00000280: b787 bc3d 1f61 e7bc b436 8bbb 40c5 75bd
00000290: 3a32 92bd 3089 53bd ac2e b03c 3e9e 69bd
000002a0: 4242 81bd 8b1c abbc 1735 78bc be9e 87bd
000002b0: 7d90 7d3c f850 83bb eb22 843c 6259 e2bc
000002c0: fe40 cbbd 0aff 0a3e 87b8 0cbd d5aa 8e3c
000002d0: a1a7 99bc ad4e 27bc cd2b ab3d a629 983c
000002e0: 8a6d 94bd 4d4b 7c3d fa09 c03d 82da 0d3d
000002f0: 0e68 873d 859e dd3d d007 fbbc 2f75 eb3c
00000300: 6b98 00bd 1cac afba 6dc8 8e3d 15e2 563d
00000310: cbc7 0cbd 803b 03be faea 04bd feed 24be
00000320: 0287 aabd 7d47 883b ff97 713d 4881 143b
00000330: 438d 62bd 475d f9bd bb98 6a3d 45b5 43bd
00000340: fff7 36bc d944 233d 2b0e 99bc d0ef d03b
00000350: cf89 8fbb 5c53 00bd ad78 c1bd ff99 bcbd
00000360: 460c 9fbc 178f 23bd df62 bc3d 8f76 b9bc
00000370: 86cf 57bd 1951 ee3c 018f b0bb aeed 843d
00000380: a6a4 533d e351 1a3d 74ec 1fbe 09a6 463c
00000390: 358b d43d db58 623c f867 9bbd 0e8f ee3d
000003a0: 1914 ddbc a0cd 63bd 7f60 44bd 8c00 cfbc
000003b0: 526a 123d dfd2 593d 69d8 163c eb9c babd
000003c0: d889 d9bd 5ec0 253d a1bf 863d 305f 5b3d
000003d0: 2b01 96bd 6663 a8bc cf89 aebc 0dbe adbd
000003e0: ff1d 053b ebe5 493d 249b ca3d f8ce bdbd
000003f0: b982 fe3c 5797 d9bc faf2 eb3c 117a e03d

conv2.bias f4 [64]
-0.06567212 0.07278868 0.08273272 0.06900107 -0.0011332129 0.02395484 0.0045619765 -0.03993936
-0.101485215 -0.0127127115 0.04520698 0.05918784 0.024292892 0.04730015 0.0640592 -0.020251902
0.0679773 -0.0023206577 -0.036327094 -0.04012058 -0.05906814 -0.07888398 0.02368163 0.09438849
0.014803196 0.0146883065 -0.038316943 -0.039423667 -0.032366075 0.034971744 0.017432239 -0.03911818
0.018844232 -0.017428145 -0.006240044 0.072922654 -0.042230878 0.09553346 -0.05603834 0.09382673
0.038144324 0.04183852 -0.023562273 -0.027061187 -0.07425525 -0.09819537 0.07166211 0.098595254
0.02939632 -0.04014583 0.02184824 -0.0028121008 -0.08781174 -0.08041738 0.03507493 -0.029736513
-0.024455568 -0.061002716 0.044988777 -0.051248398 -0.033456292 0.054156598 0.09787522 0.09066141
00000000: 1b7f 86bd 3b12 953d c66f a93d 6f50 8d3d
00000010: 5188 94ba f13c c43c a27c 953b 7497 23bd
00000020: 7bd7 cfbd fa48 50bc f42a 393d f36e 723d
00000030: e301 c73c cdbd 413d 7831 833d 51e7 a5bc
00000040: af37 8b3d 2d16 18bb b8cb 14bd 7a55 24bd
00000050: 6ff1 71bd ed8d a1bd faff c13c c14e c13d
00000060: 1b89 723c 39a7 703c 3af2 1cbd b67a 21bd
00000070: 4a92 04bd 883e 0f3d 0ece 8e3c 623a 20bd
00000080: 385f 9a3c 78c5 8ebc 4879 ccbb 7958 953d
00000090: 49fa 2cbd 0ca7 c33d 7588 65bd 3b28 c03d
000000a0: 393d 1c3d de5e 2b3d ab05 c1bc 6caf ddbc
000000b0: 2313 98bd a71a c9bd 96c3 923d 4fec c93d
000000c0: 8dd0 f03c f46f 24bd 15fb b23c 394b 38bb
000000d0: a4d6 b3bd deb1 a4bd bbaa 0f3d fd99 f3bc
000000e0: 0b57 c8bc fcdd 79bd 2746 383d d7e9 51bd
000000f0: 7709 09bd 4fd3 5d3d ce72 c83d b0ac b93d

bn2.weight f4 [64]
1.0451299 1.0381136 1.0655835 1.0289258 1.0429734 1.0419418 1.0557032 1.0484477
1.054385 1.0424012 1.04964 1.0486141 1.0465094 1.0446838 1.0615965 1.0642592
1.0540271 1.0372156 1.0411701 1.0189556 1.0529839 1.0566453 1.0768094 1.0353065
1.0624379 1.0532037 1.0641323 1.0689272 1.0598917 1.0486703 1.0340644 1.0548712
1.042639 1.0472627 1.0682018 1.0707357 1.0305947 1.0447837 1.0555096 1.043632
1.034884 1.0622954 1.0589719 1.082641 1.0397028 1.0486499 1.0443925 1.0336046
1.0483106 0.9946236 1.0474169 1.0526446 1.0373981 1.0632932 1.0540774 1.0408812
1.040278 1.0174954 1.0305911 1.0530635 1.0452267 1.0215416 1.0752407 1.0681305
00000000: d1c6 853f e8e0 843f 0a65 883f d7b3 833f
00000010: 2780 853f 595e 853f 4821 873f 8933 863f
00000020: 16f6 863f 676d 853f 9b5a 863f fd38 863f
00000030: 05f4 853f 33b8 853f 65e2 873f a539 883f
00000040: 5cea 863f 7bc3 843f 1045 853f 236d 823f
00000050: 2dc8 863f 2740 873f e4d4 893f ec84 843f
00000060: f7fd 873f 61cf 863f 7d35 883f 9bd2 883f
00000070: 88aa 873f d43a 863f 395c 843f 0506 873f
00000080: 3275 853f b40c 863f d6ba 883f de0d 893f
00000090: 87ea 833f 79bb 853f f01a 873f bc95 853f
000000a0: 1477 843f 4cf9 873f 648c 873f fb93 8a3f
000000b0: fb14 853f 293a 863f a7ae 853f 284d 843f
000000c0: 0b2f 863f a79f 7e3f c211 863f 0fbd 863f
000000d0: 76c9 843f fe19 883f 02ec 863f 983b 853f
000000e0: d427 853f 4a3d 823f 69ea 833f c9ca 863f
000000f0: fdc9 853f e0c1 823f 7da1 893f 80b8 883f

bn2.bias f4 [64]
0.0434398 0.022509614 0.009295136 0.036678858 0.018128648 0.03932105 0.042775992 0.056488603
0.043794204 0.009158412 0.04582581 0.028605983 0.038086113 0.027165798 0.06746438 0.03872873
0.0141294105 0.016651431 0.016338706 0.01879042 0.029114895 0.04272392 0.028018435 0.05094973
0.046061903 0.041672718 0.050964948 0.06228019 0.053130593 0.04224143 0.027936785 0.038162883
0.037843745 0.03152443 0.054194044 0.038847722 -0.004839623 0.02985075 0.03386207 0.030772224
0.031777125 0.04425706 0.02554454 0.027619425 0.024906464 0.039394844 0.031724103 0.012014594
0.060919963 -0.0010641265 0.05165368 0.053379044 0.047534373 0.031457532 0.050533626 0.015344209
0.024425069 0.026175631 0.045109257 0.058158386 0.04744458 0.04270245 0.05797712 0.050919354
00000000: efed 313d 1566 b83c a04a 183c 923c 163d
00000010: 8882 943c 1c0f 213d e135 2f3d 9860 673d
00000020: 8d61 333d 2a0d 163c d8b3 3b3d 1857 ea3c
00000030: 2f00 1c3d cf8a de3c c42a 8a3d 04a2 1e3d
00000040: 0b7f 673c 9568 883c c0d8 853c 5eee 993c
00000050: 5c82 ee3c 47ff 2e3d eb86 e53c aab0 503d
00000060: 68ab 3c3d 03b1 2a3d 9fc0 503d 8319 7f3d
00000070: 779f 593d 5a05 2d3d afdb e43c af50 1c3d
00000080: 0b02 1b3d c31f 013d 93fa 5d3d ca1e 1f3d
00000090: b395 9ebb 8f89 f43c f4b2 0a3d 0816 fc3c
000000a0: bb28 023d e446 353d c842 d13c 2242 e23c
000000b0: a408 cc3c 7d5c 213d 22f1 013d dcd8 443c
000000c0: 3687 793d 297a 8bba cf92 533d fca3 5a3d
000000d0: 67b3 423d 9dd9 003d 59fc 4e3d 4766 7b3c
000000e0: 1517 c83c 476e d63c 7cc4 383d 7d37 6e3d
000000f0: 3f55 423d c4e8 2e3d 6b79 6d3d d090 503d

bn2.running_mean f4 [64]
-0.43818983 -0.071735986 -0.3799512 0.20270042 -0.34149796 -0.51649815 -0.2757492 -0.44885308
-0.36767283 -0.2318277 -0.6023318 -0.22926904 -0.26391903 -0.27889732 0.10532785 -0.115280405
0.31058362 -0.2894842 0.2767046 0.002913765 -0.434575 -0.37475646 -0.47880074 -0.14201123
-0.26527736 0.095428884 0.019334823 -0.09799002 -0.22547717 -0.57429713 0.38361228 -0.8191568
0.32235783 0.10319713 0.047635734 -0.2700639 -0.035960943 -0.24625733 -0.53734696 0.3703182
0.039488636 0.121513814 0.298297 -0.08035013 -0.45732012 -0.3488386 0.18650927 0.1311329
-0.36814544 -0.2185857 -0.8521344 -0.38266328 -0.21352343 0.047894873 -0.0063261255 0.14438047
0.14450449 0.021787068 -0.37602153 -0.3272169 -0.022988696 -0.16651256 -0.04862213 -0.08532618
00000000: 6b5a e0be 51ea 92bd f788 c2be b390 4f3e
00000010: d2d8 aebe 3939 04bf 002f 8dbe 12d0 e5be
00000020: 9d3f bcbe 3e64 6dbe 6b32 1abf 81c5 6abe
00000030: 6520 87be a1cb 8ebe 21b6 d73d 2218 ecbd
00000040: d104 9f3e 4637 94be 3aac 8d3e ddf4 3e3b
00000050: 9d80 debe 14e0 bfbe 5f25 f5be 646b 11be
00000060: 6fd2 87be 3870 c33d 1064 9e3c feae c8bd
00000070: 7de3 66be 2305 13bf d468 c43e 43b4 51bf
00000080: 160c a53e 0459 d33d b01d 433d d145 8abe
00000090: c84b 13bd e22a 7cbe 928f 09bf 599a bd3e
000000a0: d6be 213d 3cdc f83d 62ba 983e 9c8e a4bd
000000b0: dd25 eabe f99a b2be 49fc 3e3e b447 063e
000000c0: 8f7d bcbe eed4 5fbe 7b25 5abf 71ec c3be
000000d0: e3a5 5abe 6a2d 443d 634b cfbb 79d8 133e
000000e0: fcf8 133e cb7a b23c e585 c0be f988 a7be
000000f0: ca52 bcbc 4582 2abe 0028 47bd 7ebf aebd

bn2.running_var f4 [64]
0.15063937 0.12365787 0.46296427 0.3386801 0.19150114 0.5093334 0.19032316 0.21166456
0.11329259 0.19114283 0.30263832 0.4384142 0.46236748 0.46972772 0.14875808 0.15327498
0.198403 0.37599817 0.19979209 0.20297249 0.47297102 0.30390412 0.37650174 0.459746
0.4129713 0.55425435 0.19263351 0.2533091 0.16921449 0.7116494 0.2871807 0.26967317
0.44359514 0.11003499 0.2749487 0.4023239 0.2149403 0.845715 0.376077 0.14519344
0.16671339 0.18755075 0.16479199 0.10095999 0.5522586 0.23412898 0.20471103 0.22038195
0.23413429 0.4222621 0.5512092 0.35691676 0.43198234 0.13877903 0.36567575 0.15634082
0.28449917 0.27651453 0.6130488 0.37538147 0.31318107 0.38140488 0.16027914 0.16366176
00000000: 3541 1a3e 5640 fd3d a709 ed3e 7a67 ad3e
00000010: e018 443e ac63 023f 13e4 423e 98be 583e
00000020: f205 e83d f2ba 433e 69f3 9a3e d377 e03e
00000030: 6ebb ec3e 2780 f03e 0a54 183e 1ef4 1c3e
00000040: 282a 4b3e d582 c03e 4c96 4c3e 05d8 4f3e
00000050: 4229 f23e 5299 9b3e d6c4 c03e d463 eb3e
00000060: f970 d33e 9de3 0d3f b841 453e bbb1 813e
00000070: 9046 2d3e a82e 363f 5909 933e 9a12 8a3e
00000080: e71e e33e 065a e13d 13c6 8c3e 66fd cd3e
00000090: 4f19 5c3e c780 583f 2a8d c03e 97ad 143e
000000a0: eab6 2a3e 4e0d 403e 3bbf 283e 1cc4 ce3d
000000b0: d260 0d3f 82bf 6f3e c59f 513e ceab 613e
000000c0: e6c0 6f3e bd32 d83e 0c1c 0d3f cbbd b63e
000000d0: ca2c dd3e 171c 0e3e da39 bb3e cf17 203e
000000e0: e0a9 913e 5093 8d3e c4f0 1c3f 0032 c03e
000000f0: 4559 a03e 8047 c33e 3720 243e f396 273e

t_conv1.weight f4 [64, 128, 2]
0.06463333 0.04347446 0.07119786 0.09220034 0.0051469817 0.044986416 0.022547152 0.04805423
0.055988137 0.034497835 -0.012278048 -0.02872811 -0.064041086 0.004486379 0.0027644932 0.011265592
-0.03189537 -0.04598773 0.039269518 0.027312094 -0.036248345 0.023661422 -0.029716354 -0.029927555
-0.035439663 -0.039711263 -0.07476127 -0.049909417 0.007718775 0.024236266 0.07520745 0.00885545
0.083499864 0.05102531 -0.014875432 -0.0375829 -0.028702935 -0.02398097 0.024159597 0.01852705
-0.039447073 -0.0178209 -0.06114637 0.09028792 0.063005984 -0.049622353 0.09424653 -0.0056404783
0.048087988 0.01427144 0.05190492 0.05525256 0.013130214 0.002696184 -0.014421309 -0.0068698954
0.06596024 -0.039412167 0.032694686 0.022041172 -0.044369735 -0.036619525 -0.0014520653 0.042471286
0.020381398 -0.04721437 0.051213406 -0.030776866 0.00706349 0.05591826 0.08189806 0.008852442
-0.0032650172 0.036216002 -0.0361307 -0.049515143 0.07694643 -0.033508666 0.020774977 -0.04803451
0.008402698 -0.038230356 -0.028757693 0.027643614 -0.03636881 0.045641385 -0.034658663 -0.054809548
0.08552923 0.06183209 0.04469522 -0.006662955 0.027012525 0.0059685213 -0.06798154 0.071764566
-0.038310573 0.030805496 -0.028032223 0.049789026 0.10585969 -0.018811231 -0.020684863 -0.05007277
0.065167524 0.079684705 0.015494574 0.05365904 0.026751472 -0.021584138 0.029782496 -0.05803599
-0.013930425 0.01353548 -0.019270828 0.0027111953 0.06109713 -0.05366769 0.063748285 0.008513474
0.05340603 -0.08674752 0.09827035 0.0055701844 0.05665723 -0.04893409 -0.017123263 -0.0070237876
0.03294651 0.02315389 0.079029076 0.010677038 -0.057573937 -0.008327539 0.07725025 0.046026915
-0.042672597 0.062026832 0.070194475 0.019197132 0.076637805 0.024248853 -0.004519827 -0.022888606
0.03169883 0.09942331 0.034560803 -0.0922338 0.0029966633 0.04392242 -0.059059896 -0.007538766
0.068199046 0.06329161 0.08714192 0.017951656 -0.018159393 0.06772736 0.037180558 0.09544098
0.042529717 -0.017736522 0.052604366 0.037282806 -0.016238911 0.08763486 0.041363712 -0.006573423
-0.05814728 0.04409599 -0.075826325 0.06530041 0.011934374 0.006780716 0.022488136 0.08845337
0.000952206 -0.05226714 0.012241535 -0.0339782 0.014746081 0.053589415 -0.027399033 0.073090695
-0.02345698 0.07233861 0.073818654 0.0012432205 -0.0017599162 0.047759824 0.004283627 -0.017902084
0.09979766 0.023988685 0.063761115 0.0023716032 0.011804265 0.016995218 0.035252776 0.061377004
0.08621936 0.026830725 -0.040111654 0.07869505 0.083580494 0.05963997 0.0428761 -0.009629652
-0.02435379 0.015734471 -0.003566956 0.031414326 -0.07293616 -0.026739283 -0.041892856 0.031388003
0.067676775 -0.018734494 -0.029224291 0.011357074 0.028095316 -0.018652625 0.0418798 -0.022397783
0.0273789 0.012577685 0.059810378 -0.09238875 0.051302962 0.0035913733 0.012025063 0.0545342
0.03279589 0.02201438 0.023996765 0.063714296 -0.006464264 0.081248626 -0.0033008053 0.07567794
0.020654911 0.042695563 -0.0132793505 -0.0067667947 -0.029236503 0.040623706 -0.010690762 0.010838408
0.05269127 0.04099401 -0.0032285124 -0.02235702 0.044052582 -0.029807609 -0.037850287 -0.012244329
00000000: 7b5e 843d 4612 323d 2fd0 913d 88d3 bc3d
00000010: 03a8 a83b ad43 383d ceb4 b83c 83d4 443d
00000020: d153 653d 9a4d 0d3d de29 49bc 3757 ebbc
00000030: f927 83bd 7a02 933b 802c 353b 5193 383c
00000040: b8a4 02bd a15d 3cbd 13d9 203d 9dbd df3c
00000050: 2579 14bd 99d5 c13c b66f f3bc a22a f5bc
00000060: 2e29 11bd 47a8 22bd 701c 99bd d16d 4cbd
00000070: c7ed fc3b 228b c63c 5d06 9a3d 7316 113c
00000080: fa01 ab3d eaff 503d 15b8 73bc 87f0 19bd
00000090: 6b22 ebbc bd73 c4bc 59ea c53c 0ac6 973c
000000a0: 4193 21bd 23fd 91bc 9e74 7abd dfe8 b83d
000000b0: 4809 813d cf40 4bbd 5304 c13d c3d3 b8bb
000000c0: e9f7 443d c2d2 693c 419a 543d 8250 623d
000000d0: 1c20 573c 76b2 303b 5b47 6cbc dc1c e1bb
000000e0: 2a16 873d a76e 21bd ddea 053d b08f b43c
000000f0: 0abd 35bd 5bfe 15bd 3a53 beba 5ff6 2d3d
00000100: e4f6 a63c db63 41bd 26c5 513d c41f fcbc
00000110: d974 e73b 8c0a 653d 2cba a73d d509 113c
00000120: e6f9 55bb 3b57 143d c9fd 13bd 64d0 4abd
00000130: 1796 9d3d 6240 09bd 4930 aa3c d6bf 44bd
00000140: 78ab 093c 6f97 1cbd 4195 ebbc dc74 e23c
00000150: 76f7 14bd 76f2 3a3d 3ef6 0dbd fa7f 60bd
00000160: f329 af3d a543 7d3d 5612 373d eb54 dabb
00000170: 5f49 dd3c 9693 c33b e839 8bbd 4df9 923d
00000180: 8ceb 1cbd cf5b fc3c d5a3 e5bc 94ef 4b3d
00000190: f7cc d83d 031a 9abc 4d73 a9bc 1b19 4dbd
000001a0: 8d76 853d bc31 a33d f4dc 7d3c 95c9 5b3d
000001b0: e725 db3c 38d1 b0bc 6cfa f33c 25b7 6dbd
000001c0: 703c 64bc ebc3 5d3c dbdd 9dbc 4fae 313b
000001d0: fc40 7a3d a7d2 5bbd 768e 823d 197c 0b3c
000001e0: 48c0 5a3d afa8 b1bd f741 c93d 1886 b63b
000001f0: 6911 683d 1d6f 48bd 1646 8cbc cd27 e6bb
00000200: ebf2 063d 3aad bd3c ffd9 a13d beee 2e3c
00000210: a6d2 6bbd 3b70 08bc 6135 9e3d b886 3c3d
00000220: 76c9 2ebd d90f 7e3d 1fc2 8f3d 4e43 9d3c
00000230: 48f4 9c3d 88a5 c63c 0f1b 94bb e380 bbbc
00000240: a2d6 013d 739e cb3d a18f 0d3d 13e5 bcbd
00000250: ab63 443b ffe7 333d cae8 71bd c107 f7bb
00000260: f1ab 8b3d 089f 813d 7777 b23d 5a0f 933c
00000270: 02c3 94bc a4b4 8a3d a44a 183d 8f76 c33d
00000280: a433 2e3d 2f4c 91bc ad77 573d dbb5 183d
00000290: 7707 85bc e879 b33d ff6c 293d de65 d7bb
000002a0: d82b 6ebd ff9d 343d d54a 9bbd 39bc 853d
000002b0: 6588 433c c530 de3b 0a39 b83c 0a27 b53d
000002c0: 779d 793a 1216 56bd b890 483c ba2c 0bbd
000002d0: 8c99 713c 9380 5b3d f073 e0bc 93b0 953d
000002e0: da28 c0bc 4426 943d 3c2e 973d 8ff3 a23a
000002f0: fdac e6ba ce9f 433d ab5d 8c3b 64a7 92bc
00000300: b762 cc3d eb83 c43c 3095 823d e66c 1b3b
00000310: ad66 413c 8e39 8b3c 3765 103d 7466 7b3d
00000320: c793 b03d 1ccc db3c 1e4c 24bd df2a a13d
00000330: 402c ab3d 0b49 743d d99e 2f3d b0c5 1dbc
00000340: 9981 c7bc 94e5 803c 97c3 69bb 4fac 003d
00000350: 8e5f 95bd 570c dbbc d897 2bbd b590 003d
00000360: 1f9a 8a3d 1579 99bc c867 efbc 0513 3a3c
00000370: 2628 e63c 64cd 98bc 278a 2b3d 8e7b b7bc
00000380: b749 e03c a212 4e3c bafb 743d 5036 bdbd
00000390: 0e23 523d 3f5d 6b3b c504 453c 415f 5f3d
000003a0: fc54 063d 8057 b43c dd94 c43c a47c 823d
000003b0: 2dd2 d3bb ae65 a63d 5352 58bb 09fd 9a3d
000003c0: 7d34 a93c 8be1 2e3d a291 59bc fdbb ddbb
000003d0: 6481 efbc 0b65 263d 4e28 2fbc 9493 313c
000003e0: cdd2 573d 56e9 273d 7395 53bb 1226 b7bc
000003f0: 7b70 343d 162f f4bc e708 1bbd 709c 48bc

t_conv1.bias f4 [128]
0.0796066 0.005205494 0.04770367 0.00663418 -0.029334376 -0.01755204 -0.01818168 0.043905582
0.025676481 0.08421452 0.039332826 0.012941924 -0.006689087 0.058725197 -0.019994548 0.08097474
0.032000232 0.04438396 0.060595408 -0.03891867 0.07035627 0.07023162 0.07608746 0.04684688
-0.014701426 -0.022032239 0.044448823 0.034609117 0.06250551 0.07573193 -0.009417919 0.063028686
0.017621849 -0.048327833 0.01738717 -0.008510562 -0.0025135526 -0.016559925 -0.052359175 -0.035474464
0.067009486 -0.0348959 0.008993383 -0.016666504 0.0794392 0.03939137 0.0017045743 -0.02195602
-0.008947613 0.008192963 -0.004322602 -0.009085009 -0.0051243473 -0.011247328 -0.018629715 0.04200788
0.01703148 -0.045788545 -0.021293174 -0.008702137 0.04056454 -0.027184345 0.0034389435 0.05897126
-0.036933757 0.045125563 0.04836518 0.07354076 0.05581479 0.015686357 0.096417315 -0.019580876
0.0322208 0.026746238 -0.02776679 0.04659679 0.044900574 0.05476569 0.048407197 -0.040533826
0.021157976 0.021329926 0.057002384 0.05579687 0.012512779 0.049581733 0.07876782 0.048940368
0.090545185 0.07808003 -0.023540642 -0.016819144 -0.026954643 -0.024448467 0.0485541 0.028662656
0.036500704 0.024506735 -0.027423756 -0.034876198 0.045341983 0.028866397 0.045834538 0.025267012
0.04433603 0.040669844 -0.0038972332 0.07367139 0.019895911 0.019936541 -0.009375164 0.05571101
0.08328667 0.034476895 -0.017366461 -0.053287335 -0.017627837 0.025339985 0.07539567 -0.015339581
-0.0146127455 0.0007822396 0.03150915 0.04470716 -0.016524412 -0.014649762 0.032524105 0.06203107
00000000: c908 a33d d992 aa3b ec64 433d 8963 d93b
00000010: a54e f0bc 4cc9 8fbc bff1 94bc 57d6 333d
00000020: 7c57 d23c aa78 ac3d 751b 213d 5d0a 543c
00000030: 2130 dbbb d589 703d 9bcb a3bc 16d6 a53d
00000040: ad12 033d f5cb 353d e432 783d 2f69 1fbd
00000050: f316 903d 98d5 8f3d bed3 9b3d 84e2 3f3d
00000060: 40de 70bc f47c b4bc f80f 363d 4ac2 0d3d
00000070: e402 803d 5819 9b3d 9e4d 1abc 2f15 813d
00000080: b25b 903c 68f3 45bd 8a6f 8e3c e26f 0bbc
00000090: 6aba 24bb aea8 87bc 9376 56bd ac4d 11bd
000000a0: 453c 893d 01ef 0ebd fb58 133c 3188 88bc
000000b0: 05b1 a23d d858 213d 066c df3a 1cdd b3bc
000000c0: 0299 12bc c73b 063c 9da4 8dbb 4ad9 14bc
000000d0: 24ea a7bb b646 38bc 589d 98bc 7410 2c3d
000000e0: 9a85 8b3c c58c 3bbd 066f aebc 6893 0ebc
000000f0: 0127 263d b4b1 debc e65f 613b d98b 713d
00000100: da47 17bd 95d5 383d 911a 463d 8a9c 963d
00000110: 0d9e 643d ad80 803c 7176 c53d 1368 a0bc
00000120: f5f9 033d ed1a db3c 2e77 e3bc 47dc 3e3d
00000130: aae9 373d fd51 603d a046 463d cc06 26bd
00000140: 7e53 ad3c 19bc ae3c 557b 693d 428b 643d
00000150: 6602 4d3c 3716 4b3d 0651 a13d b275 483d
00000160: c16f b93d 6ce8 9f3d 4ed8 c0bc 4dc8 89bc
00000170: fccf dcbc 2748 c8bc aae0 463d f2cd ea3c
00000180: c381 153d 59c2 c83c c9a7 e0bc 58da 0ebd
00000190: 84b8 393d 3979 ec3c ffbc 3b3d c4fc ce3c
000001a0: b299 353d 6c95 263d b968 7fbb 07e1 963d
000001b0: c0fc a23c f551 a33c 4a9a 19bc 3a31 643d
000001c0: 3492 aa3d a537 0d3d 1c44 8ebc d243 5abd
000001d0: 4168 90bc cd95 cf3c 0c69 9a3d de52 7bbc
000001e0: 4c6a 6fbc 360f 4d3a bd0f 013d db1e 373d
000001f0: 345e 87bc 8e05 70bc ff37 053d 4b14 7e3d

t_conv2.weight f4 [128, 64, 2]
0.1019581 -0.023291957 0.028893843 -0.036609646 0.011535884 0.031865206 0.030742012 -0.10520889
0.13718414 0.06651924 0.021631924 0.1179553 -0.03279581 0.02084802 0.046432376 0.10818197
0.073780715 0.012333379 0.037173614 0.032168653 -0.028169746 -0.0356932 0.12813704 -0.046157822
0.083368525 -0.10268315 -0.023701862 -0.02534483 0.047522552 0.0045249686 -0.09039108 -0.03869543
0.06935339 0.12875278 -0.023079043 0.053938247 -0.019210814 0.08387185 0.012808703 -0.09959894
0.10172468 0.118382975 0.12470713 -0.017511113 -0.04392605 0.06261307 -0.055930223 -0.11060235
-0.038114157 0.0067688567 0.006675731 0.050402433 0.0077649234 0.02074828 0.0045671607 -0.061618358
-0.067593075 0.017329568 -0.07821291 -0.036411848 -0.026807776 0.04906504 0.08616298 -0.07217469
0.01832148 -0.08516461 0.05361252 -0.0027077433 0.0860743 0.038044505 0.05942068 -0.03254129
0.049027633 0.0035299435 0.07635649 0.02794258 0.03402525 0.03484603 -0.07360957 0.045328658
-0.121084854 -0.03934917 -0.013348896 0.110739976 -0.034445643 -0.022040125 0.037351437 -0.020107944
0.011853393 0.008352658 0.041052353 0.08997297 0.047287636 0.03229303 -0.00913498 0.009159488
0.03891588 0.057277508 0.09692638 0.002970661 0.06921067 -0.08885026 0.06505728 -0.071836926
-0.02296248 0.09037318 0.07840033 -0.02088351 0.041858267 -0.054830354 -0.08039466 0.032534752
-0.039079897 0.036416035 0.0076115434 0.018634181 0.06450113 -0.060059197 0.07326749 0.083082765
-0.0049478314 0.04216665 -0.03364164 0.12605427 0.07434137 0.120327815 0.05837622 0.018637836
0.10908458 -0.011586186 0.04506595 -0.09515114 0.03349821 -0.020581357 -0.019376222 0.026470719
0.03834258 0.015451753 -0.018055962 0.11834328 0.057915375 0.124642 -0.06155232 -0.037572224
0.040875692 -0.031480283 -0.10920292 0.05676609 -0.009150666 -0.06683254 0.09991522 0.017830819
0.094532184 -0.043932337 0.008039308 0.120483555 -0.07839862 0.016613457 -0.08975334 -0.053340565
-0.058667697 0.12294974 -0.08488948 0.10296921 -0.075842135 0.120820716 -0.087791264 -0.07450322
0.114390425 0.08230681 0.10223168 -0.07271439 0.039387546 0.0974032 -0.033373687 -0.03884741
0.01760366 -0.020375714 0.0161095 0.06333596 -0.026113415 -0.012454086 0.08774603 0.09096978
-0.10287176 0.044182472 -0.1015278 0.06562061 0.005029526 -0.007049906 0.084279075 -0.06365783
0.042345196 -0.033187766 0.030658698 0.09383469 0.025380652 0.065708734 0.09951405 0.015353051
-0.114907764 -0.05601197 0.018298207 -0.07039711 -0.03542602 0.059524495 0.023966739 0.05536812
-0.09229775 0.017678436 0.05882334 -0.016262082 0.03820024 -0.016178729 -0.013729557 0.02243778
0.06598859 0.040826526 -0.0076227724 0.055864986 0.010423004 0.017785093 0.13223422 -0.011816501
-0.11020364 -0.05910762 0.05046576 0.11520577 -0.082057275 -0.028216183 -0.01747698 0.04261136
-0.011902485 0.030280188 -0.04296645 -0.06357061 0.018649288 0.005605057 -0.08617891 -0.0042393394
-0.0531674 -0.09729815 -0.016055256 0.07766343 -0.02066002 -0.068986215 0.11554453 -0.035251357
-0.018341208 -0.029158825 -0.06009919 0.12896805 -0.07614959 0.006422021 0.018052595 -0.02760402
00000000: 69cf d03d c6ce bebc c8b2 ec3c fff3 15bd
00000010: 0101 3d3c 1785 023d acd6 fb3c c277 d7bd
00000020: 007a 0c3e 3d3b 883d 6f35 b13c 8c92 f13d
00000030: e654 06bd 78c9 aa3c e02f 3e3d 828e dd3d
00000040: 581a 973d f111 4a3c 5c43 183d 47c3 033d
00000050: 3dc4 e6bc 0833 12bd 5b36 033e fc0f 3dbd
00000060: 1ebd aa3d 8b4b d2bd 682a c2bc f69f cfbc
00000070: 02a7 423d 3046 943b f51e b9bd 197f 1ebd
00000080: 2609 8e3d c5d7 033e 4310 bdbc 5aee 5c3d
00000090: ff5f 9dbc 01c5 ab3d 98db 513c 87fa cbbd
000000a0: 0755 d03d c672 f23d 7466 ff3d 7773 8fbc
000000b0: cdeb 33bd 483b 803d 1717 65bd 7c83 e2bd
000000c0: 971d 1cbd 49cd dd3b 17c0 da3b c872 4e3d
000000d0: e670 fe3b 4cf8 a93c 1fa8 953b 8863 7cbd
000000e0: 3d6e 8abd bdf6 8d3c 172e a0bd 9724 15bd
000000f0: fb9b dbbc 6cf8 483d 3776 b03d 53d0 93bd
00000100: ee16 963c c86a aebd cd98 5b3d 6574 31bb
00000110: b947 b03d 8ed4 1b3d 1963 733d 044a 05bd
00000120: 33d1 483d a056 673b cb60 9c3d d6e7 e43c
00000130: 0f5e 0b3d b6ba 0e3d 9dc0 96bd 8baa 393d
00000140: 56fb f7bd 982c 21bd 54b5 5abc a4cb e23d
00000150: e016 0dbd 7e8d b4bc d2fd 183d 6ab9 a4bc
00000160: bc34 423c 96d9 083c 8326 283d c043 b83d
00000170: aeb0 413d b245 043d e2aa 15bc ad11 163c
00000180: 4266 1f3d d29b 6a3d 5781 c63d 6caf 423b
00000190: 53be 8d3d 20f7 b5bd c03c 853d 3d1f 93bd
000001a0: d01b bcbc 9315 b93d 5a90 a03d e513 abbc
000001b0: 9373 2b3d cb95 60bd f5a5 a4bd 2943 053d
000001c0: 3e12 20bd fb28 153d 416a f93b b6a6 983c
000001d0: 2b19 843d a200 76bd 440d 963d 4c27 aa3d
000001e0: 6b21 a2bb f0b6 2c3d d1cb 09bd 5f14 013e
000001f0: 4a40 983d 6e6e f63d e71b 6f3d 60ae 983c
00000200: bc67 df3d fcd3 3dbc 1397 383d 9ade c2bd
00000210: 6b35 093d 3c9a a8bc e2ba 9ebc 1fd9 d83c
00000220: 1c0d 1d3d 5929 7d3c 19ea 93bc f65d f23d
00000230: ac38 6d3d 4e44 ff3d 491e 7cbd 55e5 19bd
00000240: 456d 273d 78f1 00bd c8a5 dfbd 8f83 683d
00000250: adec 15bc 80df 88bd 5aa0 cc3d f011 923c
00000260: 179a c13d 65f2 33bd 4db7 033c 15c0 f63d
00000270: 758f a0bd f218 883c 99d0 b7bd a37b 5abd
00000280: 8a4d 70bd 13cd fb3d 89da adbd 85e1 d23d
00000290: 1f53 9bbd da70 f73d e8cb b3bd 2595 98bd
000002a0: 8745 ea3d 7990 a83d d85e d13d 48eb 94bd
000002b0: d654 213d 547b c73d d9b2 08bd 761e 1fbd
000002c0: 8d35 903c f8ea a6bc 12f8 833c 49b6 813d
000002d0: cdeb d5bc 390c 4cbc 31b4 b33d 5d4e ba3d
000002e0: 6eae d2bd aef8 343d cfed cfbd 1964 863d
000002f0: b9ce a43b e602 e7bb 829a ac3d 095f 82bd
00000300: 2872 2d3d e5ef 07bd f327 fb3c 672c c03d
00000310: 16eb cf3c 4d92 863d 06ce cb3d 5d8b 7b3c
00000320: c354 ebbd cf6c 65bd 1fe6 953c 5c2c 90bd
00000330: e01a 11bd f5cf 733d e555 c43c afc9 623d
00000340: 9a06 bdbd 5ed2 903c bef0 703d 0f38 85bc
00000350: db77 1c3d 4189 84bc f0f1 60bc 6fcf b73c
00000360: 0725 873d b739 273d 73c8 f9bb afd2 643d
00000370: 3fc5 2a3c 0bb2 913c 6868 073e ff99 41bc
00000380: 72b2 e1bd d51a 72bd 2fb5 4e3d 01f1 eb3d
00000390: a50d a8bd a025 e7bc e22b 8fbc 4089 2e3d
000003a0: a402 43bc 280e f83c 97fd 2fbd 4f31 82bd
000003b0: 64c6 983c a0aa b73b 927e b0bd 28ea 8abb
000003c0: 0fc6 59bd 4144 c7bd 5086 83bc 010e 9f3d
000003d0: 343f a9bc a548 8dbd 9ca2 ec3d ba63 10bd
000003e0: 4d40 96bc 7dde eebc 912a 76bd 3310 043e
000003f0: 51f4 9bbd d16f d23b 09e3 933c d321 e2bc

t_conv2.bias f4 [64]
-0.051269636 -0.039060734 0.09649127 -0.0080836285 -0.06750479 -0.029094785 0.0016745634 0.07097431
0.026588097 0.09915038 0.004426418 0.111973986 0.0792909 0.048782118 -0.059699737 -0.034477547
0.058569986 -0.0059684915 -0.030968336 -0.020942759 -0.037580695 -0.048287123 0.038536727 0.101703055
0.044100594 0.06567309 -0.04244217 0.05974406 0.0031302054 0.07327486 0.022239897 0.03019391
-0.01276259 0.08389324 0.11922385 0.060238093 -0.035828482 -0.03012844 0.06619414 0.04289007
-0.0132559 0.043652225 0.10378395 -0.06117454 0.093061425 0.101951644 -0.008138886 -0.050857063
0.036386095 -0.037151452 0.018998977 0.036243446 0.10034041 0.017169908 0.074046396 -0.031007268
0.018419597 0.047987174 0.051430024 0.026350288 0.07044562 0.025697703 -1.4768283e-05 0.039338514
00000000: 1c00 52bd 26fe 1fbd 379d c53d 3271 04bc
00000010: f43f 8abd 3058 eebc 067d db3a fb5a 913d
00000020: 48cf d93c 5b0f cb3d 7c0b 913b 9e52 e53d
00000030: 4463 a23d c2cf 473d b687 74bd 5438 0dbd
00000040: 15e7 6f3d 5693 c3bb 4fb1 fdbc 2690 abbc
00000050: 37ee 19bd b8c8 45bd b0d8 1d3d b149 d03d
00000060: d3a2 343d 9d7f 863d d7d7 2dbd 30b6 743d
00000070: 2224 4d3b 2111 963d 7230 b63c 3859 f73c
00000080: 2f1a 51bc 38d0 ab3d a22b f43d 38bc 763d
00000090: e3c0 12bd ebcf f6bc cb90 873d 7fad 2f3d
000000a0: 462f 59bc adcc 323d ae8c d43d 2892 7abd
000000b0: fd96 be3d 06cc d03d f658 05bc 7f4f 50bd
000000c0: 9609 153d 1f2c 18bd bea3 9b3c 0274 143d
000000d0: 467f cd3d e8a7 8c3c a3a5 973d f402 febc
000000e0: b2e4 963c 338e 443d 4aa8 523d 8fdc d73c
000000f0: cb45 903d fd83 d23c 4bc5 77b7 6c21 213d

conv_out.weight f4 [1, 64, 3]
0.037703898 -0.11457643 -0.033119272 -0.037055254 -0.11599674 -0.04971272 0.021338604 -0.009430651
0.114354245 0.03612112 -0.12180285 0.072126694 0.09785044 -0.117047146 -0.07844654 -0.10240568
0.11270441 -0.09432654 0.10097776 0.104153186 -0.0112209115 -0.0678895 -0.020893317 -0.08582282
-0.094473384 -0.0987739 -0.010396666 0.021284267 0.09726828 -0.052586216 -0.022982987 -0.060653113
0.11666369 -0.011061335 -0.101775 -0.10999288 0.09977993 0.01488254 0.10814782 0.0020175807
0.03988579 -0.13043955 -0.035613216 0.059655886 -0.045619722 -0.09326576 0.045799557 0.058590993
-0.108575255 0.08505497 -0.12081615 -0.031814672 0.119710036 0.05598283 0.050332002 0.10569025
-0.11636502 0.085543446 -0.0079270415 0.05702404 0.0741943 0.11576118 -0.1213672 0.119402654
-0.091775976 -0.03542503 0.063840605 0.09742008 0.07970127 0.10074732 -0.022405146 0.10055523
-0.016620655 0.059125483 0.08118039 0.027822997 0.10095466 -0.03712518 -0.14305829 0.06727642
0.11468341 0.10667731 -0.057834506 -0.08720219 -0.02498671 0.088013604 0.07010987 -0.060016472
0.11615373 0.07562559 0.035268396 -0.075811274 0.08283188 0.06493854 -0.08668745 0.058877174
-0.04879859 -0.11573186 0.08049101 -0.073771 -0.061145764 -0.095333986 0.07837628 -0.112189144
-0.06669534 0.10734744 -0.022226797 -0.08728522 -0.09212833 0.030097906 -0.01659453 -0.088117816
-0.066020444 0.0050727944 -0.06615357 -0.026386062 -0.066300824 0.09827855 0.09905511 -0.046759084
-0.02087605 0.04026382 0.07136345 -0.059747845 -0.08976498 -0.10551048 -0.11450728 -0.045323845
-0.03175871 -0.080154136 0.07713445 -0.07713146 0.105883375 0.10868321 -0.13464856 -0.07096978
-0.08072792 -0.09628839 -0.11525208 0.122531995 -0.030382464 0.06562657 -0.10553492 -0.054629344
-0.114663474 0.013036282 -0.087888554 -0.07225743 -0.059344407 -0.09507852 0.057651546 -0.051395506
0.10335925 -0.113210395 -0.09986813 0.08769261 -0.05305122 -0.12038929 0.035904758 0.09538104
0.0038828307 0.06487283 -0.031757813 -0.114880115 0.04227974 -0.08737325 0.087708436 0.056143824
-0.061894618 0.0131542105 0.11947331 -0.08654172 0.06064859 -0.022676317 0.108917184 -0.11520037
-0.02511681 0.013505746 -0.11126722 -0.102109835 -0.12183985 -0.061545618 0.036205977 0.0851537
0.10422455 -0.12378101 0.046299607 0.12729214 -0.06071965 0.08531646 -0.12836002 0.07889447
00000000: 676f 1a3d 0ca7 eabd 13a8 07bd 40c7 17bd
00000010: b38f edbd 919f 4bbd 4cce ae3c 0483 1abc
00000020: 8f32 ea3d bdf3 133d c673 f9bd 29b7 933d
00000030: d065 c83d 6ab6 efbd 94a8 a0bd 12ba d1bd
00000040: 92d1 e63d 462e c1bd 6ecd ce3d 444e d53d
00000050: ead7 37bc a609 8bbd 7628 abbc e0c3 afbd
00000060: 437b c1bd f849 cabd c756 2abc 585c ae3c
00000070: 9834 c73d a564 57bd d146 bcbc 666f 78bd
00000080: 5fed ee3d 9a3a 35bc 696f d0bd f243 e1bd
00000090: 6c59 cc3d e6d5 733c 9b7c dd3d 6339 043b
000000a0: 485f 233d f291 05be 2adf 11bd bb59 743d
000000b0: bfdb 3abd 1e02 bfbd 5198 3b3d 1cfd 6f3d
000000c0: b45c debd 4d31 ae3d 756e f7bd 1a50 02bd
000000d0: 892a f53d 404e 653d ee28 4e3d 2174 d83d
000000e0: c950 eebd 6731 af3d 6ce0 01bc 0a92 693d
000000f0: 2ef3 973d 3314 ed3d 5e8f f8bd 6189 f43d
00000100: 0bf5 bbbd d619 11bd ddbe 823d 2e84 c73d
00000110: 6b3a a33d 9c54 ce3d ff8a b7bc e7ef cd3d
00000120: 0a28 88bc 902d 723d e841 a63d 0eed e33c
00000130: 51c1 ce3d 9310 18bd df7d 12be 38c8 893d
00000140: 23df ea3d a279 da3d e0e3 6cbd 1097 b2bd
00000150: eeb0 ccbc 7a40 b43d c395 8f3d d5d3 75bd
00000160: 02e2 ed3d 97e1 9a3d 9875 103d f142 9bbd
00000170: c3a3 a93d 7ffe 843d 3189 b1bd 3129 713d
00000180: 08e1 47bd d304 edbd 78d8 a43d 4015 97bd
00000190: fb73 7abd 773e c3bd be83 a03d 6cc3 e5bd
000001a0: 9197 88bd fad8 db3d f914 b6bc 98c2 b2bd
000001b0: c7ad bcbd e28f f63c 40f1 87bc 1d77 b4bd
000001c0: ba35 87bd af39 a63b 867b 87bd 9527 d8bc
000001d0: bac8 87bd 4446 c93d 68dd ca3d 7486 3fbd
000001e0: 4004 abbc adeb 243d 0027 923d 28ba 74bd
000001f0: b4d6 b7bd e115 d8bd cb82 eabd 7fa5 39bd
00000200: 6c15 02bd da27 a4bd abf8 9d3d 19f7 9dbd
00000210: 62d9 d83d 4e95 de3d 50e1 09be 9b58 91bd
00000220: ae54 a5bd d932 c5bd 4809 ecbd 0ef2 fa3d
00000230: a5e4 f8bc 3967 863d b122 d8bd 05c3 5fbd
00000240: afd4 eabd 2196 553c eafe b3bd b4fb 93bd
00000250: 1f13 73bd 87b8 c2bd 0724 6c3d 1884 52bd
00000260: 04ae d33d dada e7bd aa87 ccbd 2f98 b33d
00000270: 3c4c 59bd a98e f6bd de10 133d 2257 c33d
00000280: 1777 7e3b 0cdc 843d 7b14 02bd 4446 ebbd
00000290: 852d 2d3d bff0 b2bd 7ba0 b33d 11f7 653d
000002a0: 3685 7dbd c284 573c 6cae f43d c93c b1bd
000002b0: a86a 783d afc3 b9bc f90f df3d 2cee ebbd
000002c0: c5c1 cdbc 3447 5d3c 11e0 e3bd f61e d1bd
000002d0: 2c87 f9bd 4217 7cbd b84c 143d 1065 ae3d
000002e0: ae73 d53d e680 fdbd a8a4 3d3d df58 023e
000002f0: 2bb5 78bd 65ba ae3d cf70 03be 6d93 a13d
