pths/denoiser_model_2.pth (torch, 166322 bytes, 17 tensors)

conv1.weight f4 [32, 1, 3]
00000000: 2e97 df3e 9791 f23e d6f0 11be 41e8 fd3e
00000010: 575d 25be 476b dd3d c684 7cbe 1a6e ad3e
00000020: baef 0c3f 9b91 d2be 0710 003f 0d3f 283e
00000030: 85a5 bb3e d246 bf3d d99f ab3e e48b dcbd
00000040: 18c8 c43e ad81 193e e8dc 94be b203 1c3e
00000050: d749 81be 5ed6 a1bd 574d 68be 5e1b c63e
00000060: 417e d7be 027b 99be 016e 2cbe a417 c9be
00000070: 91a6 493d bf32 06bf 126c 0c3f cfdc febe
00000080: 1bf2 ce3e 805d 773d 1f87 37be b62f c33e
00000090: 84f2 843d aac5 003f 622c 9c3b fd38 34be
000000a0: 6c71 3f3e 3a86 f2bd 1b96 823e df41 fa3e
000000b0: 637a b43e b034 66be bb54 ba3e 0af9 df3d
000000c0: e287 903e 7d00 d9be e352 02bf 9b92 76be
000000d0: 574b f5be 5116 d93e 068e 463e 9fdf 773e
000000e0: 2385 1c3e 6b2b 3e3c 1e1e ee3e 9fb4 cbbe
000000f0: ea79 8c3d 2b89 d1be 367b 193e b64d 12be
00000100: f265 713e bf9f e6bd 8a08 df3e aacd c4be
00000110: 362b b9be 5105 9cbe bc09 0f3f f4a1 4d3e
00000120: c94c 113f 1f0b 08bf 4c0d 01bf e056 dabe
00000130: 16a6 d4be 5768 823e afbb 643e 805d df3e
00000140: 3a40 afbe cc18 d0be 7718 9a3e 16ae 66be
00000150: a5d3 a73e 5c76 0ebe 1b05 b43e b5cf cdbe
00000160: 7d5f a2be fe55 513e 990b c13d f7a7 1fbe
00000170: 964b b33e 91ee be3e afcc e9be 0dc5 87be
0.43670028 0.473767 -0.14252028 0.49591258 -0.16148888 0.10811477 -0.24660024 0.33873063
0.55053294 -0.41126713 0.50024456 0.16430302 0.3664972 0.0933968 0.33520392 -0.107688695
0.3843391 0.14990874 -0.29074788 0.15235785 -0.25251648 -0.079022154 -0.22685753 0.38692755
-0.42088512 -0.2997666 -0.16838838 -0.3927585 0.049231116 -0.5242118 0.548524 -0.4977784
0.40419087 0.060391903 -0.17922638 0.38122338 0.06491569 0.5030161 0.004766033 -0.17599864
0.18695611 -0.11842008 0.25505146 0.4887838 0.35249624 -0.22481036 0.3639277 0.10936172
0.2822867 -0.42383185 -0.50907725 -0.24079363 -0.47909042 0.4239984 0.19390115 0.24206398
0.15285163 0.011607031 0.46507353 -0.3978624 0.06859191 -0.40924963 0.14988407 -0.14287457
0.23574045 -0.11260938 0.43561202 -0.3843816 -0.3616578 -0.30472806 0.5587423 0.20081311
0.5675779 -0.5314197 -0.50410914 -0.42644405 -0.41532964 0.2547023 0.2233722 0.43626022
-0.34228688 -0.4064392 0.3009679 -0.22527346 0.3277866 -0.13912338 0.35160145 -0.4019753
-0.31713477 0.2044296 0.0942604 -0.15591417 0.35018605 0.37291387 -0.45663974 -0.26517525

conv1.bias f4 [32]
00000000: ce67 073f 44c1 47be 474e 51be 1110 0fbf
00000010: 0c06 a9be 99b3 133e d054 9bbd d08a d6be
00000020: cc36 5a3c ab36 cabe f0aa fabe b976 a2be
00000030: 7a66 01bf 4b7a bcbe 4dc9 133f 7576 df3d
00000040: af49 363e 34e5 09bf 10bb c1be 3613 44be
00000050: 8828 b83d 97e8 01bf 60ac 7ebe 7581 b1be
00000060: 8dfe a33a b71e 5cbe 80ef 23bd cc29 c8be
00000070: d32e cbbe f95e acbe 1e23 49be 96ab e9be
0.5289277 -0.19507319 -0.20440017 -0.5588389 -0.33012426 0.1442398 -0.07584536 -0.4190278
0.013318729 -0.39494833 -0.4895854 -0.31731203 -0.5054699 -0.36812052 0.57729036 0.10911266
0.17801546 -0.5386536 -0.3783803 -0.19147953 0.08992106 -0.5074553 -0.24870443 -0.3466908
0.0012511775 -0.21496092 -0.040023327 -0.39094388 -0.39684162 -0.33666208 -0.19642302 -0.45638722

bn1.weight f4 [32]
00000000: 4c20 863f e15e 823f 2f1a 703f c581 7f3f
00000010: 55e6 723f 8bc4 773f ae10 7c3f ba8f 843f
00000020: 5f86 823f 4efd 7d3f 371f 813f 8979 743f
00000030: 6688 7d3f 1bed 7d3f 3df9 793f 78ba 843f
00000040: 7813 7f3f e041 843f 0525 843f ffc6 823f
00000050: be9f 813f 1040 7e3f eacf 7c3f 4c1a 7f3f
00000060: 1eca 7d3f 91b2 773f cab8 833f 5370 7a3f
00000070: 7e32 803f 2ab1 773f 5b05 7f3f 1693 823f
1.0478606 1.0185205 0.93789953 0.9980739 0.9488271 0.96784276 0.9846295 1.0356362
1.0197257 0.9921464 1.0087651 0.9549795 0.9903625 0.9918992 0.9764593 1.0369406
0.9963908 1.0332603 1.0323797 1.0216979 1.0126874 0.993165 0.9875475 0.996495
0.9913653 0.96756846 1.0290768 0.97827643 1.0015409 0.96754706 0.99617547 1.0201137

bn1.bias f4 [32]
00000000: f8d5 1c3d d8bf b53d 1ae6 983d a562 2c3d
00000010: 4677 9b3c 534b 563d e47c 1abd f2e1 8c3d
00000020: 5a34 753d a7f8 233d feb7 7c3c bcb2 e83c
00000030: 55f4 e13d 6401 133d c84b 8a3c 1c2b 663d
00000040: 151f 8a3d 46b9 a83d e13b 003d 4321 bb3d
00000050: c684 813d 83e4 3f3c fe6f 773d 4bb9 693d
00000060: 4c37 0e3d 682f 573d aae8 8d3d fc84 133d
00000070: c2cb 35bb 3b2d ac3b 0a46 c3bb 7407 903d
0.038289994 0.08874482 0.074657634 0.042086262 0.018977772 0.05231793 -0.03771676 0.06879033
0.05986438 0.040032055 0.0154247265 0.02840554 0.11032931 0.035889998 0.016881838 0.056193456
0.0674421 0.08238463 0.031307105 0.091372035 0.06324153 0.011712196 0.06040954 0.057061475
0.034720704 0.052535444 0.06929143 0.036015496 -0.0027739857 0.0052544153 -0.005959277 0.070326716

bn1.running_mean f4 [32]
00000000: c715 213f f6ff 0ebe b281 fcbd b38b 06bf
00000010: f953 6abe bea5 4b3e 8c9f 00be 482d d2be
00000020: 83d6 cfbd 111f 01bf 4e73 debe 804b 92be
00000030: bc22 dcbe e9b2 c3be 2c0f 383f 6210 103e
00000040: 0698 c13d 8131 14bf 48b8 9abe 4e24 38be
00000050: e6b8 813d d09a 02bf 9b8c 94be 0280 93be
00000060: 1cd0 7bbd 8646 96be 5282 da3a a890 ddbe
00000070: fb93 a8be b477 cfbe fc46 26be 82b6 00bf
0.62923855 -0.13964829 -0.12329425 -0.52556914 -0.22883596 0.19887444 -0.12560862 -0.41050172
-0.10148337 -0.5043803 -0.43447345 -0.28573227 -0.4299525 -0.38222435 0.7189815 0.1406875
0.09452824 -0.57888037 -0.3021872 -0.17982599 0.06334095 -0.51017475 -0.29013523 -0.288086
-0.061477765 -0.2935068 0.0016670919 -0.43274426 -0.329254 -0.40521014 -0.16238016 -0.50278485

bn1.running_var f4 [32]
00000000: 26ed 043f 9707 9f3e 05df 0a3f cbe6 f53e
00000010: 231c a63e ae5c 583e e1a2 453e 3cc1 603e
00000020: bc6f c43e 259c 043f b49f 433f c75f 473e
00000030: 801a 9d3e 2c8c ae3d 51f2 103f 5793 593e
00000040: 6a7f 173f 169f 013f 0ef4 213e 68d4 cb3e
00000050: b4a1 583e b43c bf3d a5b0 013f 7bd6 fb3e
00000060: 8356 6f3f 0899 f43e aaf5 c63e 387c aa3e
00000070: 8197 923e 0955 b23e 6e19 2d3e 4a06 ea3e
0.5192436 0.31060478 0.5424655 0.48027644 0.32443342 0.21129104 0.19300415 0.21948713
0.38366497 0.5180076 0.7641556 0.1947013 0.3068428 0.085228294 0.56619745 0.21247612
0.59178793 0.5063337 0.15815756 0.3981049 0.21155435 0.0933775 0.50660163 0.49187073
0.9349138 0.47773004 0.38859302 0.33297896 0.28631213 0.34830502 0.16904232 0.45707923

conv2.weight f4 [64, 32, 3]
00000000: c3a5 d13d c301 93bc 25e9 a83d 7bc4 583d
00000010: f642 febd 25c9 843d ac50 95bc 8047 83bd
00000020: 1ef8 b2bd 49b4 cabd 968b 973c 9e97 0abd
00000030: a804 9a3d cfb4 a4bd 8fb2 a63d 750f 67bd
00000040: 6956 f0bb d3bb 583c 6c93 073d e53f 8a3d
00000050: 729e ba3d fc32 c2bd 713b 333c 9fea 31bc
00000060: 235d 383c 8988 cebd 12d6 b43d a67b dabd
00000070: 413e 553d b196 153d ed30 083d a07c 8dbd
00000080: 0868 dc3d 3b05 15bb 9cd9 583a 94b7 5fbd
00000090: ab0b 6b3d 221e 193c f03f 4abd 07ba 8e3d
000000a0: 0c78 073c 7a77 60bd c199 7bbb e5f6 9f3b
000000b0: e73b 8d3d fcd7 a9bc 3769 8ebd 2db6 30bd
000000c0: 0e4c a5bd 36d0 0d3c 9761 663d 415d c7bd
000000d0: c3d9 793c 77fd 9e3d fdcc 893d 4586 08bd
000000e0: 9b12 923d 887f fd3c e75d 6f3d 7fbf 82bc
000000f0: e02e 25bd 6748 b83b 5fd7 e6ba a807 50bd
00000100: 0994 623d 9f89 bd3d 4e0a 01bb 2e7b 56bd
00000110: 4c1f b4bc a15b d43b 22aa 843c ec8e ae3c
00000120: 1ef5 b3bd 200e 89bd 667c 7c3d f7a8 7f3d
00000130: 9530 98bc 7726 6fbd 3fef 93bd 2484 8dbd
00000140: afef 17bd 92af 993c 545e 443d 4672 3a3d
00000150: 213b 9fbd 8eee 7abd 1331 97bb 0a5a 023e
00000160: 92d0 c7bb 631e d7bc 9ac5 833c 424f 54bd
00000170: 8a8c 00bd 55cd 9a3d 0a1c a7bd 8273 32bd
00000180: ab4a a5bd 91c9 de3d 5da1 753d 44da 8c3d
00000190: 3090 e2bd 480b e0bd d550 c9bd c0e4 b53d
000001a0: 1116 ae3d a049 113e a53d 1b3d e342 0a3d
000001b0: 7752 5a3c 8a2e 80bd a71f abbd 1899 44bd
000001c0: 0560 b63c 69b6 2abd f852 f73b 1af2 69bd
000001d0: 02b4 12bd 3dfd b7bd 5364 82bd 1ed6 4e3d
000001e0: 25c6 fbbc 0cd8 793d af8f f3bc c193 8bbd
000001f0: 8701 3cbc 7e9f 7bbd a30f 033c 8aac 05be
00000200: 5eca 3b3d 7fbb 74bd 6b3e 5a3d 2dfb 6e3d
00000210: 189c ec3d 6f49 8ebd 66c8 8d3d 5c34 01bc
00000220: 3cd0 163d f505 933d c9f8 6a3b 99cf 0d3c
00000230: 4102 a33a 7495 dcbc 2c29 ee3c 00e3 c2bd
00000240: 313b 463d 42bb a03d 19fe d13d fca6 30bd
00000250: 4db6 abbd 20bb 153d c594 8d3d cec1 a9bd
00000260: 4438 b83a 3ff2 90bc 1d9b a63c 8a32 a4bd
00000270: bfcc aebc 6603 60bd 1647 f0bd 5362 053e
00000280: c667 a33d 922b 14bd aa36 4fbc 0880 66bd
00000290: 2f2c 99bd 511f 44bd 9ba2 993c ba69 42bd
000002a0: 9562 8dbd 7b1b 8ebc 548e 98bc aebf 59bd
000002b0: a6b3 f53b f944 1bbb 3af7 b83a e054 a7bc
000002c0: 4476 e8bd 30a3 033e b053 3ebd 4f31 753c
000002d0: f92c 24bc be60 c6bb 0736 c63d 7bf2 f93c
000002e0: 3634 a3bd 780c 843d 39ca e33d 3c26 d63c
000002f0: bb69 9e3d e382 cf3d 00e8 00bd 7566 013d
00000300: 2e2f 1ebd ebd5 b83b d595 aa3d 7d40 4c3d
00000310: a292 08bd 6a96 f5bd b39a f5bc e930 1abe
00000320: c804 babd 5f1d 503c 15b4 893d a5b5 c5ba
00000330: 73ae 54bd 41f0 e7bd 910b 653d 1e9a 2abd
00000340: a550 7abb 046a 123d 3201 8dbc 0325 be3b
00000350: 8ad2 3abb 2c0d 14bd 2091 a8bd 6532 c8bd
00000360: 36bf cebc a3e8 2dbd c1c7 b33d 7070 c7bc
00000370: 56f9 62bd b489 f93c c4ce 55bb b51a 9c3d
00000380: 25ce 523d 5d0c 1a3d a28e 06be ee4d 133c
00000390: 158c c63d 168f b93c 49f7 85bd 14ff f43d
000003a0: a8ad afbc 7615 58bd 37ff 32bd 8463 97bc
000003b0: 1a54 ff3c acf1 7e3d ba8d 8b3c 612b c4bd
000003c0: 008c dcbd 9497 1f3d 2bea 913d 598e 423d
000003d0: 4276 8bbd 08c5 e7bc 8260 9abc 60ac a0bd
000003e0: a5ad 563b 3d74 2b3d 1c7c e03d 35da b6bd
000003f0: bd28 f83c 8864 a0bc 9ce8 a73c 28a7 e13d
0.10236695 -0.017945176 0.08247594 0.052921753 -0.124151155 0.06483678 -0.018226944 -0.06410122
-0.08738731 -0.09897668 0.018499177 -0.033836 0.07520419 -0.08042299 0.08139526 -0.056411225
-0.0073345196 0.0132283745 0.033099577 0.06750468 0.09112252 -0.09482381 0.010939465 -0.010859161
0.011252674 -0.10084636 0.08829893 -0.10668115 0.052061323 0.036520664 0.033249784 -0.06908536
0.1076203 -0.0022738713 0.00082721724 -0.054618433 0.057384174 0.009345563 -0.04937738 0.06969076
0.0082683675 -0.05480144 -0.0038391205 0.004881727 0.06896191 -0.020732872 -0.06953662 -0.043142486
-0.08071147 0.008655598 0.056245413 -0.09734584 0.015249672 0.07763188 0.067285515 -0.033331174
0.07132455 0.0309446 0.05843916 -0.015960453 -0.040327907 0.0056238654 -0.0017611793 -0.05078855
0.05531696 0.09254765 -0.001968998 -0.052363567 -0.02198758 0.0064806496 0.016194407 0.021308385
-0.08786987 -0.06692147 0.061642073 0.062416997 -0.018577853 -0.058386292 -0.07223367 -0.069099694
-0.037093814 0.018760476 0.04794152 0.045519136 -0.0777495 -0.06126266 -0.0046140044 0.1272966
-0.0060978616 -0.026259607 0.016085435 -0.0518334 -0.03138403 0.07558695 -0.08159645 -0.043567188
-0.080708824 0.108782895 0.05996834 0.06877568 -0.11062658 -0.10939652 -0.098298706 0.08881521
0.085003026 0.14188242 0.037900586 0.033755194 0.013325325 -0.062588766 -0.083556466 -0.047997564
0.022262583 -0.041677866 0.0075477324 -0.05711565 -0.0358162 -0.08983848 -0.063667916 0.050497167
-0.030734131 0.060997054 -0.0297316 -0.06815291 -0.0114749735 -0.0614314 0.007999334 -0.130541
0.04584729 -0.059749123 0.053282183 0.05834501 0.1155321 -0.069476 0.069229886 -0.007886019
0.03681968 0.071788706 0.0035853854 0.008655452 0.0012436585 -0.026926734 0.029072367 -0.09515953
0.048396293 0.078482166 0.102535434 -0.043128 -0.083843805 0.03655541 0.06913141 -0.082889184
0.0014054854 -0.017693637 0.020337636 -0.08017452 -0.021337865 -0.05469074 -0.117323086 0.13025789
0.079787776 -0.036174364 -0.01264731 -0.056274444 -0.074791305 -0.04788143 0.018754294 -0.04746411
-0.06903569 -0.017347088 -0.018622555 -0.053161316 0.0074982224 -0.0023692234 0.0014111765 -0.020426214
-0.113506824 0.1285522 -0.04646653 0.014965369 -0.010020488 -0.006054013 0.09678274 0.030511132
-0.07968943 0.06447691 0.11122555 0.026141278 0.0773501 0.101323865 -0.031471252 0.03159185
-0.038619213 0.0056407354 0.083293594 0.04986619 -0.033342965 -0.1199158 -0.029980993 -0.1505772
-0.09082943 0.012702315 0.06723801 -0.0015084042 -0.05192418 -0.11325122 0.055919234 -0.041650884
-0.003819504 0.035745636 -0.017212484 0.005802752 -0.0028506839 -0.036145374 -0.082308054 -0.09775237
-0.02523766 -0.042458188 0.087783344 -0.024345607 -0.055413567 0.03046117 -0.0032624463 0.076222815
0.051466126 0.037609447 -0.13140348 0.008990748 0.09694687 0.022651237 -0.065413065 0.11962715
-0.02144511 -0.05275484 -0.043700423 -0.01848007 0.031168032 0.062242195 0.017035354 -0.09578586
-0.107688904 0.038962916 0.07124742 0.047499035 -0.06809665 -0.028292194 -0.018844847 -0.07845378
0.0032757309 0.0418589 0.10961172 -0.089283384 0.030292863 -0.019579187 0.020496659 0.11018211

conv2.bias f4 [64]
00000000: 09d7 86bd 4f5e 963d 1330 a93d 6153 8e3d
00000010: 79a1 e6ba 1897 ca3c 4b6e aa3b 57a7 20bd
00000020: fe15 cebd 2771 4bbc a67c 383d df41 743d
00000030: de03 c93c c0a9 3e3d 6766 833d cd95 a0bc
00000040: b126 893d 4518 1cbb b416 16bd 6d91 22bd
00000050: a535 72bd caac a0bd 5206 c43c f342 c13d
00000060: cfe4 6e3c c7b7 623c 2d4b 1dbd 64e7 22bd
00000070: 0f7e 02bd ca1e 103d 4a94 8f3c eaf3 1cbd
00000080: 1aaa a03c 88c1 91bc 80d7 cbbb 91dd 943d
00000090: 124c 2dbd b957 c33d 941b 64bd 2b11 c13d
000000a0: 8b31 1d3d a859 283d 3014 bdbc 0349 e5bc
000000b0: 08c4 98bd f922 c8bd f5a0 923d 27da ca3d
000000c0: e0a1 f03c 4150 24bd 22a8 b63c 0d3e 58bb
000000d0: cc39 b4bd 0b31 a5bd a9b2 103d 1bf3 f1bc
000000e0: 63b3 c7bc 7b15 7abd e223 383d d740 50bd
000000f0: 4ebe 06bd 3554 5e3d 0fa2 c83d 5dc9 b93d
-0.065839835 0.07342207 0.082611226 0.06949497 -0.001759573 0.02473025 0.005201136 -0.039222088
-0.100627884 -0.012417114 0.04504075 0.059633132 0.024537977 0.046548605 0.06416016 -0.01960268
0.06696833 -0.0023818177 -0.036642745 -0.03968947 -0.05913319 -0.07845457 0.023928795 0.09436598
0.014580919 0.013837761 -0.03840177 -0.039771453 -0.0318585 0.035185613 0.017526764 -0.038318552
0.01961236 -0.017792478 -0.006220758 0.07268823 -0.042308874 0.09538216 -0.055690363 0.09427103
0.038377326 0.041101128 -0.023080915 -0.027988916 -0.07459265 -0.097722955 0.07159606 0.099048905
0.029374063 -0.0401156 0.022296969 -0.003299597 -0.088000864 -0.08065995 0.035326634 -0.029534867
-0.02437753 -0.06105564 0.044956096 -0.050843086 -0.032896332 0.054279525 0.09796535 0.0907161

bn2.weight f4 [64]
00000000: a9aa 853f e65a 863f 266d 883f 6493 843f
00000010: 2efe 843f 5264 853f dca9 873f 40bf 863f
00000020: 384b 883f fd10 873f 5b34 863f 17ae 853f
00000030: 20e5 853f 83af 853f f551 883f bb83 873f
00000040: 1084 863f 47f1 843f 8f51 863f 6b25 843f
00000050: 2171 863f 8e2f 873f f5bc 883f d98b 843f
00000060: 1aae 883f d3d0 863f 5d07 873f f2c1 883f
00000070: d5b8 883f 93b6 863f 9bca 843f 3b7f 863f
00000080: 444f 853f f4c9 863f 8adb 883f c8bc 883f
00000090: 03eb 843f c4ff 853f b9ec 863f 1891 853f
000000a0: 4ccb 843f 2700 883f 8a47 893f 7602 8a3f
000000b0: fb31 853f cbb4 863f bbd8 853f eda8 843f
000000c0: 0806 863f 075e 813f 8f3d 863f 9e9c 863f
000000d0: 1cda 843f 015f 883f c3f8 863f a08d 853f
000000e0: 57b6 853f 5633 843f 3af8 833f 98bb 863f
000000f0: 8ed0 853f 9ffd 823f ead8 883f 000f 883f
1.0442706 1.049649 1.065831 1.035748 1.039007 1.042124 1.0598712 1.0527115
1.0647955 1.055206 1.0484728 1.0443753 1.0460548 1.0444187 1.0650011 1.0587076
1.0509052 1.0386132 1.049364 1.0323919 1.0503274 1.0561388 1.0682665 1.0355178
1.0678132 1.0532478 1.0549122 1.0684187 1.0681406 1.0524467 1.037433 1.0507578
1.0414815 1.0530381 1.0691998 1.0682611 1.038422 1.0468678 1.0540992 1.0434904
1.0374541 1.0625046 1.0724957 1.0782001 1.0405878 1.0523924 1.0456766 1.0364052
1.047059 1.010682 1.0487536 1.0516546 1.0379062 1.0653993 1.0544666 1.0433846
1.0446271 1.0328166 1.0310128 1.0525999 1.0454271 1.0233649 1.0691197 1.0629578

bn2.bias f4 [64]
00000000: 0af8 223d e1b8 103d bc74 213c 6833 1e3d
00000010: 02cc 813c 67a8 253d ae23 283d f84c 7d3d
00000020: 67f1 4a3d b271 b63c 8f3c 303d f6d8 e73c
00000030: 042a 1a3d 8a53 f03c ca9e 8a3d 2cb8 4a3d
00000040: cfe7 9a3c 9805 e43c 0c76 dc3c 6d20 fc3c
00000050: bf4f eb3c a1d2 383d 39ce a93c 5c8f 4b3d
00000060: 99fe 4b3d 2c22 393d 3f74 4c3d c515 833d
00000070: 62b2 453d 2c5a 4a3d 16bb 0a3d e574 073d
00000080: a5aa 233d a4cb 113d b9a5 5c3d f844 2c3d
00000090: 4de6 073c 8dcb 0c3d f1c6 0f3d 97be 093d
000000a0: 18f7 113d dd48 3c3d 408b 033d 9992 d23c
000000b0: 6341 f13c 67e1 1f3d 360b 223d 8be9 b93c
000000c0: 8909 8b3d d945 8a3c 0d43 4d3d aafc 4c3d
000000d0: 4c00 433d 3256 323d a7e0 463d 10cf 053d
000000e0: f639 0f3d 13f0 2a3d 65d6 343d ef0f 603d
000000f0: 6742 543d 8a39 2a3d fdad 643d 33c5 2a3d
0.03978733 0.035332564 0.009854492 0.038623244 0.015844349 0.040443804 0.04104965 0.06184098
0.049546625 0.022271011 0.043026503 0.028301697 0.037637725 0.02933671 0.06768568 0.049492046
0.018909363 0.027834699 0.026911758 0.03077718 0.02872455 0.045122746 0.020728217 0.049697265
0.04980335 0.045198604 0.04991555 0.064006366 0.048265822 0.0494024 0.033869825 0.033070464
0.03995766 0.035594597 0.053868983 0.04205796 0.008294654 0.03437381 0.035101835 0.033629026
0.035636038 0.045967925 0.03211522 0.025704669 0.029450124 0.03903332 0.039561473 0.02269437
0.06788928 0.01687901 0.050112773 0.050045647 0.047607705 0.043539234 0.04855409 0.032668173
0.034967385 0.04173286 0.044149775 0.054702695 0.05182114 0.04155878 0.05582999 0.04169197

bn2.running_mean f4 [64]
00000000: ab97 8fbd aeeb bdbd 66a3 9ebe 1912 6c3e
00000010: 1bc3 54be 3747 2dbf b69a 39bd 6dc3 e0be
00000020: 9e9d c6be c2c2 f3be 0ce8 1ebf d7ba 3fbe
00000030: 0cda 56bd a469 9bbe 61b2 edbd 093b a2bd
00000040: e9f7 b43e d84b a2be 83cd 283e 089f 27bd
00000050: 10fa f4be ac03 f8be 33ac 08bf 9ca4 26bd
00000060: a1aa 94be b875 35be 9f38 4abd d01a 20be
00000070: 35f3 25be 1e38 03bf 691e 3c3e 4707 26bf
00000080: 6379 9d3d e48f 533e d76a 58be fc42 bcbe
00000090: 3884 05be a9a4 1dbf 4626 16be 2e7d 783e
000000a0: e76a ee3d c431 a73d d635 7b3e 3c2a 2f3e
000000b0: 7a5e 2fbf cb0a a5be 4ad2 cf3d cdc9 583e
000000c0: 68a6 abbe b08c dbbd 98e1 3ebf b622 03bf
000000d0: 76ee 41bd f2db 89bd 0d70 873e fbff d23d
000000e0: 7b47 1c3c e69d 2dbe 66cf dbbe cddb f4be
000000f0: 8d12 f8bd 789c 023e bf5b 1bbe 6bab 353d
-0.0701135 -0.09273468 -0.30984038 0.23053779 -0.20777552 -0.6768679 -0.04531356 -0.43899098
-0.38792127 -0.47609526 -0.62072825 -0.18723617 -0.05245404 -0.30354035 -0.11606289 -0.07921416
0.3534539 -0.3169849 0.16484646 -0.04092315 -0.47847033 -0.484403 -0.53387755 -0.040684327
-0.2903643 -0.17720687 -0.049370404 -0.15635228 -0.16206057 -0.51257503 0.18370976 -0.64854854
0.07689168 0.20660359 -0.21134506 -0.36769855 -0.13038719 -0.61579376 -0.14663038 0.24266502
0.11641484 0.08163789 0.24532256 0.17105955 -0.68503535 -0.32234797 0.10147531 0.21170731
-0.33525395 -0.107201934 -0.7456298 -0.5122484 -0.047346555 -0.06731404 0.26452675 0.10302731
0.009538527 -0.16954765 -0.4293167 -0.47823945 -0.12112913 0.12755 -0.15171717 0.04435293

bn2.running_var f4 [64]
00000000: 5854 003e 58e0 093e 19b6 c23e 1f05 9d3e
00000010: 3ef4 333e 579e df3e 5804 4c3e 8eb3 673e
00000020: 4f81 e03d 6b8a 873e 7688 883e 01a2 ad3e
00000030: d989 bf3e da18 c23e 0db0 183e dae6 483e
00000040: 92f1 403e 689a be3e 3ce8 2f3e 7cd8 6b3e
00000050: 0a2f c13e 7fde 8c3e 949d 9a3e 217f ae3e
00000060: 07d2 b43e b537 f03e dc91 553e 8d59 5b3e
00000070: 3c41 493e 868a 0f3f a3cd 953e 1866 953e
00000080: 1ece b63e 30b0 b13d cd14 533e 7d16 ce3e
00000090: 80e9 803e fb7e 2f3f 2d8b 913e 6e30 163e
000000a0: a6ca 423e baf9 233e 0be3 063e 651c c53d
000000b0: 000c 043f 96be 663e c2cc 483e 4b26 643e
000000c0: 6072 633e 854a a83e 943a d73e 790a 9f3e
000000d0: 0796 9f3e 2997 e93d c8ef d03e 5872 283e
000000e0: 717f 8a3e 589e 7b3e b8e1 053f 7cc9 9b3e
000000f0: f23d 813e 4f94 a83e bf0f 223e d6f6 293e
0.12532175 0.13464487 0.38029554 0.3066797 0.1757364 0.4367549 0.19923532 0.22627088
0.10962164 0.26472792 0.2666661 0.33912662 0.37409857 0.37909585 0.14910908 0.19619313
0.18842152 0.37227178 0.17178434 0.23031801 0.377312 0.275135 0.30198348 0.34081367
0.35316488 0.469175 0.20856422 0.2142088 0.19653791 0.56070745 0.2925845 0.29179454
0.3570413 0.08676183 0.20613404 0.40251532 0.25178146 0.6855313 0.28426495 0.14666912
0.19022617 0.16013232 0.13172548 0.096245565 0.5158081 0.2253364 0.19609359 0.22280233
0.222116 0.32869354 0.4203688 0.31062678 0.3116915 0.11405785 0.4080794 0.16449869
0.27050355 0.24572122 0.52297544 0.30427158 0.25242573 0.3292565 0.15826319 0.16598067

t_conv1.weight f4 [64, 128, 2]
00000000: e372 813d c298 263d 625d a13d b658 b43d
00000010: b2b9 043c bfa0 3e3d ba5f d73c cdfc 333d
00000020: de0c 793d ceec 083d 5b95 5bbc 794c dabc
00000030: f927 83bd 85ac c23b 4c93 1c3c 9c34 463c
00000040: 5e61 febc af23 36bd 3621 333d e1a9 033d
00000050: 3589 04bd 3b9b d23c 14bf c1bc 08ee cfbc
00000060: 9c2b f6bc 47a8 22bd 450a 8abd 8579 3ebd
00000070: d9c6 563c 5858 703c 4cc3 b13d ae8c 593c
00000080: 705f a23d d289 4e3d a125 70bc d012 00bd
00000090: fd9c c7bc 5b88 d2bc 290e cb3c 6493 ae3c
000000a0: 86d6 18bd 7842 84bc 9e74 7abd b95f b13d
000000b0: d51e 613d dba8 49bd 2244 c03d 5a83 0ebc
000000c0: 718d 6a3d a3d6 453c a40f 563d 9ade 633d
000000d0: a5cc d53c 76b2 303b 53bc 1fbc a766 9dbb
000000e0: 8197 913d 2572 16bd cc72 f83c 3614 b23c
000000f0: ed30 29bd 7b21 0dbd c8de 263a 41ec 3f3d
00000100: 38d9 ba3c 6c15 32bd 7869 703d 1070 b4bc
00000110: d974 e73b 5576 353d 615d a83d 1833 e23b
00000120: 88a9 c53b 54cd 013d c9fd 13bd 8505 3ebd
00000130: 0a7e 973d 6240 09bd f6b3 a43c 4913 31bd
00000140: 11cf 1c3b ba23 d4bc 2482 cabc 5f24 1f3d
00000150: db2b 01bd f75e 2e3d 3bf8 d9bc 8656 56bd
00000160: 1f32 a83d 3e99 813d 26e2 3c3d 08ea 14bc
00000170: 192f 013d b888 0f3c e839 8bbd 81f3 773d
00000180: 387c 06bd 7b16 023d 7e04 95bc 5804 543d
00000190: f616 d23d 1a01 9fbc 6720 8abc 366d 44bd
000001a0: 3029 893d a499 9f3d 6d0c 7a3c c2c2 533d
000001b0: 407f 2a3c 38d1 b0bc ad64 043d 20c1 5ebd
000001c0: 5d03 3cbc c5fa 873c 765f b0bc 1de5 813c
000001d0: 55ff 823d 39cb 3cbd 401a 773d c1c5 033c
000001e0: dd61 6f3d bb61 afbd 50da c63d 25db 8fbb
000001f0: f2e5 853d f43c 4ebd 821f 38bc 2c65 d3ba
00000200: 031f 0f3d 2816 f13c fc1c 9b3d 144e 143c
00000210: de70 50bd 3b70 08bc 964c 9b3d b886 3c3d
00000220: 9117 2cbd 72d7 893d 1ba2 883d 9a31 a13c
00000230: c3f3 933d ce5a b83c 0f1b 94bb d3ab d1bc
00000240: 65a6 f43c 6182 c63d c10c 143d c78d b8bd
00000250: cac0 d53b a20c 2e3d bece 5ebd fa80 c0bb
00000260: f231 883d 3c5f 843d e1d4 bc3d 5ad3 963b
00000270: b291 a3bc 8e7d 893d 1d2a 403d d93e ab3d
00000280: 7595 1e3d 08fd 96bc 28f7 473d becc 1a3d
00000290: 7707 85bc 66a7 b13d d597 1d3d 3b1d b1bb
000002a0: f3ed 56bd 71d0 0e3d 9d38 90bd 5942 843d
000002b0: 9bdf 0f3c 16fe 363c 77a3 e83c e241 b33d
000002c0: 9924 f3ba 2b5a 3bbd 3e3b 7f3c 0010 febc
000002d0: 6dcc 6e3c 3774 553d 89f2 adbc 6cf1 973d
000002e0: 1862 6fbc c8d7 8a3d 6fa5 943d 6fc3 a03b
000002f0: acc3 113c 320c 3b3d 53be d23b e1d4 afbc
00000300: 4705 c63d 553a b93c 85c0 723d 6a35 ef3a
00000310: 87ef a33c 280a 293c 504d 1d3d af2a 723d
00000320: efe9 ac3d 1ccc db3c aef2 16bd 0a5d a93d
00000330: 0707 aa3d 55c8 673d 8dfd 293d e015 34bc
00000340: 0b0c d8bc c172 c83c 6a47 b5bb 93e8 ff3c
00000350: 575b 93bd 304d b3bc 8c56 16bd fd2a 0c3d
00000360: 340e 933d a5fa cebc e08f c6bc 1af9 593c
00000370: bcfa f43c 1898 abbc 1c99 343d 8e2c b0bc
00000380: b105 bb3c 64e9 633c 8669 683d c73f b5bd
00000390: fd03 453d 2e8f 4f3c 17c2 7c3c 415f 5f3d
000003a0: 6fd1 fa3c 9aa7 ba3c 37d3 b63c edf0 7f3d
000003b0: c475 19bc 9a76 aa3d acb1 453b e71b a03d
000003c0: 1f36 d73c 8be1 2e3d 87ac 63bc 7970 a6bb
000003d0: 43dd e2bc 4552 2e3d 8a02 9bbb 1a72 773c
000003e0: 590e 6b3d efbc 1c3d 75a9 c93b ae67 b0bc
000003f0: 3e45 613d aa67 f0bc 3fde 28bd 09d9 193a
0.06320741 0.040673025 0.078791395 0.08805983 0.008100914 0.04654002 0.026290763 0.04394226
0.060803287 0.03342896 -0.013402308 -0.026647793 -0.064041086 0.005940976 0.009556603 0.012097504
-0.031052288 -0.044467624 0.043732844 0.03214443 -0.032357413 0.025708785 -0.023650683 -0.025382057
-0.030050091 -0.039711263 -0.0674024 -0.04650261 0.013108932 0.0146695 0.08679828 0.01327817
0.079283595 0.050424404 -0.014657409 -0.03126794 -0.02436685 -0.025699785 0.024787026 0.021310516
-0.03731396 -0.016144976 -0.06114637 0.08660836 0.054961044 -0.0492333 0.09387995 -0.008698309
0.057263795 0.012075099 0.05226101 0.05563221 0.026098559 0.002696184 -0.00974949 -0.004803497
0.07108975 -0.03672995 0.030328177 0.021738153 -0.041306425 -0.034455758 0.00063655945 0.04685617
0.022808656 -0.04347746 0.058694333 -0.022026092 0.00706349 0.044302303 0.082209356 0.0069030635
0.0060321726 0.031689957 -0.0361307 -0.046391983 0.07397087 -0.033508666 0.020105343 -0.043231282
0.0023927132 -0.025895942 -0.024720259 0.038853046 -0.031535964 0.042571034 -0.026607623 -0.05232861
0.08212685 0.06328057 0.04611411 -0.0090890005 0.031539056 0.008760624 -0.06798154 0.060534958
-0.032833308 0.03175972 -0.018190619 0.051761955 0.10258286 -0.019409705 -0.016861154 -0.047955714
0.06697309 0.077929765 0.015261752 0.051699407 0.010406315 -0.021584138 0.032322574 -0.054383397
-0.011475411 0.016599068 -0.021529894 0.01585632 0.06396357 -0.046092246 0.06032777 0.008042754
0.05844294 -0.085635625 0.097096086 -0.0043901377 0.06537999 -0.0503511 -0.011237981 -0.0016128174
0.034941684 0.02942951 0.07573888 0.009051818 -0.05088889 -0.008327539 0.07582967 0.046026915
-0.042014662 0.06730546 0.06671544 0.019676972 0.07224228 0.022504237 -0.004519827 -0.025594627
0.0298645 0.096928366 0.036144976 -0.09011417 0.0065232264 0.042492516 -0.054396383 -0.00587475
0.06650151 0.06463477 0.09220291 0.004602832 -0.019966934 0.06713401 0.046915162 0.083615966
0.038716752 -0.018431202 0.04881969 0.037792914 -0.016238911 0.08674507 0.038474876 -0.005405096
-0.05247302 0.034866754 -0.07042048 0.06457967 0.008781339 0.011168977 0.028398259 0.087528005
-0.0018550336 -0.045740288 0.015578089 -0.031013489 0.014575106 0.052112784 -0.021233814 0.074190944
-0.01461079 0.06779438 0.072581165 0.00490611 0.0088967495 0.045665927 0.00643138 -0.021463813
0.09668975 0.022610823 0.059265632 0.0018250172 0.020011676 0.010317363 0.03840381 0.059122737
0.08443057 0.026830725 -0.03685253 0.08269699 0.083021216 0.056587536 0.04150157 -0.0109915435
-0.02637293 0.024468781 -0.005532195 0.03123883 -0.07195156 -0.021887392 -0.03670363 0.034220684
0.071804434 -0.025266001 -0.024238527 0.013304019 0.029904716 -0.020946547 0.04409133 -0.02150562
0.022829862 0.013910625 0.05674126 -0.08850055 0.048099507 0.012668414 0.015427134 0.0545342
0.030617444 0.022784997 0.022317512 0.062485624 -0.009366456 0.08323403 0.0030165715 0.07817822
0.026270924 0.042695563 -0.013896114 -0.0050793258 -0.027693396 0.042558927 -0.0047305273 0.0151028875
0.05738673 0.03826612 0.006154234 -0.021533813 0.054997675 -0.029346306 -0.041227575 0.00058688276

t_conv1.bias f4 [128]
00000000: 04e6 a13d c1ad 043c 0108 4c3d 1fef 4e3c
00000010: d27a f4bc 3626 8abc 04a5 70bc f74e 3e3d
00000020: 4904 e13c 9955 b73d 6996 2a3d c2c3 7c3c
00000030: d516 48bb f24f 813d 0ce2 a1bc 087c b83d
00000040: 42ba 013d ee95 363d 926f 7a3d 1a39 1cbd
00000050: c266 973d 7592 913d c323 ac3d 6efa 3c3d
00000060: 22a0 58bc 205b b4bc 7a6b 393d bee4 173d
00000070: 7271 883d 1c94 9d3d 4946 e8bb 3b04 873d
00000080: 7314 b33c f907 09bd 065a 573c 1dde edbb
00000090: 6f7a 6abb 8700 68bc 474f 56bd 1f87 04bd
000000a0: 8c0e 9b3d 7bde f3bc 32e4 353c 88cb 5fbc
000000b0: 12a8 a23d de56 223d da70 763b 4101 c7bc
000000c0: 8a7e ddbb fa62 103c f73f 89bb 723e e7bb
000000d0: e5e4 85bb fd69 3dbc 4f9a 85bc 28ca 393d
000000e0: e09c a03c 6e78 29bd aa9b 7dbc 306b 0dbc
000000f0: 0f86 323d 76dc e4bc 72f3 d83b 6d15 823d
00000100: fa06 0abd 1ad9 383d 9d08 4f3d 5569 973d
00000110: 44df 6c3d 0485 7b3c d02a c53d 315b 60bc
00000120: 6917 063d b489 f53c 442e d1bc c374 463d
00000130: 5e55 473d 9d51 5c3d 1214 453d fb4a 0ebd
00000140: 223d b93c cc00 b33c 85cd 673d adbb 653d
00000150: 7c90 b23c fec0 543d 00b8 a23d d4dc 4e3d
00000160: 76ec b73d 31fc a43d 556e bcbc 708a 6ebc
00000170: 346e c1bc 0d93 a1bc 58c1 563d f275 fc3c
00000180: d4be 133d 5c5a bf3c c58c 01bd 53a2 07bd
00000190: 1245 373d 464a 043d a4ec 413d 9f33 d03c
000001a0: 9b13 3f3d ff9d 293d 5967 b9b6 6a3d 9c3d
000001b0: 87ee b53c 9697 bc3c 69e0 13bc d966 693d
000001c0: 4612 b13d 5fb9 163d 5182 78bc 7df8 3bbd
000001d0: 1775 82bc 9fb0 c93c e1e8 a33d 279d 49bc
000001e0: 3a4d 44bc ef9c 193b a045 033d 64c8 4b3d
000001f0: 2c89 78bc 140b 38bc 683d 233d c48a 8a3d
0.079052 0.008098067 0.04981232 0.012630253 -0.029843722 -0.016863924 -0.01468778 0.046462025
0.027467864 0.08951873 0.04164735 0.015427532 -0.0030531187 0.063140765 -0.019761108 0.09008032
0.03167177 0.044576578 0.061141558 -0.038140394 0.07392646 0.071080126 0.084052585 0.046137266
-0.013221772 -0.022016108 0.045268513 0.03708338 0.06662263 0.07694265 -0.007088457 0.06592604
0.021860337 -0.03345487 0.013144022 -0.007259144 -0.0035778543 -0.014160282 -0.0523217 -0.032355424
0.07571134 -0.029769173 0.011101769 -0.0136593655 0.07942213 0.039633624 0.0037603886 -0.02429259
-0.0067594694 0.00881266 -0.0041885334 -0.0070570046 -0.0040861242 -0.011560914 -0.016308932 0.045358807
0.019606054 -0.041374616 -0.015479008 -0.0086315125 0.04358488 -0.027937155 0.006620818 0.06351743
-0.03369806 0.04512892 0.050545324 0.07393137 0.05783011 0.015351538 0.096273065 -0.013693617
0.03273717 0.029972889 -0.025534756 0.048451196 0.048665397 0.05378877 0.048114844 -0.034739476
0.022612158 0.021850966 0.056592483 0.056087185 0.021797411 0.051941864 0.079452515 0.050503567
0.08980648 0.08055914 -0.02300183 -0.014559373 -0.02361212 -0.01972344 0.05243048 0.03081796
0.03607066 0.023358516 -0.03162839 -0.03311379 0.044743605 0.032297395 0.04734482 0.02541524
0.046649557 0.041410442 -5.525461e-06 0.07628901 0.022208465 0.0230215 -0.0090256715 0.05698285
0.086460635 0.036797877 -0.015167789 -0.045891274 -0.015924973 0.024620352 0.080034025 -0.012305534
-0.011981303 0.0023439487 0.03204882 0.049751654 -0.015169423 -0.01123311 0.039853483 0.06764749

t_conv2.weight f4 [128, 64, 2]
00000000: 91fc cf3d fd7d c0bc 7870 f93c 4998 11bd
00000010: f910 593c 40c3 053d 3572 0f3d 11f5 d2bd
00000020: 0f80 0a3e 2705 8d3d 6d60 af3c 74d2 f93d
00000030: 3591 04bd 6deb aa3c ffc2 3f3d 19e4 dd3d
00000040: 73c5 983d f19e 563c de6c 193d 14e6 013d
00000050: fe15 eabc 3a1e 06bd 3fdf 023e edb8 3cbd
00000060: 9e65 ac3d da62 d1bd c37a ccbc 69bc d8bc
00000070: 02a7 423d 3046 943b cffa a6bd 197f 1ebd
00000080: 3ea3 8d3d aeef 023e 45b8 afbc 119d 5c3d
00000090: 64e5 b2bc f9c2 a73d 98db 513c 4b7d cabd
000000a0: 63a5 cc3d fe5e ef3d 2689 f93d 7cf0 9cbc
000000b0: bfea 2fbd f579 803d 1098 62bd 0e2b e2bd
000000c0: 6063 14bd d575 013c 056c e83b 25e9 4d3d
000000d0: e670 fe3b c633 b53c 84dc ffba 52d6 84bd
000000e0: 4072 88bd bdf6 8d3c 56f6 9fbd 9577 14bd
000000f0: fb9b dbbc ef78 473d c9d0 b23d 4f89 9cbd
00000100: 9760 a33c 27af aabd ebd3 5c3d de00 22bb
00000110: 2812 ad3d 520b 193d 889d 5c3d e8e2 0cbd
00000120: 6611 533d a056 673b 1812 a03d d6e7 e43c
00000130: 79ca 0b3d f58f 103d 98c0 95bd 1b32 383d
00000140: 6e8a f6bd d440 1cbd d470 5cbc 651f e53d
00000150: c87d 0bbd 5709 b1bc d2fd 183d 674d b0bc
00000160: 01b1 1e3c 1e3a d43b 41ca 293d 034e b93d
00000170: 53fa 3f3d 0748 f83c ca68 27bc 7945 163c
00000180: a6f0 1e3d a03c 743d 85e9 c63d fc5e 803b
00000190: 53be 8d3d 11f4 b7bd 0a2f 873d bb6e 8abd
000001a0: a55a b5bc c9a4 bc3d c2c7 a13d 11d5 a6bc
000001b0: 92e4 323d 3597 57bd fd24 a5bd 9e77 043d
000001c0: 2942 1fbd bca3 1e3d 3575 2b3c a6bd 873c
000001d0: d75d 873d 8e1d 7bbd ed37 943d 2605 ac3d
000001e0: a6bc 9bbb 50a9 313d 4cf1 11bd 27d7 fe3d
000001f0: fa18 993d f62b f53d d932 733d e65b 893c
00000200: 0fcb df3d fc16 49bc 543a 3e3d c32c c1bd
00000210: 3790 123d db46 a9bc e9a6 33bc 15ca dc3c
00000220: 2b86 153d d72b 8c3c 5cca 9ebc 880f fd3d
00000230: ddeb 6e3d a0f4 ff3d edaa 7bbd bf13 18bd
00000240: 9d55 2b3d 86da fbbc 5e92 dfbd 74fb 6a3d
00000250: 9706 d1bb f63a 85bd 463c cc3d 32e9 933c
00000260: ddff c33d b25e 33bd 1d37 bd3b 9f57 f63d
00000270: 758f a0bd f218 883c bd59 afbd a37b 5abd
00000280: 68a1 74bd ce4a fb3d 4a78 adbd 30d7 d23d
00000290: 954a a1bd e3de f73d e8cb b3bd a037 98bd
000002a0: 699d e63d 94c6 a83d 4f1c d13d b121 9abd
000002b0: 7817 253d 9900 c83d a968 03bd 4009 22bd
000002c0: b4d6 9f3c e7b1 9ebc 24b3 843c 9d0e 833d
000002d0: cdeb d5bc 213d 4bbc 06a7 ac3d 5c57 b83d
000002e0: 032a d2bd aef8 343d 9fa1 d2bd 03d4 863d
000002f0: b9ce a43b e9f4 4abc 3eb3 b13d 4fd2 92bd
00000300: 2265 393d bed5 05bd 9276 fc3c c5e4 c03d
00000310: 7de0 c63c 833f 853d 42f2 c43d 7165 353c
00000320: 49b4 e7bd cf6c 65bd 6684 a33c 5c2c 90bd
00000330: 6ccc 11bd 3123 763d 73f0 c63c effa 633d
00000340: 9527 bcbd f89d 973c 1a12 703d 772f 7dbc
00000350: 2d6a 1d3d 0bbb 80bc f0f1 60bc 4a35 e03c
00000360: 590a 833d 42a0 253d 7d12 edbb 5eeb 653d
00000370: ecc2 273c 0046 923c 4faa 063e 4dc6 49bc
00000380: dbda e2bd 87b6 64bd 70fa 4e3d 2a69 ed3d
00000390: a50d a8bd a5c4 ffbc 6c34 86bc 2e77 3c3d
000003a0: cc26 29bc 2672 003d 3de4 2bbd 6599 81bd
000003b0: f6da ae3c 500e e23b 5976 b8bd 655c 8cbb
000003c0: 7e2b 56bd 42d6 c3bd 564d 7bbc bbe7 a83d
000003d0: f743 2abc 777b 91bd c45f eb3d 264f 0cbd
000003e0: 91ba 93bc f532 e9bc eb59 7dbd b13d 043e
000003f0: f348 9bbd 8555 dd3b 2847 ab3c 0a60 00bd
0.10155595 -0.023497576 0.030449137 -0.03554562 0.0132486755 0.032656908 0.035021026 -0.10300649
0.13525413 0.06885748 0.021408284 0.12198344 -0.032365043 0.020864213 0.046816822 0.10834522
0.074595354 0.013099418 0.03745734 0.03171356 -0.02857494 -0.03274367 0.12780474 -0.046074796
0.084178194 -0.102239326 -0.024960881 -0.026457028 0.047522552 0.0045249686 -0.08153307 -0.03869543
0.069159016 0.12786743 -0.021450171 0.053860728 -0.021837898 0.08191485 0.012808703 -0.09887179
0.099924825 0.1168804 0.12184362 -0.01915764 -0.04294848 0.062732615 -0.0553208 -0.11043368
-0.036227584 0.0079016285 0.007092955 0.050271172 0.0077649234 0.022119414 -0.0019520675 -0.06486191
-0.066624165 0.017329568 -0.07810657 -0.036246855 -0.026807776 0.048699316 0.08731229 -0.07643377
0.019943519 -0.08334189 0.05391304 -0.0024719755 0.08450729 0.03736431 0.05386117 -0.034396082
0.051530264 0.0035299435 0.07815951 0.02794258 0.03412864 0.035293538 -0.07312125 0.04496966
-0.12038122 -0.038147762 -0.013454635 0.11187629 -0.0340555 -0.021610899 0.037351437 -0.021521283
0.009685756 0.0064766547 0.04145265 0.09048083 0.046869587 0.030307783 -0.010217855 0.009171837
0.03880372 0.05962813 0.09712509 0.003917573 0.06921067 -0.08982099 0.06600769 -0.067594014
-0.02213795 0.09211118 0.07899429 -0.02036527 0.043675013 -0.052634437 -0.080636956 0.03234064
-0.038881455 0.038730368 0.010464956 0.016569924 0.066096954 -0.061307482 0.072372295 0.083994195
-0.0047527133 0.04337436 -0.03563051 0.12443381 0.07475467 0.119712755 0.059374664 0.016767453
0.10927402 -0.012273546 0.046442345 -0.09432366 0.035782065 -0.02066367 -0.010965087 0.026951829
0.036504906 0.017110748 -0.019383602 0.12356478 0.058330406 0.124978304 -0.061442304 -0.037128206
0.041829694 -0.030743849 -0.10916589 0.05736871 -0.0063789594 -0.065053865 0.09972434 0.018055532
0.095702864 -0.04379148 0.0057743923 0.12028431 -0.07839862 0.016613457 -0.08562038 -0.053340565
-0.05972424 0.12270127 -0.08470209 0.1029495 -0.078755535 0.12103059 -0.087791264 -0.074324846
0.11260492 0.08241001 0.102104776 -0.075259574 0.040305585 0.09765739 -0.032082234 -0.039559603
0.019511558 -0.01937194 0.016198702 0.06399272 -0.026113415 -0.012404711 0.08430295 0.090010375
-0.10261919 0.044182472 -0.10284733 0.06583407 0.005029526 -0.012387493 0.08676766 -0.071690194
0.045262463 -0.032674544 0.030818257 0.09418634 0.024276966 0.065062545 0.096165195 0.011071549
-0.113136835 -0.05601197 0.019960593 -0.07039711 -0.035595343 0.060092155 0.024284577 0.05565923
-0.09187237 0.018507943 0.058611013 -0.015453211 0.038431335 -0.015714189 -0.013729557 0.02736916
0.06398458 0.040436037 -0.00723487 0.056132667 0.010239344 0.017855644 0.13150905 -0.012315345
-0.110768996 -0.055838134 0.050531805 0.11592324 -0.082057275 -0.031221697 -0.016382419 0.046012096
-0.010324191 0.03135886 -0.04196571 -0.06328086 0.021344643 0.006898679 -0.09006948 -0.004283475
-0.05228757 -0.09562351 -0.015338263 0.08247324 -0.010392181 -0.07103627 0.11492875 -0.03425517
-0.018033298 -0.028466681 -0.06185333 0.12914158 -0.07582273 0.0067545795 0.020907953 -0.03134159

t_conv2.bias f4 [64]
00000000: 3fd6 59bd 3458 1bbd 1c3b cb3d b39a fdbb
00000010: 3d8a 8bbd 2112 00bd 3fdd 883b 5bf4 8e3d
00000020: cb01 d43c b4d5 ce3d 4185 d83b 70c6 e23d
00000030: 7ea8 a73d b675 3e3d b687 74bd 2965 cabc
00000040: cc08 673d 2d71 62bb eb9c 00bd 7c6a 92bc
00000050: aed2 17bd c604 55bd 2f1d 283d 8735 d53d
00000060: 2931 403d 7ef8 8a3d 83f6 29bd d4d9 693d
00000070: 9d74 b73b 653d 9a3d 6f76 be3c 3661 053d
00000080: 06ec 53bc 4e53 a93d a468 f03d 9e70 6e3d
00000090: 5050 0ebd b133 e5bc d57c 843d a53c 3a3d
000000a0: 1feb 2ebc 077d 2f3d 4a53 d13d b69b 81bd
000000b0: 341c bf3d 5605 cf3d 4c87 36bc 144e 57bd
000000c0: 76b8 133d 1aef 1abd 0dd3 ab3c ef66 123d
000000d0: d936 cd3d be97 a23c 1823 983d 14ea efbc
000000e0: bcdc ae3c c020 443d fcb6 403d 9d1b d13c
000000f0: 60dd 8c3d f280 d63c a3f6 fd3a 30f5 2f3d
-0.053182837 -0.037925914 0.099233836 -0.007739389 -0.06813476 -0.03126729 0.004176765 0.06980201
0.025879761 0.100993544 0.006607682 0.11073005 0.08186434 0.046498977 -0.059699737 -0.02470644
0.056404874 -0.0034552321 -0.03139965 -0.017873041 -0.037066154 -0.052006505 0.041043457 0.104106
0.046921883 0.067856774 -0.041494858 0.057092503 0.005598618 0.07531241 0.023249833 0.03256341
-0.01293469 0.08267842 0.117387086 0.05821287 -0.03474456 -0.02797875 0.06469122 0.04546799
-0.010676174 0.042843845 0.10220964 -0.06328528 0.09331551 0.101084396 -0.011140656 -0.052564695
0.036064588 -0.03782568 0.02097466 0.035742696 0.10020227 0.019847747 0.074285686 -0.029286422
0.021345489 0.047882795 0.047049507 0.025525862 0.068781614 0.026184533 0.0019375872 0.04295844

conv_out.weight f4 [1, 64, 3]
00000000: 5eb4 103d dc78 eabd c903 08bd ece0 1fbd
00000010: 6288 edbd c9a5 4ebd 6139 d33c 5fc6 adbb
00000020: edda ed3d 8f12 133d b435 f6bd 4775 933d
00000030: 56a0 c43d 2733 f0bd c073 9cbd 8d6e cfbd
00000040: 60a2 e43d e3bf c1bd 7732 d43d b4b4 d83d
00000050: 3f51 f7bb e7ac 8cbd 5a92 b5bc 0161 afbd
00000060: 58c2 c4bd 9b98 cabd ce79 3bbc 4f56 c53c
00000070: eb3e c93d 19da 49bd 2d6b 90bc 82b2 69bd
00000080: ceb2 ef3d 4ef6 5abc 1074 d2bd 57eb e0bd
00000090: ccb5 d23d aa0a 913c bd8e e23d 0eb1 6f3a
000000a0: d627 1f3d d708 04be 2adf 11bd bb59 743d
000000b0: bfdb 3abd 5aed b9bd a0d7 3e3d 4ca2 6d3d
000000c0: 544c debd 50db ab3d 23ee f6bd eb99 d7bc
000000d0: 19e8 f73d 903b 6c3d 5704 573d f056 da3d
000000e0: e223 e7bd d5cc b43d 8189 80bb da9e 713d
000000f0: ff4c 9b3d be4c ef3d 02ad f0bd 4725 f23d
00000100: 5e9c b9bd f674 ffbc 95fe 883d 1577 cb3d
00000110: 1595 a83d 1209 d43d 6c9b 98bc fdd4 d33d
00000120: 403a 3cbc 0f19 7c3d 2729 ab3d 7713 003d
00000130: 5932 d13d 2e31 0abd 5841 0cbe 57eb 8c3d
00000140: c731 ec3d c4a2 d73d 5cdf 6cbd 558a a9bd
00000150: a2bb afbc 58c8 b73d 6be0 973d 5bd5 5fbd
00000160: e1e2 f13d 4f28 a03d 9837 2b3d 894b 8bbd
00000170: aa78 ae3d 40e0 863d a802 aabd d093 7a3d
00000180: d285 48bd 6a82 ebbd e2e2 a13d a700 9abd
00000190: 9208 80bd 0142 c5bd 8c5b 9c3d 9817 e5bd
000001a0: 7f7d 86bd e128 db3d 8bbc a6bc 8854 a3bd
000001b0: dc2f bcbd d033 f13c 309e 94bc a699 b6bd
000001c0: 3f1a 88bd 0486 183b bdae 89bd 27cd e1bc
000001d0: 8284 89bd 2668 ce3d 41ce cd3d 5c8f 31bd
000001e0: 92f8 73bc 6edf 2e3d 5037 963d 48e5 7cbd
000001f0: 950c b9bd 931e d9bd d698 e9bd ee2c 3dbd
00000200: ab96 06bd e059 a2bd 49c9 9a3d b103 9fbd
00000210: 4135 da3d e6d0 e03d ddef 04be de22 95bd
00000220: 73cb a6bd dbed c5bd c7e2 e5bd f4da fa3d
00000230: 356c f2bc b8b8 813d b21a d8bd 55c9 5cbd
00000240: 1559 ebbd 1fbf 403c 62d6 b5bd 7c35 96bd
00000250: 47be 76bd ece7 c2bd 53e4 7d3d 456e 3ebd
00000260: 4ea8 d73d 420c e7bd 1506 ccbd 587a af3d
00000270: 3ace 5fbd 1f0e f6bd 80ba 0d3d 7ef8 c73d
00000280: c0c8 de3b 4f31 8b3d 0a9a 08bd 29d1 e8bd
00000290: 943e 283d 23e8 a5bd 3cfb b63d 297e 6e3d
000002a0: 08d8 60bd 583a 813c de63 f53d 75e7 adbd
000002b0: 25d7 733d 4036 bfbc 1b17 d93d 29c7 e7bd
000002c0: 09f6 bfbc 48a9 343c 9046 e5bd c6e2 cfbd
000002d0: 1c5f f8bd 57f6 7cbd 3238 0f3d 6ac7 b03d
000002e0: 57cd d73d e3bf f4bd d338 483d 2a3a 033e
000002f0: b4cc 6bbd e426 af3d 97eb ffbd ad35 a53d
0.03532826 -0.11448833 -0.033206735 -0.03903286 -0.115982786 -0.050451074 0.025784196 -0.0053031887
0.116140224 0.03590637 -0.12021962 0.07200103 0.09600894 -0.117285065 -0.07639265 -0.10128508
0.11163783 -0.094604276 0.10361188 0.105813414 -0.007547527 -0.06868916 -0.022164512 -0.08563424
-0.09607381 -0.098923884 -0.011442615 0.024089007 0.09826454 -0.04928026 -0.01762923 -0.057055004
0.11704026 -0.013364388 -0.102760434 -0.109823875 0.10288581 0.01770528 0.110623814 0.00091435097
0.03885635 -0.12893997 -0.035613216 0.059655886 -0.045619722 -0.09078474 0.046592355 0.058016106
-0.10854402 0.0839144 -0.1205714 -0.026318511 0.12104816 0.05767399 0.052494373 0.10661113
-0.11286141 0.08828131 -0.0039226417 0.058989383 0.07583045 0.11684559 -0.117517486 0.11823516
-0.09063028 -0.031183701 0.06689183 0.099348225 0.0823156 0.103532925 -0.018628798 0.10343359
-0.011488497 0.061547335 0.083574586 0.031268563 0.10214681 -0.033738308 -0.13696802 0.06880825
0.11532932 0.10529092 -0.0578302 -0.08278338 -0.021451775 0.089737594 0.07415851 -0.05464683
0.11810852 0.07820188 0.041801065 -0.068015166 0.085191086 0.06585741 -0.08301288 0.06117612
-0.048955746 -0.11499484 0.079046026 -0.07519656 -0.06251635 -0.0963173 0.07634649 -0.11186141
-0.06566905 0.107011564 -0.020353576 -0.079751074 -0.09188816 0.029443651 -0.018141836 -0.08916025
-0.06645631 0.002327324 -0.06722782 -0.027563645 -0.06714727 0.100784585 0.100491054 -0.04334961
-0.014890807 0.042693548 0.07334769 -0.061742097 -0.09035603 -0.10601535 -0.11406104 -0.046185426
-0.032858532 -0.079272985 0.07557923 -0.07764376 0.106546886 0.10977344 -0.12982126 -0.07282041
-0.081442736 -0.09664508 -0.11224895 0.12248793 -0.029592613 0.063340604 -0.10551967 -0.053902943
-0.114916004 0.011764317 -0.08878781 -0.0733442 -0.060240056 -0.09516892 0.061985325 -0.04649188
0.105301484 -0.11281635 -0.099620976 0.08568257 -0.054640032 -0.12014412 0.03460169 0.09764193
0.0067988336 0.06796514 -0.033350028 -0.11368019 0.041075304 -0.08100917 0.08934638 0.058225784
-0.054893523 0.01577489 0.11981939 -0.084914126 0.05953135 -0.023341298 0.1060011 -0.11317284
-0.023432748 0.011026688 -0.11195099 -0.101506755 -0.12127516 -0.061758365 0.0349657 0.08631785
0.10537212 -0.11950662 0.048882317 0.12815157 -0.057568267 0.0855234 -0.12496107 0.080668785
