pths/denoiser_model_2.pth (torch, 166322 bytes, 17 tensors)

conv1.weight f4 [32, 1, 3]
-0.22235402 -0.14438818 -0.20043741 -0.21801433 0.15970115 0.30297056 -0.36498782 -0.073553905
0.11074406 0.31787828 -0.40071383 0.27766284 0.28955218 -0.54247856 -0.10127345 0.23100227
0.14043783 -0.09471379 0.020419389 -0.19459549 -0.43097395 -0.17593747 -0.62810695 -0.07770072
0.39108515 0.11834986 0.22984207 0.11502765 -0.19028705 0.34445947 -0.42030442 -0.2576956
-0.24417402 -0.05559533 0.26215446 0.5823332 0.094813995 0.21049829 0.15777293 -0.18029717
-0.4248637 0.45039666 0.020702261 0.29554582 -0.25022334 -0.3543786 -0.1722043 0.35687885
0.22781838 -0.07049237 -0.06509745 -0.07671202 -0.46790162 -0.2532037 0.3532488 -0.22303553
0.21065736 -0.30185357 0.30744255 0.18122472 0.6083791 0.4073827 -0.06985401 -0.25147945
0.09085488 -0.17806771 -0.17300473 0.1565658 0.14277194 -0.11179723 0.52339065 -0.27613294
0.17257214 0.36330375 0.38082573 0.24284892 -0.43270686 0.14699434 0.03740675 0.1460023
-0.44988844 0.09641626 0.02320186 0.06317984 -0.19989946 -0.007796333 0.10118108 0.19458716
0.004791976 0.06985407 0.1812649 -0.51413393 -0.2649014 -0.24958035 -0.2716038 -0.36819834
00000000: c6b0 63be 7fda 13be 773f 4dbe 263f 5fbe
00000010: b388 233e f51e 9b3e afdf babe 6ea3 96bd
00000020: c8cd e23d f1c0 a23e 5d2a cdbe d329 8e3e
00000030: 2f40 943e e0df 0abf 7468 cfbd dc8b 6c3e
00000040: efce 0f3e 4ef9 c1bd 9046 a73c 0a44 47be
00000050: 9ea8 dcbe f428 34be 9ecb 20bf 8e21 9fbd
00000060: 503c c83e 6961 f23d b85b 6b3e 9e93 eb3d
00000070: 9cda 42be fe5c b03e 2432 d7be adf0 83be
00000080: c108 7abe eeb7 63bd 1c39 863e ca13 153f
00000090: d72d c23d dd8c 573e 3a8f 213e d29f 38be
000000a0: bc87 d9be 649a e63e ca97 a93c c851 973e
000000b0: 461d 80be 1d71 b5be 5356 30be d3b8 b63e
000000c0: 3949 693e 4e5e 90bd d051 85bd 311b 9dbd
000000d0: cd90 efbe eaa3 81be 07dd b43e 6d63 64be
000000e0: 90b6 573e 8d8c 9abe 1c69 9d3e f992 393e
000000f0: bcbe 1b3f 7794 d03e 9f0f 8fbd eac1 80be
00000100: 2012 ba3d 6257 36be 2728 31be c952 203e
00000110: cf32 123e f2f5 e4bd eefc 053f 4c61 8dbe
00000120: c0b6 303e f302 ba3e 97fb c23e 63ad 783e
00000130: c18b ddbe af85 163e d237 193d a081 153e
00000140: c757 e6be e375 c53d d411 be3c 6f64 813d
00000150: 72b2 4cbe 6278 ffbb 0738 cf3d db41 473e
00000160: 0206 9d3b a70f 8f3d 829d 393e 489e 03bf
00000170: 28a1 87be fe91 7fbe a70f 8bbe 7e84 bcbe

conv1.bias f4 [32]
-0.22320762 0.29943925 -0.37034464 -0.30422494 0.4758626 0.4059927 0.04634727 0.36090535
-0.071781725 0.06935052 -0.35882443 0.33740467 0.2404449 -0.5443458 -0.48598307 0.14411671
0.5470363 0.12426139 0.15673979 -0.20805132 -0.3572341 0.050435513 0.16200288 0.0015208459
-0.02122367 0.082134016 -0.5056025 0.45386517 0.1237734 0.22974773 0.13548899 -0.09992919
00000000: 8a90 64be 1a50 993e d09d bdbe 5fc3 9bbe
00000010: 43a4 f33e 46de cf3e a3d6 3d3d 96c8 b83e
00000020: 4c02 93bd a507 8e3d d6b7 b7be 4ec0 ac3e
00000030: 3037 763e 3f5a 0bbf c6d2 f8be 5593 133e
00000040: 920a 0c3f c17c fe3d 6580 203e 680b 55be
00000050: 63e7 b6be 7895 4e3d 15e4 253e 1f57 c73a
00000060: 43dd adbc e135 a83d 2a6f 01bf 0461 e83e
00000070: e97c fd3d fd42 6b3e a0bd 0a3e ada7 ccbd

bn1.weight f4 [32]
1.0049702 0.9911977 0.9710692 1.0057667 0.98933935 1.0086683 0.9932574 0.9607552
0.9973817 1.0489807 0.99790764 1.0585749 0.999255 0.9910656 1.0120833 0.99487525
0.9922811 0.9937796 0.9758276 0.98701787 0.989678 1.0110146 1.0062066 1.00697
1.0022404 0.9887014 0.96178806 1.0059352 0.9968364 0.9987558 0.977876 1.0107617
00000000: dda2 803f 22bf 7d3f fe97 783f f7bc 803f
00000010: 5845 7d3f 0b1c 813f 1e46 7e3f 0ef4 753f
00000020: 6854 7f3f 0045 863f e076 7f3f 627f 873f
00000030: 2dcf 7f3f 7ab6 7d3f f28b 813f 25b0 7e3f
00000040: 2206 7e3f 5768 7e3f d6cf 793f 34ad 7c3f
00000050: 8a5b 7d3f ed68 813f 61cb 803f 65e4 803f
00000060: 6a49 803f 891b 7d3f be37 763f 7cc2 803f
00000070: ac30 7f3f 76ae 7f3f 1556 7a3f a460 813f

bn1.bias f4 [32]
-0.01973679 0.041049797 0.030296791 0.09977151 0.09209036 -0.122505136 -0.03416957 -0.096100874
0.042067517 0.07625058 -0.014845528 -0.019641928 -0.030866994 0.04847469 0.0029706936 -0.0331025
0.058263484 0.04100457 0.045607988 0.0224248 -0.057468798 -0.036156423 -0.0043477775 0.049429383
-0.088106364 0.092531316 0.034763977 -0.050161738 -0.00430868 -0.0848378 -0.0485646 -0.01880977
00000000: 0caf a1bc d523 283d fa30 f83c 0155 cc3d
00000010: df99 bc3d f9e3 fabd 64f5 0bbd 89d0 c4bd
00000020: fd4e 2c3d 4429 9c3d a83a 73bc 1ce8 a0bc
00000030: c7dc fcbc 668d 463d f8af 423b 7d96 07bd
00000040: b1a5 6e3d 68f4 273d 71cf 3a3d 37b4 b73c
00000050: 6764 6bbd c218 14bd cd77 8ebb 7776 4a3d
00000060: 1c71 b4bd 0f81 bd3d ac64 0e3d 6576 4dbd
00000070: d42f 8dbb 71bf adbd adeb 46bd f216 9abc

bn1.running_mean f4 [32]
-0.28168797 0.32417947 -0.40500364 -0.2860489 0.43810984 0.43545476 -0.015427302 0.2681139
0.004396151 0.09556703 -0.45425314 0.41781956 0.28846404 -0.563077 -0.47745934 0.124793775
0.5567176 0.041219264 0.1907474 -0.18853502 -0.25780943 0.016222954 0.17504291 0.017926667
0.073401235 0.07602513 -0.5313034 0.47262073 0.11229368 0.257421 0.07312015 -0.19154792
00000000: 6839 90be dafa a53e a35c cfbe 0075 92be
00000010: ef4f e03e edf3 de3e cbc2 7cbc 3a46 893e
00000020: 960d 903b a6b8 c33d de93 e8be 72ec d53e
00000030: 8fb1 933e d025 10bf 8d75 f4be e193 ff3d
00000040: 0b85 0e3f 88d5 283d 4953 433e 530f 41be
00000050: 99ff 83be 00e6 843c 733e 333e f2da 923c
00000060: 6353 963d 10b3 9b3d 8003 08bf 58fb f13e
00000070: 3bfa e53d afcc 833e 04c0 953d 2325 44be

bn1.running_var f4 [32]
0.15108638 0.18395574 0.17273414 0.35567144 0.42902902 0.09651359 0.27915093 0.5517067
0.2884793 0.18221627 0.4116048 0.506958 0.10724341 0.44632676 0.15987022 0.30682024
0.06570164 0.38170677 0.23805033 0.23772977 0.6766719 0.11833078 0.08211997 0.3851865
0.41942987 0.28171638 0.24501652 0.017980412 0.05503167 0.052272923 0.43552673 0.37350366
00000000: 63b6 1a3e e55e 3c3e 38e1 303e 911a b63e
00000010: b1a9 db3e eba8 c53d dfec 8e3e a63c 0d3f
00000020: 8fb3 933e e796 3a3e ddbd d23e 00c8 013f
00000030: 6fa2 db3d f184 e43e 05b5 233e 8b17 9d3e
00000040: 958e 863d 126f c33e 77c3 733e 6f6f 733e
00000050: 5f3a 2d3f 6857 f23d 842e a83d 2a37 c53e
00000060: 83bf d63e 213d 903e 9ce5 7a3e a84b 933c
00000070: e368 613d 221c 563d 5cfd de3e df3b bf3e

conv2.weight f4 [64, 32, 3]
-0.10190611 0.042765833 0.005600092 0.01760492 0.113784455 -0.024833828 -0.059131633 0.046506498
-0.06724294 -0.03209932 -0.0773866 0.10361174 0.110915065 -0.012794677 -0.019871684 0.11039757
0.041019373 0.100593336 -0.011978734 0.018220857 -0.12302954 0.017984258 0.106212765 0.098257884
0.051282745 -0.0046865577 -0.03798953 -0.021449514 -0.066847675 -0.08480243 -0.032625448 0.032309
-0.0059009264 -0.021590343 0.023584537 0.007306038 0.056061003 0.03761633 -0.16380787 0.12533084
0.025825642 -0.087718405 -0.016681377 0.11684905 0.109730236 -0.026397308 0.017154867 -0.037849676
0.08803621 0.01545181 -0.030869998 -0.07795523 -0.022487933 -0.11554224 0.11078138 -0.08479845
0.047367163 0.0029271417 0.13813347 0.00276797 0.09564359 -0.07096961 0.093568996 0.034780007
0.04739441 -0.022206256 -0.016269451 -0.014592296 0.036298126 0.06580137 -0.046088114 -0.03481712
-0.080586605 0.011547478 0.019734217 0.004417933 0.069035 -0.028764833 -0.0060573705 0.05216601
-0.052408133 0.08135612 0.08030053 -0.079215415 -0.07177892 0.084582746 -0.069079086 0.047248997
-0.039042614 -0.05679313 -0.028853135 0.1211551 -0.07654235 -0.06464746 -0.03639903 0.023308529
0.07056456 -0.017521579 0.040141437 -0.07828383 0.0275247 0.006940408 -0.03169603 -0.032847073
0.07395545 0.018800668 0.042962097 -0.02778622 -0.11155391 -0.11746906 -0.0386882 0.0567532
0.060368624 -0.056586873 -0.013873409 -0.05836364 0.037667092 -0.052586157 -0.06671919 0.06726863
0.03367854 -0.015027716 0.041674588 0.058855817 0.013825334 0.045756146 0.11297765 -0.06584971
0.03945456 -0.07879056 0.07080181 0.13533503 -0.047252465 0.06982413 -0.04217622 -0.1068631
0.05452487 0.05886896 0.11051138 0.085603654 -0.13813835 -0.10942878 0.074072294 -0.0066608475
-0.033605464 -0.023615405 0.090466924 0.051358234 0.04114162 -0.06860531 -0.014149742 0.03539217
-0.055366598 0.042452917 0.0686326 0.038338885 -0.058057282 0.026783869 -0.09690129 0.038251713
0.06493756 0.0062022633 0.12743789 0.071514495 0.105305254 0.018868947 -0.015836477 -0.10094867
-0.04847266 -0.09715468 0.07542198 0.026236968 -0.06680926 0.10792759 0.07766315 -0.05851935
-0.1061086 -0.024202539 0.0024159963 0.016018225 -0.008708929 0.036264073 -0.011715951 -0.03349544
-0.07469802 0.07164828 0.06251173 -0.09326094 -0.037155114 0.09367396 0.01838765 0.059462603
0.037706316 0.013413163 -0.00022726628 -0.06730009 0.10048811 0.06821565 0.06071982 -0.0001260537
-0.08859433 -0.016607964 -0.030382352 0.08198814 -0.00022512268 0.059318483 0.07969953 -0.1643276
-0.034824174 -0.047947966 -0.08012839 0.061336547 -0.07825267 -0.09801105 0.082829796 0.03378434
-0.040418588 -0.05298936 0.059207667 0.11632901 -0.058073476 -0.12551071 0.06122287 -0.08172225
0.09991792 -0.05296503 -0.022161884 -0.049396608 -0.107185826 0.029326651 0.059520435 0.012129916
0.072887555 -0.043339256 -0.08387412 -0.060613927 -0.10632531 -0.04847627 -0.035610706 -0.109779835
-0.069523044 0.016156854 -0.0076850057 -0.10533012 0.013585946 0.014801637 -0.0009659026 0.06143551
0.06625569 0.00040847558 0.071824774 0.07180893 -0.14792891 -0.071865134 0.012656727 -0.01778491
00000000: 27b4 d0bd 3a2b 2f3d fa80 b73b 3138 903c
00000010: d307 e93d 5070 cbbc 0334 72bd 997d 3e3d
00000020: abb6 89bd 947a 03bd de7c 9ebd 6432 d43d
00000030: 7027 e33d c4a0 51bc f1c9 a2bc 1f18 e23d
00000040: ee03 283d e103 ce3d 7442 44bc e843 953c
00000050: e9f6 fbbd b953 933c 1486 d93d 6e3b c93d
00000060: db0d 523d b291 99bb e99a 1bbd e4b6 afbc
00000070: 6fe7 88bd e5ac adbd 43a2 05bd 7156 043d
00000080: 8f5c c1bb 3bde b0bc 5c34 c13c 7d67 ef3b
00000090: 39a0 653d 9513 1a3d 40bd 27be ba56 003e
000000a0: 4c90 d33c b5a5 b3bd 62a7 88bc 8e4e ef3d
000000b0: 3fba e03d 2b3f d8bc 5d88 8c3c 4308 1bbd
000000c0: 544c b43d 9729 7d3c 14e3 fcbc fea6 9fbd
000000d0: 9d38 b8bc 69a1 ecbd 59e1 e23d cfaa adbd
000000e0: 1204 423d 4ad5 3f3b dc72 0d3e d566 353b
000000f0: c9e0 c33d 8458 91bd 1aa1 bf3d 7b75 0e3d
00000100: a420 423d e5e9 b5bc 8347 85bc 8714 6fbc
00000110: 58ad 143d dec2 863d e4c6 3cbd 659c 0ebd
00000120: 970a a5bd a231 3d3c a7a9 a13c 4fc4 903b
00000130: 3962 8d3d 3aa4 ebbc e87c c6bb 07ac 553d
00000140: e9a9 56bd 0a9e a63d 9b74 a43d b13b a2bd
00000150: d400 93bd b839 ad3d 5679 8dbd 2a88 413d
00000160: 26eb 1fbd ea9f 68bd 695d ecbc 2a20 f83d
00000170: 3cc2 9cbd e365 84bd 2617 15bd 87f1 be3c
00000180: 2784 903d 6a89 8fbc 596b 243d 4653 a0bd
00000190: 7b7b e13c 5d6c e33b b2d3 01bd a78a 06bd
000001a0: f475 973d dc03 9a3c 06f9 2f3d ed9f e3bc
000001b0: 6076 e4bd 9e93 f0bd 8577 1ebd 0b76 683d
000001c0: 1745 773d a3c7 67bd 4b4d 63bc b60e 6fbd
000001d0: cf48 1a3d 9564 57bd 12a4 88bd 23c4 893d
000001e0: 82f2 093d cf36 76bc f9b2 2a3d cc12 713d
000001f0: a783 623c cc6a 3b3d d360 e73d 36dc 86bd
00000200: 1b9b 213d f25c a1bd 8a00 913d 4495 0a3e
00000210: cd8b 41bd f4ff 8e3d f9c0 2cbd 0adb dabd
00000220: 7855 5f3d 9420 713d ca53 e23d f850 af3d
00000230: 2474 0dbe 321c e0bd 37b3 973d 3d43 dabb
00000240: e2a5 09bd 1875 c1bc b946 b93d 035d 523d
00000250: 1e84 283d f180 8cbd 52d4 67bc 61f7 103d
00000260: 16c8 62bd 1ce3 2d3d 408f 8c3d 3c09 1d3d
00000270: 79cd 6dbd d869 db3c 2f74 c6bd d4ad 1c3d
00000280: fcfd 843d 5b3c cb3b 147f 023e 3176 923d
00000290: 48aa d73d 0d93 9a3c 80bb 81bc 2dbe cebd
000002a0: 458b 46bd 08f9 c6bd d776 9a3d e9ee d63c
000002b0: 4bd3 88bd 2409 dd3d dc0d 9f3d fcb1 6fbd
000002c0: 774f d9bd 6744 c6bc b155 1e3b a738 833c
000002d0: e5af 0ebc a389 143d 43f4 3fbc 8432 09bd
000002e0: 47fb 98bd 55bc 923d 2606 803d 97ff bebd
000002f0: f62f 18bd 22d8 bf3d b2a1 963c 0f8f 733d
00000300: f071 1a3d e2c2 5b3c 544e 6eb9 a1d4 89bd
00000310: b6cc cd3d a6b4 8b3d 59b5 783d 482d 04b9
00000320: f270 b5bd 6d0d 88bc 69e4 f8bc 66e9 a73d
00000330: e90e 6cb9 f0f7 723d 8239 a33d 7f45 28be
00000340: cba3 0ebd 1665 44bd 5a1a a4bd 083c 7b3d
00000350: f042 a0bd 04ba c8bd aba2 a93d 7361 0a3d
00000360: f68d 25bd 5f0b 59bd bd83 723d e73d ee3d
00000370: 74de 6dbd e185 00be d5c4 7a3d ff5d a7bd
00000380: c4a1 cc3d dcf1 58bd d78c b5bc 1954 4abd
00000390: 3e84 dbbd 723e f03c b3cb 733d 8ebc 463c
000003a0: 1246 953d 8184 31bd 32c6 abbd 4f46 78bd
000003b0: 16c1 d9bd 0e8f 46bd 88dc 11bd 40d4 e0bd
000003c0: 1962 8ebd 615b 843c 80d2 fbbb 51b7 d7bd
000003d0: 9697 5e3c 9182 723c a034 7dba cda3 7b3d
000003e0: 10b1 873d aa28 d639 de18 933d 8f10 933d
000003f0: ad7a 17be 072e 93bd 295e 4f3c a9b1 91bc

conv2.bias f4 [64]
-0.07016712 -0.024597244 0.038418353 0.09336808 -0.075608075 -0.0549748 0.052455656 -0.085965514
-0.03549336 0.05039584 -0.015730195 -0.01016961 -0.053743012 -0.05467702 -0.03142794 0.033975877
0.036957353 0.036403064 0.0432269 -0.056699343 -0.08419924 -0.08019608 -0.010438232 -0.032371864
0.044690024 0.09854878 -0.06260667 0.0747034 0.043608572 0.07701832 0.038971014 -0.08965132
-0.03347472 0.06826805 0.019131761 -0.005234066 0.06513085 0.006041117 0.068753116 -0.027984984
0.0023520505 -0.059015576 -0.009951234 0.009189217 -0.07153493 0.09613197 -0.0425609 0.0009652593
0.03905403 0.015619456 0.025928728 -0.04844108 0.090005256 -0.02060976 -0.05610212 -0.069158345
0.0038279698 -0.041623626 0.081285655 -0.018068593 0.044428002 -0.048869822 -0.087554455 -0.07789723
00000000: c7b3 8fbd 2980 c9bc 905c 1d3d c437 bf3d
00000010: 68d8 9abd 422d 61bd bedb 563d b00e b0bd
00000020: 7c61 11bd de6b 4e3d 9cdc 80bc 709e 26bc
00000030: a221 5cbd 03f5 5fbd 95ba 00bd 4a2a 0b3d
00000040: 9860 173d 611b 153d b10e 313d 923d 68bd
00000050: a770 acbd d83d a4bd 1e05 2bbc 5c98 04bd
00000060: e30c 373d f1d3 c93d ed37 80bd 19fe 983d
00000070: e79e 323d c8bb 9d3d 12a0 1f3d 1c9b b7bd
00000080: ca1c 09bd 1fd0 8b3d 36ba 9c3c 8782 abbb
00000090: 5363 853d 90f4 c53b 6fce 8c3d c440 e5bc
000000a0: dc24 1a3b 51ba 71bd 800a 23bc 5f8e 163c
000000b0: e880 92bd d7e0 c43d 5754 2ebd 7509 7d3a
000000c0: 1ef7 1f3d bfe8 7f3c 7c68 d43c 276a 46bd
000000d0: ad54 b83d cdd5 a8bc 56cb 65bd e4a2 8dbd
000000e0: adde 7a3b 897d 2abd 1879 a63d 9604 94bc
000000f0: 23fa 353d b92b 48bd c04f b3bd 9588 9fbd

bn2.weight f4 [64]
1.0303267 1.0485035 1.070444 1.0479708 1.0246809 1.0277071 1.0263678 1.0483938
1.0390483 1.0886956 1.0193759 1.0803518 1.0590869 1.0290768 1.0608225 1.0667199
1.0915077 1.0636209 1.045789 1.0474104 1.0308269 1.0350068 1.0596577 1.0514046
1.085775 1.0319802 1.055133 1.0366596 1.0852013 1.0424458 1.0827615 1.0348475
1.0367011 1.0690856 1.023189 1.0408322 1.0523427 1.0316392 1.0411481 1.0128098
1.046244 1.0112476 1.0133411 1.07629 1.0344071 1.0260143 1.055915 1.061376
1.0464818 1.076532 1.0561081 1.0708804 1.0507885 1.0742306 1.0430623 1.090486
1.0423951 1.0373358 1.0575857 1.0580713 1.0293331 1.0510769 1.0338403 1.0244945
00000000: bfe1 833f 5d35 863f 4f04 893f e823 863f
00000010: be28 833f e88b 833f 0560 833f c531 863f
00000020: 89ff 843f 615a 8b3f e97a 823f f848 8a3f
00000030: 2990 873f cab8 833f 08c9 873f 478a 883f
00000040: 86b6 8b3f bb24 883f 6adc 853f 8b11 863f
00000050: 23f2 833f 1a7b 843f dda2 873f 6d94 863f
00000060: adfa 8a3f ed17 843f 990e 873f 43b1 843f
00000070: e0e7 8a3f dd6e 853f ee97 8a3f e275 843f
00000080: 9fb2 843f ccd7 883f dbf7 823f fd39 853f
00000090: 2ab3 863f c10c 843f 5744 853f c0a3 813f
000000a0: 53eb 853f 9070 813f 29b5 813f dfc3 893f
000000b0: 7467 843f 7054 833f 3928 873f 2bdb 873f
000000c0: 1ef3 853f cdcb 893f 8d2e 873f 9c12 893f
000000d0: 3d80 863f 6380 893f 1183 853f 0c95 8b3f
000000e0: 346d 853f 6bc7 843f f85e 873f e16e 873f
000000f0: 30c1 833f b089 863f e154 843f a322 833f

bn2.bias f4 [64]
-0.0073346472 -0.0067749964 -0.0155358985 0.0057873274 -0.0074980767 -0.021082342 0.017130915 -0.013174676
0.012662518 -0.023255758 -0.028228637 0.048095684 0.018970579 0.005875716 0.0046714386 0.021430023
0.021983331 0.022908365 0.017624443 0.015569473 0.013721157 0.005243488 0.013157498 0.03348781
0.020487402 -0.0020468156 -0.041395642 -0.023382379 -0.010527134 0.010063599 -0.03907403 0.024815349
0.014746514 0.01924329 -0.007166039 0.0103471195 0.017475273 -0.003055976 0.0020548324 0.0012007125
-0.008476162 -0.0047684954 -0.018189022 0.017368063 0.0064399256 0.006653474 -0.031932127 0.016227806
0.010268387 0.014588403 -0.043481026 -0.015509768 -0.004826299 0.012704404 -0.027149275 -0.00066421373
0.020880593 0.027982572 0.032800555 0.010899214 -0.016122665 -0.0049745874 -0.012607601 -0.0002773549
00000000: 7b57 f0bb ca00 debb 488a 7ebc 9fa3 bd3b
00000010: 6db2 f5bb e0b4 acbc 2256 8c3c 99da 57bc
00000020: 7376 4f3c dc82 bebc be3f e7bc fbff 443d
00000030: 3068 9b3c 1489 c03b de12 993b 048e af3c
00000040: 6316 b43c 53aa bb3c 2361 903c 1a17 7f3c
00000050: b4ce 603c 91d1 ab3b 8c92 573c 842a 093d
00000060: 32d5 a73c de23 06bb 7a8e 29bd 678c bfbc
00000070: 007a 2cbc cbe1 243c 170c 20bd 8f49 cb3c
00000080: 5d9b 713c 1ba4 9d3c 18d1 eabb f786 293c
00000090: 4e28 8f3c c546 48bb 5eaa 063b 3a61 9d3a
000000a0: 9adf 0abc 0a41 9cbb 2501 95bc 7847 8e3c
000000b0: 0306 d33b 6305 da3b 43cb 02bd 2df0 843c
000000c0: bd3c 283c 3204 6f3c 2919 32bd af1c 7ebc
000000d0: ee25 9ebb 2226 503c 2868 debc a11e 2eba
000000e0: c70d ab3c b53b e53c e059 063d 9e92 323c
000000f0: ae13 84bc dd01 a3bb 1c90 4ebc f269 91b9

bn2.running_mean f4 [64]
0.26436916 0.31228995 -0.37065184 0.08250774 -0.3923614 0.533909 0.23262487 -0.04258704
0.5652436 0.32059717 0.54713666 -0.89483994 -0.4368199 0.061119158 -0.07784947 -0.08421972
-0.3344761 -0.339369 0.042513896 -0.48715094 -0.16813506 0.33595765 -0.4244481 -0.09692153
-0.15305173 0.35881186 -0.24583492 -0.01266549 0.45146933 -0.036868706 0.049484912 -0.8335856
-0.3620367 0.0771298 0.31435126 -0.48778176 0.3463071 0.13347723 0.25089005 -0.5153122
0.3447047 0.74884397 0.7905984 0.2043511 0.52092046 -0.62470037 0.1324246 0.55470383
0.05066063 0.28527865 0.07509611 -0.29589692 0.38616255 -0.611711 -0.1253556 0.33050618
-0.32780632 -0.13449292 0.34636799 -0.45501375 0.6777848 0.18511038 0.14520761 0.56553686
00000000: 655b 873e 78e4 9f3e 14c6 bdbe d1f9 a83d
00000010: 98e3 c8be 43ae 083f 3735 6e3e c06f 2ebd
00000020: ceb3 103f 5025 a43e 2611 0c3f 3b14 65bf
00000030: dca6 dfbe 1558 7a3d 8b6f 9fbd 637b acbd
00000040: 7440 abbe c6c1 adbe 0d23 2e3d d96b f9be
00000050: 992b 2cbe a402 ac3e 4351 d9be cc7e c6bd
00000060: 98b9 1cbe 30b6 b73e 26bc 7bbe ea82 4fbc
00000070: fd26 e73e a403 17bd b1b0 4a3d de65 55bf
00000080: e05c b9be 3bf6 9d3d a6f2 a03e 88be f9be
00000090: 2a4f b13e 41ae 083e a974 803e 80eb 03bf
000000a0: 227d b03e 3db4 3f3f a864 4a3f 6a41 513e
000000b0: 0b5b 053f 5dec 1fbf 509a 073e 1201 0e3f
000000c0: 8581 4f3d 0b10 923e fdcb 993d cd7f 97be
000000d0: 19b7 c53e 1899 1cbf 385d 00be 1b38 a93e
000000e0: 3bd6 a7be 83b8 09be 2557 b13e 90f7 e8be
000000f0: 4e83 2d3f 938d 3d3e 4eb1 143e 06c7 103f

bn2.running_var f4 [64]
0.2389708 0.22219679 0.26807827 0.16861686 0.146228 0.2854814 0.17429757 0.123247504
0.24954064 0.22254598 0.1958611 0.25072032 0.2928626 0.20038477 0.10235714 0.29648888
0.11358013 0.24980713 0.10713172 0.1350631 0.18947321 0.22409321 0.18717673 0.085637376
0.06267142 0.301937 0.18628462 0.2178829 0.22680652 0.14156592 0.13232352 0.291087
0.22121806 0.19994403 0.22922345 0.1962785 0.13275596 0.24238709 0.2952331 0.31345004
0.494237 0.22343381 0.25875786 0.12997137 0.25889984 0.27969408 0.20469296 0.1335511
0.14346722 0.17642118 0.22491689 0.17321153 0.2368877 0.09732717 0.15022968 0.19639568
0.22328097 0.18127085 0.061068166 0.40730032 0.19469243 0.10999505 0.23554932 0.16007143
00000000: c3b4 743e 8e87 633e 8e41 893e e6a9 2c3e
00000010: cbbc 153e 9e2a 923e 107b 323e 3069 fc3d
00000020: 9587 7f3e 18e3 633e d08f 483e 6a5e 803e
00000030: 16f2 953e aa31 4d3e 9fa0 d13d 64cd 973e
00000040: b39c e83d 71cd 7f3e e067 db3d fb4d 0a3e
00000050: 4405 423e b178 653e 42ab 3f3e a662 af3d
00000060: e059 803d 7d97 9a3e 65c1 3e3e b21c 5f3e
00000070: f83f 683e a8f6 103e d17f 073e 5b09 953e
00000080: fd86 623e 21be 4c3e 8db9 6a3e 3bfd 483e
00000090: 2ef1 073e 5234 783e cb28 973e 867c a03e
000000a0: a20c fd3e d5cb 643e e97b 843e 3717 053e
000000b0: 858e 843e 1034 8f3e 089b 513e 9fc1 083e
000000c0: 12e9 123e c1a7 343e 9d50 663e 5d5e 313e
000000d0: b092 723e 7853 c73d cfd5 193e f31b 493e
000000e0: c4a3 643e 119f 393e 9d22 7a3d ab89 d03e
000000f0: 745d 473e 1645 e13d d733 713e c4e9 233e

t_conv1.weight f4 [64, 128, 2]
0.025211545 -0.040046792 0.016905839 -0.02096525 -0.016303416 -0.027590591 -0.04943248 -0.008308968
0.0018586119 -0.057757147 -0.0583104 -0.06358809 -0.020605506 0.02714254 0.026396658 0.055724386
0.02885853 -0.021816382 -0.055495493 0.006472916 -0.04379455 0.054134957 -0.05803863 0.019838987
-0.08010709 0.026243338 -0.025724951 0.0167821 0.105461404 0.09925834 -0.01323456 0.00014275756
-0.06590935 -0.034312513 -0.056175064 0.010691134 -0.027564773 0.06575754 -0.06526944 0.013235345
0.005829596 0.009499819 -0.06116964 0.051144157 -0.047885958 0.05084281 -0.029130245 0.03457645
-0.06353654 -0.036605828 0.09817311 0.0075429203 0.01224917 -0.033915095 -0.042056076 -0.02008561
-0.017555123 0.029189507 0.10627091 0.081391074 -0.008985786 0.07071767 -0.020511024 -0.029960781
-0.021302864 -0.044619847 0.011800058 0.029180758 0.0020127646 -0.02833141 -0.07088494 -0.0009456216
0.021392543 0.020883504 -0.08875791 -0.021119963 -0.07772776 -0.031982053 0.11127225 0.057067875
-0.06140045 -0.015586981 -0.054307576 0.031243052 -0.078800134 0.010394436 0.029567583 0.06298338
-0.09062515 -0.018509343 -0.07025741 0.011168704 0.011368035 0.009284046 -0.026755325 -0.010935286
0.021068873 -0.008849885 0.07993957 -0.05572851 -0.009508428 0.05432015 0.028382218 -0.07535646
0.0043746545 -0.01863698 -0.006522328 -0.006992308 0.059175834 0.06897853 0.15204035 -0.018442728
-0.0001034269 0.038803507 -0.008989499 0.11071317 -0.094767705 -0.07101035 -0.03020983 -0.025581632
-0.055007484 -0.048450615 0.0076012625 0.043078177 -0.03266576 -0.07403401 -0.019716604 -0.038197532
-0.004080522 -0.001608158 0.0030771762 -0.016159264 -0.021607073 0.008171097 0.026321134 -0.0100631155
0.036802966 -0.032557882 -0.024689058 0.008339647 -0.046641093 -0.048161406 -0.044186667 0.07938199
-0.04773339 -0.038768582 -0.028701296 -0.04274804 0.06278012 0.021975588 -0.091854274 0.0063107125
-0.08476653 -0.09068009 0.01207157 -0.049777012 -0.021422267 -0.032875244 -0.004840393 0.023359478
-0.06969238 -0.03341714 -0.041537188 0.035346877 0.07840304 0.06696211 -0.013702403 0.020007761
0.018202385 0.016418954 0.01921183 -0.011031841 -0.057768494 -0.077172786 0.0033009911 -0.031679854
-0.020390784 0.010292882 -0.03591741 0.05764126 -0.013493471 -0.04454653 -0.031968843 0.110476024
-0.050846595 0.021911686 -0.107456625 -0.008157999 -0.07623963 -0.023283074 -0.05155147 -0.031757787
-0.0058349874 -0.01927925 0.019805318 0.11006102 -0.09454585 -0.05159274 -0.04670367 -0.07173503
-0.019814208 0.06929181 -0.059995044 0.019882284 -0.0031533323 0.020354945 0.032006547 0.0076272395
-0.068464376 -0.027936317 -0.027245607 -0.027375905 0.01660668 0.005738033 -0.0135702025 0.013413489
0.0075436966 0.004965211 0.008881281 0.008138845 -0.03738481 0.028859803 0.019398784 0.068065204
0.06659929 0.1226915 -0.09928962 0.010895303 -0.04568886 0.004550805 0.040955566 0.052333307
-0.07283539 -0.06555406 -0.06715737 -0.065566 -0.057448804 -0.06804498 0.0049185245 -0.047903206
-0.070484184 -0.054493815 0.016108172 0.04458047 -0.020573432 0.065288246 -0.008025766 0.06823839
-0.00929012 0.019810902 -0.054982115 -0.009593762 0.13086036 -0.051370803 -0.06779437 -0.06016147
00000000: 7188 ce3c 1b08 24bd 1d7e 8a3c 51bf abbc
00000010: be8e 85bc aa05 e2bc b679 4abd 5622 08bc
00000020: ab9c f33a c292 6cbd e3d6 6ebd 793a 82bd
00000030: e1cc a8bc 085a de3c ce3d d83c 413f 643d
00000040: b968 ec3c 45b8 b2bc 3e4f 63bd c11a d43b
00000050: ea61 33bd 9ebc 5d3d eab9 6dbd 5f85 a23c
00000060: 300f a4bd 45fc d63c 22bd d2bc 9d7a 893c
00000070: 26fc d73d f547 cb3d c5d5 58bc 31b1 1539
00000080: 7bfb 86bd 478b 0cbd d317 66bd de29 2f3c
00000090: 85cf e1bc e4ab 863d fcab 85bd 0fd9 583c
000000a0: 3206 bf3b 21a5 1b3c 048d 7abd 897c 513d
000000b0: 1124 44bd 8d40 503d 8da2 eebc 09a0 0d3d
000000c0: 721f 82bd feef 15bd fc0e c93d 9a2a f73b
000000d0: beb0 483c 8eea 0abd fe42 2cbd 948a a4bc
000000e0: c3cf 8fbc d51e ef3c 90a4 d93d 5db0 a63d
000000f0: 1e39 13bc 6dd4 903d bc06 a8bc 5070 f5bc
00000100: 5883 aebc 4dc3 36bd 0855 413c 7c0c ef3c
00000110: 96e8 033b 4617 e8bc 202c 91bd 97e3 77ba
00000120: 6a3f af3c e213 ab3c b5c6 b5bd c603 adbc
00000130: bb2f 9fbd 9dff 02bd b5e2 e33d 01c0 693d
00000140: 0a7f 7bbd 8960 7fbc 9f71 5ebd 6ef1 ff3c
00000150: f761 a1bd 6d4d 2a3c b737 f23c 6efd 803d
00000160: ae99 b9bd e8a0 97bc 1ee3 8fbd f1fc 363c
00000170: ff40 3a3c 1c1c 183c fc2d dbbc ea29 33bc
00000180: a198 ac3c 1cff 10bc 5bb7 a33d 9443 64bd
00000190: 3dc9 1bbc ce7e 5e3d d381 e83c 7d54 9abd
000001a0: 4359 8f3b 94ac 98bc 41b9 d5bb bb1f e5bb
000001b0: 5c62 723d 9e44 8d3d 77b0 1b3e 3415 97bc
000001c0: e5e6 d8b8 6df0 1e3d b148 13bc 96bd e23d
000001d0: 9215 c2bd e06d 91bd 9b7a f7bc 9290 d1bc
000001e0: 874f 61bd 2774 46bd 0314 f93b be72 303d
000001f0: 88cc 05bd 259f 97bd b784 a1bc 0475 1cbd
00000200: e6b5 85bb d4c8 d2ba 73aa 493b 6f60 84bc
00000210: 5101 b1bc 11e0 053c 6b9f d73c c4df 24bc
00000220: b5be 163d 6a5b 05bd b540 cabc 04a3 083c
00000230: bb0a 3fbd e544 45bd 14fd 34bd 0693 a23d
00000240: 1684 43bd cecb 1ebd fb1e ebbc 9218 2fbd
00000250: dd92 803d 2606 b43c 181e bcbd 18ca ce3b
00000260: 139a adbd 7cb6 b9bd d6c7 453c fbe2 4bbd
00000270: c07d afbc 31a8 06bd 299c 9ebb 605c bf3c
00000280: e1ba 8ebd 69e0 08bd e622 2abd e3c7 103d
00000290: c691 a03d 6e23 893d 0b80 60bc 51e7 a33c
000002a0: 2b1d 953c 0b81 863c 2162 9d3c e5be 34bc
000002b0: a89e 6cbd c40c 9ebd 7155 583b bcc2 01bd
000002c0: 930a a7bc 7aa3 283c 221e 13bd 3e19 6c3d
000002d0: b813 5dbc 6c76 36bd c3f1 02bd 4141 e23d
000002e0: 8544 50bd 2380 b33c 3812 dcbd 21a9 05bc
000002f0: 8623 9cbd 25bc bebc a227 53bd 7414 02bd
00000300: 6c33 bfbb 85ef 9dbc c33e a23c ac67 e13d
00000310: 41a1 c1bd e952 53bd 594c 3fbd d1e9 92bd
00000320: 6851 a2bc dde8 8d3d 5dbd 75bd 2ce0 a23c
00000330: 23a8 4ebb 6abf a63c 4c19 033d eced f93b
00000340: 0d37 8cbd b4da e4bc 2e32 dfbc 6f43 e0bc
00000350: bb0a 883c 1c06 bc3b 8e55 5ebc 40c4 5b3c
00000360: 1d31 f73b 35b3 a23b cb82 113c ca58 053c
00000370: d120 19bd 656b ec3c 33ea 9e3c c565 8b3d
00000380: 3565 883d ae45 fb3d 5b58 cbbd 3782 323c
00000390: 3e24 3bbd eb1e 953b 06c1 273d 735b 563d
000003a0: b92a 95bd 3541 86bd ce89 89bd 7847 86bd
000003b0: 704f 6bbd 2b5b 8bbd 932b a13b 2736 44bd
000003c0: 035a 90bd e834 5fbd 49f5 833c 039a 363d
000003d0: 9d89 a8bc d8b5 853d 817e 03bc 92c0 8b3d
000003e0: 9635 18bc 794a a23c ed34 61bd 282f 1dbc
000003f0: 4200 063e 316a 52bd c6d7 8abd e06b 76bd

t_conv1.bias f4 [128]
-0.0326241 -0.05721273 0.04397962 -0.032910798 -0.035738964 -0.029513331 -0.0210096 -0.016393801
-0.009133507 0.0041031353 -0.0022303457 -0.057875823 -0.0029111067 -0.042119857 0.12755632 -0.0065683858
0.005198416 -0.03532612 -0.040813483 0.033591025 0.006607684 0.019304385 -0.045822896 -0.035282765
-0.005663263 0.106639095 0.020475065 -0.03827705 0.015075181 0.08353811 -0.049536787 0.05716675
-0.007674066 0.009342775 -0.007212072 -0.008784609 -0.045189843 0.02305164 -0.044099476 0.12750283
-0.022612363 -0.052341167 -0.046024393 0.020638268 -0.00036983888 0.051761158 -0.06761823 -0.03854067
0.025739025 0.01856862 0.0017060307 0.03455537 0.050582338 0.05574176 0.12865466 0.01886319
-0.04474632 -0.047220252 0.016675591 -0.037026647 -0.013104833 -0.06570823 -0.0041742744 -0.015266329
-0.0066577625 0.00076499087 -0.031983826 -0.032798257 0.02888061 0.0027121173 -0.03657577 0.028312175
-0.035942256 -0.036391445 -0.0042213625 0.020174192 -0.012767702 -0.01854646 -0.0076175076 -0.006543858
-0.01702879 0.03673462 0.11737154 -0.044017386 -0.057685785 -0.014106846 -0.036909807 0.003990775
-0.0667421 0.018974032 0.023129713 -0.052428864 0.006398813 0.008891605 -0.0339856 0.04281027
-0.051564123 0.12376914 -0.006571168 0.018603869 -0.047021557 0.04503467 0.13427854 -0.041520227
-0.028504716 -0.0492073 -0.022656862 0.022931064 -0.04475024 0.028418567 -0.0019408962 0.028967414
0.0690791 -0.003968817 0.007532762 -0.07769937 0.0049142097 0.030312657 -0.04964809 -0.0031219576
-0.055925958 -0.036668595 0.03274959 -0.046350356 -0.01163608 -0.010605105 0.07135128 -0.006915006
00000000: d9a0 05bd e557 6abd f923 343d 79cd 06bd
00000010: 0563 12bd f1c5 f1bc 531c acbc 4b4c 86bc
00000020: b4a4 15bc 9873 863b fe2a 12bb 330f 6dbd
00000030: 44c8 3ebb df85 2cbd 209e 023e 9d3b d7bb
00000040: 7957 aa3b 1fb2 10bd 0a2c 27bd be96 093d
00000050: 4585 d83b 3b24 9e3c cab0 3bbd a984 10bd
00000060: e592 b9bb 9965 da3d 53bb a73c 65c8 1cbd
00000070: e4fd 763c 0716 ab3d 16e7 4abd af27 6a3d
00000080: bb76 fbbb 7012 193c 3f53 ecbb 52ed 0fbc
00000090: fc18 39bd cbd6 bc3c a7a1 34bd 1a90 023e
000000a0: 903d b9bc b163 56bd 1384 3cbd 9611 a93c
000000b0: efe6 c1b9 8203 543d 6d7b 8abd d2dc 1dbd
000000c0: a6da d23c 381d 983c e49c df3a ef89 0d3d
000000d0: 6d2f 4f3d 7951 643d 0cbe 033e fa86 9a3c
000000e0: eb47 37bd 066a 41bd 409b 883c 41a9 17bd
000000f0: a7b5 56bc 0992 86bd 5ac8 88bb a01f 7abc
00000100: 5c29 dabb ab89 483a 7901 03bd 7757 06bd
00000110: 0797 ec3c c7bd 313b 79d0 15bd efee e73c
00000120: 3038 13bd 320f 15bd 5b53 8abb 5944 a53c
00000130: a02f 51bc bfee 97bc 499c f9bb dc6d d6bb
00000140: f67f 8bbc 0a77 163d 7d60 f03d 934b 34bd
00000150: ee47 6cbd 6720 67bc bd2e 17bd 0cc5 823b
00000160: 15b0 88bd 6e6f 9b3c 867a bd3c a6bf 56bd
00000170: 22ad d13b 18ae 113c 7c34 0bbd d259 2f3d
00000180: e734 53bd ad7a fd3d f452 d7bb 2467 983c
00000190: ad99 40bd 4676 383d 5080 093e 1d11 2abd
000001a0: b982 e9bc 988d 49bd e29a b9bc edd9 bb3c
000001b0: 074c 37bd 0ece e83c ab65 feba 124d ed3c
000001c0: 5879 8d3d da0c 82bb 63d5 f63b d920 9fbd
000001d0: 6107 a13b 4052 f83c cc5b 4bbd c299 4cbb
000001e0: 9e12 65bd cf31 16bd 6f24 063d dfd9 3dbd
000001f0: 42a5 3ebc 09c1 2dbc 9f20 923d 4697 e2bb

t_conv2.weight f4 [128, 64, 2]
0.07671592 0.0016892564 -0.09463606 0.057861574 -0.012894977 -0.05280253 -0.0012613814 -0.074609086
-0.07493913 -0.02617476 -0.04360463 -0.019984417 -0.024434954 0.07257471 -0.013440855 0.06955677
-0.07609838 -0.054260638 0.045307696 0.041992053 -0.07836343 0.019919418 0.05119178 -0.07362918
0.056230128 -0.07910667 0.009927185 0.091037236 0.03438923 -0.062079214 0.08008591 0.035413872
-0.06309595 -0.05884692 -0.0016970256 -0.06772119 0.04790245 0.036532715 0.0041324873 -0.0010401538
-0.06435217 -0.0066717467 0.091731966 0.01115084 -0.044330932 -0.065717 0.043019228 0.05083717
0.058310967 -0.08784412 0.027968764 0.06514939 0.057968274 -0.058312953 -0.04933203 0.082728624
0.059128825 -0.011044562 0.05058575 -0.05040281 0.04774782 0.006223158 0.025060918 -0.06350878
0.09220444 0.013429769 0.048963115 -0.0036100254 0.09682845 -0.031866852 -0.014064359 0.037657976
-0.022554992 -0.048447076 -0.05500318 0.021088675 -0.0730319 0.058710348 0.08358462 -0.070641086
-0.00088310835 0.07615784 -0.0051739365 0.06423506 -0.070257 -0.004794795 -0.0493277 -0.0501995
-0.004301239 -0.04914141 0.09093875 0.07186639 -0.005540048 0.073035166 0.085811466 0.088850796
-0.024629978 0.020960845 0.045630563 0.044477746 -0.019603016 0.054374684 -0.07029517 0.046489406
-0.027914178 0.08823895 -0.0921499 -0.06050348 0.047517523 0.060159758 0.041101865 0.03394846
0.03689159 -0.017787367 0.06870122 -0.03335819 0.0026518207 -0.044583637 0.002945225 -0.03923827
-0.05136964 -0.085545 -0.009217012 0.058446676 -0.066093475 0.022456314 -0.055725053 -0.048625864
0.12795678 0.071105264 0.093210675 0.06739446 0.054844737 -0.035439152 -0.023612142 0.029350422
0.026835296 0.15172286 0.029620482 -0.039813902 0.053303767 0.074107215 -0.019900309 0.14988866
0.13861336 0.025513433 0.00059904595 0.02028904 -0.026167221 -0.0022859364 0.08364951 0.065951735
0.04090993 0.10577528 -0.013866919 -0.11321188 -0.08150717 0.006303829 0.17959182 0.11633034
0.074028365 0.1677926 0.07869557 -0.025757192 -0.092651 -0.03600311 -0.015434229 0.03537022
-0.042463493 -0.046997603 0.0217248 0.009263121 -0.03905534 0.08423473 0.06855845 0.06722315
-0.012233682 -0.036507238 0.055922262 0.018328039 -0.01995184 0.06742047 -0.017364066 0.02306814
-0.055112887 0.059050515 0.09191194 0.08952129 0.046751697 -0.0022306484 0.0009801901 0.015186808
-0.086043395 -0.041726287 0.09460452 -0.024933474 0.13113375 0.13175917 -0.010778976 0.08554035
-0.00065433135 -0.059883725 0.1489468 0.10367976 -0.03548503 0.07917639 -0.05604032 0.092707306
-0.0073125423 -0.07766021 -0.0015259549 -0.019715408 -0.0027827534 0.08648802 0.012275411 0.08966675
0.0749047 0.114192866 -0.027190462 0.008682112 -0.0064156763 -0.105317004 0.0130423885 0.13861933
0.105475046 -0.0062813503 0.050272867 0.027028468 -0.08039906 0.057135575 0.06060302 -0.030763157
-0.0076260036 0.030911095 0.08617111 0.029964808 0.016357442 0.0036962568 -0.07636724 -0.012956786
0.09069569 0.09574943 0.09952132 0.09359671 0.05158542 0.038643528 0.04230867 0.056371614
0.06946735 0.039205488 0.099456914 -0.02119095 0.07286112 0.111458085 0.08199619 0.051827054
00000000: 3c1d 9d3d 0a6a dd3a 8dd0 c1bd 4200 6d3d
00000010: 7445 53bc 7747 58bd f054 a5ba a6cc 98bd
00000020: b079 99bd 736c d6bc c59a 32bd 5cb6 a3bc
00000030: d02b c8bc 0da2 943d 0837 5cbc c873 8e3d
00000040: 78d9 9bbd 6740 5ebd 9094 393d dcff 2b3d
00000050: 027d a0bd 0c2e a33c 79ae 513d e5ca 96bd
00000060: 9051 663d ae02 a2bd a2a5 223c bb71 ba3d
00000070: b9db 0c3d c646 7ebd 1504 a43d 230e 113d
00000080: 7338 81bd 7809 71bd bb6e deba 68b1 8abd
00000090: 5c35 443d 54a3 153d d169 873b c555 88ba
000000a0: 12cb 83bd ab9e dabb f8dd bb3d 03b2 363c
000000b0: 5a94 35bd a296 86bd ee34 303d a33a 503d
000000c0: 7bd7 6e3d 9ee7 b3bd c01e e53c 0b6d 853d
000000d0: 2470 6d3d 90d9 6ebd 6210 4abd a06d a93d
000000e0: 1131 723d 40f4 34bc 0133 4f3d 2d73 4ebd
000000f0: 3893 433d a2eb cb3b 8e4c cd3c e410 82bd
00000100: aed5 bc3d 8908 5c3c 8c8d 483d 2d96 6cbb
00000110: ff4d c63d d186 02bd 326e 66bc 403f 1a3d
00000120: 3fc5 b8bc 7170 46bd 044b 61bd 28c2 ac3c
00000130: c091 95bd 437a 703d 6a2e ab3d 46ac 90bd
00000140: 6680 67ba a4f8 9b3d 208a a9bb ac8d 833d
00000150: e7e2 8fbd a81d 9dbb d80b 4abd fe9d 4dbd
00000160: 68f1 8cbb 8148 49bd 183e ba3d b02e 933d
00000170: 4a89 b5bb 7693 953d ecbd af3d 68f7 b53d
00000180: cfc4 c9bc 14b6 ab3c 1de7 3a3d 4c2e 363d
00000190: 8196 a0bc fdb7 5e3d eaf6 8fbd ad6b 3e3d
000001a0: 46ac e4bc 9fb6 b43d 16b9 bcbd 7fd2 77bd
000001b0: bca1 423d 146a 763d 6e5a 283d 8a0d 0b3d
000001c0: a31b 173d d0b6 91bc 3ab3 8c3d 99a2 08bd
000001d0: 2bca 2d3b 559d 36bd ad04 413b 4fb8 20bd
000001e0: f968 52bd 3832 afbd f302 17bc c865 6f3d
000001f0: 045c 87bd 4ef6 b73c f43f 64bd ea2b 47bd
00000200: 1a07 033e a39f 913d 3de5 be3d 1b06 8a3d
00000210: e0a4 603d a528 11bd 406e c1bc 4c70 f03c
00000220: b2d5 db3c 3d5d 1b3e a7a6 f23c e713 23bd
00000230: 0d55 5a3d 86c5 973d f905 a3bc 6a7c 193e
00000240: a9f0 0d3e 8c01 d13c 4b09 1d3a 3335 a63c
00000250: a45c d6bc a6cf 15bb 6f50 ab3d b411 873d
00000260: 2c91 273d b6a0 d83d 1332 63bc a1db e7bd
00000270: 3bed a6bd 5a90 ce3b ebe6 373e 9a3e ee3d
00000280: 2f9c 973d d3d1 2b3e 252b a13d bf00 d3bc
00000290: cfbf bdbd ff77 13bd d9df 7cbc 5de0 103d
000002a0: 33ee 2dbd 8f80 40bd 35f8 b13c 58c4 173c
000002b0: 7ef8 1fbd 4283 ac3d 5f68 8c3d 4aac 893d
000002c0: c86f 48bc 9d88 15bd be0e 653d af24 963c
000002d0: 0b72 a3bc be13 8a3d 163f 8ebc 65f9 bc3c
000002e0: 0dbe 61bd f4de 713d 543c bc3d f056 b73d
000002f0: b57e 3f3d 1230 12bb b979 803a 17d2 783c
00000300: 8537 b0bd 2fe9 2abd 04c0 c13d 4941 ccbc
00000310: ed47 063e e0eb 063e 4d9a 30bc c72f af3d
00000320: 6f87 2bba a348 75bd 8385 183e 0e56 d43d
00000330: c058 11bd 3b27 a23d 898a 65bd 54dd bd3d
00000340: 0d9e efbb 510c 9fbd 8d02 c8ba 3582 a1bc
00000350: db5e 36bb a220 b13d ce1e 493c 33a3 b73d
00000360: a367 993d f3dd e93d 88be debc 6b3f 0e3c
00000370: 983a d2bb 71b0 d7bd beaf 553c 3af2 0d3e
00000380: 4d03 d83d c9d3 cdbb ecea 4d3d ce6a dd3c
00000390: 43a8 a4bd fe06 6a3d df3a 783d 0403 fcbc
000003a0: 8ee3 f9bb 4439 fd3c 7b7a b03d c278 f53c
000003b0: 0b00 863c e63c 723b 6d66 9cbd b348 54bc
000003c0: a9be b93d 4718 c43d d5d1 cb3d a2af bf3d
000003d0: 3c4b 533d ad48 1e3d db4b 2d3d ece5 663d
000003e0: e644 8e3d ef95 203d 11b0 cb3d a598 adbc
000003f0: 3638 953d 2344 e43d 9eed a73d 9b48 543d

t_conv2.bias f4 [64]
0.01471427 0.1001083 -0.04518703 0.03219723 -0.010773274 -0.049712077 -0.04087262 -0.046171494
-0.021687273 -0.037008684 0.017274817 0.054275908 0.08629872 -0.01130376 0.06990327 -0.022908118
-0.07245486 0.015691746 -0.042920675 0.010963384 0.02106284 0.0064169364 -0.032622304 0.021034239
-0.02128137 -0.03276809 0.09249559 0.053060383 0.063535504 -0.063646674 -0.068185255 0.07668578
-0.022900749 0.13738331 -0.05798197 -0.068383 0.0753328 0.019046126 0.12776344 -0.002761533
0.015564682 0.015890537 0.013729123 0.08279891 -0.061981875 -0.010519643 0.052801766 0.005211299
0.08403964 0.028517963 -0.05388512 -0.024252381 -0.04788084 0.07912024 -0.0467052 -0.033012457
0.06655131 0.007741434 0.012746028 0.02632612 -0.049467593 -0.029741686 0.019328546 0.037538316
00000000: 1f14 713c 9505 cd3d 0916 39bd 3ee1 033d
00000010: 6382 30bc e49e 4bbd 0c6a 27bd 521e 3dbd
00000020: 82a9 b1bc 6b96 17bd eb83 8d3c 6a50 5e3d
00000030: 62bd b03d 6833 39bc 7229 8f3d cea9 bbbc
00000040: 3763 94bd fa8b 803c 97cd 2fbd c49f 333c
00000050: fa8b ac3c 2a45 d23b f79e 05bd ff4f ac3c
00000060: 4556 aebc d537 06bd 546e bd3d d855 593d
00000070: e71e 823d 3059 82bd b6a4 8bbd 6f0d 9d3d
00000080: 5a9a bbbc 36ae 0c3e 817e 6dbd 630c 8cbd
00000090: 1548 9a3d 9f06 9c3c 6bd4 023e d6fa 34bb
000000a0: 0203 7f3c df2c 823c 1ef0 603c 7a92 a93d
000000b0: b5e0 7dbd 955a 2cbc aa46 583d 8bc3 aa3b
000000c0: fa1c ac3d 819e e93c a5b6 5cbd eeac c6bc
000000d0: b31e 44bd cb09 a23d f44d 3fbd 1238 07bd
000000e0: 0e4c 883d dbab fd3b b7d4 503c e0a9 d73c
000000f0: 889e 4abd d6a4 f3bc e656 9e3c c7c1 193d

conv_out.weight f4 [1, 64, 3]
-0.112567484 -0.026526202 0.026015276 -0.0814706 0.047192976 0.08407318 0.06785685 -0.019665133
-0.11783502 0.02490003 -0.0038731452 -0.03537758 -0.0003662508 -0.05115957 0.07678893 -0.039161965
0.027300345 -0.09914438 -0.117849946 -0.0037620475 -0.0043634474 -0.040270142 -0.115110934 0.041174915
-0.12889606 -0.015683215 0.033438712 -0.043448582 0.035884943 0.021970471 0.16171177 0.122758105
0.050975367 0.11692612 0.13018666 0.09480549 0.09797056 -0.011767172 0.11544547 0.00950311
0.0065184706 -0.10861951 0.17952096 0.06748966 0.11297229 -0.111748755 -0.0077549093 0.07705482
-0.03503099 -0.17320865 0.08597346 0.10627191 0.07127752 0.10584246 -0.024148801 -0.04963083
-0.114282615 -0.045119625 -0.099974886 0.0022070946 0.00315055 -0.03639928 -0.09992633 -0.0014756819
-0.066624455 -0.059286 0.028632216 -0.09535744 -0.08655095 -0.10867747 0.046042442 -0.08745293
0.055015575 0.052934755 -0.018940454 -0.040380742 0.01577355 0.024489438 0.03039024 -0.003915743
0.119116694 0.014696342 -0.12024828 -0.02754316 0.016763303 -0.08469533 -0.053105313 -0.05241051
0.14675413 0.025736723 0.029329147 0.09215565 -0.0012372194 0.101366386 -0.045208227 0.02388339
-0.014201132 -0.096898586 -0.056897637 0.15264446 0.1274181 0.17191377 -0.14555058 -0.061916865
0.0060310145 0.005651157 -0.13853556 0.025296818 -0.046931632 -0.08081781 -0.07928458 -0.059108775
-0.05314329 0.111508615 0.09922692 0.15599209 0.17098077 -0.09748558 -0.067085445 -0.07035482
0.042514097 -0.08068611 -0.11273849 0.045441706 -0.030519832 -0.02953197 -0.02678149 -0.09603038
-0.09760505 -0.10535123 -0.10875369 0.03978612 -0.096994035 -0.13830593 -0.06443232 -0.097673975
-0.00891466 -0.02703393 0.062044848 0.103353165 0.0168875 -0.091012396 -0.07356945 0.03055751
0.03649814 0.15904732 0.15052775 0.025113495 -0.13685682 -0.028384924 0.07099149 -0.03423143
-0.015039631 -0.08719307 -0.07899888 -0.06837275 -0.031025209 -0.055815928 -0.03796739 0.01584939
0.082913555 0.02377293 0.15742612 0.097691655 0.10523208 0.018840887 0.036898915 -0.017891418
-0.07445626 -0.09662758 0.016774744 -0.060325984 -0.05615689 -0.01904492 0.025143372 0.0560041
0.0704486 0.13035542 0.08630081 0.0054654283 -0.07896516 0.032034483 0.027150257 -0.118261345
0.0181808 -0.08376627 -0.089958146 -0.04954587 0.046826 -0.07074295 -0.0922295 0.0051323655
00000000: c889 e6bd 7a4d d9bc fd1d d53c 0fda a6bd
00000010: 6c4d 413d 8f2e ac3d 88f8 8a3d c618 a1bc
00000020: 7d53 f1bd 26fb cb3c 98d4 7dbb 15e8 10bd
00000030: 5a05 c0b9 b38c 51bd 8443 9d3d 4c68 20bd
00000040: f9a4 df3c 350c cbbd 505b f1bd af8c 76bb
00000050: 40fb 8ebb 4ef2 24bd 48bf ebbd 07a7 283d
00000060: 54fd 03be 167a 80bc 08f7 083d 24f7 31bd
00000070: 17fc 123d 6bfb b33c c597 253e 9a68 fb3d
00000080: 8ccb 503d f676 ef3d a74f 053e 6129 c23d
00000090: caa4 c83d 19cb 40bc ad6e ec3d efb2 1b3c
000000a0: e598 d53b e873 debd 58d4 373e 0538 8a3d
000000b0: 045e e73d 88dc e4bd e51c febb ebce 9d3d
000000c0: a87c 0fbd 9c5d 31be da12 b03d 16a5 d93d
000000d0: f3f9 913d efc3 d83d b5d3 c5bc b249 4bbd
000000e0: 010d eabd 5bcf 38bd a2bf ccbd e7a4 103b
000000f0: 7579 4e3b 6917 15bd 2da6 ccbd ab6b c1ba
00000100: 6772 88bd e0d5 72bd 1c8e ea3c c34a c3bd
00000110: a041 b1bd 4b92 debd 0097 3c3d 861a b3bd
00000120: 0358 613d 1dd2 583d 0329 9bbc 4766 25bd
00000130: 8837 813c 139e c83c f4f4 f83c a24f 80bb
00000140: 74f3 f33d edc8 703c bb44 f6bd 31a2 e1bc
00000150: 3253 893c bf74 adbd f584 59bd 67ac 56bd
00000160: b746 163e d2d5 d23c ae43 f03c 1abc bc3d
00000170: 322a a2ba 2e99 cf3d 432c 39bd 19a7 c33c
00000180: ddab 68bc c472 c6bd 7f0d 69bd d44e 1c3e
00000190: e479 023e 2a0a 303e 360b 15be 8a9c 7dbd
000001a0: d19f c53b 572d b93b 44dc 0dbe 463b cf3c
000001b0: 623b 40bd cf83 a5bd f45f a2bd 0b1c 72bd
000001c0: c7ac 59bd a15e e43d 7c37 cb3d 64bc 1f3e
000001d0: 9515 2f3e 85a6 c7bd 1864 89bd 3016 90bd
000001e0: 4323 2e3d c23e a5bd 70e3 e6bd 1521 3a3d
000001f0: ba04 fabc 08ed f1bc db64 dbbc 93ab c4bd
00000200: 28e5 c7bd 63c2 d7bd 41ba debd c5f6 223d
00000210: cfa4 c6bd 12a0 0dbe 18f5 83bd 4b09 c8bd
00000220: cb0e 12bc 4376 ddbc bd22 7e3d d3aa d33d
00000230: a857 8a3c b564 babd 94ab 96bd be53 fa3c
00000240: 137f 153d 4ddd 223e f223 1a3e d1ba cd3c
00000250: 3224 0cbe 8087 e8bc fc63 913d 4236 0cbd
00000260: c968 76bc 4892 b2bd 2aca a1bd 0307 8cbd
00000270: 9428 febc 3e9f 64bd b283 1bbd 94d6 813c
00000280: 95ce a93d 73bf c23c 5034 213e 9012 c83d
00000290: eb83 d73d 3458 9a3c 5123 173d 0691 92bc
000002a0: 867c 98bd aee4 c5bd 306b 893c 6118 77bd
000002b0: c404 66bd 1804 9cbc 79f9 cd3c 8e64 653d
000002c0: 5b47 903d e47b 053e 7bbe b03d 5617 b33b
000002d0: 7cb8 a1bd 9736 033d 376a de3c 0133 f2bd
000002e0: e7ef 943c a68d abbd fa3b b8bd 9cf0 4abd
000002f0: 9fcc 3f3d aee1 90bd d2e2 bcbd 672d a83b
