pths/denoiser_model_1.pth (torch, 166322 bytes, 17 tensors)

conv1.weight f4 [32, 1, 3]
00000000: 7cb8 023f 71cc dcbe 89e4 87be 64cc ed3e
00000010: e911 5e3e 7850 95be f4c5 983d ab42 6e3e
00000020: c05e 693c 341a a43e 4365 183f 16c7 c7bd
00000030: 30f4 db3e 4a8c e6be 4337 883e 421e f8be
00000040: acf4 64be 361b e03e f902 bb3d 2c66 333e
00000050: 5c8b b33e 48d8 103f fa49 d6be 3bc1 e2be
00000060: 69e9 4fbe e0ad ccbd 471d ccbd a636 b13e
00000070: 5768 e53e e1f0 bb3e 33b2 853e 75f2 733d
00000080: 21a4 96be 1e08 4cbe 868c 34be 4c86 f93e
00000090: 40dd bfbd c703 e03e 5356 8f3e 4464 42be
000000a0: 08a9 b63e c391 e63e 6aae d63d 63ef d43e
000000b0: 34b4 06bf c663 eb3e 968b 0d3f d0d4 bd3d
000000c0: 4703 d5be 0aca 71be 14e1 ccbe db14 eb3e
000000d0: a06e cd3e 1ed2 343e c24b 9d3e f62b c6be
000000e0: b4bd d03e 06bc 3d3e fcd4 d6bd 25e8 11bf
000000f0: a086 983e 9c4c e03c 96b9 ddbd ebcf 01bf
00000100: b1f7 2639 b6da aa3e 02a1 c7bd 22f5 babd
00000110: 4f18 e23d df7b 673e 1eb4 13bf c6b1 903e
00000120: 24f5 5bbd fec6 05bf d376 71be 5944 26be
00000130: 923c 82bd a7dd 21be 5756 84be 5045 06bf
00000140: f070 dc3e d7a9 b63d 8032 b53d 2180 483e
00000150: e005 bbbe 06b1 72bc b93f cb3e 640d e43d
00000160: ad28 50bd f55a 04bf a861 403e f397 d73e
00000170: 48d2 4ebd 384f 283e 7ed0 0a3f 5bf4 7bbe
0.5106275 -0.43124726 -0.26541546 0.46445 0.2168652 -0.29162955 0.074596316 0.2326762
0.014243782 0.3205124 0.59529513 -0.097547695 0.42959738 -0.45028907 0.2660466 -0.48460585
-0.2235896 0.4377076 0.09131426 0.17519444 0.3506726 0.5658002 -0.41853315 -0.44288048
-0.20303883 -0.099941015 -0.09966522 0.34612006 0.44806167 0.36707214 0.26112518 0.059557397
-0.29422095 -0.19924971 -0.1763173 0.48735273 -0.09368372 0.43752882 0.27995548 -0.18983561
0.35675836 0.45033082 0.104824856 0.41588888 -0.5261872 0.4597456 0.55291116 0.092691064
-0.41604063 -0.23612228 -0.4001547 0.4591435 0.40123463 0.17658278 0.3072186 -0.38705415
0.40769732 0.18528756 -0.10489842 -0.5699485 0.2979021 0.02738028 -0.10826413 -0.5070788
0.00015923266 0.33369988 -0.09747507 -0.091287866 0.11039793 0.22605847 -0.5769671 0.2826063
-0.05370058 -0.52256763 -0.23580484 -0.1623701 -0.06359209 -0.1580721 -0.25847122 -0.5244951
0.43054914 0.08919113 0.08847523 0.19580127 -0.3652792 -0.0148127135 0.39697054 0.111353666
-0.05082004 -0.5170129 0.18787253 0.42108116 -0.05049351 0.1643647 0.54224384 -0.24604933

conv1.bias f4 [32]
00000000: ceea 8e3e 5106 ebbe 6e30 07bf 9565 e5be
00000010: 6c0d 09bf 6461 0ebf 0abd a63e b219 d0be
00000020: 9082 ba3c f446 06bf 9234 e43e 7add 7a3d
00000030: 0893 3b3e f266 f53e fea3 0a3e 476f 91bc
00000040: 0f39 b4be e728 93be 4c92 9abe 44d8 503e
00000050: 4c46 db3e 3fd7 a13e b648 dabe acdd 693e
00000060: 2a91 a23e d30f 92be 9845 ed3e 1129 debe
00000070: 7bdc 783e 6c2b 963e 51f7 9dbe 1c2d df3e
0.27913517 -0.45903257 -0.5280827 -0.44804063 -0.53536105 -0.55617356 0.325661 -0.40644604
0.022767335 -0.52452016 0.44571358 0.061246373 0.18317807 0.47930104 0.1353912 -0.017753256
-0.35199782 -0.28742144 -0.3018974 0.20394999 0.4282707 0.31609532 -0.426336 0.22838467
0.31751376 -0.28527698 0.46342158 -0.43390706 0.24302857 0.29330003 -0.3085275 0.43589103

bn1.weight f4 [32]
00000000: 74da 7d3f dc4f 813f 88a8 7a3f 6b17 803f
00000010: abc7 833f df37 7b3f 9744 813f af8a 783f
00000020: 53c0 7c3f 629e 803f 621a 7c3f f066 833f
00000030: 44d0 7b3f e6d9 7e3f 7417 803f 1a69 7c3f
00000040: 4134 803f 6cb2 7a3f 2f4e 803f 63c0 7e3f
00000050: 3a33 803f f569 7b3f 7f98 823f ac31 7e3f
00000060: b25d 7d3f ff1d 7f3f db14 783f c66f 7a3f
00000070: fd66 843f 6af8 803f f02f 833f 7563 823f
0.9916146 1.0102496 0.9791341 1.0007147 1.0295309 0.9813213 1.0099057 0.97086614
0.98730963 1.0048335 0.98477757 1.0265789 0.98364663 0.99551237 1.0007157 0.9859787
1.0015947 0.979285 1.002386 0.9951231 1.0015633 0.9820855 1.0202788 0.99294543
0.9897109 0.99655145 0.9690682 0.978268 1.034393 1.007581 1.0249004 1.0186602

bn1.bias f4 [32]
00000000: 9ca1 603d 571e af3d cf95 503d 8079 1e3d
00000010: ec3a 863d 1e41 83bc 2993 0ebc dd3c 5e3d
00000020: c309 fcbb 2274 103d 7f62 5a3d 0188 993d
00000030: 863a bbbc 2825 553c 9c64 443d e1d1 883d
00000040: 1cb8 b43c 2bbe a9ba 7a0a a93d 3bf9 ca3c
00000050: d6ef a33d c54e 1bbd 826d 233d f6a0 fa3c
00000060: 5681 18bd 0693 043d 48db a33d e94d 113c
00000070: 03d2 7c3d 945a 8e3d 8645 743d 1650 bd3d
0.054841623 0.08550709 0.05092412 0.03869009 0.06554207 -0.016022261 -0.008702078 0.054257262
-0.0076915934 0.035267003 0.05331659 0.07496644 -0.022855055 0.013009347 0.04794751 0.06680656
0.022060446 -0.0012950351 0.08253951 0.024777045 0.080047294 -0.037916917 0.039899357 0.03059433
-0.03723272 0.032366775 0.08000809 0.008868673 0.06172372 0.0695087 0.059636615 0.09243791

bn1.running_mean f4 [32]
00000000: 094d 403e 85a3 93be 3e82 c4be 8e27 a8bd
00000010: 4541 debe 2675 2cbf f6d2 193f 3a07 0cbf
00000020: c6fc 1ebe c4f9 f2bb 612e e93e 1550 e43d
00000030: 9b3d ee3e 5640 423f ad9e 0a3e 4bce f23e
00000040: d274 51bf 7a07 313e 0216 26be 24e7 87bc
00000050: a2ac 053f 33d1 793e e209 ecbe 4898 433e
00000060: 8042 43bd 7205 e9be 990b 9c3e 2223 89be
00000070: 3a0a 823e 778e b53d 5c05 6fbd 51cb 243f
0.18779387 -0.28835693 -0.38380617 -0.082106695 -0.43409172 -0.67366254 0.60087526 -0.54698527
-0.15526113 -0.0074150283 0.45543197 0.11148087 0.46531376 0.7587942 0.13537093 0.47423014
-0.8181888 0.17288008 -0.16219333 -0.016589709 0.5221654 0.2439621 -0.4610129 0.1910106
-0.04767084 -0.45511967 0.30477598 -0.26784617 0.25398427 0.08865064 -0.05835472 0.64372736

bn1.running_var f4 [32]
00000000: 0de1 223f fc42 d73e 5214 8d3d 212a 0b3f
00000010: 5bcd 103f 8129 153f 5a43 363e 3097 583f
00000020: 2c44 883d 20e4 f93e f813 473e f9de c13e
00000030: 8d5c a53e a6a8 db3e c10f 123f f1ab 153f
00000040: 6825 d63e 8cf1 e03e d7d5 003f 4466 e13e
00000050: 79dc f93d 84fa e63e fb89 163d 5de2 133f
00000060: 21eb bf3e 2d2f 763d 7dbb 253f cbfc 703d
00000070: 25fd b63e d233 ab3e 1257 803e 134f ed3e
0.6362465 0.42043293 0.068886414 0.5436116 0.5656335 0.58266455 0.1779913 0.84605694
0.06653628 0.48806858 0.19441211 0.37865427 0.32297173 0.42902106 0.5705529 0.58465487
0.41825414 0.43934286 0.50326294 0.44023335 0.12200255 0.45113003 0.036752682 0.5776728
0.37484077 0.060103584 0.6473921 0.058834832 0.3574001 0.33437973 0.2506643 0.4634939

conv2.weight f4 [64, 32, 3]
00000000: 96ce 18bd ffc0 cc3d bf7b 5a3c 01b2 dabc
00000010: 9242 0fbd 60e4 8cbd 21d5 c53c c8ee 83bd
00000020: fdd0 6f3a 8304 d83c 91a2 f2bc c42b 0dbd
00000030: de2c 9ebb e8e4 6bbd 74e6 cc3c 764f e73c
00000040: c324 9ebd 66df 64bd 8bab 6b3d 7890 93bd
00000050: fbcc ce3d 688f 723d 8b46 6c3d 21f4 103c
00000060: a6ff 73bd 62ce 59bd fdd3 7a3d 1c5c 02bd
00000070: 6ef1 66bd 6e3b 8fbd 4404 9b3d 4a90 65bc
00000080: 4cde 44bd 604a 8c3d 8875 aebd 2a05 a3bc
00000090: 980c c9bb 3686 9d3d 56f0 9abd f69e 753d
000000a0: 58d7 babd f219 8e3d 4c0b 99bd f4bb f03c
000000b0: 58c9 9b3d 8f03 47bd ec01 29bb 8dfd aabc
000000c0: e0ae d7bd 7195 97bd 20b0 86bd 4f32 183d
000000d0: 5efe 253d 29e2 873d 51d6 6a3b 180d b13d
000000e0: ce4c d23c 35aa 6d3c eae4 193d 312f 43bd
000000f0: 8e8a 853d e098 d53d 41ad 62bd 59d1 693d
00000100: 5ef8 513d abf2 403d a77a e73d 4181 813d
00000110: c877 83bd 7c07 a93d ea10 72bd ef08 4dbc
00000120: 9752 6fbd 0178 22bd ad1a 1a3d 15b5 873d
00000130: 3966 7fbd fae9 213d 16e7 b53d d43c 8a3d
00000140: 508c 913d 955b 973d ff14 20bd d44c c3bc
00000150: a7fb 3f3d 3ac6 97ba 778e 36bb 9d40 783d
00000160: 8f6f 30bb 9438 b4bd aaaf 82bd bbf0 d63d
00000170: 5333 cfbd cc00 53bd 7640 483d 22f2 473d
00000180: f97a b53d db5b bc3c 4773 19bd ddae 713d
00000190: 0e18 60bd 4782 383d 4d47 333c 2815 a9bd
000001a0: 6d95 bc3d 52f8 b43a 1b0f c0ba f739 623d
000001b0: 643f e03d 444c 2cbd 2665 6b3d d26a c73d
000001c0: 5976 943d bcbe 3ebc 1ada 5b3d 2523 84bd
000001d0: a5b3 a33d b288 abbd 7bb1 1dbd 6612 113c
000001e0: 6dde 2fbd b77a 81bd ae97 80bd 73d3 09bd
000001f0: 6123 42bc 558e c93c 1383 89bd a7b9 c23d
00000200: c35e 48bd 94cb bebd b96f 363d 1056 923d
00000210: ec60 6abd 330f b8bd 8d9a d03c 66b5 28bc
00000220: 4849 4b3d 3303 9b3d 158d b7bd f266 b53d
00000230: 5957 b2bc 3f8c 29bc bc2b 973d 43d8 62bd
00000240: e5d0 b63d fc93 acbd 4882 30bd d127 96bb
00000250: 69e2 5fbd a038 033d e13d b73d 669f 3fbd
00000260: 8d8c 73bd fe6d 09bd b825 183c 0c83 dabd
00000270: 00fa 823d e053 9fba b059 8d3c 881a 83bd
00000280: 0ff9 9fbd 1477 8ebd ed76 16bd 1d31 ae3d
00000290: 0530 a6bd e1d3 c73d 0171 e63b ed6d 313d
000002a0: f7a4 cdbb 3c11 e8bc 6732 eb3c 5808 af3b
000002b0: 4f3f 943b be96 4dbd 4086 403d ed08 c03d
000002c0: a96b 33bd 6a07 efbc fb1e a5bd c74c 693d
000002d0: 952e 9bbd fb1c c0bd 85a4 493d f53d 9d3b
000002e0: 26a4 b03d 2ea8 143d aade 8e3d 2bab 88bc
000002f0: 1452 b1bc 4d72 abbd 7d6a d5bd 8a93 0a3d
00000300: ec15 1fbc 61ba ce3d cf4a 52bd a614 c7bd
00000310: 9659 8a3c cc9c dcbd 2fac 8fbd 43dc 943c
00000320: b8da 053d 4858 97bc f024 0b3d 6f4f 5e3d
00000330: 090e 0b3d a773 123d 5710 a73d 0c71 0ebd
00000340: 285d fbbc 2b6c 303d 025f 723d e124 103d
00000350: 28e5 eabc 4f41 503d a141 933c b1eb d4bd
00000360: 6e5d edbc 3f63 213c 3586 bebd 741c b63c
00000370: ab98 92bd 32ce 77bd f5e1 aa3c 3e14 69bc
00000380: e5f1 253d 422f d33c 0999 44bd fffc ce3d
00000390: 0fda 19bd aac2 533d 4f5b a1ba a65a 943d
000003a0: eed0 f33c e1e0 1cbd c87d 6fbc 932a 42bb
000003b0: 9cf9 123d a114 f8bc 806b 63bd 3469 0ebd
000003c0: 3638 3fbc 6902 e33d d131 d13d fb93 65bd
000003d0: d080 953d 1bd5 8e3d ffcd 35bd c9c8 023c
000003e0: c1f2 c0bd 9f3a bcbd bff6 9a3d 5389 15bd
000003f0: d5a8 8bbd 66dd d0bc f040 4fbd 5471 8abd
-0.03730639 0.099977486 0.013335167 -0.026696207 -0.034975596 -0.068794966 0.02414948 -0.06442028
0.0009148268 0.026369339 -0.029618533 -0.034465566 -0.004827126 -0.05759135 0.025012232 0.028236132
-0.077218555 -0.05587711 0.057536643 -0.072052896 0.10097691 0.059218794 0.057684463 0.008847267
-0.059569977 -0.053175338 0.061237324 -0.031826124 -0.05638259 -0.06993757 0.07569173 -0.014011452
-0.04806356 0.068501234 -0.08518511 -0.019899923 -0.0061355345 0.07691614 -0.07565372 0.05996605
-0.09123105 0.069385424 -0.07472858 0.029386498 0.07606763 -0.048587378 -0.00257885 -0.020872856
-0.10531402 -0.074015506 -0.06576562 0.037157353 0.040525787 0.066349335 0.003583331 0.086450756
0.025671389 0.014505913 0.037571825 -0.047652427 0.06520568 0.10429549 -0.05534101 0.057084415
0.051262252 0.047106426 0.11302691 0.06323481 -0.06419331 0.08253381 -0.05909816 -0.012514337
-0.058428373 -0.039665226 0.037623096 0.066263355 -0.062353346 0.039529778 0.08881967 0.06749883
0.071068406 0.07390515 -0.039082523 -0.023840345 0.046870854 -0.0011579462 -0.0027855912 0.060608495
-0.0026921963 -0.08799854 -0.063811615 0.104951344 -0.10117211 -0.05151443 0.0488896 0.0488149
0.08861346 0.022993019 -0.037463453 0.059004653 -0.05471044 0.045046117 0.010942292 -0.08255988
0.09208188 0.0013806915 -0.0014652939 0.05523106 0.10949591 -0.04206492 0.05746951 0.09737171
0.072491355 -0.011642154 0.053674795 -0.06452016 0.07993249 -0.08375682 -0.038499337 0.008854484
-0.04293673 -0.06322234 -0.062789306 -0.03364892 -0.011849255 0.024604002 -0.067144535 0.095080666
-0.048918497 -0.09316173 0.04454014 0.07145321 -0.05722134 -0.08987274 0.02546432 -0.010297155
0.049630433 0.075689696 -0.08962456 0.08857526 -0.021770166 -0.010348379 0.073813885 -0.055382024
0.08926562 -0.08426663 -0.043092996 -0.004582383 -0.05465928 0.032036424 0.08947349 -0.046782874
-0.05946021 -0.033552162 0.009286337 -0.106695265 0.0639534 -0.0012155734 0.01725468 -0.06401545
-0.07811176 -0.06956306 -0.03673451 0.08505461 -0.08114628 0.097572096 0.007032514 0.043317724
-0.006275769 -0.02832853 0.028710557 0.005341571 0.0045241485 -0.050192587 0.04700303 0.093767025
-0.043803845 -0.02917834 -0.0806255 0.056957986 -0.07577244 -0.093805276 0.049229164 0.0047986456
0.08625059 0.0362932 0.069760635 -0.016683182 -0.021645583 -0.083714105 -0.10420702 0.03383211
-0.009709816 0.10094143 -0.051340874 -0.09720735 0.016888421 -0.10772094 -0.07015263 0.018171435
0.03267929 -0.018474713 0.033970773 0.054274973 0.03394893 0.035754826 0.081574135 -0.03477578
-0.030684069 0.043071907 0.059172638 0.03519142 -0.028673723 0.050843533 0.01797563 -0.10396517
-0.028975215 0.009850322 -0.09302942 0.022230364 -0.07158025 -0.060499378 0.020859698 -0.0142260175
0.04051389 0.02577937 -0.04799751 0.10106849 -0.037561473 0.051699318 -0.0012310537 0.07243852
0.029762711 -0.0383004 -0.014617391 -0.0029627427 0.035882577 -0.030283274 -0.055522442 -0.0347683
-0.011671117 0.11084444 0.1021458 -0.05604933 0.0729996 0.069742404 -0.044385906 0.007982441
-0.09421302 -0.091908686 0.07566594 -0.036507916 -0.068193115 -0.025496196 -0.05059904 -0.06759897

conv2.bias f4 [64]
00000000: ee6e 63bd 7a4f 0b3d 65c4 a03d 776d 383d
00000010: 2bac 9e3d 009c 5ebd 2153 b73d 2693 8abd
00000020: 90e9 a83d 00bd 7abd 67ec 4e3c 59f9 423d
00000030: 0879 373c 2450 0b3d 0f43 a1bd b138 40bd
00000040: dc1b c53d 3241 383b ab2d 543c 190e aabc
00000050: c348 77bd 3ea6 c2bd 64a9 c63d 2e74 643d
00000060: 3c13 4539 f580 48bd 8d43 873d bb57 593d
00000070: c87d 9cbd cd55 9b3c bb2e 2cb9 2b5e bf3d
00000080: 0b99 a63d 6e61 8bbd 9aed c13c 6925 80bd
00000090: 8b88 ab3d 0ce4 823d eec1 82bd 8223 bb3d
000000a0: 3990 6d3d ceba c63d 255b acbd 41af a13d
000000b0: 9284 033d 4992 a6bd bb21 7abc ce94 a1bd
000000c0: fb86 0e3d a7f3 08bd 5b65 6e3d 0471 33bc
000000d0: 109b 3f3d d6da ad3d 2bfc 49bd 0aa1 c43d
000000e0: db72 a83d 5fb0 9abd f666 5b3d 2198 a7bb
000000f0: 8245 78bd c2fb 823d 1ce8 94bd 59f5 913c
-0.055525713 0.03401134 0.07849959 0.04502627 0.07747682 -0.054347992 0.089514025 -0.067663476
0.082476735 -0.0612154 0.012629605 0.047601078 0.01119829 0.034011975 -0.078741185 -0.046929065
0.096244544 0.0028115031 0.012950341 -0.020758675 -0.060372125 -0.095043644 0.097002774 0.05577486
0.0001879455 -0.048951108 0.06604681 0.053062182 -0.07641178 0.018961811 -0.00016420607 0.09344133
0.081346594 -0.068056926 0.023672868 -0.062571354 0.08375653 0.06391153 -0.063846454 0.09137632
0.05799887 0.09703599 -0.08415822 0.07894755 0.03210885 -0.081333704 -0.015266831 -0.0788971
0.034796696 -0.03343549 0.05820213 -0.010952238 0.04677874 0.08489005 -0.04931275 0.09601028
0.08225032 -0.07553171 0.053564988 -0.0051145707 -0.060613163 0.06395675 -0.07270834 0.017817186

bn2.weight f4 [64]
00000000: c78d 833f e205 843f 4172 833f 0042 863f
00000010: 8dd0 833f 58e2 833f a4f6 833f 34a4 833f
00000020: 6c2b 823f 8121 843f 4ae5 843f a7a8 833f
00000030: 0a58 833f 9461 843f 5bca 833f abd4 833f
00000040: fbe5 833f 03ae 833f 5f8e 833f a6c2 833f
00000050: c17b 843f 58ca 833f 70b9 853f 65c1 843f
00000060: 584f 863f e57d 843f df66 843f fc3a 833f
00000070: 9932 843f eaa3 843f d576 833f 64cd 843f
00000080: caef 833f 4fb5 843f 91d3 833f 2ace 843f
00000090: bf52 773f bb5b 853f 1ff5 823f 1a4e 823f
000000a0: d793 843f 28d2 833f 1531 843f ac69 843f
000000b0: 647d 833f 609e 843f 1282 843f 6a35 843f
000000c0: 101a 843f 47c2 843f 94bd 833f c107 843f
000000d0: 46f5 833f 8758 843f 45d9 853f f67e 833f
000000e0: 888f 843f 59fc 833f b497 833f d8d2 843f
000000f0: ab7c 843f 18a1 833f 1183 833f d008 843f
1.0277642 1.0314295 1.0269243 1.0488892 1.029802 1.030345 1.0309644 1.0284486
1.0169501 1.0322725 1.0382473 1.0285844 1.0261242 1.0342278 1.0296129 1.0299276
1.030456 1.0287479 1.0277823 1.0293777 1.0350267 1.0296125 1.0447216 1.0371519
1.0492964 1.035092 1.0343894 1.0252376 1.0327941 1.0362523 1.027064 1.037518
1.0307553 1.0367831 1.029894 1.0375416 0.96610636 1.0418619 1.0231055 1.0180085
1.0357617 1.029851 1.0327479 1.0344748 1.0272641 1.0360832 1.0352194 1.0328801
1.0320454 1.0371789 1.029223 1.0314866 1.0309227 1.0339516 1.045693 1.027312
1.0356302 1.0311385 1.0280671 1.0376844 1.0350546 1.0283537 1.0274373 1.0315189

bn2.bias f4 [64]
00000000: 45c6 d93c 3eaa f83c 199f d93c 0d6f 253d
00000010: a641 003d 0763 c73c de31 d13c 7ed5 cd3c
00000020: 8818 8e3c 9271 b53c 4447 033d ed01 d53c
00000030: 8daf c33c 5237 093d 68db d93c 7be4 d33c
00000040: 31eb f43c bf4f 063d 8ac2 c33c b2a6 ca3c
00000050: 42f2 133d 0044 f53c 71a7 053d 7013 fa3c
00000060: 9a7e 083d b6e8 b33c de0a 103d 5a84 d63c
00000070: 303a 0b3d d34a 103d d7eb c93c cb0b 403d
00000080: 1238 f23c fd4a 013d 4d0d ff3c 62f8 0b3d
00000090: 61a1 00bd cda4 f43c d0e8 8e3c 2550 883c
000000a0: 6a39 083d 20b1 083d 185d fc3c f457 e83c
000000b0: 10af be3c 2936 183d 3df4 043d 266a cf3c
000000c0: 3c0d d83c 0828 f23c 6674 eb3c ca13 cb3c
000000d0: 5566 e23c 0d9a f63c 7cbe e23c 5a99 da3c
000000e0: 08b2 e53c 7c18 df3c c3db e63c 1f76 083d
000000f0: 84e6 063d a698 da3c 2d18 c83c d2cb 0b3d
0.0265838 0.030354615 0.026565121 0.04038911 0.031312607 0.024339212 0.025536474 0.025126215
0.017345682 0.022148881 0.032050386 0.026001895 0.02388742 0.033500023 0.026593879 0.025865784
0.029897304 0.032790896 0.023896474 0.02473769 0.036119707 0.029939651 0.032630388 0.030526847
0.03332386 0.021961551 0.035166614 0.026186157 0.03399104 0.035227608 0.02464859 0.046886247
0.029567752 0.031565655 0.031134272 0.034172423 -0.031403903 0.02986374 0.017444998 0.016639778
0.03325788 0.033372045 0.03080611 0.028362252 0.023276836 0.037161026 0.032459486 0.02531917
0.026373498 0.029560104 0.028742027 0.02478971 0.027636686 0.030102754 0.02767872 0.026684452
0.028038993 0.027233355 0.028180962 0.033315774 0.03293468 0.026684117 0.02442559 0.034129925

bn2.running_mean f4 [64]
00000000: 4eb0 473e 1e05 dc3b f245 16bd 5014 293e
00000010: cace 843e 5089 073e 645a 963e 2c78 993e
00000020: 9098 bb3e 59e4 c63d a106 9f3e 4b76 273e
00000030: 4aee ac3d 9d5d b83e c9c5 263e fbf2 253e
00000040: 918f 723e 1e1c 0f3e 2e1d b93e 9184 a8bd
00000050: 81c6 ab3d f7a8 be39 538e 7f3e ed5d 253e
00000060: 383f 2d3e f9ac e5be 1330 d73d acd7 833e
00000070: 290f 9f3d 45de 0e3e 3ee4 8ebe 657f 1bbf
00000080: 1fc7 a43e 6000 1c3e 47e5 db3d f4fd 7d3e
00000090: 3576 c53e 4222 183e da8c 443f 693a b83e
000000a0: 388d d33e 7486 773e 2101 d23c f7b5 3c3e
000000b0: ad84 933d f0fd c73e 22af 863e 3494 133d
000000c0: 8d75 9f3e 9684 d53c f569 783d edf8 c43e
000000d0: eba3 063f 1c3c d73e 8de8 d63d 22bd 8f3e
000000e0: 5b1d 5a3e 8464 503d cc96 4c3d af8a e83d
000000f0: c21e 823e 30b6 4d3e eece b03d c73b 8d3e
0.19500849 0.006714477 -0.0366878 0.16511655 0.25939018 0.13235974 0.29365838 0.29974496
0.36639833 0.097115226 0.31059745 0.16353719 0.084438875 0.3600892 0.16286387 0.16205971
0.23687579 0.1397557 0.36155075 -0.0822841 0.08387471 0.00036365513 0.24956636 0.16149111
0.16918647 -0.4485853 0.10507216 0.25750482 0.077665634 0.13951977 -0.2790851 -0.60741264
0.32183167 0.15234518 0.107370906 0.24803907 0.38566747 0.14856818 0.7677742 0.35982063
0.4131868 0.24172384 0.025635304 0.18428789 0.0720304 0.39060926 0.2630549 0.03603001
0.31144372 0.026064198 0.060647923 0.38471165 0.5259387 0.42038047 0.10493574 0.28073984
0.2130026 0.05087711 0.0499485 0.11354577 0.2541409 0.2008903 0.08633219 0.2758467

bn2.running_var f4 [64]
00000000: f45f a83e c653 1b3e 81de 8a3e bd11 433e
00000010: 2ea3 5c3e 15f9 1d3e 8827 7e3e 330a 453e
00000020: 6f42 c33e 914a 973e 3495 983e f74e 833e
00000030: 41e9 053e 464a 4d3e e935 243e 4cb5 123e
00000040: e02e 103e 6cfc 4c3e 6ab3 8c3e 2e67 1b3e
00000050: 6d1f 753e e50f 163e 2a5c 2b3e 20a4 a33e
00000060: 4b06 743e 0449 5b3e 40bb 2a3e 5b04 013e
00000070: ae44 2e3e 2396 3d3e 22af c03e 55fe ae3e
00000080: 3e8b 953e 1690 363e 009c 0f3e 20e3 533e
00000090: 783f 923e aae5 5b3e d5bf a93e b58a 3a3e
000000a0: 8812 a93e 94ae fb3e f1a9 543e 116c 743e
000000b0: 3e9a 8b3e a7b5 dc3e 1192 113e 88ae 863e
000000c0: fbf3 4c3e a0af 9b3e bd5a 3f3e 8f1f b93e
000000d0: 946a e43e 23d2 633e 95d9 a93e 9ad9 193e
000000e0: fd8e 653e 11d9 c03e a902 723e cfd7 6a3e
000000f0: a9e0 883e 069b 2c3e 39b6 443e 920b 403e
0.32885706 0.15168676 0.27122882 0.19049735 0.21546623 0.15427049 0.24819767 0.19242172
0.38136622 0.29549077 0.29801333 0.25646183 0.1307726 0.20047864 0.1603619 0.14326972
0.14080381 0.20018166 0.27480632 0.15176079 0.23937769 0.14654501 0.16734377 0.31961155
0.23830526 0.21414572 0.16672993 0.12599318 0.17018387 0.18514304 0.37633616 0.34178415
0.29207796 0.17828402 0.14024353 0.2069211 0.28564048 0.21474329 0.3315417 0.18216975
0.3302195 0.4915663 0.20767953 0.23869349 0.27266115 0.4310734 0.14215876 0.26305032
0.20014946 0.3040743 0.18686958 0.3615689 0.44612563 0.2224813 0.33173814 0.15024415
0.22417827 0.3766561 0.23633827 0.22933887 0.26733902 0.16856012 0.19210137 0.18754414

t_conv1.weight f4 [64, 128, 2]
00000000: d618 d83b a512 8c3d cc9d 82bd 9a98 283d
00000010: 31ca 4d3b dec8 003c d62d cf3c c838 533d
00000020: f228 603d 5171 cc3c c51b 493c 6170 253d
00000030: 2017 91bc 6e55 24bd 1bad ab3d 0d2c 763d
00000040: acfb 143c f745 dfbc 1087 073d 0085 d93b
00000050: 44e3 fbbc 97bf 953d 3ea4 d23b 2a37 48bd
00000060: 4ec9 823d 9a90 d93c 5f44 3a3d 88b9 9f3d
00000070: d0b9 41bd 9ed5 9b3c e6e2 373d 4c7d b73c
00000080: ec6d 1d3c c34c 073d 918c 14bd a12c 913d
00000090: a986 2fbd ed69 ecbc 0ea9 1f3d 9b67 a7bb
000000a0: 631f 743c 055e 04bd 3e4f e03c b1b2 3f3d
000000b0: 352c b2bc a7c2 02bd 2531 033d 7312 8c3d
000000c0: d57b ccbc c8ed d6bc 3470 9d3d 28f1 f33c
000000d0: c26e 13bd 61e1 ed3b 790e 5b3d 1ca0 41bc
000000e0: 63d7 323d 642f 263c 02db 513d c43c 15bc
000000f0: b670 453d c441 8c3d ef56 a33d 7e8f 013d
00000100: 51d0 8cbb 7a16 373c bd67 d43c ff1f 1fbd
00000110: 45e9 a7bc f422 71bc d254 11be bdcf 26bb
00000120: f18a 243d db39 bbbc c19f 663c bbbe 9b3d
00000130: 60dd b43c 381d bfbc f9a7 37bc 3ddd 573d
00000140: 9915 563d 7a47 f7bc 6cbd 683d 649e 613d
00000150: 010c 39bb a4cc 523d 3fb8 393d 792c a73b
00000160: b89b cc3c c899 5e3d 6e2b f1bc 06f4 08bd
00000170: fc90 0f3d 7ad6 3c3d f3fa 063d 6754 9d3d
00000180: 27cf 05ba 0674 4f3d 8106 503d 0da3 ac3d
00000190: 94ad 15bd a825 613c 3207 6b3a 84ed 51bc
000001a0: 7489 943d f227 b83b 5a7a 1a3c afe7 0ebd
000001b0: e300 303d 4426 f93c 7a09 85bd 1d7f 3bbd
000001c0: 07d9 373c 6ebc b0bc 6828 c0bd 4285 2f3c
000001d0: dbb8 473d 4fac 983c cedf 313d aee5 9a3c
000001e0: a996 02bd 4e6c 833d 9555 d53c 8133 073d
000001f0: 4b39 6e3d 9d58 f6bb fec3 dc3c de43 713d
00000200: d7d5 963c 2361 6d3d 614a 19bd 20d2 2a3e
00000210: 04a8 6abc 7427 03bc 3ece e4bc 763f 7c3d
00000220: 7db3 743d 3032 efbc 6af3 4fbd 9e73 983b
00000230: f5f1 ae3d c6a4 1b3d f224 9ebc fe8a 223d
00000240: b30d 1b3d 96b0 f6bc 3722 fa3c 10d9 dfbc
00000250: 11e9 a03c ec3b 02bd e90b 2b3d 9dd0 0fbd
00000260: 49d6 1b3d e8e4 35bc 6069 ecbc 39e2 fdbc
00000270: b02d 13bd ff56 593c 2624 473d 6559 803d
00000280: b8ed c4bc 5c7c e93b 1cb8 90bd b568 033c
00000290: d241 2e3d b343 163c 1a69 62bc b3f7 843c
000002a0: f8bc 17bc a015 893d 9d8c 26bd f5c2 ed3d
000002b0: 7c0f a93d 9178 ab3d 887c 2b3c 19b9 8a3d
000002c0: 9ff2 ebbc f9de aebc 05bd efbb abf2 c93c
000002d0: 2313 543d f404 4c3d 76c1 833d 1f97 e63c
000002e0: 46ea 2e3d 6f57 663c 6f6d a5bc 466a 083b
000002f0: 6925 1fbd 2d9e f83c b382 14bd c681 85ba
00000300: 7f6a 53bd 8cf9 30bd 1bbc 04bc 967a 693d
00000310: a5db 1939 7051 02bc 3d74 0d3d f636 3f3c
00000320: c144 123c aba3 cdbc 49c9 863b 9f9e 913c
00000330: 0dbc f53c 2431 f33c 5d4e 20bd ed04 fd3c
00000340: c090 62bc 0c82 9c3d 046d e73c 21ef d1bc
00000350: 1e7b c53c b20b 4fbd 0c73 123d 2410 bd3c
00000360: 5cc2 06be 267d 203d 336e a0bc e6fb f0bc
00000370: 3995 d93b 1414 b33d 1b83 e8bc b0ca b23c
00000380: 943f 1a3d 9bd1 3d3c 9fdd 26bd fff2 1b3d
00000390: b33b 9a3c 45b5 8bbc a8d3 923d 5ed3 a2bb
000003a0: c484 9ebc 222a 073d 973b c0bc b737 1a3d
000003b0: 3993 583d 596a 223d 3218 f03c f62c 033d
000003c0: f5ca 41bc 788e 2b3d b751 ca3c 8bae 573d
000003d0: cbb1 843d 3ac8 9fbc 9289 8d3d e155 f2bc
000003e0: ea04 1d3d b7c4 2d3d 40c1 b0bb 54c2 91bc
000003f0: 0182 b63b 64dc 0abd 0f76 c3bc 7bad 473d
0.0065947575 0.06839494 -0.063777536 0.041161157 0.0031401033 0.0078603905 0.025290411 0.051567823
0.05472655 0.024956377 0.012274687 0.040390376 -0.017711222 -0.040120535 0.083826266 0.060100604
0.009093206 -0.027255042 0.03308779 0.0066381693 -0.030748017 0.073119335 0.0064282706 -0.048880734
0.06386052 0.02655821 0.04547536 0.07799059 -0.047296345 0.019022759 0.04489412 0.022398613
0.009608727 0.03303219 -0.036266867 0.070885904 -0.04285303 -0.028859103 0.038979582 -0.0051087863
0.014900061 -0.032316227 0.027381536 0.046801273 -0.021749595 -0.031923916 0.03202929 0.068394564
-0.024961391 -0.02623643 0.07687417 0.029778078 -0.0359943 0.0072595333 0.0534806 -0.011817958
0.04366244 0.010143135 0.051234253 -0.009108726 0.048203193 0.06848481 0.07975566 0.031630985
-0.004297294 0.011174792 0.025928373 -0.038848873 -0.020496974 -0.014717806 -0.14192513 -0.0025453412
0.040171567 -0.022854736 0.014076174 0.07604738 0.022078216 -0.023329362 -0.011209481 0.052701224
0.05226669 -0.03018545 0.05682127 0.055082694 -0.0028235915 0.05146469 0.045341726 0.005101737
0.024976596 0.054345876 -0.029439654 -0.033435844 0.035050377 0.04610298 0.032954168 0.07682114
-0.00051044155 0.050647758 0.050787453 0.08429537 -0.03654249 0.013741888 0.0008965611 -0.012812976
0.072527796 0.005619996 0.009428585 -0.03488892 0.042969596 0.030413754 -0.06495948 -0.04577552
0.011221177 -0.021574225 -0.09382707 0.0107129235 0.048760276 0.01863685 0.043426327 0.018908348
-0.031881962 0.06417142 0.026041785 0.033008102 0.058160108 -0.0075178877 0.026948925 0.058902614
0.018412514 0.057953965 -0.03742445 0.16681719 -0.014322285 -0.008005012 -0.027930375 0.06158396
0.059741486 -0.029198736 -0.050769247 0.0046524545 0.085422434 0.037998937 -0.019304726 0.039683335
0.03785486 -0.0301135 0.030533893 -0.027325183 0.019642385 -0.031795427 0.041759405 -0.03511106
0.038046155 -0.011101939 -0.02885884 -0.03099166 -0.035932243 0.01326537 0.04861846 0.06267051
-0.024039134 0.0071254205 -0.07066366 0.00802057 0.04254324 0.009171414 -0.0138190035 0.016231393
-0.009261362 0.06693578 -0.040661443 0.11609451 0.082549065 0.083726056 0.010466702 0.06773586
-0.028802214 -0.021346556 -0.007316234 0.024651846 0.051776063 0.04980941 0.06433384 0.028148232
0.04270389 0.014058932 -0.020193784 0.0020815297 -0.038854036 0.030348862 -0.036257457 -0.001018577
-0.051615234 -0.043206736 -0.008101488 0.057001673 0.00014673041 -0.0079539865 0.03453468 0.011670819
0.008927525 -0.025102457 0.0041133505 0.017775832 0.029996896 0.029686518 -0.039137233 0.030886138
-0.013828456 0.07641992 0.028250225 -0.02562672 0.024106558 -0.050548263 0.03575425 0.023078986
-0.1316008 0.03918185 -0.019583797 -0.02941699 0.006640103 0.08744064 -0.028382828 0.021825165
0.03765829 0.011585618 -0.040738698 0.038073536 0.018827295 -0.01705421 0.071692765 -0.0049690446
-0.019350417 0.032999165 -0.023465915 0.03765079 0.052874777 0.039652202 0.029308412 0.0320253
-0.011828174 0.041883916 0.024697168 0.05265669 0.06479224 -0.019504655 0.06911005 -0.029581966
0.038334765 0.04242393 -0.005394131 -0.017792858 0.005569697 -0.033901587 -0.023860006 0.04874943

t_conv1.bias f4 [128]
00000000: 7075 c5bc 922c eabb 5fac 663d c099 e5bc
00000010: dd39 543d 4143 8a3c 987f 02bc 2665 873b
00000020: 7caf 9d3d 9ecb 7cbc d600 57bc 2995 87bb
00000030: e356 38bc 47e3 54bc 265b d0bc f339 bdbc
00000040: 8c53 0b3c 3c10 00bc b1cf 87bc 8914 e6bc
00000050: a67c 9cbb a661 c2bc fb0e c1bc 8e64 313d
00000060: f43f 55bd 1b2e 0d3d 8189 34bc 718e f8bc
00000070: 3b76 edbb fecd 643b eafa 15bd 8e0f 11bd
00000080: 81af b4bc c012 b7bc fb86 16bc c33f d3bc
00000090: 8e46 30bd 3f1a d2bb 4050 25bc deca 87bc
000000a0: 2ade 45bc 90eb 05bc 917e 5cbd 1a1a c9bc
000000b0: 74b5 33bd 116d 50bb c8e6 c6bc c441 503d
000000c0: e389 49bb 502f cabc 8d44 61bd a4f8 10bc
000000d0: d792 61bc ba65 33bd a31c 05bd 780a 3cbd
000000e0: 7bbc 6abd 4a1f 45bd 9671 f8bc b0c3 1bbc
000000f0: 1510 b4bc fcd8 82bc 8c06 b1bc 1226 3bbd
00000100: 5842 7ebc e056 26bd cf56 19bd 2b3f 02bd
00000110: 7b81 1abd 3566 8abc 2353 fc3d 45d4 7cbc
00000120: 0462 fc3c 6832 81bb 4c2b 1bbd 3d47 3bbc
00000130: ab66 773e 4b17 a83d cd78 fdb9 e493 a4bc
00000140: e9ad 813e a70b 1abb 4755 38bc f643 36bd
00000150: 5a21 36bd e827 11bd c60c 26bc 5030 9bbc
00000160: fe41 41bc 7ae7 aabb 58a8 cfbc e979 12bd
00000170: 6a2a 07bd cfee 88bc 539c d9bc a8c7 37bd
00000180: 44fd 0dbc 1f8a 21bc d3d5 6cbc d276 f7bc
00000190: 0a3c a6bc deb6 fa3c 26e2 9ebc f24b 51bc
000001a0: e213 a1bc 60f3 42bc 40e7 20bd d488 903e
000001b0: 16d9 aebc 6cc5 e3bc 326c 8c3c d117 febc
000001c0: e812 fd3c e04a 51bd 616d efbc 184e fabb
000001d0: 70e5 f0bc 33bc e4bc 29c7 fdbc a372 22bc
000001e0: a3a5 02bd 5fe3 e8bc ed86 343d eceb 8ebc
000001f0: b3aa e33b 77dc aabc 78c0 96bc c229 9fbb
-0.02410385 -0.0071464265 0.05631673 -0.028027415 0.051812995 0.016877772 -0.007964991 0.004131931
0.076994866 -0.0154294055 -0.013122758 -0.0041376543 -0.011251184 -0.01299364 -0.025434088 -0.023098921
0.008503806 -0.007816371 -0.016578527 -0.028085964 -0.0047756014 -0.023728203 -0.023566714 0.043308787
-0.052062944 0.034467798 -0.011019112 -0.030341359 -0.00724676 0.003491282 -0.036616243 -0.035415225
-0.022056343 -0.022347808 -0.009187455 -0.02578724 -0.043036036 -0.00641182 -0.010089934 -0.016576227
-0.012076894 -0.008173838 -0.05383164 -0.024548579 -0.04387422 -0.003180329 -0.024279967 0.05084397
-0.0030752353 -0.024680763 -0.054997016 -0.008848343 -0.0137679195 -0.043798186 -0.032498013 -0.04590842
-0.057308655 -0.048125543 -0.0303276 -0.009507105 -0.021980325 -0.015972607 -0.021609567 -0.045690604
-0.015518747 -0.040610194 -0.037436303 -0.031798523 -0.03772114 -0.01689444 0.123205446 -0.015431468
0.030808456 -0.0039427765 -0.037883088 -0.011430559 0.24160258 0.08207568 -0.00048345924 -0.020090051
0.25327995 -0.002350548 -0.0112508 -0.044498406 -0.0444654 -0.03543845 -0.010134881 -0.018943936
-0.011795519 -0.0052155824 -0.025348827 -0.035760794 -0.032999434 -0.016715435 -0.026563799 -0.04486814
-0.00866634 -0.009859591 -0.014455277 -0.030208025 -0.0202923 0.030604776 -0.019394945 -0.012774454
-0.019662801 -0.011898845 -0.039283037 0.28229392 -0.021343749 -0.027804099 0.017141435 -0.031017216
0.030892804 -0.051096797 -0.02922696 -0.007638704 -0.02940628 -0.027921772 -0.030978756 -0.009915027
-0.031896245 -0.028428731 0.044073988 -0.01744648 0.006947839 -0.020857079 -0.018402323 -0.004857273

t_conv2.weight f4 [128, 64, 2]
00000000: e75b 61bd f2e0 35bc 5a48 d7bc fcb1 463c
00000010: 9804 ec3d 127f a63d 0645 30be 8c28 2bbe
00000020: 140b 213d 92d3 a63b a5a6 ca3d a5cb 123d
00000030: 188c 03bd a692 cabc 6b67 843d 9cd0 d93d
00000040: a2d3 16bc 874e 4abd a7df df3d 7206 d83d
00000050: 3089 9cbd 6ae3 7eb9 ecab b9bc b800 c93d
00000060: 6e22 ab3c 8985 61bd d1dd 48bd f160 fabd
00000070: 63de 1fbc 129e ba3d 2f60 b33d 2182 9abc
00000080: 034b dc3b e56f 863d d048 943c de54 813c
00000090: cfdf 16bd 3d0b 393c 1b23 ae3d 8d78 b73d
000000a0: 0494 923d 82b7 6e3d 6e65 4abd ded6 1c3d
000000b0: 27d7 2e3d 7ec4 64bc 46a2 793d 6c47 c23d
000000c0: fd51 5d3c 597b dd3d b433 bebc 3b33 f23d
000000d0: 66c6 8d3d 4e82 24bd 562c 8a3d 3a00 be3d
000000e0: b3f8 913b 8315 4a3c 8247 743d e437 b1bc
000000f0: 6d60 4d3e 961c a1bd 92a5 b63d b608 443d
00000100: 8fbf 423b 8244 7cbd b348 f13d d5c2 c23c
00000110: e27b 0f3d 4fbc e63d 467d f33c 3536 653c
00000120: 9a5c 4a3c 3f39 aabc 9103 14bd 6128 b5bc
00000130: 0be6 79bd 375e 39bd c4d9 c5bc bb53 553d
00000140: 3a10 663d 9f42 e53d 1b4e 783d 0c2f 963d
00000150: df80 a33d 850e 8fbb d897 90bd 4db2 033b
00000160: 3fb4 d5bc 4c06 983d 72ef c8b9 2fdb 593c
00000170: 0f70 0abb e19e 3dbc 3379 21bd ff75 edbd
00000180: 58da a9bd 4139 063d 9d6d 8a3d 3ec7 aa3a
00000190: d67b ab3d 2a2e 003d 5f06 9cbc cc76 e13d
000001a0: b6f8 c93d 095d 8d3d 9615 04bd 0244 af3c
000001b0: 82de 1ebd 59c1 cbbc 16f1 fbba 6dfc 403d
000001c0: fd75 d53d f6f7 a43d bf27 533d 347b 9dbc
000001d0: 663c 25bd cbfa 843d 02ec 9ebb ef28 8a3d
000001e0: e432 4a3d 86c6 1cbc 36bf 303d c003 163d
000001f0: 5ad8 a7bc 543c 6b3c 79fb fd3c 567c 4ebd
00000200: c6b2 c33d 54e2 343d a032 003d 5b1e 9e3c
00000210: e626 8d3d 27c2 5dbc 37d0 9cbd e45d 66bd
00000220: c323 a63c 22ed 5a3d 30d0 d8bc 0b11 893d
00000230: ec01 be3c c876 393c ad2e 9a3d d184 40bd
00000240: 0457 92bd 8a37 483c f5b1 7dbb b2f0 933d
00000250: 1336 5f3c 4d51 eebb 9df1 a9bd 63e7 98bd
00000260: 9276 c83c d656 433d fcc9 3b3d b623 56bd
00000270: 1c82 75bd 1554 54bd 85db 7abd 534f 2a3d
00000280: e489 6a3c 7ea8 723d 9a37 cc3c dc5d d8bc
00000290: 8633 99bc 7550 1b3c c8f7 4a3d 0911 55bd
000002a0: 007f 663d 034e 9d3c 976e 40bd d634 053d
000002b0: fa2b d93c c6e7 5a3c 2ffc 53bd adfd f6bc
000002c0: fec4 bbbc 1ded b33d 4d47 91bd 9f8b 5f3d
000002d0: 40b5 3cbb 0615 543d 81f9 35bd 0150 32bd
000002e0: c49f cd3c 820c b6bc ee97 6ebc 92f1 0e3c
000002f0: 4bec 5abd fec4 943d c56c 02bd 2c03 893d
00000300: 86ce 993c 7ad8 7fbc 53e9 223d e9d4 033d
00000310: 8725 58bd d0c8 41bd 8e8a 993d dab6 3abd
00000320: c665 15bd 5d57 663c 6dd7 a93c 48d3 d3bc
00000330: 43e0 2dbd becf 6ebb d167 91bd 953c cc3c
00000340: 8538 413d bb69 33bc 55fe 413d a147 a3bd
00000350: d958 57ba 8b54 973d c37d 84bd f4a1 71bc
00000360: 2db8 203d 5a9b 06bd 016f c5bd 5535 50bd
00000370: e735 97bd 8d96 5f3d 1297 67bd 170b b23c
00000380: a4f3 123d 7c4f b5bc c652 833d 957e a13d
00000390: 9080 94bd 313b 79bd 3e8a 213b 0ba6 903d
000003a0: c9c1 993d 2d4e 8fbd 5720 9c3d 6d1b 853d
000003b0: 5890 59bd a8c8 acbc 7d29 653d 6c08 23bc
000003c0: 1855 87bd bc32 05bc fa1b 75bc 800d 803c
000003d0: ccaa f2bc 770e e4bc 512c 8f3d 02ed 883d
000003e0: 4eac 65bd 0893 02bc 20e4 193b 9b2b 85bc
000003f0: 3aff 913d 842e 7d3d 2db7 86bd e6cd c9bb
-0.055019286 -0.011100994 -0.026279617 0.012127396 0.11524314 0.081297055 -0.1721383 -0.16714686
0.039317206 0.005091139 0.09895066 0.03583874 -0.032116026 -0.02472813 0.06465038 0.10635492
-0.009205731 -0.049391296 0.1093133 0.10548104 -0.07643354 -0.00024308046 -0.022664987 0.0981459
0.02089044 -0.05505899 -0.049039666 -0.12225521 -0.009757611 0.09112181 0.0875858 -0.018860878
0.0067228093 0.06564311 0.018101126 0.015787538 -0.036834534 0.011294183 0.085027896 0.0895854
0.07157138 0.058280475 -0.049413137 0.03829085 0.042685654 -0.013962863 0.06094577 0.09486279
0.013508317 0.10814542 -0.023218013 0.11826178 0.06922607 -0.04016333 0.06746738 0.09277387
0.004454696 0.01233423 0.059638508 -0.021633096 0.20056315 -0.078667805 0.08918299 0.04785987
0.0029716229 -0.06158877 0.117814444 0.023774544 0.035030253 0.11266386 0.029722821 0.013989975
0.0123511795 -0.02077925 -0.036136214 -0.02211398 -0.0610104 -0.045255866 -0.02415169 0.052081805
0.05616782 0.111943476 0.060621362 0.07333192 0.079835646 -0.0043657445 -0.07060212 0.002009529
-0.026086925 0.07423076 -0.00038325373 0.013296886 -0.002112392 -0.011573524 -0.039422225 -0.115947716
-0.08293599 0.032769445 0.06759188 0.001302935 0.08373229 0.031294025 -0.019046007 0.11008987
0.09861891 0.06902511 -0.03224715 0.021394733 -0.03878642 -0.024872469 -0.001922163 0.047115732
0.10422895 0.08055107 0.051551577 -0.019223787 -0.040340804 0.064931475 -0.0048499117 0.06746089
0.04936494 -0.009568816 0.043151103 0.03662467 -0.020488907 0.014357645 0.0310037 -0.050411545
0.09555583 0.044161156 0.03129828 0.019301584 0.06892185 -0.013535059 -0.07656901 -0.056241885
0.020280724 0.053448804 -0.026466459 0.06692704 0.023194276 0.011319824 0.07528434 -0.047001664
-0.07145503 0.012220273 -0.0038710807 0.07223643 0.013623732 -0.0072728754 -0.08298037 -0.074660085
0.024470601 0.047690235 0.045846924 -0.05228015 -0.059938535 -0.051838 -0.061244506 0.041579556
0.014315102 0.059242718 0.024928857 -0.026411943 -0.018701326 0.009479632 0.04955271 -0.0520182
0.05627346 0.019202238 -0.046980467 0.03252109 0.026510227 0.013360923 -0.051754173 -0.030150259
-0.022921082 0.0878546 -0.07093678 0.054576512 -0.0028794557 0.051777862 -0.0444274 -0.04353333
0.025100596 -0.022222761 -0.01456259 0.008724587 -0.053448003 0.07264136 -0.031842012 0.06690058
0.018775236 -0.015615577 0.039773297 0.03218547 -0.052770164 -0.04731065 0.0749713 -0.045584537
-0.03647401 0.014058915 0.020732606 -0.025857583 -0.0424502 -0.0036439742 -0.070998795 0.024931232
0.04717304 -0.010950501 0.04736169 -0.079726465 -0.00082148385 0.07389172 -0.064693 -0.014748085
0.039238144 -0.032863 -0.09640313 -0.05083211 -0.07383328 0.054586936 -0.056540556 0.021733804
0.035876885 -0.022132628 0.06412272 0.07885472 -0.07251084 -0.060847465 0.002464905 0.0706292
0.07507665 -0.06997333 0.07623356 0.06499372 -0.053116173 -0.021091774 0.05594777 -0.009950738
-0.06608027 -0.008129772 -0.014960283 0.015631437 -0.029622458 -0.027838929 0.069908746 0.06685831
-0.056072526 -0.007969625 0.002348192 -0.016256144 0.07128759 0.06181194 -0.06577907 -0.006158578

t_conv2.bias f4 [64]
00000000: 4051 133d ff1b b03c af76 c73c ceaa 8a3e
00000010: 5cb5 a73b 5b86 2bbd c13f 93bd bcf6 6bbd
00000020: af7b 8b3c 3ac2 7aba 5624 02bd 1c63 023c
00000030: a90e 02bd 0a67 fa3d 589a 043a 8a11 3f3d
00000040: 1deb db3d 6ea6 aebd c66c 97bc 2f59 753d
00000050: a54f 36bd b0a7 9d3d 62d7 59bc 9061 bdba
00000060: eeae a5bc 1e51 5bbd 9243 b8bc bbb9 90bd
00000070: 305c 94bd 5eed 473d cbfc d1bd c326 6c3d
00000080: 9f80 a8bc 5ef0 2cbb 3883 243d 1691 b1bc
00000090: c394 81bd cd98 993d 5de1 02bc b79d b1ba
000000a0: c375 5dbd 7c3a c73d 19cd ffbb be2e 30bd
000000b0: f605 793d 1d1f 83bd 150a 9fbd 8136 553d
000000c0: c1ee 343e 6524 3cbd 5741 66bd 0fbd 1f3d
000000d0: 025d 96bd e234 4e3d d9a2 c63c d7cf 1f3d
000000e0: e3ce 99bc 1b3c 22bd cdb6 2bbd 8ea1 31bd
000000f0: f2b0 cd3d 2b8b 7bbd 7500 49bd 0488 613c
0.035966158 0.021497725 0.024348585 0.2708344 0.0051180553 -0.04187618 -0.071898945 -0.05760835
0.01702675 -0.0009565685 -0.031772934 0.0079582 -0.031752262 0.122266844 0.00050583994 0.046647586
0.10738204 -0.08527838 -0.018484484 0.059899505 -0.04450955 0.076979995 -0.01329598 -0.0014448632
-0.020225015 -0.053544156 -0.022493158 -0.07066675 -0.07244146 0.048810355 -0.102532946 0.057654154
-0.020569144 -0.0026388387 0.040164202 -0.021675628 -0.06327202 0.074998476 -0.007988301 -0.0013551031
-0.054067384 0.09727952 -0.007806432 -0.043013327 0.0607967 -0.06402419 -0.07765595 0.052053932
0.17669202 -0.045933146 -0.056214657 0.03899866 -0.073419586 0.0503434 0.024247574 0.03901657
-0.01877541 -0.039608102 -0.04192238 -0.04336696 0.10043515 -0.061412018 -0.0490727 0.013765339

conv_out.weight f4 [1, 64, 3]
00000000: 621e 8ebd 13e1 92bd 4996 323d eea2 d6bb
00000010: 90ca 7f3a bce0 563a 7d7d b8bb 7801 a1bd
00000020: e653 4abc cc6f 953e ed17 b93e 9822 c33e
00000030: 7ae9 0ebb f0a9 3dbd 5564 4dbd a86f 3e3b
00000040: 1c9b a0bd fc12 8cbd e6b5 3bbd 715f 97bc
00000050: 89a4 bebd 2048 8fbd 83d4 55bd 12d1 99bd
00000060: 1a1f a1bc 39b0 0a3b 0d83 283c 06ab bfbd
00000070: ac79 a6bd 9770 c2bd 1fc0 60bd 523e aabd
00000080: 0982 bf3c ef02 803c 548f 1dbd 46c6 b4bc
00000090: c44c 18bd 851e a4bd 862c 523d c8f4 2f3d
000000a0: 09e1 c43c fab7 e53d 2248 9cbd 12f9 d9ba
000000b0: f6f6 10bc 80fe 97bd 2e93 ddbc be44 aa3c
000000c0: acd2 d83d 3cb6 543d e717 b93d 9300 5a3d
000000d0: 3a7a 9dbc b43c 06bc f024 bbbd b7bc b2bd
000000e0: 9f56 20bc 224d fa3c b337 59bd bed7 b5bd
000000f0: 00a3 303c f632 9ebc 11ac d93c ab41 b83d
00000100: 5a8b 1c3c f94f ab3d 5e57 7ebd 0df3 523c
00000110: 696b 64bd cafb a7bd 1748 84bd d896 83bc
00000120: 4820 76bd 969f 87bd 47a8 aabd 1160 1fbc
00000130: 05ca 84bd 2bbe 2fbd cf9f 80bd 2c37 c0bd
00000140: a391 cebb 1c73 28bd 0c81 a0bc 189a 29bd
00000150: 9ebc 3c3d 0bdd eb3c 62f3 443d 460f 9dbd
00000160: 2a5f afbd eec9 4b3d ebcf 31be 0262 9f3d
00000170: de76 3dbe 8c78 05bd 8428 babd 81c2 09bd
00000180: c83c 08bd 9a19 203d d4f8 ff3b 4652 b1bd
00000190: 169f 3e3d bb04 9ebd 1571 afbd dec3 8abd
000001a0: 037b d63c 0301 dd3a 74f5 263d ece5 d4b8
000001b0: 4305 2a3d 9135 b9bd 4482 4b3c 2a57 96bd
000001c0: 0595 4fbd 5915 a6bd 525a bfbd f150 4e3c
000001d0: 9088 e23b cbd2 60bd 5397 22bb 6c68 6d3d
000001e0: a08b c9ba 1116 24bd ac48 b9bd f116 27bb
000001f0: b88e 5f3d 3622 b03c e74a 6ebd fb51 aabd
00000200: 22cf c83c ec7a 4f3d f89e e0bc 22ee 8a3c
00000210: 068f 30bd 89a5 56bd 3412 333c 2500 21bd
00000220: 54a8 2b3d 3ae4 b23c 4f15 bebc 8fb1 783c
00000230: 7aa6 8fba 267e b63d 7bed 42bd 571c ad3d
00000240: bae5 763d 4a82 2a3e 1b0a 203e 8257 71bd
00000250: f53e 473d 5bb2 b63c 6ab7 6abc 2730 8cbd
00000260: e16d 9bbd 00ca eebc cd2b 983c 8e3f 83bd
00000270: 1ffc 99bd 0afb ffbc 3fae 1eb9 ae2f 0ebd
00000280: e02a 5f3c 7e3a b03c 26d9 a7bd e1c8 3f3d
00000290: 5452 08bd ace9 7fbd b166 93bd 74ff 873a
000002a0: 78e4 08be f7b4 343d c7a0 bdbd f469 6bbd
000002b0: dc7c 71bd d59f 65bd 3989 403c cd8d 0ebd
000002c0: 8405 633d 0abd c0bc 97b4 50bd e066 503d
000002d0: 5afd c63d ed9a 293d b662 093d edb6 d7bd
000002e0: 939d 4c3b 1179 1fbc a976 ccbd b2f4 6dbc
000002f0: eeca 40bd 61ba 9abd c08d 9abd 71d5 e8bc
-0.06939389 -0.07171836 0.043600354 -0.0065501845 0.0009757662 0.000819694 -0.0056301937 -0.07861608
-0.0123491045 0.29186857 0.36151066 0.3811233 -0.0021806643 -0.046304643 -0.050144512 0.0029058252
-0.07842085 -0.068395585 -0.04582777 -0.018478127 -0.09308726 -0.069961786 -0.05220462 -0.0751058
-0.01966815 0.0021162166 0.010285151 -0.09358792 -0.08128676 -0.09494131 -0.05487072 -0.08312668
0.023377435 0.015626399 -0.038466766 -0.0220672 -0.037182584 -0.08013634 0.051311992 0.04295805
0.024033086 0.11216731 -0.07630946 -0.0016630015 -0.008847943 -0.07421589 -0.02704772 0.020784732
0.105870575 0.051931605 0.09037762 0.053223204 -0.019223321 -0.008193184 -0.09137905 -0.08727401
-0.009786277 0.030554358 -0.053031635 -0.0887904 0.01078105 -0.01931141 0.026571305 0.089969
0.009554708 0.08364863 -0.06209504 0.012875331 -0.055766497 -0.08202322 -0.064590625 -0.016063139
-0.06008938 -0.066222355 -0.083328776 -0.009727494 -0.06483845 -0.042905968 -0.06280481 -0.09385523
-0.0063039823 -0.0411254 -0.019592784 -0.04140672 0.046078317 0.028791925 0.04808367 -0.07668929
-0.08563073 0.049753122 -0.1736447 0.077823654 -0.18502375 -0.032585666 -0.09089759 -0.03363276
-0.03326109 0.039086916 0.007811645 -0.086582705 0.046538435 -0.07715746 -0.085664906 -0.0677564
0.026181703 0.0016861263 0.040761426 -0.00010151774 0.041508924 -0.0904342 0.012421194 -0.07340844
-0.050679225 -0.081095405 -0.09343399 0.01259254 0.006913252 -0.054888528 -0.0024809435 0.057960913
-0.0015376695 -0.040060107 -0.09047064 -0.0025495852 0.054579467 0.021500688 -0.0581769 -0.08316418
0.024512831 0.050654337 -0.027419552 0.016959254 -0.043105148 -0.05240396 0.010929633 -0.03930678
0.041908577 0.021837343 -0.02320352 0.015179052 -0.0010959648 0.0891078 -0.04758976 0.08452671
0.060277678 0.16651264 0.15628855 -0.058921345 0.048644025 0.022301843 -0.014325956 -0.06845122
-0.07589317 -0.029149055 0.018575573 -0.064086065 -0.075187914 -0.031247634 -0.00015132966 -0.03471344
0.013621062 0.021512266 -0.08195715 0.046822432 -0.03328164 -0.062478706 -0.07197321 0.0010375814
-0.13368404 0.044117894 -0.092591815 -0.05747409 -0.058956966 -0.05606063 0.011751466 -0.0348032
0.055425182 -0.02352764 -0.050953474 0.05087936 0.09716292 0.041407514 0.033541404 -0.10532937
0.0031221851 -0.009733454 -0.0998357 -0.014523672 -0.04706853 -0.0755508 -0.07546568 -0.02842209
