pths/denoiser_model_2.pth (torch, 166322 bytes, 17 tensors)

conv1.weight f4 [32, 1, 3]
-0.32933453 -0.42166457 -0.52048874 -0.27659413 0.4224525 -0.26075763 -0.08173585 0.2779416
-0.13174929 -0.22067216 -0.44075042 0.14225604 0.30330142 0.18280539 0.01945424 0.05564711
-0.4062249 -0.5663202 -0.577431 -0.04033043 -0.49692369 0.56843376 -0.12978671 0.3928332
-0.5402515 -0.29419738 0.41442478 -0.32040173 -0.022855893 0.13087422 -0.4906013 -0.13118841
0.42412397 0.35066858 0.19270144 0.024478901 0.1375715 0.24717642 -0.2452575 0.1372489
0.46944112 0.18549706 -0.40181515 0.16628513 -0.07721207 -0.4627405 -0.16550963 0.05006938
-0.5579473 0.01492229 0.40959242 -0.3406917 0.28288987 -0.11914614 0.4271837 -0.3121647
-0.14625783 -0.3845361 -0.11186423 0.055423763 0.33272856 -0.4911272 -0.013999757 0.44700676
0.28401563 -0.31514645 -0.022638483 0.18545736 -0.1555504 0.4428973 -0.13118668 -0.42364734
-0.31234315 -0.074816816 0.107096 0.1762442 0.18986803 -0.07302015 -0.09969473 0.4478571
0.1861791 0.13674447 0.23832417 0.20075685 0.43112192 -0.16991533 0.055759743 0.13551435
-0.21244761 0.2514291 0.09319045 -0.15819599 -0.49311438 -0.07699931 -0.080478586 0.22589093
00000000: 899e a8be 6be4 d7be c03e 05bf bf9d 8dbe
00000010: b24b d83e 0682 85be 2065 a7bd 5d4e 8e3e
00000020: 49e9 06be e2f7 61be 0aaa e1be 91ab 113e
00000030: 534a 9b3e 5631 3b3e 805e 9f3c 39ee 633d
00000040: b6fc cfbe 5cfa 10bf 85d2 13bf 8531 25bd
00000050: c86c febe e084 113f cfe6 04be 6f21 c93e
00000060: ec4d 0abf 0aa1 96be 7c2f d43e b20b a4be
00000070: 483c bbbc e403 063e 1830 fbbe 4156 06be
00000080: c726 d93e d58a b33e 8753 453e fa87 c83c
00000090: 8bdf 0c3e d11b 7d3e c824 7bbe fa8a 0c3e
000000a0: 965a f03e f1f2 3d3e b7ba cdbe a646 2a3e
000000b0: 5d21 9ebd 53ec ecbe 5b7b 29be 8d15 4d3d
000000c0: a2d5 0ebf 9f7c 743c 19b6 d13e 246f aebe
000000d0: f1d6 903e e402 f4bd d2b7 da3e 0dd4 9fbe
000000e0: 9dc4 15be eae1 c4be 1319 e5bd 0704 633d
000000f0: 665b aa3e 0675 fbbe 3d5f 65bc 12de e43e
00000100: 7f6a 913e e05a a1be 5774 b9bc 89e8 3d3e
00000110: 9b48 1fbe 6fc3 e23e cd55 06be 4ee8 d8be
00000120: 71eb 9fbe 8f39 99bd 2655 db3d 5c79 343e
00000130: c46c 423e 978b 95bd c02c ccbd 874d e53e
00000140: bca5 3e3e be06 0c3e 400b 743e 3493 4d3e
00000150: 03bc dc3e 49fe 2dbe 5464 643d 46c4 0a3e
00000160: de8b 59be 51bb 803e a2da be3d 21fe 21be
00000170: 7d79 fcbe d0b1 9dbd f5d1 a4bd f44f 673e

conv1.bias f4 [32]
0.13193697 -0.004910648 0.26266506 0.0010162712 -0.33081925 -0.2067535 0.14254266 -0.2864609
0.054119088 0.32113093 0.07123826 0.3277642 -0.44792348 -0.08948662 -0.04893727 0.11963961
-0.15884994 -0.08734265 -0.45964304 0.16928048 -0.048481807 0.31154305 -0.3853203 0.20451133
0.3854321 0.25822273 -0.01059823 0.48639786 0.09012382 -0.5347643 -0.5673803 0.26002342
00000000: 7c1a 073e 80e9 a0bb 097c 863e 6734 853a
00000010: 2461 a9be 31b7 53be b4f6 113e 01ab 92be
00000020: faab 5d3d 466b a43e 5de5 913d b6d0 a73e
00000030: 3a56 e5be c344 b7bd 7272 48bd 9d05 f53d
00000040: 8fa9 22be b4e0 b2bd 5556 ebbe dd57 2d3e
00000050: dc94 46bd 9282 9f3e b448 c5be 6b6b 513e
00000060: 5b57 c53e c535 843e 33a4 2dbc 2409 f93e
00000070: d692 b83d 50e6 08bf d63f 11bf ca21 853e

bn1.weight f4 [32]
0.97498286 0.975716 0.97995335 0.9979747 1.0440748 0.9797994 0.9857556 0.9981899
0.9849047 0.98747194 0.99237144 1.0456741 1.0221894 1.0330553 0.9931031 0.9824797
0.9978707 1.0020367 1.0234028 0.97304875 0.982797 1.0145237 0.99377424 0.9897644
1.000783 1.0316658 1.0364878 1.0038311 1.0106027 0.9965133 0.990803 1.0235059
00000000: 7a98 793f 86c8 793f 39de 7a3f 457b 7f3f
00000010: 3ea4 853f 22d4 7a3f 7b5a 7c3f 6089 7f3f
00000020: b722 7c3f f6ca 7c3f 0e0c 7e3f a6d8 853f
00000030: 1ad7 823f 283b 843f 013c 7e3f ca83 7b3f
00000040: 7474 7f3f bd42 803f ddfe 823f b919 793f
00000050: 9698 7b3f eadb 813f fd67 7e3f 3361 7d3f
00000060: a819 803f a00d 843f a2ab 843f 8a7d 803f
00000070: 6e5b 813f 7f1b 7f3f 44a5 7d3f 3e02 833f

bn1.bias f4 [32]
-0.019392388 -0.01044861 0.049956653 0.036546923 0.005767024 -0.016413627 0.003960415 0.0049322527
0.020313535 -0.012021134 0.021403346 -0.001726768 0.03527501 -0.012919847 -0.009117765 0.013449675
0.033143323 0.0360359 0.043652583 -0.035537567 0.023769619 0.027103307 0.03402626 0.012788011
0.024339395 0.027391268 0.012758228 0.00524304 0.02959544 0.015625853 -0.01064695 0.031406503
00000000: c9dc 9ebc a630 2bbc 599f 4c3d 3ab2 153d
00000010: 4ef9 bc3b df75 86bc 5ec6 813b bc9e a13b
00000020: 9268 a63c 4af4 44bc 1256 af3c b854 e2ba
00000030: 877c 103d c4ad 53bc ae62 15bc 075c 5c3c
00000040: 4bc1 073d 619a 133d 0dcd 323d d78f 11bd
00000050: 81b8 c23c c107 de3c 1f5f 0b3d ce84 513c
00000060: 6963 c73c a763 e03c e307 513c cfcd ab3b
00000070: 2372 f23c ca01 803c 8c70 2ebc 1ba4 003d

bn1.running_mean f4 [32]
0.0011625981 -0.014787971 0.27050263 -0.05431617 -0.27811915 -0.30064484 0.028876942 -0.20215634
0.008449739 0.29866132 0.048941374 0.38692507 -0.4320105 -0.0069881734 -0.08058689 0.05922534
-0.17411293 -0.10451151 -0.46314946 0.123169154 -0.06751104 0.35640955 -0.38354233 0.19409248
0.35586494 0.28928784 0.045164343 0.54586977 0.12228856 -0.5181473 -0.62377596 0.2661091
00000000: 5262 983a 3f49 72bc 527f 8a3e a27a 5ebd
00000010: a265 8ebe 1fee 99be 568f ec3c 1202 4fbe
00000020: c670 0a3c 23ea 983e c076 483d 0b1b c63e
00000030: 7b30 ddbe 0cfd e4bb bd0a a5bd 4596 723d
00000040: a94a 32be 210a d6bd ed21 edbe 1c40 fc3d
00000050: 3a43 8abd 507b b63e a95f c4be 2ec0 463e
00000060: ee33 b63e 891d 943e 3ffe 383d 1fbe 0b3f
00000070: 6d72 fa3d 4da5 04bf c8af 1fbf 743f 883e

bn1.running_var f4 [32]
0.7669421 0.3379638 0.10736962 0.31341448 0.1618605 0.61674017 0.7352429 0.58269954
0.6110411 0.1333062 0.4748739 0.20601524 0.15225378 0.36409792 0.21325535 0.2959145
0.51641387 0.22204733 0.32048962 0.19489105 0.3768851 0.42752874 0.06230155 0.42369628
0.13095264 0.087461926 0.29613212 0.15990986 0.23773547 0.1346562 0.32982424 0.0680625
00000000: 5156 443f 9709 ad3e 9ae4 db3d dd77 a03e
00000010: c2be 253e afe2 1d3f e138 3c3f cc2b 153f
00000020: 316d 1c3f 6c81 083e ac22 f33e a9f5 523e
00000030: 6ae8 1b3e 0b6b ba3e 9c5f 5a3e 1b82 973e
00000040: b333 043f 6060 633e 3717 a43e 8591 473e
00000050: 15f7 c03e 0ce5 da3e e92f 7f3d b8ee d83e
00000060: 7318 063e 3d1f b33d a19e 973e 69bf 233e
00000070: ed70 733e 51e3 093e b9de a83e 5a64 8b3d

conv2.weight f4 [64, 32, 3]
0.035504013 -0.046121325 -0.017185451 -0.012757668 0.0815495 -0.059881534 -0.006607994 0.10037732
-0.029141515 -0.05575917 0.043803874 -0.011708272 -0.08899527 0.013872268 -0.068195194 0.07855627
0.058355164 -0.050629295 0.030684728 -0.007767254 -0.06952647 0.0048683854 -0.0783674 -0.0862
-0.024958251 -0.016897984 0.011467195 -0.059506483 0.056196168 0.070477545 0.11021729 0.07570384
0.043057323 -0.094463825 -0.06302432 0.07918996 0.05394439 -0.030140221 -0.049226884 0.04727131
0.01957303 -0.094252124 -0.014761421 0.0028194971 -0.054285694 -0.07981723 -0.00096881425 0.041606873
0.014759552 -0.022032015 -0.037620004 -0.08136673 -0.042192798 -0.060579572 0.10528928 -0.055207055
-0.09331327 0.082838915 0.03946484 0.07140414 0.10817765 0.09014366 0.069533855 -0.04811226
0.01713717 -0.024972437 -0.019028611 0.055010457 0.041225236 0.09510722 -0.02541455 0.0039551635
-0.06419728 0.027015297 0.078880034 0.017457927 0.008028038 -0.09849537 -0.096914664 0.049822513
-0.0050644483 -0.013271583 -0.03466351 -0.06039722 -0.011392587 -0.04717536 0.111862235 -0.068364166
0.056595646 0.027429651 0.07123698 0.03525596 -0.11114054 -0.044484172 -0.07443472 -0.067451045
0.08996185 0.052013747 -0.063986905 -0.0025056584 0.0021489558 -0.015694581 0.075937524 -0.017151624
-0.0419675 -0.023313206 0.02544767 0.087215 -0.01084687 0.049664617 -0.095064975 -0.019714031
0.06618052 0.033568602 -0.07678174 0.07964486 -0.07025227 -0.092521906 -0.028072178 -0.0032446021
-0.07407334 0.08518875 0.08361023 0.04351786 -0.05881435 0.069046035 -0.047728136 -0.051072806
0.08993208 0.097436026 0.08537498 0.082198165 0.09927802 -0.061355915 0.07613739 0.0800966
0.03418633 0.044762634 0.09031453 0.03271292 -0.0877178 0.09814047 -0.08538814 -0.004169652
0.06381476 -0.1013094 0.056219984 -0.099515185 -0.054486696 0.023349172 0.03507084 -0.071935214
0.11566036 0.09709585 0.033564575 -0.05570857 0.03543454 -0.08367687 0.08145653 0.05637244
-0.07818545 0.10537524 -0.025371764 -0.01460311 0.020250542 0.047037374 0.057614923 -0.046819415
-0.035111733 -0.10787547 -0.057680927 0.086949 0.03372735 0.0064380975 0.08401767 0.06639333
-0.011281833 -0.023407262 -0.06485432 -0.065352894 -0.06020543 0.014513756 -0.073503226 0.03257597
-0.012279746 0.07154797 -0.07307787 -0.093795314 0.014219181 -0.038221188 0.0694892 0.105306
-0.0956918 -0.0060473704 0.0705596 0.062778674 0.09613869 -0.058971483 -0.043541875 -0.04352614
0.020097032 0.069617435 0.013576797 0.06316246 -0.018934207 0.07258001 0.02637056 0.05036852
0.056494396 -0.01790071 0.04889903 0.063772075 0.055876974 -0.07299008 0.09457207 -0.08209076
-0.017814329 0.027356636 -0.06576735 -0.028391024 0.00014837438 -0.027411532 0.04846646 0.015890382
-0.049879115 -0.040090926 -0.0052087246 -0.054591544 0.044857327 0.03661752 0.016972622 0.05809551
0.10622077 -0.020010976 0.016844116 -0.04438569 0.017809046 -0.04238572 0.020089213 -0.08504413
0.09272068 -0.01236437 -0.022286903 0.039349582 0.095620856 0.031891853 0.05179963 0.03454265
-0.052488428 0.1127034 0.058263097 -0.08352321 -0.022896651 0.1209937 -0.09870305 -0.0025570218
00000000: a86c 113d b7e9 3cbd 81c8 8cbc 8a05 51bc
00000010: 6d03 a73d 5746 75bd df87 d8bb a092 cd3d
00000020: 30ba eebc ba63 64bd b16b 333d 0dd4 3fbc
00000030: 2743 b6bd 8248 633c eca9 8bbd 1ce2 a03d
00000040: d305 6f3d aa60 4fbd 8a5e fb3c 7384 febb
00000050: e563 8ebd fa86 9f3b 167f a0bd a089 b0bd
00000060: 3f75 ccbc a46d 8abc e7e0 3b3c 12bd 73bd
00000070: f42d 663d 8856 903d 9ab9 e13d 9d0a 9b3d
00000080: e05c 303d 4076 c1bd e512 81bd 592e a23d
00000090: cbf4 5c3d a0e8 f6bc 21a2 49bd 909f 413d
000000a0: 9e57 a03c 4207 c1bd e3d9 71bc 50c7 383b
000000b0: ad5a 5ebd 3777 a3bd 06f8 7dba f86b 2a3d
000000c0: 0cd2 713c 7c7c b4bc 6f17 1abd 9aa3 a6bd
000000d0: 5bd2 2cbd 4922 78bd e8a1 d73d cb20 62bd
000000e0: 071b bfbd 73a7 a93d e2a5 213d 553c 923d
000000f0: 3e8c dd3d 3d9d b83d c467 8e3d 5c11 45bd
00000100: 4063 8c3c ff92 ccbc e4e1 9bbc a552 613d
00000110: cbdb 283d 93c7 c23d 2d32 d0bc 519a 813b
00000120: dd79 83bd 2f4f dd3c db8b a13d ed03 8f3c
00000130: 0888 033c f1b7 c9bd 327b c6bd b112 4c3d
00000140: acf3 a5bb 0e71 59bc 53fb 0dbd 1363 77bd
00000150: f9a7 3abc f33a 41bd 0718 e53d 8302 8cbd
00000160: d6d0 673d 26b4 e03c b2e4 913d 8e68 103d
00000170: a79d e3bd 0935 36bd 3b71 98bd c623 8abd
00000180: eb3d b83d 5e0c 553d 910b 83bd f935 24bb
00000190: 7fd5 0c3b ec91 80bc 2285 9b3d 9081 8cbc
000001a0: 1de6 2bbd 56fb bebc a277 d03c c79d b23d
000001b0: 12b7 31bc 206d 4b3d 6db1 c2bd 527f a1bc
000001c0: a789 873d 3b7f 093d bf3f 9dbd d81c a33d
000001d0: 6ce0 8fbd 207c bdbd a0f7 e5bc 64a3 54bb
000001e0: c3b3 97bd 7077 ae3d d73b ab3d c93f 323d
000001f0: 51e7 70bd 0268 8d3d 947e 43bd b831 51bd
00000200: 4f2e b83d 8a8c c73d 14d9 ae3d 8357 a83d
00000210: 4652 cb3d 5750 7bbd eced 9b3d b009 a43d
00000220: f706 0c3d 0659 373d d3f6 b83d fcfd 053d
00000230: 64a5 b3bd dffd c83d fadf aebd 93a1 88bb
00000240: 50b1 823d 4d7b cfbd ed46 663d 9ece cbbd
00000250: 712d 5fbd c346 bf3c 71a6 0f3d c552 93bd
00000260: 57df ec3d 30da c63d 027b 093d ab2e 64bd
00000270: cf23 113d c75e abbd aed2 a63d cae6 663d
00000280: b11f a0bd f9ce d73d 72d8 cfbc e241 6fbc
00000290: 77e4 a53c 43aa 403d a0fd 6b3d b7c5 3fbd
000002a0: 52d1 0fbd d0ed dcbd d642 6cbd 5112 b23d
000002b0: b125 0a3d adf6 d23b 7511 ac3d 3af9 873d
000002c0: 70d7 38bc 96c0 bfbc 57d2 84bd bdd7 85bd
000002d0: f899 76bd 1bcb 6d3c dc88 96bd 616e 053d
000002e0: fd30 49bc be87 923d daa9 95bd c217 c0bd
000002f0: 91f7 683c d28d 1cbd 5b50 8e3d acaa d73d
00000300: 10fa c3bd 0529 c6bb 8d81 903d 1b92 803d
00000310: 5de4 c43d 158c 71bd f758 32bd 7748 32bd
00000320: 88a2 a43c 9693 8e3d 3771 5e3c 525b 813d
00000330: e91b 9bbc d4a4 943d 1307 d83c 394f 4e3d
00000340: ab66 673d 83a4 92bc 594a 483d ef9a 823d
00000350: 41df 643d d37b 95bd 00af c13d 331f a8bd
00000360: 5bef 91bc 061b e03c 08b1 86bd 4b94 e8bc
00000370: f294 1b39 268e e0bc c484 463d 8c2c 823c
00000380: 0b4e 4cbd 6236 24bd f3ad aabb 629b 5fbd
00000390: 51bc 373d 41fc 153d 2b0a 8b3c 8ff5 6d3d
000003a0: 468a d93d 0fee a3bc acfc 893c c5cd 35bd
000003b0: 47e4 913c a69c 2dbd 2292 a43c 9e2b aebd
000003c0: 57e4 bd3d ed93 4abc 0693 b6bc 072d 213d
000003d0: ded4 c33d 08a1 023d d92b 543d 987c 0d3d
000003e0: 1bfe 56bd 0ad1 e63d 49a5 6e3d 370e abbd
000003f0: c291 bbbc 8ccb f73d d324 cabd b593 27bb

conv2.bias f4 [64]
0.081611216 -0.012015273 -0.08542182 -0.0707937 0.06256904 -0.017461017 -0.0622324 0.01865183
-0.03623315 0.024002377 0.03202668 -0.05766655 -0.065393195 0.07593656 -0.06528968 -0.011835685
0.05640819 -0.04836146 -0.03732179 0.010182863 0.052265324 0.028087588 0.07795461 0.06964973
-0.02312646 -0.026305169 0.03596154 -0.047661312 0.047475964 0.10164495 0.012482892 0.063745335
-0.09732107 -0.087154105 0.0899358 -0.0062660123 0.016529568 -0.019013204 0.042617004 -0.057861857
-0.05683118 0.047444478 -0.01216606 -0.047912914 0.08691104 0.06548183 0.0262606 -0.0008271813
0.09969809 -0.025750153 0.026881149 0.035677914 0.01570389 0.07015993 0.07782334 -0.043351706
0.046234097 0.056495145 0.09637791 -0.083960086 0.0061181923 -0.03012107 -0.012743611 0.0046380353
00000000: c823 a73d b5db 44bc a3f1 aebd 4afc 90bd
00000010: 3224 803d 680a 8fbc 67e7 7ebd b9cb 983c
00000020: 3669 14bd a2a0 c43c 682e 033d c333 6cbd
00000030: deec 85bd a184 9b3d 99b6 85bd 76ea 41bc
00000040: 460c 673d ab16 46bd bcde 18bd 06d6 263c
00000050: 2a14 563d f117 e63c aba6 9f3d 85a4 8e3d
00000060: b473 bdbc f07d d7bc 684c 133d 8238 43bd
00000070: 2876 423d 3a2b d03d 0b85 4c3c ea8c 823d
00000080: 4550 c7bd da7d b2bd 4330 b83d 1f53 cdbb
00000090: 0469 873c 94c1 9bbc 2b8f 2e3d 8e00 6dbd
000000a0: d0c7 68bd 2455 423d 2754 47bc 5540 44bd
000000b0: 6afe b13d 561b 863d 7820 d73c 33d7 58ba
000000c0: 832e cc3d fcf1 d2bc db35 dc3c 0123 123d
000000d0: 72a5 803c 02b0 8f3d d861 9f3d 8f91 31bd
000000e0: f75f 3d3d 7467 673d c861 c53d 44f3 abbd
000000f0: 1e7b c83b 76c0 f6bc 94ca 50bc a9fa 973b

bn2.weight f4 [64]
1.0278655 1.0210832 1.0296198 1.0270585 1.0283344 1.0276657 1.0238737 1.0308651
1.0234873 1.033879 1.030961 1.0287411 1.033026 1.0298178 1.0315338 1.0311884
1.0283209 1.0291274 1.0308802 1.0251864 1.0287273 1.0305076 1.0205166 1.0308876
1.0279255 1.0295602 1.0264112 1.0280912 1.0298508 1.0226444 1.0277555 1.0245422
1.0261797 1.0255237 1.0326502 1.034118 1.028908 1.0337356 1.023185 0.9857255
1.0288154 1.0298738 1.0286764 1.027468 1.0252198 1.0308712 1.0390248 1.0256723
1.03445 1.0229682 1.0288126 1.0229061 1.0300016 1.0192715 1.0287393 1.0303886
1.0300888 1.0297788 1.0303898 1.0309861 1.0288807 1.029387 1.0271026 1.0238825
00000000: 1991 833f dbb2 823f 95ca 833f a776 833f
00000010: 76a0 833f 8d8a 833f 4b0e 833f 63f3 833f
00000020: a201 833f 2656 843f 88f6 833f caad 833f
00000030: 323a 843f 12d1 833f 4d09 843f fbfd 833f
00000040: 05a0 833f 72ba 833f e2f3 833f 4f39 833f
00000050: 56ad 833f ace7 833f 4aa0 823f 20f4 833f
00000060: 1093 833f a1c8 833f 7161 833f 7e98 833f
00000070: 27d2 833f 03e6 823f 7e8d 833f 3324 833f
00000080: db59 833f 5c44 833f e22d 843f fb5d 843f
00000090: 42b3 833f 7351 843f baf7 823f 8258 7c3f
000000a0: 39b0 833f e8d2 833f abab 833f 1284 833f
000000b0: 673a 833f 96f3 833f c4fe 843f 3b49 833f
000000c0: dc68 843f 9ff0 823f 22b0 833f 96ee 823f
000000d0: 18d7 833f 7d77 823f bbad 833f c6e3 833f
000000e0: f3d9 833f cbcf 833f d0e3 833f 5af7 833f
000000f0: 5db2 833f f4c2 833f 1978 833f 950e 833f

bn2.bias f4 [64]
0.028385524 0.01765063 0.029263165 0.02780297 0.030773785 0.02312479 0.021667337 0.03229249
0.024597729 0.0326796 0.02904733 0.028349258 0.031558942 0.031441353 0.031354524 0.02959646
0.024411054 0.030381488 0.029487832 0.027545752 0.029388448 0.029293315 0.019211024 0.030875584
0.028856521 0.030299136 0.023562277 0.025997138 0.02953645 0.019847127 0.027459584 0.023988897
0.025134092 0.02311273 0.03015404 0.031654567 0.029856035 0.033921618 0.025142353 -0.0039645163
0.028609665 0.030346565 0.028442638 0.027103385 0.024467973 0.033662267 0.027710734 0.026105046
0.035471622 0.022475746 0.03082607 0.02094649 0.029989827 0.017174771 0.029434925 0.031384666
0.031071395 0.030711975 0.030799858 0.029973071 0.030067695 0.030828662 0.025205506 0.023626128
00000000: c288 e83c 0e98 903c 4eb9 ef3c 0ec3 e33c
00000010: 4e19 fc3c 3370 bd3c b37f b13c 2145 043d
00000020: 2d81 c93c 0bdb 053d abf4 ed3c b43c e83c
00000030: f343 013d a6c8 003d 9a6d 003d 4674 f23c
00000040: b1f9 c73c 99e2 f83c 7790 f13c a1a7 e13c
00000050: 0bc0 f03c 89f8 ef3c 7060 9d3c cbee fc3c
00000060: 8364 ec3c e535 f83c ad05 c13c f3f7 d43c
00000070: 6df6 f13c 7196 a23c ecf2 e03c 5d84 c43c
00000080: 03e6 cd3c e856 bd3c 9b05 f73c 38a8 013d
00000090: a594 f43c 65f1 0a3d 56f7 cd3c c6e8 81bb
000000a0: d15e ea3c 5c99 f83c 8900 e93c eb07 de3c
000000b0: 0f71 c83c 72e1 093d 9f01 e33c 40da d53c
000000c0: b14a 113d 0e1f b83c f486 fc3c f997 ab3c
000000d0: 3aad f53c 1bb2 8c3c 8321 f13c 358d 003d
000000e0: 7089 fe3c ae97 fb3c fc4f fc3c 168a f53c
000000f0: 8750 f63c 648c fc3c c77b ce3c 958b c13c

bn2.running_mean f4 [64]
-0.035374314 0.42588577 0.17574736 0.18405421 -0.38729033 0.43864036 0.22094578 0.051678214
-0.59699595 -0.2278382 -0.067649275 -0.12862134 -0.28026247 0.0071216226 -0.14880536 0.6256908
0.5259586 -0.6225948 -0.11881687 0.11431658 -0.040307853 -0.004996795 0.49297196 -0.068204895
-0.571365 0.15616535 0.61230314 0.2604447 0.4262687 -0.30682585 0.5446295 0.026340343
-0.546974 0.3119828 0.39230433 0.45258945 0.1957403 -0.27084866 -0.3271148 0.66817534
0.25659376 0.071861945 0.7834105 0.39881155 0.0655089 0.38997573 0.82678425 -0.2626602
0.5421898 0.09186646 0.34618387 0.25738594 0.23859333 0.13250011 0.28301585 0.04682064
0.47853228 0.12343813 -0.040275384 -0.23784065 0.066851944 -0.052310556 0.41470215 -0.11597681
00000000: a8e4 10bd b30d da3e 1ef7 333e b578 3c3e
00000010: eb4a c6be 7895 e03e 9c3f 623e 89ac 533d
00000020: bad4 18bf 6b4e 69be b48b 8abd 50b5 03be
00000030: 907e 8fbe 805c e93b 6f60 18be 462d 203f
00000040: 39a5 063f 5f62 1fbf 4256 f3bd d01e ea3d
00000050: d919 25bd 28bc a3bb d266 fc3e 02af 8bbd
00000060: fa44 12bf cfe9 1f3e e6bf 1c3f 0259 853e
00000070: e43f da3e 4718 9dbe d76c 0b3f b4c7 d73c
00000080: 7d06 0cbf 36bc 9f3e 1ddc c83e ceb9 e73e
00000090: 2570 483e adac 8abe 977b a7be 8a0d 2b3f
000000a0: 4260 833e 5b2c 933d 978d 483f 0731 cc3e
000000b0: 8829 863d e6aa c73e 22a8 533f 667b 86be
000000c0: f3cc 0a3f 7c24 bc3d 033f b13e 17c8 833e
000000d0: cf51 743e 1cae 073e 74e7 903e 00c7 3f3d
000000e0: 2f02 f53e 21cd fc3d cdf7 24bd 808c 73be
000000f0: ace9 883d 9843 56bd d753 d43e 4085 edbd

bn2.running_var f4 [64]
0.33284196 0.14136246 0.21014075 0.17792808 0.19760819 0.15266883 0.35393828 0.13821875
0.17429562 0.23070613 0.23468651 0.1368464 0.21359628 0.1344652 0.12842186 0.29103512
0.17003751 0.2142793 0.13640401 0.1948477 0.14860101 0.13001351 0.24630846 0.1446936
0.13660583 0.20455976 0.18263957 0.28266734 0.15987808 0.31118736 0.23636788 0.116120204
0.11994482 0.15559973 0.20716543 0.2881149 0.16803153 0.24915333 0.2413369 0.40975705
0.10675087 0.1696356 0.45729217 0.18264875 0.34052664 0.2886364 0.25954044 0.12821102
0.34097716 0.17366989 0.15262419 0.107067466 0.2136639 0.18476866 0.11700477 0.1293504
0.22811255 0.22575007 0.15942731 0.13786736 0.17652585 0.1827942 0.5016691 0.06919442
00000000: 436a aa3e 52c1 103e 232f 573e c732 363e
00000010: cd59 4a3e 3855 1c3e 6637 b53e 3789 0d3e
00000020: 8d7a 323e 3a3e 6c3e a951 703e 7621 0c3e
00000030: fcb8 5a3e 3fb1 093e 0581 033e 8e02 953e
00000040: 501e 2e3e 086c 5b3e 7ead 0b3e 2886 473e
00000050: dd2a 183e 4322 053e 4938 7c3e 8f2a 143e
00000060: 66e2 0b3e 1d78 513e de05 3b3e c6b9 903e
00000070: 14b7 233e f353 9f3e 6c0a 723e 6ed0 ed3d
00000080: a1a5 f53d 8955 1f3e 2d23 543e cc83 933e
00000090: 7510 2c3e 0d22 7f3e 0521 773e adcb d13e
000000a0: 33a0 da3d f4b4 2d3e 3322 ea3e 4608 3b3e
000000b0: 8259 ae3e 26c8 933e 7ce2 843e c049 033e
000000c0: 8f94 ae3e 85d6 313e 8449 1c3e 3046 db3d
000000d0: b6ca 5a3e ff33 3d3e 32a0 ef3d 6e74 043e
000000e0: 5696 693e 072b 673e ea40 233e 1a2d 0d3e
000000f0: 31c3 343e 672e 3b3e 636d 003f ceb5 8d3d

t_conv1.weight f4 [64, 128, 2]
-0.059039373 -0.019537909 0.011563778 0.026859276 0.019103399 -0.011642137 -0.011384091 0.051100474
0.08288064 -0.03834543 0.055895306 0.014064888 0.02234612 -0.00042755003 -0.029181888 -0.023288153
0.03605336 0.02227913 0.07461433 0.01526212 0.06903054 0.00046425106 0.08196156 0.007305362
0.06588268 0.03465331 0.011891529 0.01602856 -0.021551963 0.015299588 0.065246135 0.06650743
-0.011787514 0.049932875 -0.029784137 0.08256017 -0.006213887 0.07513793 0.037363358 0.029412769
0.08453835 0.03125274 -0.03670764 0.03850692 0.028105142 0.049782015 0.042036757 0.013971051
0.058678713 -0.03134874 0.009830662 -0.006859388 -0.003482085 0.01019969 0.011881787 0.068314925
0.085705414 -0.020232588 0.055740044 -0.013465094 0.06451198 0.0009691851 0.060919456 0.0683822
-0.025075704 -0.022059284 0.021170828 -0.04532514 0.08410087 0.06677759 0.044420183 0.06557442
0.03632731 -0.0077103144 0.012801172 0.00029284434 0.036019653 -0.04515671 0.07018305 -0.07306059
-0.06377819 -0.03246408 0.0750415 0.006606297 -0.014384641 -0.045305144 0.067741714 0.07937848
0.011288998 -0.069694206 0.04600798 -0.05361069 0.059766445 0.063138485 0.065604776 0.02172231
0.012251295 -0.04877767 0.017106807 0.013492322 -0.020567792 0.08646659 0.035899617 0.04705836
0.05187724 -0.0038333065 0.031198332 -0.031038344 0.018770738 0.017512504 -0.046477146 -0.018535914
0.035910714 0.072097026 0.032896206 0.073209934 -0.023670176 0.051260464 2.3074515e-05 0.057752404
0.06548483 0.03283397 0.03695372 -0.039303992 0.037043907 -0.035417326 0.032717966 0.02930304
0.07820878 0.06302906 -0.015817437 0.088338204 0.06779767 -0.0269096 0.08416894 0.07545475
-0.0139764035 -0.0039443444 0.058359157 0.017790427 0.056008656 -0.0020063731 0.0030156279 -0.056672957
0.03459375 -0.035756845 0.06413122 0.009963956 0.049792506 0.06879009 0.07469633 0.05025217
0.010247556 0.02882522 -0.05491194 -0.032434568 0.013887621 -0.028974928 0.008774825 0.07996195
0.035359494 0.07088958 -0.024916356 0.009905486 0.05504921 0.009282021 -0.018967077 -0.02849558
-0.009080855 -0.024974363 0.059088387 0.018267538 0.008204569 0.08772938 0.037493188 -0.030781353
-0.0330636 0.030414619 -0.01889507 -0.057720028 0.0062100324 0.062382575 -0.033435225 -0.006744557
0.020368626 0.059023708 0.021195546 -0.028218469 -0.02730422 0.08993461 0.0068435096 -0.024663221
-0.00017170257 0.015552714 0.030157195 -0.008443967 0.022991212 0.0015624275 0.067182936 -0.022388635
0.043323617 0.005574395 0.034832094 0.04708124 0.016328573 0.051474262 0.029993398 0.050620344
-0.05277548 -0.06195682 -1.694551e-05 0.0232283 0.035912044 0.03828222 0.061119437 0.034407444
0.0040718075 0.01581428 -0.07787418 -0.012843481 0.08216502 -0.0038603714 0.007821913 0.05673725
0.06576803 0.07662351 -0.046071183 -0.029244265 -0.0037749566 0.02888362 -0.024572229 -0.009559286
-0.029035322 -0.032239515 0.052140344 0.026985262 -0.019896936 0.042492922 0.07650511 0.019150741
-0.0063537485 0.042050168 0.0048227278 0.037129644 -0.013593838 -0.031441405 -0.040053163 -0.017114533
0.01789474 0.032651845 0.035790913 -0.03301386 -0.014812057 0.020900846 -0.06139725 0.036231946
00000000: 45d3 71bd f70d a0bc 0076 3d3c fc07 dc3c
00000010: bb7e 9c3c a9be 3ebc 5784 3abc bb4e 513d
00000020: 53bd a93d 1910 1dbd 7af2 643d 6a70 663c
00000030: 360f b73c cb28 e0b9 db0e efbc ccc6 bebc
00000040: b0ac 133d b982 b63c 66cf 983d f90d 7a3c
00000050: e25f 8d3d b966 f339 76db a73d d161 ef3b
00000060: 80ed 863d a1f0 0d3d b0d4 423c 544e 833c
00000070: be8d b0bc 20ab 7a3c c49f 853d 0c35 883d
00000080: 6b20 41bc 6a86 4c3d ddfd f3bc 4e15 a93d
00000090: dd9d cbbb eae1 993d 520a 193d 0cf3 f03c
000000a0: 7122 ad3d e002 003d c05a 16bd 6fb9 1d3d
000000b0: c13c e63c 3ae8 4b3d bc2e 2c3d d6e6 643c
000000c0: 1759 703d 8967 00bd c910 213c b8c4 e0bb
000000d0: b133 64bb 9a1c 273c d4ab 423c b2e8 8b3d
000000e0: 5286 af3d d0be a5bc ac4f 643d b39c 5cbc
000000f0: db1e 843d e910 7e3a ae86 793d f80b 8c3d
00000100: 906b cdbc acb5 b4bc 726e ad3c dba6 39bd
00000110: 143d ac3d b0c2 883d f0f1 353d e24b 863d
00000120: f2cb 143d cea6 fcbb 02bc 513c e788 9939
00000130: 5889 133d 3ef6 38bd 22bc 8f3d caa0 95bd
00000140: 249e 82bd 0ef9 04bd 5caf 993d a379 d83b
00000150: 8fad 6bbc e391 39bd 2bbc 8a3d 2f91 a23d
00000160: 7df5 383c d6bb 8ebd dd72 3c3d e296 5bbd
00000170: a9cd 743d c04e 813d cc5b 863d fcf2 b13c
00000180: a8b9 483c 18cb 47bd 9323 8c3c e60e 5d3c
00000190: c97d a8bc 6515 b13d 7a0b 133d 44c0 403d
000001a0: 3b7d 543d 3638 7bbb a593 ff3c 2044 febc
000001b0: 17c5 993c 6276 8f3c d25e 3ebd a1d8 97bc
000001c0: 1d17 133d 9ba7 933d 2cbe 063d 17ef 953d
000001d0: f5e7 c1bc 7ef6 513d 2590 c137 c98d 6c3d
000001e0: e91c 863d ea7c 063d c95c 173d 39fd 20bd
000001f0: 5abb 173d c211 11bd 4603 063d ee0c f03c
00000200: ed2b a03d 6115 813d 9293 81bc a9ea b43d
00000210: 81d9 8a3d 8571 dcbc c460 ac3d 0588 9a3d
00000220: 49fd 64bc 8f3f 81bb 030a 6f3d 3bbd 913c
00000230: 5569 653d 5b7d 03bb d7a1 453b e721 68bd
00000240: 2db2 0d3d c575 12bd 3b57 833d dc3f 233c
00000250: 3af3 4b3d d2e1 8c3d 64fa 983d 38d5 4d3d
00000260: 5de5 273c de22 ec3c 58eb 60bd 1cda 04bd
00000270: e888 633c d45c edbc 49c4 0f3c 17c3 a33d
00000280: 1ed5 103d 8e2e 913d 631d ccbc 9f4a 223c
00000290: 487b 613d 9e13 183c d860 9bbc 906f e9bc
000002a0: dec7 14bc 0997 ccbc aa06 723d cea5 953c
000002b0: 756c 063c 76ab b33d 7592 193d 2d29 fcbc
000002c0: b36d 07bd 1428 f93c d5c9 9abc d66b 6cbd
000002d0: 877d cb3b df84 7f3d 60f3 08bd 7201 ddbb
000002e0: 1bdc a63c d8c2 713d 48a2 ad3c 6b2a e7bc
000002f0: 19ad dfbc a32f b83d 853f e03b 860a cabc
00000300: 0f0b 34b9 cfd0 7e3c 390c f73c 9158 0abc
00000310: 1158 bc3c 5eca cc3a 3597 893d 5f68 b7bc
00000320: 1b74 313d 6aa9 b63b 19ac 0e3d 42d8 403d
00000330: 80c3 853c add6 523d b7b4 f53c 4757 4f3d
00000340: 1a2b 58bd 6fc6 7dbd 3526 8eb7 4749 be3c
00000350: 8218 133d d1cd 1c3d 6058 7a3d d2ee 0c3d
00000360: cc6c 853b f38c 813c 807c 9fbd 776d 52bc
00000370: 2246 a83d 49fe 7cbb 7b27 003c 5265 683d
00000380: 64b1 863d c9ec 9c3d 23b5 3cbd ab91 efbc
00000390: 4365 77bb 579d ec3c b34b c9bc 8d9e 1cbc
000003a0: 7cdb edbc 950d 04bd 1d91 553d 3210 dd3c
000003b0: e6fe a2bc 0f0d 2e3d b6ae 9c3d 04e2 9c3c
000003c0: 1b33 d0bb cc3c 2c3d f907 9e3b 4115 183d
000003d0: b0b8 5ebc b4c8 00bd c90e 24bd c733 8cbc
000003e0: fd97 923c f1bd 053d 7e99 123d 8b39 07bd
000003f0: 45ae 72bc 4038 ab3c af7b 7bbd f367 143d

t_conv1.bias f4 [128]
0.21595936 -0.00698645 0.07830693 -0.008483785 -0.028292757 0.023427222 -0.05342743 -0.0074741836
-0.012169529 -0.005992525 -0.003955177 -0.009400885 -0.0159845 -0.0066456003 -0.0022450155 -0.023432642
-0.021145443 -0.0053223446 -0.009404647 -0.019703573 -0.001897651 0.12906267 -0.027228892 0.03649518
-0.020689761 -0.013231787 -0.013784851 -0.029845478 -0.016624913 0.02150178 0.0047803144 -0.01038125
-0.019504987 -0.003219502 -0.010155782 -0.022951286 -0.023926605 -0.0042258836 0.22619441 -0.044674527
0.13002485 0.051623203 -0.021236392 -0.0071954806 -0.050543584 -0.06823208 -0.009471551 -0.04165591
0.25187686 -0.011399945 0.04822425 -0.012728205 -0.025707126 -0.008825453 -0.05664646 -0.0148254
0.051326793 -0.006910139 -0.0051117665 -0.0067680967 -0.016384607 0.010831231 -0.026389908 -0.0340269
-0.034893338 -0.0091911685 -0.005820769 -0.031091144 -0.010345505 -0.0138615025 0.008984999 -0.019896034
-0.010668391 0.020624913 0.004167399 -0.0139190955 -0.00608205 -0.06771315 -0.01710806 -0.023198888
-0.013580505 0.051703263 -0.011830779 0.07875456 -0.015473321 0.0065760845 -0.0054866886 -0.03794981
-0.009115405 -0.023648486 0.07459739 0.014203642 -0.0046774815 -0.014434243 -0.012489868 -0.03883549
-0.028553708 0.08217548 0.005646161 0.019961635 -0.07398141 -0.0068606134 -0.009422775 -0.007331618
-0.03861987 -0.005730837 -0.031039761 -0.006424173 -0.018385652 -0.07412098 -0.022849858 -0.01806321
-0.03922827 -0.010348164 -0.0070166383 -0.017817032 -0.038468435 -0.011643503 -0.020185636 -0.003458265
-0.033248853 -0.021491935 0.019959707 -0.03465754 0.03208919 0.18543078 -0.005611157 -0.052905485
00000000: 7324 5d3e 97ee e4bb 625f a03d 93ff 0abc
00000010: 36c6 e7bc 72ea bf3c b9d6 5abd ffe9 f4bb
00000020: b462 47bc f15c c4bb 6e9a 81bb 2b06 1abc
00000030: edf1 82bc 56c3 d9bb 1c21 13bb d0f5 bfbc
00000040: 3539 adbc 1067 aebb f315 1abc 6369 a1bc
00000050: 9aba f8ba 0129 043e 200f dfbc f87b 153d
00000060: 937d a9bc 23ca 58bc dbd9 61bc 817e f4bc
00000070: f830 88bc 8024 b03c 2fa4 9c3b 1e16 2abc
00000080: ecc8 9fbc 48fe 52bb 7064 26bc 5604 bcbc
00000090: ba01 c4bc 4879 8abb 829f 673e a3fc 36bd
000000a0: 3c25 053e da72 533d f1f7 adbc 11c8 ebbb
000000b0: ca06 4fbd 43bd 8bbd 902e 1bbc 639f 2abd
000000c0: 01f6 803e d6c6 3abc cb86 453d f689 50bc
000000d0: c097 d2bc a298 10bc 1e06 68bd 3ce6 72bc
000000e0: 0b3c 523d 736e e2bb 9b80 a7bb e9c6 ddbb
000000f0: 0339 86bc 7a75 313c a62f d8bc ca5f 0bbd
00000100: 51ec 0ebd 8e96 16bc 26bc bebb dbb2 febc
00000110: 3180 29bc 5b1b 63bc d135 133c 02fd a2bc
00000120: 7aca 2ebc 94f5 a83c ad8e 883b eb0c 64bc
00000130: ef4b c7bb 31ad 8abd 3426 8cbc 980b bebc
00000140: c480 5ebc cdc6 533d e2d5 41bc 124a a13d
00000150: d083 7dbc 327c d73b aec9 b3bb 4371 1bbd
00000160: c858 15bc 78ba c1bc 84c6 983d 64b6 683c
00000170: 8f45 99bb 9a7d 6cbc 4ea2 4cbc f611 1fbd
00000180: 77e9 e9bc 9e4b a83d 6e03 b93b 9586 a33c
00000190: 9183 97bd ffce e0bb fc61 1abc 123e f0bb
000001a0: de2f 1ebd bfc9 bbbb 1947 febc de81 d2bb
000001b0: 829d 96bc becc 97bd a02f bbbc 4cf9 93bc
000001c0: d3ad 20bd 588b 29bc d4eb e5bb 06f5 91bc
000001d0: 1491 1dbd 64c4 3ebc 595c a5bc 0fa4 62bb
000001e0: f32f 08bd db0f b0bc 8a82 a33c 11f5 0dbd
000001f0: f46f 033d 91e1 3d3e ccdd b7bb 6cb3 58bd

t_conv2.weight f4 [128, 64, 2]
0.08362305 -0.028425539 -0.011937764 -0.044792645 -0.15226197 -0.004902263 0.27212325 0.23981228
-0.08368477 -0.035895173 0.061947726 0.035534196 -0.03605107 0.10674227 -0.02639586 -0.074625246
-0.07342148 0.032495283 -0.071107335 0.029113514 -0.016044682 0.039801456 0.17853071 0.22685839
-0.034363423 0.013033816 0.048455674 -0.026375797 -0.033446506 0.052337002 -0.02017016 -0.054075938
-0.04010196 0.03229631 -0.09010556 0.016665583 -0.0567444 0.02770809 0.039734237 -0.09798279
0.044549886 0.015500237 -0.052921776 -0.10140163 -0.006753692 -0.13959676 -0.05574828 0.06795187
0.03056985 -0.09712501 0.01940421 0.012681594 -0.027234374 -0.02558224 -0.019172095 -0.14201234
0.07995557 -0.11133258 -0.07763396 0.033048388 0.0086156465 0.059738122 -0.063616134 -0.038067706
0.077302046 0.0064170524 0.013353721 0.06267939 0.01429019 0.05439642 -0.076625295 -0.048347306
0.03591891 0.13124603 -0.03709681 -0.06068453 0.052419458 0.0063789035 0.040026303 0.058777783
-0.096185446 -0.05505442 0.0002904596 -0.047806922 0.111570224 0.059085246 -0.005950517 0.03743296
-0.023935314 -0.10344495 0.21387398 0.18467315 0.19133466 0.0015470311 -0.09554566 -0.053138617
-0.041182715 0.028467096 0.018612385 -0.052590027 -0.078499645 0.0143230185 -0.092484824 -0.070859425
0.10867686 0.1753891 -0.07372978 -0.083252676 -0.057323165 -0.030756213 -0.016420394 -0.07422845
0.007098607 0.072373316 0.055844534 -0.08878879 0.035670985 -0.058489382 -0.08662934 -0.031678047
-0.038176354 -0.085902825 -0.0051486334 -0.027922617 0.017309636 -0.068253785 -0.043667976 0.03729586
0.010077573 0.072919086 0.056491055 -0.060304586 0.023486368 -0.035693683 0.04382473 -0.02986179
0.051021274 0.13031991 0.01696253 -0.001501033 0.04888207 0.0184561 0.06861427 0.020912375
-0.03206566 0.07409793 -0.035847593 -0.072504275 -0.014161983 0.052653223 0.05747979 -0.075875536
0.012355721 -0.03748881 -0.064048104 0.0786977 -0.032400317 0.082769945 -0.00049309654 -0.0042400598
-0.05210296 -0.022384292 0.011026664 0.052517243 0.028258828 0.042584635 0.06845927 -0.026085213
-0.0896816 -0.073757574 0.03976338 0.1053387 0.025115747 0.07102697 0.004469484 -0.025952093
0.07614431 0.068910696 -0.0090535935 -0.04260348 0.07216391 -0.024897987 0.040420957 -0.031171018
0.07337674 0.024463478 0.06593508 0.017761283 0.033179037 -0.05434443 -0.031704433 0.015836447
-0.09698797 -0.056023475 0.10880079 0.05046957 0.011378128 -0.027207965 0.08134516 0.038617466
-0.09668953 -0.07186354 0.027598854 -0.022918234 -0.07041294 0.01651003 0.052563716 0.03800881
-0.007423291 0.049993273 0.030991703 -0.058021996 -0.022387033 -0.0818634 -0.10323912 -0.054143302
0.063113794 0.090504974 0.032301143 0.036124077 0.035826016 0.015438107 -0.05279928 0.079620846
-0.08662372 9.4725096e-05 -0.090379246 0.055984564 0.10936898 -0.057983384 0.108085565 0.055241775
-0.036243174 -0.010105269 0.05760485 0.07186254 -0.025846992 -0.022423532 0.045289386 -0.033325046
-0.07235043 0.036766253 0.102683574 0.1130952 -0.05698413 -0.03203646 0.05358952 0.057597708
-0.0767863 -0.06925847 -0.036120307 -0.05058042 -0.055999137 0.02935762 0.06271465 0.028771428
00000000: 9042 ab3d addc e8bc 9c96 43bc 7e78 37bd
00000010: 90ea 1bbe 2aa3 a0bb bd53 8b3e 5a91 753e
00000020: ec62 abbd d106 13bd e6bc 7d3d 4e8c 113d
00000030: 49aa 13bd b19b da3d 213c d8bc 1fd5 98bd
00000040: 005e 96bd c619 053d b9a0 91bd 777f ee3c
00000050: 2370 83bc da06 233d c1d0 363e 914d 683e
00000060: a9c0 0cbd c98b 553c 7579 463d 0e12 d8bc
00000070: 34ff 08bd 535f 563d e43b a5bc bb7e 5dbd
00000080: f441 24bd 2349 043d 4489 b8bd 4386 883c
00000090: d16c 68bd 14fc e23c 5ec0 223d 33ab c8bd
000000a0: f179 363d b5f4 7d3c 81c4 58bd a8ab cfbd
000000b0: 134e ddbb 74f2 0ebe 4f58 64bd 5a2a 8b3d
000000c0: 9f6d fa3c 7ae9 c6bd 94f5 9e3c 76c6 4f3c
000000d0: 9f1a dfbc d991 d1bc cc0e 9dbc af6b 11be
000000e0: bfbf a33d 5602 e4bd 8efe 9ebd bf5d 073d
000000f0: a428 0d3c f6af 743d 2d49 82bd e2ec 1bbd
00000100: 8950 9e3d 2346 d23b 91c9 5a3c 0d5e 803d
00000110: 6721 6a3c c8ce 5e3d b9ed 9cbd d307 46bd
00000120: b51f 133d 5c65 063e d3f2 17bd 5790 78bd
00000130: c9b5 563d 1f06 d13b 9ff2 233d f9c0 703d
00000140: e0fc c4bd be80 61bd d448 9839 31d1 43bd
00000150: ee7e e43d 5f03 723d 8efc c2bb 4e53 193d
00000160: fe13 c4bc f2da d3bd c801 5b3e f51a 3d3e
00000170: 3ced 433e c0c5 ca3a 71ad c3bd e1a7 59bd
00000180: 35af 28bd d433 e93c 0079 983c a468 57bd
00000190: 6cc4 a0bd 18ab 6a3c af68 bdbd bf1e 91bd
000001a0: f991 de3d 3399 333e a4ff 96bd 6180 aabd
000001b0: b2cb 6abd 74f4 fbbc 1084 86bc 1605 98bd
000001c0: 6e9b e83b 7638 943d 3dbd 643d e6d6 b5bd
000001d0: bd1b 123d 9092 6fbd b96a b1bd d7c0 01bd
000001e0: cf5e 1cbd d2ed afbd deb5 a8bb f9bd e4bc
000001f0: f0cc 8d3c a4c8 8bbd 31dd 32bd 8bc3 183d
00000200: 681c 253c 9a56 953d 2a63 673d f101 77bd
00000210: 7c66 c03c 8a33 12bd 8f81 333d b6a0 f4bc
00000220: affb 503d 9572 053e 01f5 8a3c 4fbe c4ba
00000230: 9138 483d 3f31 973c a385 8c3d 6e50 ab3c
00000240: 4857 03bd a8c0 973d edd4 12bd 1f7d 94bd
00000250: a907 68bc e8aa 573d ee6f 6b3d a264 9bbd
00000260: a66f 4a3c de8d 19bd a72b 83bd 422c a13d
00000270: 32b6 04bd 4a83 a93d 2643 01ba 33f0 8abb
00000280: ea69 55bd 435f b7bc 2ea9 343c 521c 573d
00000290: 0f7f e73c 3a6d 2e3d 6034 8c3d a8b0 d5bc
000002a0: fdaa b7bd 360e 97bd edde 223d d1bb d73d
000002b0: 8abf cd3c 9776 913d c074 923b 7c99 d4bc
000002c0: 8cf1 9b3d 0d21 8d3d 8655 14bc fd80 2ebd
000002d0: acca 933d ddf6 cbbc 7290 253d 5d5a ffbc
000002e0: 8b46 963d a267 c83c f908 873d 1c80 913c
000002f0: bee6 073d 4498 5ebd 82dc 01bd 70bb 813c
00000300: a1a1 c6bd df78 65bd f3d2 de3d 2eb9 4e3d
00000310: 546b 3a3c 3de3 debc 4b98 a63d 592d 1e3d
00000320: 2905 c6bd 312d 93bd fe16 e23c 05bf bbbc
00000330: a934 90bd 0b40 873c 0d4d 573d 20af 1b3d
00000340: 143f f3bb bfc5 4c3d 50e2 fd3c 79a8 6dbd
00000350: 0365 b7bc 00a8 a7bd 086f d3bd 5ec5 5dbd
00000360: ce41 813d ac5a b93d 344e 043d d7f6 133d
00000370: 4dbe 123d 1df0 7c3c 0f44 58bd 4110 a33d
00000380: c767 b1bd 26a7 c638 c118 b9bd 1250 653d
00000390: d8fc df3d fc7f 6dbd f75b dd3d 3345 623d
000003a0: b973 14bd 9290 25bc 10f3 6b3d ab2c 933d
000003b0: 12bd d3bc 8eb1 b7bc 5d81 393d d87f 08bd
000003c0: 762c 94bd 3698 163d c44b d23d 759e e73d
000003d0: 3168 69bd aa38 03bd af80 5b3d 93eb 6b3d
000003e0: 2342 9dbd 62d7 8dbd e3f2 13bd 6a2d 4fbd
000003f0: 5a5f 65bd 647f f03c 8a70 803d 0fb2 eb3c

t_conv2.bias f4 [64]
-0.059742935 0.043218564 0.06744543 0.19090605 -0.08405553 -0.047951035 -0.03819786 0.01346614
-0.016468663 -0.0038539898 -0.032864988 0.09734095 -0.016340816 -0.02439677 -0.008310692 0.0043045273
-0.0074689835 -0.063602775 0.02321 -0.015354915 -0.075273395 0.041373793 -0.02271191 -0.09263886
0.05930333 -0.018630419 0.023535011 -0.011724898 -0.044483744 -0.040387377 -0.045695584 -0.030218942
0.062930435 -0.050934702 -0.083815485 -0.035989918 0.020969102 -0.028816732 -0.036659606 -0.056026835
0.0637717 -0.045518264 0.10256981 0.020749629 -0.060329873 0.08446988 0.09645432 0.01152137
-0.030405287 0.05781982 -0.0099495035 0.08219969 0.08866711 -0.044067446 0.033038806 0.01870952
0.10165769 -0.013826359 -0.08019279 -0.06627906 -0.013349908 -0.056199353 -0.05230699 0.020005923
00000000: 02b5 74bd f305 313d d420 8a3d e07c 433e
00000010: 4e25 acbd 4e68 44bd 5c75 1cbd 16a1 5c3c
00000020: 4ae9 86bc 3893 7cbb 709d 06bd b15a c73d
00000030: 2ddd 85bc bcdb c7bc 9229 08bc fe0c 8d3b
00000040: 60be f4bb 2c42 82bd e622 be3c 2e93 7bbc
00000050: f028 9abd 9177 293d 540e babc 71b9 bdbd
00000060: 0ce8 723d d29e 98bc 7fcc c03c c919 40bc
00000070: 9634 36bd 3c6d 25bd 4b2b 3bbd b78d f7bc
00000080: ace1 803d e8a0 50bd 74a7 abbd 2a6a 13bd
00000090: 65c7 ab3c 1111 ecbc 6228 16bd 657c 65bd
000000a0: bd9a 823d 5c71 3abd 1f10 d23d 20fb a93c
000000b0: 751c 77bd 8bfe ac3d d889 c53d 21c4 3c3c
000000c0: 8214 f9bc 7ad4 6c3d 3e03 23bc 5058 a83d
000000d0: 1a97 b53d 1180 34bd b353 073d b544 993c
000000e0: e831 d03d f487 62bc 1e3c a4bd 51bd 87bd
000000f0: 93b9 5abc 4b31 66bd db3f 56bd 76e3 a33c

conv_out.weight f4 [1, 64, 3]
-0.008309472 -0.03523252 -0.059102323 -0.055404 -0.008381065 -0.06222105 -0.05326651 -0.039872173
-0.012525224 0.22013137 0.1949189 0.17195642 -0.023193296 -0.05507634 -0.03757756 -0.09802699
0.042748805 -0.08031905 -0.013449069 -0.0049965 -0.08259127 -0.054520726 0.00016240327 -0.06770535
-0.03187501 0.0012301403 -0.08172386 0.040838692 -0.07500417 0.032811467 -0.06474392 -0.065862
0.023246393 0.1193175 0.025623726 0.1275131 -0.073694475 -0.09374607 0.034899835 0.062390145
-0.07774059 0.068700366 -0.09151345 0.015402891 -0.09595668 -0.087271325 -0.02752757 0.0025416403
-0.056306966 -0.09515121 0.026720125 -0.08153821 -0.07242415 -0.08813827 -0.01246878 0.0036374808
-0.023579514 -0.033456784 -0.004400181 -0.06337231 0.0056619556 0.028989784 0.05525226 0.021006685
-0.08955195 -0.078657895 -0.019537058 -0.09658633 -0.07559361 0.0007274428 -0.055481814 0.043657146
-0.08509143 0.016602965 -0.04528731 0.040483713 0.0012597505 0.014339153 0.007894976 -0.05324499
0.06364931 0.023853367 -0.08283052 -0.013666101 -0.024631856 -0.041281614 -0.09608581 -0.088683665
-0.08363957 0.0019291668 0.02811455 -0.070723325 -0.08779583 -0.0604363 -0.08936788 0.029853983
0.053620476 0.06598559 0.011227965 0.00724465 -0.09865524 -0.048932724 0.036832877 -0.016031379
0.0222214 -0.083213285 -0.051535387 -0.09261606 0.08289806 0.057193276 -0.05580991 -0.024725717
-0.07801577 -0.02898415 0.05614725 -0.003518736 0.01119289 0.014403613 -0.063558444 -0.059812956
0.01956724 -0.033068385 -0.07074126 0.014104925 0.05785469 -0.0014167483 0.09878182 0.13024317
0.09779978 0.02634315 0.016886568 -0.062208895 0.0030471832 -0.076286644 0.009609852 0.09387501
0.05727162 0.11909288 0.06861902 0.045291994 0.07076677 -0.032013074 -0.07146304 -0.023434957
-0.006174296 -0.07022763 0.012181686 -0.02335984 0.038139127 0.018448243 -0.06504732 -0.08027919
-0.029087637 -0.09201616 -0.09165687 -0.075966805 0.051372286 0.13271022 0.09393889 0.010112375
0.032389205 0.0065666116 -0.07393874 0.023074044 -0.019121988 0.034029868 -0.0673541 -0.08111866
0.041632622 0.065864824 -0.013824455 0.009001847 -0.03671052 -0.0595723 0.04190766 -0.024928996
0.010829563 0.009040751 0.03560055 0.0048209406 0.035354007 0.017994868 -0.07100783 -0.099536225
0.024017883 -0.09524136 -0.003141984 0.057859667 -0.021173485 -0.027509153 -0.050923616 -0.05395329
00000000: 7424 08bc fa4f 10bd 4715 72bd 4eef 62bd
00000010: bc50 09bc 80db 7ebd fc2d 5abd 0151 23bd
00000020: 9936 4dbc 1e6a 613e d298 473e 5815 303e
00000030: deff bdbc ba97 61bd edea 19bd 60c2 c8bd
00000040: 5f19 2f3d 507e a4bd 7c59 5cbc aeb9 a3bb
00000050: 9d25 a9bd 2051 5fbd cc4a 2a39 1aa9 8abd
00000060: 5f8f 02bd a93c a13a d75e a7bd 7946 273d
00000070: c99b 99bd 5165 063d 7698 84bd a8e2 86bd
00000080: 386f be3c bc5c f43d d9e8 d13c cb92 023e
00000090: 21ed 96bd f1fd bfbd 21f3 0e3d cf8c 7f3d
000000a0: 7536 9fbd c7b2 8c3d 676b bbbd 685c 7c3c
000000b0: f084 c4bd 4fbb b2bd 8081 e1bc a691 263b
000000c0: 22a2 66bd a3de c2bd 2ae4 da3c 81fd a6bd
000000d0: 1d53 94bd d681 b4bd db49 4cbc cd62 6e3b
000000e0: d329 c1bc fb09 09bd 652f 90bb 57c9 81bd
000000f0: ed87 b93b fc7b ed3c 3250 623d 3616 ac3c
00000100: 0367 b7bd 6417 a1bd 2e0c a0bc 0ecf c5bd
00000110: d3d0 9abd dcb1 3e3a e640 63bd d6d1 323d
00000120: 6a44 aebd f102 883c 307f 39bd 40d2 253d
00000130: 361e a53a c4ee 6a3c ee59 013c 6b17 5abd
00000140: 925a 823d 2368 c33c 0ca3 a9bd c8e7 5fbc
00000150: bfc8 c9bc e916 29bd a3c8 c4bd c89f b5bd
00000160: 394b abbd 19dc fc3a 7c50 e63c 64d7 90bd
00000170: 4dce b3bd 0e8c 77bd 8206 b7bd 5790 f43c
00000180: 25a1 5b3d 7423 873d 80f5 373c 8764 ed3b
00000190: c20b cabd ae6d 48bd 12de 163d 3d54 83bc
000001a0: a709 b63c ba6b aabd c516 53bd 7dad bdbd
000001b0: 75c6 a93d 7f43 6a3d ef98 64bd 968d cabc
000001c0: bbc6 9fbd 2b70 edbc a9fa 653d 989a 66bb
000001d0: 6262 373c 22fd 6b3c ee2a 82bd 6efe 74bd
000001e0: 7a4b a03c b772 07bd cbe0 90bd 5818 673c
000001f0: 0af9 6c3d 2fb2 b9ba 1f4e ca3d 775e 053e
00000200: 404b c83d 97cd d73c b355 8a3c c1ce 7ebd
00000210: 40b3 473b 2c3c 9cbd a472 1d3c 8b41 c03d
00000220: a595 6a3d f8e6 f33d 2188 8c3d 1984 393d
00000230: 2bee 903d 2420 03bd 375b 92bd abfa bfbc
00000240: c051 cabb 81d3 8fbd b295 473c 235d bfbc
00000250: c637 1c3d c520 973c 8837 85bd 6a69 a4bd
00000260: 3249 eebc f872 bcbd 99b6 bbbd 7c94 9bbd
00000270: bf6b 523d 30e5 073e 0863 c03d 60ae 253c
00000280: 8baa 043d bb2c d73b 326d 97bd c705 bd3c
00000290: b7a5 9cbc e762 0b3d f2f0 89bd 8a21 a6bd
000002a0: f886 2a3d 23e4 863d f87f 62bc 7c7c 133c
000002b0: c55d 16bd 1602 74bd 5ea7 2b3d e537 ccbc
000002c0: 7b6e 313c a81f 143c e2d1 113d fbf8 9d3b
000002d0: 5dcf 103d f969 933c 8e6c 91bd a6d9 cbbd
000002e0: 27c1 c43c e70d c3bd bfe9 4dbb 42fe 6c3d
000002f0: 0474 adbc e05a e1bc 4895 50bd 20fe 5cbd
