pths/denoiser_model_1.pth (torch, 166322 bytes, 17 tensors)

conv1.weight f4 [32, 1, 3]
0.43464524 0.4706898 -0.1703817 0.49032283 -0.15893205 0.12254916 -0.2735658 0.32912087
0.5270653 -0.41082954 0.4964238 0.16113277 0.39697328 0.077351615 0.3130421 -0.121820085
0.38240114 0.13843463 -0.29179475 0.14769226 -0.24573407 -0.069516905 -0.2462183 0.37124923
-0.43634224 -0.29295206 -0.15872507 -0.3712938 0.05817963 -0.54429793 0.539307 -0.5015566
0.42155614 0.06371974 -0.19740652 0.35757065 0.068221286 0.49357197 0.039729185 -0.18870793
0.16985273 -0.1397972 0.25132748 0.51238257 0.3323946 -0.24334823 0.3467515 0.09203677
0.29123107 -0.39952826 -0.5261633 -0.22107996 -0.47831747 0.44483784 0.169884 0.24570987
0.17542009 0.00064893806 0.4556505 -0.40728417 0.07813957 -0.4013167 0.15485646 -0.15516171
0.2173027 -0.12204065 0.4355789 -0.39370024 -0.35502815 -0.32924652 0.52976704 0.19847682
0.55850583 -0.52306235 -0.5259616 -0.44372165 -0.41035458 0.23156713 0.22667517 0.42243794
-0.35218322 -0.4107129 0.3054734 -0.2135368 0.32518205 -0.14222503 0.34369788 -0.42972475
-0.30342913 0.18411347 0.08689154 -0.172391 0.33935374 0.36500442 -0.4544626 -0.28414842
00000000: d289 de3e 41fe f03e 8a78 2ebe 980b fb3e
00000010: 15bf 22be 0efb fa3d d110 8cbe 8882 a83e
00000020: c0ed 063f 4058 d2be 432b fe3e fdff 243e
00000030: 1540 cb3e 866a 9e3d 0e47 a03e cf7c f9bd
00000040: 15ca c33e cfc1 0d3e 1f66 95be a43c 173e
00000050: b6a1 7bbe e15e 8ebd a620 7cbe 6114 be3e
00000060: 4068 dfbe d0fd 95be d388 22be 391a bebe
00000070: c44d 6e3d 1c57 0bbf 0610 0a3f 0366 00bf
00000080: 35d6 d73e 7f7f 823d ef24 4abe 8013 b73e
00000090: 9ab7 8b3d 77b5 fc3e 12bb 223d a73c 41be
000000a0: e0ed 2d3e ff26 0fbe ffad 803e 812b 033f
000000b0: a02f aa3e 4730 79be 6a89 b13e c67d bc3d
000000c0: 3d1c 953e f88e ccbe a3b2 06bf c962 62be
000000d0: 07e6 f4be c9c1 e33e 12f6 2d3e 5e9b 7b3e
000000e0: 53a1 333e 7f1d 2a3a 064b e93e 8d87 d0be
000000f0: a407 a03d 6279 cdbe b192 1e3e b6e2 1ebe
00000100: 9984 5e3e 73f0 f9bd 3304 df3e 1493 c9be
00000110: 40c6 b5be 0093 a8be d09e 073f 823d 4b3e
00000120: 3dfa 0e3f 6ae7 05bf 6ba5 06bf 7c2f e3be
00000130: ff19 d2be ef1f 6d3e 891d 683e c949 d83e
00000140: 5c51 b4be f648 d2be 0267 9c3e 64a9 5abe
00000150: 437e a63e 70a3 11be 2bf9 af3e e204 dcbe
00000160: 105b 9bbe 3e88 3c3e 31f4 b13d 4487 30be
00000170: c6bf ad3e dce1 ba3e 52af e8be e77b 91be

conv1.bias f4 [32]
0.52855605 -0.19485791 -0.20455873 -0.5587951 -0.33086208 0.14377928 -0.075855 -0.41911972
0.01370041 -0.39409786 -0.48990813 -0.31811735 -0.50507903 -0.36714417 0.5767943 0.10917442
0.17799655 -0.5385375 -0.37820816 -0.19215232 0.0901527 -0.5072247 -0.24874067 -0.3453299
0.0016836046 -0.21493939 -0.04027872 -0.39131594 -0.39644235 -0.33667618 -0.19766046 -0.45584735
00000000: 734f 073f d588 47be d877 51be 320d 0fbf
00000010: c166 a9be e03a 133e de59 9bbd dc96 d6be
00000020: af77 603c 32c7 c9be 3dd5 fabe 47e0 a2be
00000030: dc4c 01bf 52fa bbbe cba8 133f d796 df3d
00000040: ba44 363e 98dd 09bf 80a4 c1be 94c3 44be
00000050: fba1 b83d 7ad9 01bf e0b5 7ebe 15cf b0be
00000060: 65ac dc3a 1219 5cbe 4dfb 24bd 905a c8be
00000070: 7efa cabe d260 acbe 8167 4abe d364 e9be

bn1.weight f4 [32]
1.0341974 1.0045958 0.95593536 1.0058244 0.9652061 0.9767442 0.9874229 1.031114
1.0132102 0.98657453 0.9930617 0.9573461 0.9795902 1.0095124 0.9736303 1.0358669
0.9990542 1.0375626 1.0160959 1.0185162 1.018841 1.0096409 0.98237294 0.99322253
0.97828335 0.9830749 1.020136 0.9823822 0.99459976 0.9774154 1.0154516 1.0172594
00000000: 9560 843f 9896 803f 2eb8 743f dbbe 803f
00000010: bf17 773f e80b 7a3f bfc7 7c3f 8bfb 833f
00000020: dfb0 813f 2690 7c3f 4b39 7e3f a214 753f
00000030: 6cc6 7a3f b437 813f d63f 793f 4997 843f
00000040: 04c2 7f3f dace 843f 6e0f 823f bd5e 823f
00000050: 6269 823f ea3b 813f cb7c 7b3f d543 7e3f
00000060: c770 7a3f ccaa 7b3f d193 823f 667d 7b3f
00000070: 179e 7e3f e537 7a3f 51fa 813f 8e35 823f

bn1.bias f4 [32]
0.031721905 0.070591584 0.0511698 0.045311723 0.026817683 0.041400306 -0.013388553 0.053036127
0.048622604 0.029348128 0.025685837 0.035644315 0.07085988 0.0245193 0.021184437 0.05934713
0.04657597 0.06794485 0.024642337 0.06927927 0.030921752 0.008671007 0.020472605 0.046419192
0.0171688 0.03575943 0.052102026 0.0053477297 0.005317432 0.007111757 -0.0022001595 0.047183078
00000000: d4ee 013d 5292 903d 6d97 513d c998 393d
00000010: c2b0 db3c 5e93 293d a95b 5bbc 693c 593d
00000020: 7f28 473d 7c6b f03c 1b6b d23c c6ff 113d
00000030: fc1e 913d b3dc c83c fc8a ad3c fa15 733d
00000040: 72c6 3e3d ab26 8b3d bade c93c 4ae2 8d3d
00000050: 9d4f fd3c d710 0e3c 2ab6 a73c 0d22 3e3d
00000060: 95a5 8c3c 7b78 123d ef68 553d 023c af3b
00000070: da3d ae3b be09 e93b 8d30 10bb 0b43 413d

bn1.running_mean f4 [32]
0.8579152 0.008068914 0.059845828 -0.4387195 0.018007018 0.32884833 -0.24667 -0.39760745
-0.38026455 -0.77489114 -0.2912023 -0.21623692 -0.23269956 -0.43613374 1.067065 0.19884358
-0.11098614 -0.6492865 -0.11470053 -0.16616538 0.012433519 -0.53215015 -0.39280683 -0.15779372
-0.2236132 -0.49351838 0.096573144 -0.52689034 -0.16779716 -0.58329046 -0.087490276 -0.6261727
00000000: 55a0 5b3f 7a33 043c e620 753d d89f e0be
00000010: 7483 933c cf5e a83e 0f97 7cbe 3493 cbbe
00000020: 09b2 c2be 445f 46bf 7818 95be 366d 5dbe
00000030: cb48 6ebe ec4c dfbe 9695 883f a79d 4b3e
00000040: b44c e3bd a437 26bf 1de8 eabd 4227 2abe
00000050: f5b5 4b3c fe3a 08bf fa1d c9be ad94 21be
00000060: dcfa 64be 71ae fcbe 24c8 c53d 49e2 06bf
00000070: 05d3 2bbe 8652 15bf 1a2e b3bd db4c 20bf

bn1.running_var f4 [32]
0.51604843 0.34404528 0.54659003 0.5480174 0.2925193 0.21813384 0.20225026 0.25244862
0.3307424 0.50675195 0.89484966 0.21119852 0.29116988 0.104621746 0.47643027 0.23248546
0.61848503 0.5889395 0.12988384 0.46876636 0.2382975 0.108835354 0.5758107 0.52512366
1.047461 0.49759784 0.43533966 0.38171482 0.2910424 0.36889932 0.18592931 0.51371956
00000000: c01b 043f b426 b03e 53ed 0b3f de4a 0c3f
00000010: 17c5 953e 7a5e 5f3e b11a 4f3e f240 813e
00000020: 1157 a93e 7fba 013f de14 653f 6d44 583e
00000030: 3814 953e ed43 d63d abee f33e ab10 6e3e
00000040: 0955 1e3f bdc4 163f 4500 053e 2502 f03e
00000050: 4304 743e 12e5 de3d 5468 133f 816e 063f
00000060: 3413 863f 25c5 fe3e d7e4 de3e 2070 c33e
00000070: 8203 953e 5fe0 bc3e 4164 3e3e 2083 033f

conv2.weight f4 [64, 32, 3]
0.0967333 -0.013333713 0.07523053 0.053107228 -0.10866558 0.065503135 -0.03040958 -0.053036127
-0.07613732 -0.1100509 0.04902845 -0.025648292 0.05678739 -0.10090056 0.07793737 -0.068446495
0.006999036 0.013856213 0.04297539 0.089971565 0.08449863 -0.08874549 0.018506283 -0.01540573
0.007617113 -0.07373398 0.08945585 -0.081273355 0.06040981 0.028660193 0.04422476 -0.07255217
0.10022417 0.014754745 0.00046823284 -0.05668563 0.051835015 0.015789272 -0.050754502 0.07393814
0.034861688 -0.06520154 -0.026081456 -0.010286897 0.055212084 -0.032188278 -0.040569514 -0.037187427
-0.04655163 0.017647183 0.055630937 -0.09949049 0.023193067 0.072872534 0.043145373 -0.0479937
0.053790003 0.039540328 0.06309665 -0.024193404 -0.024854416 0.0073399716 0.00085412187 -0.04722879
0.08331432 0.08418175 0.022907363 -0.040284865 -0.020570006 -0.008188192 0.039170638 0.026255338
-0.059791308 -0.054420337 0.06283274 0.054565087 0.004088758 -0.06046211 -0.06386061 -0.067738384
-0.041083712 0.020944506 0.07803126 0.038723376 -0.077912256 -0.07655214 -0.00908842 0.11578504
0.021230329 -0.028441155 0.03542797 -0.052419484 -0.035124302 0.10431834 -0.065771125 -0.042571045
-0.07640968 0.10224888 0.055984147 0.050482113 -0.07651907 -0.12005569 -0.09328949 0.07749441
0.092468336 0.11818867 0.04900527 0.04556718 0.016233658 -0.055059124 -0.0854168 -0.06161221
0.027321685 -0.024061773 -0.008845531 -0.053752955 -0.0389032 -0.057484403 -0.084476344 0.05014492
-0.04443936 0.05601729 -0.02774096 -0.073184155 -0.013449075 -0.069824286 0.001820087 -0.11643626
0.044438407 -0.028550465 0.036314856 0.055507634 0.10462256 -0.07619436 0.08796122 -0.021388903
0.04487197 0.07424013 0.00070617424 0.006961388 0.013992897 -0.052894454 0.041210588 -0.08159541
0.04045597 0.07888606 0.09826299 -0.021968272 -0.10059655 0.035706274 0.067450345 -0.08850298
0.012141107 -0.027527347 0.016003674 -0.08406927 -0.025755199 -0.051689345 -0.11522253 0.11489561
0.09152582 -0.034200273 -0.025625996 -0.042204082 -0.08813263 -0.06921864 0.02900486 -0.030598508
-0.082216956 -0.0069550746 -0.029673705 -0.04884656 -0.009394045 0.0018291185 -0.0026211664 -0.02459385
-0.12259327 0.112314455 -0.037417863 0.013768715 -0.0049912445 0.008414073 0.097491875 0.03098813
-0.09807401 0.06659812 0.13827457 0.011053349 0.07516292 0.0845392 -0.01851477 0.01897049
-0.033202555 0.008926269 0.061561614 0.061905414 -0.044209685 -0.11183042 -0.021784898 -0.13490379
-0.098509885 0.009971669 0.06807812 0.014343126 -0.052304897 -0.09839007 0.02890854 -0.037010726
-0.0037135503 0.04286734 -0.035336345 0.004684403 0.007300525 -0.026398014 -0.080275714 -0.104882486
-0.038692072 -0.04296835 0.10972477 -0.040052235 -0.054893218 0.04046037 0.014870581 0.068178274
0.043695264 0.05260869 -0.11658761 -0.01431771 0.097891 0.01672724 -0.07167931 0.1062485
-0.020060264 -0.044101115 -0.038923822 0.0030109496 0.030358462 0.060006995 0.018788284 -0.0817893
-0.08702192 0.03648283 0.08965901 0.054605685 -0.07545835 -0.01950523 -0.019843563 -0.057136245
0.004164129 0.048744354 0.114685 -0.094943695 0.041968796 -0.047701992 0.032924406 0.09593775
00000000: 1c1c c63d a575 5abc 7712 9a3d f786 593d
00000010: 0f8c debd 8226 863d 831d f9bc 693c 59bd
00000020: e2ed 9bbd 5e62 e1bd 0ed2 483d 5e1c d2bc
00000030: e599 683d f4a4 cebd a19d 9f3d ad2d 8cbd
00000040: 2b58 e53b 2b05 633c f606 303d 0343 b83d
00000050: 9e0d ad3d 32c0 b5bd 7d9a 973c 5168 7cbc
00000060: fa98 f93b d701 97bd a134 b73d a572 a6bd
00000070: 4770 773d c8c8 ea3c 0625 353d 3b96 94bd
00000080: 5442 cd3d e3bd 713c 267d f539 312f 68bd
00000090: f450 543d 8158 813c f4e3 4fbd e16c 973d
000000a0: 21cb 0e3d 6388 85bd c7a8 d5bc 608a 28bc
000000b0: 1126 623d dbd7 03bd 382c 26bd d851 18bd
000000c0: ecac 3ebd d390 903c 44dd 633d acc1 cbbd
000000d0: 63ff bd3c 323e 953d 34b9 303d 0b95 44bd
000000e0: e852 5c3d 0af5 213d d138 813d 3f31 c6bc
000000f0: 7d9b cbbc 2584 f03b 26e7 5f3a fa72 41bd
00000100: b3a0 aa3d 7b67 ac3d 39a8 bb3c be01 25bd
00000110: 6e82 a8bc c427 06bc 6471 203d 6f15 d73c
00000120: bbe7 74bd dce7 5ebd 74ae 803d a47f 5f3d
00000130: fdfa 853b 1ea7 77bd 5ac9 82bd 6cba 8abd
00000140: 6547 28bd d093 ab3c dace 9f3d 679c 1e3d
00000150: 7690 9fbd 5ec7 9cbd 99e7 14bc b520 ed3d
00000160: 3aeb ad3c 6dfd e8bc eb1c 113d d0b5 56bd
00000170: 80de 0fbd dba4 d53d 03b3 86bd fa5e 2ebd
00000180: ae7c 9cbd dc67 d13d a24f 653d 55c6 4e3d
00000190: 08b6 9cbd c2df f5bd 8f0e bfbd 64b5 9e3d
000001a0: 0a60 bd3d e70c f23d c0b9 483d a7a4 3a3d
000001b0: 73fc 843c ad85 61bd 01ef aebd 165d 7cbd
000001c0: bad1 df3c 321d c5bc d9ec 10bc 0f2c 5cbd
000001d0: f658 1fbd c474 6bbd ef01 adbd c264 4d3d
000001e0: 0c06 36bd 6372 653d 0241 e3bc 93e1 95bd
000001f0: 8259 5cbc 0900 8fbd fc8f ee3a 2276 eebd
00000200: 0c05 363d aae2 e9bc e3be 143d f95b 633d
00000210: 5a44 d63d ca0b 9cbd 0325 b43d c837 afbc
00000220: accb 373d 360b 983d 8d1e 393a 5b1c e43b
00000230: 7742 653c dba7 58bd 6fcc 283d 7f1b a7bd
00000240: 29b5 253d 048f a13d 1b3e c93d cef6 b3bc
00000250: 9005 cebd be40 123d 6823 8a3d 0d41 b5bd
00000260: 7eeb 463c 0881 e1bc 231a 833c 822c acbd
00000270: 91fc d2bc 35b8 53bd caf9 ebbd 644e eb3d
00000280: e471 bb3d 9615 0cbd 9ced d1bc 30de 2cbd
00000290: e17e b4bd 81c2 8dbd 9a9b ed3c b9a9 fabc
000002a0: 5d61 a8bd 65e7 e3bb 4516 f3bc 5513 48bd
000002b0: 7be9 19bc 08bf ef3a e0c7 2bbb 0b79 c9bc
000002c0: 2e12 fbbd 1f05 e63d 7943 19bd 2d96 613c
000002d0: 988d a3bb 2edb 093c d2a9 c73d d2da fd3c
000002e0: 07db c8bd 9864 883d d997 0d3e 1b19 353c
000002f0: 04ef 993d e322 ad3d 49ac 97bc 0068 9b3c
00000300: 67ff 07bd 7c3f 123c 0828 7c3d 8890 7d3d
00000310: 3715 35bd 5907 e5bd 3e76 b2bc 3824 0abe
00000320: 8dbf c9bd 3660 233c 8b6c 8b3d 6eff 6a3c
00000330: a93d 56bd bc80 c9bd 9ad1 ec3c 8f98 17bd
00000340: 095f 73bb aa95 2f3d d8bc 10bd 9f7f 993b
00000350: 3e39 ef3b a640 d8bc 9867 a4bd a1cc d6bd
00000360: 947b 1ebd 95ff 2fbd 61b7 e03d d00d 24bd
00000370: b6d7 60bd c6b9 253d bda3 733c 0da1 8b3d
00000380: cef9 323d 367c 573d 7cc5 eebd d494 6abc
00000390: 147b c83d 9107 893c 9acc 92bd d098 d93d
000003a0: 6c55 a4bc 5fa3 34bd 966e 1fbd 5a53 453b
000003b0: 4fb2 f83c e5c9 753d e3e9 993c 2681 a7bd
000003c0: 8c38 b2bd 056f 153d 259f b73d 36aa 5f3d
000003d0: e889 9abd 6fc9 9fbc f88e a2bc b207 6abd
000003e0: 3f73 883b 29a8 473d f8df ea3d d771 c2bd
000003f0: 79e7 2b3d 2a63 43bd bedb 063d 037b c43d

conv2.bias f4 [64]
-0.06580652 0.07312891 0.08321046 0.0696026 -0.0017308261 0.02514901 0.0051277797 -0.0383119
-0.10145859 -0.012499006 0.044221442 0.05958345 0.024365123 0.046583015 0.06457257 -0.019537149
0.06655163 -0.0021795589 -0.036161184 -0.039861877 -0.059723414 -0.07840112 0.023308098 0.094295226
0.01455666 0.013993183 -0.03823125 -0.040318206 -0.032037474 0.03540795 0.017672434 -0.038003813
0.020123694 -0.017976752 -0.0066804416 0.07231315 -0.042643238 0.0951183 -0.055786777 0.09446741
0.037909146 0.041132748 -0.023679383 -0.027744409 -0.07428981 -0.09780368 0.07172994 0.09893859
0.029425697 -0.03995915 0.022467352 -0.0033991528 -0.08835795 -0.08156453 0.035390235 -0.029945092
-0.024169385 -0.061628673 0.045015473 -0.05155329 -0.032325562 0.054362364 0.09809673 0.09090436
00000000: 92c5 86bd 9cc4 953d 3f6a aa3d cf8b 8e3d
00000010: e3dc e2ba 4c05 ce3c ef06 a83b f0ec 1cbd
00000020: 85c9 cfbd a2c8 4cbc 8b21 353d c70d 743d
00000030: 5e99 c73c d5cd 3e3d a03e 843d 5f0c a0bc
00000040: 394c 883d eed6 0ebb c01d 14bd 3546 23bd
00000050: 8aa0 74bd c490 a0bd a0f0 be3c db1d c13d
00000060: 0f7f 6e3c aa43 653c 5f98 1cbd b424 25bd
00000070: ba39 03bd ed07 113d c8c5 903c e3a9 1bbd
00000080: 72da a43c fb43 93bc 9be7 dabb eb18 943d
00000090: adaa 2ebd 62cd c23d ad80 64bd 2178 c13d
000000a0: 9f46 1b3d d07a 283d 44fb c1bc 3e48 e3bc
000000b0: 4225 98bd 4c4d c8bd 26e7 923d 51a0 ca3d
000000c0: 290e f13c 35ac 23bd 740d b83c 52c4 5ebb
000000d0: 03f5 b4bd 4e0b a7bd 5af5 103d 694f f5bc
000000e0: e0fe c5bc 596e 7cbd 2562 383d 8b29 53bd
000000f0: cf67 04bd 12ab 5e3d f0e6 c83d 112c ba3d

bn2.weight f4 [64]
1.0325692 1.0452659 1.0451446 1.0394505 1.0376301 1.0426867 1.0510515 1.0510116
1.0614705 1.0369961 1.0400958 1.0369378 1.0378807 1.0321043 1.0604365 1.0464323
1.0501022 1.0460912 1.0424918 1.028504 1.041859 1.047835 1.04816 1.0394228
1.0399158 1.0474851 1.0555041 1.0617744 1.0492866 1.0498182 1.0300176 1.0422308
1.0387762 1.0377202 1.05224 1.0568149 1.0365155 1.0417622 1.0404217 1.0372118
1.0375206 1.0518643 1.0557827 1.054321 1.04198 1.040353 1.0353769 1.03148
1.0451683 1.0317701 1.042146 1.0386753 1.0298951 1.056293 1.0433161 1.0509812
1.0293667 1.0371156 1.0308545 1.0497098 1.0343846 1.0268817 1.0570151 1.0354179
00000000: 3a2b 843f 46cb 853f 4cc7 853f b70c 853f
00000010: 10d1 843f c276 853f db88 863f 8c87 863f
00000020: 44de 873f 4abc 843f dc21 853f 61ba 843f
00000030: 46d9 843f fe1b 843f 62bc 873f 7ef1 853f
00000040: c069 863f 51e6 853f 5f70 853f 05a6 833f
00000050: a35b 853f 751f 863f 1b2a 863f ce0b 853f
00000060: f61b 853f fe13 863f c21a 873f 39e8 873f
00000070: 064f 863f 7160 863f 9ed7 833f d267 853f
00000080: 9ef6 843f 04d4 843f cdaf 863f b645 873f
00000090: 8aac 843f 7758 853f 8a2c 853f 5bc3 843f
000000a0: 7acd 843f 7da3 863f e323 873f fef3 863f
000000b0: 9a5f 853f 492a 853f 3b87 843f 8907 843f
000000c0: 13c8 853f 0b11 843f 0a65 853f 50f3 843f
000000d0: 9ad3 833f 9c34 873f 628b 853f 8d86 863f
000000e0: 4ac2 833f 34c0 843f 0af3 833f e45c 863f
000000f0: b766 843f dc70 833f 454c 873f 9388 843f

bn2.bias f4 [64]
0.038028654 0.033146445 0.018892974 0.039094113 0.032659173 0.03508688 0.042072095 0.045859817
0.049680836 0.029101716 0.036299136 0.03411132 0.032738622 0.02043224 0.054855604 0.048133593
0.015253522 0.040599484 0.031314634 0.030070178 0.032709654 0.037577815 0.037783775 0.04711548
0.034089845 0.042504378 0.053161964 0.0546535 0.038452268 0.049613573 0.032219186 0.035980873
0.031468462 0.02970943 0.033577014 0.043585993 0.016130276 0.034958735 0.038178675 0.037385486
0.032645937 0.046394914 0.041345615 0.019536821 0.02706713 0.034874257 0.041195683 0.032039523
0.04162726 0.041254945 0.04162288 0.03752663 0.040060245 0.04190122 0.04262489 0.04588939
0.032111377 0.044234995 0.034686506 0.05310243 0.045653448 0.04061089 0.058705267 0.024179237
00000000: efc3 1b3d 91c4 073d 70c5 9a3c 2621 203d
00000010: a0c5 053d 43b7 0f3d ca53 2c3d 81d7 3b3d
00000020: 227e 4b3d b966 ee3c 67ae 143d 50b8 0b3d
00000030: ef18 063d 8361 a73c 45b0 603d bb27 453d
00000040: e9e9 793c a54b 263d c643 003d bc55 f63c
00000050: 8ffa 053d 32eb 193d 29c3 1a3d 29fc 403d
00000060: cba1 0b3d 1219 2e3d 5cc0 593d 59dc 5f3d
00000070: 2080 1d3d 9a37 4b3d 44f8 033d ae60 133d
00000080: 13e5 003d 3161 f33c 0d88 093d 3a87 323d
00000090: a423 843c e430 0f3d 3e61 1c3d 8621 193d
000000a0: bfb7 053d 9808 3e3d 055a 293d af0b a03c
000000b0: e3bb dd3c 4fd8 0e3d cebc 283d e03b 033d
000000c0: 5981 2a3d f2fa 283d c17c 2a3d 86b5 193d
000000d0: 3616 243d 9da0 2b3d 7097 2e3d 83f6 3b3d
000000e0: 3887 033d c12f 353d 7013 0e3d ef81 593d
000000f0: 1cff 3a3d 9b57 263d ef74 703d 8913 c63c

bn2.running_mean f4 [64]
0.0039298274 -0.05081182 -0.090720765 0.3605344 0.19514132 -0.30569795 0.023924047 -0.24411356
-0.23427746 0.057703182 -0.37938273 -0.12169373 0.006679242 -0.10440586 -0.0047130985 -0.048606403
0.22744775 -0.13822185 0.064791255 0.13216974 -0.27441284 -0.15316245 -0.4443902 -0.17705047
-0.2328961 -0.19875266 0.0051351665 0.021618325 -0.17229559 -0.20538719 0.3046597 -0.4631477
-0.09595453 -0.15386792 -0.21043949 0.02065251 -0.002192321 -0.3292182 -0.3062492 -0.087687805
0.467648 0.07621033 -0.09663198 0.1124509 -0.35994688 -0.26045665 0.20170784 0.14074743
-0.17954372 0.040821064 -0.47558317 -0.45978746 0.2170513 -0.03231754 0.29156968 0.07445829
0.06579604 -0.2655017 0.10218245 -0.29675955 0.045132533 0.101257436 -0.15226813 -0.02204944
00000000: c8c5 803b 0e20 50bd cfcb b9bd f797 b83e
00000010: 20d3 473e 7184 9cbe 5dfc c33c e8f8 79be
00000020: 6ee6 6fbe 2c5a 6c3d 743e c2be 903a f9bd
00000030: 8bdd da3b bdd2 d5bd 5670 9abb 8217 47bd
00000040: 10e8 683e 078a 0dbe 47b1 843d 8157 073e
00000050: d77f 8cbe 9ed6 1cbe 1d87 e3be b84c 35be
00000060: 517c 6ebe d185 4bbe e644 a83b ea18 b13c
00000070: 416e 30be 0551 52be 5bfc 9b3e b221 edbe
00000080: cf83 c4bd 8d8f 1dbe 737d 57be 742f a93c
00000090: 0bad 0fbb 4a8f a8be b2cc 9cbe aa95 b3bd
000000a0: 8f6f ef3e 2914 9c3d fde6 c5bd a84c e63d
000000b0: f54a b8be 935a 85be 808c 4e3e 1820 103e
000000c0: 4fda 37be fd33 273d a37f f3be 4369 ebbe
000000d0: b242 5e3e 665f 04bd 9f48 953e 977d 983d
000000e0: 13c0 863d d7ef 87be 0845 d13d def0 97be
000000f0: e4dc 383d 0f60 cf3d 2dec 1bbe 07a1 b4bc

bn2.running_var f4 [64]
0.21348675 0.16231674 0.3719747 0.34161538 0.184961 0.44141456 0.18855068 0.23911446
0.10538224 0.1536405 0.31334993 0.31439406 0.34509116 0.26862642 0.116143644 0.19157892
0.1510357 0.3031615 0.13468112 0.20787053 0.32345092 0.14016767 0.3941754 0.24448372
0.29960328 0.34499365 0.16145886 0.15978728 0.143681 0.3039733 0.34237018 0.2735633
0.2748693 0.13824582 0.26768476 0.41826248 0.2772861 0.34294814 0.43255025 0.16125594
0.25422263 0.12631296 0.15223776 0.14854924 0.27424693 0.2862005 0.22525023 0.28595307
0.2509891 0.36030117 0.47575516 0.3975356 0.37650093 0.11504232 0.3687271 0.17995931
0.3264748 0.27718294 0.46675822 0.2840295 0.19094877 0.30054283 0.19989249 0.1560965
00000000: 459c 5a3e 5c36 263e 7873 be3e 36e8 ae3e
00000010: 6b66 3d3e 1701 e23e 6e13 413e 6cda 743e
00000020: a5d2 d73d ef53 1d3e 676f a03e 42f8 a03e
00000030: caaf b03e 6789 893e b8dc ed3d 442d 443e
00000040: 1aa9 1a3e fc37 9b3e d9e9 093e 03dc 543e
00000050: 5c9b a53e 1d88 0f3e 5cd1 c93e f159 7a3e
00000060: 9a65 993e 02a3 b03e 7955 253e 479f 233e
00000070: 1d21 133e 63a2 9b3e 254b af3e 7d10 8c3e
00000080: abbb 8c3e 5090 0d3e fa0d 893e 8026 d63e
00000090: 72f8 8d3e e696 af3e 3a77 dd3e 4720 253e
000000a0: 7829 823e 2f58 013e 37e4 1b3e 4b1d 183e
000000b0: 186a 8c3e df88 923e ffa7 663e 7168 923e
000000c0: a581 803e 6579 b83e 2e96 f33e c989 cb3e
000000d0: bbc4 c03e 4f9b eb3d ccc9 bc3e 4147 383e
000000e0: b427 a73e ecea 8d3e effa ee3e 516c 913e
000000f0: 1388 433e c0e0 993e 9eb0 4c3e c3d7 1f3e

t_conv1.weight f4 [64, 128, 2]
0.05254176 0.032970726 0.06122671 0.08122306 0.023720987 0.04221647 0.01706272 0.034125872
0.07247767 0.030042203 -0.033527624 -0.026963117 -0.064960286 0.0069532804 0.009349281 0.007800229
-0.029284904 -0.045339268 0.0436857 0.02953041 -0.019313376 0.017377624 -0.00938961 -0.031240389
-0.015269666 -0.037714653 -0.052372437 -0.05322942 -0.0076290495 0.015753904 0.09124755 0.0036777456
0.07204644 0.04802959 -0.02321135 -0.03126794 -0.026775323 -0.02958623 0.030467492 0.019365031
-0.03923657 -0.010423893 -0.06441673 0.08343418 0.05934482 -0.042494956 0.08263248 -0.017525958
0.056938104 0.01027524 0.04881881 0.052415177 0.01976194 0.013989177 -0.0022849957 1.139974e-05
0.071780175 -0.03069257 0.020548237 0.019289307 -0.023226779 -0.032162115 0.016595164 0.05581605
0.03262582 -0.032150887 0.061786875 -0.03838872 0.009519999 0.012236657 0.07284795 -0.0036083797
-0.0025513556 0.019201715 -0.0029097137 -0.049870413 0.064037114 -0.03650665 0.029577166 -0.016344525
0.009800274 -0.013623707 -0.025671752 0.04358766 -0.04150276 0.030896617 -0.025150344 -0.046217076
0.07771883 0.06387618 0.034094635 0.0046291393 0.029402245 0.0068192 -0.066730075 0.07027592
-0.028334046 0.03577022 0.0012481734 0.044219602 0.09092269 -0.021629687 -0.005252673 -0.04991822
0.05563797 0.07187649 0.0053059156 0.03952938 -0.010258102 -0.024143033 0.042272735 -0.043532964
-0.0008329231 0.015221431 -0.022381451 0.030810542 0.06715145 -0.05856337 0.052795056 0.015605754
0.058299117 -0.07125526 0.0654646 -0.0028660127 0.071060054 -0.04664454 0.0081610875 -0.005347719
0.04377819 0.020523768 0.067099534 0.0047191144 -0.03164729 -0.0087014325 0.0696534 0.048517436
-0.026251754 0.07266819 0.055845585 0.01771328 0.06448001 0.019334862 -0.0037624761 -0.040592454
0.01412606 0.09277912 0.042167395 -0.06315455 0.005219421 0.033447947 -0.044569787 -0.011285966
0.062063042 0.06553419 0.080856696 -0.017661622 -0.026798315 0.06453725 0.02945457 0.088037804
0.038567815 -0.023490755 0.04340299 0.03820798 -0.0081219645 0.08369461 0.036963668 -0.0034002597
-0.045558088 0.03862018 -0.06726088 0.052464344 0.0057967044 0.011825526 0.026021674 0.08916701
-0.0130620105 -0.014613431 0.03166866 -0.028600687 0.0081023015 0.050063673 -0.024832621 0.07380324
-0.014834795 0.06364581 0.08040511 0.023605932 -0.0025358044 0.04364099 0.004387879 -0.020566253
0.08578546 0.0193499 0.052540068 0.0012049945 0.008929604 0.012243019 0.0325908 0.05073948
0.07305945 0.0264746 -0.03225604 0.093690164 0.06906719 0.049483705 0.039035045 -0.013474056
-0.03252349 0.026830496 -0.014571187 0.032788314 -0.05485289 -0.017344845 -0.025302418 0.03974172
0.06976305 -0.023441656 -0.01831095 0.008808268 0.019201552 -0.022905044 0.0404244 -0.023530593
0.02660195 0.013089319 0.06498772 -0.06488856 0.05294634 0.01637755 0.047301453 0.047735207
0.020042248 0.017896045 0.014331054 0.05891009 -0.028416649 0.07681415 0.030716073 0.07642656
0.034383845 0.036971495 -0.020376205 -0.0045699705 -0.01908256 0.042288166 0.0006203069 0.019642306
0.04911022 0.02796807 0.013073874 -0.031038733 0.05682945 -0.03580736 -0.03325705 0.012452739
00000000: 0736 573d 500c 073d dcc8 7a3d 4758 a63d
00000010: 8452 c23c 2deb 2c3d 1ec7 8b3c 92c7 0b3d
00000020: 2c6f 943d 111b f63c 4354 09bd c1e1 dcbc
00000030: e609 85bd 58d8 e33b ba2d 193c 1099 ff3b
00000040: e5e6 efbc abb5 39bd c7ef 323d c2e9 f13c
00000050: 1637 9ebc 855b 8e3c e1d6 19bc d8eb ffbc
00000060: 9f2d 7abc ae7a 1abd 7b84 56bd 1807 5abd
00000070: 1bfd f9bb 550e 813c ffdf ba3d 5506 713b
00000080: 158d 933d adba 443d bb25 bebc d012 00bd
00000090: ec57 dbbc d25e f2bc f696 f93c 6aa3 9e3c
000000a0: 87b6 20bd fac8 2abc ebec 83bd 8adf aa3d
000000b0: 8e13 733d 310f 2ebd 383b a93d 9992 8fbc
000000c0: ee37 693d 7b59 283c 3cf6 473d 4cb1 563d
000000d0: cbe3 a13c dc32 653c debf 15bb 8341 3f37
000000e0: 7c01 933d fc6e fbbc c754 a83c 9c04 9e3c
000000f0: 1646 bebc 6cbc 03bd 95f2 873c 5f9f 643d
00000100: a7a2 053d a6b0 03bd 3c14 7d3d 7e3d 1dbd
00000110: c5f9 1b3c 427c 483c 4e31 953d 917a 6cbb
00000120: a534 27bb ea4c 9d3c e5b0 3ebb eb44 4cbd
00000130: e425 833d ff87 15bd d04b f23c f4e4 85bc
00000140: 5491 203c f835 5fbc 914d d2bc f988 323d
00000150: ccfe 29bd e71a fd3c 1808 cebc 1e4e 3dbd
00000160: 0d2b 9f3d 84d1 823d d1a6 0b3d 09b0 973b
00000170: fadc f03c 9873 df3b c7a9 88bd d2ec 8f3d
00000180: cd1c e8bc cb83 123d c099 a33a 9d1f 353d
00000190: ad35 ba3d be30 b1bc 9d1e acbb 0c77 4cbd
000001a0: a4e4 633d fb33 933d 3fdd ad3b 8fe9 213d
000001b0: 9911 28bc 9cc7 c5bc 2d26 2d3d 9f4f 32bd
000001c0: 8658 5aba 4f63 793c 4e59 b7bc 6466 fc3c
000001d0: b386 893d 25e0 6fbd a13f 583d 47af 7f3c
000001e0: 0ecb 6e3d 47ee 91bd 4e12 863d b7d3 3bbb
000001f0: ef87 913d 580e 3fbd 15b6 053c eb3b afbb
00000200: c250 333d 7621 a83c 7b6b 893d cda2 9a3b
00000210: 97a0 01bd 7490 0ebc 71a6 8e3d 38ba 463d
00000220: eb0d d7bc 0fd3 943d 57be 643d 711b 913c
00000230: 180e 843d 2564 9e3c e093 76bb 4644 26bd
00000240: fd70 673c fb02 be3d b8b7 2c3d 2c57 81bd
00000250: ad07 ab3b b700 093d cf8e 36bd c6e8 38bc
00000260: d135 7e3d ca36 863d 3298 a53d 1baf 90bc
00000270: 2488 dbbc 1b2c 843d b64a f13c 2a4d b43d
00000280: 49f9 1d3d af6f c0bc 55c7 313d f97f 1c3d
00000290: fd11 05bc 1468 ab3d 3767 173d e4d6 5ebb
000002a0: 1e9b 3abd 3230 1e3d 12c0 89bd dae4 563d
000002b0: 48f2 bd3b dabf 413c 682b d53c 319d b63d
000002c0: 0b02 56bc 2c6d 6fbc ffb6 013d fd4b eabc
000002d0: 84bf 043c 910f 4d3d c86d cbbc 2726 973d
000002e0: a40d 73bc bc58 823d 6fab a43d 3a61 c13c
000002f0: bd2f 26bb e5c0 323d 32c8 8f3b 8f7a a8bc
00000300: 4ab0 af3d ae83 9e3c 4134 573d e8f0 9d3a
00000310: 794d 123c f296 483c ee7d 053d 33d4 4f3d
00000320: 31a0 953d 43e1 d83c e91e 04bd a1e0 bf3d
00000330: 1973 8d3d 6daf 4a3d 36e3 1f3d 49c2 5cbc
00000340: 5a37 05bd a1cb db3c fdbb 6ebc 0a4d 063d
00000350: 6dad 60bd c716 8ebc 0447 cfbc 37c8 223d
00000360: eedf 8e3d b708 c0bc d800 96bc 8e50 103c
00000370: 934c 9d3c 5ca3 bbbc 0e94 253d 3bc3 c0bc
00000380: 55ec d93c 9574 563c 4818 853d 4be4 84bd
00000390: 43de 583d 362a 863c 2bbf 413d fe85 433d
000003a0: a42f a43c ba9a 923c cccc 6a3c b54b 713d
000003b0: 08ca e8bc bd50 9d3d 46a0 fb3c 8785 9c3d
000003c0: 13d6 0c3d 6c6f 173d 00ec a6bc b1bf 95bb
000003d0: 0753 9cbc 5b36 2d3d 179c 223a e7e8 a03c
000003e0: cc27 493d 4b1d e53c cd33 563c f144 febc
000003f0: ffc5 683d bdaa 12bd 8b38 08bd 9306 4c3c

t_conv1.bias f4 [128]
0.07401005 -0.00084361894 0.05917897 0.021491028 -0.02035576 -0.017170003 -0.017558044 0.04603866
0.02874679 0.08735373 0.03971966 0.014084064 0.0030122572 0.06899157 -0.02480705 0.09515022
0.027261099 0.039959315 0.067580074 -0.035724156 0.07194767 0.07143611 0.090090826 0.048399188
-0.009361043 -0.02009194 0.038589407 0.038730495 0.07598535 0.07724939 -0.006191825 0.070767894
0.026543923 -0.031258773 0.014600534 -0.0048177848 -0.0025306165 -0.012256435 -0.04410264 -0.015434339
0.08272995 -0.02523488 0.019428017 -0.016051896 0.079187445 0.036559176 0.0039670854 -0.01398725
-0.004158009 -0.0024572404 -0.008963709 -0.007490094 0.004496021 -0.014069656 -0.037354775 0.042765614
0.018586256 -0.028673466 -0.011818732 -0.0069330446 0.046755098 -0.026982844 0.021892702 0.062868156
-0.029683702 0.043881632 0.050522275 0.06810094 0.05627681 0.009570035 0.09642816 -0.0154649345
0.03383239 0.028484227 -0.020731935 0.061970256 0.048491962 0.07300244 0.046597447 -0.028201168
0.027104534 0.023083825 0.05218078 0.056394663 0.029471673 0.04576367 0.07923975 0.049306273
0.082782365 0.08089025 -0.022812232 -0.014896534 -0.016634414 -0.02085324 0.05292405 0.04049345
0.03364545 0.020637052 -0.023336435 -0.025858996 0.04355136 0.04066936 0.04889689 0.028103426
0.051184915 0.039020207 0.008566407 0.07455842 0.025598634 0.021065162 -0.009223416 0.0666805
0.085186526 0.024701895 -0.016736532 -0.0351269 -0.021724124 0.023745505 0.070666745 -0.0040023336
-0.009495863 -0.0024805244 0.040409144 0.05917546 -0.013329201 -0.006898681 0.046726115 0.0783912
00000000: 9592 973d 4f26 5dba a665 723d f40d b03c
00000010: 1fc1 a6bc 1ba8 8cbc e3d5 8fbc 0993 3c3d
00000020: 637e eb3c 83e6 b23d 15b1 223d d9c0 663c
00000030: 4a69 453b 744b 8d3d 2838 cbbc 1ede c23d
00000040: ab52 df3c 61ac 233d 6c67 8a3d 7e53 12bd
00000050: 4d59 933d 184d 923d 8a81 b83d 3a3e 463d
00000060: 0f5f 19bc da97 a4bc ed0f 1e3d dea3 1e3d
00000070: 359e 9b3d ee34 9e3d cbe4 cabb c2ee 903d
00000080: a472 d93c 3309 00bd 1437 6f3c 82de 9dbb
00000090: b3d8 25bb 37cf 48bc f8a4 34bd 4fe0 7cbc
000000a0: 526e a93d 61b9 cebc 8127 9f3c 447f 83bc
000000b0: 072d a23d 13bf 153d 53fe 813b c72a 65bc
000000c0: e83f 88bb a709 21bb 85dc 12bc 766f f5bb
000000d0: 5c53 933b 6a84 66bc 5201 19bd ff2a 2f3d
000000e0: 3442 983c 9ee4 eabc 5ba3 41bc 982e e3bb
000000f0: 4682 3f3d 200b ddbc 5358 b33c 05c1 803d
00000100: 3c2b f3bc 3abd 333d 72f0 4e3d 8178 8b3d
00000110: 8382 663d a3cb 1c3c 217c c53d a360 7dbc
00000120: d593 0a3d c157 e93c 05d6 a9bc 86d4 7d3d
00000130: 829f 463d 4e82 953d f7dc 3e3d 2306 e7bc
00000140: 540a de3c 4a1a bd3c 83bb 553d 17fe 663d
00000150: 946e f13c b072 3b3d 7348 a23d 60f5 493d
00000160: cd89 a93d caa9 a53d b8e0 babc 9810 74bc
00000170: e544 88bc 6ad4 aabc e3c6 583d 76dc 253d
00000180: d0cf 093d 090f a93c 0d2c bfbc 3fd6 d3bc
00000190: e962 323d ea94 263d 1b48 483d 2839 e63c
000001a0: 46a7 513d a7d3 1f3d 1d5a 0c3c 16b2 983d
000001b0: 3ab4 d13c d990 ac3c d01d 17bc c98f 883d
000001c0: 4676 ae3d a15b ca3c 0d1b 89bc 39e1 0fbd
000001d0: caf6 b1bc ef85 c23c bab9 903d 0226 83bb
000001e0: 8994 1bbc 4b90 22bb 0f84 253d f861 723d
000001f0: b962 5abc 550e e2bb e263 3f3d 918b a03d

t_conv2.weight f4 [128, 64, 2]
0.0952003 -0.03273352 0.025090437 -0.03324991 0.015866732 0.03546123 0.029210301 -0.09078397
0.12811792 0.027021205 0.020061333 0.11930691 -0.02733595 0.014478223 0.038126033 0.105989836
0.067672625 0.011790346 0.039096914 0.029222175 -0.02103365 -0.028329432 0.12308601 -0.050485965
0.08698814 -0.098824136 -0.027922003 -0.031533554 0.04949523 0.0034490072 -0.0724004 -0.038283624
0.06902098 0.124596186 -0.015237761 0.05509763 -0.016381647 0.07606576 0.013239086 -0.097797886
0.09810977 0.102764085 0.11601234 -0.02214959 -0.03761262 0.064176396 -0.04770978 -0.109428786
-0.027033536 0.011392187 0.0075697186 0.042262338 0.008481254 0.013837851 -0.006343174 -0.06819958
-0.057774726 0.03239449 -0.06994645 -0.0384492 -0.02556162 0.05092643 0.085465685 -0.06820281
0.012889972 -0.080763005 0.048215333 -0.0049029305 0.07743408 0.02578914 0.050341923 -0.022571128
0.052385796 0.0035299435 0.07263643 0.02682105 0.02833792 0.031829353 -0.07195618 0.033561386
-0.113373704 -0.028097942 -0.01829059 0.108337395 -0.039743196 -0.021786945 0.037351437 -0.027577873
0.008223722 -0.0027734262 0.035866953 0.089305766 0.06381092 0.032895792 -0.016732328 0.012662316
0.03291893 0.06081752 0.092190064 0.0015443582 0.068300776 -0.08477758 0.06094869 -0.054978848
-0.03015274 0.0911215 0.08064033 -0.019000337 0.038363468 -0.049157377 -0.08473337 0.04014798
-0.03426142 0.049261555 0.010878574 0.013932584 0.0421459 -0.061784875 0.064102046 0.07934062
-0.004465083 0.046591084 -0.03882805 0.11929489 0.077270076 0.117239654 0.05678093 0.019693486
0.09850874 0.001643232 0.038489178 -0.09371502 0.045326713 -0.019431772 -0.018845456 0.039993007
0.024518354 -0.0058234707 -0.01172373 0.1208632 0.05282807 0.120870486 -0.06963478 -0.03931825
0.05253417 -0.027612785 -0.10763328 0.05078098 0.0025344144 -0.0546834 0.08979515 0.016269162
0.099704266 -0.037916858 -0.00425044 0.113236085 -0.07647357 0.010847623 -0.06399928 -0.053340565
-0.065020606 0.118726045 -0.08133211 0.10019528 -0.086314574 0.11364383 -0.08356068 -0.07850809
0.07886482 0.07507076 0.09646574 -0.07064047 0.049011078 0.098309234 -0.03010451 -0.040485933
0.0387289 -0.02609243 0.011175636 0.057366006 -0.012008441 -0.01396545 0.070211105 0.08637835
-0.08926108 0.05187447 -0.08972408 0.060882397 0.0063681426 -0.011376421 0.08046398 -0.06990206
0.042447835 -0.029315379 0.020219965 0.091638036 0.013269949 0.06636887 0.08611154 0.011772117
-0.11095438 -0.05601197 0.025284903 -0.07504664 -0.04027671 0.057191048 0.026546076 0.051343404
-0.07042388 0.0167327 0.04927505 -0.022465074 0.035347342 -0.012551824 -0.013729557 0.0069656554
0.030440183 0.035259202 -0.01633373 0.052828062 0.017966015 0.013855587 0.12074199 -0.009146533
-0.10367415 -0.06613892 0.040918685 0.110806085 -0.08441236 -0.02666943 -0.011768543 0.050275065
-0.013794515 0.033348255 -0.04040827 -0.060729653 0.0130745815 0.011194056 -0.074392155 0.0013849551
-0.028324932 -0.08548899 -0.017124072 0.07556709 -0.023542205 -0.06461801 0.09640602 -0.033693347
-0.010588495 -0.020220611 -0.088007316 0.12318312 -0.09616202 0.0022514006 0.018571641 -0.025910493
00000000: 60f8 c23d 9513 06bd 768a cd3c 0f31 08bd
00000010: f3fa 813c cb3f 113d 714a ef3c f2ec b9bd
00000020: 5831 033e 935b dd3c aa57 a43c 2e57 f43d
00000030: a4ef dfbc 1236 6d3c 0b2a 1c3d 3311 d93d
00000040: f297 8a3d 4c2c 413c 1624 203d 5863 ef3c
00000050: c34e acbc 2013 e8bc 8514 fc3d 5fca 4ebd
00000060: d726 b23d 4f64 cabd afbc e4bc 5429 01bd
00000070: 83bb 4a3d bd08 623b a946 94bd 4acf 1cbd
00000080: df5a 8d3d 492c ff3d cda7 79bc 0dae 613d
00000090: ce32 86bc 5dc8 9b3d c0e8 583c 424a c8bd
000000a0: c6ed c83d fa75 d23d e197 ed3d 0f73 b5bc
000000b0: b10f 1abd ea6e 833d 556b 43bd 331c e0bd
000000c0: 6f75 ddbc 4ca6 3a3c 670b f83b 461b 2d3d
000000d0: f5f4 0a3c 27b8 623c 66da cfbb 39ac 8bbd
000000e0: 31a5 6cbd 16b0 043d 1640 8fbd e97c 1dbd
000000f0: 9a66 d1bc 3b98 503d a208 af3d eaad 8bbd
00000100: 7630 533c 1367 a5bd 717d 453d c3a8 a0bb
00000110: c295 9e3d bf43 d33c 5533 4e3d 16e7 b8bc
00000120: 7d92 563d a056 673b 69c2 943d d2b7 db3c
00000130: ed24 e83c 7f5f 023d c35d 93bd aa77 093d
00000140: 7930 e8bd a82d e6bc 26d6 95bc ffdf dd3d
00000150: c3c9 22bd 897a b2bc d2fd 183d feea e1bc
00000160: cabc 063c 5fc2 35bb 3ae9 123d f1e5 b63d
00000170: 4daf 823d bdbd 063d 3c12 89bc 9a75 4f3c
00000180: 00d6 063d cb1b 793d 25ce bc3d 106c ca3a
00000190: 47e1 8b3d de9f adbd 55a5 793d 8031 61bd
000001a0: e102 f7bc e99d ba3d c226 a53d 98a6 9bbc
000001b0: 0323 1d3d 3f59 49bd b088 adbd 3572 243d
000001c0: b455 0cbd 7cc6 493d 0c3c 323c 7e45 643c
000001d0: 2ea1 2c3d 2312 7dbd ef47 833d 567d a23d
000001e0: d54f 92bb 4bd6 3e3d 290a 1fbd e150 f43d
000001f0: c63f 9e3d 581b f03d 1f93 683d 3c54 a13c
00000200: f3be c93d b761 d73a d4a6 1d3d a9ed bfbd
00000210: 81a8 393d 612f 9fbc c961 9abc b5cf 233d
00000220: b7da c83c d0d2 bebb e314 40bc 2087 f73d
00000230: 3f62 583d f28a f73d ae9c 8ebd 2c0c 21bd
00000240: 122e 573d 3534 e2bc d66e dcbd b8ff 4f3d
00000250: 6b18 263b b3fb 5fbd 85e6 b73d e846 853c
00000260: c031 cc3d b54e 1bbd 4647 8bbb 52e8 e73d
00000270: 2d9e 9cbd 3bba 313c 0e12 83bd a37b 5abd
00000280: 8629 85bd a426 f33d 7391 a6bd 2f33 cd3d
00000290: b2c5 b0bd 19be e83d dd21 abbd d9c8 a0bd
000002a0: e183 a13d b3be 993d d48f c53d f3ab 90bd
000002b0: d7bf 483d 5a56 c93d bc9d f6bc 94d4 25bd
000002c0: 32a2 1e3d cbbf d5bc 041a 373c 9ef8 6a3d
000002d0: 0dbf 44bc 58cf 64bc d7ca 8f3d 22e7 b03d
000002e0: 83ce b6bd 537a 543d 42c1 b7bd d25f 793d
000002f0: daab d03b 2b64 3abc 4dca a43d d028 8fbd
00000300: c8dd 2d3d ce26 f0bc 57a4 a53c b9ac bb3d
00000310: 336a 593c 67ec 873d 3f5b b03d d6df 403c
00000320: 0d3c e3bd cf6c 65bd 4922 cf3c 0eb2 99bd
00000330: 31f9 24bd 2941 6a3d 2877 d93c 764d 523d
00000340: 653a 90bd 0413 893c a3d4 493d ad08 b8bc
00000350: 60c8 103d 2aa6 4dbc f0f1 60bc 2740 e43b
00000360: b15d f93c f46b 103d 51ce 85bc 3d62 583d
00000370: 772d 933c 8b02 633c 9447 f73d 57db 15bc
00000380: 1d53 d4bd d873 87bd 5a9a 273d 4dee e23d
00000390: 63e0 acbd d979 dabc d9d0 40bc 3aed 4d3d
000003a0: 6402 62bc 2e98 083d 2483 25bd a8bf 78bd
000003b0: c536 563c 4667 373c ea5a 98bd 6287 b53a
000003c0: b009 e8bc da14 afbd c847 8cbc ebc2 9a3d
000003d0: 95db c0bc 7256 84bd 8570 c53d 0902 0abd
000003e0: 5e7b 2dbc b2a5 a5bc 2e3d b4bd 6e47 fc3d
000003f0: 98f0 c4bd 3c8c 133b 8e23 983c 3e42 d4bc

t_conv2.bias f4 [64]
-0.057540473 -0.0379621 0.09797481 -0.0076744854 -0.066889584 -0.04871276 0.0047301636 0.061305806
0.018187935 0.1016386 0.012835449 0.10893241 0.0801454 0.043820348 -0.03608376 -0.020975785
0.041019864 -0.004067452 -0.030321935 -0.014138409 -0.041001655 -0.04572883 0.039227404 0.10512359
0.046093993 0.06452046 -0.05014142 0.05796015 0.0045546493 0.072604686 0.044227343 0.029419003
-0.014145968 0.07609114 0.114877746 0.06285218 -0.03636466 -0.028238475 0.05520351 0.039546013
-0.009608223 0.03703467 0.09348617 -0.06567025 0.09034323 0.09668391 -0.018720673 -0.045296025
0.034243736 -0.04290404 0.029018346 0.03140077 0.09610302 0.021031937 0.066690356 -0.027630934
0.019179897 0.04581116 0.04551687 0.02261831 0.06785333 0.021840997 0.004007728 0.04422661
00000000: 8faf 6bbd 267e 1bbd 04a7 c83d 407a fbbb
00000010: 68fd 88bd 0887 47bd 7dff 9a3b cc1b 7b3d
00000020: ddfe 943c e627 d03d c64b 523c f517 df3d
00000030: 4523 a43d f77c 333d 91cc 13bd 69d5 abbc
00000040: 7204 283d 4348 85bb b565 f8bc c9a4 67bc
00000050: 5af1 27bd 274e 3bbd eaac 203d 094b d73d
00000060: 0ecd 3c3d 4e23 843d 1761 4dbd 9f67 6d3d
00000070: 2b3f 953b c4b1 943d bb27 353d 1f00 f13c
00000080: 7dc4 67bc acd5 9b3d 0645 eb3d a5b8 803d
00000090: 1cf3 14bd 6054 e7bc 131d 623d 00fb 213d
000000a0: cf6b 1dbc abb1 173d ad75 bf3d 207e 86bd
000000b0: df05 b93d 3702 c63d 195c 99bc 5388 39bd
000000c0: 2943 0c3d 26bc 2fbd e2b7 ed3c 189e 003d
000000d0: a9d1 c43d 2b4b ac3c f494 883d 455a e2bc
000000e0: 291f 9d3c 7ca4 3b3d e66f 3a3d 094a b93c
000000f0: b0f6 8a3d e4eb b23c 4253 833b f626 353d

conv_out.weight f4 [1, 64, 3]
0.029871836 -0.101895265 -0.02340801 -0.03611527 -0.10757823 -0.04975305 0.02585855 -0.0052415323
0.10988649 0.040760405 -0.110856235 0.0695242 0.0892796 -0.10760721 -0.06605438 -0.09180345
0.103644915 -0.09080095 0.09854821 0.10060641 0.005833472 -0.06981834 -0.012013244 -0.08154087
-0.08986829 -0.09123152 -0.021470133 0.019089205 0.091123864 -0.036975462 0.0016677725 -0.06167749
0.0994851 -0.021618832 -0.095278606 -0.10377365 0.10673177 0.0141259255 0.10733211 -0.0015404209
0.041424457 -0.11873277 -0.05067284 0.09342256 -0.08563719 -0.09290019 0.029153455 0.046978608
-0.10165894 0.068872854 -0.115160525 -0.014915835 0.115310244 0.05199211 0.04864963 0.09834148
-0.09404268 0.09455226 0.007608403 0.06007726 0.06417416 0.10960127 -0.09937996 0.11256253
-0.07833349 -0.01926734 0.065269634 0.09232296 0.08341111 0.105261914 -0.025078999 0.10048885
0.0011067705 0.051128935 0.07386027 0.019949362 0.087014765 -0.02395865 -0.120583735 0.05624687
0.10682474 0.091277845 -0.048615254 -0.06629488 -0.015457018 0.08306473 0.07252615 -0.035598725
0.107777275 0.06807517 0.07747224 -0.08807346 0.09686675 0.06895576 -0.078798585 0.06394238
-0.0342047 -0.1043997 0.07197359 -0.07666468 -0.05506002 -0.09136544 0.06739103 -0.10261918
-0.057339437 0.0885108 -0.026930453 -0.047272652 -0.08688827 0.027610036 -0.018940015 -0.07960608
-0.055353023 -0.012755774 -0.05889649 -0.024076076 -0.065982096 0.09243554 0.09450016 -0.025559722
0.0028756072 0.039721332 0.057763685 -0.060951535 -0.088889 -0.10378965 -0.106866434 -0.04422752
-0.039085265 -0.08573943 0.059841774 -0.07139383 0.09334373 0.10595729 -0.10643341 -0.0727356
-0.07669266 -0.095741846 -0.10541427 0.11356784 -0.025473617 0.056829944 -0.1003658 -0.05448229
-0.109867565 0.012422471 -0.08967529 -0.06887113 -0.05573649 -0.09364556 0.07479252 -0.052826338
0.10582879 -0.09395222 -0.087783895 0.07268799 -0.04850361 -0.10694348 0.024293289 0.09535767
0.006303396 0.06478037 -0.028063012 -0.10574445 0.026912142 -0.072136715 0.084176235 0.028339537
-0.029198041 0.021083679 0.10462556 -0.08304582 0.04990555 -0.02541349 0.10455789 -0.106775306
-0.020235687 0.004364033 -0.10035625 -0.09520001 -0.10970098 -0.063787684 0.016099023 0.07450407
0.09988482 -0.09399873 0.03910748 0.119115 -0.059210602 0.08342949 -0.11309239 0.07710803
00000000: c8b5 f43c 77ae d0bd 28c2 bfbc 9bed 13bd
00000010: fa51 dcbd dbc9 4bbd 4fd5 d33c 29c1 abbb
00000020: 2b0c e13d 62f4 263d 9808 e3bd b462 8e3d
00000030: 39d8 b63d 2b61 dcbd 8547 87bd 7203 bcbd
00000040: c943 d43d d9f5 b9bd a5d3 c93d bc0a ce3d
00000050: b626 bf3b ebfc 8ebd 33d3 44bc e6fe a6bd
00000060: de0c b8bd 97d7 babd 22e2 afbc f760 9c3c
00000070: 269f ba3d 9573 17bd 2999 da3a 89a1 7cbd
00000080: d8be cb3d fa19 b1bc 6e21 c3bd 4887 d4bd
00000090: 3096 da3d 6d70 673c f0d0 db3d f3e7 c9ba
000000a0: b1ac 293d 2b2a f3bd 538e 4fbd 5454 bf3d
000000b0: 8d62 afbd 7442 bebd 3ad3 ee3c a46c 403d
000000c0: 9032 d0bd 360d 8d3d 48d9 ebbd 8c61 74bc
000000d0: c727 ec3d aef5 543d d644 473d 4267 c93d
000000e0: 7399 c0bd 9ea4 c13d e94f f93b 9313 763d
000000f0: be6d 833d a176 e03d b887 cbbd 2f87 e63d
00000100: 4f6d a0bd 8ad6 9dbc 16ac 853d d213 bd3d
00000110: 72d3 aa3d 8f93 d73d 7972 cdbc 19cd cd3d
00000120: 0e11 913a 936c 513d 0e44 973d d86c a33c
00000130: cc34 b23d ee44 c4bc 9bf4 f6bd 1e63 663d
00000140: eec6 da3d e1ef ba3d ca20 47bd 9cc5 87bd
00000150: 6f3f 7dbc d71d aa3d 9788 943d f8cf 11bd
00000160: 55ba dc3d ff6a 8b3d c4a9 9e3d dc5f b4bd
00000170: 1362 c63d ad38 8d3d 2761 a1bd 39f4 823d
00000180: 3a1a 0cbd 83cf d5bd e466 933d 5f02 9dbd
00000190: 9e86 61bd ce1d bbbd 4f04 8a3d 012a d2bd
000001a0: c2dc 6abd 2645 b53d 419d dcbc f8a0 41bd
000001b0: 7af2 b1bd 712e e23c 1728 9bbc 8308 a3bd
000001c0: dab9 62bd 98fd 50bc 723d 71bd 313b c5bc
000001d0: 9f21 87bd d84e bd3d 4d89 c13d 9f62 d1bc
000001e0: af74 3c3b d6b2 223d 9d99 6c3d 51a8 79bd
000001f0: 700b b6bd ab8f d4bd cadc dabd ea27 35bd
00000200: df17 20bd 2798 afbd a61c 753d ee36 92bd
00000210: ff2a bf3d 2300 d93d c2f9 d9bd 67f6 94bd
00000220: 0b11 9dbd 4d14 c4bd 70e3 d7bd 4196 e83d
00000230: 0cae d0bc 84c6 683d 968c cdbd d228 5fbd
00000240: 3f02 e1bd 9f87 4b3c aea7 b7bd 4f0c 8dbd
00000250: f24b 64bd 3ec9 bfbd d22c 993d 6e60 58bd
00000260: c4bc d83d 066a c0bd 0bc8 b3bd 71dd 943d
00000270: b9ab 46bd 2f05 dbbd b802 c73c e24a c33d
00000280: b88c ce3b 92ab 843d 67e4 e5bc 8c90 d8bd
00000290: da76 dc3c 6abc 93bd 9764 ac3d 5128 e83c
000002a0: bb30 efbc aeb7 ac3c ed45 d63d ed13 aabd
000002b0: c369 4c3d f42f d0bc 7222 d63d 03ad dabd
000002c0: 50c5 a5bc 2a00 8f3b 9487 cdbd 39f8 c2bd
000002d0: e8aa e0bd 1ea3 82bd 19e2 833c 9795 983d
000002e0: 6a90 cc3d 6882 c0bd 2a2f 203d 91f2 f33d
000002f0: d186 72bd 15dd aa3d fc9c e7bd d1ea 9d3d
