pths/denoiser_model_4.pth (torch, 166322 bytes, 17 tensors)

conv1.weight f4 [32, 1, 3]
0	0xbec66b94	-0.3875395
1	0x3ea2c6b2	0.31792217
2	0xbede5b9e	-0.43429273
3	0xbe1d2f91	-0.15350176
4	0x3ddc800e	0.10766612
5	0xbede548d	-0.43423882
6	0x3c0b2a83	0.008494022
7	0xbe802ec6	-0.25035685
8	0x3e2bf4e5	0.16792639
9	0x3f115a3b	0.56778306
10	0xbebb2d2b	-0.36557898
11	0xbed347c0	-0.41265678
12	0x3e8fef45	0.28112236
13	0xbef6e275	-0.48219648
14	0x3e872670	0.26396513
15	0x3e1b52ab	0.15168254
16	0x3f102336	0.5630373
17	0x3f036d96	0.5133909
18	0xbbbb216b	-0.005710771
19	0xbef4a08f	-0.47778746
20	0x3f13c447	0.5772137
21	0x3f09f6fb	0.5389249
22	0xbe1cda44	-0.15317637
23	0x3d19c2ff	0.03753948
24	0xb9857814	-0.00025457202
25	0xbed9bd53	-0.42527255
26	0xbe89d2ea	-0.26918727
27	0x3edff040	0.43737984
28	0x3d90c580	0.0706892
29	0xbecafb80	-0.39645004
30	0xbea8327f	-0.32851025
31	0xbead2b7b	-0.33822235
32	0x3e856316	0.2605216
33	0x3e2b6578	0.16737926
34	0x3efd92c4	0.49526036
35	0x3e8068fc	0.25080097
36	0xbeec54c2	-0.46158415
37	0xbe254de1	-0.1614299
38	0xbeaa622b	-0.3327802
39	0xbda7938a	-0.08182438
40	0x3f1938dc	0.59852386
41	0x3ef71dec	0.48265016
42	0x3b859886	0.00407702
43	0x3e32c2b3	0.17457084
44	0xbd84226c	-0.06451878
45	0x3f0bd9eb	0.5462939
46	0x3e3a16fd	0.18172832
47	0xbeeccbf1	-0.46249345
48	0xbec957bd	-0.39324751
49	0xbe70107c	-0.23443788
50	0x3e5145ed	0.20436831
51	0xbed288f8	-0.41120124
52	0x3b458c97	0.0030143613
53	0xbee267ff	-0.44219968
54	0xbed0a606	-0.40751666
55	0xbdd5375a	-0.10410948
56	0xbe9346df	-0.28765008
57	0x3e5c7b7d	0.21531482
58	0x3e36fb3a	0.17869273
59	0x3dc3a659	0.09553213
60	0xbe0a587f	-0.13510321
61	0x3e75ccb2	0.24003866
62	0x3ef364d7	0.47537872
63	0x3e3ff3fa	0.18745413
64	0x3d8d3b84	0.06896117
65	0xbf04d0f1	-0.5188132
66	0x3cc143af	0.023591844
67	0x3ecfe20c	0.40602148
68	0xbe8dd708	-0.27703118
69	0x3e7c40c0	0.24634075
70	0x3edc9acf	0.4308686
71	0xbef21367	-0.47280428
72	0x3dfa2985	0.122149505
73	0x3e8875d4	0.26652396
74	0xbd0b3100	-0.033982277
75	0x3ea26df6	0.3172452
76	0xbf02bbd2	-0.5106784
77	0xbe56cfb9	-0.20977677
78	0x3ea69ee9	0.32543114
79	0x3d8c1b9b	0.06841203
80	0xbbece5d5	-0.0072295466
81	0xbe811342	-0.25210005
82	0x3eba793e	0.36420625
83	0x3cc49c7a	0.024000395
84	0x3db12b54	0.08650842
85	0x3d20de1e	0.039274327
86	0x3f0ec085	0.5576251
87	0xbed46c1e	-0.41488737
88	0xbf099f0a	-0.537583
89	0x3ebaa734	0.3645569
90	0xbe9b91e5	-0.30384746
91	0x3eb02680	0.34404373
92	0x3ef1a55a	0.47196466
93	0x3ee7bb45	0.45260063
94	0x3e8525d4	0.26005423
95	0x3dce957d	0.100871064

conv1.bias f4 [32]
0	0x3e4f1162	0.20221475
1	0xbe77926a	-0.24176946
2	0x3e9cfe76	0.30662888
3	0xbf106318	-0.56401205
4	0xbe878750	-0.26470423
5	0x3f0502f4	0.5195763
6	0x3ec13f47	0.3774359
7	0x3cb5bfc9	0.022186177
8	0xbecacfa5	-0.39611545
9	0xbe8d9a2b	-0.27656683
10	0xbed1a22a	-0.40944034
11	0x3e7dd9d2	0.24790123
12	0x3e3244e6	0.17409095
13	0x3f081df4	0.53170705
14	0xbdfc5d42	-0.12322475
15	0x3f066935	0.52504283
16	0x3e8e8159	0.2783306
17	0x3e30d18e	0.17267439
18	0x3ecaf597	0.39640495
19	0xbde40039	-0.11132855
20	0xbea9a0a7	-0.3313038
21	0x3f127a3f	0.5721778
22	0x3dcb1376	0.09915821
23	0xbe0255d2	-0.1272805
24	0x3e812027	0.25219843
25	0x3ec8e2a0	0.392354
26	0xbed4ab06	-0.4153673
27	0xbed4c3c2	-0.415556
28	0x3e7390c2	0.2378569
29	0x3ec4d548	0.3844397
30	0xbec419ff	-0.38301083
31	0xbd110d26	-0.03541293

bn1.weight f4 [32]
0	0x3f7c22fd	0.9849089
1	0x3f7628e2	0.9615613
2	0x3f6c3cf2	0.92280495
3	0x3f837ada	1.0271866
4	0x3f80e5d5	1.0070139
5	0x3f7b32bd	0.98124295
6	0x3f7bb1b7	0.98318046
7	0x3f86695b	1.0500902
8	0x3f7d7339	0.9900394
9	0x3f78cec7	0.9719052
10	0x3f7fafba	0.9987751
11	0x3f7a8d0f	0.9787149
12	0x3f7a7144	0.9782908
13	0x3f7b82df	0.9824657
14	0x3f859537	1.0436162
15	0x3f84c8b0	1.0373745
16	0x3f804b19	1.0022918
17	0x3f7061d6	0.93899286
18	0x3f75f807	0.96081585
19	0x3f7cd782	0.9876634
20	0x3f81441c	1.009891
21	0x3f7ddf18	0.9916854
22	0x3f89faf6	1.0779712
23	0x3f7ab58b	0.9793326
24	0x3f795ccb	0.97407216
25	0x3f81a39b	1.0128053
26	0x3f7af294	0.98026395
27	0x3f88758f	1.0660876
28	0x3f7cce8e	0.9875268
29	0x3f7ac7b4	0.9796097
30	0x3f81b2d3	1.0132698
31	0x3f802353	1.001078

bn1.bias f4 [32]
0	0x3cca2be9	0.024679141
1	0x3d4c4b7e	0.049876682
2	0xbb557e6b	-0.0032576572
3	0x3d46e3b2	0.04855699
4	0x3d6c2625	0.057653565
5	0x3c752e1a	0.014964605
6	0x3cfffc0a	0.031248111
7	0x3d15576f	0.036460336
8	0x3daefe3e	0.085445866
9	0x3d3f4d99	0.046704862
10	0x3d7d0094	0.06176813
11	0xbbd97638	-0.006636407
12	0x3d89ad59	0.067225166
13	0x3cd959e8	0.026532128
14	0x3d19adc7	0.037519243
15	0x3daba860	0.08381724
16	0x3d23ce91	0.03999192
17	0xbd3886ae	-0.045050316
18	0x3b0a4b08	0.002110185
19	0xbd356909	-0.044289622
20	0x3cb23dbf	0.021757958
21	0x3d0198b7	0.03163978
22	0x3d86e79e	0.06587146
23	0x3d433fb0	0.04766816
24	0xbd18b43f	-0.03728127
25	0x3daf1895	0.085496105
26	0xbc28fe14	-0.010314483
27	0x3ddb970d	0.1072217
28	0x3d1b039d	0.037845243
29	0x3dc2fa16	0.09520356
30	0x3b9307ef	0.0044870297
31	0x3cc8797d	0.024471993

bn1.running_mean f4 [32]
0	0x3e2d9b65	0.1695381
1	0xbe8b60a6	-0.27222174
2	0x3e99cdee	0.30039924
3	0xbf13265b	-0.574804
4	0xbe860b92	-0.26180702
5	0x3f19e5c0	0.60116196
6	0x3ec27590	0.37980318
7	0x3d547994	0.05187376
8	0xbee28e0e	-0.44249004
9	0xbe880b0a	-0.26570922
10	0xbee13f22	-0.4399348
11	0x3e9e921a	0.30970842
12	0x3de05235	0.1095318
13	0x3f190077	0.59766334
14	0xbdeba975	-0.11506931
15	0x3f0bf32c	0.54667926
16	0x3e7d0e35	0.24712451
17	0x3dedfe40	0.1162076
18	0x3eaf70c8	0.34265733
19	0xbd9f7cc5	-0.0778747
20	0xbe96d371	-0.29458192
21	0x3f0ec6e6	0.55772245
22	0x3de43ae6	0.111440465
23	0xbde1197e	-0.109911904
24	0x3e8e00fe	0.27735132
25	0x3ebb9172	0.36634403
26	0xbec6cbe4	-0.3882743
27	0xbed047fb	-0.40679917
28	0x3e9024c7	0.2815306
29	0x3eae8a8e	0.34090084
30	0xbeb3eb3f	-0.35140416
31	0x3ca94ec8	0.020667449

bn1.running_var f4 [32]
0	0x3ed4a97e	0.41535562
1	0x3e7da82b	0.24771182
2	0x3da7f3c5	0.08200792
3	0x3f20c19a	0.6279541
4	0x3ea252b8	0.31703734
5	0x3f7a1ae2	0.9769727
6	0x3eff199b	0.49824223
7	0x3ea51d99	0.32249144
8	0x3ec0b2d5	0.37636438
9	0x3eb8915c	0.360484
10	0x3ea9d24e	0.33168262
11	0x3f0b79ef	0.5448293
12	0x3f0ae221	0.54251295
13	0x3f5a1350	0.8518572
14	0x3d0ef1a2	0.034898408
15	0x3f113d34	0.56734014
16	0x3e98548f	0.29752013
17	0x3efa01c9	0.48829487
18	0x3ec6956a	0.3878587
19	0x3e13ca21	0.14432575
20	0x3ec62e2c	0.387071
21	0x3ea33f0e	0.31884044
22	0x3e6534f8	0.22383487
23	0x3eeb47e8	0.45953298
24	0x3df24e8f	0.1183139
25	0x3edb4ed3	0.42833576
26	0x3e11e0a8	0.14245856
27	0x3e3a234b	0.18177526
28	0x3ed0fcc1	0.40817836
29	0x3f2c4745	0.6729625
30	0x3f00491b	0.5011155
31	0x3edf971f	0.43669984

conv2.weight f4 [64, 32, 3]
0	0x3d4e02fd	0.05029582
1	0x3cf74fc8	0.03018941
2	0x3de56fb7	0.112029485
3	0xbdba104c	-0.0908514
4	0x3d8e8d2c	0.0696052
5	0x3cad4160	0.021149337
6	0xbd7e81b0	-0.0621354
7	0xbd0c6159	-0.034272525
8	0xbd45a6ae	-0.04825466
9	0xbd5d67d2	-0.05405409
10	0x3c03ab2b	0.008036415
11	0xbd1d1804	-0.03835298
12	0x3b2e63b8	0.002660973
13	0x3dc25fbc	0.09490916
14	0xbcb2cc83	-0.021826034
15	0x3c750ce1	0.014956684
16	0xbd1e1ed6	-0.038603626
17	0xbd8589ca	-0.06520422
18	0x3c3f13d3	0.011662441
19	0xbdaa9613	-0.08329406
20	0x3c118e07	0.00888396
21	0x3d2fd157	0.04292425
22	0x3d322965	0.04349651
23	0xbdadb2ef	-0.084813945
24	0x3cd5301c	0.026023917
25	0x3c6e1c51	0.014533118
26	0xbaecb619	-0.001805964
27	0x3d4bafec	0.04972832
28	0x3dae66b2	0.08515681
29	0x3d4c5cd8	0.04989323
30	0xbd9b6ce0	-0.07589126
31	0xbdd0e07a	-0.101990655
32	0x3dab6caf	0.08370339
33	0xbd170fdd	-0.036880363
34	0x3cf09a8b	0.029370567
35	0xbdad7720	-0.08469987
36	0xbc8dcab1	-0.017308565
37	0x3d6ddf2b	0.058074158
38	0x3d078e1e	0.033094518
39	0x3d816851	0.06318725
40	0xbd568fce	-0.052383237
41	0x3c8fe8b8	0.017567024
42	0x3c6e1f47	0.014533824
43	0x3d77a5bf	0.060460802
44	0x3dbb646b	0.091500126
45	0xbe01752a	-0.12642351
46	0x3c37b887	0.011213428
47	0x3c787437	0.0151644265
48	0x3cd8ba18	0.026455924
49	0xbd9a95a7	-0.07548075
50	0x3cd6a5d1	0.026202114
51	0xbcf56bbc	-0.029958598
52	0xbd676d83	-0.056500923
53	0xbd0ef674	-0.034903005
54	0x3df3a717	0.11897104
55	0xbdf935fd	-0.121685006
56	0xbb71d3f1	-0.0036900009
57	0x3dce67be	0.10078381
58	0xbc74fef9	-0.014953368
59	0xbc0c98b2	-0.008581327
60	0xbb9d717f	-0.0048047896
61	0xbddb49b0	-0.10707414
62	0xbd441629	-0.047872696
63	0xbcbd7626	-0.023127627
64	0x3d57cafb	0.05268381
65	0xbda385b8	-0.07984489
66	0xbccdddb9	-0.02513014
67	0x3daa149d	0.08304713
68	0xbdde8511	-0.10865224
69	0xbc7d5b7d	-0.015463707
70	0x3de9f900	0.11424446
71	0x3d2852f9	0.041094754
72	0x3cbc44d9	0.022982048
73	0xbd78e9b9	-0.06076977
74	0x3ccbe5ec	0.024889909
75	0x3bd98d1b	0.0066391355
76	0x3c8566a5	0.016284296
77	0x3c0acbb0	0.008471414
78	0x3a8ad08d	0.0010590717
79	0x3d591535	0.05299874
80	0xbcd87a5d	-0.026425535
81	0x3db4a95e	0.08821367
82	0xbdbcccc1	-0.09218741
83	0xbd8ebe10	-0.06969845
84	0x3d4dece9	0.050274763
85	0xbd48fd3c	-0.049069628
86	0x3aeaa89b	0.0017903032
87	0xbd88685e	-0.066605315
88	0x3d5ea52a	0.05435673
89	0xbdad9841	-0.08476306
90	0x3ce98857	0.028507395
91	0xbd1135b3	-0.035451602
92	0xbd720c37	-0.05909368
93	0x3db7ecd9	0.08980722
94	0x3c65ff75	0.0140379565
95	0x3d497f83	0.04919387
96	0x3d47297c	0.048623547
97	0xbcf6a062	-0.030105773
98	0x3d0205b6	0.031743728
99	0x3cf93b6b	0.03042384
100	0x3cbeb498	0.023279473
101	0x3d93a44f	0.07209074
102	0xbd0dff35	-0.034667213
103	0x3d1b2f61	0.03788698
104	0x3d01deb6	0.031706534
105	0x3c0917d7	0.0083675
106	0xbdc02ed0	-0.09383929
107	0x3e00ecda	0.12590352
108	0x3cb11b7d	0.021619553
109	0x3ce9a6a6	0.028521847
110	0xbdb8226d	-0.08990941
111	0x3cdfe52f	0.027330963
112	0x3de3ec86	0.11129098
113	0x3ca73916	0.020412963
114	0xbd817d5f	-0.06322741
115	0x3d40f2b2	0.047106452
116	0x3ccf23d4	0.025285639
117	0x3d680e46	0.056654237
118	0x3db32886	0.087479636
119	0x3c3435cd	0.010999155
120	0x3c984af8	0.018590435
121	0xbd9c0d59	-0.07619733
122	0x3d13a5ae	0.036046676
123	0xbe0d9949	-0.13828005
124	0x3d2e4a4c	0.042551324
125	0x3d82635d	0.06366608
126	0x3ced4832	0.02896509
127	0xbe0d5c2e	-0.13804695
128	0x3cbaf524	0.02282197
129	0xbcb7a15c	-0.02241581
130	0xbcf9290e	-0.030415084
131	0x3d038b19	0.032115076
132	0x3c333ea7	0.01094023
133	0xbdc6e4c6	-0.09711604
134	0xbd64644f	-0.055759724
135	0x3d9aafdc	0.07553074
136	0xbd57c430	-0.052677333
137	0x3d8f2d8c	0.06991109
138	0x3c8ae226	0.01695354
139	0x3d0754e9	0.03303996
140	0xbd2f66d6	-0.04282268
141	0xbc9ae9ea	-0.018910367
142	0x3d9625da	0.07331438
143	0x3d10170a	0.03517822
144	0xbc434e2e	-0.011920495
145	0x3d12a09e	0.035797708
146	0x3c80a366	0.015702914
147	0xbd4a7444	-0.049427286
148	0xbc563d90	-0.013076201
149	0x3d9dced6	0.077054664
150	0x3b1f8ea6	0.00243465
151	0xbd8746a3	-0.0660527
152	0x3b6b4c39	0.0035903587
153	0x3dede72e	0.1161636
154	0x3c93e077	0.01805137
155	0x3d1d64af	0.038426097
156	0x3d765a52	0.06014473
157	0xbcf49fef	-0.029861419
158	0x3d8454b0	0.06461465
159	0xbdd9fa8f	-0.106434934
160	0x3cf4fea2	0.029906575
161	0x3d3e7162	0.04649485
162	0xbe0f084a	-0.13968006
163	0x3cb3e4c4	0.02195967
164	0x3cfbe7d2	0.030750189
165	0xbd7a06e3	-0.061041724
166	0x3e012e5b	0.1261534
167	0xbdb5078d	-0.08839331
168	0xbcd4be4c	-0.025969647
169	0x3da43e9e	0.08019756
170	0xbb4be8a9	-0.0031114018
171	0xbdbbd21a	-0.09170933
172	0x3dc0d154	0.09414926
173	0x3c448462	0.011994453
174	0xbd6836ad	-0.056692768
175	0xbd5e3164	-0.05424632
176	0xbd04f18f	-0.03245693
177	0xbdbc58e1	-0.0919664
178	0x3ddc1750	0.10746634
179	0xbd16109a	-0.036636926
180	0x3dde5e3f	0.1085782
181	0x3db260da	0.08709879
182	0xbdf6f5df	-0.12058615
183	0xbc83e85f	-0.016102014
184	0xbddbbb61	-0.10729099
185	0x3d74022d	0.059572387
186	0xbd8703b7	-0.065925054
187	0xbdc2abbc	-0.09505412
188	0x3d63a780	0.055579662
189	0x3c9ac0d1	0.01889077
190	0xbc0e063c	-0.008668479
191	0xbce0ded7	-0.027450008
192	0xbd54def9	-0.051970456
193	0xbddfb9b5	-0.10924093
194	0xbd1696ef	-0.036765035
195	0xbd97f489	-0.07419688
196	0x3d876323	0.06610706
197	0xbc02b4b8	-0.007977657
198	0xbd9d41bf	-0.07678556
199	0xbd5a7a25	-0.053339142
200	0xbd877e80	-0.06615925
201	0x3d0b59f9	0.03402135
202	0x3b5809e2	0.0032964875
203	0x3d43bc0a	0.04778675
204	0x3de72a55	0.11287371
205	0x3c8de03a	0.017318834
206	0xbd1d2be9	-0.038371954
207	0xbdbd5b82	-0.09245969
208	0x3d2240a8	0.039612442
209	0xbd2c3335	-0.042041022
210	0x3db18b4a	0.086691454
211	0x3d875cbc	0.066094846
212	0x3d5756e2	0.052573092
213	0xbdd2497f	-0.102679245
214	0xbd178467	-0.036991503
215	0x3da6d000	0.081451416
216	0xbc8d7850	-0.017269284
217	0x3c7a6a1a	0.015284086
218	0xbcece366	-0.028917026
219	0xbcd250f4	-0.025673367
220	0xbd86ff0d	-0.06591616
221	0xbcf17713	-0.029475724
222	0x3b83ac68	0.004018355
223	0x3be4219e	0.0069620153
224	0xbb381b32	-0.0028092382
225	0x3c40a6ca	0.011758516
226	0xbcd98baa	-0.026555855
227	0x3da65015	0.08120743
228	0x3d87c4e7	0.06629353
229	0x3d51ac5d	0.05118977
230	0x3d97f28b	0.07419308
231	0x3c5e8b65	0.013583039
232	0xbd2062bc	-0.03915666
233	0xbd6ef762	-0.05834139
234	0xbdc7bad8	-0.097524345
235	0xbc296e30	-0.010341212
236	0x3c464209	0.012100705
237	0xbc958229	-0.018250542
238	0xbca9aa91	-0.020711215
239	0xbb11b846	-0.002223508
240	0x3d6c2f2a	0.057662167
241	0x3d875e1a	0.06609745
242	0x3dbd0d7c	0.092310876
243	0x3d906ad4	0.07051626
244	0xbd16d377	-0.036822762
245	0xbc80c129	-0.015717106
246	0x3d9f8ceb	0.0779055
247	0x3d3c58e0	0.045983195
248	0xbd8162be	-0.06317662
249	0x3d0e29be	0.034707777
250	0xbdd2ac44	-0.10286763
251	0xbda600af	-0.08105599
252	0xbd724040	-0.059143305
253	0x3d97d1f9	0.07413096
254	0xbd95477a	-0.07289024
255	0xbd636e46	-0.055525087

conv2.bias f4 [64]
0	0x3dc8becf	0.09802019
1	0x3cc35026	0.023841929
2	0xbd3660f6	-0.044526063
3	0xbbb1df88	-0.0054282583
4	0xbd3b41ff	-0.045717236
5	0xbd7b1e11	-0.06130797
6	0xbd9b2e6a	-0.07577212
7	0x3d59d74f	0.05318385
8	0xba5bca3d	-0.0008384323
9	0xbd82c547	-0.06385284
10	0x3d22e55b	0.03976951
11	0x3d2a56a9	0.04158655
12	0xbd3b7fae	-0.04577606
13	0xbdb63c25	-0.088981904
14	0x3d949f1e	0.07256912
15	0x3d09e86e	0.033668928
16	0x3cc07e9a	0.023497868
17	0x3d6076a9	0.054800663
18	0xbd9aaddf	-0.075526945
19	0x3cf7326a	0.030175406
20	0xbd2ac9d6	-0.041696392
21	0xbce47768	-0.027888969
22	0x3db1d237	0.086826734
23	0x3c63c6f0	0.013902411
24	0x3cc0e85e	0.023548301
25	0xbc4164d9	-0.011803829
26	0xbcc86c40	-0.02446568
27	0x3dcb4f61	0.0992725
28	0xbdb47171	-0.088107
29	0xbd2195e1	-0.039449576
30	0x3ac69def	0.0015153269
31	0xbd91678f	-0.0709983
32	0xbd8573ab	-0.065162025
33	0xbd1b1743	-0.03786398
34	0xbd806cff	-0.06270789
35	0xbd074573	-0.033025216
36	0x3d707790	0.058707774
37	0x3b467a83	0.0030285425
38	0x3dace057	0.08441227
39	0x3cb8a478	0.022539362
40	0xbcac7c95	-0.0210555
41	0x3d49fdee	0.04931443
42	0x3b8e1473	0.004335934
43	0x3d52bb3b	0.05144809
44	0xbdb9415d	-0.0904567
45	0x3c035768	0.008016445
46	0xbcdb0ab1	-0.026738496
47	0xbd721796	-0.059104525
48	0x3d58a321	0.052889947
49	0xbc5507b5	-0.013002326
50	0xbd91d881	-0.07121373
51	0x3c922868	0.017841533
52	0x3db65997	0.08903807
53	0xbd9df60b	-0.077129446
54	0xbdb3031c	-0.087408274
55	0x3cf6586d	0.030071462
56	0x3dba05ef	0.09083163
57	0xbc7a4a27	-0.015276468
58	0xbd0bfded	-0.03417771
59	0x3da4022f	0.08008229
60	0xbb1f1dd4	-0.0024279254
61	0xbd1864e5	-0.037205596
62	0x3dcc2342	0.099676624
63	0xbd06b47d	-0.03288697

bn2.weight f4 [64]
0	0x3f86748f	1.0504321
1	0x3f864418	1.048953
2	0x3f8a5386	1.0806739
3	0x3f86260c	1.0480361
4	0x3f82688c	1.0188155
5	0x3f866026	1.0498092
6	0x3f85d110	1.0454426
7	0x3f858836	1.0432193
8	0x3f851a64	1.0398679
9	0x3f84ad0d	1.0365311
10	0x3f8450e8	1.0337191
11	0x3f87aff9	1.0600578
12	0x3f820e82	1.0160677
13	0x3f8c1ab7	1.0945653
14	0x3f8751f2	1.0571883
15	0x3f84c49b	1.0372499
16	0x3f8b49ab	1.0881857
17	0x3f845683	1.0338901
18	0x3f857380	1.0425873
19	0x3f85d169	1.0454532
20	0x3f85cfda	1.0454056
21	0x3f869ec1	1.0517198
22	0x3f88f6ec	1.0700355
23	0x3f8534dd	1.0406758
24	0x3f8c94ea	1.0982945
25	0x3f85d3ca	1.0455258
26	0x3f87dff5	1.0615221
27	0x3f85038e	1.039171
28	0x3f84e93f	1.0383681
29	0x3f83a1a9	1.028371
30	0x3f8cea5f	1.1009024
31	0x3f84049c	1.0313907
32	0x3f846e45	1.0346152
33	0x3f838208	1.0274057
34	0x3f8b1bfe	1.0867918
35	0x3f8572e0	1.0425682
36	0x3f8a31eb	1.0796484
37	0x3f893029	1.0717822
38	0x3f8c40e3	1.0957302
39	0x3f87ec0a	1.0618908
40	0x3f872b63	1.0560116
41	0x3f844750	1.0334263
42	0x3f880b56	1.062846
43	0x3f85f71c	1.0466037
44	0x3f86c02a	1.0527394
45	0x3f879bf0	1.0594463
46	0x3f8654c6	1.0494621
47	0x3f86013e	1.0469129
48	0x3f8500be	1.0390851
49	0x3f8524e5	1.0401884
50	0x3f85602f	1.0419978
51	0x3f84bc54	1.0369973
52	0x3f8525c4	1.040215
53	0x3f848643	1.0353473
54	0x3f83714c	1.026895
55	0x3f86a6a2	1.0519602
56	0x3f83d596	1.0299556
57	0x3f88bee0	1.068325
58	0x3f8ccd7c	1.1000209
59	0x3f8b6a31	1.0891782
60	0x3f86ad22	1.0521586
61	0x3f8b62dd	1.0889546
62	0x3f81ffe2	1.0156214
63	0x3f856ff8	1.0424795

bn2.bias f4 [64]
0	0x3d76859e	0.06018602
1	0x3d471ea3	0.0486132
2	0x3d4223ba	0.047397353
3	0x3ce24e14	0.027625121
4	0x3cd7a8fe	0.026325699
5	0x3bf793d1	0.007555463
6	0x3d44ca8f	0.048044737
7	0x3ca8e9f1	0.020619364
8	0x3cb28e90	0.021796495
9	0x3c840724	0.016116686
10	0x3c8d206e	0.017227378
11	0x3d2ae5a2	0.0417229
12	0x3ca3d863	0.020000642
13	0x3d875605	0.06608204
14	0x3d1e008c	0.03857474
15	0x3d1d2ed5	0.03837474
16	0x3c41e1a3	0.011833581
17	0x3ccaff0f	0.024779825
18	0x3cb16068	0.021652415
19	0x3cece11b	0.028915932
20	0x3cfa59fa	0.030560482
21	0x3c2ea296	0.010658881
22	0x3d363a33	0.044489097
23	0xbb71de78	-0.0036906283
24	0x3d7b5a21	0.06136525
25	0x3c5b16fd	0.01337218
26	0x3d35b712	0.044364043
27	0x3d05cd18	0.032666296
28	0x3c96c82e	0.018406
29	0x3c1e4cd2	0.00966187
30	0x3d5a729f	0.053331967
31	0x3c6ef858	0.014585577
32	0x3c6fbaa3	0.0146319
33	0x3c852133	0.016251182
34	0x3d1d1775	0.03835245
35	0x3c8e3415	0.017358819
36	0x3d3cf8aa	0.046135582
37	0x3d2ef1b3	0.04271097
38	0x3da0d934	0.07853928
39	0x3d6c0b14	0.057627752
40	0x3cc77771	0.024348946
41	0x3d00fc8c	0.031490847
42	0x3d5fecdb	0.054669242
43	0x3cc8b8ba	0.024502147
44	0x3c9fbdcd	0.019499684
45	0x3ce1b12b	0.0275503
46	0x3c936065	0.0179903
47	0x3d3f030c	0.046633765
48	0x3c07055d	0.008241025
49	0x3cc7fef7	0.024413569
50	0x3ccc3f27	0.024932457
51	0x3c94d1fd	0.018166536
52	0x3d284781	0.041083816
53	0x3c99ac57	0.018758936
54	0x3ce7b7ce	0.028285887
55	0x3d2f1591	0.042745177
56	0x3c9cf9a7	0.019162012
57	0x3c78352b	0.015149395
58	0x3d880615	0.06641785
59	0x3d985dd2	0.0743977
60	0x3d10ed96	0.03538283
61	0x3d7f33bb	0.062305193
62	0x3c725a5b	0.01479205
63	0x3cc6fd4b	0.024290701

bn2.running_mean f4 [64]
0	0x3d2e931f	0.042620774
1	0x3e4ac46f	0.19801496
2	0xbea3330f	-0.31874892
3	0xbd8f80c9	-0.07006986
4	0xbe015036	-0.12628254
5	0xbe74c717	-0.23904072
6	0xbea31639	-0.31852892
7	0x3e6f908c	0.23394984
8	0xbf812805	-1.0090338
9	0xbf41cf6c	-0.75707126
10	0xbd836257	-0.06415241
11	0xbc479e2b	-0.012183706
12	0x3eb1d47a	0.3473242
13	0x3e561997	0.20908199
14	0xbed2f48f	-0.41202208
15	0x3bb9462d	0.0056541176
16	0x3e511fd3	0.20422296
17	0xbe8ae791	-0.27129796
18	0xbcbb9b82	-0.0229013
19	0xbefd27ef	-0.4944453
20	0xbeab4cf4	-0.33457148
21	0xbe1ecc4d	-0.15507622
22	0x3cd2b44b	0.025720736
23	0xbe15acbc	-0.14616674
24	0x3e85dcef	0.2614512
25	0xbead87d1	-0.33892682
26	0xbd7a97e6	-0.061180018
27	0x3df501ad	0.1196321
28	0xbf19ff6b	-0.6015536
29	0xbd81088d	-0.06300459
30	0xbe4d7e9b	-0.20067827
31	0xbee2f9ac	-0.4433111
32	0xbe1e9318	-0.154858
33	0x3ddfecde	0.10933851
34	0xbe2753cc	-0.1634056
35	0xbe9b93b0	-0.30386114
36	0xbce0d895	-0.027447024
37	0xbe85835f	-0.2607679
38	0x3c894a32	0.016759012
39	0xbeb1bc86	-0.34714144
40	0x3e846744	0.25860035
41	0xbe1b181a	-0.15145913
42	0xbe2cec6c	-0.16887063
43	0xbe0e239a	-0.13880768
44	0xbebf7c2c	-0.37399423
45	0xbe92d54f	-0.28678367
46	0xbe7b31d0	-0.2453072
47	0xbed92b5e	-0.424159
48	0x3cb476c2	0.022029284
49	0xbeb06046	-0.3444845
50	0xbf084d00	-0.5324249
51	0x3de9ac34	0.11409798
52	0x3e7753bc	0.24153036
53	0xbeae9989	-0.34101513
54	0xbe873175	-0.2640492
55	0x3d072163	0.032990824
56	0xbe3f7593	-0.18697195
57	0xbec235e9	-0.37931755
58	0xbd2bf8da	-0.04198537
59	0x3e6ea86c	0.23306435
60	0xbd78d982	-0.060754307
61	0xbf367ccb	-0.7128417
62	0x3ed76209	0.42066982
63	0xbe935a48	-0.28779817

bn2.running_var f4 [64]
0	0x3ec11009	0.37707546
1	0x3eeacc3f	0.45858952
2	0x3e7cf9eb	0.24704711
3	0x3e41a0fd	0.18909068
4	0x3e75111b	0.23932306
5	0x3eaca114	0.33716643
6	0x3f0333d4	0.5125096
7	0x3e79c07f	0.24389838
8	0x3ed94ae6	0.42439955
9	0x3ee8ad04	0.454445
10	0x3e99eb01	0.30062106
11	0x3e8227fb	0.25421128
12	0x3ec63b42	0.38717085
13	0x3e40213e	0.18762681
14	0x3e15de77	0.14635645
15	0x3e2f5fda	0.17126408
16	0x3e6f1d67	0.2335106
17	0x3e95716e	0.29188102
18	0x3ea138b3	0.3148857
19	0x3e718fbe	0.2358999
20	0x3e220ad5	0.15824445
21	0x3e2a537b	0.16633408
22	0x3e263a31	0.16233136
23	0x3ead2f02	0.33824927
24	0x3e2cf1ed	0.16889162
25	0x3ee3096e	0.44343132
26	0x3e1da7f7	0.15396105
27	0x3ec4d4a7	0.3844349
28	0x3f0f598b	0.55996007
29	0x3e897ebf	0.26854512
30	0x3e4b7130	0.19867396
31	0x3efd7e66	0.49510497
32	0x3dab6eef	0.08370768
33	0x3e1d7865	0.15377958
34	0x3e2c7908	0.16843045
35	0x3ec01c03	0.3752137
36	0x3deb83cd	0.114997484
37	0x3e512b01	0.20426561
38	0x3e8ff5ca	0.2811721
39	0x3e017f5d	0.12646241
40	0x3e927510	0.28604937
41	0x3e86fb66	0.26363677
42	0x3f11c852	0.5694629
43	0x3e7e009d	0.24804921
44	0x3e58b4c8	0.21162713
45	0x3ec047b0	0.37554693
46	0x3d951b8c	0.07280645
47	0x3ed78108	0.4209063
48	0x3e979002	0.29602057
49	0x3f081a22	0.53164876
50	0x3e39340d	0.18086262
51	0x3e7168c8	0.23575127
52	0x3ebc0d81	0.36729053
53	0x3e87af31	0.26500848
54	0x3e2ead9c	0.17058414
55	0x3e3375c8	0.17525399
56	0x3ec93452	0.3929773
57	0x3e31cb73	0.17362766
58	0x3dd27a4b	0.10277232
59	0x3e1fe7e9	0.1561581
60	0x3e1f990b	0.15585725
61	0x3ea82e8b	0.3284801
62	0x3eadd34a	0.33950263
63	0x3ea30399	0.31838682

t_conv1.weight f4 [64, 128, 2]
0	0x3b6ed8ec	0.0036445213
1	0x3dca9ec8	0.09893566
2	0xbcd7bdce	-0.026335623
3	0xbcd28d24	-0.025702067
4	0xbdb515e1	-0.08842064
5	0x3d8a8ae7	0.06764775
6	0x3c104d09	0.008807429
7	0x3d2ecaf0	0.042674005
8	0xbcfa5ddf	-0.03056234
9	0x3d03f69f	0.032217618
10	0x3c94d6d3	0.018168842
11	0x3d139877	0.036034074
12	0xbd49b2aa	-0.049242653
13	0xbc5bf3e6	-0.013424849
14	0xbdcdbb98	-0.10045546
15	0x3d82fe81	0.06396199
16	0xbccd1948	-0.02503647
17	0xbc6811d5	-0.014164408
18	0x3d060620	0.032720685
19	0x3d87855f	0.066172354
20	0xbcf48903	-0.029850489
21	0x3cb50d36	0.022101026
22	0x3ce79765	0.028270433
23	0xbce72446	-0.028215539
24	0x3d19dd8e	0.037564807
25	0x3d35fade	0.0444287
26	0xbc9b993b	-0.018993964
27	0x3c1d2566	0.009591436
28	0xbd7ecf84	-0.06220962
29	0x3d6026f6	0.054724656
30	0xbc1dd04b	-0.00963218
31	0xbce2730b	-0.027642747
32	0xbb10c5cb	-0.002209055
33	0x3d1995fa	0.037496544
34	0x3cce95e3	0.025217956
35	0x3d012564	0.0315298
36	0x3dc2370f	0.09483158
37	0x3d396fc4	0.045272604
38	0x3d46b6c8	0.048514158
39	0xbd1265ee	-0.03574174
40	0x3d64451b	0.055729967
41	0xbc0ad18e	-0.008472813
42	0xbcfc5820	-0.03080374
43	0x3d27025f	0.040773746
44	0x3ce83fe5	0.02835078
45	0xbd81cc05	-0.06337742
46	0x3cebd520	0.02878815
47	0xbd47a0d1	-0.04873735
48	0x3c604bcb	0.013689945
49	0x3c684584	0.01417673
50	0xbc4381a4	-0.011932764
51	0xbd98a556	-0.0745341
52	0x3cc99cd2	0.02461091
53	0x3d1c075a	0.03809295
54	0x3da80821	0.082046755
55	0xbcc32fa5	-0.02382643
56	0x3cdb1b63	0.026746457
57	0x3d73d840	0.059532404
58	0x3da73e78	0.08166212
59	0x3de5af35	0.11215059
60	0xbd646b11	-0.05576617
61	0x3d2d68a2	0.042336114
62	0xbdbe6d28	-0.09298164
63	0xbb8c48c7	-0.0042811367
64	0xbd15e232	-0.03659267
65	0xbd917f21	-0.07104326
66	0xbd7a9615	-0.061178286
67	0xbbef52f4	-0.00730359
68	0x3d96e53f	0.07367944
69	0x3bef332c	0.0072998013
70	0x3c399a81	0.0113283405
71	0x3d464dbd	0.04841398
72	0x3d8327b2	0.06404056
73	0x3d7f87f1	0.062385503
74	0xbdb3ee14	-0.08785644
75	0x3c72ca13	0.014818686
76	0xbd956812	-0.072952405
77	0x3d92decc	0.071714014
78	0x3d728eaf	0.059218105
79	0x3c86c34a	0.016450543
80	0xbd76c7aa	-0.06024901
81	0x3cb5d9a7	0.022198511
82	0xbd4d3cd8	-0.050106853
83	0x3d441571	0.04787201
84	0xbb0d71bb	-0.0021582681
85	0xbb26218a	-0.002534958
86	0xbc971cd9	-0.018446373
87	0xbd688340	-0.056765795
88	0xbd6876ce	-0.056753926
89	0xbcb6b91c	-0.022305064
90	0xbc5e343a	-0.0135622565
91	0xbc192744	-0.009347741
92	0x3db12ded	0.08651338
93	0x3d7b4b4a	0.061351098
94	0x3d83f806	0.06443791
95	0x3d4fb93a	0.050713755
96	0xbc5e3d19	-0.0135643715
97	0x3b9a3c92	0.0047069276
98	0x3db86273	0.09003153
99	0x3d346d83	0.04404975
100	0xbd439921	-0.047753457
101	0xbc4779a8	-0.012175001
102	0x3d04a246	0.03238132
103	0x3c4285d1	0.011872725
104	0x3a1184a0	0.00055510737
105	0x3be86510	0.0070921257
106	0x3d066510	0.032811224
107	0x3cf55559	0.029947923
108	0x3b8e65ea	0.004345645
109	0xbc648132	-0.013946818
110	0xbc921cc6	-0.017835986
111	0x3da8d407	0.08243566
112	0xbd555fa1	-0.052093152
113	0x3b7b25ab	0.0038322012
114	0xbd737ffd	-0.05944823
115	0xbca47373	-0.020074582
116	0xbc67309c	-0.0141107105
117	0x3d705824	0.058677807
118	0xbd38f66a	-0.045156874
119	0xbc90dc57	-0.017683191
120	0x3d0aaaac	0.03385417
121	0x3d8fe83b	0.07026716
122	0xbc2bb191	-0.010479347
123	0xbd299bdb	-0.0414084
124	0x3d02f5ef	0.03197282
125	0x3cd68dc3	0.026190644
126	0xbcbad914	-0.022808589
127	0x3d97b16d	0.07406888
128	0xbd1faac2	-0.038981207
129	0xbcc612f9	-0.024178969
130	0x3d362139	0.044465277
131	0x3cd5f05e	0.026115593
132	0xbd968f00	-0.07351494
133	0x3d641c15	0.055690844
134	0x3d98e162	0.07464863
135	0x3cade6e3	0.02122826
136	0xbd15efe0	-0.036605716
137	0x3d9e3c85	0.07726387
138	0xbb98b0ef	-0.004659764
139	0x3c319397	0.010838411
140	0x3de02f5e	0.109465346
141	0x3dad9283	0.084752105
142	0xbc258582	-0.0101026315
143	0x3d43dfe6	0.047820948
144	0xbd9930c9	-0.07480008
145	0xbcb5ffd8	-0.022216722
146	0x3cad69fb	0.0211687
147	0x3d42b98f	0.047540244
148	0x3dc0b41b	0.094093524
149	0xbc200e27	-0.009768999
150	0x3c7acbba	0.015307361
151	0x3dada5c7	0.08478885
152	0xbcba461b	-0.022738507
153	0x3c8b4aa7	0.01700337
154	0x3d23f8b0	0.04003209
155	0x3d07048e	0.032963328
156	0x3cb18292	0.021668706
157	0x3d826b4e	0.06368123
158	0xbd1652dc	-0.036700115
159	0x3ccd3b9e	0.025052842
160	0x3c0869c0	0.008325994
161	0xbd1d4151	-0.03839237
162	0x3c08b417	0.008343718
163	0x3d952e3e	0.072842106
164	0x3c231471	0.009953604
165	0x3de4ee25	0.11178235
166	0xbcfb0978	-0.030644163
167	0x3b695a77	0.00356069
168	0x3d42df98	0.047576517
169	0xbce5d8e3	-0.028057521
170	0xbccebda2	-0.025236908
171	0xbca02c2a	-0.019552309
172	0xbbf23517	-0.0073915827
173	0xbcdd9bcc	-0.027051829
174	0xbd5c6c7d	-0.0538144
175	0x3d8d45cc	0.06898078
176	0xbd0aff8c	-0.033935115
177	0x3d8f3d58	0.06994122
178	0x3d3b86f0	0.045782983
179	0xbd210e41	-0.039320234
180	0xbda3dd54	-0.08001199
181	0xbdb8f1b4	-0.09030476
182	0xbceeb886	-0.029140722
183	0x3d831da8	0.06402141
184	0x3d89692a	0.067095116
185	0x3da98611	0.08277524
186	0x3d0c229b	0.03421269
187	0x3b3d6cd1	0.002890397
188	0x3d3e9bff	0.04653549
189	0x3cd812f9	0.026376234
190	0x3da619b1	0.08110369
191	0xbdc19599	-0.094523616
192	0x3b960b91	0.0045790155
193	0xbbe4a71d	-0.0069779293
194	0xbd074142	-0.03302122
195	0x3cffafa8	0.03121169
196	0x3c2a8637	0.010407976
197	0x3da7cb20	0.0819304
198	0x3dd7261e	0.10505317
199	0xbd68e8da	-0.05686269
200	0x3cad9997	0.021191401
201	0xbd8ed5ff	-0.0697441
202	0x3ccedbe2	0.025251333
203	0x3d837c87	0.06420236
204	0x3d252ed2	0.040327854
205	0x3d3b0cb9	0.04566643
206	0xbcee050d	-0.029055143
207	0x3d401a87	0.0469003
208	0xbd115a4c	-0.035486504
209	0xbb281ada	-0.002565077
210	0xbca579cc	-0.020199679
211	0xbb9c6f54	-0.0047740135
212	0x3da0c189	0.07849414
213	0x3de1196a	0.109911755
214	0x3d1e6153	0.038667034
215	0x3d0dc9f9	0.034616444
216	0xbd5edde8	-0.054410845
217	0x3c21ac1e	0.009867696
218	0x3da6d29f	0.081456415
219	0xbd2377cc	-0.03990917
220	0x3d0922dc	0.03348051
221	0x3dc31c5d	0.09526894
222	0x3d931aed	0.0718287
223	0x3d8e79b2	0.06956805
224	0xbd875965	-0.066088475
225	0x3dcb97cd	0.09941063
226	0xbce43793	-0.027858531
227	0x3bcc7190	0.0062391236
228	0xbb3fceea	-0.0029267618
229	0x3d91ffc7	0.07128864
230	0x3d0a31d9	0.033738945
231	0x3c03882c	0.008028071
232	0x3cde9188	0.027169004
233	0xbd0f00d0	-0.034912884
234	0x3d45040e	0.04809957
235	0x3da8f703	0.08250239
236	0x3d8c5aac	0.06853232
237	0xbb8fdb08	-0.004390124
238	0x3d5efbd4	0.05443938
239	0xbcc4e8e0	-0.024036825
240	0xbba618ea	-0.005068888
241	0x3ccd8d50	0.025091797
242	0x3d94cd4f	0.07265722
243	0x3dce276e	0.10066114
244	0x3c234245	0.00996453
245	0x3d7079bf	0.058709856
246	0xbb0f6667	-0.0021881105
247	0xbd0079fb	-0.03136633
248	0xbd6b5f2b	-0.057463806
249	0x3da0aa50	0.078449845
250	0xbb75aaa1	-0.0037485736
251	0x3cf9203f	0.030410884
252	0x3c2126ef	0.009835943
253	0xbd8097ac	-0.06278929
254	0x3bc827a6	0.006108242
255	0x3ceec6be	0.029147502

t_conv1.bias f4 [128]
0	0x3d48fb38	0.049067706
1	0x3bdf5cda	0.0068164887
2	0xbc8dd57b	-0.01731371
3	0x3a672abf	0.00088183203
4	0x3cfa56ee	0.03055903
5	0x3d6d4f48	0.057936937
6	0xbd4a4c1c	-0.04938899
7	0x3c2b679a	0.010461712
8	0xbd4317f3	-0.04763026
9	0x3d811810	0.06303418
10	0x3d75f1f8	0.060045213
11	0x3d01b532	0.031666942
12	0xbc1882ae	-0.0093085
13	0x3b63140c	0.00346494
14	0xbcbe7183	-0.023247486
15	0x3d8169ae	0.06318985
16	0x3cb9d570	0.022684783
17	0x3cb60437	0.022218807
18	0x3d69561b	0.056966882
19	0xbbc584db	-0.0060278005
20	0x3c63abca	0.013895938
21	0x3d3747d4	0.044746235
22	0xbcdb51f0	-0.02677247
23	0x3d8b97f0	0.06816089
24	0xbd791f83	-0.060821068
25	0x3da72ba6	0.08162622
26	0xbd0b34f5	-0.03398605
27	0x3d9a2f52	0.07528557
28	0x3b68decf	0.0035533195
29	0x3ce855eb	0.028361281
30	0x3c1ee941	0.009699167
31	0xbb6fe6db	-0.0036606106
32	0x3b9ed8bd	0.0048476146
33	0x3d77cb73	0.06049676
34	0x3d82e867	0.063919835
35	0x3d68cea3	0.05683769
36	0xbd179e27	-0.03701606
37	0x3d03ec6b	0.032207888
38	0xbcd8d94a	-0.026470799
39	0x3d1d693e	0.038430445
40	0xbd1f44d7	-0.03888401
41	0x3d8a13df	0.06742071
42	0x3bc987ae	0.0061502075
43	0x3cfe586e	0.031048026
44	0xbd3f1ed4	-0.04666026
45	0xbc8100d3	-0.015747463
46	0xbc1946fe	-0.009355305
47	0x3d161c1d	0.036647905
48	0xbca17458	-0.019708797
49	0x3bce5330	0.006296538
50	0xbcade6d4	-0.021228231
51	0x3d006991	0.031350676
52	0xbbfa0169	-0.0076295626
53	0xbd2012ba	-0.03908036
54	0xbcfe2542	-0.031023625
55	0xbcb1596d	-0.021649087
56	0x3d12e677	0.03586432
57	0xbd00605a	-0.031341888
58	0x3c5ec578	0.013596885
59	0xbceb1476	-0.02869628
60	0xbd19d928	-0.037560612
61	0x3cfa89d4	0.0305833
62	0x3d97ef84	0.07418731
63	0x3d48558f	0.04890972
64	0xbcbe3dc3	-0.02322281
65	0x3cbdd8e5	0.023174712
66	0xbd087d01	-0.033322338
67	0x3c6e608a	0.014549384
68	0x3acb1efb	0.0015496904
69	0x3ca5102a	0.02014931
70	0x3cf60517	0.030031724
71	0x3b17bf44	0.0023154775
72	0x3d4f2560	0.050572753
73	0x3da012f7	0.07816117
74	0xbd6b9784	-0.057517543
75	0x3d430f8f	0.04762226
76	0x3d1b0a74	0.037851766
77	0x3d567efd	0.0523672
78	0x3d768dda	0.060193874
79	0x3d0ed23a	0.034868456
80	0x3dd2f259	0.103001304
81	0xbb67dc6a	-0.003537918
82	0xbc824842	-0.015903596
83	0xbc433172	-0.011913644
84	0x3d8d8a74	0.069111735
85	0x3cd5af3c	0.026084535
86	0x3bc63069	0.0060482514
87	0x3ca0570c	0.019572757
88	0xbb976fae	-0.0046214676
89	0xbba3a5c6	-0.004994127
90	0x3cfb7628	0.03069599
91	0xbd369bf3	-0.04458232
92	0x3d9aed7e	0.07564829
93	0x3d398c15	0.04529961
94	0xbd1cf67c	-0.038321003
95	0x3da5db59	0.08098478
96	0xbd03bae4	-0.032160655
97	0xbd787f7c	-0.060668454
98	0x3d2c0071	0.04199261
99	0xbc8005b6	-0.015627723
100	0x3ba67957	0.005080383
101	0xbb782787	-0.0037865357
102	0x3b9753d3	0.004618147
103	0x3a51edcb	0.0008008151
104	0xbd01da72	-0.031702466
105	0x3d92760f	0.07151424
106	0xbc8c3dab	-0.01711925
107	0xbb58f92f	-0.003310751
108	0x3d09e33b	0.03366397
109	0xbca5b9f3	-0.020230269
110	0x3ce5360f	0.027979879
111	0x3d1e1b14	0.038600042
112	0xbcd3f11b	-0.025871804
113	0x3bafc798	0.0053643696
114	0x3d5497a5	0.051902432
115	0xbba177cf	-0.0049276124
116	0xbc0fdc01	-0.00878048
117	0x3d7edb6c	0.062220976
118	0x3c53c797	0.012926004
119	0x3d8ef36a	0.06980021
120	0x3d9acb8e	0.07558356
121	0x3d82d55f	0.063883536
122	0xbce68332	-0.02813873
123	0x3d1b4f3b	0.037917357
124	0x3c3d908e	0.011570109
125	0x3dc9ec0a	0.09859474
126	0xbb292671	-0.0025810266
127	0xbcbf1905	-0.02332736

t_conv2.weight f4 [128, 64, 2]
0	0xbcfef87e	-0.03112435
1	0xbc35f26a	-0.011105159
2	0x3aa4e5a8	0.001258065
3	0xbd4a5138	-0.049393862
4	0x3d8f295b	0.0699031
5	0x3db3c5ef	0.08777987
6	0x3ddac8d7	0.106828384
7	0x3dcdcb2b	0.10048517
8	0xbd814b75	-0.063132204
9	0xbd82eb15	-0.063924946
10	0xbda95925	-0.08268956
11	0x3df7133b	0.12064215
12	0xbba3d05d	-0.004999204
13	0x3c09e2d5	0.008415897
14	0x3dfa4e80	0.12222004
15	0xbd7a9668	-0.061178595
16	0xbcc5d433	-0.024149036
17	0x3d85402b	0.0650638
18	0x3c89423d	0.016755218
19	0xbd267119	-0.040635202
20	0xbc4c31ce	-0.012463046
21	0x3d91c375	0.071173586
22	0x3bdb00d1	0.006683447
23	0x3de99032	0.11404456
24	0x3db91537	0.090372495
25	0x3cf89428	0.030344084
26	0x3d916031	0.07098425
27	0x3dcc8645	0.099865474
28	0x3e17bb7d	0.14817615
29	0x3df0e277	0.11761945
30	0x3dc65581	0.09684277
31	0x3e118eb1	0.14214589
32	0xbdabd646	-0.08390479
33	0x3dfa1da1	0.122126825
34	0x3d24da03	0.040246975
35	0xbd33c984	-0.043893352
36	0xbc39f024	-0.011348758
37	0x3b9bdbc0	0.004756421
38	0x3d40fa67	0.047113802
39	0x3c9d250a	0.0191827
40	0x3d12b38e	0.035815768
41	0x3c7dc7b2	0.015489506
42	0x3c02613b	0.007957752
43	0xbd865580	-0.065592766
44	0xbdb8c0ac	-0.09021124
45	0x3d9196fa	0.071088746
46	0xbd475741	-0.048667196
47	0x3d022557	0.03177389
48	0xbd44be64	-0.048033133
49	0x3ce5b53f	0.028040526
50	0x3d0ea490	0.034824908
51	0xbd2b9d21	-0.041897897
52	0x3dd283d1	0.10279048
53	0xbd5009b8	-0.05079052
54	0x3d9bdb46	0.076101825
55	0xbc81001f	-0.015747128
56	0x3cd8da39	0.026471244
57	0x3db33d3e	0.087519154
58	0xbda26439	-0.07929272
59	0xbd11f48c	-0.03563361
60	0x3d868873	0.065689944
61	0xbd97974b	-0.07401904
62	0x3c04c2b9	0.008103066
63	0x3c43d693	0.011953014
64	0xbae94ef0	-0.0017800014
65	0x3dd1cff8	0.10244745
66	0x3cddad54	0.027060188
67	0x3da88f4e	0.08230458
68	0x3e26dea1	0.16295864
69	0xbc56fba4	-0.013121519
70	0x3c998796	0.01874141
71	0xbcf5f917	-0.030026002
72	0x3da7d459	0.08194799
73	0x3e034816	0.12820467
74	0xbd7860fe	-0.060639374
75	0x3c4b272d	0.012399477
76	0xbdc77304	-0.09738734
77	0xbdb2bb4a	-0.08727129
78	0xbd0f4277	-0.034975495
79	0x3c85aa4a	0.016316552
80	0x3e0b4ed6	0.13604292
81	0x3d085961	0.033288363
82	0x3ba5ba3a	0.0050576003
83	0x3d68cbc0	0.056834936
84	0xbdd14d1e	-0.10219787
85	0x3d9023c8	0.07038075
86	0xbb16d22a	-0.002301345
87	0x3d15ab62	0.036540397
88	0xbc0f0a54	-0.00873049
89	0xbd92db36	-0.071707174
90	0x3d5f15b2	0.05446405
91	0x3c4bfab8	0.012449913
92	0x3e038e75	0.12847312
93	0x3deea547	0.11652618
94	0x3e04944f	0.129472
95	0xbdede628	-0.116161644
96	0x3d6e449a	0.058170892
97	0xbd1050b0	-0.0352332
98	0x3c2b45f7	0.010453693
99	0x3c9f31e1	0.019432964
100	0x3d9e622e	0.0773357
101	0x3d9406f4	0.07227889
102	0xbd3d9671	-0.04628605
103	0x3dde22ea	0.10846503
104	0x3c214786	0.009843713
105	0x3d8a2f5b	0.067473136
106	0xbd57d1db	-0.05269037
107	0x3bda4c42	0.0066619227
108	0x3d2abbfc	0.041683182
109	0x3da81449	0.08206994
110	0xbda1c5ef	-0.07899081
111	0x3d8f4b0b	0.06996735
112	0x3d6153f7	0.055011716
113	0x3dfd94aa	0.12381871
114	0x3cdeed69	0.027212815
115	0xbd7a7b94	-0.06115301
116	0xbd64e7cf	-0.055885132
117	0x3c92c069	0.017914014
118	0x3dbe5077	0.09292691
119	0xbd4dc1ef	-0.050233778
120	0xbcbe5951	-0.023235949
121	0x3d1608c3	0.03662945
122	0xbd6e6984	-0.058206096
123	0x3cd8bf34	0.02645836
124	0xbc1eeccd	-0.009700012
125	0x3d156520	0.036473393
126	0x3d9df77d	0.0771322
127	0x3db9642d	0.0905231
128	0x3d603877	0.05474135
129	0x3dbe21d2	0.092837945
130	0xbcad2a0b	-0.021138212
131	0x3d5de733	0.054175567
132	0xbc044595	-0.00807323
133	0x3c954de2	0.018225614
134	0x3dc99aec	0.09844002
135	0x3d3d529e	0.046221368
136	0x3d8a795a	0.06761427
137	0xbd18ff9c	-0.037353143
138	0x3e2e9b6c	0.17051476
139	0xbd2e0002	-0.042480476
140	0x3d37f7f8	0.044914216
141	0x3ce4b281	0.027917149
142	0x3bde9ee1	0.006793842
143	0x3c346f95	0.011012931
144	0x3cbed11d	0.023293072
145	0xbd7927bc	-0.06082891
146	0x3d343931	0.043999854
147	0xbcc09492	-0.023508344
148	0xbc66242e	-0.014046712
149	0xbce9ea34	-0.02855406
150	0x3d9e485c	0.07728645
151	0xbd64bb49	-0.05584267
152	0x3d9cbf11	0.076536305
153	0xbc9e0674	-0.019290186
154	0x3d8ca132	0.06866683
155	0xbe103a1d	-0.14084668
156	0x3dc453b5	0.09586278
157	0xbd261c01	-0.04055405
158	0x3df600cf	0.12011873
159	0x3d41fafc	0.047358498
160	0xbd30c4ef	-0.04315656
161	0xbdb445e6	-0.088023946
162	0x3da0c611	0.07850278
163	0x3c071db6	0.00824683
164	0x3cc1db3a	0.023664106
165	0x3bb52070	0.0055275485
166	0xbd3bc3c0	-0.04584098
167	0xbd73a0df	-0.05947959
168	0xbd1e6722	-0.038672574
169	0xbd1739cb	-0.03692035
170	0xbd952c8d	-0.07283888
171	0xbd1c4458	-0.038151115
172	0x3d5105bf	0.05103087
173	0x3b6b2138	0.0035877954
174	0xbce9189d	-0.02845412
175	0xbda64ad6	-0.081197426
176	0x3dda22d0	0.10651171
177	0x3d86e658	0.06586903
178	0xbcc871fb	-0.024468413
179	0x3d44630e	0.04794603
180	0xbacc1700	-0.0015570819
181	0x3d72897b	0.059213143
182	0x3cdb0345	0.026734957
183	0x3d437357	0.04771742
184	0xbd2224d7	-0.039585914
185	0xbab6bc4b	-0.0013941614
186	0xbb6a9dd0	-0.003579963
187	0xbd0a686f	-0.033791002
188	0xbd1b69f0	-0.037942827
189	0xbc7eac97	-0.015544078
190	0xbcd27087	-0.025688423
191	0x3d18cc52	0.03730423
192	0x3d850c7c	0.06496522
193	0x3cdd45e5	0.027010867
194	0xbcc00dd2	-0.02344409
195	0x3b1b8b5c	0.0023734188
196	0xbc8d0ec1	-0.01721895
197	0x3d9084ea	0.07056601
198	0x3d30622e	0.04306238
199	0xbce6dcf4	-0.02818153
200	0x3e01b271	0.12665726
201	0xbd2f0cb4	-0.042736724
202	0x3dad3681	0.084576614
203	0xbcfed02e	-0.031105127
204	0x3cda8628	0.026675299
205	0x3d1ab90a	0.037774123
206	0x3c6703e2	0.014100047
207	0x3d0ddc0d	0.034633685
208	0x3c91cf68	0.017799094
209	0x3c0080b2	0.007843183
210	0xbd56ec56	-0.05247148
211	0x3dd6daf6	0.10490982
212	0x3ddf91f7	0.109165125
213	0xbc0c2284	-0.008553151
214	0xbcbf0bf0	-0.023321122
215	0xbd94d85f	-0.07267832
216	0xbcd9d7d3	-0.02659217
217	0x3d0aa943	0.033852827
218	0xbd2598f2	-0.040429063
219	0xbc93042b	-0.017946323
220	0xbd53db75	-0.051722962
221	0xbd539dab	-0.051664036
222	0xbd0391a9	-0.032121334
223	0x3da679ba	0.08128686
224	0xbd4ede26	-0.050504826
225	0xbd70b04c	-0.05876188
226	0x3d896bb4	0.06709996
227	0x3d4f8923	0.050667893
228	0x37cecd5c	2.4652742e-05
229	0xbd0b2209	-0.033968005
230	0x3ddf4b89	0.10903079
231	0xbdc79542	-0.097452655
232	0x3cb51bd4	0.022107996
233	0x3bb3e2a9	0.0054896665
234	0x3d88a6ca	0.066724375
235	0x3cbe2de5	0.023215244
236	0x39a2bc41	0.00031039308
237	0x3db3e90c	0.087846845
238	0x3d278b41	0.040904287
239	0x3d5f146e	0.054462843
240	0x3dc4387d	0.09581087
241	0x3d9c524e	0.07632886
242	0x3d98b176	0.07455723
243	0x3df0ebab	0.117637
244	0x3dc5e98e	0.09663688
245	0xbd64ba5b	-0.055841785
246	0x3da67113	0.08127036
247	0x3ded5b6e	0.115897045
248	0xbdb00311	-0.08594335
249	0x3d9acfce	0.07559167
250	0x3d113210	0.035448134
251	0x3d9b72bc	0.07590243
252	0xbd164a61	-0.036692027
253	0x3d8a474e	0.067518815
254	0x3de0cd4d	0.10976658
255	0x3b8346b6	0.004006232

t_conv2.bias f4 [64]
0	0xbd96f008	-0.07370001
1	0x3c8a7b7b	0.016904583
2	0xbd0169af	-0.03159493
3	0xbd245e72	-0.040129133
4	0x3d4e77af	0.050407108
5	0xbd878898	-0.0661785
6	0xbd3e4b44	-0.046458498
7	0xbd2f5317	-0.04280385
8	0x3de8b2fe	0.11362265
9	0xbb75b439	-0.0037491454
10	0xbd5fa7c9	-0.05460337
11	0xbd99b312	-0.07504858
12	0xbd061ce5	-0.0327424
13	0x3bb6e14d	0.005581057
14	0x3d21aec4	0.03947331
15	0x3d6373fa	0.055530526
16	0xbc99c466	-0.018770408
17	0x3d600017	0.054687586
18	0xbda3f0e6	-0.08004932
19	0xbd53baf3	-0.05169196
20	0x3da79c7d	0.08184145
21	0x3d8ed93b	0.06975027
22	0xbd6fc6f0	-0.05853933
23	0x3d2ef83d	0.042717207
24	0x3c9e5c04	0.019330986
25	0xbd1be07f	-0.038055893
26	0xbd060579	-0.032720063
27	0x3d13d819	0.03609476
28	0xbc2bbb4a	-0.010481665
29	0xbd011b0c	-0.031519935
30	0x3dc1387c	0.09434602
31	0x3d5b7c9a	0.053585626
32	0x3c5f5034	0.013629962
33	0x3d902990	0.070391774
34	0xbd14c46c	-0.036320135
35	0x3d9d6414	0.07685104
36	0xbccd29e1	-0.025044383
37	0x3d48063a	0.048834063
38	0xbd7820a2	-0.060577996
39	0xbd104c3b	-0.03522895
40	0xbca2d863	-0.019878572
41	0xbc44d446	-0.012013501
42	0xbd3636d6	-0.04448589
43	0x3d917164	0.07101706
44	0x3ddf7c7f	0.109124176
45	0xbd5b4de5	-0.053541083
46	0xbc80103a	-0.015632737
47	0x3d0afbb5	0.033931453
48	0xbd7d08d8	-0.061776012
49	0x3cb8a012	0.022537265
50	0xbd1f0bca	-0.038829602
51	0xbd85b0b1	-0.06527842
52	0x3d4fe8ef	0.050759252
53	0xbc91567c	-0.017741434
54	0x3d2e6e0e	0.042585425
55	0xbdcdf1f0	-0.100559115
56	0xbc6a39d9	-0.0142960185
57	0xbcb373f5	-0.021905879
58	0xbc50b8e1	-0.012739391
59	0xbd8e6bee	-0.0695418
60	0xbaa28175	-0.00123982
61	0xbd4a3e33	-0.049375724
62	0x3d625a8d	0.055262137
63	0xbc5365b7	-0.012902669

conv_out.weight f4 [1, 64, 3]
0	0xbd273910	-0.040825903
1	0xbc5bcdda	-0.013415778
2	0xbd267f58	-0.04064879
3	0xbdd376c8	-0.1032539
4	0xbd25368a	-0.040335216
5	0x3c567b44	0.013090912
6	0xbd38f2ca	-0.045153417
7	0xbe04abaa	-0.1295611
8	0xbdaecfb4	-0.0853571
9	0xbdf6fd92	-0.120600834
10	0xbd0c375d	-0.034232486
11	0x3dafb4fc	0.08579442
12	0xbcb6ccf1	-0.02231452
13	0xbd24ec9a	-0.040264703
14	0xbd3284f1	-0.043583814
15	0x3d14947c	0.03627442
16	0xbe0e81fd	-0.13916774
17	0x3da39a76	0.079884455
18	0x3ce5bd72	0.028044436
19	0x3e05f661	0.13082267
20	0xbdb3bfa1	-0.08776785
21	0xbdd2050a	-0.102548674
22	0x3d39f445	0.04539897
23	0xbdcb19c9	-0.099170275
24	0x3e043f3e	0.1291475
25	0xbd54fdf2	-0.051999994
26	0x3e0a1667	0.13485108
27	0x3cd4e51e	0.025988158
28	0x3df8d6b8	0.12150329
29	0x3e03839c	0.12843174
30	0x3d8c0c5e	0.06838296
31	0xbdb5ec6c	-0.088829845
32	0xbd9f39fe	-0.07774733
33	0xbd7c110a	-0.061539687
34	0xbdeaefdb	-0.1147153
35	0xbd302cdf	-0.043011542
36	0x3d50d7a3	0.050986897
37	0xbba3a412	-0.004993924
38	0xbe393a0f	-0.18088554
39	0xbdd9b31e	-0.10629867
40	0xbd4c66c4	-0.049902692
41	0x3e06fa0f	0.13181327
42	0xbe0905ee	-0.13381168
43	0x3cc4b487	0.024011863
44	0x3dce0014	0.10058609
45	0xbd4c01d2	-0.049806423
46	0xbdbcf1f7	-0.09225839
47	0x3d4875b3	0.04894037
48	0x3d928059	0.071533866
49	0xbda2aa07	-0.079425864
50	0x3e045499	0.12922896
51	0xbd9b9c8f	-0.075982206
52	0xbd9badb0	-0.07601488
53	0x3c52f03d	0.01287466
54	0x3cfab6d2	0.030604754
55	0xbd467b1b	-0.048457246
56	0x3c654a06	0.013994699
57	0xbdc97c1f	-0.09838127
58	0xbda9e3a4	-0.08295372
59	0xbb195509	-0.0023396632
60	0xbd4a62d1	-0.049410645
61	0x3ccec0ab	0.025238356
62	0x3d9c9f07	0.076475196
63	0xbd232785	-0.03983261
64	0x3dff8391	0.12476266
65	0x3d91e077	0.071228914
66	0x3da39af5	0.0798854
67	0x3ddc64db	0.10761424
68	0x3d8a5578	0.06754583
69	0x3d96b7e3	0.07359292
70	0x3d8a93f5	0.06766502
71	0x3c98ae37	0.01863776
72	0xbd901109	-0.07034499
73	0xbdb770d5	-0.08957068
74	0xbd595275	-0.053057153
75	0x3de36faf	0.11105286
76	0x3dbcd1c9	0.09219701
77	0xbe17cfb8	-0.14825332
78	0xbd2f0ea5	-0.042738575
79	0x3d4169a3	0.047219884
80	0xbd9bfa3d	-0.076160885
81	0xbd990170	-0.07470977
82	0x3ca0fadd	0.019650871
83	0xbd931db7	-0.07183402
84	0xbd97bac4	-0.074086696
85	0xbc03bc4e	-0.008040501
86	0xbcc683f0	-0.024232835
87	0xbd06744e	-0.03282576
88	0x3e101741	0.1407137
89	0x3de2a266	0.11066131
90	0xbd94a941	-0.07258845
91	0x3d466a57	0.048441257
92	0xbdce7a83	-0.10081961
93	0x3d659380	0.05604887
94	0xbdd4ef6a	-0.10397227
95	0xbd5e0ca3	-0.05421127
96	0xbd1e073f	-0.03858113
97	0xbd9cc18f	-0.07654106
98	0x3d88ad1c	0.06673643
99	0xbb882357	-0.0041546035
100	0x3da1a680	0.078930855
101	0x3db4e9d7	0.08833664
102	0xbdb5203e	-0.0884404
103	0x3e1c5176	0.1526545
104	0xbd6ac364	-0.057315245
105	0x3b25abea	0.002527947
106	0x3d352967	0.044228937
107	0x3d39122f	0.045183357
108	0xbd931d8c	-0.0718337
109	0xbd9b3dae	-0.07580124
110	0x3dcf466c	0.10120854
111	0x3cca528f	0.02469757
112	0xbdbd481c	-0.092422694
113	0xbc76746e	-0.015042407
114	0x3dab0701	0.08350945
115	0x3e179c81	0.14805795
116	0xbc1a4c89	-0.0094176615
117	0x3e10c2da	0.1413683
118	0xbc9b375d	-0.018947298
119	0xbda5f3df	-0.08103155
120	0xbdc1618f	-0.09442436
121	0xbbf89b5a	-0.0075868787
122	0x3c35baf5	0.011091937
123	0x3d298f1d	0.04139625
124	0xbdda2949	-0.10652406
125	0xbda30086	-0.07959084
126	0x3b8553a6	0.0040688096
127	0xbe04cbc4	-0.12968355
128	0x3d690a56	0.056894623
129	0xbdd20697	-0.10255163
130	0x3c6a2960	0.014292091
131	0x3cf9fe16	0.030516665
132	0x3d17d123	0.037064683
133	0x3e08ab60	0.13346624
134	0xbd6a3135	-0.057175834
135	0x3d27a67a	0.04093025
136	0x3dea4c97	0.114403896
137	0x3dcbb6b1	0.09946955
138	0xbdd8f983	-0.105944656
139	0x3d32c8e3	0.04364861
140	0x3d9140de	0.070924506
141	0xbd178580	-0.03699255
142	0x3d62043b	0.055179816
143	0xbdc26557	-0.09491985
144	0xbd587625	-0.052847046
145	0xbd107096	-0.03526362
146	0xbcc5d2e6	-0.024148416
147	0xbd05a54a	-0.032628335
148	0xbd8d202d	-0.06890903
149	0xbb525026	-0.003209123
150	0xbdbed0b5	-0.093171515
151	0xbdd318ae	-0.10307442
152	0xbc694b37	-0.014239124
153	0x3d5c8e35	0.053846557
154	0xbe0f0cee	-0.13969776
155	0x3e146e9f	0.14495324
156	0xbb819334	-0.0039543156
157	0x3d20165c	0.039083824
158	0x3df2be90	0.11852753
159	0xbdaf03ac	-0.08545622
160	0xbd9ca10a	-0.07647903
161	0x3d3ddddc	0.04635416
162	0x3bc7f8ed	0.0061026723
163	0xbc848f0a	-0.016181488
164	0xbd8d5f53	-0.06902947
165	0x3a9f57a2	0.0012156854
166	0x3d521613	0.051290583
167	0xbcd7a985	-0.02632595
168	0x3c87e756	0.016589802
169	0xbd90b30d	-0.07065401
170	0xbcad3afd	-0.021146292
171	0xbb66faee	-0.003524478
172	0xbd1f95e8	-0.03896132
173	0xbdbe997f	-0.09306621
174	0xbc33692b	-0.010950367
175	0xbd88f21b	-0.06686803
176	0xbc3dcbdb	-0.011584247
177	0xbd4727b0	-0.048621833
178	0xbd8c7b13	-0.06859412
179	0xbdbdd08a	-0.09268291
180	0x3d80b9f3	0.06285467
181	0x3df47c0a	0.11937721
182	0xbd42475d	-0.04743134
183	0x3c9a1e87	0.018813385
184	0xbd31b516	-0.043385588
185	0x3d398b55	0.045298893
186	0x3ba8e081	0.005153716
187	0xbcba8cd0	-0.022772223
188	0xbd8736ae	-0.06602226
189	0xbd9035e7	-0.07041531
190	0xbd98907d	-0.07449434
191	0xbdc6db41	-0.09709788
