pths/denoiser_model_4.pth (torch, 166322 bytes, 17 tensors)

conv1.weight f4 [32, 1, 3]
00000000: 7032 013e 52bf 0abe 36da acbe 9ca8 07bf
00000010: 0e4f ea3d b42d ae3e 012d 92bd b758 ccbd
00000020: 6ae4 c4bd 1686 8f3e ad95 30be afae 2f3d
00000030: 7215 c1be 23af f8be 071f 81be 8965 dabe
00000040: df62 ee3e a6f3 0b3f 51d4 6ebd 2634 583d
00000050: b085 14be 91a9 a9be a958 693e b915 cbbe
00000060: 1c2f 09bf 1286 9ebe f1fa 3fbe 518c adbd
00000070: f0c6 ca3e 37c0 aebd b671 1f3e 49bd d7be
00000080: 5fe0 883e b8b6 603e 3b7d 9b3e 35be 2abe
00000090: e19d 88be 96a9 87be 5ea8 143f b6d8 2fbe
000000a0: 58dd bcbe f716 803e 5d5c f5be 1efa 663e
000000b0: 0b56 e0be a15e 1c3e ed56 1bbf e4c3 70be
000000c0: a3f3 c2be af9c fabe 49b1 a5bd 788e da3e
000000d0: 6ee9 d4bd 0c02 253f 6dac 0bbf 1f2a 8c3e
000000e0: 8433 04bf d98d 9d3d 5668 9b3e 6509 9cbe
000000f0: 906c d43e 7c09 dabd ce3d adbe fa1b 8fbd
00000100: efc1 88be f8a0 85be f555 00bf ab15 c93c
00000110: 7ee6 f83e e98e e3be d10f debe 298c 433e
00000120: 2fa5 febe 33a8 0a3f 8ffb d03e a9ea 043f
00000130: 665b 863e 7f19 9bbe 8b8a ddbd ca0e bd3c
00000140: 3f3e d0be 9086 ba3e 8d4b 373e 48fb 8a3e
00000150: 5459 0e3f 8fa9 dc3e c986 8abe bc2d 8b3e
00000160: 4f51 05be 952a e93e ab7b 243e 5c30 393e
00000170: 0fd2 2d3e e941 293f 0a1d f43d 6166 d7bb
0.12616897 -0.13549545 -0.33760232 -0.5299165 0.1144086 0.34019244 -0.0713749 -0.099778585
-0.09613879 0.28031987 -0.17244597 0.0428912 -0.37711674 -0.4857112 -0.25218984 -0.4265559
0.46559808 0.54668653 -0.05830795 0.052784108 -0.14504123 -0.3313718 0.22787727 -0.3966501
-0.5358751 -0.30961663 -0.1874807 -0.08474029 0.39604902 -0.08532756 0.15570721 -0.421366
0.26733682 0.21944702 0.3036898 -0.1667412 -0.26682952 -0.2649657 0.5806941 -0.17172512
-0.36887622 0.2501752 -0.4792203 0.2255635 -0.43815646 0.15270473 -0.60679513 -0.23512226
-0.38076505 -0.48947665 -0.08090455 0.4268682 -0.10396086 0.6445625 -0.54559976 0.27375886
-0.51641107 0.07693071 0.3035304 -0.30475917 0.41489077 -0.1064634 -0.33836216 -0.06987758
-0.2671046 -0.26099372 -0.5013116 0.024546465 0.48613352 -0.4444497 -0.43371442 0.19096436
-0.497354 0.541629 0.40816924 0.51920563 0.26241606 -0.3029289 -0.108174406 0.023078341
-0.4067249 0.36430788 0.17899914 0.27144837 0.55605054 0.43098113 -0.27055958 0.2718333
-0.13019298 0.455403 0.160628 0.18084854 0.16974662 0.66116196 0.11919601 -0.006573484

conv1.bias f4 [32]
00000000: 7b06 bbbd d186 8dbe c622 4f3e 8ca2 f1bd
00000010: e2c7 00be d53c cd3d 06ee 0e3f 705a 42be
00000020: 8182 cdbe f402 8e3e 67c3 cb3e e68c 073e
00000030: 2218 ee3e 4037 593e 3c6d d3be cbf0 043f
00000040: e8b4 babe 73dc a5be 5064 c5bd 5367 0abf
00000050: 2ab7 123f ad06 05bf e2c1 143e af0b 963d
00000060: 5325 fabe 9e19 94be c2e8 37be 7454 8f3e
00000070: b0e8 f1be b89d 993e a183 453e ee61 dfbe
-0.091320954 -0.2764192 0.20228109 -0.117985815 -0.12576249 0.100213684 0.55831945 -0.18979812
-0.4013863 0.27736628 0.39797518 0.13237342 0.46502787 0.21212482 -0.41294277 0.5192992
-0.36466146 -0.32394752 -0.09638274 -0.5406391 0.57310736 -0.5196331 0.14527085 0.07326447
-0.488566 -0.28925794 -0.17959884 0.2799412 -0.4724784 0.30003142 0.19288494 -0.43629402

bn1.weight f4 [32]
00000000: 00ae 763f ca8d 803f ed3b 7c3f 97f1 743f
00000010: c2ae 833f a61f 823f 17bb 773f a8dc 763f
00000020: 5c69 7d3f b47c 853f 76a7 843f ff28 853f
00000030: d785 7c3f cdc1 813f 9180 783f 5c2b 833f
00000040: 4aa0 863f 2e36 813f ce93 803f afca 813f
00000050: 8ded 853f 916e 783f cf5c 743f accf 7d3f
00000060: 1782 7f3f 18fa 813f 6cb5 763f 1b03 803f
00000070: e20d 7b3f 68a5 7c3f 157a 873f 487a 7e3f
0.9635925 1.004327 0.9852894 0.95681137 1.0287707 1.0165908 0.9676985 0.96430445
0.9898889 1.0428681 1.0363605 1.0403136 0.98641723 1.0137268 0.97071177 1.0247607
1.0517666 1.0094659 1.0045106 1.0139979 1.046312 0.9704371 0.95454115 0.9914501
0.99807876 1.0154448 0.9637058 1.0000948 0.9806806 0.9868989 1.0584131 0.99405336

bn1.bias f4 [32]
00000000: c306 15bd b1a1 db3d a61b 4c3d adcb ebbb
00000010: dba1 09be 7d34 133e 35ac 053e 8380 dabc
00000020: 5b85 7bba 3862 e93d f4ca 923d 55e8 1a3d
00000030: bfc5 963d 32e6 aabd b0e4 1a3d 675e d3bc
00000040: 4f54 0abe 2da3 263d 00c2 1dbd f0b9 243e
00000050: 48d1 4b3d 77d4 863d 99b3 003e 5ba5 dcbd
00000060: fee0 363e 6c60 0f3e 0e29 5cbd 3b59 0abd
00000070: f4c4 17bd 1263 aa3d b619 043d 768d 023c
-0.0363834 0.107241996 0.049831055 -0.007195911 -0.13440649 0.14375491 0.13053973 -0.026672607
-0.00095947617 0.11395687 0.071676165 0.037819225 0.07361936 -0.083446875 0.03781575 -0.02580185
-0.13508724 0.04068296 -0.03851509 0.16086555 0.049760133 0.06583493 0.12568511 -0.107737266
0.17859265 0.14001626 -0.05375009 -0.033776503 -0.037053064 0.083196774 0.032251082 0.007968297

bn1.running_mean f4 [32]
00000000: 7f10 9bbe 8aca a4be f090 1d3d d5d2 eebc
00000010: 9990 4fbf f059 ec3e aca7 ef3e 1b0d fabe
00000020: 4655 84bf 4df2 d73e 12fa c73e 84ac b53e
00000030: 2d9c f93e 3508 e73c 0bf4 53bf 0b92 ba3d
00000040: 0a6c 73bf c5e6 843e 5b9a 11bf 7bf5 f9be
00000050: bd00 0e3f 08f0 62bf 7077 183e 379b b4be
00000060: 8b58 53be 9835 fd3b 6ff3 f3be 66f2 463f
00000070: 8ede e8bc ada8 283f 8b88 013f ec2e 153d
-0.30286023 -0.32185775 0.0384683 -0.029153267 -0.81080014 0.46162367 0.4680761 -0.48838124
-1.0338523 0.42177048 0.39057976 0.3548318 0.48751965 0.028202156 -0.82794255 0.09109887
-0.9508673 0.25957313 -0.5687615 -0.488201 0.55469877 -0.8864751 0.14889312 -0.3527467
-0.20639245 0.007727336 -0.47646663 0.7771362 -0.028426435 0.6588238 0.50598973 0.0364217

bn1.running_var f4 [32]
00000000: 771d 7a3b 4d4f 043c 158d 7b3a 2ff9 dc3a
00000010: 3a3b 853c 0bdb 773c 9224 0d3a c223 c03b
00000020: b424 7e3c 6bda b83a cadc eb3a 9cd1 3b3b
00000030: eca7 e83b 568b 363b 11c5 253c bff5 0f3c
00000040: 9519 483c 5962 883c c096 5a3c c713 ed3a
00000050: b7d2 c03b 3756 a83b 8fdb 1c3c 11b7 183c
00000060: fda7 543c 4953 133c 3999 9d3b 8b6f 1a3c
00000070: a96d 4a3c 64d0 e53b 96e4 643b 6749 563c
0.0038164535 0.008075547 0.0009595913 0.001685893 0.016263593 0.0151279075 0.00053841725 0.0058636377
0.01551168 0.001410318 0.0017994877 0.0028658872 0.007100096 0.0027854047 0.010117785 0.008786618
0.0122131305 0.016648458 0.013341606 0.0018087559 0.005884494 0.0051372307 0.009573831 0.00932099
0.012979505 0.008992025 0.0048095253 0.009426008 0.012355247 0.0070133675 0.0034926287 0.013079024

conv2.weight f4 [64, 32, 3]
00000000: ff74 94bd b809 d93c 4f9b 92bd 23ee ca3c
00000010: ebd5 65bd d849 c5bd 96fc 553d 9390 ffbd
00000020: e9d1 68bd 2b45 533d d9b5 81bd f1e9 353d
00000030: 9f42 a2bb a07e 9bbd bd69 b43c 636c 893d
00000040: 3ad9 013e 0f48 b2bc b80a 0c3e 1162 23bc
00000050: ddd3 9f3b 81c7 fb3d 77e6 9bbc d355 913d
00000060: 8074 7bbd 5971 0bbe cb26 5fbb 68a4 053e
00000070: fde2 e23d d76d 78bc cd0e abbd 5f84 a5bc
00000080: 6885 cc3c 1839 10bc 3030 9b3c 7da5 2f3c
00000090: f045 b53c 6bdf 28bd c243 c83c bdac 3bbd
000000a0: 5fd3 04bd d389 6abd 382b 87bd 3118 8a3d
000000b0: 8722 a73c 8337 94bd b33e 95bc 4854 b6bd
000000c0: 5293 cebd ee7c f1ba a740 8cbd 5670 c53c
000000d0: b163 493d 4daf 0cbd dc2e 09bd 7285 1dbd
000000e0: 3708 c33b 9d93 663d 4bb1 d6bd 8c52 acbb
000000f0: 96ab c0bd 0fb3 1f3c 6df0 dbbd eea5 30bc
00000100: e77e d7bd e600 893d 85c2 46bd f90c 403d
00000110: 91cc 453d ffde 94bd 032d 9f3c 97bc 85bc
00000120: a9d0 b83b 9abd 05bc 2f3f 0a3e 3b95 8abc
00000130: 521e f13d baf6 a83d 6953 8ebc bb2c f13d
00000140: 8464 8b3d 1b76 be3d 9db1 8d3c bc57 64bd
00000150: 753e 53bd 2b37 dc3c 8f53 51bd 4d2e 6fbd
00000160: 9605 923d 5cd9 8c3d 24cc 9dbc 8bb6 87bc
00000170: b19e 16bc ce5b 1a3d 2ff9 80bc 02fc 99bc
00000180: 1f09 5f3d 4dac 8a3d 5891 523d dbb2 a83c
00000190: 9f2b 28bd 640b 38bd b9a5 4cbd 87fc fe3c
000001a0: b828 aabd ea62 143e 0045 0cbd b388 943c
000001b0: f977 283c 6c03 18bd bfda 15bd 26cd 1b3d
000001c0: 5f27 3fbd c36a 2fbd e251 0c3e d226 95bc
000001d0: e2ba 973d becf 22be c054 203d 0fea 0dbd
000001e0: a09f 80bd f70f 703d 5f64 d43d 17a6 283d
000001f0: 488a ad3d b0a2 1abe 99b3 94bb d1a3 a7bb
00000200: 8ca5 fe3d 2f4f 9aba d6b4 a23d 70e1 9cbd
00000210: 7d6b 4f3d a598 0abe 5f0f bc3c 845f 733c
00000220: 9d07 b93c 57af ffbc ff02 15be 2f70 4c3d
00000230: 28fb 2abd 11aa ddbb 3840 913b 7b11 5b3d
00000240: 1512 063d c288 73bb 3ab7 59bc 71d9 833d
00000250: e679 293d 03f1 763d 706d dbbb 00fc 863d
00000260: 3d33 b33d 70f3 063d c03b 0fbe 5f70 023d
00000270: 0723 cebc b0ce 35be 275d 7a3d 73dc b83b
00000280: c6e7 223e a394 9bbd 3922 153d 8b33 94bd
00000290: 432d 3e3d 2051 133d b949 c83c e48a 3d3c
000002a0: bc0d bebd 93a8 893d fbf5 75bd aa97 d83a
000002b0: 056d d7bc 74a9 193d d50d b33d 9f6f 63bd
000002c0: 6ce1 c6bd 9389 89bb bb10 2c3e 0b78 c43d
000002d0: 613d 4a3c ac7f b2bd 66b1 5abc 845d 57bd
000002e0: 227f 2e3e a1de c83d 7af3 2d3e 34ed f83d
000002f0: 9447 a63d 38ff 36bd a132 c53c be0e f73d
00000300: 8951 9d3b 0543 763d 19e5 b0bd c381 e7bc
00000310: 1d3c 0cbe 21e8 493e d43a 813d 7019 bcbd
00000320: 3d52 d13c a75c b8bc d957 503b d7b8 753d
00000330: 82d1 d23b 7e6f 3d3d 34c8 c13d 4480 b4bc
00000340: 73b4 1abd d34e bb3d 7043 ac3b f58d 95bd
00000350: dbf0 cb3c e3ad f93d 98d3 aa3c ab58 253c
00000360: 1b9c 933d 5abe 1e3d 97a0 e73d 698e 743d
00000370: f649 f0bc 3cf2 c63c 44e4 b0bc c5af 5f3d
00000380: fcc4 4abd 9a77 6b3d ac87 fc3d 0cb5 8b3c
00000390: cd49 8c3c 3724 293c 9ea6 393d 1f86 6abd
000003a0: 31c4 9abc 0f82 eb3c 75d8 f9bc ade1 8f3d
000003b0: 6fb1 38bd 5c30 b03d 52c9 843d 688e e0bd
000003c0: 80ce d0bd bc87 4b3c 61d5 6ebd 5986 a5bd
000003d0: ff39 5dbd ef3b f7bc 7af5 ec3d ce27 723d
000003e0: b195 963c c6e9 8e3d e25f 0f3d 9b43 e1bd
000003f0: 2953 923c 38c4 3b3d 5af8 bd3c 635f 34bd
-0.07248878 0.026493892 -0.07158529 0.024771756 -0.05611221 -0.09633225 0.052242838 -0.12478747
-0.05684081 0.051579636 -0.06333513 0.044412557 -0.0049517895 -0.07592511 0.022023076 0.06710126
0.12680522 -0.021762876 0.13675964 -0.009972111 0.004877551 0.12293912 -0.019030793 0.07096448
-0.0613904 -0.13617457 -0.0034050222 0.13050997 0.11078451 -0.015162907 -0.083524324 -0.020204721
0.024965957 -0.008802675 0.018943876 0.010720608 0.022128075 -0.041228693 0.024446372 -0.045819033
-0.03242814 -0.057260346 -0.0660004 0.067428954 0.020402206 -0.072371505 -0.018218374 -0.08902794
-0.10086693 -0.0018424073 -0.06848269 0.024101418 0.04916734 -0.034346867 -0.033491954 -0.03845734
0.005951907 0.05629312 -0.10483035 -0.005258864 -0.094077274 0.009747281 -0.10739217 -0.010781748
-0.105222516 0.066896245 -0.048525352 0.04688737 0.048290793 -0.07269096 0.019430643 -0.016325278
0.0056401086 -0.00816288 0.13500665 -0.016916862 0.11773361 0.08250184 -0.017373757 0.1177611
0.06806281 0.092998706 0.017296607 -0.055747733 -0.051573236 0.026881775 -0.05110508 -0.058393765
0.07129972 0.068773955 -0.01926238 -0.016566535 -0.009193108 0.037685208 -0.01574382 -0.018796925
0.054452058 0.06771145 0.05140814 0.020593097 -0.041057225 -0.044932738 -0.049962733 0.031126274
-0.08308548 0.14490858 -0.03424549 0.01813159 0.01028251 -0.03711264 -0.036585566 0.03803744
-0.046668407 -0.042826425 0.13703111 -0.018206988 0.07408692 -0.1589956 0.039143324 -0.034647044
-0.06280446 0.058608975 0.10370707 0.04117402 0.08473641 -0.15101123 -0.0045380113 -0.005115964
0.12433919 -0.0011772866 0.07944648 -0.07660186 0.05063962 -0.13534792 0.022956548 0.014854316
0.022586638 -0.031211538 -0.14551924 0.049911674 -0.041743428 -0.0067646583 0.0044327043 0.053483468
0.032732088 -0.0037160371 -0.0132883135 0.06437958 0.041376017 0.06028844 -0.0066963956 0.06591034
0.08750007 0.032947004 -0.13987637 0.031845447 -0.025163187 -0.17754626 0.061123993 0.005641514
0.15908727 -0.075967096 0.03640959 -0.072363935 0.046429884 0.03596604 0.024449216 0.011568759
-0.092799634 0.06721606 -0.06004904 0.0016524692 -0.026297102 0.03751512 0.087428726 -0.055526372
-0.097109646 -0.0041973083 0.16803257 0.09593209 0.012343735 -0.08715758 -0.013347959 -0.052579418
0.17040685 0.09808088 0.1698741 0.12154618 0.08119121 -0.04467699 0.024071993 0.12063359
0.0048009795 0.06012251 -0.08637447 -0.028260117 -0.13694806 0.19717456 0.06310049 -0.09184539
0.02555191 -0.022505118 0.0031790643 0.05999073 0.0064336667 0.046248905 0.09462014 -0.022033818
-0.037769746 0.09145894 0.0052570626 -0.07302467 0.024895122 0.121913694 0.020852849 0.010091941
0.07207509 0.038755752 0.11309927 0.059706125 -0.029332142 0.024285428 -0.02159322 0.054610986
-0.049504265 0.057487108 0.12330565 0.017054103 0.017125035 0.010323576 0.045324914 -0.057256814
-0.01889238 0.02874854 -0.030498723 0.07025466 -0.04509109 0.08602974 0.06483711 -0.10964662
-0.10195637 0.012422498 -0.058308963 -0.080822654 -0.054010388 -0.030179946 0.115702584 0.059119992
0.018381925 0.069781825 0.03500355 -0.10999223 0.01786192 0.045841426 0.023189712 -0.04403628

conv2.bias f4 [64]
00000000: 584d c8bc c5d2 2fbd 3230 9c3d fe8b 09bd
00000010: ce7f 8b3d f730 883d d6b3 9b3d 6f0f c13d
00000020: 7d09 3f3d 00c5 613d 7cfe be3b 6907 963d
00000030: 634e 7f3d 58c4 203b 1e39 01bd daac 093d
00000040: 6c00 38bd 799f 2c3d 3f2b c1bc a98a cdbd
00000050: d3a0 423d d07a 40bd 6c20 9b3d bd98 973c
00000060: 98bb 54bd 2543 7bbb f7ee b4bc dfc8 67bc
00000070: a975 8fbd 79ce fe3c 8240 c6bc 72e6 8dbc
00000080: f052 913d 8149 a9bc 6038 773b 1d7d 403c
00000090: 6ac8 b23d d5e2 3a3d 7e9f 21bc caac d0bc
000000a0: e5aa 6ebd 6c88 883d cd03 3cbd 18b7 413d
000000b0: c794 b23c 62b7 b33d dea3 273d c4d6 cdbd
000000c0: 58d0 a9bd 623f 833d 8ace b93c 91ac 753d
000000d0: ed2e c7bd a111 c83d b625 a4bc 1511 8f3c
000000e0: 9257 61bc 2b38 92bd a4f5 573c 7591 4bbd
000000f0: 6f56 43bc b04e b93d 70c3 433d 4bc4 b63d
-0.024450943 -0.042925615 0.0762638 -0.033580773 0.06811486 0.06649964 0.0760266 0.09426772
0.046639908 0.055119514 0.0058286767 0.07325632 0.062330615 0.0024531092 -0.03154861 0.03361211
-0.044922277 0.042144272 -0.023580192 -0.10036213 0.047516655 -0.046992123 0.07574543 0.018505448
-0.051936716 -0.0038339582 -0.022086604 -0.0141470125 -0.07004864 0.031104313 -0.024200682 -0.017321799
0.07095897 -0.020664932 0.003772281 0.011748579 0.08729632 0.04562648 -0.009864686 -0.025473017
-0.058268446 0.066666454 -0.045902062 0.047293752 0.021799458 0.08775212 0.04092776 -0.10050729
-0.082916915 0.06408574 0.022681493 0.059979025 -0.09725747 0.097689874 -0.020037513 0.0174642
-0.013753789 -0.071396194 0.013181124 -0.049699266 -0.011922463 0.090482116 0.047793806 0.08924159

bn2.weight f4 [64]
00000000: 35c4 803f a0da 7e3f 92f7 863f ce59 813f
00000010: c133 803f e700 833f 55ec 7d3f 7cf6 813f
00000020: 0a9c 813f 6751 813f a8e1 823f 03f0 843f
00000030: c882 803f 62e0 803f 3f5b 803f dbe5 803f
00000040: 7448 7d3f 404b 813f fd1f 843f bbcb 823f
00000050: 0c2c 833f 5501 833f 0ce4 7b3f 3b56 8b3f
00000060: b38e 813f a029 853f fb13 833f cf7a 803f
00000070: 5883 823f 3908 813f fc14 7f3f ba9a 7f3f
00000080: 6c09 833f aabf 833f 4da6 823f 20e8 823f
00000090: a4d9 803f ed21 833f b2e1 833f eeaa 803f
000000a0: 1a3b 803f 00b7 833f 84b8 803f 41c2 853f
000000b0: 7ef1 883f 8e15 823f 4664 803f d2e1 803f
000000c0: 5c87 813f a49f 803f 3424 813f 0bc9 823f
000000d0: 7801 813f a0d4 803f 0345 803f 8c09 833f
000000e0: 2b7d 843f 79ef 813f 5067 843f 18a1 833f
000000f0: 0bef 7f3f cdcb 803f 5a0e 823f 31d5 813f
1.0059878 0.99552345 1.0544302 1.0105531 1.0015794 1.023465 0.9918874 1.0153346
1.0125744 1.0102967 1.0225115 1.0385746 1.0039911 1.0068476 1.0027846 1.0070146
0.9893868 1.010109 1.0322262 1.0218424 1.0247817 1.0234782 0.98394847 1.088569
1.0121673 1.0403328 1.0240473 1.0037478 1.0196333 1.0080634 0.99641395 0.9984547
1.023725 1.0292866 1.0207001 1.0227089 1.0066419 1.0244728 1.0303252 1.0052164
1.0018036 1.0290222 1.005631 1.0449907 1.0698698 1.0162828 1.0030601 1.0068915
1.0119433 1.0048718 1.0089173 1.0217603 1.0078573 1.0064888 1.0021061 1.0237288
1.0350698 1.0151206 1.0344028 1.0283537 0.99974126 1.0062195 1.016063 1.0143186

bn2.bias f4 [64]
00000000: 1dff 993b 0db4 ebbc c9db ad3c 5b11 41bc
00000010: d086 4d3c d8cc 97bc cff7 02bc 5de9 d03b
00000020: 9ddf c7bc 809f 373c c3c7 9fbc abfa 553c
00000030: 86cf fc3b ecb0 2b3b 5814 01bb b8ff 2ebc
00000040: 76e7 293b 8efb 9e3b 959b 77bc 1ca0 85bd
00000050: b192 923c 2abd 9dbc ee55 5bbc c3e7 aa3b
00000060: 907b cf3b 4934 7abc a056 77bd 92c1 663b
00000070: 2117 8bba 5564 deba c681 903a 0342 dabb
00000080: 229d 0fbc ecf9 653c bbaf 6dbd 568f ca3b
00000090: c43f 703c b75c 37bd d409 38bd af17 aabb
000000a0: f610 56bd ccb8 a23c c669 123c d9a5 b2bd
000000b0: e9b4 5dbd 5892 6aba fd92 25bb 434c 9f3c
000000c0: 2a2c e63b 096c 623c 32df f83b c74a 9c3b
000000d0: 8468 3c3c 8c24 d43b 2a48 a33b 7a99 95bc
000000e0: c7c8 323c d9dc 5cbd dd8b b6bd 5e61 3f3b
000000f0: 6b81 c13b b0ea bb3c 8b7a c73b 5ff7 5f3c
0.0046996013 -0.028772378 0.021222966 -0.011783923 0.012544349 -0.018530294 -0.0079936525 0.0063754753
-0.02439862 0.011207461 -0.019504433 0.013060252 0.0077151684 0.0026197983 -0.0019695964 -0.010681085
0.0025925315 0.004851765 -0.015112777 -0.06524679 0.017892214 -0.01925524 -0.013387186 0.0052156164
0.0063318685 -0.015271255 -0.060385346 0.0035210592 -0.0010611751 -0.0016967157 0.0011025004 -0.0066607012
-0.008765491 0.014036637 -0.058028918 0.0061816378 0.01466364 -0.044766154 -0.044931248 -0.0051908116
-0.05226227 0.019863509 0.008936351 -0.08723039 -0.054127607 -0.00089481985 -0.0025264614 0.019445544
0.0070243077 0.013819703 0.0075949663 0.0047696563 0.011499528 0.0064740833 0.004982968 -0.01826166
0.010912127 -0.053921554 -0.089133956 0.0029202322 0.0059053204 0.022939056 0.0060876063 0.013669818

bn2.running_mean f4 [64]
00000000: 54f8 a7bd af94 073f a4e7 f23e 3df3 4f3f
00000010: e904 1abd e45e a4be 40c7 adbe 35cb 213e
00000020: 6175 16bd d505 913d e271 c33d 2170 013f
00000030: 2fb7 f2bc 084a ad3b b746 b6bd 5fea 193f
00000040: 2271 3f3b 5e92 ddbd 5f3c fbbd 5345 7e3f
00000050: 123a 54be 4c80 abbe de5b b5bd 3bad d5be
00000060: 399e 62bf 6fa0 1d3e 318e 18bd 5f03 dd3e
00000070: 6bbd 853c df1e 4cbe 349d d33e 2cb6 99be
00000080: 753f 053d 70d4 b9be 8676 81be 8d2b 00bf
00000090: 823d c93e ce4a ffbe c75c 323d 93f0 33be
000000a0: bedb e4be 9ab7 24bd 1b04 68be 2c42 913d
000000b0: 8a6e 553b b5b6 a2be 11b9 96bd 517a 8dbe
000000c0: c40b 04be 8bec b33e be9e 7e3c 348d 083f
000000d0: badb 69bf 0625 053e 38be b5bc 304a b73e
000000e0: f8a6 3ebf 37dc 90bd b8b1 283f 769f 713e
000000f0: 1b2a c3bd b73d c63d dd59 513f d8c2 17be
-0.08201662 0.5296125 0.47442353 0.8123053 -0.03760234 -0.32103646 -0.33941078 0.15800174
-0.036733035 0.070811905 0.09543206 0.5056172 -0.029628364 0.005288366 -0.089002065 0.60123247
0.002921172 -0.10818933 -0.12267374 0.9932453 -0.20725277 -0.3349632 -0.08855413 -0.41733727
-0.8852268 0.15393232 -0.03724498 0.43166634 0.016325673 -0.19933651 0.41330874 -0.300218
0.03253122 -0.3629489 -0.2528574 -0.50066453 0.3930474 -0.4986176 0.04354551 -0.1757224
-0.446989 -0.04021416 -0.22657816 0.070926994 0.0032567107 -0.3178002 -0.07359517 -0.27632383
-0.12895113 0.35141405 0.015540777 0.5334046 -0.913509 0.13002405 -0.02218543 0.35798788
-0.74473524 -0.07073253 0.6589618 0.23595986 -0.09529515 0.0967974 0.81777745 -0.1482042

bn2.running_var f4 [64]
00000000: 0052 c83e dbe9 863e ea9a 623e af40 0f3f
00000010: bac8 923e 173f 2d3e ed30 393f cd7a e83d
00000020: 63df 263e c1b8 b43e bc4c 283e 43c2 213e
00000030: bceb 913e c709 fd3d 8436 123e eb66 023f
00000040: dfa8 c23e 562f 9b3e 0582 a13d b6ce c73e
00000050: 167f 1e3e 66a6 413e bc2f 843e e3ce 243e
00000060: 00b7 813e 530b 133e 7bdb 3b3d 7f79 4b3e
00000070: 6c1c 233e b302 403e ae21 8d3e 7a12 1e3e
00000080: 258e c53d 68b6 0e3e 7b85 d33d d77f 4c3e
00000090: 252d 003f 9eb4 e83e 4ca3 813d 291f c73d
000000a0: 54d6 8b3e 696f 673e 8012 2f3e 25d3 ed3d
000000b0: 8d83 ca3d 0ff6 033e 8e51 243e 32c8 b53e
000000c0: b14d 8a3e a2fa 8f3e e8c2 9a3e f949 db3d
000000d0: 90a6 a63e e697 5f3e d259 d23e 6bfc 133e
000000e0: 4c71 5f3e e8fb 9c3e b043 2d3e 5252 c83d
000000f0: a63c 593e 9d8f 803e 8467 923e 0d66 8d3d
0.3912506 0.26350293 0.22129408 0.55958074 0.28668767 0.16918598 0.7234028 0.113515474
0.16296153 0.35297206 0.16435522 0.15796761 0.28500164 0.123553805 0.14278609 0.5093829
0.38019463 0.30309552 0.078861274 0.39024895 0.15478167 0.18911132 0.25817668 0.16094546
0.2533493 0.14359789 0.04586361 0.19870566 0.15928811 0.1875103 0.27564758 0.15436736
0.096462525 0.1393677 0.10328194 0.19970642 0.50068885 0.454503 0.063299745 0.0972274
0.27311957 0.22601093 0.17096901 0.11612538 0.098883726 0.12886833 0.16046736 0.355043
0.270124 0.28120905 0.30226827 0.107074685 0.32548952 0.21835288 0.41084152 0.14451759
0.21820563 0.3066094 0.16920352 0.09781326 0.21214542 0.25109568 0.285946 0.0690423

t_conv1.weight f4 [64, 128, 2]
00000000: 9f53 063d 3f48 703d 1a17 2fbc e490 1b3d
00000010: 91ca 773d b0f5 08bd 0e7b 03bd e30b 4f3d
00000020: 9800 cd3c b772 e33a 402d aa3d d88c 033d
00000030: 3013 65bd e939 583c 7472 593d 9115 58bd
00000040: bef4 78bd 4fe0 71bd 4886 963b 807f 983c
00000050: 9467 893d a91f 113c d0cd 44bc 8027 f73d
00000060: 1567 343d ed11 503d fc93 8fbb 022a 643b
00000070: b5f8 333d 7ee4 0cbd 6efd 353d 6fba 47bd
00000080: 3aca 8cbd c06d b4bb 8c45 753d ed2a e8bc
00000090: f82e f2bc ea91 5b3c b925 5fbd 2865 193c
000000a0: 40b0 60bc dd14 03bd 74a5 a63d 60c1 37bd
000000b0: d51d 1e3d 575a 60bb 1b64 25bd de87 163d
000000c0: 167d 05bd 1001 30bc 690a d2bc 2e92 273c
000000d0: ec9f 313c cb1c 8abd 066a 3c3d 00d2 6dbd
000000e0: 3a40 52be a0d5 bfbc 8171 37bc 9a5a 4f3d
000000f0: 6e67 0cbd 89a5 2c3d eb36 243d 49ab d2bc
00000100: 6bed b13d 02e3 d2bd d940 413d 3f51 563d
00000110: 3899 613d 401f 4c3d bf6b 613d 7bd8 1c3d
00000120: c052 3b3d de3f 3f3d db50 01bd 0063 3f3d
00000130: aa4d 0b3c 3919 683d 3077 b43d bbc7 69bd
00000140: ac63 843b ea91 01bc 1370 763c 7250 113c
00000150: e306 a1bc ce92 393c e744 053d ea54 a4bc
00000160: aae8 f9bc 22ed f83a ddee 8b3c 0d66 823d
00000170: 8b41 d3bd d910 a9bd 26a5 1dbd ce54 a93c
00000180: 0ffb b1bc 7f4a 1ebc 4e13 1cbd db8d 6d3d
00000190: e0cc e4bc eec6 f4bb bba2 c6bc 95bb e7bb
000001a0: fb42 0fbd 1081 d7bc dc97 db3c 1e01 1cbd
000001b0: 1947 4e3d 72b4 ae3c 25e3 53bd e384 f53c
000001c0: 5297 fdbc bc1a 733d 6323 653d b9ef da3c
000001d0: 3680 80bc ba68 4bbd b61b 003d 8967 3d3c
000001e0: ad01 2bbb 1b55 463d 18b1 33bd 619f 493d
000001f0: 962b adbc f05f 693c acde 493c ae42 013d
00000200: 57f9 803c 7cce fcbc ee38 32bd 105a 593d
00000210: 1c97 9f3c 826a 703d 0765 8ebd 9612 e0bb
00000220: 0002 e3ba 0290 623c 543e a9bd 32f8 4ebd
00000230: bbb9 84bd 1d2a 1c3c 0f74 e8bc 2c77 9abd
00000240: efc7 a23b 9de0 b43c a821 93bd bddd 54be
00000250: 5186 843d c096 aebb ef7f 483d 7051 53bd
00000260: 1bb6 afbc f77d a33d 2d1d 1bbd 3efb 273d
00000270: de10 6a3b e942 c6bc 7607 cb3c 8044 0f3d
00000280: 6328 ad3d f01c c2bc 5cc9 f5bc 5f9f 3dbd
00000290: b190 573d bce0 4e3d e766 b23c 789d 003d
000002a0: f404 c83d 19f6 2fbc cfd0 46bd 71e3 54bd
000002b0: 0f5f 7abb 6199 2d3c c52c 86bc 847f fa3c
000002c0: 2ebd 733c 44bb 0a3d 96de 133c e206 17bd
000002d0: 1141 1b3b e685 39bc 02ef d63c 7893 bfbc
000002e0: 5dd1 c3bb 5851 303d 0a04 da3c a3b0 073d
000002f0: e19e 9dbc decf 463c 0948 ae3c 9f08 573a
00000300: 606d 00bd d8f7 20bd d0c8 11bd a447 6cbd
00000310: 8fee 423d c877 2dbd ef79 b03b 7889 2e3c
00000320: 6ebe 113d c5cd 173c c126 a33d 4013 1bbd
00000330: b3c2 56bd 08db 1abb fbfd 663d 60c5 06bd
00000340: cd77 8b3d fb37 2e3d cdb6 6a3d 3aea 0d3d
00000350: 1f63 29bd f8ec f33c 3e9f cb3d 1e4d 5f3d
00000360: 1b39 43bd 9dce d03c 7cd7 96bc 14e6 5a3d
00000370: b4fd d83c 332b 1e3d 22eb a43d c0b4 2bb7
00000380: 0f2c 0bbd 2506 9e3c eb73 973d b207 3a3c
00000390: 602b 573d 504c 03bc fee6 cebc 9865 5ebd
000003a0: 019b f43c 2516 ac3a 1337 47bd 457d 2bbd
000003b0: 92da 59bb 8250 7f3d 3cee ee3c 517e 6d3d
000003c0: 349d 4bbc ce68 8c39 86d5 09bd 13aa 323d
000003d0: cc30 513d 1098 43bc 5855 763d daec 013d
000003e0: ca90 613d 9f5f 843c 8753 a6bc 9e56 433d
000003f0: cf0a 8bbd 1f54 2dbc 9695 42bd 83cb e73c
0.03279459 0.05866265 -0.01068666 0.037979975 0.060495917 -0.03343743 -0.032099776 0.050548445
0.025024697 0.0017352913 0.08309412 0.03211674 -0.0559265 0.013197401 0.053087667 -0.052754942
-0.06078028 -0.059051808 0.0045936443 0.018615484 0.06709209 0.008857646 -0.01201196 0.12068081
0.04404362 0.050798345 -0.004381655 0.0034815078 0.043938357 -0.034397595 0.044431143 -0.04876178
-0.06874509 -0.0055062473 0.05988078 -0.028340781 -0.029563412 0.013401488 -0.054479335 0.009362496
-0.013713896 -0.03200232 0.081370264 -0.04486215 0.03860267 -0.0034233534 -0.04037867 0.036750667
-0.032589994 -0.010742441 -0.02563973 0.010227723 0.010841351 -0.06743773 0.04599955 -0.0580616
-0.20532313 -0.023417294 -0.011196495 0.050623514 -0.034278326 0.042150054 0.040091436 -0.02571644
0.08687862 -0.102972046 0.047180984 0.052323576 0.05507776 0.04983449 0.055034395 0.03829239
0.045733213 0.046691768 -0.03157125 0.046725273 0.008502403 0.05666468 0.08811796 -0.057075243
0.004040202 -0.007908324 0.015041369 0.008869277 -0.019656604 0.011326505 0.032536414 -0.020060021
-0.03050645 0.001899157 0.017081672 0.06367121 -0.10315236 -0.082551666 -0.038487576 0.02067032
-0.02172616 -0.009661316 -0.038104348 0.057996612 -0.027929723 -0.0074700033 -0.024247518 -0.007071922
-0.034975987 -0.026306659 0.02680581 -0.038087003 0.050360773 0.021326277 -0.051730294 0.029970592
-0.030955944 0.059351668 0.05594195 0.026725637 -0.015686136 -0.049660422 0.031276427 0.011560329
-0.0026093528 0.048421007 -0.04387006 0.04922426 -0.021138947 0.014244065 0.0123211555 0.03155773
0.015743895 -0.030860178 -0.043511324 0.053064406 0.019481234 0.058695324 -0.06952863 -0.006838153
-0.0017319322 0.013828279 -0.08263841 -0.050529666 -0.06480738 0.009531525 -0.028375654 -0.075422615
0.0049676816 0.02207976 -0.07184154 -0.20787711 0.06470931 -0.0053280294 0.048950132 -0.051591337
-0.02144914 0.0798301 -0.03786962 0.041011088 0.003571562 -0.024201827 0.024783831 0.034977436
0.08454969 -0.02369544 -0.030003242 -0.046294566 0.052628223 0.050507292 0.021777583 0.031400174
0.0976657 -0.010739827 -0.04853898 -0.051974718 -0.0038203632 0.01059565 -0.01637877 0.030578382
0.014876647 0.033869997 0.009025237 -0.0368718 0.0023689906 -0.011323428 0.026237015 -0.023385748
-0.005975886 0.043046325 0.026613254 0.03312744 -0.019240798 0.01213452 0.021274583 0.0008202884
-0.031354308 -0.039298862 -0.0355919 -0.05768551 0.04759079 -0.04235056 0.0053856294 0.010652892
0.035582 0.009265368 0.07966376 -0.037860155 -0.052431773 -0.0023629088 0.05639456 -0.032903075
0.068099596 0.042533856 0.05730324 0.034647204 -0.041354295 0.029776081 0.099424824 0.054516904
-0.047661882 0.025489146 -0.018413298 0.053442076 0.026488163 0.038615417 0.080526605 -1.0234478e-05
-0.033977564 0.01929004 0.073951565 0.011354374 0.0525316 -0.0080138 -0.02525663 -0.054296106
0.029859068 0.0013129158 -0.048636507 -0.041867513 -0.003324185 0.062332638 0.029166333 0.057981793
-0.012427617 0.00026780966 -0.033650897 0.043619227 0.051071927 -0.01193811 0.060139984 0.03172002
0.055069722 0.016158877 -0.0203035 0.047690026 -0.06789171 -0.010579138 -0.047505938 0.028295284

t_conv1.bias f4 [128]
00000000: 43a5 75bd 284f cb3b d92e a1bc 1d12 f63c
00000010: 3860 58bd 2c54 153d 18d6 59bd 3a10 c13c
00000020: d4d9 753d 45b4 cb3c c1b9 893d ebfb d63b
00000030: ef92 52bb 47f1 f13c 49a8 6d3c 8eb4 363d
00000040: ea2f 43bd 7252 a53c 13c8 4bbd 71e5 58bb
00000050: ad1a 8c3d b591 a5bc cf4e 513d 6a11 063d
00000060: 37dd 5cbd 07d0 2e3d 91dd ad3c 9c81 623d
00000070: 0afb 21bd b1f0 6a3c e18e af3c 9a0b 26bc
00000080: b7bb 9f3d 1511 80bd d94f b53c 2ae5 243d
00000090: d480 893c 5e48 963d 8c18 d5bb b6c1 4f3d
000000a0: 73a7 833d 2d5d 2ebc 3f6e 783d 587e 583d
000000b0: 5e4f 1e3a 90ca 2a3c 6d03 7ebd b3da 323d
000000c0: 2680 f43c d2b0 b03c b520 703d 8ef5 4fbd
000000d0: 256f 2a3d f994 a8bb 3742 23bd 847f 9c3d
000000e0: f03c afba e0c1 b6bb 1aae 093d f43f 843d
000000f0: 72a2 a4bd 0047 263c 5f5a fbbc 3180 893d
00000100: d721 873d a532 9fbd bc13 1bbd 5316 55bd
00000110: 035a cebc e76f 3e3d 0dcd d63c 4e4d 153d
00000120: 9b74 583d a631 82bd b654 653d 7f82 98bc
00000130: aa21 5d3d 6621 4a3d b1fc 24bc 3817 c23c
00000140: f859 c53c 2023 37bd 683e 0f3b 7df0 92bc
00000150: 9431 203d 094b e63c 3ec4 4abd 9b1d 633c
00000160: 103d a63c 0afd f83b 6470 693c 5a1a 833d
00000170: 7a62 c4bc 4df6 7bbc 805c 4d3d 82b3 1abd
00000180: a2aa 823d 536a 023d 3222 873d 9294 12bd
00000190: f83c 2fbc a7a2 ddbc 51f8 9e3d 11f7 61bc
000001a0: e86d 883d 71f8 853d 5b73 6b3d 48ab b4bc
000001b0: 1871 cf3c cb62 0fbd d4ac 843d 9cbf 143d
000001c0: 0ad8 1b3d d9b8 9b3c 651d 983d 4ed4 28bd
000001d0: 9ed1 99bd 4678 303d 3c4f 303c 5a79 9bbc
000001e0: d2d1 ec3c 9854 343d da49 3b3d 62ac f0bc
000001f0: 7971 9a3d f390 18bd 9f31 3dbc 814c a9bc
-0.05997206 0.0062045045 -0.019675659 0.030037934 -0.052826136 0.036457226 -0.05318269 0.023567308
0.06002219 0.024866233 0.06724883 0.0065607927 -0.0032131036 0.029533995 0.014505454 0.044605784
-0.047653116 0.020180915 -0.049751353 -0.0033095742 0.068410255 -0.02021108 0.05110055 0.03273145
-0.053921904 0.04267886 0.021223815 0.055299386 -0.03954605 0.014339612 0.021430435 -0.010134602
0.07799476 -0.06253258 0.0221328 0.04025761 0.016785063 0.07338022 -0.0065031704 0.050721847
0.06428423 -0.010642332 0.060652014 0.052854866 0.00060390483 0.010424271 -0.062014986 0.0436656
0.029846262 0.02156869 0.05862494 -0.05077129 0.041609902 -0.005144712 -0.03985807 0.07641509
-0.0013369601 -0.005577311 0.0336133 0.064575106 -0.080387965 0.010148764 -0.03068274 0.06713904
0.06598251 -0.077733316 -0.037860617 -0.052023243 -0.025189405 0.046493437 0.026220823 0.036450677
0.05284558 -0.06357126 0.05598899 -0.018616913 0.053987183 0.049348257 -0.010070012 0.023692712
0.024090752 -0.044711232 0.0021857265 -0.01793694 0.03910978 0.028111951 -0.049503557 0.013862039
0.020292789 0.007598524 0.014247987 0.064015105 -0.023972739 -0.015378547 0.050137043 -0.03776885
0.06380202 0.03183968 0.06598319 -0.03578622 -0.010695688 -0.027055098 0.07762206 -0.013791815
0.06661588 0.06541527 0.05748306 -0.02205433 0.025322482 -0.035006326 0.06478277 0.036315545
0.038047828 0.01900904 0.074274816 -0.041218095 -0.075106844 0.04308345 0.010761078 -0.018978763
0.028908644 0.044025987 0.045724727 -0.029379074 0.075411744 -0.03724761 -0.011547475 -0.020666363

t_conv2.weight f4 [128, 64, 2]
00000000: f583 703d fc06 8c3d 9c64 e43c 6805 15bd
00000010: 1c55 103d d865 aab9 4623 8c3c 8552 4b3d
00000020: cb41 073c 76e5 7bbc 3d35 92be 3243 09bd
00000030: b5f2 7c3d ab14 6f3d cc61 44bd 484d 92bd
00000040: 2d9b 1f3d 00cc 8c3c cab5 2d3c 0b5e a2bd
00000050: a1b0 da3c 8b9f 33be 7197 483d 832d 3ebd
00000060: 9cb0 42bd 0165 0b3c 8805 ca3c ad78 9fbd
00000070: d49a ba3c 8f57 303c d9a4 c9bd 7a5f b9bd
00000080: f011 e239 8dfe 1cbe da7f 42bd 1f61 a33d
00000090: 8703 0fbc 4877 9b3c 7218 e9bc f755 77bd
000000a0: bf37 6dbd 61a8 673d c927 de3d aba0 653d
000000b0: 465d d83d cc83 bfbd 9275 3b3d df29 2a3d
000000c0: 537f 55bc 38dd 713d 031e bdbd 29e9 c3bd
000000d0: e8a5 b93d a126 973d 38e8 98bd 8822 fbbc
000000e0: 0298 1ebd 36c8 b5bb bedb 3e3d 8c71 eabc
000000f0: 8578 cfbb a6c2 60bd cf0e ac3c 6733 c23c
00000100: 6151 bc3c 844b db3d f3e6 26bd e476 13bd
00000110: 5a97 82bb f98a b5bd 8e56 5dbd 4bf1 a9bd
00000120: 0eae 33bd 0c6a 603d 1a77 b23d 89fb cdbd
00000130: 53d5 8b3c 526f b03d 1ca6 a4bd d79a d4bc
00000140: cc04 2abd df74 ea3d fa85 bd3d abc1 3f3d
00000150: bd09 43be a521 1c3d ae71 6b3d 1470 5539
00000160: 8adb 6fbd 952c 2c3d 84e6 c0bd ac5f c83d
00000170: 9584 073e 52fb af3d ba78 eabd 8567 253e
00000180: b334 dcbd 6c9a abbb eaa7 96bd e7c6 7fbc
00000190: 489e 0a3d 437c 5cbd 21ba 9dbb f6df 22bd
000001a0: b397 b2bd 7de4 b83d dcfd 98bc 920c 863d
000001b0: e5a4 37bd e77d 1fbd 0ce4 023e 7ae8 abbd
000001c0: 89b2 06bc d408 c4bc 6fec 10bb 576e 603c
000001d0: 414b bfbc 96a8 d5bd ff54 da3c f843 5a3d
000001e0: 2e0e 813a 30ea bb3c 165a f4bd 6c7e a73c
000001f0: 5f87 4bbe dcb2 7abc 11ec 5f39 976a f93c
00000200: c87f 96bd cddc 81bd 753a edbc 3bd7 e7ba
00000210: b3b3 bf3c 8b38 6cbd 41c8 7ebd 267e 223d
00000220: 9df5 623d ecde 863d 078f 86bd 3d33 e13c
00000230: e6f6 32bd 3039 d6b9 73ff 96bc 6ab1 493c
00000240: 1b1a 9d3d 34b1 3f3d b413 1abe 83b8 22be
00000250: 81b6 abbd cf79 cd3d a120 873d ca78 0f3d
00000260: cb20 dd3b 2507 e33c ab03 b43c e48b a73b
00000270: 58d8 c4bb 201b ce3c 604e 713d 1f43 5b3d
00000280: eb93 98bd dfce 6f3d 674f bb3d a999 27bd
00000290: d229 3b3d c263 35bd d559 acbd aead e3bd
000002a0: bce9 bd3c f360 dabc 3b8f d6bb d5d0 573d
000002b0: f611 693d 4e03 c6bd 7ed2 7aba d1bc 64bb
000002c0: 80a1 2e3d c588 cfbd ae72 3ebc f97f 6c3d
000002d0: fbad 69bd 6b33 0cbd 1e5f 463d 1ed8 06bd
000002e0: 0b20 603d 5131 49bd 200d 34bb 1bac ee3c
000002f0: bcf5 cb3c 81b2 43bc 952a d33b b834 d23c
00000300: a6ac 0e3d a5bb 03be f611 533d 40b1 083d
00000310: 3414 82bc d50e 393d 7953 84bd 092a 58bd
00000320: e07f 0c3b 1ae4 8bbd d697 c13d 9897 87bc
00000330: ad9a babd 184e 4fbd 83f4 51bd 7774 9bbd
00000340: 0a91 a9bc a18f 0ebd 2b59 acbd 1924 063d
00000350: b2e8 723d e91f 0fbd 2cde 3b3c 5de0 fdbd
00000360: ed67 7d3d 7257 af3d 36e9 24bd d0f8 a13d
00000370: 06b1 4cbc 4cec 663c 6719 41bd b29d febd
00000380: 3c1d 313a 6c10 75bc 7d8f 8a3c b798 1f3d
00000390: 2315 06bd 04b7 b5bc fa4b 963d 8a3c b73c
000003a0: 823f 5dbc 74e6 b9ba 790e b53c 1977 eb3c
000003b0: 8555 7bbc 2109 15bd 8303 f13c 03f9 f6b9
000003c0: 124c 673c 770b 3a3d 39cd a23b e156 353d
000003d0: b26e 63bd 1532 133d 45fe f73c da44 35be
000003e0: c42a 46bd 352b 55bd e386 40bc 473b 33bd
000003f0: cd8e 703d 96f5 803c 9383 8a3b 3617 713d
0.058719594 0.0683727 0.027880006 -0.03638211 0.035237417 -0.00032500806 0.017106663 0.049639244
0.008255432 -0.015374532 -0.28556243 -0.033511348 0.0617549 0.05836932 -0.04794483 -0.071436465
0.038966347 0.017187119 0.010602424 -0.079280935 0.026695551 -0.1754133 0.04897255 -0.046430122
-0.04753171 0.008507968 0.02466084 -0.07786689 0.022778906 0.010763063 -0.09845895 -0.09051414
0.00043119444 -0.15331478 -0.04748521 0.07977509 -0.008728868 0.018977776 -0.02845404 -0.060384717
-0.05791449 0.056557063 0.10847432 0.056061428 0.105646655 -0.0935131 0.04576642 0.041543838
-0.013030845 0.05904886 -0.0923424 -0.09565956 0.09064847 0.07380415 -0.07466167 -0.030656114
-0.038719185 -0.0055475486 0.04659628 -0.028618596 -0.0063315057 -0.05487313 0.021003155 0.023706151
0.022988023 0.10707763 -0.040747594 -0.036002055 -0.0039853277 -0.088643976 -0.054037623 -0.08297976
-0.043867163 0.054788634 0.08714123 -0.10057742 0.017069494 0.08614983 -0.08039495 -0.02595274
-0.04150848 0.11448073 0.092540696 0.046815556 -0.19046684 0.038118023 0.05748146 0.00020355015
-0.05855898 0.042034704 -0.09418967 0.09783873 0.1323417 0.085928574 -0.11448808 0.16152771
-0.10752239 -0.0052369144 -0.07356246 -0.015611387 0.033842355 -0.053829443 -0.004813448 -0.039764367
-0.087203406 0.09027956 -0.018675737 0.06545366 -0.04483499 -0.03893843 0.12782305 -0.08393951
-0.008221277 -0.02392999 -0.0022113582 0.013698182 -0.023351314 -0.10432546 0.026651857 0.053287476
0.0009846145 0.022938818 -0.11931245 0.020446025 -0.19875859 -0.015301432 0.00021354879 0.030446334
-0.07348591 -0.063409425 -0.028958539 -0.0017688045 0.023401117 -0.05767111 -0.062202696 0.039671086
0.055410016 0.06585488 -0.06570249 0.027490253 -0.043692492 -0.0004085987 -0.018432355 0.012310365
0.07670995 0.046799853 -0.15046579 -0.15890698 -0.08384419 0.10032999 0.0659802 0.035027303
0.006748294 0.027713368 0.021974405 0.005113112 -0.0060072355 0.025159419 0.058912635 0.05353081
-0.07450088 0.058546897 0.09146004 -0.040918026 0.04569418 -0.04428459 -0.084155716 -0.11117111
0.023182742 -0.026657557 -0.006547836 0.052689392 0.056901895 -0.09668599 -0.0009568109 -0.0034902582
0.042634487 -0.101335086 -0.011624021 0.05773923 -0.057050686 -0.034228723 0.048430555 -0.03292095
0.05471806 -0.049119297 -0.0027473643 0.0291348 0.024897449 -0.011944414 0.006444285 0.025659904
0.03483262 -0.1286455 0.0515308 0.033372164 -0.015878774 0.04518016 -0.06461234 -0.052774463
0.0021438524 -0.06830616 0.094527885 -0.016551778 -0.09111533 -0.050611585 -0.051258575 -0.07590573
-0.020699043 -0.034804944 -0.08415445 0.03274927 0.059303947 -0.03494254 0.011466544 -0.123963095
0.06186669 0.08561601 -0.04026147 0.07908785 -0.012493378 0.0140944235 -0.047143366 -0.12432422
0.00067563704 -0.014957529 0.016914124 0.038964 -0.032735 -0.022181995 0.0733871 0.022367734
-0.013503911 -0.001418306 0.022101628 0.028743314 -0.015340214 -0.03638566 0.02942062 -0.00047106305
0.014117258 0.04542109 0.004968312 0.044272307 -0.05552549 0.035936434 0.030272612 -0.17702046
-0.04838063 -0.05204316 -0.0117509095 -0.043757703 0.058729935 0.015742105 0.0042271107 0.058860026

t_conv2.bias f4 [64]
00000000: 5cd5 ba3d 2401 44bd cc45 873d 6147 68bc
00000010: 6371 11bd 180b dbbc 6436 35bd 7d53 e43c
00000020: 65be 813c bb50 b33d 48c9 86bc 9983 dd3c
00000030: 3fee bf3b ed1d 2bbd a49e e43a dd86 543d
00000040: b597 9d3d 6132 b43d 6263 6bbc fe98 8a3d
00000050: f660 48bd 2e15 f5bc 38aa 83bd 0d42 ba3d
00000060: cf7d 25bc 0f4a db3d 7930 28bc 5524 67bd
00000070: 958a 9e3d a966 833d 72f7 a63d 9ae0 9cbd
00000080: ef6e 523d 3029 a2bc 4637 ad3d d5c7 2ebb
00000090: 40f5 c9bd 009b f73b 57d4 093d 1e95 2f3b
000000a0: d2ea a8bd ce01 493c 1f7b 22bd fa07 f0bc
000000b0: 08de 633d eef0 77bd 54c5 c23d addc 9c3d
000000c0: 41df a33d 8d2b 20bd 3dd4 1c3c b441 623d
000000d0: e0ea 8fbd e6e9 7d39 6a8e 473d fea4 63bd
000000e0: dd2b a43d eecc 0e3d 3e78 9ebd 3de0 99bc
000000f0: 6950 0bbd 8a15 843c 12fe 2fbd 7f6a 933d
0.09122726 -0.04785265 0.066051096 -0.014177174 -0.035508525 -0.026738688 -0.044241324 0.027871842
0.015837857 0.087556325 -0.0164534 0.02704029 0.0058572586 -0.041776586 0.0017442298 0.05188643
0.076949514 0.087986715 -0.014366956 0.06767462 -0.048920594 -0.029917326 -0.06428951 0.090946294
-0.010100796 0.10707485 -0.010265463 -0.056431133 0.07741276 0.06416065 0.08152665 -0.07660027
0.051375326 -0.01979503 0.08457808 -0.0026669402 -0.09861231 0.0075563192 0.03364977 0.0026791762
-0.082479134 0.012268497 -0.0396682 -0.029300679 0.055631667 -0.060532503 0.095102936 0.07659278
0.08001567 -0.039104033 0.009572086 0.05523844 -0.07027221 0.00024215094 0.0487198 -0.05557727
0.08016179 0.034863405 -0.07737778 -0.018783683 -0.034012232 0.016123552 -0.04296691 0.07198047

conv_out.weight f4 [1, 64, 3]
00000000: 817e 633d 4cb9 8b3b 38da 043c 00b0 9bbc
00000010: 7eae 12bd 4b1f 61bd ee34 81bd 024e af3d
00000020: 23a1 bbbc 3991 a4bc 2188 a0bd cad7 16bd
00000030: 2086 6bbc 666a 053d e9a7 3c3c 42a8 cd3d
00000040: 13ea 063c eb61 ed3c 6df7 0b3d 75fc ab3d
00000050: 8750 2bbd fc49 41bd 5803 bfbb 6688 083c
00000060: bc9f 0fbd 2298 bebc 09fa b13d 1a86 e7bc
00000070: 3066 c03d 570f aabc 3939 85bc 567c a9bd
00000080: 08ca d1bc 7de3 b9bc c0d6 f5bc acc8 ab3d
00000090: 7fb8 753a 51c1 103d b1e1 2dbd 768c c8bb
000000a0: e7bc 78bc b4f2 a83d c8af 48bd a29f 60bd
000000b0: 306b 3fbd f81b f2bc 0a4f 143d 5165 b33d
000000c0: 6a23 47bd 4cbe 103d ceb6 ba3c dc08 3c3d
000000d0: 4116 0c3d d98f 943d 1566 153d e193 593d
000000e0: 1318 703d 4900 fbbb 9654 423d 2172 9f3d
000000f0: 3fe5 b93d 98c9 e23a 27c8 8cbd bbaa a33d
00000100: f6ac 50bd 34b0 1d3d 654d 02bb 13e9 ccbd
00000110: 0ea0 f03d 7e30 9d3d 6b83 0a3c 812c 923d
00000120: 6540 113d c981 413c 8955 813d 537d 333b
00000130: 185a a83c 12b5 c13d 0132 423d 3f6d 153d
00000140: 5625 0abc 4484 91bd 1af2 82bc 883c b8bd
00000150: 12b4 303d 5e1c 90bd a207 a7bd 7bd5 7e3c
00000160: 34ca dcbc dbd1 91bd 308a 1fbd fa3c 8c3d
00000170: f389 ad3d c1c9 f2bc 3f3c 16bd 74fc 32bb
00000180: 90a4 673d 37a1 a93d a275 583c 6e33 40bc
00000190: 8462 b3bc 9e94 053c 2a36 903d dbeb 423d
000001a0: 2a80 ffbd cb14 123d add6 f13c ae77 2ebb
000001b0: 68f2 4abd d0f2 e6bc 51c3 0b3d c932 5d3d
000001c0: d6d0 83bd 2fe2 bf3d 51a2 f13c aa07 a33c
000001d0: 0c5e 29bd e717 ab3c a8ff ab3d 95ab 923d
000001e0: 2c47 f3bd 3bdd 1e3e 742d cd3d 9c0e b73d
000001f0: d5ec 88bd a661 5ebc 4b14 b3bd 1d91 43bd
00000200: c5f7 173e 5f6b 4bbc a479 45bd 14ae bc3d
00000210: 3aa1 c7bd 99c8 a6bd 6e03 e0bb fd69 21bd
00000220: 3727 033d 8dd7 c03d cc20 f43d ff33 71bd
00000230: 035d d3bc 30b6 dbbc 0244 b33d 7a6f a9bc
00000240: 6539 d2bd a5b9 043e f1f3 dfbd d833 aebd
00000250: 4f3e 8fbd 303b ba3d 6e9e 18bc 51f1 71bd
00000260: 0834 84bd ab7b 113c a638 eb3c c0cf 86bd
00000270: fb79 96bc 7d37 b73b 0190 6ebd 74c1 bfbc
00000280: 42e5 dbbc 5dcd 573d a989 6a3b a22f 4b3d
00000290: a913 f5bc ef39 a23d df1a 6dbd 0563 723d
000002a0: bd2c d0bc ebdd 99bd 403d 09bd 19ad 02bd
000002b0: 1a17 00bd 332c bb3c b4d3 d6ba 5eec 4ebd
000002c0: 5a7b 0c3e f2af 91bd 426f ce3c 32eb 293e
000002d0: f4fe 89bc 3c17 9a3d 0acf a73d 101e 843d
000002e0: 698e 89bd 869b caba c04c 04be 48f9 aabd
000002f0: 2599 c5bd 3272 aabc 2b81 00bd c12a 583c
0.055540565 0.0042640325 0.008108668 -0.019004822 -0.03581094 -0.054961484 -0.06308924 0.08559801
-0.022903984 -0.020088779 -0.078384645 -0.036826886 -0.01437524 0.032572173 0.011514642 0.10041858
0.008234519 0.028977355 0.03417151 0.08397762 -0.041824844 -0.047189698 -0.005829256 0.008333301
-0.035064444 -0.023265902 0.086902685 -0.028262187 0.09394491 -0.020759268 -0.016262637 -0.08275668
-0.025609031 -0.022691483 -0.030009627 0.083878845 0.00093735004 0.03534061 -0.042451564 -0.00612026
-0.015181757 0.08249417 -0.048995763 -0.054839738 -0.04673308 -0.029554352 0.03620819 0.08759559
-0.048617758 0.03533773 0.022792246 0.045906886 0.03420091 0.07253999 0.036474306 0.053119544
0.05861671 -0.007659946 0.04744395 0.0778544 0.09076928 0.0017302511 -0.068741135 0.07991549
-0.0509462 0.03849812 -0.0019882557 -0.10005393 0.11749278 0.07675265 0.008454184 0.07137395
0.035461802 0.011810728 0.06315143 0.0027387931 0.020550773 0.094583645 0.04741097 0.03648114
-0.008431753 -0.07105306 -0.015984584 -0.089959204 0.04314048 -0.070366606 -0.08155753 0.015553827
-0.026951887 -0.07120105 -0.038950145 0.06847568 0.08473577 -0.02963722 -0.03667855 -0.0027311118
0.056553423 0.082827024 0.01321164 -0.011731012 -0.021897562 0.008153109 0.07041581 0.04758821
-0.12475617 0.03566436 0.02952131 -0.0026621628 -0.049547583 -0.028191954 0.034121815 0.05400351
-0.06436317 0.09369313 0.029496344 0.019901115 -0.041349456 0.020885421 0.08398372 0.07161633
-0.11878809 0.1551408 0.10018435 0.089383334 -0.06685797 -0.013573086 -0.08744105 -0.047745813
0.1484061 -0.012415736 -0.04821171 0.0921289 -0.097475484 -0.0814373 -0.0068363464 -0.03940772
0.03201982 0.09416113 0.11920318 -0.058887478 -0.025801187 -0.026820272 0.08753206 -0.020683039
-0.102648534 0.12961443 -0.109352 -0.08505982 -0.06994306 0.0909332 -0.009315116 -0.059068028
-0.06455237 0.008879582 0.028713536 -0.06582594 -0.018368712 0.0055913315 -0.0582428 -0.023407675
-0.026842717 0.052686084 0.0035787618 0.049605973 -0.029916601 0.07921206 -0.057886954 0.059176464
-0.025411958 -0.075130306 -0.03350568 -0.03190336 -0.03127203 0.022848224 -0.0016389997 -0.050518386
0.1371893 -0.07113637 0.025199536 0.16593626 -0.016845204 0.07523963 0.081937864 0.064510465
-0.06716616 -0.0015457727 -0.12919903 -0.08348328 -0.096483506 -0.020806406 -0.031373184 0.013193787
