pths/denoiser_model_4.pth (torch, 166322 bytes, 17 tensors)

conv1.weight f4 [32, 1, 3]
-0.43775338 -0.25294122 -0.36960015 0.2500293 0.19114043 0.52159107 -0.15005313 0.5510583
0.23728886 0.2140287 0.3796257 -0.09932281 -0.3539611 0.5510522 0.07593562 -0.16025934
0.21742554 0.39871785 -0.3932747 -0.41752818 0.25251108 0.44378263 -0.32056656 -0.027425036
0.39205378 0.20233919 0.50704104 -0.35794508 0.40506995 0.025509074 -0.46503702 -0.16082028
-0.2910335 -0.22295316 -0.14381978 -0.14726946 -0.05646883 0.40314895 -0.005423462 0.10400324
0.019433167 -0.40880027 -0.018160203 -0.37214044 0.08095573 0.08613461 0.063556716 -0.32426402
0.15005106 -0.09682936 -0.122053884 0.54982746 0.44813654 0.37815687 -0.51774865 -0.4001163
0.49629143 -0.1871458 0.3391113 -0.44052345 -0.36769536 0.49485072 0.04460034 0.46236035
0.008240802 0.06367349 0.17709845 0.12329477 0.63826686 -0.4980259 -0.064896144 0.21428262
0.011883109 -0.17725232 0.18947808 -0.31630954 -0.18527918 -0.30547753 0.48397544 -0.54028624
-0.13498823 0.47826168 0.09405301 0.0053538634 0.12985525 -0.17520247 -0.24891193 0.27561048
0.26929277 -0.34363788 0.124480315 0.2866741 -0.482235 0.238785 0.47260484 0.28881755
00000000: 3621 e0be 8381 81be 3b3c bdbe d703 803e
00000010: 51ba 433e fe86 053f 87a7 19be 2812 0d3f
00000020: dafb 723e 572a 5b3e 4d5e c23e c269 cbbd
00000030: 643a b5be c211 0d3f 2284 9b3d 061b 24be
00000040: cda4 5e3e bf24 cc3e 4d5b c9be 41c6 d5be
00000050: 2249 813e 7a37 e33e 4d21 a4be 78aa e0bc
00000060: 46bb c83e 0132 4f3e 71cd 013f 9444 b7be
00000070: 5465 cf3e 68f8 d03c 5519 eebe 12ae 24be
00000080: 5802 95be d54d 64be 7e45 13be cecd 16be
00000090: dc4b 67bd 8a69 ce3e 4cb7 b1bb a7ff d43d
000000a0: 4e32 9f3c 454e d1be b5c4 94bc 3189 bebe
000000b0: 1ecc a53d 5867 b03d 062a 823d ef05 a6be
000000c0: fca6 193e 794e c6bd 63f7 f9bd 7ec1 0c3f
000000d0: 2772 e53e c79d c13e 2d8b 04bf 0bdc ccbe
000000e0: e919 fe3e 26a3 3fbe ff9f ad3e 4a8c e1be
000000f0: 9142 bcbe 135d fd3e d9ae 363d 7fba ec3e
00000100: 6e04 073c 3f67 823d 4c59 353e f881 fc3d
00000110: 7565 233f 40fd febe 45e8 84bd e76c 5b3e
00000120: 5fb1 423c a281 35be 8b06 423e 53f3 a1be
00000130: d3b9 3dbe 8d67 9cbe a1cb f73e 3350 0abf
00000140: 5b3a 0abe b7de f43e dd9e c03d 766f af3b
00000150: c6f8 043e 4768 33be c5e2 7ebe d11c 8d3e
00000160: bee0 893e 4ef1 afbe 89ef fe3d f3c6 923e
00000170: 82e7 f6be 0e84 743e 43f9 f13e e5df 933e

conv1.bias f4 [32]
0.15226132 -0.40960625 0.31192493 0.07972733 -0.17404416 -0.00097648404 -0.12763184 0.38244978
-0.027777003 0.39832762 -0.42405844 -0.3560534 0.2961692 0.08768811 -0.042913783 -0.48102844
0.45349407 -0.4846095 0.21281382 0.2545298 -0.29349646 0.36614776 0.20448247 0.38473916
0.516299 -0.20474742 0.1116285 0.27870068 0.05807689 0.27567518 -0.33046597 0.40522972
00000000: 64ea 1b3e e9b7 d1be a0b4 9f3e 1548 a33d
00000010: a238 32be bcfa 7fba ecb1 02be 75d0 c33e
00000020: 998c e3bc 99f1 cb3e 301e d9be a24c b6be
00000030: 7da3 973e d395 b33d 5dc6 2fbd 5c49 f6be
00000040: 6030 e83e bd1e f8be deeb 593e bb51 823e
00000050: 2b45 96be b877 bb3e da63 513e 88fc c43e
00000060: 2c2c 043f 4fa9 51be 7c9d e43d dbb1 8e3e
00000070: 08e2 6d3d 4c25 8d3e d632 a9be 457a cf3e

bn1.weight f4 [32]
0.9929558 0.98768413 1.0117022 1.0319843 0.9964054 0.9988215 1.0047003 1.0490435
0.9879556 0.97360915 0.9885526 0.9831696 1.0567963 0.9573942 0.97929686 0.9871629
0.9497121 0.98655766 0.99847525 1.0012076 1.0230182 1.0468845 0.9603785 0.94483334
1.0166429 0.99888504 1.0423114 1.010307 0.97011536 1.0149593 0.9890768 1.014942
00000000: 5a32 7e3f ded8 7c3f 757f 813f 1018 843f
00000010: 6d14 7f3f c4b2 7f3f 059a 803f 0f47 863f
00000020: a8ea 7c3f 733e 793f c811 7d3f 01b1 7b3f
00000030: 1a45 873f c917 753f 33b3 7a3f b5b6 7c3f
00000040: 5520 733f 0b8f 7c3f 139c 7f3f 9227 803f
00000050: 43f2 823f 5000 863f 5edb 753f 99e0 713f
00000060: 5b21 823f eeb6 7f3f 766a 853f bd51 813f
00000070: 7b59 783f 30ea 813f 2334 7d3f 9fe9 813f

bn1.bias f4 [32]
0.044493195 0.00447592 -0.0012834964 0.00809709 -0.016959943 -0.0111048855 0.067271054 0.043986615
-0.005926808 0.039047796 0.042407945 0.034361117 0.03745338 0.02628189 0.05027459 -0.0011133223
-0.062099207 -0.0007171331 0.039188728 0.012838733 0.01966483 0.0105054155 -0.016965242 -0.032433443
0.03506764 0.03209832 0.049256988 -0.015893856 0.009311289 0.040874124 -0.0047519533 0.010389878
00000000: 7f3e 363d bdaa 923b fe3a a8ba a8a9 043c
00000010: 94ef 8abc 44f1 35bc 68c5 893d 4f2b 343d
00000020: ab35 c2bb 95f0 1f3d f4b3 2d3d 3ebe 0c3d
00000030: b768 193d 1e4d d73c baec 4d3d e6ec 91ba
00000040: bd5b 7ebd fdfd 3bba 5c84 203d 8d59 523c
00000050: 2318 a13c e81e 2c3c b1fa 8abc eed8 04bd
00000060: 16a3 0f3d 8779 033d b2c1 493d d533 82bc
00000070: 608e 183c a06b 273d 46b6 9bbb 4f3a 2a3c

bn1.running_mean f4 [32]
0.08190988 -0.34713948 0.3547451 0.114406526 -0.15600947 0.028209947 -0.1678343 0.3887093
0.04439065 0.4030875 -0.48495668 -0.39042598 0.32021102 0.070457324 -0.06481684 -0.4901673
0.44916025 -0.39293194 0.1799065 0.23722911 -0.28222904 0.40269426 0.26429665 0.35929045
0.5169263 -0.25812674 0.09984138 0.3186839 0.03933659 0.2915067 -0.33236766 0.47175327
00000000: 5ec0 a73d 44bc b1be 26a1 b53e f84d ea3d
00000010: f2c0 1fbe 8c18 e73c c1dc 2bbe e804 c73e
00000020: f8d2 353d 7c61 ce3e 3e4c f8be eae5 c7be
00000030: b3f2 a33e ee4b 903d b1be 84bd 35f7 fabe
00000040: 55f8 e53e 602e c9be 6939 383e 30ec 723e
00000050: 5380 90be f12d ce3e e451 873e ebf4 b73e
00000060: 4855 043f 3029 84be a379 cc3d 892a a33e
00000070: 671f 213d 5e40 953e 182c aabe a589 f13e

bn1.running_var f4 [32]
0.64360255 0.5729457 0.48358315 0.25954694 0.42279136 0.2906921 0.47514212 0.270802
0.7116204 0.26639402 0.50410306 0.15298931 0.19124308 0.19628453 0.16237934 0.11878926
0.048698526 1.085479 0.7273165 0.30834118 0.3564219 0.26303628 0.6249134 0.32761854
0.059666105 0.37305808 0.5165565 0.30485457 0.13430126 0.2749484 0.31338283 0.6106684
00000000: 23c3 243f 92ac 123f 3698 f73e 56e3 843e
00000010: 1c78 d83e 98d5 943e d445 f33e 8fa6 8a3e
00000020: c12c 363f cc64 883e e60c 013f 3ba9 1c3e
00000030: 3ad5 433e d0fe 483e c546 263e c947 f33d
00000040: 1b78 473d faf0 8a3f 6a31 3a3f e5de 9d3e
00000050: ee7c b63e b1ac 863e 53fa 1f3f 9ebd a73e
00000060: 7264 743d 7801 bf3e 0c3d 043f e615 9c3e
00000070: 4586 093e 09c6 8c3e b773 a03e c454 1c3f

conv2.weight f4 [64, 32, 3]
0.03942287 0.053608153 -0.09933638 0.06772595 -0.010670317 0.053184673 -0.11043167 -0.011557877
0.12426195 0.017749982 -0.100003794 0.07457348 0.029901624 0.04998466 0.11190906 -0.028041812
-0.064585194 -0.048642825 -0.02147074 -0.082722686 0.052116275 0.03647187 0.010573322 -0.09199061
0.024612496 -0.047072534 -0.038911633 0.06342927 -0.061924472 -0.014905953 -0.08177386 0.10735665
-0.077571966 0.09427999 0.095688604 -0.008161668 -0.05987967 0.034752678 0.07240033 0.0038998257
-0.021100095 0.091094084 0.019682432 -0.09226403 0.016428625 0.04439764 -0.04872028 -0.049219977
-0.032957006 0.065210015 0.00988244 0.075010926 0.052494045 -0.0355685 0.06903912 -0.05752951
0.053745866 0.016486315 -0.042258754 -0.02562996 0.03122229 0.016428392 0.13199271 -0.08678131
-0.02537358 -0.019395322 0.012317952 -0.096895635 0.089886315 -0.032060567 -0.071820945 -0.048374925
-0.042522024 -0.041400403 0.13809596 -0.01151066 0.08639324 0.08956189 -0.091472484 -0.03296957
-0.06633906 0.06759237 -0.07627616 -0.1369251 0.07698904 -0.020397792 -0.029485712 0.000110455636
-0.054642987 -0.11955458 -0.09227431 -0.06929141 0.06558038 -0.06269428 -0.11501978 -0.058477346
-0.07747024 0.0637016 0.027053935 0.025399309 0.064216726 -0.03462214 -0.10651699 -0.0659776
0.029985422 -0.067311 0.041555822 0.016467141 0.010527092 -0.13010992 -0.06196629 0.035592474
-0.03986795 -0.028173633 -0.069427945 -0.015806677 -0.030505568 0.00636723 -0.022097766 0.012250549
-0.0007078603 0.04815298 -0.000179127 0.05013464 0.0147182215 -0.0024612893 0.046620592 0.0918061
0.018029515 -0.048902832 -0.045981463 0.065238535 -0.0859348 -0.058140945 -0.042736076 0.022679335
0.03936441 0.065337636 0.08631637 0.076723225 -0.011293284 -0.061286665 0.053085897 0.023815177
-0.09318268 0.04571179 -0.06776288 -0.07566587 -0.048484158 0.04970136 -0.07275881 -0.065783314
0.051404152 0.04450219 0.09818722 -0.09458141 -0.09626014 -0.05200359 -0.12420805 -0.013786256
-0.10570411 0.022406045 -0.08888043 -0.015269318 0.08342207 0.0576884 0.042322896 0.08981847
0.06584116 -0.0037607031 0.013239907 0.09275391 0.0109084295 0.038223904 0.043586362 -0.09134777
0.058433075 -0.091659345 0.02705007 -0.10368038 0.03651108 -0.04580076 0.010873868 0.08497528
-0.120877236 -0.047991205 -0.098796524 -0.029371282 0.030135756 -0.0050681583 0.04447035 -0.10429537
-0.04001505 -0.019271594 0.08191608 0.0046496126 -0.03535006 -0.03572643 0.084804624 -0.045085937
-0.0028196673 0.0221019 -0.05485801 -0.0940164 0.08373544 0.04317791 -0.01515318 0.06549731
-0.015024719 0.033622216 0.0015821552 -0.0062228134 0.0022017313 -0.09974074 -0.063254535 -0.029505458
0.0764276 0.13006873 -0.008953641 0.0677988 -0.06697234 -0.058094107 0.04542834 -0.05791609
-0.04239032 -0.0075505283 -0.0021115914 0.046034496 0.1385044 -0.024396053 0.045536924 -0.06695377
0.066165686 0.05558548 0.058285017 -0.044260245 -0.031376272 -0.04779922 0.09982527 -0.04857772
-0.05249004 0.050132606 -0.061046965 0.049684033 -0.043392137 0.03241605 -0.052043255 -0.06335296
-0.048788536 -0.087418124 0.00013257482 0.09445429 0.034281544 0.068964936 -0.101100504 0.05891686
00000000: e079 213d 3994 5b3d df70 cbbd e7b3 8a3d
00000010: 8ed2 2ebc 2cd8 593d 002a e2bd 405d 3dbc
00000020: 0d7d fe3d 6968 913c cace ccbd fbb9 983d
00000030: 40f4 f43c b7bc 4c3d 9430 e53d f1b7 e5bc
00000040: 3e45 84bd b33d 47bd 68e3 afbc 836a a9bd
00000050: e077 553d 8763 153d ba3b 2d3c 9365 bcbd
00000060: 25a0 c93c 21cf 40bd ce61 1fbd 35e7 813d
00000070: 84a4 7dbd 1938 74bc 0e79 a7bd cedd db3d
00000080: 0dde 9ebd de15 c13d 63f8 c33d 84b8 05bc
00000090: 6344 75bd d358 0e3d a046 943d 3894 7f3b
000000a0: 1bda acbc 898f ba3d 0d3d a13c ecf4 bcbd
000000b0: 5395 863c 4dda 353d eb8e 47bd e39a 49bd
000000c0: edfd 06bd d48c 853d f5e9 213c 549f 993d
000000d0: ff03 573d 47b0 11bd 6264 8d3d 10a4 6bbd
000000e0: a024 5c3d 4f0e 873c 8417 2dbd ecf5 d1bc
000000f0: e3c5 ff3c d694 863c 1929 073e 66ba b1bd
00000100: 41dc cfbc f0e2 9ebc 3cd1 493c 3871 c6bd
00000110: 5116 b83d f151 03bd dc16 93bd c924 46bd
00000120: 932b 2ebd 7893 29bd 0769 0d3e 3597 3cbc
00000130: f0ee b03d 396c b73d ed55 bbbd 1a0b 07bd
00000140: c6dc 87bd de6d 8a3d ad36 9cbd 1836 0cbe
00000150: 6eac 9d3d 4519 a7bc 058c f1bc 6ba4 e738
00000160: 53d1 5fbd 08d9 f4bd 50fa bcbd a8e8 8dbd
00000170: 024f 863d dc65 80bd 7e8f ebbd f185 6fbd
00000180: b8a8 9ebd fc75 823d 37a0 dd3c 3612 d03c
00000190: 0f84 833d f2cf 0dbd 9425 dabd 441f 87bd
000001a0: fda3 f53c 59da 89bd 7036 2a3d 19e6 863c
000001b0: d379 2c3c 893b 05be 5dd0 7dbd 6ac9 113d
000001c0: 934c 23bd 64cc e6bc 3d30 8ebd 017d 81bc
000001d0: d0e6 f9bc 32a4 d03b 6006 b5bc 87b6 483c
000001e0: b38f 39ba 0f3c 453d 0ad4 3bb9 fb59 4d3d
000001f0: b224 713c 954d 21bb 3cf5 3e3d d604 bc3d
00000200: a2b2 933c 564e 48bd 0f57 3cbd c89b 853d
00000210: 96fe afbd 3325 6ebd 060c 2fbd 03ca b93c
00000220: 933c 213d bdcf 853d a3c6 b03d 1121 9d3d
00000230: 7707 39bc ba07 7bbd 9970 593d 0c18 c33c
00000240: 90d6 bebd 493c 3b3d 44c7 8abd b5f6 9abd
00000250: 5397 46bd a793 4b3d 9202 95bd 67b9 86bd
00000260: 298d 523d ee47 363d 6216 c93d e6b3 c1bd
00000270: 0924 c5bd b701 55bd ca60 febd c0df 61bc
00000280: 657b d8bd e28c b73c f106 b6bd 292c 7abc
00000290: 31d9 aa3d ac4a 6c3d c65a 2d3d bff2 b73d
000002a0: bbd7 863d 2176 76bb 32ec 583c c3f5 bd3d
000002b0: 45b9 323c ab90 1c3d 9d87 323d 8a14 bbbd
000002c0: 8557 6f3d e5b7 bbbd 1c98 dd3c 6156 d4bd
000002d0: a48c 153d 9499 3bbd 4f28 323c 8507 ae3d
000002e0: 7c8e f7bd 6d92 44bd d555 cabd 0b9c f0bc
000002f0: 43df f63c cb12 a6bb 8b26 363d d098 d5bd
00000300: d2e6 23bd 76df 9dbc 9ec3 a73d c75b 983b
00000310: 39cb 10bd e155 12bd 0cae ad3d 08ac 38bd
00000320: 2bca 38bb 0b0f b53c cbb2 60bd ac8b c0bd
00000330: 7d7d ab3d 52db 303d 0b45 78bc 7423 863d
00000340: 3d2a 76bc 73b7 093d 5260 cf3a bee8 cbbb
00000350: ec4a 103b e044 ccbd 988b 81bd 6eb5 f1bc
00000360: 1386 9c3d bd30 053e 4bb2 12bc 19da 8a3d
00000370: cb28 89bd 16f4 6dbd 1113 3a3d 6c39 6dbd
00000380: 79a1 2dbd 6c6a f7bb a062 0abb ab8e 3c3d
00000390: 19d4 0d3e 3bda c7bc ed84 3a3d 0f1f 89bd
000003a0: e081 873d 9aad 633d 45bc 6e3d 3b4a 35bd
000003b0: 6884 00bd 1dc9 43bd 3171 cc3d 6ef9 46bd
000003c0: ccff 56bd d957 4d3d 620c 7abd 7c81 4b3d
000003d0: f4bb 31bd b1c6 043d 4f2b 55bd 32bf 81bd
000003e0: 7dd6 47bd 4608 b3bd c803 0b39 4071 c13d
000003f0: ce6a 0c3d 7d3d 8d3d c80d cfbd ce52 713d

conv2.bias f4 [64]
0.05240578 0.022377884 -0.044703458 0.07955261 0.06418894 -0.080014 0.024328316 -0.06759864
0.021572638 -0.053953573 -0.025813056 -0.064866826 0.09118353 0.03481482 0.067003734 -0.040302
0.025129514 0.090686485 0.046778895 0.07678048 -0.059909802 0.0072912453 -0.09698002 0.009584278
-0.08873817 -0.1007556 -0.05426742 -0.06411494 0.03267363 0.023551535 0.021980125 0.020887427
0.08934129 0.03929056 -0.06509216 -0.06260541 -0.09271743 0.07589264 0.09380639 -0.025686948
-0.05812859 0.008218915 -0.051152997 0.047313094 0.03968037 -0.058781587 -0.022534482 -0.092765145
-0.051204477 -0.036257457 -0.068521634 0.010518743 0.07958309 -0.0031519644 0.038085777 -0.034088966
-0.084933616 -0.04096553 0.09051404 -0.07390859 -0.055574775 -0.06985296 0.092761286 -0.022659218
00000000: 71a7 563d d351 b73c f91a 37bd 7bec a23d
00000010: 7e75 833d 61de a3bd 2d4c c73c 2871 8abd
00000020: 1ab9 b03c 6cfe 5cbd e775 d3bc e6d8 84bd
00000030: 6ebe ba3d fc99 0e3d 4139 893d b613 25bd
00000040: 69dc cd3c d6b9 b93d 3a9b 3f3d 163f 9d3d
00000050: fb63 75bd 66eb ee3b 769d c6bd 6007 1d3c
00000060: 5cbc b5bd f458 cebd 8447 5ebd b24e 83bd
00000070: c9d4 053d 26ef c03c aa0f b43c 1c1c ab3c
00000080: 91f8 b63d 23ef 203d 0a4f 85bd 4437 80bd
00000090: a3e2 bdbd 9a6d 9b3d 911d c03d 6f6d d2bc
000000a0: 3f18 6ebd a1a8 063c ce85 51bd 60cb 413d
000000b0: e287 223d f6c4 70bd 3c9a b8bc a7fb bdbd
000000c0: c9bb 51bd b382 14bd 1255 8cbd ce56 2c3c
000000d0: 76fc a23d 3091 4ebb d5ff 1b3d dfa0 0bbd
000000e0: adf1 adbd 79cb 27bd 6d5f b93d 635d 97bd
000000f0: 60a2 63bd 120f 8fbd a1f9 bd3d d39f b9bc

bn2.weight f4 [64]
1.0347079 1.0296619 1.054107 1.0604508 1.0701067 1.0271285 1.0321835 1.0406066
1.0273309 1.0359405 1.0341771 1.013041 1.0325739 1.0285745 1.0341074 1.0550259
1.0150801 1.0355155 1.0264728 1.0396955 1.025685 1.0355675 1.026201 1.0523138
1.026206 1.0378516 1.0468102 1.0331221 1.0173447 1.0266944 1.0349454 1.0315317
1.055085 1.045564 1.0136253 1.0381569 1.0593894 1.0530409 1.075633 1.0542287
1.030317 1.0358026 1.025695 1.0554738 1.0256389 1.0452482 1.0594343 1.0210787
1.0192733 1.0141119 1.0215912 1.0332483 1.0273936 1.0563234 1.0297984 1.0320294
1.0482616 1.0577409 1.0561175 1.0379523 1.055306 1.0602444 1.0368874 1.0222689
00000000: 4f71 843f f6cb 833f faec 863f dabc 873f
00000010: 42f9 883f f278 833f 971e 843f 9932 853f
00000020: 947f 833f b399 843f ea5f 843f 54ab 813f
00000030: 622b 843f 54a8 833f a25d 843f 170b 873f
00000040: 25ee 813f c68b 843f 7663 833f be14 853f
00000050: a549 833f 7a8d 843f 8e5a 833f 38b2 863f
00000060: b85a 833f 52d8 843f e0fd 853f 583d 843f
00000070: 5a38 823f b96a 833f 1779 843f 3b09 843f
00000080: 060d 873f 0bd5 853f 79be 813f 53e2 843f
00000090: 129a 873f 0bca 863f 58ae 893f f7f0 863f
000000a0: 6de1 833f 2e95 843f f949 833f c419 873f
000000b0: 2348 833f b1ca 853f 8b9b 873f b5b2 823f
000000c0: 8c77 823f 6bce 813f 80c3 823f 7b41 843f
000000d0: a281 833f 9b35 873f 6fd0 833f 8a19 843f
000000e0: 702d 863f 0e64 873f dc2e 873f 9fdb 843f
000000f0: 4414 873f 17b6 873f bab8 843f b5d9 823f

bn2.bias f4 [64]
0.027466232 0.015007453 0.05801576 0.04224413 0.053032894 0.02885909 0.03197975 0.041649368
0.021910528 0.0316689 0.05474336 0.012596283 0.026026929 0.03299066 0.036073267 0.04775952
-0.0032378873 0.027009346 0.017422743 0.016614586 0.02849589 0.012438843 0.030521832 0.04754452
0.01999333 0.027661858 0.026271751 0.018452493 0.017444892 0.009891999 0.030326417 0.026617087
0.05396344 0.044647884 0.011297093 0.03183612 0.03750208 0.037997637 0.035265528 0.03376005
0.034970656 0.029438904 0.029718075 0.039643403 0.022428969 0.02980879 0.05939279 0.012911992
0.026496649 0.011287077 0.0064893807 0.033927884 0.022050815 0.042450897 0.025852375 0.031233186
0.03429848 0.049494185 0.03988186 0.038759913 0.020764131 0.04264766 0.03494922 0.023764068
00000000: dd00 e13c d2e1 753c efa1 6d3d 2e08 2d3d
00000010: 0539 593d e669 ec3c 33fd 023d 8798 2a3d
00000020: b57d b33c 40b7 013d 933a 603d a460 4e3c
00000030: 6d36 d53c 3721 073d 90c1 133d 7d9f 433d
00000040: bc32 54bb b442 dd3c 24ba 8e3c 501b 883c
00000050: 3670 e93c 4acc 4b3c ec08 fa3c 0bbe 423d
00000060: 0dc9 a33c 1f9b e23c db37 d73c af29 973c
00000070: 97e8 8e3c 0d12 223c 1b6f f83c 140c da3c
00000080: c508 5d3d b3e0 363d 7117 393c 9766 023d
00000090: c89b 193d 69a3 1b3d 9672 103d fa47 0a3d
000000a0: 643d 0f3d db29 f13c 5273 f33c 1f61 223d
000000b0: f5bc b73c 9031 f43c db45 733d d28c 533c
000000c0: 800f d93c 6fed 383c dfa4 d43b f7f7 0a3d
000000d0: e9a3 b43c fee0 2d3d 5cc8 d33c bddc ff3c
000000e0: 907c 0c3d 6aba 4a3d 295b 233d b7c2 1e3d
000000f0: 8a19 aa3c 50af 2e3d ea26 0f3d ddac c23c

bn2.running_mean f4 [64]
-0.27794665 -0.42145216 0.26024163 0.06917958 0.5262179 -0.22426018 0.24232712 -0.17811638
-0.64673156 -0.21943325 -0.24085581 -0.39499447 -0.19706553 -0.13490689 -0.25114703 -0.021751082
0.02533844 0.07863482 -0.32269168 0.5773875 0.29820228 -0.2736093 -0.48544136 0.3393536
-0.64148146 -0.71455926 -0.22946481 -1.0490813 -0.52886945 -0.27531874 0.122408316 -0.06551523
-0.106319755 0.83942044 -0.4202962 -0.19601837 -0.13792898 0.2538318 0.08039799 0.09077067
0.081921 -0.069762714 -0.46940488 -0.24475165 -0.18619823 0.019330539 -0.31614202 -0.9956926
0.49969587 -0.68466115 -0.5749178 -0.25471094 -0.15623222 -0.13826057 -0.58883137 -0.16167532
0.18635002 -0.042520307 -0.23407575 -0.32108524 -0.08881056 0.047587216 -0.110485 -0.31937942
00000000: 064f 8ebe 94c8 d7be 643e 853e 06ae 8d3d
00000010: 37b6 063f 76a4 65be 9a24 783e 2464 36be
00000020: 3390 25bf 1cb3 60be e8a2 76be b73c cabe
00000030: 8ccb 49be 0825 0abe 5896 80be 532f b2bc
00000040: 8f92 cf3c 4b0b a13d d837 a5be abcf 133f
00000050: f8ad 983e 8516 8cbe c58b f8be c1bf ad3e
00000060: 2138 24bf 5bed 36bf d3f8 6abe 4c48 86bf
00000070: fd63 07bf 94f6 8cbe 36b1 fa3d d92c 86bd
00000080: 2cbe d9bd 42e4 563f 1031 d7be 0ab9 48be
00000090: 413d 0dbe 3ef6 813e b4a7 a43d f9e5 b93d
000000a0: 32c6 a73d c1df 8ebd d655 f0be 2da0 7abe
000000b0: c0aa 3ebe 145b 9e3c 5edd a1be b6e5 7ebf
000000c0: 23d8 ff3e f445 2fbf d02d 13bf 7969 82be
000000d0: 57fb 1fbe 2e94 0dbe a7bd 16bf 378e 25be
000000e0: 8ad2 3e3e c629 2ebd 8eb1 6fbe 4965 a4be
000000f0: 50e2 b5bd d0ea 423d f645 e2bd b385 a3be

bn2.running_var f4 [64]
0.31170976 0.28758538 0.34907994 0.13235167 0.24869198 0.30198196 0.2825625 0.21760373
0.23390824 0.24783807 0.34080765 0.28065076 0.16592564 0.26088497 0.40316114 0.116040714
0.14022821 0.3239056 0.51362693 0.61741495 0.29398355 0.19268526 0.38284194 0.15736167
0.35241526 0.2052319 0.17416845 0.63824964 0.48879722 0.88933575 0.31821743 0.16639245
0.46763647 0.90233696 0.2798398 0.3287581 0.13749541 0.31485733 0.17945047 0.21129422
0.3861331 0.17273913 0.35528544 0.37552136 0.24553129 0.28133723 0.44040596 0.4301349
0.4620229 0.41779432 0.4013289 0.19765331 0.24509533 0.21390027 0.21052253 0.19337656
0.59000623 0.17644785 0.36404553 0.292595 0.121772364 0.22603564 0.31597003 0.22538985
00000000: 6c98 9f3e 643e 933e 9bba b23e 3287 073e
00000010: 1ca9 7e3e 619d 9a3e 08ac 903e 83d3 5e3e
00000020: a485 6f3e 43c9 7d3e 577e ae3e 75b1 8f3e
00000030: 69e8 293e b792 853e 236b ce3e c1a6 ed3d
00000040: fc97 0f3e f4d6 a53e 0e7d 033f e80e 1e3f
00000050: 0385 963e 494f 453e dc03 c43e 6b23 213e
00000060: c66f b43e 5028 523e 3759 323e 5464 233f
00000070: a143 fa3e 82ab 633f 65ed a23e c862 2a3e
00000080: 0c6e ef3e 8eff 663f 2a47 8f3e fb52 a83e
00000090: 99cb 0c3e fb34 a13e ddc1 373e 835d 583e
000000a0: 3db3 c53e 87e2 303e f9e7 b53e 5644 c03e
000000b0: 8e6c 7b3e 6f0b 903e e47c e13e a43a dc3e
000000c0: 448e ec3e 23e9 d53e fb7a cd3e a165 4a3e
000000d0: 45fa 7a3e ac08 5b3e 3893 573e 8104 463e
000000e0: a60a 173f bfae 343e 2d64 ba3e 03cf 953e
000000f0: ca63 f93d e375 673e d3c6 a13e 99cc 663e

t_conv1.weight f4 [64, 128, 2]
-0.028587183 -0.022963721 0.07574158 0.032153096 0.035552826 -0.010555572 0.023543894 0.06991015
-0.025649937 0.058079008 -0.044642527 -0.0049111624 -0.021068137 0.052706532 6.2425126e-05 -0.039231397
0.05861363 -0.011328557 0.044716854 -0.0317761 0.00816884 -0.04911993 -0.012984719 0.096016824
-0.052314267 -0.06891231 0.053290263 0.03964759 -0.042220876 0.094804496 0.07210782 0.1022552
0.032961227 -0.04952133 -0.003534571 -0.023608143 0.047418453 0.017440677 0.026192404 -0.0155982915
-0.06309722 -0.016924767 0.002913123 0.084204644 0.05216223 0.06359064 -0.041272275 0.06196064
-0.014942952 -0.04799631 0.035855103 0.03705933 0.079133965 0.0669471 -0.04168801 -0.0027259905
0.0066333725 0.013884816 0.023441553 0.072772495 0.06047952 0.07624035 -0.0017138862 0.055011913
0.049260203 -0.0033166027 -0.01073727 -0.0014774816 -0.050997242 -0.06808099 -0.020104364 0.048549473
-0.026034879 0.04592851 0.03787032 -0.047731604 -0.044733193 -0.046286635 0.021910975 0.041048665
0.061674666 0.09037952 0.07767232 -0.0060718893 0.04423645 -0.0020151536 0.05777899 -0.06450457
-0.0023751832 0.0141459545 -0.05223329 -0.045214966 0.08002559 0.045123875 0.08483676 -0.02127205
0.065630205 -0.033715144 -0.03525431 0.05005975 0.010906584 0.029175105 -0.020036312 0.035407938
-0.0075047975 0.0063560805 -0.025511889 -0.06582376 0.07075376 0.016179988 -0.0007185102 0.05417245
-0.028065093 0.009693574 0.052471165 0.009770348 0.04144463 0.07773477 0.0625915 0.089919336
-0.052101646 0.10697205 0.0034568447 0.02971204 0.04642447 0.07279321 0.014130575 -0.018456988
0.048167054 -0.077278644 0.056308944 -0.022093555 0.02818006 -0.009563038 0.04157913 0.04255517
-0.0010477685 0.054878537 0.040807292 0.06411421 -0.02079155 0.010420793 0.0028364565 -0.030916376
-0.009975356 0.015765496 -0.003704597 0.00631748 0.020466857 0.009230256 0.022342375 0.086204536
0.083427474 0.045594577 -0.02819008 0.0012379112 0.031720705 -0.058785766 0.009909197 0.0056975833
0.082651146 0.029478058 0.07147848 -0.040365677 0.0012872024 0.031704873 0.02551926 0.06575163
-0.020818872 0.021502435 0.035609942 0.049783558 0.06805405 -0.014628995 0.026135132 0.0523913
0.026597818 -0.06135031 -0.03636206 -0.053591035 0.025000665 0.07729842 -0.040141456 -0.011948469
-0.053318378 0.059635546 0.055021938 0.0007972477 0.026357874 0.01541072 0.08062627 0.011249565
-0.008727703 0.027256984 0.09222657 0.031146398 0.028236272 -0.025340952 0.042008854 -0.00092455617
0.007487512 0.11841075 -0.0021285422 -0.017122148 0.017926535 0.03619982 -0.00035044676 -0.004279685
-0.0603195 -0.043376714 0.0012175029 0.07662609 0.05534051 -0.008401798 0.07907817 -0.025461186
0.046715304 0.035254944 -0.016703397 -0.0046557956 0.0837834 -0.050680887 -0.054615922 0.023145596
0.059307862 -0.019822575 0.06380891 0.0678706 -0.022887995 0.031335905 -0.026455175 -0.009041509
-0.023568923 0.0390496 -0.04048447 0.007773059 0.010340034 0.01754679 -0.05839339 -0.051144883
-0.06837837 -0.0043750345 0.041108064 -0.066952206 -0.026636986 0.03518813 0.009882729 -0.051142916
-0.06479786 0.039339382 0.059232865 -0.020104526 -0.052169405 0.04480019 0.012838128 -0.080838054
00000000: ab2f eabc 6a1e bcbc 671e 9b3d f7b2 033d
00000010: d79f 113d 47f1 2cbc 20df c03c 0d2d 8f3d
00000020: d11f d2bc 41e4 6d3d 15db 36bd d1ed a0bb
00000030: 1697 acbc cee2 573d 3cea 8238 1ab1 20bd
00000040: d814 703d 699b 39bc 0529 373d a827 02bd
00000050: 99d6 053c fb31 49bd dcbd 54bc 78a4 c43d
00000060: 7c47 56bd e621 8dbd e446 5a3d 8365 223d
00000070: ccef 2cbd dc28 c23d 44ad 933d 2d6b d13d
00000080: 5a02 073d e1d6 4abd 43a4 67bb dd65 c1bc
00000090: da39 423d c0df 8e3c 7491 d63c fa8f 7fbc
000000a0: 1e39 81bd cfa5 8abc 18ea 3e3b 7c73 ac3d
000000b0: 10a8 553d cf3b 823d 1e0d 29bd 71ca 7d3d
000000c0: 49d3 74bc c797 44bd cddc 123d 86cb 173d
000000d0: fd10 a23d 901b 893d 0cc1 2abd 88a6 32bb
000000e0: c35c d93b 247d 633c 8008 c03c bf09 953d
000000f0: 60b9 773d e723 9c3d 7aa4 e0ba 2c54 613d
00000100: 11c5 493d 5c5b 59bb 60eb 2fbc 0ea8 c1ba
00000110: 7ce2 50bd 0c6e 8bbd e8b1 a4bc d0db 463d
00000120: 1947 d5bc 891f 3c3d e91d 1b3d 3782 43bd
00000130: 273a 37bd 0e97 3dbd a57e b33c a522 283d
00000140: 939e 7c3d e618 b93d aa12 9f3d b3f6 c6bb
00000150: 4831 353d ab10 04bb aaa9 6c3d f91a 84bd
00000160: f6a8 1bbb 6fc4 673c 93f2 55bd 5433 39bd
00000170: 75e4 a33d d0d3 383d e5be ad3d b942 aebc
00000180: 2169 863d e418 0abd d366 10bd 740b 4d3d
00000190: 87b1 323c a100 ef3c 3123 a4bc ea07 113d
000001a0: ceea f5bb ab46 d03b 4ffe d0bc 9cce 86bd
000001b0: 59e7 903d e58b 843c 675a 3cba eee3 5d3d
000001c0: c4e8 e5bc ccd1 1e3c 01ec 563d cf13 203c
000001d0: d8c1 293d 6833 9f3d f92f 803d a127 b83d
000001e0: 8968 55bd 2a14 db3d 3b8c 623b aa66 f33c
000001f0: 9627 3e3d 9b14 953d ed83 673c 1c33 97bc
00000200: d14a 453d 4444 9ebd 35a4 663d 8bfd b4bc
00000210: dfd9 e63c 4aae 1cbc e14e 2a3d 544e 2e3d
00000220: 4755 89ba 51c8 603d 8c25 273d 504e 833d
00000230: 0a53 aabc f9bb 2a3c d8e3 393b 5744 fdbc
00000240: ad6f 23bc a426 813c d3c8 72bb dd02 cf3b
00000250: 1caa a73c 803a 173c 5b07 b73c 018c b03d
00000260: 06dc aa3d 61c1 3a3d e2ee e6bc 6841 a23a
00000270: 92ed 013d 58c9 70bd 2f5a 223c cbb2 ba3b
00000280: 0145 a93d f87b f13c 4f63 923d 7b56 25bd
00000290: 58b7 a83a f8dc 013d c40d d13c caa8 863d
000002a0: 578c aabc e025 b03c bbdb 113d d8e9 4b3d
000002b0: ec5f 8b3d 74ae 6fbc 5819 d63c 4398 563d
000002c0: abe3 d93c 764a 7bbd 62f0 14bd 4682 5bbd
000002d0: 32ce cc3c a24e 9e3d 5e6b 24bd 83c3 43bc
000002e0: 5f64 5abd 6744 743d af5e 613d 63fe 503a
000002f0: 78ec d73c 3f7d 7c3c 631f a53d 1850 383c
00000300: a4fe 0ebc 0a4a df3c 49e1 bc3d bb26 ff3c
00000310: c14f e73c d497 cfbc 7a11 2c3d ea5d 72ba
00000320: ce59 f53b 5681 f23d 037f 0bbb bf43 8cbc
00000330: abda 923c 4346 143d 2bbc b7b9 9a3c 8cbb
00000340: 9411 77bd c8ab 31bd 9e94 9f3a 24ee 9c3d
00000350: bbac 623d b2a7 09bc bcf3 a13d fa93 d0bc
00000360: 8c58 3f3d 7d67 103d 90d5 88bc a58f 98bb
00000370: a296 ab3d c396 4fbd f2b4 5fbd d59b bd3c
00000380: cdec 723d f462 a2bc 3fae 823d beff 8a3d
00000390: 9b7f bbbc 145a 003d 86b8 d8bc d622 14bc
000003a0: 9d13 c1bc 79f2 1f3d 0bd3 25bd 25b5 fe3b
000003b0: 3f69 293c 49be 8f3c e82d 6fbd 4c7d 51bd
000003c0: f509 8cbd 735c 8fbb ee60 283d 3d1e 89bd
000003d0: cf35 dabc 6e21 103d 2beb 213c 3c7b 51bd
000003e0: beb4 84bd 5522 213d 299e 723d 3fb2 a4bc
000003f0: 96af 55bd 6780 373d 0357 523c 6c8e a5bd

t_conv1.bias f4 [128]
-0.02137918 0.07715967 -0.015774237 -0.026451295 0.054862056 -0.016618911 0.03908442 0.086892046
-0.022925513 0.007296979 0.091785684 -0.015756782 -0.021055166 0.053505104 0.05927694 0.042892203
0.041059945 0.02888357 -0.05610821 0.03597196 -0.016684394 0.0124075115 0.00402833 -0.016861008
-0.03264801 0.006251837 -0.0018504716 -0.07173424 0.04920947 0.048533615 0.047346495 0.049671136
-0.039432056 -0.043711286 -0.013807669 0.057562303 0.021772822 0.03994663 0.05914477 -0.014607499
0.042786248 0.01406031 0.01677748 -0.034972165 0.044117972 -0.0010847072 -0.0036024032 0.07297005
0.057943217 0.06429864 0.022983298 0.058410864 0.06698825 0.08668774 0.054456245 0.09856867
-0.036646307 0.07344585 0.026110178 -0.007259671 0.020130146 0.01532251 0.03036847 0.01233427
0.031692624 0.054382306 -0.035299547 -0.010419863 -0.021407869 0.06721687 -0.018735472 0.025780238
-0.012449126 0.019362912 0.048879754 0.024966726 0.031848796 0.010262464 0.03437935 -0.024441672
0.0089694075 0.06081203 -0.04140913 -0.004235197 0.01933463 -0.013508521 0.029529167 -0.018991934
0.04066485 0.049129885 0.030135432 0.061641663 0.044226658 0.0025922349 0.040026147 0.010304064
0.08391609 0.055394605 -0.028689764 -0.014106741 -0.031912975 -0.015508543 0.041677766 0.014778741
0.05184939 0.030019866 0.012054756 0.03423031 -0.032879826 0.033745103 -0.031807125 0.016733387
-8.094309e-05 0.009922949 0.04135301 0.034295354 0.0660135 0.06956304 0.068721764 -0.06830892
0.0029634477 -0.028531436 0.016469173 0.019914515 0.025579937 0.04409014 0.020388015 0.008728578
00000000: 6423 afbc e405 9e3d f938 81bc 63b0 d8bc
00000010: 09b7 603d 6224 88bc fc16 203d 75f4 b13d
00000020: 49ce bbbc 7f1b ef3b 22fa bb3d 5e14 81bc
00000030: e27b acbc 2b28 5b3d 60cc 723d bcaf 2f3d
00000040: 792e 283d 3d9d ec3c b9d1 65bd 5557 133d
00000050: b6ad 88bc e048 4b3c 1500 843b 1920 8abc
00000060: ebb9 05bd 36dc cc3b 868b f2ba 67e9 92bd
00000070: df8f 493d 2fcb 463d 66ee 413d f673 4b3d
00000080: 8283 21bd 9b0a 33bd 9039 62bc 73c6 6b3d
00000090: eb5c b23c 149f 233d c941 723d 4b54 6fbc
000000a0: a240 2f3d 375d 663c ed70 893c f93e 0fbd
000000b0: 0cb5 343d bc2c 8eba 4c16 6cbb 5271 953d
000000c0: de55 6d3d 01af 833d 7847 bc3c 3b40 6f3d
000000d0: 2331 893d 5889 b13d 830d 5f3d 5fde c93d
000000e0: 701a 16bd c76a 963d 03e5 d53c 89e2 edbb
000000f0: fae7 a43c 440b 7b3c 4cc7 f83c ae15 4a3c
00000100: 20d0 013d fbbf 5e3d 4296 10bd 13b8 2abc
00000110: 8e5f afbc 00a9 893d 227b 99bc 1431 d33c
00000120: 6bf7 4bbc f89e 9e3c 2336 483d 0587 cc3c
00000130: e273 023d e523 283c 5cd1 0c3d e739 c8bc
00000140: 6cf4 123c 0916 793d 9f9c 29bd 68c7 8abb
00000150: a863 9e3c d852 5dbc 27e7 f13c f994 9bbc
00000160: 3090 263d 6b3c 493d 95de f63c f87b 7c3d
00000170: 0327 353d 7ce2 293b 75f2 233d 60d2 283c
00000180: 33dc ab3d 74e5 623d cc06 ebbc f61f 67bc
00000190: 2eb7 02bd 8b17 7ebc 4eb6 2a3d 8822 723c
000001a0: 0760 543d 39ec f53c 5081 453c 1535 0c3d
000001b0: ffac 06bd 4e38 0a3d 3048 02bd 7514 893c
000001c0: febf a9b8 dd93 223c c661 293d 4979 0c3d
000001d0: 1632 873d 1177 8e3d ffbd 8c3d 8ce5 8bbd
000001e0: 6736 423b c2ba e9bc 5cea 863c c423 a33c
000001f0: 048d d13c dd97 343d c404 a73c 4f02 0f3c

t_conv2.weight f4 [128, 64, 2]
-0.009518359 0.029489363 -0.099079125 -0.050279852 -0.001338274 0.07773839 -0.036978655 0.12867008
0.05641295 0.05609343 -0.007268778 -0.0860539 -0.084157385 -0.016033145 0.050077446 -0.11372084
-0.03603069 0.09760423 -0.05309659 0.08294069 -0.06885804 0.08116755 0.033517204 0.069442175
0.06443427 0.13930269 -0.07796633 -0.0011427667 -0.04318802 -0.04301237 0.06738958 0.056977544
0.045006413 -0.078988895 0.14229105 -0.022479372 0.07315771 -0.008919761 0.015892098 0.0074642347
-0.024144439 -0.021791473 0.05286169 -0.010915978 -0.0660674 -0.10777559 0.045802075 -0.10399649
0.029095381 -0.10148807 -0.014551856 -0.033829432 0.058559224 -0.022580842 0.123252906 0.08327379
-0.07701339 -0.08259537 0.0034099012 0.026584413 0.008885394 0.049824193 -0.07435041 -0.05700381
-0.044705804 0.017457966 -0.061943825 -0.01581318 0.090951905 -0.02407213 -0.027196929 -0.10073557
0.061782442 0.025836198 0.010912478 0.022814184 0.04373664 0.06946358 0.04543817 0.054114692
-0.008853544 -0.011794152 -0.016246198 0.006550144 -0.041309368 -0.05300268 -0.07394999 0.0607741
0.06822151 0.028935013 -0.017984524 -0.004808854 0.019836077 0.06344456 0.023178447 0.0063226484
0.115963146 0.03848199 -0.0066466387 -0.05089887 0.027322719 0.012424176 0.035941403 -0.0056099277
-0.03817249 -7.921976e-05 -0.047347136 0.114759736 0.06832333 -0.04288158 0.016495744 -0.042650178
0.039625548 -0.026776975 0.032006055 0.039142713 -0.065276556 0.014808229 -0.050112423 -0.00687637
-0.10480938 -0.090771735 0.01683218 0.039498173 -0.05432828 -0.06553358 0.06235304 -0.032954097
0.014738828 0.016334873 0.042720288 0.025655523 -0.035838455 0.034419626 0.095079266 0.08800147
0.082233906 0.03102781 0.063846625 0.111049585 0.0509012 -0.08113247 0.06493513 0.10142105
-0.017136557 0.072648495 0.038344927 0.114835784 -0.056261066 0.076717325 0.069733664 -0.044562213
-0.024525598 0.031798955 0.03995207 -0.104229905 0.09157889 -0.02467103 0.052432466 0.022519741
0.061126973 0.08738403 0.08186291 0.02462229 0.0076417313 -0.03737232 -0.019690542 0.010388923
0.09037945 0.14479372 0.06420492 0.06865207 0.014581002 0.00944908 -0.0038546063 -0.008732722
0.09548511 -0.03325651 -0.054620497 0.030735424 -0.057686616 0.008135862 -0.0152782705 0.08004728
0.055149924 0.06551318 -0.019879306 0.122355066 0.030660523 -0.0019626117 -0.079649486 -0.0395698
0.02839611 0.055416897 0.10936107 0.10914259 0.09974049 0.03314281 -0.06488414 -0.057579126
-0.07935025 0.030329285 -0.008082662 0.02691463 -0.0027546636 0.05777123 -0.09254863 0.015993193
0.093248576 -0.0070677428 0.06958205 -0.030980844 -0.0077362964 0.017732112 0.04075985 0.07720876
-0.059350427 -0.0073197917 -0.0366141 -0.013241202 0.06121166 -0.06802261 0.07883961 0.08771716
-0.026300412 0.10370851 0.05631697 0.08770806 -0.060790062 -0.008902996 0.043587457 0.023985362
0.076603435 -0.07049245 0.03162735 0.048041273 0.05884489 0.08818931 0.022701753 0.017392172
0.088909075 -0.012773438 0.122526176 0.077846125 -0.01911953 0.0014051582 -0.0665483 0.08107595
0.04537324 0.04861201 0.059521448 -0.039510295 0.045808602 0.005603957 -0.045737553 0.09695997
00000000: e4f2 1bbc ad93 f13c ffe9 cabd 3ff2 4dbd
00000010: 0669 afba 4e35 9f3d ee76 17bd 17c2 033e
00000020: 4411 673d 39c2 653d ee2e eebb 073d b0bd
00000030: b55a acbd f157 83bc 021e 4d3d 79e6 e8bd
00000040: eb94 13bd bae4 c73d cf7b 59bd cfdc a93d
00000050: 7205 8dbd 2c3b a63d 5649 093d b337 8e3d
00000060: 1df6 833d 5da5 0e3e d0ac 9fbd e3c8 95ba
00000070: ece5 30bd bd2d 30bd 8c03 8a3d 4961 693d
00000080: a558 383d eec4 a1bd bfb4 113e a926 b8bc
00000090: b6d3 953d 3024 12bc 2530 823c 8a96 f43b
000000a0: 8fca c5bc 0884 b2bc 8085 583d eed8 32bc
000000b0: 584e 87bd 73b9 dcbd f59a 3b3d 1dfc d4bd
000000c0: 7059 ee3c fad8 cfbd e86a 6ebc bb90 0abd
000000d0: ccdb 6f3d 75fb b8bc 056c fc3d 738b aa3d
000000e0: 32b9 9dbd c327 a9bd a678 5f3b 8ec7 d93c
000000f0: 0b94 113c 7414 4c3d 0745 98bd d47c 69bd
00000100: 6f1d 37bd 0204 8f3c cfb8 7dbd a48a 81bc
00000110: fe44 ba3d ea32 c5bc 18cc debc 734e cebd
00000120: 960f 7d3d 6fa6 d33c 40ca 323c d0e4 ba3c
00000130: 3125 333d ec42 8e3d 601d 3a3d 5ea7 5d3d
00000140: 740e 11bc 423c 41bc bf16 85bc 97a2 d63b
00000150: 0334 29bd 5719 59bd 1873 97bd 43ee 783d
00000160: b8b7 8b3d 1f09 ed3c 4854 93bc 9793 9dbb
00000170: 457f a23c 39ef 813d bae0 bd3c 382e cf3b
00000180: 167e ed3d 4b9f 1d3d 0ccc d9bb 557b 50bd
00000190: e5d3 df3c c58e 4b3c 4b37 133d 7cd3 b7bb
000001a0: c25a 1cbd c922 a6b8 12ef 41bd 2707 eb3d
000001b0: 1aed 8b3d 98a4 2fbd 1522 873c f4b1 2ebd
000001c0: 664e 223d 635b dbbc c818 033d 1c54 203d
000001d0: b7af 85bd 379e 723c af42 4dbd 2c53 e1bb
000001e0: 4da6 d6bd 88e6 b9bd a4e3 893c d6c8 213d
000001f0: 5587 5ebd 7836 86bd e765 7f3d e0fa 06bd
00000200: 207b 713c b6d0 853c 78fb 2e3d 882b d23c
00000210: 58cb 12bd 98fb 0c3d ebb8 c23d 1d3a b43d
00000220: 406a a83d 092e fe3c 05c2 823d f76d e33d
00000230: c77d 503d c828 a6bd b6fc 843d d7b5 cf3d
00000240: f761 8cbc bcc8 943d 920f 1d3d 062f eb3d
00000250: 0172 66bd f91d 9d3d 86d0 8e3d de86 36bd
00000260: e8e9 c8bc 9f3f 023d c8a4 233d 7d76 d5bd
00000270: b78d bb3d e61a cabc 6dc3 563d 527b b83c
00000280: 4760 7a3d 66f6 b23d bea7 a73d afb4 c93c
00000290: 7d67 fa3b b813 19bd 0f4e a1bc 4d36 2a3c
000002a0: dc18 b93d ce44 143e de7d 833d 7599 8c3d
000002b0: 28e5 6e3c 50d0 1a3c 909d 7cbb b113 0fbc
000002c0: b38d c33d fa37 08bd beb9 5fbd dbc8 fb3c
000002d0: cd48 6cbd 474c 053c b651 7abc d4ef a33d
000002e0: e3e4 613d c62b 863d edd9 a2bc 4b95 fa3d
000002f0: c72b fb3c 299f 00bb 451f a3bd f113 22bd
00000300: f59e e83c d4fc 623d b2f8 df3d 2686 df3d
00000310: be44 cc3d c1c0 073d fae1 84bd 17d8 6bbd
00000320: 6282 a2bd 1f75 f83c 246d 04bc 127c dc3c
00000330: 9687 34bb 86a1 6c3d 238a bdbd 2804 833c
00000340: 1cf9 be3d 8698 e7bb 0981 8e3d 8acb fdbc
00000350: c280 fdbb ef42 913c cdf3 263d a01f 9e3d
00000360: 6f19 73bd ddda efbb abf8 15bd a0f1 58bc
00000370: 14b9 7a3d 704f 8bbd a976 a13d 0ea5 b33d
00000380: f673 d7bc 2165 d43d a0ac 663d 49a0 b33d
00000390: 00ff 78bd dfdd 11bc c388 323d f37c c43c
000003a0: 43e2 9c3d 585e 90bd ae8b 013d edc6 443d
000003b0: 5707 713d 999c b43d 07f9 b93c 077a 8e3c
000003c0: f615 b63d af47 51bc 01ef fa3d ca6d 9f3d
000003d0: 90a0 9cbc 492d b83a 7a4a 88bd 260b a63d
000003e0: 4ad9 393d 631d 473d c3cc 733d 8cd5 21bd
000003f0: cda1 3b3d 66a1 b73b 4d57 3bbd f392 c63d

t_conv2.bias f4 [64]
-0.019307304 0.0822672 -0.08920645 0.04394324 0.046601683 -0.015169165 -0.040210817 0.071055576
0.0840848 -0.028112706 0.09298535 -0.07113046 -0.0024906455 0.0267211 0.053166416 -0.036674466
0.026521148 -0.036688883 -0.030344317 -0.0030836372 -0.003632369 0.026763443 0.05762353 -0.03367713
0.08395679 0.06957437 0.081019975 0.0933931 0.093377516 0.061671287 0.030549724 -0.003113654
-0.07588959 -0.048408527 -0.021908203 0.0823797 0.05333355 -0.0759642 0.020146586 0.035829645
-0.016108476 -0.039784253 0.055223655 -0.04202518 -0.06309332 0.028374232 -0.0005466428 -0.015927572
0.08742064 0.07033301 -0.061076395 0.08840284 -0.056438636 0.071608834 -0.060382728 -0.026025202
0.008979014 0.006325876 0.05976422 -0.0007513843 0.078912385 0.078390084 -0.016824614 0.0759082
00000000: 5a2a 9ebc b57b a83d dfb1 b6bd d4fd 333d
00000010: 68e1 3e3d 1788 78bc 19b4 24bd 9685 913d
00000020: a734 ac3d 9e4c e6bc 1a6f be3d d9ac 91bd
00000030: 193a 23bb 35e6 da3c 07c5 593d f737 16bd
00000040: e142 d93c 1547 16bd a594 f8bc d916 4abb
00000050: 0a0d 6ebb 023f db3c a706 6c3d 08f1 09bd
00000060: 8af1 ab3d 027d 8e3d cded a53d e244 bf3d
00000070: b63c bf3d 089b 7c3d 6a43 fa3c 720e 4cbb
00000080: 006c 9bbd 0548 46bd d578 b3bc b0b6 a83d
00000090: 4874 5a3d 1e93 9bbd 740a a53c 1bc2 123d
000000a0: ecf5 83bc d0f4 22bd 3332 623d 9822 2cbd
000000b0: 1237 81bd 1471 e83c 944c 0fba 8a7a 82bc
000000c0: 9809 b33d c10a 903d 3e2b 7abd 8c0c b53d
000000d0: 332c 67bd a7a7 923d e153 77bd ce32 d5bc
000000e0: b71c 133c 4b49 cf3b 54cb 743d 8cf8 44ba
000000f0: d19c a13d fb8a a03d c6d3 89bc c275 9b3d

conv_out.weight f4 [1, 64, 3]
-0.06370846 0.0019450518 0.045493323 0.004511026 -0.06609514 -0.049524732 0.07516264 0.022684794
-0.07229477 -0.0022511443 0.10222809 0.06548155 -0.06934192 0.06708637 -0.0017687883 -0.052685544
-0.07902531 -0.009745964 0.011779728 0.025034977 -0.11655334 -0.07263603 -0.017839313 -0.07750203
0.09710259 -0.027388358 0.08783177 0.050215397 0.026106948 0.11083398 -0.05603385 0.0606561
0.10663906 0.09204975 -0.014290035 0.022523288 0.06327076 0.042328607 0.106693186 -0.075753935
-0.0705205 -0.026422374 -0.027715163 -0.04113942 -0.06392055 0.0052971304 -0.10629893 -0.1002489
-0.009676884 0.01703634 -0.0903733 0.13272396 -0.01251474 0.0105749685 0.051110476 -0.094668634
-0.065120354 0.036232796 -0.0018369145 -0.007958201 -0.0729707 0.04655473 0.110209145 -0.03467861
-0.0121362265 -0.06480017 -0.021445721 -0.012270511 -0.042055525 -0.091210574 -0.022177393 -0.03358556
-0.011772711 -0.05717932 -0.06693483 -0.12788439 0.065959424 0.10158848 -0.037255134 0.023145607
-0.06240227 0.09083122 0.04185276 0.018906506 -0.05114834 -0.080265164 -0.06859358 -0.13194601
0.022814423 0.08104279 0.023648651 0.09432422 -0.063579395 0.07586411 -0.007736357 0.05911125
0.04053212 0.022476783 0.007088874 -0.06858461 -0.1153014 0.05134179 -0.10444891 0.054601137
-0.08607054 -0.020692809 -0.099729486 -0.06838061 -0.015916655 -0.08235279 -0.078136645 0.06826839
0.055673566 0.04431384 0.019641861 0.10049808 0.016189568 -0.04611707 0.050240126 -0.021609848
0.109162316 0.07669864 -0.05684606 0.003024928 -0.0445546 -0.06360097 0.041821655 -0.096805826
-0.09575724 0.087642066 0.090516195 0.09905861 -0.011004995 0.030980214 -0.042259194 0.04173415
-0.070090994 -0.09389589 -0.06380378 -0.08528519 -0.08423342 -0.06251686 -0.07779101 0.055374354
-0.07715334 0.09800578 -0.019631827 -0.062031567 -0.07228164 0.04747958 0.008775453 -0.012540307
0.013019426 0.014868896 0.11396461 -0.006617316 -0.016821329 -0.09759112 0.065041915 -0.008283148
0.09835374 -0.030825049 0.0013362026 -0.015631747 -0.08476441 0.040149465 0.07634464 -0.042674348
0.0012700233 0.008028934 -0.096214786 0.08856966 0.035143666 0.04968524 0.075420536 0.07949184
0.1258368 -0.09020926 -0.061349332 0.017524293 -0.04081789 -0.0850002 -0.025848953 0.01197126
0.0151348375 0.0359526 -0.038271822 -0.0767217 0.018727945 0.085924044 -0.022101397 0.087137274
00000000: 9579 82bd 1cf1 fe3a 3557 3a3d 3bd1 933b
00000010: e45c 87bd 72da 4abd dfee 993d 76d5 b93c
00000020: 480f 94bd ef87 13bb f65c d13d 311b 863d
00000030: 2303 8ebd 9464 893d b0d6 e7ba cccc 57bd
00000040: 06d8 a1bd 89ad 1fbc c3ff 403c 2716 cd3c
00000050: 84b3 eebd 33c2 94bd c023 92bc 62b9 9ebd
00000060: b9dd c63d 8d5d e0bc 25e1 b33d a9ae 4d3d
00000070: 3dde d53c edfc e23d c083 65bd 8872 783d
00000080: 9465 da3d 9484 bc3d c020 6abc c282 b83c
00000090: 1a94 813d c360 2d3d f581 da3d e124 9bbd
000000a0: 0d6d 90bd bc73 d8bc e90a e3bc cf81 28bd
000000b0: c7e8 82bd 8d93 ad3b 41b3 d9bd 4c4f cdbd
000000c0: cb8b 1ebc cb8f 8b3c a315 b9bd cae8 073e
000000d0: a00a 4dbc a242 2d3c 3859 513d a1e1 c1bd
000000e0: d25d 85bd d768 143d 9fc4 f0ba 1d63 02bc
000000f0: aa71 95bd 2cb0 3e3d 55b5 e13d 280b 0ebd
00000100: 06d7 46bc f4b5 84bd f0ae afbc 410a 49bc
00000110: 6a42 2cbd 9ccc babd 5dad b5bc 0391 09bd
00000120: 54e2 40bc dd34 6abd 2115 89bd 20f4 02be
00000130: bc15 873d 9f0d d03d d798 18bd db9b bd3c
00000140: 8699 7fbd b805 ba3d cd6d 2b3d d1e1 9a3c
00000150: ec80 51bd 1062 a4bd ca7a 8cbd db1c 07be
00000160: 50e5 ba3c c3f9 a53d d1ba c13c 0f2d c13d
00000170: ea35 82bd a45e 9b3d 4481 fdbb a31e 723d
00000180: 0205 263d 3b21 b83c c949 e83b 1776 8cbd
00000190: 2423 ecbd c54b 523d 4fe9 d5bd 71a5 5f3d
000001a0: c045 b0bd f783 a9bc f93e ccbd 220b 8cbd
000001b0: a563 82bc 94a8 a8bd 1b06 a0bd 4cd0 8b3d
000001c0: f709 643d 6e82 353d f8e7 a03c f0d1 cd3d
000001d0: fc9f 843c 41e5 3cbd 97c8 4d3d 2307 b1bc
000001e0: 7e90 df3d 2d14 9d3d 6ad7 68bd df3d 463b
000001f0: e27e 36bd 3a41 82bd 2f4d 2b3d 2242 c6bd
00000200: 5f1c c4bd af7d b33d 8e60 b93d 3edf ca3d
00000210: 4b4e 34bc 38ca fd3c fa17 2dbd 6ef1 2a3d
00000220: de8b 8fbd 7d4c c0bd 8eab 82bd 00aa aebd
00000230: 9282 acbd d708 80bd e550 9fbd 38d0 623d
00000240: 9202 9ebd 41b7 c83d edd2 a0bc d014 7ebd
00000250: 6508 94bd f379 423d ebc6 0f3c dc75 4dbc
00000260: 6e4f 553c ac9c 733c 4766 e93d 12d6 d8bb
00000270: e2cc 89bc dadd c7bd b234 853d 0ab6 07bc
00000280: b06d c93d d084 fcbc 8523 af3a 260e 80bc
00000290: f798 adbd c473 243d 945a 9c3d 4ccb 2ebd
000002a0: e976 a63a ca8b 033c 420c c5bd 0364 b53d
000002b0: cef2 0f3d c082 4b3d 1576 9a3d 9ecc a23d
000002c0: 5ddb 003e a2bf b8bd 7049 7bbd 1b8f 8f3c
000002d0: a930 27bd 9614 aebd 2fc1 d3bc 1b23 443c
000002e0: 1cf8 773c 0943 133d eac2 1cbd 4420 9dbd
000002f0: 596b 993c f2f8 af3d fd0d b5bc 0775 b23d
