pths/denoiser_model_4.pth (torch, 166322 bytes, 17 tensors)

conv1.weight f4 [32, 1, 3]
0.4102267 0.5001934 -0.1438215 0.5341808 -0.13794722 0.094470195 -0.24579218 0.3430331
0.5537138 -0.38555884 0.515332 0.19084129 0.35224497 0.1139673 0.33806992 -0.10155197
0.38526532 0.16250241 -0.2645923 0.16948439 -0.2739937 -0.079326525 -0.19840892 0.4120956
-0.4503091 -0.27620777 -0.16035165 -0.39178753 0.07672024 -0.52031374 0.56090105 -0.48399442
0.4084371 0.07300286 -0.15912622 0.39969692 0.062534034 0.5103765 -0.0005564487 -0.14264324
0.20127681 -0.12883246 0.24425636 0.51165915 0.33141437 -0.21750739 0.37928525 0.10190594
0.27303094 -0.46258673 -0.4762463 -0.23786204 -0.48033282 0.4227648 0.18374299 0.24792817
0.14200625 0.009795818 0.49207482 -0.3699744 0.058265436 -0.4086354 0.15804622 -0.109295614
0.25758517 -0.111684546 0.4562756 -0.37671107 -0.35865894 -0.2798082 0.5973549 0.174397
0.58448416 -0.5287159 -0.49631834 -0.4533784 -0.37818357 0.27592862 0.23599117 0.45410502
-0.3245208 -0.36975488 0.326962 -0.2356904 0.33387178 -0.12515472 0.36214614 -0.41889766
-0.30285367 0.21076374 0.09246723 -0.13674898 0.37483054 0.3885033 -0.43480185 -0.27279168
00000000: 3c09 d23e ad0c 003f f145 13be 13c0 083f
00000010: 0942 0dbe 9779 c13d f2b0 7bbe 09a2 af3e
00000020: 30c0 0d3f f867 c5be ccec 033f e66b 433e
00000030: 7459 b43e b067 e93d 8017 ad3e 7bfa cfbd
00000040: 7f41 c53e 0867 263e a478 87be 518d 2d3e
00000050: e748 8cbe f275 a2bd b52b 4bbe 32fe d23e
00000060: ea8e e6be 1b6b 8dbe 3933 24be 6098 c8be
00000070: 801f 9d3d 4833 05bf 3697 0f3f 1ece f7be
00000080: ab1e d13e 8682 953d fcf1 22be 13a5 cc3e
00000090: d811 803d 09a8 023f a4de 11ba 1211 12be
000000a0: 821b 4e3e a8ec 03be 571e 7a3e 18fc 023f
000000b0: 25af a93e 42ba 5ebe ad31 c23e 10b4 d03d
000000c0: b6ca 8b3e 2bd8 ecbe 8ed6 f3be 1b92 73be
000000d0: 2fee f5be a174 d83e 1f27 3c3e e2e0 7d3e
000000e0: 166a 113e a37e 203c 3bf1 fb3e 496d bdbe
000000f0: bda7 6e3d a938 d1be ded6 213e 61d6 dfbd
00000100: 34e2 833e deba e4bd f59c e93e 46e0 c0be
00000110: 25a2 b7be 0543 8fbe 40ec 183f 2195 323e
00000120: c1a0 153f ed59 07bf 701d febe 3721 e8be
00000130: 47a1 c1be 8446 8d3e aba7 713e 7480 e83e
00000140: 9727 a6be 8350 bdbe 9067 a73e d358 71be
00000150: 3ef1 aa3e 8f28 00be 386b b93e c179 d6be
00000160: a30f 9bbe 73d2 573e 765f bd3d ed07 0cbe
00000170: cae9 bf3e e8e9 c63e 599e debe 5aab 8bbe

conv1.bias f4 [32]
0.52936244 -0.19597664 -0.20493804 -0.5581036 -0.3303206 0.14439176 -0.07699698 -0.41863778
0.014081823 -0.39401907 -0.48961586 -0.3187359 -0.5055532 -0.36602533 0.5771859 0.10897069
0.17801078 -0.53828645 -0.37920845 -0.19085215 0.091150455 -0.50745803 -0.24910317 -0.34645858
0.001266026 -0.21494405 -0.04028823 -0.3909272 -0.39648548 -0.33681569 -0.19630705 -0.45529875
00000000: 4c84 073f 1aae 48be 47db 51be e1df 0ebf
00000010: c81f a9be 6fdb 133e 98b0 9dbd b157 d6be
00000020: 72b7 663c debc c9be eeae fabe 5a31 a3be
00000030: ef6b 01bf ac67 bbbe 75c2 133f 062c df3d
00000040: 7548 363e 24cd 09bf 9c27 c2be bf6e 43be
00000050: 17ad ba3d c5e8 01bf e714 7fbe 0563 b1be
00000060: c9f0 a53a 4b1a 5cbe 4505 25bd 9c27 c8be
00000070: 2500 cbbe 1b73 acbe b704 49be eb1c e9be

bn1.weight f4 [32]
1.0687608 1.0295566 0.96383053 0.99084544 0.958346 0.9974453 0.96653986 1.0265338
1.0165024 0.9813498 0.9957791 0.95990795 1.0224091 0.992545 0.9893797 1.0459559
0.9732574 1.0241593 1.0385358 1.0021955 0.9934254 0.9982755 0.9740088 1.0172615
0.99390334 0.9805719 1.031876 0.95269084 1.0009016 0.9254386 0.9860194 1.0054829
00000000: 27cd 883f 83c8 833f 99bd 763f 0ca8 7d3f
00000010: 2a56 753f 9358 7f3f 286f 773f 7665 833f
00000020: c01c 823f be39 7b3f 61eb 7e3f 87bc 753f
00000030: 4dde 823f 6e17 7e3f fd47 7d3f e2e1 853f
00000040: 6627 793f a717 833f beee 843f f147 803f
00000050: 2151 7e3f fc8e 7f3f a458 793f a035 823f
00000060: 7370 7e3f c306 7b3f 8314 843f 8ce3 733f
00000070: 8b1d 803f 8be9 6c3f c46b 7c3f aab3 803f

bn1.bias f4 [32]
0.01008911 0.051367775 0.05474442 0.0050772256 0.019389171 0.027145201 -0.0034212123 0.0673781
0.10565391 0.04466949 0.0058663767 0.022379776 0.07701825 0.013463842 -0.0014660865 0.0416265
0.09266008 0.0784166 6.591458e-05 0.0686198 0.045556203 -0.019214248 0.05247714 0.034329586
0.09211005 0.10236316 0.05762573 0.010389388 -0.009823732 0.03979984 -0.026084961 0.110024825
00000000: cb4c 253c 0467 523d af3b 603d db5e a63b
00000010: 0ad6 9e3c 9d5f de3c 6b36 60bb 87fd 893d
00000020: 1461 d83d 5bf7 363d bc3a c03b cb55 b73c
00000030: bfbb 9d3d 7297 5c3c b329 c0ba 8d80 2a3d
00000040: 91c4 bd3d e298 a03d 9f3b 8a38 8a88 8c3d
00000050: 2499 3a3d 3367 9dbc 45f2 563d 2e9d 0c3d
00000060: 32a4 bc3d c7a3 d13d f508 6c3d 4038 2a3c
00000070: b8f3 20bc 2805 233d 21b0 d5bc b254 e13d

bn1.running_mean f4 [32]
0.5706249 -0.17037962 -0.17509545 -0.5433939 -0.29043618 0.16624819 -0.094716154 -0.41433138
-0.031424306 -0.43449694 -0.4663616 -0.3050162 -0.4756127 -0.36906666 0.6318476 0.12163082
0.1470228 -0.5565519 -0.35021687 -0.1818665 0.080220714 -0.5054505 -0.2608012 -0.32267797
-0.01753241 -0.24628326 -0.018988308 -0.4043849 -0.36877102 -0.3653101 -0.18150036 -0.46949357
00000000: 7914 123f ff77 2ebe 394c 33be dd1b 0bbf
00000010: 0db4 94be f73c 2a3e 8bfa c1bd 3e23 d4be
00000020: c6b6 00bd 6276 debe f3c6 eebe 152b 9cbe
00000030: 8283 f3be 4ef6 bcbe c4c0 213f 9419 f93d
00000040: 258d 163e 2f7a 0ebf a04f b3be 363b 3abe
00000050: c24a a43d 3465 01bf bc87 85be 0c36 a5be
00000060: 21a0 8fbc ae31 7cbe 5e8d 9bbc 8a0b cfbe
00000070: 8ecf bcbe ed09 bbbe 3bdb 39be 7661 f0be

bn1.running_var f4 [32]
0.5942163 0.33429644 0.6017143 0.4561781 0.38801086 0.23390526 0.17503677 0.206198
0.4936803 0.5368974 0.64264125 0.19073027 0.34261405 0.06546713 0.7321658 0.20909622
0.6361609 0.47334853 0.19830891 0.34664345 0.18633258 0.078188255 0.49658123 0.50627357
0.91523844 0.5105819 0.39297086 0.26508838 0.2934502 0.38372582 0.17195389 0.43209726
00000000: 8f1e 183f e728 ab3e f309 1a3f 2d90 e93e
00000010: 5ca9 c63e dc84 6f3e d73c 333e 9225 533e
00000020: aac3 fc3e 1c72 093f 2384 243f cc4e 433e
00000030: 1c6b af3e a113 863d 386f 3b3f 521d 563e
00000040: 71db 223f bd5a f23e 7e11 4b3e 407b b13e
00000050: f8cd 3e3e 2a21 a03d e53f fe3e 259b 013f
00000060: 114d 6a3f 7fb5 023f 7a33 c93e aab9 873e
00000070: 1b3f 963e b677 c43e ae14 303e da3b dd3e

conv2.weight f4 [64, 32, 3]
0.09413667 -0.028162375 0.0742319 0.064789414 -0.14228287 0.072408564 -0.018168733 -0.063303
-0.09861903 -0.07901538 0.03631594 -0.023483075 0.04933615 -0.09306934 0.06648951 -0.060248427
-0.0013084179 0.0012088988 0.029227218 0.072352305 0.09215802 -0.09375813 0.024005193 -0.010139657
0.005821417 -0.11173494 0.084666744 -0.108248375 0.0440451 0.039772093 0.056344435 -0.051681217
0.11079307 -0.004201143 0.019513402 -0.057709128 0.042018462 0.016372915 -0.06051936 0.08022464
0.0243885 -0.053698752 -0.03155001 -0.010880282 0.043513842 -0.0031951345 -0.04843364 -0.032726113
-0.077029414 0.0008442543 0.061868455 -0.10127191 0.009996334 0.07802129 0.04497187 -0.05120264
0.0456996 0.03663478 0.08172687 -0.014486322 -0.041197833 0.0032504357 0.006360931 -0.036139455
0.07728623 0.09358357 0.00028966938 -0.055483162 -0.010913363 0.02104613 0.03241476 0.02770968
-0.08397657 -0.0695586 0.0716796 0.056948517 -0.027029134 -0.06654512 -0.06465579 -0.060224667
-0.036561344 0.030053085 0.058799002 0.04680865 -0.078937575 -0.0599803 -0.015939673 0.12258643
-0.013757219 -0.034957565 0.015414067 -0.034468427 -0.035479 0.08016238 -0.08009151 -0.03557117
-0.04627347 0.09896037 0.07064357 0.06920415 -0.12363995 -0.11472711 -0.12708096 0.09580265
0.06793463 0.12151267 0.053563353 0.0043941317 -0.007863606 -0.07173817 -0.07347623 -0.061293945
0.03584519 -0.07045088 0.0027070823 -0.040601518 -0.010108804 -0.09424866 -0.0422244 0.049862977
-0.055484913 0.075997 -0.03266523 -0.06715409 -0.0038904175 -0.03415642 -0.013148154 -0.116919376
0.025053257 -0.07470635 0.07733634 0.04679169 0.13802686 -0.061587173 0.058133435 -0.010881844
0.057138637 0.09365948 0.0032572504 0.014805534 -0.008948729 -0.046649363 0.045525223 -0.120359026
0.055090405 0.075589426 0.107664056 -0.050904766 -0.062385816 0.024693228 0.07229577 -0.08018033
-0.0049367854 0.0049868156 0.0215513 -0.0438575 -0.043885406 -0.017284304 -0.14207849 0.13025098
0.10235807 -0.0187134 -0.011964471 -0.055243563 -0.07721839 -0.06589328 0.03195071 -0.07666745
-0.06977236 -0.017518625 -0.02049096 -0.06540354 0.020997295 -0.0141245825 0.03713783 -0.028386058
-0.084408596 0.117969394 -0.02604747 0.029490493 -0.038719364 -0.005477128 0.0997148 0.015228167
-0.06825588 0.049805775 0.09546575 0.047628388 0.06442352 0.09941464 -0.026023008 0.023775022
-0.03598213 -0.0036292842 0.05563943 0.051201448 -0.035271466 -0.13762031 -0.02769241 -0.16177633
-0.0804027 0.006617403 0.07107555 0.0063911676 -0.057612777 -0.113356814 0.06256528 -0.040498417
0.0023213814 0.042757004 -0.040797234 -0.0051622023 -0.006026975 -0.034144063 -0.1173509 -0.11259882
-0.016541801 -0.04884991 0.09465207 -0.041838486 -0.064851336 0.03053458 -0.004862364 0.059286445
0.04103318 0.03484268 -0.18211557 -0.015069545 0.096903645 0.017728828 -0.09255768 0.09934501
-0.031685375 -0.057371885 -0.04807727 -0.013398084 0.035219483 0.054213535 0.023320673 -0.089658864
-0.10127907 0.042746734 0.06381548 0.05248081 -0.09473228 -0.037059225 -0.020646354 -0.0759716
0.0014658858 0.04509291 0.08659308 -0.11359039 0.026928505 -0.049517974 0.016602963 0.095685884
00000000: baca c03d c8b4 e6bc e506 983d 50b0 843d
00000010: 9ab2 11be f14a 943d 98d6 94bc 01a5 81bd
00000020: c6f8 c9bd d1d2 a1bd 06c0 143d 945f c0bc
00000030: b414 4a3d 239b bebd a72b 883d 0ec7 76bd
00000040: 387f abba ea73 9e3a eb6d ef3c 722d 943d
00000050: 58bd bc3d 4304 c0bd 8aa6 c43c ce20 26bc
00000060: 96c1 be3b 4ad5 e4bd c265 ad3d 53b1 ddbd
00000070: a368 343d 10e8 223d 6cc9 663d afaf 53bd
00000080: 7ae7 e23d bea9 89bb 92da 9f3c 6860 6cbd
00000090: 8d1b 2c3d 7e20 863c 26e3 77bd d14c a43d
000000a0: 64ca c73c 39f3 5bbd 953a 01bd 3643 32bc
000000b0: 923b 323d 7665 51bb 5a62 46bd d10b 06bd
000000c0: 99c1 9dbd f250 5d3a c769 7d3d a667 cfbd
000000d0: aac7 233c a0c9 9f3d 6c34 383d dcb9 51bd
000000e0: 812f 3b3d 5a0e 163d 6b60 a73d 0a58 6dbc
000000f0: 0fbf 28bd 4305 553b 5b6f d03b f706 14bd
00000100: 3e48 9e3d bea8 bf3d c4de 9739 5042 63bd
00000110: f6cd 32bc ef68 ac3c 57c5 043d 69ff e23c
00000120: e8fb abbd bd74 8ebd c1cc 923d d942 693d
00000130: 346c ddbc cf48 88bd 416a 84bd 24ae 76bd
00000140: 59c1 15bd e331 f63c 39d7 703d 6dba 3f3d
00000150: 06aa a1bd e7ad 75bd eb93 82bc 980e fb3d
00000160: f565 61bc aa2f 0fbd 488b 7c3c c42e 0dbd
00000170: 6e52 11bd 2d2c a43d 0507 a4bd 13b3 11bd
00000180: 4089 3dbd bcab ca3d 93ad 903d e8ba 8d3d
00000190: f136 fdbd 0cf6 eabd 8321 02be 2e34 c43d
000001a0: 5021 8b3d a2db f83d 3f65 5b3d a6fc 8f3b
000001b0: 5bd6 00bc 76eb 92bd b57a 96bd 5c0f 7bbd
000001c0: 68d2 123d 8d48 90bd 4e69 313b c74d 26bd
000001d0: 669f 25bc 7105 c1bd 7ef3 2cbd 1f3d 4c3d
000001e0: 2644 63bd 51a4 9b3d facb 05bd 1588 89bd
000001f0: 60f6 7ebb 9ae7 0bbd 5b6b 57bc 6d73 efbd
00000200: 7d3c cd3c a5ff 98bd 8462 9e3d a5a8 3f3d
00000210: ea56 0d3e d542 7cbd 531d 6e3d c349 32bc
00000220: 340a 6a3d 8bd0 bf3d 9877 553b e992 723c
00000230: b19d 12bc 6713 3fbd a878 3a3d cb7e f6bd
00000240: 7aa6 613d a1ce 9a3d f97e dc3d 8481 50bd
00000250: 4588 7fbd 7449 ca3c ce0f 943d 9635 a4bd
00000260: c2c4 a1bb 7168 a33b 5a8c b03c eca3 33bd
00000270: 2fc1 33bd d097 8dbc 067d 11be 8360 053e
00000280: 1ca1 d13d d84c 99bc a106 44bc 1347 62bd
00000290: ad24 9ebd 0ef3 86bd bfde 023d d303 9dbd
000002a0: d0e4 8ebd 3883 8fbc a8dc a7bc 4bf2 85bd
000002b0: 8502 ac3c cb6a 67bc d61d 183d e189 e8bc
000002c0: 6ade acbd f099 f13d 8161 d5bc 0c96 f13c
000002d0: 3298 1ebd 7b79 b3bb 4637 cc3d 907f 793c
000002e0: bdc9 8bbd 2401 4c3d 8c83 c33d fc15 433d
000002f0: 7af0 833d e799 cb3d 342e d5bc d6c3 c23c
00000300: ff61 13bd 49d9 6dbb 2ce6 633d 9cb8 513d
00000310: d078 10bd 57ec 0cbe 31db e2bc b2a8 25be
00000320: 2caa a4bd cdd6 d83b 0f90 913d 006d d13b
00000330: 60fb 6bbd 9e27 e8bd 3a22 803d abe1 25bd
00000340: 5122 183b f821 2f3d 001b 27bd b127 a9bb
00000350: ee7d c5bb a5da 0bbd ab55 f0bd 369a e6bd
00000360: ac82 87bc d816 48bd f2d8 c13d d55e 2bbd
00000370: c7d0 84bd a823 fa3c 7754 9fbb 58d6 723d
00000380: 6812 283d 33b7 0e3d 817c 3abe 41e6 76bc
00000390: 6b75 c63d 0c3c 913c e28e bdbd 6675 cb3d
000003a0: 86c8 01bd c8fe 6abd acec 44bd a383 5bbc
000003b0: 4e42 103d 030f 5e3d ff0a bf3c 119f b7bd
000003c0: 676b cfbd 3317 2f3d b1b1 823d 1ef6 563d
000003d0: ff02 c2bd 6acb 17bd 8b22 a9bc 0097 9bbd
000003e0: f722 c03a 58b3 383d b657 b13d 14a2 e8bd
000003f0: 2b99 dc3c 5cd3 4abd f002 883c f6f6 c33d

conv2.bias f4 [64]
-0.06647879 0.07274685 0.08292017 0.0696747 -0.0015842367 0.024531178 0.003356515 -0.038601335
-0.101902574 -0.012496096 0.04434077 0.05983349 0.023916855 0.046938673 0.06379889 -0.019314278
0.0673041 -0.0020203104 -0.03637061 -0.039712418 -0.05958309 -0.07922688 0.02239986 0.09524104
0.01500443 0.013245858 -0.038426377 -0.04050953 -0.031956363 0.03558144 0.01737519 -0.039118752
0.019752149 -0.017172314 -0.0063176407 0.07211551 -0.04219204 0.094565235 -0.055439964 0.09491778
0.03893545 0.04169173 -0.023241842 -0.028898057 -0.075046375 -0.09879758 0.07202119 0.09851073
0.028680589 -0.040008765 0.021801982 -0.0039710733 -0.088628255 -0.08110542 0.035614736 -0.030140068
-0.024051903 -0.061495747 0.044982836 -0.0514615 -0.03278206 0.05390521 0.0987793 0.09120638
00000000: 0826 88bd 4dfc 943d 0dd2 a93d 9cb1 8e3d
00000010: 2aa6 cfba 9cf5 c83c faf8 5b3b 6f1c 1ebd
00000020: 4cb2 d0bd 6dbc 4cbc ab9e 353d f613 753d
00000030: 48ed c33c c442 403d fea8 823d fa38 9ebc
00000040: bbd6 893d 2f67 04bb 59f9 14bd 7da9 22bd
00000050: 660d 74bd b441 a2bd e97f b73c bc0d c33d
00000060: 24d5 753c 2805 593c fa64 1dbd 52ed 25bd
00000070: ade4 02bd d8bd 113d 6a56 8e3c fc3a 20bd
00000080: 42cf a13c f4ac 8cbc 3604 cfbb 4cb1 933d
00000090: 8fd1 2cbd 6bab c13d 0415 63bd 4164 c23d
000000a0: c77a 1f3d f3c4 2a3d ad65 bebc 9ebb ecbc
000000b0: eab1 99bd 6356 cabd d87f 933d febf c93d
000000c0: 8ef3 ea3c 3be0 23bd 129a b23c c71f 82bb
000000d0: bb82 b5bd 991a a6bd c2e0 113d 4ee8 f6bc
000000e0: 7f08 c5bc f7e2 7bbd ec3f 383d 4bc9 52bd
000000f0: 7b46 06bd b6cb 5c3d cd4c ca3d 69ca ba3d

bn2.weight f4 [64]
1.0444262 1.034502 1.062064 1.0322728 1.0417409 1.0499809 1.0574169 1.0379161
1.0529411 1.0408664 1.0547122 1.0495228 1.0371492 1.035234 1.0651946 1.0594289
1.0580671 1.0394869 1.0397254 1.026563 1.0524304 1.0546259 1.0704039 1.0322567
1.0592507 1.0527911 1.0747994 1.0667475 1.0474373 1.0482662 1.0419277 1.0539484
1.0426985 1.0416423 1.0703231 1.0792625 1.0328058 1.0463107 1.0563123 1.0402719
1.0305039 1.068794 1.0495296 1.0784205 1.0436919 1.0524092 1.0562494 1.0376018
1.0508337 1.0053208 1.0462469 1.0562594 1.0367558 1.0648683 1.0472339 1.0496883
1.0402812 1.0199516 1.0287967 1.0474293 1.047999 1.0185028 1.0777776 1.0721087
00000000: c2af 853f 906a 843f b7f1 873f 8421 843f
00000010: c457 853f c665 863f 7059 873f 6fda 843f
00000020: c6c6 863f 1c3b 853f cf00 873f c356 863f
00000030: 4ec1 843f 8c82 843f 4c58 883f 5e9b 873f
00000040: be6e 873f e80d 853f b915 853f 6b66 833f
00000050: 0ab6 863f fbfd 863f ff02 893f fd20 843f
00000060: 8795 873f dcc1 863f 0793 893f 2f8b 883f
00000070: 6d12 863f 962d 863f e35d 853f c8e7 863f
00000080: 2577 853f 8954 853f 5900 893f 4625 8a3f
00000090: fb32 843f 82ed 853f 3e35 873f a127 853f
000000a0: 8de7 833f 3ece 883f fc56 863f af09 8a3f
000000b0: b297 853f 58b5 863f 2e33 873f 23d0 843f
000000c0: b881 863f 5aae 803f 6beb 853f 8233 873f
000000d0: 6ab4 843f 9b4d 883f c30b 863f 305c 863f
000000e0: ef27 853f c68d 823f 9caf 833f 2a12 863f
000000f0: d524 863f 4d5e 823f 9ef4 893f dc3a 893f

bn2.bias f4 [64]
0.04291314 0.004640593 0.010854574 0.040465567 0.02041093 0.03478671 0.046027634 0.05791024
0.046544783 0.009568056 0.04755437 0.026769608 0.03307453 0.020965539 0.06442123 0.04074035
0.008501098 0.013927097 0.019696781 0.017477836 0.02706973 0.042390343 0.032091726 0.05514829
0.042268444 0.040630527 0.039462876 0.060816955 0.06339201 0.041890044 0.02924188 0.03899445
0.037144665 0.03900484 0.04879938 0.039998133 0.0021069336 0.02965937 0.030126093 0.03183818
0.023170937 0.046145078 0.02107666 0.031769607 0.021342456 0.03739293 0.03627882 0.009454178
0.06426771 0.01774928 0.043099407 0.061092757 0.04774984 0.03973253 0.056946736 0.005944357
0.025370948 0.02697102 0.04498556 0.050723534 0.0513121 0.034484558 0.056683023 0.054056775
00000000: b0c5 2f3d 1e10 983b 62d7 313c 39bf 253d
00000010: d334 a73c 827c 0e3d 7987 3c3d 4a33 6d3d
00000020: bea5 3e3d 56c3 1c3c 5fc8 423d f04b db3c
00000030: 2979 073d ecbf ab3c 47ef 833d 5adf 263d
00000040: 3048 0b3c 7b2e 643c 255b a13c ae2d 8f3c
00000050: 57c1 dd3c 7fa1 2d3d 9d72 033d 2ce3 613d
00000060: ad21 2d3d 326c 263d d3a3 213d 331b 793d
00000070: acd3 813d e594 2b3d ab8c ef3c a5b8 1f3d
00000080: 0125 183d 8ac3 1f3d dce1 473d 15d5 233d
00000090: 7b14 0a3b 35f8 f23c ffca f63c c068 023d
000000a0: fad0 bd3c 9f02 3d3d f6a8 ac3c d920 023d
000000b0: 60d6 ae3c 5429 193d 1a99 143d b2e5 1a3c
000000c0: ca9e 833d f066 913c 0189 303d 663c 7a3d
000000d0: 5695 433d 94be 223d fb40 693d e1c8 c23b
000000e0: bcd6 cf3c 54f2 dc3c c742 383d 7bc3 4f3d
000000f0: a32c 523d ae3f 0d3d 752c 683d a36a 5d3d

bn2.running_mean f4 [64]
-0.15525529 -0.03920041 -0.63877106 0.03517912 -0.2604005 -0.47733948 -0.3519358 -0.49344283
-0.5626854 -0.22774436 -0.23499174 -0.29228 -0.26302716 -0.25785813 -0.054430723 -0.12484733
0.18932094 -0.44279677 0.3273503 -0.26829123 -0.31726262 -0.2606038 -0.35915235 -0.039384
-0.2044464 0.24111049 0.011354189 -0.13595168 -0.15051228 -0.61504936 0.25851908 -0.9405741
0.37319863 0.015861236 -0.0343758 -0.32304344 -0.14406526 0.031068066 -0.50135696 0.433962
0.0022219762 0.1129439 0.40127122 -0.14550611 -0.33198738 -0.41746092 0.0068132775 0.06432358
-0.3655221 0.0039807893 -1.1899556 -0.5263945 -0.3291482 0.08507029 -0.01043253 -0.1135721
0.06158814 -0.14093061 -0.37388507 -0.62796575 0.06530755 -0.51237035 -0.09510309 -0.09847171
00000000: 3efb 1ebe 9c90 20bd 8086 23bf fb17 103d
00000010: 3753 85be d765 f4be ee30 b4be 8aa4 fcbe
00000020: 260c 10bf d135 69be ada1 70be b9a5 95be
00000030: 7fab 86be fb05 84be c0f2 5ebd f5af ffbd
00000040: 59dd 413e 42b6 e2be 759a a73e 785d 89be
00000050: 3f70 a2be dc6d 85be d1e2 b7be 1e51 21bd
00000060: 665a 51be abe5 763e ec06 3a3c eb36 0bbe
00000070: e41f 1abe e073 1dbf 9d5c 843e 77c9 70bf
00000080: e413 bf3e 6cef 813c a4cd 0cbd f365 a5be
00000090: d885 13be 7582 fe3c ee58 00bf 4430 de3e
000000a0: 939e 113b 224f e73d 6c73 cd3e 8eff 14be
000000b0: 40fa a9be 70bd d5be ea41 df3b 15bc 833d
000000c0: b625 bbbe 4871 823b 7750 98bf cac1 06bf
000000d0: 1d86 a8be 5539 ae3d 34ed 2abc 7d98 e8bd
000000e0: d843 7c3d 1d50 10be dd6d bfbe 5dc2 20bf
000000f0: f7bf 853d b42a 03bf 69c5 c2bd 89ab c9bd

bn2.running_var f4 [64]
0.15384701 0.11367564 0.54165244 0.3505758 0.2694018 0.44029275 0.20263228 0.20695819
0.13090539 0.2092909 0.2774959 0.5464856 0.5115907 0.46168107 0.17849307 0.19968535
0.17533892 0.41458425 0.13979177 0.15683515 0.36628702 0.2625903 0.4506157 0.45491904
0.46112362 0.43940017 0.18877035 0.30498913 0.1702701 0.8843784 0.31358194 0.36979488
0.32695112 0.11263397 0.26060435 0.45205408 0.18758053 0.7248226 0.42469 0.1648337
0.19707161 0.15378885 0.20601675 0.106648184 0.51324975 0.20107333 0.19639367 0.22587857
0.34344837 0.3297348 0.72758156 0.37573627 0.4044067 0.16138686 0.3696253 0.14773735
0.26439378 0.29732683 0.70511603 0.43013024 0.24516426 0.5300183 0.18162262 0.18591288
00000000: 128a 1d3e c6ce e83d bca9 0a3f ac7e b33e
00000010: 08ef 893e 0d6e e13e d67e 4f3e d9ec 533e
00000020: 100c 063e 5b50 563e f113 8e3e 7be6 0b3f
00000030: 9cf7 023f 7661 ec3e e3c6 363e 517a 4c3e
00000040: 0c8c 333e 6344 d43e 9325 0f3e 6599 203e
00000050: f989 bb3e 3c72 863e 1ab7 e63e 26eb e83e
00000060: 6518 ec3e 0ff9 e03e 044d 413e 8927 9c3e
00000070: 495b 2e3e 9f66 623f d08d a03e c155 bd3e
00000080: 2366 a73e a4ac e63d ef6d 853e a273 e73e
00000090: 1c15 403e f98d 393f f870 d93e 2aca 283e
000000a0: 24cd 493e d37a 1d3e 0ef6 523e 5d6a da3d
000000b0: 5664 033f 2be6 4d3e 6c1b 493e b64c 673e
000000c0: 77d8 af3e 00d3 a83e c942 3a3f 8160 c03e
000000d0: 650e cf3e 9942 253e 873f bd3e 7648 173e
000000e0: 9f5e 873e 393b 983e 7c82 343f 083a dc3e
000000f0: 570c 7b3e 48af 073f 48fb 393e f25f 3e3e

t_conv1.weight f4 [64, 128, 2]
0.06114451 0.044495337 0.064961195 0.091132544 -0.009346347 0.055735555 0.008549073 0.039727744
0.041449964 0.040023714 -0.020056607 -0.028898027 -0.063932225 0.007319429 -0.0019233555 0.012836234
-0.03837854 -0.04842101 0.043862272 0.030536188 -0.033861782 0.02353845 -0.026082069 -0.03133529
-0.029663209 -0.039737098 -0.07746866 -0.041192584 0.0008944548 0.0148504125 0.070046335 0.019041661
0.087057136 0.050138116 -0.01663998 -0.019555148 -0.026512148 -0.022205135 0.027883355 0.016272971
-0.03730184 -0.012354656 -0.061129827 0.10219359 0.07107486 -0.048856206 0.09309294 -0.0018276194
0.04475174 0.01982679 0.04476203 0.05432062 0.017946033 0.011219412 -0.012823878 -0.0072911964
0.066782705 -0.044026915 0.031829026 0.023376286 -0.03922822 -0.03636316 0.0036136422 0.042419564
0.027304638 -0.0392585 0.042979844 -0.030724954 0.008043444 -0.012798249 0.081690386 0.009168764
-0.00080547045 0.059081595 -0.029494762 -0.057341177 0.0765296 -0.033508666 0.028798236 -0.038578965
0.0077750687 -0.026320223 -0.046367757 0.021880845 -0.047014788 0.057097353 -0.039095603 -0.054733086
0.08484146 0.060626198 0.03649341 0.009411687 0.025535375 0.007124463 -0.06704309 0.081383176
-0.040294264 0.031608976 -0.041293383 0.042030815 0.105518535 -0.018416224 -0.015795806 -0.049751867
0.061899856 0.07865021 0.012105174 0.04982383 0.04908024 -0.021287002 0.035245255 -0.060388204
-0.0094533395 0.012132683 -0.0197984 -0.0052924305 0.04371497 -0.055724967 0.06716284 0.0119805345
0.048407078 -0.07945542 0.08260684 0.013406564 0.0563199 -0.059683856 -0.012635984 -0.008858607
0.039114084 0.012090828 0.08193059 0.0116723 -0.065979786 -0.008633593 0.0804812 0.045896254
-0.040560298 0.0614244 0.07223686 0.016635677 0.080823645 0.025421716 -0.0048710653 -0.019806866
0.032237303 0.10476207 0.040186398 -0.08373268 -8.8471126e-05 0.053655207 -0.06048019 -0.014497534
0.07031594 0.06420042 0.08402331 0.02263139 -0.018011322 0.068187006 0.036151614 0.110701084
0.043845564 -0.012721903 0.053015042 0.037220042 -0.015497259 0.0893768 0.041747812 -0.008366289
-0.060353413 0.047953155 -0.07598705 0.07186723 0.0148938615 0.002430315 0.022698604 0.09469469
0.0022013357 -0.048339322 0.014305368 -0.034216348 0.014628213 0.054252386 -0.02644169 0.07243833
-0.026359769 0.08180784 0.07967094 0.0030217653 -0.0070574423 0.057525482 0.006529539 -0.012732353
0.10201632 0.023419593 0.06556911 0.002710767 0.016085926 0.020703375 0.03068081 0.05598699
0.08356086 0.026837938 -0.03393078 0.08151976 0.07810971 0.063528374 0.042305768 -0.0076225083
-0.026649967 0.0074165775 -0.0128115555 0.032588936 -0.06680403 -0.036238316 -0.036480874 0.030410761
0.05629841 -0.0038787785 -0.030779159 0.012702928 0.024852905 -0.018113935 0.03662762 -0.03302994
0.03623383 0.019225132 0.06470237 -0.07635223 0.06679555 -0.00083012425 0.028335162 0.053910557
0.03517342 0.024088364 0.026115516 0.06523173 -0.015919473 0.08347907 -0.0012043657 0.077473715
0.016969692 0.046509083 -0.010787483 -0.008037619 -0.005290386 0.03794885 0.0012470251 0.008674
0.049502607 0.033788614 -0.005221619 -0.018607853 0.036278777 -0.011748885 -0.034050006 -0.009574911
00000000: aa72 7a3d be40 363d 600a 853d b3a3 ba3d
00000010: 6c21 19bc f74a 643d 6911 0c3c 8fb9 223d
00000020: 70c7 293d e8ef 233d c14d a4bc 8ebb ecbc
00000030: e6ee 82bd d2d7 ef3b 1a19 fcba 114f 523c
00000040: d132 1dbd 1c55 46bd eda8 333d 0727 fa3c
00000050: a7b2 0abd b5d3 c03c 10aa d5bc 6f59 00bd
00000060: 4200 f3bc 5ec3 22bd e4a7 9ebd 8eb9 28bd
00000070: d879 6a3a 254f 733c 7474 8f3d 42fd 9b3c
00000080: 034b b23d a05d 4d3d 9150 88bc 1e32 a0bc
00000090: 0130 d9bc 8be7 b5bc a26b e43c e54e 853c
000000a0: d0c9 18bd 2f6b 4abc 4563 7abd df4a d13d
000000b0: b28f 913d 721d 48bd 83a7 be3d bb8c efba
000000c0: 9a4d 373d cb6b a23c 6458 373d 4c7f 5e3d
000000d0: 8f03 933c a0d1 373c 3e1b 52bc fdea eebb
000000e0: 5fc5 883d 9155 34bd 275f 023d a07f bf3c
000000f0: c5ad 20bd 89f1 14bd dbd2 6c3b 23c0 2d3d
00000100: faad df3c 85cd 20bd a20b 303d e6b2 fbbc
00000110: a6c8 033c bfaf 51bc 4a4d a73d 9538 163c
00000120: 3526 53ba 8bff 713d 009f f1bc 95de 6abd
00000130: 8dbb 9c3d 6240 09bd 47ea eb3c fa04 1ebd
00000140: 01c6 fe3b 829d d7bc 1eec 3dbd 753f b33c
00000150: 9492 40bd eade 693d b622 20bd cd2f 60bd
00000160: 5cc1 ad3d 2d53 783d 1d7a 153d 7a33 1a3c
00000170: 902f d13c 5474 e93b e34d 89bd 39ac a63d
00000180: 990b 25bd 6a78 013d 4023 29bd 8128 2c3d
00000190: 1a1a d83d 9fdd 96bc 3566 81bc 9dc8 4bbd
000001a0: b48a 7d3d 5c13 a13d c854 463c 1314 4c3d
000001b0: 5d08 493d 1462 aebc 545d 103d 9f59 77bd
000001c0: 2ee2 1abc 29c8 463c 4130 a2bc 206c adbb
000001d0: 780e 333d dd3f 64bd ac8c 893d 014a 443c
000001e0: 8046 463d 86b9 a2bd c62d a93d 34a7 5b3c
000001f0: b2af 663d 0f77 74bd 2907 4fbc b123 11bc
00000200: 1736 203d 9c18 463c 3acb a73d 2d3d 3f3c
00000210: 6920 87bd ea73 0dbc 54d3 a43d b6fd 3b3d
00000220: 8e22 26bd 2798 7b3d ebf0 933d 8b47 883c
00000230: de86 a53d 3441 d03c 759d 9fbb 0242 a2bc
00000240: 430b 043d 7f8d d63d 7e9a 243d 0a7c abbd
00000250: 9389 b9b8 90c5 5b3d 13ba 77bd 1187 6dbc
00000260: ce01 903d 837b 833d 6a14 ac3d 7765 b93c
00000270: 7b8c 93bc a1a5 8b3d b713 143d 40b7 e23d
00000280: 6897 333d 876f 50bc 4d26 593d 0b74 183d
00000290: 37e8 7dbc 2f0b b73d c1ff 2a3d c212 09bc
000002a0: 2435 77bd 876a 443d 199f 9bbd 202f 933d
000002b0: 6205 743c eb45 1f3b 6cf2 b93c 4aef c13d
000002c0: 4944 103b 74ff 45bd 1061 6a3c 7126 0cbd
000002d0: 2cab 6f3c c037 5e3d 3e9c d8bc 8c5a 943d
000002e0: 71f0 d7bc de8a a73d 852a a33d cf08 463b
000002f0: 1e42 e7bb d79f 6b3d bef5 d53b 5c9b 50bc
00000300: efed d03d 72da bf3c 1949 863d 20a7 313b
00000310: a2c6 833c 209a a93c 5256 fb3c 9d52 653d
00000320: f521 ab3d 3cdb db3c 00fb 0abd d5f3 a63d
00000330: fcf7 9f3d 2a1b 823d d048 2d3d 3cc6 f9bb
00000340: 0851 dabc c306 f33b 8fe7 51bc fa7b 053d
00000350: 8dd0 88bd a16e 14bd f86c 15bd fd1f f93c
00000360: 2999 663d 1b33 7ebb 9324 fcbc f11f 503c
00000370: 5298 cb3c ad63 94bc d806 163d 674a 07bd
00000380: ed69 143d 067e 9d3c ad82 843d 8f5e 9cbd
00000390: 1bcc 883d b29c 59ba 241f e83c 51d1 5c3d
000003a0: 0112 103d f654 c53c 35f0 d53c 3798 853d
000003b0: 8e69 82bc 13f7 aa3d cfdb 9dba 8aaa 9e3d
000003c0: 0604 8b3c 4f80 3e3d fcbd 30bc 38b0 03bc
000003d0: f95a adbb 4170 1b3d 3873 a33a 651d 0e3c
000003e0: 3fc3 4a3d ee65 0a3d 1d1a abbb 7f6f 98bc
000003f0: 0e99 143d 657e 40bc 0578 0bbd 16e0 1cbc

t_conv1.bias f4 [128]
0.08134553 0.009601673 0.04912291 0.009934982 -0.031930752 -0.016982226 -0.012105297 0.04070235
0.024418755 0.08409574 0.03836246 0.011809114 -0.00693727 0.05686671 -0.02620931 0.066398226
0.033090647 0.04436364 0.06503671 -0.035752244 0.07091003 0.073233165 0.07758039 0.048592042
-0.011829825 -0.019962663 0.042806745 0.03377821 0.06180224 0.07721672 -0.009849876 0.06334382
0.016206045 -0.052666407 -0.0040000067 -0.00917621 -0.003946447 -0.01751441 -0.048944704 -0.0333611
0.063142866 -0.03872881 0.009483221 -0.020676957 0.081851 0.03854093 0.0024997229 -0.01938679
-0.012476113 0.0031096602 -0.001300959 -0.009854232 -0.0047355928 -0.0110701425 -0.009852444 0.041454844
0.016086701 -0.043693133 -0.015237729 -0.0055630016 0.04102984 -0.03744047 -0.002250314 0.057849977
-0.03560132 0.045941893 0.0436531 0.07664921 0.05443914 0.015226363 0.09756781 -0.011670795
0.031780384 0.030141756 -0.025748732 0.04749675 0.044174094 0.047494818 0.049550056 -0.030252526
0.023025177 0.021950474 0.062990904 0.056185205 0.010906447 0.04952025 0.07937104 0.047492426
0.08987102 0.07887787 -0.022481231 -0.017899813 -0.020231847 -0.024464514 0.046068665 0.032658868
0.037299007 0.025858752 -0.03132783 -0.03709355 0.04599782 0.027988829 0.048157535 0.026375432
0.044096984 0.040970642 -0.009406997 0.07231608 0.016742906 0.018161839 -0.009388288 0.054120712
0.07489039 0.035517927 -0.019664114 -0.06306935 -0.0187288 0.028970225 0.07327545 -0.01246595
-0.01744103 0.00021811957 0.029431285 0.047023408 -0.01748471 -0.014997996 0.027294757 0.059502393
00000000: 7c98 a63d 5650 1d3c 1b35 493d 56c6 223c
00000010: d2c9 02bd 4f1e 8bbc 4c55 46bc 82b7 263d
00000020: d709 c83c 633a ac3d f421 1d3d 047b 413c
00000030: 0a52 e3bb 11ed 683d e8b4 d6bc cbfb 873d
00000040: 0f8a 073d a6b6 353d f731 853d f270 12bd
00000050: 4739 913d 45fb 953d 78e2 9e3d 7308 473d
00000060: e2d1 41bc bd88 a3bc 2056 2f3d 055b 0a3d
00000070: 5824 7d3d cd23 9e3d 6061 21bc 68ba 813d
00000080: 8ac2 843c bbb8 57bd 7d12 83bb d057 16bc
00000090: 3251 81bb 617a 8fbc 3e7a 48bd a6a5 08bd
000000a0: 0c51 813d 1aa2 1ebd 835f 1b3c b962 a9bc
000000b0: 7fa1 a73d 18dd 1d3d 64d2 233b 0cd1 9ebc
000000c0: 9c68 4cbc 71cb 4b3b f184 aaba a573 21bc
000000d0: 082d 9bbb 8b5f 35bc 256c 21bc 8ecc 293d
000000e0: 42c8 833c 92f7 32bd aba7 79bc d749 b6bb
000000f0: e80e 283d 2e5b 19bd 017a 13bb 19f4 6c3d
00000100: b1d2 11bd 912d 3c3d 98cd 323d 43fa 9c3d
00000110: 93fb 5e3d ff77 793c a2d1 c73d dd36 3fbc
00000120: 262c 023d d8eb f63c 01ef d2bc f48b 423d
00000130: e5ef 343d ed89 423d 00f5 4a3d 25d4 f7bc
00000140: 4c9f bc3c 7bd1 b33c 6001 813d 7522 663d
00000150: f4b0 323c bfd5 4a3d 498d a23d 6b87 423d
00000160: 4c0e b83d b98a a13d 8f2a b8bc a1a2 92bc
00000170: 42bd a5bc ce69 c8bc 7fb2 3c3d 4ec5 053d
00000180: d8c6 183d bcd5 d33c 9c51 00bd 68ef 17bd
00000190: 3668 3c3d d448 e53c d640 453d 4a11 d83c
000001a0: 0a9f 343d d5d0 273d ce1f 1abc 741a 943d
000001b0: 6b28 893c 23c8 943c 55d1 19bc aead 5d3d
000001c0: 2260 993d 3f7b 113d a316 a1bc 812a 81bd
000001d0: 246d 99bc f752 ed3c 7011 963d fc3d 4cbc
000001e0: 7ee0 8ebc 07b7 6439 e119 f13c 9e9b 403d
000001f0: 183c 8fbc 28ba 75bc 4199 df3c c8b8 733d

t_conv2.weight f4 [128, 64, 2]
0.100867264 -0.022455573 0.02773277 -0.03444434 0.013103473 0.03500823 0.035712678 -0.10306268
0.13613045 0.070512176 0.019178307 0.120835416 -0.030511273 0.01736069 0.04594828 0.10808691
0.07431971 0.013305058 0.03823021 0.030088732 -0.02199638 -0.031109698 0.1277923 -0.046368953
0.08307643 -0.10175611 -0.023745624 -0.02817393 0.049404804 0.00713043 -0.07979848 -0.037610658
0.07286453 0.12682505 -0.01751097 0.05327437 -0.01600218 0.083016366 0.013194619 -0.099935815
0.10730888 0.11593788 0.12334457 -0.005484664 -0.042438213 0.06262614 -0.055786297 -0.11015375
-0.03539429 0.0067659155 0.008333248 0.048104778 0.008514378 0.02062601 0.0104942545 -0.05555889
-0.063041024 0.04612283 -0.07151343 -0.034904014 -0.027316455 0.053542156 0.08648253 -0.07503902
0.018134767 -0.08631743 0.053050615 -0.0021237503 0.085276015 0.037636217 0.059983514 -0.027691133
0.0491016 0.0035299435 0.07511958 0.027970796 0.032658417 0.033766903 -0.07277624 0.041551214
-0.11714203 -0.039142665 -0.014275408 0.11012299 -0.03528466 -0.020687351 0.037351437 -0.02499764
0.014346845 0.0075370637 0.039531115 0.09133157 0.048452847 0.029866876 -0.009488955 0.00778072
0.037993737 0.057395104 0.09625273 0.0021120515 0.06916353 -0.08884435 0.06667217 -0.07032305
-0.024332399 0.0895687 0.078343324 -0.020711213 0.04134221 -0.054235194 -0.0747619 0.032727852
-0.03333731 0.038856268 0.009444003 0.015248521 0.05947221 -0.056450624 0.07169667 0.08299867
-0.0041134437 0.04623529 -0.031759232 0.12339126 0.07536188 0.11817292 0.058133233 0.01979435
0.10898141 -0.013819776 0.04317869 -0.094124064 0.03485139 -0.018419389 -0.016387692 0.022568878
0.043562368 0.015958264 -0.023182886 0.12457328 0.05916803 0.12397685 -0.06120195 -0.038126595
0.042225234 -0.030070709 -0.10912109 0.059321772 -0.008481373 -0.06262396 0.09935584 0.01745623
0.09574263 -0.045468055 0.0071730465 0.1202711 -0.07825382 0.01523221 -0.08831844 -0.053340565
-0.062888615 0.122821316 -0.07803581 0.10535616 -0.06936122 0.1255006 -0.0871857 -0.07662866
0.118260376 0.086281106 0.10839395 -0.07002779 0.041880425 0.097739205 -0.032088894 -0.040457934
0.018868957 -0.023114331 0.020435203 0.0645639 -0.02287184 -0.008318937 0.0939344 0.091774054
-0.100450076 0.06382996 -0.09455321 0.06957936 0.004760893 -0.004231911 0.087586164 -0.06828427
0.038986117 -0.034603532 0.029464418 0.09419414 0.028735192 0.061439656 0.10475866 0.018262118
-0.11858758 -0.05601197 0.014924212 -0.07030635 -0.03740419 0.058998384 0.025091091 0.056073103
-0.08679263 0.017424744 0.05771036 -0.015230991 0.03767956 -0.01287484 -0.013729557 0.025951104
0.06881724 0.044964645 -0.00985235 0.05661621 0.008526999 0.020227341 0.1354037 -0.01586135
-0.11273634 -0.062292706 0.048945464 0.115799256 -0.08204687 -0.030178059 -0.015294657 0.041899458
-0.01429856 0.026153993 -0.041775975 -0.06344908 0.016786989 0.002254886 -0.07951888 -0.00022697481
-0.049873617 -0.09594129 -0.01996585 0.08422312 -0.028216051 -0.07105237 0.11527211 -0.03630244
-0.018639743 -0.026259907 -0.055588756 0.13293414 -0.07285266 0.008843473 0.020519601 -0.027245855
00000000: 7f93 ce3d c0f4 b7bc d62f e33c 8215 0dbd
00000010: f3af 563c ca64 0f3d 7547 123d 8712 d3bd
00000020: c865 0b3e b068 903d d31b 9d3c 8f78 f73d
00000030: c7f2 f9bc 0138 8e3c 4334 3c3d ab5c dd3d
00000040: ef34 983d 75fd 593c 4897 1c3d a57c f63c
00000050: c131 b4bc c4d9 febc fcdb 023e 5fed 3dbd
00000060: fa23 aa3d 8265 d0bd 2f86 c2bc 03cd e6bc
00000070: b15c 4a3d 62a6 e93b 636d a3bd a20d 1abd
00000080: 003a 953d 6dde 013e 2a73 8fbc 3a36 5a3d
00000090: 0117 83bc 7c04 aa3d 3e2e 583c 26ab ccbd
000000a0: c2c4 db3d d770 ed3d 149c fc3d b2b8 b3bb
000000b0: b1d3 2dbd 2242 803d 2c80 64bd 4a98 e1bd
000000c0: 9af9 10bd 9db4 dd3b 2d88 083c 8409 453d
000000d0: e47f 0b3c e1f7 a83c 18f0 2b3c b891 63bd
000000e0: a71b 81bd 4beb 3c3d a275 92bd 83f7 0ebd
000000f0: c2c6 dfbc 054f 5b3d c11d b13d 0fae 99bd
00000100: 5d8f 943c 31c7 b0bd 9a4b 593d 9e2e 0bbb
00000110: 31a5 ae3d 6f28 1a3d 46b1 753d 84d8 e2bc
00000120: c21e 493d a056 673b 4bd8 993d 0323 e53c
00000130: d5c4 053d 2a4f 0a3d b60b 95bd 9b31 2a3d
00000140: 29e8 efbd 0f54 20bd 67e3 69bc 2a88 e13d
00000150: a686 10bd 8578 a9bc d2fd 183d dac7 ccbc
00000160: 080f 6b3c 79f9 f63b 61eb 213d 0c0c bb3d
00000170: 7e76 463d 61ab f43c 9077 1bbc 69f5 fe3b
00000180: 529f 1b3d 2117 6b3d 2720 c53d 586a 0a3b
00000190: 9ca5 8d3d 07f4 b5bd 6b8b 883d 8805 90bd
000001a0: bd54 c7bc cb6f b73d 7772 a03d 90aa a9bc
000001b0: 7356 293d b925 5ebd c41c 99bd a40d 063d
000001c0: b48c 08bd c027 1f3d 05bb 1a3c efd4 793c
000001d0: 2299 733d c538 67bd b4d5 923d 35fb a93d
000001e0: 11ca 86bb 3761 3d3d f815 02bd 8fb4 fc3d
000001f0: 5457 9a3d a504 f23d 1d1d 6e3d c327 a23c
00000200: a531 df3d 576c 62bc 23dc 303d 1ec4 c0bd
00000210: 55c0 0e3d 42e4 96bc 7b3f 86bc 5ee2 b83c
00000220: 746e 323d e8ba 823c 09ea bdbc 4720 ff3d
00000230: 2d5a 723d 93e7 fd3d e5ae 7abd a22a 1cbd
00000240: 5ef4 2c3d d956 f6bc e17a dfbd 63fb 723d
00000250: 75f5 0abc fe40 80bd 137b cb3d 5e00 8f3c
00000260: b614 c43d b63c 3abd e00b eb3b b250 f63d
00000270: 8a43 a0bd 8590 793c 4ce0 b4bd a37b 5abd
00000280: bfcb 80bd be89 fb3d 3dd1 9fbd f8c4 d73d
00000290: 410d 8ebd 3b83 003e 6b8e b2bd 7def 9cbd
000002a0: 7f32 f23d 26b4 b03d a6fd dd3d bb6a 8fbd
000002b0: cf8a 2b3d 7e2b c83d a56f 03bd 38b7 25bd
000002c0: 1293 9a3c 445a bdbc ba67 a73c 143a 843d
000002d0: ba5d bbbc 274c 08bc ae60 c03d 09f4 bb3d
000002e0: c5b8 cdbd 48b9 823d 1da5 c1bd a07f 8e3d
000002f0: 4401 9c3b d8ab 8abb 6060 b33d a0d8 8bbd
00000300: e8af 1f3d 6fbc 0dbd 5d5f f13c dbe8 c03d
00000310: 1166 eb3c 26a8 7b3d b58b d63d 709a 953c
00000320: 0cde f2bd cf6c 65bd af84 743c c7fc 8fbd
00000330: 2335 19bd 4aa8 713d d58b cd3c e9ac 653d
00000340: 56c0 b1bd 56be 8e3c b361 6c3d 688b 79bc
00000350: e255 1a3d fef0 52bc f0f1 60bc 6997 d43c
00000360: 0ef0 8c3d d92c 383d c06b 21bc 66e6 673d
00000370: d3b4 0b3c cfb3 a53c 44a7 0a3e a9ef 81bc
00000380: 4fe2 e6bd a326 7fbd 0a7b 483d 2928 ed3d
00000390: 3008 a8bd fa37 f7bc 7196 7abc c49e 2b3d
000003a0: 8244 6abc e640 d63c 491d 2bbd 97f1 81bd
000003b0: de84 893c b6c6 133b cbda a2bd 1600 6eb9
000003c0: 4748 4cbd de7c c4bd 6c8f a3bc 2c7d ac3d
000003d0: 5925 e7bc e883 91bd c913 ec3d deb1 14bd
000003e0: 60b2 98bc 041f d7bc 09b1 63bd e31f 083e
000003f0: c733 95bd 37e4 103c b918 a83c b332 dfbc

t_conv2.bias f4 [64]
-0.05064396 -0.038194843 0.09487014 -0.010334992 -0.06724543 -0.029680705 -9.4709794e-05 0.07325346
0.02854088 0.097110555 0.004424136 0.11242404 0.07737229 0.051093087 -0.060141955 -0.042406835
0.05725803 -0.007094898 -0.032194935 -0.02265958 -0.040678784 -0.038619887 0.03690744 0.099428855
0.04174605 0.0632274 -0.041664366 0.067028165 0.008116813 0.072886005 0.023494495 0.028568123
-0.013068054 0.08579411 0.12131509 0.056479283 -0.035111375 -0.02957311 0.06627514 0.0402875
-0.015986605 0.043705013 0.10603982 -0.06376159 0.0931984 0.10362014 0.00673292 -0.048276685
0.036480784 -0.036894836 0.017673388 0.037417576 0.09858411 0.01582725 0.07491161 -0.03081579
0.01828454 0.05204701 0.05683151 0.026967691 0.07261931 0.024752 -0.0012244877 0.03673937
00000000: 0a70 4fbd 3272 1cbd 474b c23d 1954 29bc
00000010: f9b7 89bd f324 f3bc ef9e c6b8 e905 963d
00000020: 90ce e93c e6e1 c63d 58f8 903b 933e e63d
00000030: 5d75 9e3d fc46 513d 6957 76bd cab2 2dbd
00000040: 6587 6a3d 517c e8bb d6de 03bd 95a0 b9bc
00000050: cc9e 26bd e32f 1ebd 412c 173d 5ba1 cb3d
00000060: e8fd 2a3d 5e7d 813d 41a8 2abd 1046 893d
00000070: 62fc 043c 4245 953d 8777 c03c b207 ea3c
00000080: 641b 56bc d3b4 af3d 0c74 f83d d256 673d
00000090: f2d0 0fbd 4f43 f2bc 43bb 873d 8104 253d
000000a0: 57f6 82bc 0704 333d 682b d93d 7095 82bd
000000b0: cede be3d cc36 d43d d49f dc3b c6bd 45bd
000000c0: e06c 153d 0a1f 17bd c8c7 903c 2c43 193d
000000d0: 77e6 c93d 26a8 813c 426b 993d 6571 fcbc
000000e0: 76c9 953c 3f2f 553d 28c8 683d 59eb dc3c
000000f0: 6fb9 943d b5c4 ca3c fd7e a0ba 067c 163d

conv_out.weight f4 [1, 64, 3]
0.03683203 -0.11156811 -0.032984093 -0.035725147 -0.11411663 -0.051048208 0.018775975 -0.009914962
0.1132275 0.03808908 -0.12077965 0.07124851 0.099922836 -0.11227291 -0.0786511 -0.10281561
0.111649506 -0.09340526 0.09717164 0.10245121 -0.009506343 -0.06853666 -0.021139164 -0.085699946
-0.09250575 -0.0974534 -0.011431597 0.01787045 0.095120355 -0.051201258 -0.022457125 -0.05646174
0.11415958 -0.0120744975 -0.100113444 -0.10898903 0.09789932 0.014531082 0.10697868 -0.0020210166
0.039427135 -0.13045482 -0.04137899 0.06009333 -0.04309901 -0.098224595 0.042076185 0.055348966
-0.109657966 0.08191458 -0.1188019 -0.032611527 0.11776511 0.05109005 0.046536494 0.10373387
-0.11402552 0.08385081 -0.007984285 0.05540884 0.069616385 0.11359691 -0.12001578 0.119949326
-0.08850589 -0.036459617 0.061136145 0.095612675 0.07866837 0.099112354 -0.022339465 0.09906532
-0.016968703 0.0558605 0.077805445 0.024501551 0.098182626 -0.037920836 -0.1404533 0.06615512
0.11207186 0.106124915 -0.055046804 -0.08797025 -0.03602133 0.089469634 0.076094665 -0.06090396
0.11326678 0.071906425 0.038305033 -0.08548109 0.07677195 0.0640071 -0.085337006 0.058525804
-0.04775009 -0.11276454 0.078544974 -0.07535812 -0.059763264 -0.09599242 0.07754262 -0.10957694
-0.06562472 0.10490238 -0.020487268 -0.090564705 -0.09398678 0.028898526 -0.02240933 -0.08990209
-0.06484215 0.0025058007 -0.06491813 -0.02464372 -0.06680922 0.09331938 0.09721246 -0.04499752
-0.01713961 0.03690657 0.067051664 -0.058863625 -0.088258274 -0.10647558 -0.112085395 -0.044663236
-0.03534674 -0.08507509 0.08293171 -0.07210065 0.10190381 0.10631897 -0.13366093 -0.06961882
-0.079703346 -0.09633476 -0.11490047 0.12063708 -0.031820744 0.06654007 -0.10300593 -0.053306293
-0.11675337 0.012288064 -0.090575404 -0.07151159 -0.058404736 -0.09490153 0.056797706 -0.053204264
0.1015737 -0.11320226 -0.09585096 0.083726324 -0.052033138 -0.11874157 0.034791064 0.09257731
0.0041268156 0.064610414 -0.029214136 -0.11443843 0.041593544 -0.08838614 0.0841726 0.05316378
-0.05951131 0.013588145 0.11466917 -0.08696273 0.058901913 -0.026011737 0.11036781 -0.115608156
-0.024143262 0.01249617 -0.109464 -0.10108146 -0.12018615 -0.06037994 0.03167582 0.081396155
0.10154182 -0.12205229 0.04271608 0.12366779 -0.065814674 0.08475935 -0.12797235 0.079774536
00000000: 2fdd 163d d27d e4bd 541a 07bd 8854 12bd
00000010: fbb5 e9bd ed17 51bd 13d0 993c 5d72 22bc
00000020: d2e3 e73d 4c03 1c3d 525b f7bd bdea 913d
00000030: 58a4 cc3d 57ef e5bd d413 a1bd fe90 d2bd
00000040: 7fa8 e43d 424b bfbd ed01 c73d f1d1 d13d
00000050: 7ec0 1bbc f35c 8cbd 0a2c adbc 7483 afbd
00000060: a873 bdbd a695 c7bd 984b 3bbc 0d65 923c
00000070: 76ce c23d 69b8 51bd 01f8 b7bc 6d44 67bd
00000080: 7fcc e93d 1dd4 45bc 4708 cdbd a435 dfbd
00000090: 707f c83d c613 6e3c a317 db3d 0873 04bb
000000a0: 597e 213d f395 05be 047d 29bd 6c24 763d
000000b0: 9688 30bd fa29 c9bd 1458 2c3d 99b5 623d
000000c0: 5b94 e0bd d5c2 a73d 694e f3bd aa93 05bd
000000d0: d62e f13d cd43 513d 0d9d 3e3d 6c72 d43d
000000e0: 3686 e9bd f9b9 ab3d 85d0 02bc 61f4 623d
000000f0: 0993 8e3d 7fa5 e83d d5ca f5bd fea7 f53d
00000100: 9342 b5bd ae56 15bd e569 7a3d 94d0 c33d
00000110: e21c a13d 6bfb ca3d 4101 b7bc c2e2 ca3d
00000120: f301 8bbc fbcd 643d 7658 9f3d 7ab7 c83c
00000130: f913 c93d e152 1bbd fdd2 0fbe 567c 873d
00000140: ee85 e53d 0558 d93d c278 61bd bf29 b4bd
00000150: 1a8b 13bd db3b b73d 85d7 9b3d 6e76 79bd
00000160: 6af8 e73d ad43 933d bde5 1c3d b610 afbd
00000170: 9d3a 9d3d 2816 833d 2bc5 aebd c1b8 6f3d
00000180: 9995 43bd 18f1 e6bd 30dc a03d 5c55 9abd
00000190: 53ca 74bd ad97 c4bd aace 9e3d e069 e0bd
000001a0: 4166 86bd 0fd7 d63d ead4 a7bc fd79 b9bd
000001b0: 247c c0bd 9abc ec3c c593 b7bc 961e b8bd
000001c0: f6cb 84bd 5c38 243b ccf3 84bd a0e1 c9bc
000001d0: 46d3 88bd 3b1e bf3d 5417 c73d 524f 38bd
000001e0: 5e68 8cbc 582b 173d 6252 893d fc1a 71bd
000001f0: c1c0 b4bd de0f dabd 078d e5bd ccf0 36bd
00000200: bec7 10bd d93b aebd 1ad8 a93d 81a9 93bd
00000210: f2b2 d03d c3bd d93d 69de 08be 5094 8ebd
00000220: 823b a3bd 294b c5bd f050 ebbd 9310 f73d
00000230: 7856 02bd 2946 883d c6f4 d2bd b357 5abd
00000240: 641c efbd e053 493c 997f b9bd ab74 92bd
00000250: ce39 6fbd bc5b c2bd b6a4 683d b7ec 59bd
00000260: df05 d03d 96d6 e7bd 824d c4bd b578 ab3d
00000270: b320 55bd c82e f3bd 1381 0e3d 2c99 bd3d
00000280: 3d3a 873b 7752 843d 7c52 efbc b25e eabd
00000290: fe5d 2a3d cb03 b5bd af62 ac3d 44c2 593d
000002a0: 22c2 73bd d0a0 5e3c abd7 ea3d 8419 b2bd
000002b0: 2243 713d 9116 d5bc 8508 e23d f8c3 ecbd
000002c0: 17c8 c5bc bcbc 4c3c a92e e0bd cc03 cfbd
000002d0: 2824 f6bd f550 77bd 81be 013d 07b3 a63d
000002e0: 28f5 cf3d 8df6 f9bd 0ef7 2e3d 8a45 fd3d
000002f0: d8c9 86bd 4f96 ad3d 2f0b 03be d560 a33d
