pths/denoiser_model_3.pth (torch, 166322 bytes, 17 tensors)

conv1.weight f4 [32, 1, 3]
000000 a5 88 e1 3e 35 88 f6 3e 92 7c 0b be 51 7c 00 3f
       0.44049564 0.48150793 -0.13621739 0.5018969
000010 60 b3 20 be ba 55 e2 3d aa 01 76 be 95 b3 a9 3e
       -0.15693426 0.11051507 -0.24024072 0.33144823
000020 1d 0c 10 3f 6d 6f d0 be 2d a9 00 3f 6a 33 30 3e
       0.56268483 -0.4071001 0.5025814 0.17207113
000030 04 07 b8 3e 55 ed c6 3d ed 46 b0 3e 81 c9 d4 bd
       0.35942852 0.09713236 0.34429112 -0.10389996
000040 3e 5b cb 3e 05 2c 14 3e 8d fe 93 be 96 73 1b 3e
       0.3971805 0.14469917 -0.28905144 0.15180811
000050 48 11 83 be 50 46 af bd 9f 8d 63 be 36 2b c7 3e
       -0.25599122 -0.08558333 -0.22221993 0.38900155
000060 cd 22 dd be 33 b9 97 be 91 c2 27 be ec e0 cb be
       -0.43190613 -0.29633483 -0.16382815 -0.3982004
000070 16 fb 6c 3d ee b5 04 bf 16 e2 0e 3f 0b f1 fa be
       0.05785664 -0.518401 0.5581373 -0.49012026
000080 52 42 cf 3e 5a b6 9a 3d 5e 3e 29 be 7a 51 c8 3e
       0.40480286 0.07554312 -0.16527697 0.39124662
000090 22 ea 8d 3d fe 97 ff 3e 03 0c 06 3c d2 a8 29 be
       0.06929423 0.49920648 0.008181575 -0.16568306
0000a0 c3 24 46 3e f1 17 ff bd 45 a8 83 3e 78 9b fe 3e
       0.19349961 -0.12455738 0.25714317 0.49727988
0000b0 88 ff ae 3e 20 23 62 be 5b 7d bf 3e 87 a6 d4 3d
       0.3417933 -0.22083712 0.37400326 0.10383325
0000c0 b8 8b 95 3e ab f6 d5 be cb 2b 03 bf 67 0f 77 be
       0.2920816 -0.41789755 -0.512387 -0.2412697
0000d0 1d f8 ee be c9 6e dc 3e 26 27 3e 3e f3 d1 82 3e
       -0.4667367 0.43053272 0.18569621 0.25550804
0000e0 56 b5 12 3e e9 bd 3b 3c 71 0f f2 3e 85 d6 c7 be
       0.14326987 0.011458852 0.47277406 -0.39030853
0000f0 57 22 9a 3d f7 a1 d2 be 50 8f 12 3e 97 98 06 be
       0.07526081 -0.41139194 0.14312482 -0.13144146
000100 14 5f 7a 3e 57 3a e4 bd ed 3a e4 3e fc 86 be be
       0.24450332 -0.1114394 0.44576207 -0.3721236
000110 98 bd b6 be 71 4b 9a be 08 ea 10 3f 6b ba 47 3e
       -0.35691524 -0.30135682 0.56607103 0.19504707
000120 24 d5 13 3f f2 4b 07 bf 38 f8 fc be 4a ff d8 be
       0.577471 -0.5285026 -0.49408126 -0.4238227
000130 b6 8c d1 be fc 69 84 3e e3 fd 63 3e 23 0c e3 3e
       -0.40927666 0.2586211 0.22264819 0.44345197
000140 e1 41 ad be ce 2a cd be 22 54 9a 3e f3 be 6f be
       -0.33839324 -0.4007172 0.30142313 -0.23412685
000150 62 2b a8 3e ed 41 09 be 85 b1 b7 3e ed d2 cc be
       0.32845598 -0.13404055 0.35877624 -0.40004674
000160 9c fb a4 be 53 4f 4b 3e 08 bc c0 3d 8e f9 17 be
       -0.32223213 0.19854479 0.09410864 -0.14841291
000170 be da b5 3e 19 25 c5 3e e5 27 e3 be 55 7d 84 be
       0.3551845 0.38504866 -0.44366375 -0.2587687

conv1.bias f4 [32]
000000 56 80 07 3f 46 0f 48 be aa 2d 51 be 89 03 0f bf
       0.529302 -0.19537076 -0.20427576 -0.5586477
000010 63 1f a9 be 47 ef 13 3e 0b 51 9b bd b6 cf d6 be
       -0.3303176 0.14446746 -0.07583817 -0.41955346
000020 47 29 57 3c 63 38 ca be 7a 82 fa be ff 3f a2 be
       0.0131324 -0.39496145 -0.4892767 -0.3168945
000030 1c 52 01 bf f3 de bc be 43 d0 13 3f cb d0 de 3d
       -0.50515914 -0.36888847 0.5773966 0.10879668
000040 40 4c 36 3e 8e 09 0a bf 4f b3 c1 be ab 37 44 be
       0.17802525 -0.5392083 -0.37832114 -0.1916186
000050 5d bf b7 3d b2 ed 01 bf 7f f0 7e be 76 77 b1 be
       0.089720465 -0.5075332 -0.2489643 -0.34661454
000060 94 71 8a 3a c9 2b 5c be cd cc 25 bd bf 20 c8 be
       0.0010562413 -0.21501078 -0.040478516 -0.39087483
000070 ae 21 cb be c7 7c ac be c8 f1 48 be 1c b9 e9 be
       -0.39674133 -0.33688948 -0.19623482 -0.4564904

bn1.weight f4 [32]
000000 b4 cb 86 3f e3 fd 83 3f 32 3e 71 3f 3b 43 7e 3f
       1.0530915 1.0311855 0.9423553 0.99321336
000010 b0 14 75 3f 11 17 79 3f 5b 66 7a 3f c9 33 85 3f
       0.9573469 0.9730082 0.9781243 1.0406429
000020 b0 eb 81 3f cb 13 7c 3f 94 09 80 3f 3f 1b 73 3f
       1.0150051 0.984677 1.0002923 0.9496345
000030 eb 09 80 3f 43 63 7c 3f 37 81 7b 3f 87 da 84 3f
       1.0003027 0.9858896 0.9824404 1.0379189
000040 d7 14 7d 3f de eb 84 3f a9 63 84 3f 6a 53 82 3f
       0.98859924 1.0384481 1.0342914 1.0181706
000050 13 03 80 3f b7 bc 7b 3f 74 d5 7b 3f 24 14 7e 3f
       1.0000938 0.9833483 0.9837258 0.9924948
000060 8a 41 7f 3f 99 92 77 3f f3 e0 84 3f 42 0c 78 3f
       0.9970938 0.96708065 1.0381149 0.96893704
000070 a0 28 81 3f 2b 49 76 3f 7e 83 7e 3f 7e ef 82 3f
       1.0090523 0.96205395 0.9941939 1.0229337

bn1.bias f4 [32]
000000 e9 98 ee 3c 4a 9a a5 3d 5a af 87 3d 0b 8b 12 3d
       0.029125648 0.08086069 0.066252425 0.035777133
000010 a0 51 9c 3c ed 4c 2c 3d 11 2b 17 bd e3 c6 8f 3d
       0.01908189 0.04206555 -0.036906306 0.070203565
000020 9d 9c 92 3d 57 c9 48 3d ef b2 16 3c cd 95 a3 3c
       0.07158778 0.049020138 0.0091979345 0.019968892
000030 aa 0c c6 3d ab dc d7 3c eb 4f 1d 3c 2e 28 3a 3d
       0.09670384 0.02635034 0.009601573 0.045448475
000040 b3 b5 89 3d 7b dd bc 3d a3 0e b8 3c 9a 7e b0 3d
       0.067241095 0.092219315 0.022467917 0.08617897
000050 8d 22 64 3d c8 26 31 3b 6c 35 83 3d 6e 0b 34 3d
       0.055697013 0.0027031172 0.06406674 0.043956213
000060 42 b6 31 3d d4 b1 8b 3d ce 80 8c 3d a1 b8 05 3d
       0.043386705 0.068210274 0.06860505 0.03264678
000070 80 2d 0e bc 3c e9 71 3c 0d dd 03 bc c7 8e ab 3d
       -0.00867784 0.01476508 -0.008048308 0.08376842

bn1.running_mean f4 [32]
000000 40 19 ad 3d 7d 17 e5 be fa 9c 18 bf 3a b5 39 bf
       0.08452082 -0.44744483 -0.5961453 -0.72542155
000010 79 e1 49 bf 3e 53 eb bd 5d 24 15 3e 32 53 f0 be
       -0.7885967 -0.114904866 0.14564653 -0.46938473
000020 19 a2 05 3f 34 fb c8 3d e3 e8 3f bf 53 b7 f8 be
       0.52200466 0.09813538 -0.7496473 -0.48577365
000030 c3 1f 57 bf 8a 3e a1 be 38 cc 68 bd 05 e5 45 bd
       -0.8403284 -0.31493026 -0.056835383 -0.048314113
000040 69 21 10 3f be c9 c3 be 92 56 37 bf 41 2a 77 be
       0.5630098 -0.38239855 -0.7161647 -0.24137212
000050 5f 00 52 3e 84 1c 02 bf 89 05 87 bd 28 3d 20 bf
       0.20507954 -0.5082476 -0.065928526 -0.6259332
000060 33 78 90 3e ff 43 db 3d 88 26 65 be 91 2f 55 be
       0.28216705 0.107063286 -0.2237798 -0.20818926
000070 ce 11 36 bf e1 2c 38 bd 94 cb bc be 90 f3 81 be
       -0.7112092 -0.044964675 -0.36874068 -0.25381136

bn1.running_var f4 [32]
000000 4b 4c 79 3f 24 9c fd 3e 21 8a 65 3f 7c f8 1f 3f
       0.9738204 0.49533188 0.89663893 0.6248853
000010 e0 f4 39 3f 6f 6c ba 3e d0 19 a1 3e eb 20 8e 3e
       0.72639275 0.36410853 0.31465006 0.2775949
000020 3e be 62 3f 56 43 81 3f d6 9c 86 3f 38 92 94 3e
       0.88571537 1.0098674 1.0516613 0.29017806
000030 76 a8 0b 3f 9f 4d e0 3d 2d f2 a7 3f b2 f9 98 3e
       0.54553926 0.10952305 1.3120781 0.29878002
000040 35 20 70 3f ce 32 2b 3f 7e bd be 3e a3 30 00 3f
       0.93799144 0.66874397 0.37253946 0.50074214
000050 4b 1f 90 3e 0f b5 ec 3d d4 e1 28 3f 16 c9 37 3f
       0.28148875 0.11557972 0.65969586 0.7179121
000060 0b 54 9f 3f c0 ff 42 3f 87 19 0c 3f 03 a7 eb 3e
       1.2447523 0.76171494 0.5472645 0.46025857
000070 a4 ed 02 3f d3 fb 12 3f 4f 7e 83 3e 5b 57 1b 3f
       0.5114386 0.57415503 0.25682303 0.6068017

conv2.weight f4 [64, 32, 3]
000000 c9 fd ba 3d eb 52 d5 bc b0 f4 97 3d ba 58 4e 3d
       0.09130437 -0.026040515 0.07419717 0.050377585
000010 b8 3b 01 be 76 0b 6f 3d c9 4b cc bc ae 06 9b bd
       -0.12620437 0.05836054 -0.02493848 -0.075696334
000020 3f 6d bc bd 4c 05 cd bd 5f 42 37 3c e9 57 1f bd
       -0.092005245 -0.10010776 0.011185258 -0.038902197
000030 dc d6 8b 3d 2c 03 b6 bd 87 8a 96 3d 26 11 85 bd
       0.068280905 -0.08887324 0.07350641 -0.064974114
000040 d1 34 92 bc 80 ad ab 3b b6 fe e9 3c a7 bd 6e 3d
       -0.01784745 0.0052391887 0.028563838 0.058286335
000050 f8 9e b9 3d 2a 1f bb bd 14 f7 3b 3b 04 86 25 bc
       0.09063524 -0.091368034 0.0028681206 -0.010102753
000060 11 db eb 3b ed b3 e0 bd 5c b8 b2 3d 74 19 ea bd
       0.0071977456 -0.10971818 0.0872657 -0.11430636
000070 27 7f 37 3d d0 4e 18 3d 63 e5 0b 3d 84 e6 93 bd
       0.044798996 0.037184536 0.034154307 -0.07221702
000080 66 55 d4 3d 4c 47 1f 3a 79 c7 cb bb 95 66 72 bd
       0.10367851 0.0006075993 -0.0062188474 -0.05917986
000090 ea 3e 43 3d d1 cc c1 b9 4e d7 6c bd cf fe 8a 3d
       0.04766742 -0.0003696443 -0.057822518 0.06786882
0000a0 6d f0 39 3a 31 2a 5f bd e8 7d 51 bc 55 81 78 bb
       0.0007093016 -0.054483596 -0.012786366 -0.0037918885
0000b0 88 f7 7b 3d 44 d5 bc bc 64 24 9c bd ef 0b 54 bd
       0.06151536 -0.023050912 -0.076241285 -0.051769193
0000c0 8c 65 bd bd 72 74 f9 3b cd 99 66 3d 8e 57 c0 bd
       -0.09247884 0.0076127583 0.05629902 -0.093917
0000d0 35 c2 a4 3b 46 c8 9e 3d 07 b2 70 3d b9 66 2a bd
       0.005028034 0.07753043 0.05876353 -0.04160187
0000e0 74 5b 81 3d 0b a4 d3 3c c0 07 65 3d 00 62 74 bc
       0.063162714 0.025835058 0.055915594 -0.014915943
0000f0 e7 46 26 bd 75 f5 eb ba 77 d1 01 bb 64 8d 55 bd
       -0.04059496 -0.0018002229 -0.0019808689 -0.052136794
000100 fc f0 4a 3d 78 64 c0 3d 12 44 1b bc b9 06 4c bd
       0.049546227 0.09394163 -0.009476678 -0.0498111
000110 12 c7 b9 bc 28 c6 62 3b 0c 95 19 3c 1b ee 54 3c
       -0.022677932 0.0034602974 0.009373914 0.012996222
000120 8a 91 c4 bd 59 eb 84 bd a8 b0 79 3d 41 bf 85 3d
       -0.09598072 -0.064902015 0.06095949 0.065306194
000130 1f 83 02 bd 9d 18 7f bd bd 60 a2 bd 4f 07 95 bd
       -0.031863328 -0.062279332 -0.079286076 -0.07276785
000140 0d d8 19 bd e7 f0 89 3c 0c c4 21 3d d4 5b 39 3d
       -0.037559558 0.016838504 0.039493605 0.04525359
000150 89 3f a7 bd 40 f6 8f bd 0b 95 68 bc 9c b4 05 3e
       -0.08166415 -0.0702939 -0.014195691 0.13057178
000160 61 4c 9d bc 94 9a f9 bc 98 72 91 3c 06 e5 71 bd
       -0.01920146 -0.030469216 0.017754838 -0.059056304
000170 6b fd 15 bd 3d 45 8d 3d 8d 86 a4 bd b8 d9 33 bd
       -0.03661863 0.06897972 -0.08033476 -0.043908805
000180 18 ac 9a bd 76 ce c4 3d c8 a9 63 3d c0 55 9e 3d
       -0.075523555 0.09609692 0.055581838 0.07731199
000190 7f 18 f1 bd 05 b2 f5 bd d4 b4 cd bd 28 4a a0 3d
       -0.117722504 -0.11996845 -0.10044256 0.07826644
0001a0 45 9e 9e 3d e2 70 14 3e 8e 56 fb 3c 5f 22 eb 3c
       0.07745031 0.14496186 0.03068092 0.028702913
0001b0 c7 d0 1b 3c db 40 95 bd 46 64 c2 bd 12 fe 4b bd
       0.009510226 -0.07287761 -0.09491782 -0.049802847
0001c0 45 94 4b 3c a5 da 4a bd f6 e0 81 3c a5 46 5e bd
       0.012425487 -0.049524922 0.01585434 -0.05426659
0001d0 12 32 19 bd 78 d8 cc bd be 5e 80 bd a2 0d 32 3d
       -0.037401266 -0.10002226 -0.06268071 0.043470033
0001e0 3d 0b c5 bc f7 db 7f 3d b3 70 ef bc 29 50 83 bd
       -0.02405321 0.062465634 -0.029228544 -0.06411774
0001f0 69 cd 1c bc 2a 02 62 bd 15 ce e6 ba b8 fe 02 be
       -0.009570458 -0.055177845 -0.0017609025 -0.1279248
000200 81 97 0b 3d 5e 56 95 bd d3 64 63 3d 4c 6e 44 3d
       0.034080032 -0.07291864 0.055516075 0.04795675
000210 af 69 ef 3d 0c de a2 bd fa fb 73 3d 89 00 49 ba
       0.116900794 -0.07952508 0.059566475 -0.0007667621
000220 04 9e 1e 3d df 98 8e 3d b3 b7 05 3a c7 bb 68 bb
       0.038724914 0.069627516 0.00051009207 -0.0035512315
000230 9b 6d 17 bc f1 9c c8 bc 72 48 ab 3c 7f 1a cf bd
       -0.009242441 -0.024488898 0.020908568 -0.101124756
000240 b3 1e 59 3d 4b 90 98 3d c1 f8 e0 3d 25 e5 50 bd
       0.053007793 0.07449397 0.10984946 -0.05099978
000250 df 7a a1 bd 53 cc 07 3d 74 4b 89 3d 2a 15 c3 bd
       -0.07884764 0.033153843 0.06703845 -0.09525521
000260 df 17 1c bc 3f 37 a1 bc 35 6c 6e 3c 17 ae 96 bd
       -0.009527176 -0.019679664 0.014552166 -0.07357424
000270 ef 41 e3 bc 3e 34 32 bd c6 a4 fc bd de 41 0c 3e
       -0.0277414 -0.043506853 -0.123361155 0.13697001
000280 91 c0 a3 3d 0f 1c 1b bd 78 c4 cc bb 88 4d 78 bd
       0.079957135 -0.037868556 -0.006249007 -0.060620815
000290 e0 ef 8e bd c3 82 3e bd cc c8 21 3c 7b e1 5c bd
       -0.06979346 -0.046511423 0.009874534 -0.053925972
0002a0 16 ec 80 bd 18 97 b1 bc 1e 3e 5a bc 62 bd 6e bd
       -0.0629503 -0.021678492 -0.013320474 -0.05828608
0002b0 41 11 19 3c 91 b5 2f bb fb da ab 3a 7d 4f f7 bc
       0.009342493 -0.0026811103 0.0013111526 -0.03018927
0002c0 86 ef e3 bd 1f cb 0a 3e 0f b8 33 bd f1 cd 45 3c
       -0.1112967 0.13554047 -0.043876704 0.012073026
0002d0 80 b3 7b bc 00 f4 58 bc a8 5d ae 3d b1 44 de 3c
       -0.01536262 -0.013241768 0.08513957 0.027132364
0002e0 58 07 a1 bd 00 ad 82 3d dd 9d c8 3d 61 73 e3 3c
       -0.07862729 0.063806534 0.09795735 0.027764978
0002f0 1e 80 88 3d b4 6d da 3d 4f 47 08 bd ae ca 06 3d
       0.066650614 0.106654555 -0.03327113 0.032908134
000300 49 6d 2b bd 1b ae c7 3a fb 7f 91 3d ec f3 5c 3d
       -0.04185227 0.0015234383 0.071044885 0.05394356
000310 7a 57 09 bd 53 5e ff bd 2a 78 00 bd 1b 7f 18 be
       -0.03353069 -0.12469163 -0.031364597 -0.14892237
000320 be 2d b7 bd d7 f1 32 3c 7d 3a 89 3d 04 62 62 bb
       -0.089442715 0.010921917 0.06700609 -0.0034543285
000330 25 20 4d bd cd 78 e3 bd c0 c6 49 3d 05 d8 32 bd
       -0.050079484 -0.11107025 0.04926181 -0.043663044
000340 53 7b f8 b9 89 ae 17 3d 08 e2 82 bc 2f 9d a0 ba
       -0.0004739413 0.037031684 -0.01597692 -0.0012253876
000350 fc f8 60 bc d2 fd fd bc 93 db c4 bd 59 c4 c4 bd
       -0.0137312375 -0.03100482 -0.09612193 -0.09607763
000360 3b ee be bc b9 c9 4e bd 3d b3 a3 3d 97 4b b5 bc
       -0.023306957 -0.050485346 0.07993171 -0.02213077
000370 d1 39 81 bd 43 e1 a6 3c a7 4a a7 3a 15 39 8a 3d
       -0.06309856 0.020371085 0.0012763337 0.06749169
000380 aa 8f 56 3d ab e7 2f 3d 99 af 0f be a6 cc 28 3c
       0.052383102 0.042945545 -0.14031829 0.010302698
000390 91 e8 c7 3d 9a 37 bf 3c 01 e6 96 bd d8 6e f7 3d
       0.097611554 0.023341943 -0.073680885 0.12081689
0003a0 fb e2 df bc 4c 6b 85 bd 12 33 42 bd 53 f1 77 bc
       -0.027329912 -0.06514606 -0.047411986 -0.01513322
0003b0 0e 2c fc 3c 14 c2 75 3d 3b 49 93 3c 8e 65 c4 bd
       0.030782726 0.05999954 0.017979255 -0.095896825
0003c0 e7 26 e6 bd 0a 62 00 3d f4 10 81 3d 26 18 5a 3d
       -0.11237889 0.031343497 0.06302062 0.053245686
0003d0 6c 6a a7 bd 02 46 db bc c9 70 c7 bc dc 0a 9a bd
       -0.08174595 -0.02676678 -0.024345772 -0.075216025
0003e0 b9 6f e9 ba 4f dd 2d 3d 09 a4 d0 3d 5a b2 c7 bd
       -0.0017809785 0.042447384 0.10187537 -0.09750815
0003f0 69 e4 15 3d 6e ba 05 bd 84 3f c4 3c d9 62 e4 3d
       0.036594782 -0.032648496 0.023956068 0.11151666

conv2.bias f4 [64]
000000 8c a0 87 bd e1 5a 95 3d 13 dd a8 3d 5b ce 8d 3d
       -0.06622419 0.072927244 0.082452916 0.06924125
000010 0b ad be ba 3a 52 c5 3c 36 e1 a5 3b 1a 83 22 bd
       -0.001454742 0.02408706 0.0050622476 -0.03967581
000020 d0 18 d0 bd 30 a6 4d bc b3 99 3b 3d f7 c7 73 3d
       -0.101609826 -0.012551829 0.045800876 0.059516873
000030 24 2a c6 3c 7f 70 41 3d 87 90 83 3d a4 44 a5 bc
       0.024190016 0.047226425 0.06424051 -0.020174332
000040 47 a2 8a 3d 97 11 1e bb 1b 37 15 bd b5 07 24 bd
       0.06769233 -0.002411937 -0.036429506 -0.040046412
000050 0a fe 71 bd d0 41 a1 bd c1 83 c1 3c 37 b1 c1 3d
       -0.05908016 -0.07873881 0.023622395 0.09457629
000060 ba 0f 6f 3c a3 4d 6a 3c 09 0a 1d bd dc 5b 1f bd
       0.014591152 0.014300737 -0.03833965 -0.038905963
000070 58 15 04 bd 7c 08 10 3d 15 e2 8f 3c e8 f2 20 bd
       -0.032246917 0.03516434 0.017563859 -0.039294153
000080 b7 7f 9b 3c 1e db 8e bc 20 b3 d5 bb 76 7e 95 3d
       0.018981798 -0.017438468 -0.0065215975 0.07299511
000090 36 3e 2d bd f1 fc c2 3d f7 0a 65 bd 47 2b c0 3d
       -0.042295657 0.09520901 -0.05591866 0.093832545
0000a0 4b c3 1c 3d 76 44 2b 3d 5f 4c c0 bc 50 07 de bc
       0.038272183 0.041813336 -0.023473917 -0.027103096
0000b0 d9 1e 98 bd ca b8 c8 bd 8e 0d 93 3d 0d 6a ca 3d
       -0.07427759 -0.09800871 0.0718032 0.09883509
0000c0 18 42 f0 3c 8b a9 24 bd fe cd b6 3c 87 46 44 bb
       0.029328391 -0.04020075 0.022315022 -0.0029949264
0000d0 35 e0 b3 bd 91 fe a4 bd 34 76 10 3d fc 01 f3 bc
       -0.087829985 -0.08056367 0.035268977 -0.029664032
0000e0 f1 cf c6 bc 7c 20 7a bd 35 e0 38 3d aa 56 51 bd
       -0.024269076 -0.061066136 0.045135695 -0.05110804
0000f0 60 08 07 bd bf 7a 5b 3d 7a 36 c9 3d 14 68 b9 3d
       -0.03296697 0.053583857 0.09824844 0.090530545

bn2.weight f4 [64]
000000 d3 4d 86 3f b9 48 85 3f 39 39 89 3f 15 bb 83 3f
       1.04925 1.0412818 1.0720588 1.0291468
000010 dc a5 85 3f af 25 86 3f 07 a5 87 3f 5a b0 86 3f
       1.0441241 1.048025 1.0597237 1.0522568
000020 00 33 87 3f ab 2e 86 3f 62 ec 86 3f d3 75 86 3f
       1.0562439 1.0482992 1.0540888 1.0504707
000030 48 57 86 3f 26 81 85 3f 59 b6 87 3f ed 80 88 3f
       1.0495386 1.0430038 1.0602523 1.0664345
000040 ee 10 86 3f a9 d6 83 3f 7d 63 85 3f 54 b4 83 3f
       1.0473917 1.0299884 1.0420986 1.0289407
000050 d2 20 87 3f 89 00 87 3f fb 06 8a 3f e0 08 85 3f
       1.0556891 1.0547038 1.078338 1.0393333
000060 e8 68 87 3f fd 5f 86 3f f1 30 87 3f 08 51 88 3f
       1.057889 1.0498043 1.0561811 1.0649729
000070 9a dd 87 3f 09 aa 85 3f fe d1 84 3f 21 67 87 3f
       1.0614502 1.0442516 1.0376585 1.0578347
000080 33 38 85 3f 84 30 86 3f 13 30 89 3f 72 57 89 3f
       1.0407776 1.0483556 1.0717796 1.0729811
000090 59 ab 84 3f 6a 6b 85 3f 2a 9b 87 3f c5 53 85 3f
       1.0364791 1.0423405 1.0594227 1.041619
0000a0 dc b4 85 3f b5 3b 87 3f 20 14 88 3f 63 08 8b 3f
       1.0445819 1.0565096 1.0631142 1.0861934
0000b0 73 ae 84 3f 54 e0 85 3f 6b ab 85 3f d4 f5 83 3f
       1.0365738 1.0459085 1.0442938 1.0309396
0000c0 bf 48 85 3f 5d 43 80 3f ae 02 87 3f 45 7e 87 3f
       1.0412825 1.0020558 1.0547693 1.0585409
0000d0 54 5b 85 3f c7 2d 88 3f dc fa 86 3f 68 e1 84 3f
       1.0418496 1.063897 1.0545306 1.0381289
0000e0 a5 9e 85 3f b8 d9 82 3f 11 65 84 3f 61 b0 86 3f
       1.043904 1.0222692 1.0343343 1.0522577
0000f0 37 7f 85 3f eb 52 83 3f 3c 2d 89 3f cc 78 88 3f
       1.0429448 1.025968 1.071693 1.0661864

bn2.bias f4 [64]
000000 62 e8 3a 3d 0f e0 ef 3c a1 d9 87 3c 51 0a 1b 3d
       0.045631774 0.029281644 0.016583266 0.037851635
000010 1b a0 b1 3c e0 dd 34 3d 6c 70 40 3d 12 05 79 3d
       0.02168279 0.04415691 0.046982214 0.06079585
000020 b2 80 3a 3d 7c bb 69 3c e7 01 4a 3d b2 16 0f 3d
       0.04553289 0.014265891 0.04931822 0.034933753
000030 24 31 2e 3d 20 ac d1 3c 45 88 7e 3d 24 ec 2e 3d
       0.042527333 0.02559477 0.062141676 0.04270567
000040 1a a2 74 3c 7f a0 96 3c 29 c2 99 3c 9e 1e b7 3c
       0.014931226 0.018387077 0.01876934 0.022353467
000050 21 e6 0d 3d 16 53 26 3d 6f 66 f5 3c d0 21 5c 3d
       0.034643296 0.04060658 0.02995607 0.053743184
000060 3b 88 30 3d 30 c4 25 3d d9 87 46 3d ba 6b 73 3d
       0.04309867 0.040470302 0.0484694 0.059428908
000070 4b 0e 58 3d c0 1b 2d 3d 9d 36 e2 3c b8 52 25 3d
       0.052748006 0.042262793 0.027613932 0.04036209
000080 4f c4 16 3d a9 64 0e 3d 45 b5 6e 3d 50 be 30 3d
       0.03680831 0.034763966 0.05827834 0.043150246
000090 93 e7 09 3a ab d8 f4 3c 41 19 26 3d a6 68 f2 3c
       0.00052606425 0.029888472 0.040551428 0.029590916
0000a0 7b aa 17 3d 23 6a 36 3d 57 e8 de 3c f9 8a 00 3d
       0.037027817 0.044534814 0.027210398 0.031382535
0000b0 aa ac d1 3c da 61 26 3d bc c5 ff 3c 21 79 6b 3c
       0.025595028 0.040620662 0.031222217 0.014372141
0000c0 49 39 76 3d 6e 70 fc 3b c7 07 63 3d 14 ad 6e 3d
       0.060113225 0.0077038324 0.05542734 0.05827053
0000d0 25 73 56 3d f2 df 0c 3d c1 f7 57 3d 8b 09 b9 3c
       0.052355904 0.03439326 0.05272651 0.022587558
0000e0 cf 81 dd 3c 7d 6a fa 3c 58 37 47 3d 16 14 71 3d
       0.027039437 0.030568356 0.048636764 0.058857046
0000f0 50 41 40 3d 90 90 3e 3d a2 96 70 3d a7 97 3a 3d
       0.046937287 0.046524584 0.058737405 0.045554783

bn2.running_mean f4 [64]
000000 0d d3 9e be 62 f6 2d be 0c b4 aa be d8 2f 47 3e
       -0.31020394 -0.16988519 -0.3334049 0.19451845
000010 68 57 c1 be ae 77 12 bf a9 9d 33 be 46 24 03 bf
       -0.37761998 -0.57213867 -0.17540611 -0.51227224
000020 99 2e f0 be 50 23 d4 be e7 8b 13 bf ad 80 89 be
       -0.4691055 -0.4143319 -0.5763535 -0.26855984
000030 9d ee 71 be e3 01 9d be ac 0d 01 be 39 a8 18 bd
       -0.2362618 -0.30665502 -0.12602872 -0.037269805
000040 75 66 8b 3e 59 c0 ce be c1 66 21 3e e4 5b 26 bd
       0.27226606 -0.40381125 0.15761854 -0.040614977
000050 cb c5 09 bf ea dd 09 bf a7 dc 0f bf 36 67 45 bd
       -0.53817433 -0.5385424 -0.56196064 -0.048194133
000060 59 e3 94 be d1 75 5b bd 3d 1c e7 bc 43 49 22 be
       -0.29079702 -0.053579155 -0.028211707 -0.1584826
000070 88 da 83 be ef 62 1b bf da 14 99 3e 9f c6 2d bf
       -0.25752664 -0.60697836 0.2989872 -0.67881197
000080 ac b6 ed 3d 37 d4 1b 3e 50 ea 29 be a2 0b a6 be
       0.116071075 0.15217672 -0.1659329 -0.3243075
000090 62 2c c0 bd 5f 01 d4 be 9c e1 bc be c9 8b 9f 3e
       -0.09383465 -0.41407296 -0.36890876 0.31161335
0000a0 a9 42 42 3d 64 a7 12 3e 2d 5d 8b 3e 2e a5 91 3d
       0.047426853 0.14321667 0.27219525 0.07111584
0000b0 a9 57 09 bf ca 2b ad be fc c9 01 3e 2e 9c 09 3e
       -0.53649384 -0.3382247 0.12674707 0.13438484
0000c0 8e 67 b6 be 0d d3 87 be f0 49 48 bf 5b 71 01 bf
       -0.3562588 -0.26528206 -0.7823782 -0.5056359
0000d0 7d e9 85 be 4b e1 c4 3a 85 57 31 3e c0 b9 b5 3d
       -0.261547 0.0015020756 0.17318542 0.088733196
0000e0 c3 54 8f 3d 45 52 b1 bd bb 1b be be 3e 72 ed be
       0.06998589 -0.0865827 -0.37130532 -0.46376222
0000f0 60 d4 80 bd e7 d7 ab bd ef b2 f1 bd e0 7d af 3b
       -0.06290507 -0.083907895 -0.11801707 0.0053555816

bn2.running_var f4 [64]
000000 82 bb de 3d 7b 83 e5 3d bd ea b3 3e d2 6f 6e 3e
       0.10875608 0.112067185 0.3514003 0.23284844
000010 5f 9a 10 3e 74 00 ef 3e a5 44 2d 3e 59 24 45 3e
       0.14121388 0.46680033 0.16920717 0.19252147
000020 bb 12 d6 3d 71 4a 43 3e f7 7b 46 3e 82 6c b7 3e
       0.10452791 0.19071366 0.19383226 0.35824972
000030 3b cb ba 3e 86 d3 17 3f ea 8e 1a 3e 80 11 12 3e
       0.36483178 0.59307134 0.1509358 0.14264488
000040 ea b7 86 3e fb 3e b6 3e 54 fe 5e 3e 90 f7 45 3e
       0.2631219 0.35594925 0.21776706 0.19332719
000050 47 51 bd 3e 0a e0 db 3e bd 52 97 3e 37 63 ba 3e
       0.36976072 0.42944366 0.29555312 0.3640382
000060 94 56 fd 3e 5b 15 08 3f 43 67 49 3e 09 ea 88 3e
       0.49480116 0.53157586 0.19668297 0.26741055
000070 0b b1 1f 3e ad 66 2e 3f f5 c8 5b 3e 64 88 5a 3e
       0.1559488 0.6812542 0.21463378 0.21341091
000080 8b dc 08 3f d1 ae ad 3d ba e1 45 3e 40 f9 ae 3e
       0.5346152 0.08480609 0.19324389 0.34174538
000090 0b 8b 5d 3e 01 cc 53 3f 00 8a a0 3e dd 8b 0d 3e
       0.21635072 0.8273316 0.31355286 0.13822885
0000a0 2a 88 15 3e 59 2f 1a 3e 8b e5 e0 3d e4 df a4 3d
       0.14602724 0.15057124 0.10981282 0.08050516
0000b0 86 2b 25 3f 84 44 47 3e 50 3d 23 3e 57 95 64 3e
       0.64519536 0.1945973 0.15941358 0.22322594
0000c0 b7 28 42 3e 6a 33 e6 3e 29 61 c4 3e 63 1a 9c 3e
       0.18960844 0.449611 0.38355377 0.3048888
0000d0 e8 ce ad 3e 92 e9 f8 3d e9 b1 b9 3e cf 1d 05 3e
       0.3394692 0.12153925 0.36268547 0.12999652
0000e0 2c 44 92 3e 0f 7e 8f 3e ff 16 ed 3e 36 5c 7f 3e
       0.28567636 0.28025863 0.46306607 0.2493752
0000f0 0a 8b a1 3e 3a f1 a7 3e 1d db f3 3d 3c 31 17 3e
       0.3155139 0.3280123 0.11907027 0.14764875

t_conv1.weight f4 [64, 128, 2]
000000 24 10 8b 3d 0b d4 43 3d 60 05 98 3d d9 bd c8 3d
       0.06790188 0.04780964 0.074229 0.098018356
000010 02 ed cb 39 9e 6a 47 3d 25 bd c2 3c a8 28 65 3d
       0.00038895762 0.048685662 0.023771832 0.055946976
000020 3f 38 84 3d 9f 97 08 3d 21 2a d1 bb 6b fc c8 bc
       0.064560406 0.033347722 -0.006383196 -0.024534425
000030 f9 27 83 bd 04 8d 0e 3c 55 08 79 3b 0b 0d 26 3c
       -0.064041086 0.008700613 0.003799935 0.010134946
000040 8d 34 de bc 36 b3 28 bd 2d 2c 23 3d 5b 0c c4 3c
       -0.027124668 -0.041186534 0.03983705 0.023931673
000050 db 7e 19 bd ca 33 a6 3c 20 dc f7 bc 61 93 08 bd
       -0.037474494 0.020288367 -0.030256331 -0.033343676
000060 2c 10 10 bd 47 a8 22 bd 95 52 99 bd 28 e3 47 bd
       -0.035171673 -0.039711263 -0.074864544 -0.048800617
000070 b0 47 0a 3c b5 ec 7b 3c 5a 53 a1 3d 4b 0c 72 3c
       0.008439943 0.01537626 0.07877226 0.014773439
000080 7b ee ad 3d 3d 51 5c 3d a2 de 29 bc 8c 0e f3 bc
       0.08492752 0.053788412 -0.010368021 -0.029670022
000090 fd 9c c7 bc ee 7b 9e bc 99 f3 f5 3c f2 8c bc 3c
       -0.02436685 -0.019346204 0.030023383 0.023016427
0000a0 3c 83 2e bd ce b3 b2 bc 9e 74 7a bd 2e af b4 3d
       -0.042605624 -0.021814253 -0.06114637 0.088224754
0000b0 9d 4d 74 3d 2d 4c 67 bd 13 6b c7 3d cc 17 95 ba
       0.05964433 -0.05646913 0.0973722 -0.001137489
0000c0 86 24 56 3d db 1e 41 3c 82 5e 68 3d e9 c0 77 3d
       0.052280925 0.011787142 0.056730755 0.060486708
0000d0 e3 b6 74 3c 76 b2 30 3b e0 76 7c bc d0 3c 1e bc
       0.014936182 0.002696184 -0.015409201 -0.0096580535
0000e0 58 b2 85 3d ef 17 1f bd e1 53 0a 3d d4 ed e2 3c
       0.06528157 -0.038841184 0.0337714 0.027701296
0000f0 2b 96 3d bd d8 db 26 bd 6c 50 1e bb e8 25 1f 3d
       -0.04628579 -0.040737003 -0.0024156822 0.03885451
000100 67 e3 98 3c 19 57 4f bd 7d 3b 6a 3d 45 cb f0 bc
       0.018663121 -0.050620172 0.05718564 -0.029393801
000110 d9 74 e7 3b 2d 6b 60 3d d8 9c b0 3d cd f3 64 3c
       0.00706349 0.05478971 0.086236656 0.013974142
000120 1a 58 66 3b d1 fc 0a 3d c9 fd 13 bd 1e 49 52 bd
       0.0035147727 0.03393251 -0.0361307 -0.05133926
000130 a3 f5 a3 3d 62 40 09 bd 50 18 98 3c 71 76 49 bd
       0.08005836 -0.033508666 0.01856628 -0.04918522
000140 af 20 07 3c 53 e8 1b bd 7a 70 c4 bc bc bd f2 3c
       0.0082475385 -0.03806336 -0.023979414 0.029631488
000150 4f e3 13 bd b6 3e 29 3d de 84 04 bd 9c 84 49 bd
       -0.03610545 0.04131957 -0.032353275 -0.04919873
000160 d1 2d b3 3d 3e 9c 87 3d a7 bd 51 3d 69 83 67 bb
       0.08748973 0.06621598 0.051206257 -0.003532613
000170 c3 fb ea 3c 39 e3 dd 3b e8 39 8b bd 3e 41 91 3d
       0.028684502 0.006771472 -0.06798154 0.07092522
000180 9f 84 19 bd f2 ed e1 3c fd 48 bb bc c0 84 49 3d
       -0.037479993 0.027579281 -0.022861952 0.049198866
000190 6e e1 dc 3d 3c 47 79 bc cb 6f b2 bc 89 7d 5a bd
       0.10785185 -0.0152147375 -0.021781823 -0.053342376
0001a0 ee 46 8c 3d 4d af b1 3d 58 92 9d 3c 8f 6c 75 3d
       0.06849466 0.08676014 0.019234821 0.059917983
0001b0 e2 83 c4 3c 38 d1 b0 bc cd 7c e4 3c 55 13 7e bd
       0.023988668 -0.021584138 0.02789154 -0.062030155
0001c0 45 9a 83 bc 59 bc 21 3c d7 5b 85 bc c9 33 32 3c
       -0.016064772 0.009871566 -0.016279144 0.010876604
0001d0 4c 5f 72 3d 47 be 48 bd cd 38 87 3d fc ab 51 3c
       0.059172913 -0.049009588 0.06602631 0.012797352
0001e0 28 40 58 3d 38 d4 ae bd fa 80 ba 3d 88 ff 00 3c
       0.05279556 -0.08536571 0.091066316 0.007873423
0001f0 bc ca 5c 3d 11 02 36 bd b3 19 8b bc 87 9a 05 bc
       0.05390428 -0.044435564 -0.016980028 -0.008154518
000200 e6 38 f9 3c c6 95 b6 3c 7a d4 a4 3d 6f b3 6a 3c
       0.03042264 0.022288214 0.08048339 0.014325007
000210 d3 c4 45 bd 3b 70 08 bc d9 1d a6 3d b8 86 3c 3d
       -0.04828341 -0.008327539 0.08111162 0.046026915
000220 69 9f 36 bd 4e 6e 6e 3d ae f7 94 3d 9d 32 bc 3c
       -0.04458562 0.058210663 0.07273804 0.022973353
000230 6f 68 9f 3d a1 b1 d6 3c 0f 1b 94 bb 2a f2 7e bc
       0.07783591 0.026207747 -0.004519827 -0.015560666
000240 26 16 0d 3d 4d f7 d2 3d a2 fb 07 3d c7 3a be bd
       0.03444495 0.10301075 0.03319896 -0.09288555
000250 6a 87 fa 39 85 34 37 3d 26 0a 73 bd 18 6a 3e bc
       0.00047784607 0.04472782 -0.05933585 -0.011621974
000260 ea 9b 92 3d eb f9 8a 3d bf 36 b4 3d d1 fb 8a 3c
       0.071586445 0.06785949 0.087995045 0.016965779
000270 ae 77 82 bc 5a af 95 3d e9 0f 28 3d 71 91 bc 3d
       -0.015926208 0.07308836 0.041030798 0.09207428
000280 5d 09 00 3d 35 0c 9e bc 27 e4 5c 3d 0c df 27 3d
       0.03125893 -0.01929293 0.05392852 0.0409842
000290 77 07 85 bc ce 59 bc 3d 59 aa 31 3d f8 ed 1e bb
       -0.016238911 0.091968164 0.043375347 -0.0024250727
0002a0 0a 99 6c bd d3 5b 43 3d b4 5f 9b bd 07 7e 80 3d
       -0.057763137 0.047694992 -0.07586613 0.06274038
0002b0 1f ac 71 3c 37 67 22 3c 16 ca c2 3c ec ac ac 3d
       0.0147505095 0.009912304 0.023778003 0.0843142
0002c0 65 ba 5e 3b e8 b6 4e bd e0 ed 2f 3c 76 c7 1d bd
       0.0033985612 -0.0504674 0.010737866 -0.0385203
0002d0 8d aa 99 3c 64 fe 6d 3d 1e 75 d8 bc 5e 26 90 3d
       0.018758083 0.058103934 -0.026423033 0.07038568
0002e0 3a a2 a3 bc 24 2d 9d 3d 63 6a 91 3d bf 06 21 bb
       -0.019974817 0.076746255 0.0710037 -0.0024570671
0002f0 07 3b 69 3b 51 36 5d 3d 53 be d2 3b d7 23 8a bc
       0.0035588162 0.05400688 0.00643138 -0.016862793
000300 e1 7f d0 3d 9d 34 e0 3c be aa 84 3d 67 73 a8 3b
       0.10180641 0.027368838 0.06477879 0.00514071
000310 c8 6f 1c 3c 67 2e 8b 3c e8 62 16 3d 0e b3 8c 3d
       0.009548135 0.0169899 0.036715418 0.068700895
000320 d1 79 b6 3d 1c cc db 3c 37 36 25 bd fb 6e 99 3d
       0.089099534 0.026830725 -0.040334906 0.07491871
000330 4e 79 b4 3d ae 2a 81 3d 88 b3 3b 3d 52 2f a5 bb
       0.088121995 0.06306969 0.04582551 -0.0050410414
000340 8c ba a4 bc ec d4 b1 3c fd 36 8d ba 5b bd 12 3d
       -0.020108484 0.021707974 -0.0010773834 0.035825115
000350 bf df 99 bd 17 04 fb bc 94 91 2d bd f8 b0 f0 3c
       -0.07513379 -0.030641599 -0.042375162 0.02938126
000360 68 b4 88 3d 64 bc 8c bc 84 51 f7 bc 95 29 12 3c
       0.06675035 -0.017179675 -0.030190237 0.008921047
000370 99 01 06 3d 0b 89 5b bc 29 9f 3b 3d 29 4c 44 bc
       0.032716367 -0.013399373 0.045806084 -0.011981049
000380 2d 66 e2 3c fc 0b e6 3b 08 68 80 3d b8 8a c3 bd
       0.027636612 0.0070204716 0.062698424 -0.09547943
000390 90 03 5e 3d ec 78 1b 3b bc ea 56 3c 41 5f 5f 3d
       0.054202616 0.0023723198 0.0131174885 0.0545342
0003a0 26 76 12 3d 0a 1e de 3c e1 42 d9 3c 6a 4a 8a 3d
       0.035757206 0.027113933 0.026521148 0.067524746
0003b0 98 7b 89 ba 96 ea ad 3d 9a 22 89 b9 40 1f 93 3d
       -0.0010489104 0.08492009 -0.00026156456 0.07183695
0003c0 ed 2a a7 3c 8b e1 2e 3d 3e 17 15 bc 86 00 66 ba
       0.02040621 0.042695563 -0.00909978 -0.0008773882
0003d0 b9 0f 16 bd 60 cc 34 3d 8d ca e4 bb 0e 40 62 3c
       -0.036636088 0.04414022 -0.0069821537 0.013809217
0003e0 a0 eb 6e 3d 18 03 45 3d 3a 1d 8b 3a 01 f1 cd bc
       0.05833018 0.048098654 0.0010613569 -0.025139334
0003f0 88 74 48 3d a1 11 fa bc 67 8e 15 bd 29 21 18 bc
       0.048939258 -0.030525984 -0.03651276 -0.00928525

t_conv1.bias f4 [128]
000000 3c f8 a5 3d 12 e4 e1 3b c5 cd 3f 3d 39 8f 1a 3c
       0.081039876 0.006893643 0.046827096 0.009433561
000010 d3 51 d9 bc 31 cb 42 bc 0b 9e 59 bc a0 e3 31 3d
       -0.026528275 -0.011889265 -0.013282309 0.04342997
000020 91 96 ee 3c 12 04 ad 3d eb 81 1e 3d 5d df 50 3c
       0.02912453 0.08448042 0.03869812 0.012748566
000030 91 3c d7 bb 85 95 75 3d 16 2a c6 bc 7d 86 b0 3d
       -0.0065684994 0.059957046 -0.02418999 0.086194016
000040 8d 27 0a 3d 02 a6 40 3d 64 90 81 3d 7d 93 14 bd
       0.033729125 0.047033317 0.063263685 -0.03627347
000050 7f 7a 8f 3d 25 e8 8d 3d b3 27 a1 3d b1 d5 46 3d
       0.07005786 0.06929044 0.078689 0.048543636
000060 d3 fc 85 bc 42 9d 8f bc 6e bf 44 3d 03 7c 0b 3d
       -0.016355908 -0.017531041 0.048034124 0.034053814
000070 46 c4 79 3d 1b 96 a1 3d 41 8a 23 bc 08 d1 80 3d
       0.060978197 0.078899585 -0.009981693 0.062898695
000080 ef 57 97 3c 74 19 16 bd d7 79 94 3c 3e a6 b1 bb
       0.018474547 -0.036645368 0.018124504 -0.005421429
000090 65 cf b8 3a 50 22 88 bc 84 04 52 bd 9f 0b 0f bd
       0.0014099894 -0.016617924 -0.051273838 -0.034923192
0000a0 f1 7f 91 3d a2 91 0e bd 76 10 dd 3b b1 87 82 bc
       0.07104481 -0.034806855 0.006746347 -0.015933843
0000b0 b1 cb a6 3d a9 1f 2c 3d e1 c1 c3 3a 97 87 9c bc
       0.0814432 0.04202238 0.00149351 -0.019107623
0000c0 75 21 24 bc 2f cf 02 3c fb fe 13 bb 64 b0 20 bc
       -0.010017742 0.007983967 -0.00225824 -0.00980768
0000d0 c1 54 cd ba d6 31 1c bc 03 83 90 bc 3d 20 2b 3d
       -0.0015665517 -0.009533366 -0.017640596 0.04177879
0000e0 06 2c 85 3c b6 91 25 bd 63 a3 9a bc 35 22 cc bb
       0.016256344 -0.040422164 -0.018876737 -0.0062296637
0000f0 12 07 1d 3d 25 b6 ef bc 0b ec 2c 3c bc 7b 75 3d
       0.03833682 -0.029261658 0.010554324 0.059932455
000100 2b be 1c bd 63 f3 40 3d 6e d3 63 3d e3 87 9c 3d
       -0.038267296 0.04710711 0.055621557 0.07643106
000110 54 e8 5f 3d e3 50 8f 3c 0e 20 c9 3d 93 88 4b bc
       0.054664925 0.017494624 0.09820567 -0.012422699
000120 20 40 0c 3d 87 76 e2 3c 54 36 e8 bc 25 9d 3b 3d
       0.034240842 0.027644409 -0.028346218 0.04580416
000130 18 6b 4c 3d de f1 39 3d 06 3b 4f 3d 13 75 31 bd
       0.04990682 0.04539668 0.0505934 -0.04332454
000140 af 0e 9c 3c a9 9b c4 3c 22 eb 6f 3d 9d 9e 6e 3d
       0.01904997 0.024000006 0.05857385 0.058256734
000150 65 bd 80 3c 53 94 45 3d ef 35 a7 3d bd 2f 42 3d
       0.01571531 0.048237156 0.08164584 0.047408808
000160 5c cb ba 3d 92 32 9e 3d 1d 71 aa bc bf 37 90 bc
       0.09120819 0.07724489 -0.02080589 -0.017604707
000170 f3 4a d5 bc 40 82 b9 bc ab 8a 4c 3d bf 14 0e 3d
       -0.026036715 -0.022645116 0.04993693 0.034687754
000180 d8 05 1c 3d 07 04 db 3c 68 d8 07 bd 24 71 03 bd
       0.03809151 0.026735319 -0.033165365 -0.03209032
000190 88 07 3d 3d f6 3f eb 3c 42 43 47 3d f8 22 e0 3c
       0.04614976 0.028717022 0.048648126 0.027360424
0001a0 ee cd 42 3d ee 18 32 3d 66 bf 76 bb c1 69 96 3d
       0.04755967 0.043480806 -0.0037650703 0.0734439
0001b0 91 98 93 3c 82 72 a1 3c 1c 29 db bb 0c 40 71 3d
       0.018017085 0.019707922 -0.00668825 0.05889897
0001c0 01 45 b4 3d a8 80 1e 3d dd c5 5b bc 71 71 5f bd
       0.08802224 0.038696915 -0.0134138735 -0.054551546
0001d0 a9 1e 70 bc 59 d9 da 3c 10 71 a5 3d 20 b8 77 bc
       -0.014655747 0.026714968 0.080782056 -0.015119582
0001e0 99 10 7b bc 16 7d 80 3b 3b 24 0f 3d 33 f5 4a 3d
       -0.015323781 0.0039211614 0.03494666 0.049550246
0001f0 6f 80 5a bc 52 9c 64 bc 00 a5 11 3d 04 7c 8c 3d
       -0.013336285 -0.013953285 0.035557747 0.068595916

t_conv2.weight f4 [128, 64, 2]
000000 1e 2e d5 3d 2e 02 a7 bc 21 57 06 3d ee c8 05 bd
       0.10409187 -0.020386782 0.032797936 -0.032662325
000010 33 ff 33 3c 4f d6 ee 3c 5e 9e 0c 3d 95 94 cf bd
       0.010986137 0.029154925 0.03433072 -0.10135762
000020 ec 7a 0c 3e 10 3a 90 3d 3c f5 bc 3c ad e2 f6 3d
       0.13718766 0.070423245 0.023066156 0.12054954
000030 c7 ea 0f bd ca 4c 93 3c 06 03 48 3d 1f ce e3 3d
       -0.03513601 0.017980952 0.04883101 0.11123299
000040 ad c1 9d 3d 8a 18 81 3c 24 e0 08 3d d5 61 ed 3c
       0.07702956 0.015758771 0.033416882 0.028977314
000050 2b eb ff bc e3 53 19 bd 36 2c 05 3e 14 d3 31 bd
       -0.031240067 -0.037433516 0.13005146 -0.04341419
000060 25 61 a7 3d 4b ce d7 bd db 71 c0 bc ff be bd bc
       0.08172826 -0.10537394 -0.02349179 -0.023162363
000070 02 a7 42 3d 30 46 94 3b ba e2 a0 bd 19 7f 1e bd
       0.047522552 0.0045249686 -0.07855745 -0.03869543
000080 ba 8c 91 3d 46 dc 06 3e 74 d5 c5 bc d9 1b 52 3d
       0.071069196 0.13169965 -0.024149634 0.05129609
000090 7c 49 d4 bc e1 1f a3 3d 98 db 51 3c 49 85 d1 bd
       -0.025913946 0.07965065 0.012808703 -0.102305
0000a0 a5 d1 c3 3d c8 5c ea 3d 65 ec f3 3d 2a 85 89 bc
       0.09561471 0.11443478 0.11910323 -0.01678713
0000b0 0a 09 3b bd a7 e8 74 3d 44 01 6c bd 20 0c e9 bd
       -0.045662917 0.059792187 -0.057618394 -0.11379266
0000c0 96 ed 1e bd 54 22 a7 3b d8 29 6f 3b 3f 43 42 3d
       -0.0388008 0.005100528 0.0036493447 0.047427412
0000d0 e6 70 fe 3b 2b 94 a3 3c 34 b7 c3 bb 98 52 80 bd
       0.0077649234 0.019968113 -0.0059727672 -0.062657535
0000e0 33 ee 8d bd bd f6 8d 3c bf 41 a4 bd a1 57 1d bd
       -0.069301985 0.017329568 -0.080203526 -0.038413648
0000f0 fb 9b db bc f4 cd 3d 3d 76 56 af 3d fb a4 98 bd
       -0.026807776 0.04633899 0.08561413 -0.074533425
000100 a2 1e bb 3c 45 23 a6 bd c9 d7 65 3d 2a b1 c0 39
       0.022841755 -0.08112196 0.056113992 0.0003675309
000110 fc a1 b1 3d 09 50 23 3d c6 04 4f 3d d4 9d 0e bd
       0.08673474 0.03987125 0.05054166 -0.034818485
000120 e3 6f 5a 3d a0 56 67 3b 81 bc a4 3d d6 e7 e4 3c
       0.05332936 0.0035299435 0.08043767 0.02794258
000130 0d a1 14 3d f6 28 1c 3d 91 55 9b bd a5 4f 2c 3d
       0.036286402 0.038125 -0.0758468 0.042068142
000140 5e 88 fb bd ac 28 28 bd 1b 89 37 bc 02 7f ea 3d
       -0.12281869 -0.041054413 -0.011202122 0.11450006
000150 4f 77 02 bd b5 2d 9a bc d2 fd 18 3d 12 7b 89 bc
       -0.031852063 -0.018820623 0.037351437 -0.016782317
000160 27 ec c4 3b cb a7 92 3b a5 eb 32 3d 1d 1a bf 3d
       0.006009597 0.004475569 0.04368176 0.093311526
000170 0e d8 44 3d 12 ce ec 3c 88 44 03 bc 81 b2 47 3c
       0.04805761 0.028906856 -0.008011945 0.012188555
000180 eb b5 27 3d df a3 7d 3d 73 36 cb 3d 45 2d dd 3b
       0.040944975 0.061923858 0.09922495 0.0067497813
000190 53 be 8d 3d e8 60 bc bd d1 dd 8c 3d da 08 89 bd
       0.06921067 -0.09198171 0.068782456 -0.066911414
0001a0 27 36 9e bc 3c 0e c1 3d ec a3 9c 3d 1f 10 c2 bc
       -0.019312931 0.09426543 0.07648453 -0.023689328
0001b0 a4 83 3c 3d 1b 74 4e bd 41 6f a1 bd 10 73 f4 3c
       0.04602398 -0.050403696 -0.07882548 0.029840022
0001c0 92 dc 29 bd 1f 61 10 3d 7a 42 38 3c d5 f2 af 3c
       -0.041470118 0.035248872 0.011246318 0.021478096
0001d0 9f 1a 84 3d b1 31 70 bd 90 05 99 3d e9 3c b1 3d
       0.0645039 -0.05864114 0.07471764 0.08654196
0001e0 ae 37 0b bb f6 28 3c 3d 1b 1b 23 bd ea 4a fa 3d
       -0.0021242904 0.0459375 -0.03982077 0.1222132
0001f0 0e ee 91 3d 7f 84 ef 3d 35 12 6d 3d bc 45 98 3c
       0.071254835 0.116951935 0.05787869 0.01858794
000200 14 c2 e6 3d 58 32 18 bc 55 ef 48 3d 2c c6 bb bd
       0.11267486 -0.009289347 0.04905637 -0.09168658
000210 dc 03 07 3d 8c 38 c7 bc a0 4b 51 bc 18 e5 e9 3c
       0.032962665 -0.024318956 -0.012774378 0.028551623
000220 a7 00 29 3d 70 7e 9a 3c ca cd 8e bc 25 44 fa 3d
       0.041260388 0.018859118 -0.017432112 0.12220029
000230 cf 8e 63 3d 86 73 fa 3d 8b b4 72 bd a0 63 0c bd
       0.055556115 0.122290656 -0.05925421 -0.034274697
000240 7e e9 34 3d f3 7e e7 bc 2c c0 e9 bd 6d 35 61 3d
       0.044167988 -0.028258776 -0.11413607 0.05498259
000250 60 48 2f bc 33 3e 8f bd 63 b9 d1 3d 63 f1 a8 3c
       -0.010698408 -0.069942854 0.10240438 0.020622915
000260 23 81 be 3d 30 8a 40 bd 34 45 04 3c a0 7c ff 3d
       0.093019746 -0.047006786 0.00807314 0.12474942
000270 75 8f a0 bd f2 18 88 3c 45 41 ac bd a3 7b 5a bd
       -0.07839862 0.016613457 -0.08410887 -0.053340565
000280 ac b4 6b bd 37 5f 02 3e 84 0a b3 bd ad c0 cd 3d
       -0.05754535 0.12731634 -0.0874224 0.100465156
000290 48 06 ac bd 9a 4b f4 3d e8 cb b3 bd e8 fe 9e bd
       -0.083996356 0.11928482 -0.087791264 -0.07763463
0002a0 a0 aa dc 3d cc d3 a4 3d 77 6e cd 3d b9 45 94 bd
       0.10774732 0.080482095 0.10030835 -0.07239861
0002b0 33 fc 18 3d e1 1a c2 3d 06 da 0d bd ae 2b 2f bd
       0.03734989 0.09477783 -0.03463175 -0.042766266
0002c0 24 18 85 3c a4 43 ba bc 0c 64 43 3c 4f b7 7b 3d
       0.016246863 -0.022737332 0.0119257085 0.061454114
0002d0 cd eb d5 bc 26 49 7b bc 1d 85 a7 3d 68 1b be 3d
       -0.026113415 -0.015337264 0.08179686 0.09282571
0002e0 9c 5e d8 bd ae f8 34 3d 66 3b d7 bd 08 fd 81 3d
       -0.1056492 0.044182472 -0.10509376 0.0634709
0002f0 b9 ce a4 3b 6d 65 63 bc 4e 70 ad 3d 7d fb 8b bd
       0.005029526 -0.013879162 0.08468686 -0.06835077
000300 3c 9d 41 3d ee b1 fb bc 4f 24 08 3d 82 8f c6 3d
       0.04726909 -0.030724492 0.03323775 0.09695341
000310 e5 15 e8 3c 3d 4e 8a 3d 4b 0f c0 3d d8 88 73 3c
       0.028330753 0.06753204 0.09377917 0.014864169
000320 3f 51 e4 bd cf 6c 65 bd 68 41 b5 3c 5c 2c 90 bd
       -0.11148309 -0.05601197 0.022125915 -0.07039711
000330 a2 31 08 bd 95 ba 80 3d da df ae 3c 06 39 59 3d
       -0.03325046 0.06285588 0.021346975 0.053032897
000340 0e 27 c2 bd 6e 79 76 3c 33 7a 7a 3d 36 fc 52 bc
       -0.09480105 0.0150435995 0.061151695 -0.012877515
000350 76 1b 26 3d dd 4a 56 bc f0 f1 60 bc a9 b0 e1 3c
       0.040553533 -0.013079372 -0.013729557 0.027550058
000360 fb f5 76 3d 1d 94 1f 3d 94 41 9c bb d6 41 71 3d
       0.06029318 0.03895961 -0.0047685597 0.058900677
000370 7a 5c 47 3c d5 34 86 3c 7e 98 0a 3e 26 80 19 bc
       0.012168044 0.016382614 0.13534734 -0.009368932
000380 88 26 de bd d9 45 5e bd 41 4f 58 3d 10 11 f3 3d
       -0.10847193 -0.05426583 0.052809957 0.11868489
000390 a5 0d a8 bd b0 aa 06 bd 39 7b 68 bc a0 0e 41 3d
       -0.082057275 -0.032877624 -0.014189535 0.047133088
0003a0 0b 26 fe bb 2e 02 08 3d 6e b3 36 bd 63 67 88 bd
       -0.007756 0.033205204 -0.04460471 -0.066603445
0003b0 c6 64 c0 3c c5 98 12 3c 9b b1 b4 bd fe bf e1 bb
       0.023485553 0.008947556 -0.08822938 -0.0068893423
0003c0 f1 f4 67 bd 9e 4f cc bd 30 73 68 bc e5 b2 a4 3d
       -0.05663008 -0.09976123 -0.014187619 0.08041934
0003d0 9c ae 94 bc 2f e9 8b bd c4 5b f1 3d e1 44 02 bd
       -0.018149666 -0.068315856 0.11785081 -0.03180397
0003e0 c6 bb 80 bc 79 4d d6 bc 96 e3 87 bd b6 4e 02 3e
       -0.015714537 -0.026159989 -0.066352054 0.12725338
0003f0 be 3f a4 bd d7 ca 8d 3b 87 45 9b 3c 9d 0b ef bc
       -0.0801997 0.004327159 0.018954052 -0.029180342

t_conv2.bias f4 [64]
000000 f2 4f 4c bd da 54 11 bd d9 bb c5 3d 9b 34 9f bb
       -0.04988093 -0.03548131 0.0965497 -0.004858566
000010 87 56 88 bd 75 df ec bc 40 79 a8 3a c4 b3 93 3d
       -0.06657129 -0.028915146 0.0012853518 0.07212022
000020 43 62 e8 3c 95 99 c8 3d 5d a3 33 3b fa 87 e7 3d
       0.028367167 0.097949184 0.0027410605 0.11305232
000030 66 02 a2 3d 9a 8d 47 3d b6 87 74 bd 0d 39 d0 bc
       0.07910614 0.048719026 -0.059699737 -0.025417829
000040 04 7e 71 3d 98 fb c7 bb d4 55 0b bd b7 28 ac bc
       0.05895807 -0.0061029904 -0.0340174 -0.021015508
000050 f9 fa 23 bd e9 ef 54 bd 4f 9e 1c 3d a0 ba cf 3d
       -0.040034268 -0.05198661 0.038236912 0.10143018
000060 dc 5a 35 3d 5c e5 84 3d 9e c2 31 bd a3 72 69 3d
       0.044276103 0.06489059 -0.043398492 0.05699409
000070 55 d0 49 3b 3c 40 95 3d 84 46 b2 3c da 46 00 3d
       0.0030794342 0.07287642 0.02176214 0.03131757
000080 ef b2 2d bc bc 4a ae 3d d2 8d f5 3d f4 78 5f 3d
       -0.010601743 0.08510348 0.11989941 0.05455871
000090 6e 30 07 bd 65 0f d3 bc c4 6b 89 3d e0 a2 2d 3d
       -0.03300517 -0.025764177 0.06710008 0.042391658
0000a0 80 fa 59 bc cf fb 38 3d aa 37 d6 3d e5 91 76 bd
       -0.013304353 0.04516202 0.10459836 -0.06019773
0000b0 b0 e0 b9 3d 58 04 d4 3d 83 c4 69 bc da ad 4a bd
       0.09076059 0.10352391 -0.014268043 -0.049482204
0000c0 ed fc 1c 3d 3d 6a 11 bd 8c dc 98 3c 14 da 1a 3d
       0.038327146 -0.035501707 0.018659852 0.03780563
0000d0 4c aa d1 3d 75 4c 8b 3c 41 74 9c 3d 14 c3 00 bd
       0.1023756 0.017004231 0.07639361 -0.03143604
0000e0 c4 4a 91 3c cc 06 4b 3d 29 07 52 3d 7c 2b e4 3c
       0.017735846 0.04956703 0.05127636 0.027852766
0000f0 01 4b 92 3d 66 ce be 3c 74 3d 82 ba 9c 8f 2d 3d
       0.07143212 0.023291778 -0.0009936527 0.042373285

conv_out.weight f4 [1, 64, 3]
000000 2b dd 06 3d a2 a1 f2 bd 7c c3 10 bd c6 09 2c bd
       0.032925766 -0.11847235 -0.03534268 -0.04200151
000010 17 6d f4 bd dd 9e 59 bd 1b 47 ba 3c e3 f9 18 bc
       -0.1193487 -0.05313002 0.022738984 -0.009336921
000020 d1 e6 e8 3d 19 0d 07 3d 27 5d fe bd c2 1b 8f 3d
       0.1137215 0.032971475 -0.12420111 0.06987716
000030 c4 86 c0 3d 58 6e f6 bd 25 0d a0 bd 75 43 d5 bd
       0.094007045 -0.12032765 -0.07815007 -0.10413257
000040 d7 fb e0 3d 20 65 c6 bd aa e2 ce 3d 57 6e d3 3d
       0.10985535 -0.09687257 0.101018265 0.1032378
000050 68 99 27 bc dc 6c 93 bd 06 63 c9 bc 39 18 b5 bd
       -0.010229446 -0.07198498 -0.02458335 -0.08842511
000060 58 07 cb bd 15 56 d0 bd 9e 13 61 bc 75 02 ab 3c
       -0.0991351 -0.10172669 -0.013737587 0.020875195
000070 da e0 c4 3d f6 f2 53 bd 7f dd b0 bc 6c 0f 7a bd
       0.096131995 -0.051745377 -0.021589993 -0.061049864
000080 7d 85 ea 3d 17 cd 82 bc d1 c6 d8 bd 42 f3 e5 bd
       0.11451242 -0.015966935 -0.10584796 -0.11228038
000090 02 59 cd 3d b2 1b 6b 3c 3e 9a dd 3d 5e 1a d0 ba
       0.100267425 0.014349865 0.10820435 -0.0015876999
0000a0 49 79 16 3d 74 99 06 be 2a df 11 bd bb 59 74 3d
       0.03673676 -0.13144475 -0.035613216 0.059655886
0000b0 bf db 3a bd f6 2e c3 bd 8b 7b 35 3d 2c a1 60 3d
       -0.045619722 -0.095304415 0.044307273 0.054841205
0000c0 8a 1a e4 bd ec 39 a8 3d ad f2 fb bd e9 15 f7 bc
       -0.111378744 0.08214173 -0.12302146 -0.030161815
0000d0 38 ad f3 3d 90 b7 5e 3d 4d f6 49 3d cc 38 d5 3d
       0.11898273 0.054374278 0.049307156 0.10411224
0000e0 0e 57 ec bd 91 9c ae 3d 5f bb 00 bc 67 30 67 3d
       -0.11540042 0.085259564 -0.007857173 0.056442644
0000f0 f2 89 95 3d 39 da e9 3d 82 9c f5 bd 88 94 ed 3d
       0.073017016 0.11418576 -0.11992742 0.11600596
000100 6a 4c c1 bd 83 91 09 bd 9e 68 83 3d c8 79 c5 3d
       -0.09438403 -0.033586036 0.064164385 0.096423686
000110 7a 41 a3 3d ae 48 ce 3d b8 c3 b9 bc f6 b1 ce 3d
       0.07971473 0.10072456 -0.022676334 0.10092537
000120 20 97 6e bc d3 ad 71 3d ed c9 a5 3d 71 27 e5 3c
       -0.014562398 0.059003662 0.08095155 0.027972909
000130 08 9c cc 3d e0 3f 15 bd 83 ba 0f be 8d 7f 87 3d
       0.09990698 -0.03643787 -0.14035992 0.06616125
000140 0c 31 e7 3d ad f2 d2 3d d5 02 7a bd 5e 88 ae bd
       0.11288652 0.10300193 -0.061037857 -0.08522104
000150 41 12 cc bc c1 ee b3 3d 77 86 90 3d 50 63 6e bd
       -0.024911048 0.08785773 0.07056897 -0.05820018
000160 f4 ba ed 3d 43 95 99 3d c8 7c 1d 3d 8d 9e 98 bd
       0.11607924 0.074991725 0.03844908 -0.07452116
000170 0f 09 aa 3d a4 07 81 3d 20 8f b3 bd 65 5a 6f 3d
       0.08302509 0.063002855 -0.08767533 0.058435816
000180 77 23 54 bd 09 f0 f1 bd 49 8c 9d 3d 9b 41 a0 bd
       -0.051791634 -0.11813361 0.07692773 -0.07825013
000190 fa fe 84 bd 25 9e ca bd d8 82 97 3d 35 a2 ec bd
       -0.064939454 -0.09893445 0.07398003 -0.11554376
0001a0 18 c7 8a bd 5c a5 d6 3d 5c c1 c4 bc 23 8f a9 bd
       -0.06776255 0.104807585 -0.024017982 -0.08279254
0001b0 03 7c c4 bd bb b4 e2 3c 91 15 ab bc b4 4e bf bd
       -0.09593966 0.02767407 -0.020884307 -0.09341183
0001c0 fc 74 8c bd ff 20 93 b9 65 a0 8f bd 28 a7 f3 bc
       -0.068582505 -0.0002806261 -0.07013015 -0.029742792
0001d0 cd 8c 8e bd 77 58 c8 3d fc 63 c8 3d 86 44 3c bd
       -0.06960449 0.09782498 0.097846955 -0.045963787
0001e0 48 31 93 bc c4 19 24 3d a1 0e 91 3d 93 f4 84 bd
       -0.017967835 0.040063635 0.07082868 -0.06491961
0001f0 b9 62 bf bd 4d e8 de bd b8 0a f1 bd b4 9c 46 bd
       -0.09345002 -0.108841516 -0.117696226 -0.048489287
000200 a1 16 11 bd b8 d6 a8 bd 57 8a 96 3d ff 9a a5 bd
       -0.03542197 -0.08244079 0.07350605 -0.08086204
000210 62 7a d4 3d be cc da 3d cc a3 07 be 6f db 9b bd
       0.10374905 0.10683583 -0.13246077 -0.07610213
000220 d6 ef ac bd 70 d6 cb bd a3 f4 eb bd cf 89 f7 3d
       -0.084441826 -0.0995301 -0.1152127 0.12086832
000230 45 e5 02 bd 3f 93 79 3d 6c f3 df bd e1 74 66 bd
       -0.03195693 0.06093144 -0.10935101 -0.05626381
000240 49 3e f2 bd 93 33 1c 3c 70 35 bb bd e4 98 9c bd
       -0.11828286 0.009533781 -0.09141052 -0.07646349
000250 fb ba 80 bd 16 80 c8 bd 63 95 70 3d 60 56 51 bd
       -0.06285664 -0.097900555 0.058736216 -0.051107764
000260 d3 02 d3 3d fe f4 ec bd 15 5d d1 bd a6 f7 aa 3d
       0.10303273 -0.11570166 -0.10222832 0.083480164
000270 69 ec 6b bd fd bf fc bd 21 35 05 3d 4e 07 c3 3d
       -0.057598505 -0.12341306 0.03252137 0.09522878
000280 d4 9a 5e 3b 48 57 86 3d d1 4b 14 bd 32 91 f0 bd
       0.0033966796 0.06559616 -0.036205117 -0.11746444
000290 90 71 1f 3d 8f 48 af bd e3 31 b2 3d 55 c3 5f 3d
       0.03892666 -0.08558761 0.087009214 0.054629643
0002a0 b1 71 6f bd 37 78 52 3c 72 62 f0 3d cc 2c b4 bd
       -0.058458034 0.012846044 0.11737527 -0.08797607
0002b0 f3 76 6c 3d 6d 17 d5 bc 9b d0 d3 3d f2 f1 f0 bd
       0.057730626 -0.026012147 0.10342523 -0.117648974
0002c0 8b 69 d3 bc 57 14 08 3c 35 0c ec bd c5 9e d4 bd
       -0.025807163 0.008305631 -0.11525766 -0.103818454
0002d0 4c e8 fe bd 87 1c 83 bd 5d 9a 05 3d bd 7f ab 3d
       -0.12446651 -0.064019255 0.032617915 0.083739735
0002e0 dc 2e d2 3d 6b 17 fa bd 25 be 3b 3d 78 e9 00 3e
       0.10262844 -0.12211498 0.045835633 0.12589061
0002f0 d8 8a 75 bd 4a 34 a9 3d 3b c6 04 be 00 c8 9f 3d
       -0.059946865 0.082619265 -0.12966244 0.07801819
